afgcn_best.pth (torch, 267236 bytes, 7 tensors)

convs.0.lin_rel.weight f4 [128, 128]
-0.044294532 0.016967526 0.06561115 0.014212311 -0.03417261 0.074288554 0.027708493 -0.048693307
0.008544512 0.013057843 0.00550624 0.05995118 -0.07936753 0.0054796934 0.07915757 0.07682582
-0.007604584 -0.058288723 -0.070619315 0.05676865 0.015423894 0.06975561 0.034204125 0.050448336
0.0060428977 -0.015594006 0.059188195 0.03884647 -0.012076624 -0.017220244 -0.0150978565 -0.0615493
-0.079340026 -0.0074368715 0.07723945 0.024004318 0.01878313 0.020890914 0.040284015 -0.0388843
-0.02753263 0.08801589 0.021392815 0.0033881217 -0.002822563 -0.039995905 0.03440898 0.0711034
-0.040679254 0.08375963 0.063756 0.0703141 -0.04298143 0.013916582 -0.01844164 0.0049714968
0.08321469 0.028847434 -0.0856359 0.06564041 0.0865959 -0.0051023737 0.074926876 0.0037762
0.07804725 0.046739273 0.0060679317 0.012235612 -0.027413048 0.07560871 -0.054764118 -0.048329916
-0.0052809715 0.012289666 -0.008911319 0.08121335 -0.07621111 0.018758401 0.0012174025 0.025561549
-0.07960728 0.04220075 -0.03565754 -0.05990625 -0.07666391 0.022856459 -0.06397506 0.027468495
-0.019131318 -0.072634384 -0.064983 0.086715035 0.042801954 -0.015351988 0.018773481 -0.056596
0.023633711 0.02817893 -0.06910321 -0.05907412 0.055020355 -0.0092719495 -0.01723919 0.009266898
-0.07758793 0.080128364 0.018138431 -0.036156412 -0.062311985 0.026259921 -0.023827866 0.07675678
-0.03912083 0.087749355 0.035552233 -0.030872535 -0.037984025 -0.018698052 -0.022094019 0.023471102
-0.05368441 -0.05165486 -0.074422695 0.08771732 0.039393313 -0.06727903 -0.0075713545 0.036825113
0.055738952 -0.024028756 -0.06935113 -0.03338133 0.06419611 -0.020484716 -0.03357267 0.05922229
-0.06405178 -0.0058137923 -0.058316536 0.071165346 0.070629425 -0.019496903 0.0542685 0.0058204457
0.043445252 -0.06585343 0.010749944 -0.07210404 -0.034210153 0.03134878 0.02623593 -0.011757597
-0.016857632 0.08203428 0.025424242 0.06864629 0.07503287 -0.08003859 0.003038399 -0.028960153
0.07614409 -0.0047900304 0.081383 -0.05180345 0.04625734 -0.075616516 -0.011716574 -0.073368
-0.065228045 0.0073656216 -0.029817082 0.036202364 -0.08647493 0.057247363 0.053750955 -0.059711337
-0.008682996 0.014780574 0.039708547 -0.0015562624 -0.07357532 -0.002844572 -0.037432216 0.062783055
0.07085245 -0.041700922 -0.054767944 -0.028820656 0.057784982 0.050078668 0.080679886 -0.022187017
-0.08809686 -0.017801687 -0.02159904 0.04341539 -0.007854193 0.009959772 0.041205294 -0.048207596
0.015210494 -0.05454544 -0.069306485 -0.029003628 0.071359925 -0.0010648593 0.055979557 -0.002262503
-0.046726134 -0.028054029 0.000855647 -0.07160644 -0.06271827 -0.043462303 0.043570377 -0.011332527
0.064927064 0.07795941 -0.06738495 0.058257975 0.04460793 -0.029657662 -0.05392254 -0.052840505
0.04220117 0.026540786 0.050302036 -0.0040096417 -0.019977681 -0.07848605 0.01874356 -0.03320359
-0.071021035 0.068904124 -0.006866932 -0.009989232 -0.02331099 0.048683368 -0.05790309 0.061859153
0.02867452 -0.017558947 -0.038546402 0.030945294 -0.044700272 0.03902232 -0.00053304434 -0.046052713
0.06225384 -0.04351185 0.044405036 0.07056864 -0.07501122 -0.030135881 -0.061190575 0.03554465
00000000: 2f6e 35bd 7bff 8a3c 235f 863d c1da 683c
00000010: 94f8 0bbd 9924 983d ecfc e23c a272 47bd
00000020: 48fe 0b3c 90f0 553c b06d b43b 5e8f 753d
00000030: 728b a2bd 008f b33b 5d1d a23d db56 9d3d
00000040: e02f f9bb 28c0 6ebd dca0 90bd 3e86 683d
00000050: 80b4 7c3c 07dc 8e3d a019 0c3d eaa2 4e3d
00000060: 8003 c63b 007e 7fbc 526f 723d 7a1d 1f3d
00000070: 08dd 45bc 7811 8dbc 005d 77bc 1e1b 7cbd
00000080: 067d a2bd 00b1 f3bb b72f 9e3d b4a4 c43c
00000090: 14df 993c 6c23 ab3c da00 253d 2545 1fbd
000000a0: 1c8c e1bc ad41 b43d fc3f af3c 400b 5e3b
000000b0: c0fa 38bb bfd2 23bd 6ef0 0c3d a99e 913d
000000c0: 4a9f 26bd 2b8a ab3d 8192 823d d700 903d
000000d0: 4c0d 30bd 6002 643c ec12 97bc f0e7 a23b
000000e0: 776c aa3d 7451 ec3c e061 afbd 7b6e 863d
000000f0: 3159 b13d d031 a7bb 4373 993d 207a 773b
00000100: 3dd7 9f3d ae71 3f3d 80d5 c63b e077 483c
00000110: 5491 e0bc bdd8 9a3d 5750 60bd 97f5 45bd
00000120: 000c adbb 985a 493c c800 12bc 2f53 a63d
00000130: 9214 9cbd 38ab 993c 4091 9f3a 7466 d13c
00000140: 2409 a3bd b2da 2c3d a40d 12bd 4260 75bd
00000150: f801 9dbd 783d bb3c 5b05 83bd 9c05 e13c
00000160: 48b9 9cbc 56c1 94bd cf15 85bd a797 b13d
00000170: 1a51 2f3d e886 7bbc d8ca 993c 35d1 67bd
00000180: 7c9b c13c 80d7 e63c fc85 8dbd b4f7 71bd
00000190: 065d 613d 60e9 17bc 3439 8dbc 30d4 173c
000001a0: 6ce6 9ebd 571a a43d 0c97 943c bf18 14bd
000001b0: da3a 7fbd 0c1f d73c a832 c3bc a932 9d3d
000001c0: 2a3d 20bd efb5 b33d 389f 113d 66e8 fcbc
000001d0: 2395 1bbd a82c 99bc 84fe b4bc 7846 c03c
000001e0: 2fe4 5bbd 0c94 53bd ed6a 98bd 23a5 b33d
000001f0: e25a 213d 97c9 89bd 2019 f8bb eed5 163d
00000200: 874e 643d f4d7 c4bc f707 8ebd ddba 08bd
00000210: 4079 833d 90cf a7bc 7f83 09bd 1293 723d
00000220: 942d 83bd a081 bebb 52dd 6ebd 23bf 913d
00000230: 29a6 903d f8b7 9fbc a648 5e3d 70b9 be3b
00000240: a6f3 313d 2ade 86bd 8820 303c 48ab 93bd
00000250: f21f 0cbd 9467 003d bcec d63c f0a2 40bc
00000260: 0419 8abc 9701 a83d 8046 d03c 6d96 8c3d
00000270: d5aa 993d 46eb a3bd e01f 473b d83d edbc
00000280: 6ff1 9b3d b0f5 9cbb 21ac a63d db2f 54bd
00000290: 5678 3d3d d5dc 9abd e0f6 3fbc f641 96bd
000002a0: 4896 85bd 505b f13b f442 f4bc ee48 143d
000002b0: c519 b1bd 367c 6a3d f629 5c3d e093 74bd
000002c0: 2043 0ebc 382a 723c 6ea5 223d 80fb cbba
000002d0: a8ae 96bd 006c 3abb 8652 19bd 6794 803d
000002e0: 171b 913d 96ce 2abd 5a54 60bd 4c19 ecbc
000002f0: f2af 6c3d 4a1f 4d3d 7f3b a53d 8cc1 b5bc
00000300: 206c b4bd d8d4 91bc 78f0 b0bc 56d4 313d
00000310: e0ae 00bc 502e 233c e2c6 283d 5475 45bd
00000320: 7035 793c 0a6b 5fbd 8ff0 8dbd 0499 edbc
00000330: 2725 923d c092 8bba d24a 653d 8046 14bb
00000340: e763 3fbd 90d1 e5bc 804d 603a 66a6 92bd
00000350: 7072 80bd 8705 32bd da76 323d 10ac 39bc
00000360: 7bf8 843d 2fa9 9f3d 1f01 8abd ea9f 6e3d
00000370: ceb6 363d a0f4 f2bc e2dd 5cbd 496f 58bd
00000380: 22db 2c3d 106c d93c 8209 4e3d 5063 83bb
00000390: 3ca8 a3bc 4bbd a0bd 188c 993c 7d00 08bd
000003a0: 7a73 91bd 9b1d 8d3d 0004 e1bb e0a9 23bc
000003b0: b0f6 bebc 3668 473d ca2b 6dbd 0660 7d3d
000003c0: d4e6 ea3c c8d7 8fbc d5e2 1dbd fc80 fd3c
000003d0: a217 37bd ded5 1f3d 00bc 0bba c5a1 3cbd
000003e0: e2fd 7e3d 7b39 32bd 0ee2 353d 4b86 903d
000003f0: 7c9f 99bd 86df f6bc f8a2 7abd 4497 113d

convs.0.lin_rel.bias f4 [128]
7.6266e-05 0.015405946 0.012301268 -0.09154109 0.017938858 -0.11382895 0.092171825 -0.013416827
-0.016696593 -0.05696838 0.09689992 -0.0053674853 0.1706004 0.01991868 0.1026875 -0.06259843
0.06710615 -0.0150056565 0.024920255 -0.015042914 -0.013262409 -0.11383349 -0.109179944 0.051484216
0.11763018 -0.008199266 0.08839479 0.026334304 -0.04229374 0.028308824 0.06658427 -0.10951295
0.0043860143 0.10209531 0.066619046 -0.008744795 0.01819428 0.00827203 -0.006828718 0.13788638
0.047025945 0.10011913 0.15091935 -0.08454185 0.055042032 0.022145875 0.00082684064 -0.0023388583
0.039563037 0.03857098 -0.08718454 0.02992764 0.12435337 -0.042254385 0.0006998372 0.12655157
0.014908578 0.08988567 0.05186893 0.031694762 0.059223562 0.09182232 -0.09099818 -0.010968917
-0.099748276 -0.025871616 0.15891255 -0.05805882 0.045261703 0.0015444596 -0.06584122 0.06514955
0.13500461 -0.056014717 -0.03056028 0.11722844 0.028344283 0.060613163 0.08037666 0.0029678158
-0.08616699 -0.0072655138 -0.055279 0.087577716 0.12548679 -0.007708875 -0.029460834 -0.06414588
0.08529836 0.106149495 0.1167933 0.1359513 0.13859409 0.04029103 0.062394932 0.0867504
0.07641094 0.022807019 0.14403255 -0.06899344 0.036956415 -0.017151367 0.056140274 0.09017115
-0.016394898 0.108479254 -0.0044855606 0.11438414 0.07359904 0.07406941 -0.092899665 0.08328293
0.13080119 0.07557734 -0.013091607 0.080885746 0.0044893934 0.05752581 0.11507128 -0.009941049
-0.011384872 0.008819998 0.021051144 0.078328304 0.07883301 0.08307207 -0.008741759 -0.073784344
00000000: fff0 9f38 3969 7c3c 428b 493c e579 bbbd
00000010: 83f4 923c 271f e9bd 95c4 bc3d 40d2 5bbc
00000020: 4bc7 88bc ad57 69bd 7773 c63d bbe1 afbb
00000030: dfb1 2e3e 802c a33c d34d d23d 9b33 80bd
00000040: f36e 893d 49da 75bc 9025 cc3c 8e76 76bc
00000050: 934a 59bc 8821 e9bd bc99 dfbd 1de1 523d
00000060: 18e8 f03d 3756 06bc 5408 b53d 0abb d73c
00000070: 333c 2dbd e8e7 e73c 555d 883d 5348 e0bd
00000080: 8eb8 8f3b 5917 d13d 916f 883d 5446 0fbc
00000090: 2c0c 953c 6987 073c 70c3 dfbb 1632 0d3e
000000a0: 479e 403d 420b cd3d 9a8a 1a3e 4724 adbd
000000b0: c173 613d 446b b53c 56c0 583a 8847 19bb
000000c0: da0c 223d 9bfc 1d3d cf8d b2bd cf2a f53c
000000d0: fbac fe3d ef12 2dbd 4875 373a bc96 013e
000000e0: 1c43 743c fa15 b83d 8474 543d 5ed2 013d
000000f0: 6894 723d 570d bc3d 415d babd f9b6 33bc
00000100: d348 ccbd b6f0 d3bc f9b9 223e 16cf 6dbd
00000110: 5664 393d 776f ca3a c3d7 86bd 216d 853d
00000120: a63e 0a3e b06f 65bd 8d59 fabc 7715 f03d
00000130: 4532 e83c 8245 783d 859c a43d b07f 423b
00000140: 5278 b0bd 8c13 eebb 3c6c 62bd f25b b33d
00000150: 9c7f 003e bb9a fcbb d957 f1bc ea5e 83bd
00000160: e8b0 ae3d e864 d93d 5331 ef3d d136 0b3e
00000170: 9ceb 0d3e 3508 253d d491 7f3d 32aa b13d
00000180: 577d 9c3d c9d5 ba3c 457d 133e 6f4c 8dbd
00000190: 9c5f 173d 0681 8cbc 58f3 653d a7ab b83d
000001a0: 984e 86bc 5f2a de3d 9cfb 92bb 3b42 ea3d
000001b0: 18bb 963d b4b1 973d 2e42 bebd 3e90 aa3d
000001c0: bff0 053e 4bc8 9a3d 2e7e 56bc 6da7 a53d
000001d0: c31b 933b 2fa0 6b3d 7eaa eb3d c8df 22bc
000001e0: 9d87 3abc c181 103c 7373 ac3c 976a a03d
000001f0: 3373 a13d b021 aa3d 9839 0fbc 3f1c 97bd

convs.0.lin_root.weight f4 [128, 128]
-0.031489212 -0.016178606 -0.00096143555 -0.07881023 -0.096346214 -0.036059882 -0.21579917 0.06832012
0.0020170882 0.07142908 0.0068834126 -0.039740875 0.047513746 0.030166194 -0.07095392 0.05452218
-0.007385142 -0.050280273 -0.008968554 0.078855805 -0.012063384 0.014055334 0.02160082 -0.08215578
-0.042303927 0.016750224 0.07827517 -0.057027057 0.032765225 0.028775454 0.03889338 0.078362755
-0.0071509182 0.01422824 -0.035021693 0.03239453 -0.066596225 -0.008491598 -0.057850502 -0.004270278
0.030484274 0.031045154 -0.03209509 -0.04193917 -0.081563465 0.085370116 -0.06634134 0.0835677
-0.058513574 0.047801368 -0.04398074 0.0347552 -0.030460294 0.035570383 0.0021790862 0.070239685
0.062201716 0.0693619 -0.027596198 -0.017920189 0.055161737 0.06307969 0.070286326 0.0443253
-0.0031588525 -0.019878022 -0.08522431 0.06348542 0.0010766312 -0.04788181 0.059646256 -0.03802139
-0.050528802 0.048517354 -0.086773425 0.039790027 0.03431671 0.0031783879 0.0014284626 -0.043276466
0.03334081 0.004376374 -0.087322176 -0.038664896 -0.048467528 -0.044742715 -0.080690384 -0.02091293
0.07041118 0.07189181 0.019559406 0.078694575 -0.046001136 -0.059977397 0.027122572 0.039265968
0.07144848 0.056823216 -0.054045133 -0.057838194 -0.036996912 -0.052375678 0.061017297 0.021072209
0.0148351565 0.014866754 0.04544341 0.008183062 0.056238644 -0.026848111 -0.015802763 0.009547681
0.0031321645 -0.016885199 0.066758804 -0.023430884 0.07003892 -0.026970401 -0.0031833202 0.057527862
0.062183224 -0.062595405 0.044740386 0.07524552 0.040643223 0.009380676 0.0011248887 -0.040282883
-0.09338557 0.03441738 0.019890519 -5.9720947e-05 -0.0031801239 -0.012404554 0.18609016 0.018967956
0.007497683 -0.04754137 -0.014374733 0.04456278 0.027153336 -0.08725908 0.039877497 0.04126183
0.0018467978 -0.036444884 0.025986142 -0.082521856 0.036441408 0.01175864 -0.07997928 -0.023465313
-0.03150439 0.082189254 -0.07120524 0.014857374 0.012949057 0.03836798 0.02713056 -0.05834779
-0.006024964 -0.07301861 0.053755753 0.02004522 0.028193533 -0.03843648 0.038293235 -0.022263363
0.050800286 0.06355103 0.03044723 -0.0036668628 -0.06701781 0.026731364 0.058306627 -0.02741154
-0.030155744 0.059733488 0.08364799 0.0421407 -0.08243141 0.019190893 0.022321224 -0.03550795
-0.045669217 0.07256428 0.060616054 -0.06569894 0.0070319623 -0.07389905 -0.07458504 -0.039924443
-0.010446414 -0.04334363 0.085414745 0.03268622 -0.0065664575 0.03542138 0.0523734 0.052885137
-0.020641863 -0.033644956 0.07466326 0.08311496 -0.07004076 -0.058660828 -0.04325613 -0.012290746
0.08491961 -0.004696369 -0.0074526444 0.04209914 -0.056742057 -0.023402236 0.037452437 -0.0828381
0.011729181 -0.050920557 -0.007867299 -0.045745693 -0.0024836212 0.06426712 0.070339985 -0.06620606
-0.019069701 0.06381499 -0.04913508 -0.022292688 0.00013656914 0.03857688 -0.046283614 -0.054882243
-0.08025024 0.0589185 0.025476336 0.049353667 0.07796844 0.0024342462 -0.08811829 0.06446055
0.07880173 0.023741826 0.07841859 -0.058356557 -0.0812078 -0.05675467 0.034690827 -0.012020387
0.047152184 -0.033364635 0.0060400367 -0.05194635 -0.00539881 0.01816836 0.044483 -0.075585745
00000000: d5fa 00bd ff88 84bc d908 7cba 4267 a1bd
00000010: 2a51 c5bd 87b3 13bd 75fa 5cbe 6beb 8b3d
00000020: 2031 043b 6949 923d 408e e13b 54c7 22bd
00000030: c69d 423d 181f f73c 4a50 91bd a652 5f3d
00000040: 10ff f1bb b0f2 4dbd d8f0 12bc 277f a13d
00000050: 80a5 45bc 5848 663c 34f4 b03c 4a41 a8bd
00000060: e246 2dbd c437 893c bb4e a03d 3495 69bd
00000070: d434 063d 80ba eb3c aa4e 1f3d a77c a03d
00000080: 4052 eabb 901d 693c e872 0fbd 20b0 043d
00000090: 9a63 88bd 5820 0bbc a6f4 6cbd b0ed 8bbb
000000a0: 28ba f93c 6852 fe3c 2476 03bd 68c8 2bbd
000000b0: bf0a a7bd 87d6 ae3d f8dd 87bd 8b25 ab3d
000000c0: eeab 6fbd 5ecb 433d 2625 34bd 785b 0e3d
000000d0: de87 f9bc 40b2 113d 00cf 0e3b d3d9 8f3d
000000e0: 3ac7 7e3d 9d0d 8e3d 6c11 e2bc 5ccd 92bc
000000f0: 46f1 613d ed2f 813d 47f2 8f3d 728e 353d
00000100: c004 4fbb 3cd7 a2bc 158a aebd a504 823d
00000110: c01d 8d3a b81f 44bd a24f 743d 51bc 1bbd
00000120: 4af7 4ebd 22ba 463d 44b6 b1bd defa 223d
00000130: ae8f 0c3d 804c 503b 403b bb3a aa42 31bd
00000140: 6090 083d b067 8f3b f8d5 b2bd 155f 1ebd
00000150: e385 46bd 2344 37bd 0041 a5bd 9851 abbc
00000160: bd33 903d 033c 933d 0c3b a03c 9f2a a13d
00000170: b06b 3cbd dcaa 75bd 2830 de3c 5ad5 203d
00000180: 9553 923d 76bf 683d 6e5e 5dbd bee7 6cbd
00000190: 138a 17bd e187 56bd 46ed 793d a09f ac3c
000001a0: 280f 733c b093 733c de22 3a3d 4012 063c
000001b0: 7e5a 663d 92f0 dbbc cc74 81bc e06d 1c3c
000001c0: 0045 4d3b d452 8abc d7b8 883d 20f2 bfbc
000001d0: 9170 8f3d 08f1 dcbc 409f 50bb 56a2 6b3d
000001e0: d6b3 7e3d 0532 80bd b241 373d 531a 9a3d
000001f0: 8279 263d 68b1 193c 0071 933a aaff 24bd
00000200: ef40 bfbd 3df9 0c3d 71f1 a23c e17c 7ab8
00000210: a069 50bb 783c 4bbc 6b8e 3e3e b062 9b3c
00000220: 20af f53b bdba 42bd 0084 6bbc 7687 363d
00000230: ac70 de3c e3b4 b2bd 9656 233d 2a02 293d
00000240: 4010 f23a 3b47 15bd e4e0 d43c 3801 a9bd
00000250: 9643 153d 50a7 403c 2dcc a3bd 543a c0bc
00000260: bf0a 01bd d752 a83d 0ed4 91bd 586c 733c
00000270: 4828 543c be27 1d3d e840 de3c 18fe 6ebd
00000280: 106d c5bb c88a 95bd fe2e 5c3d e035 a43c
00000290: 20f6 e63c 926f 1dbd 5ed9 1c3d a861 b6bc
000002a0: f613 503d 0b27 823d 786c f93c c04f 70bb
000002b0: a240 89bd bcfb da3c eed2 6e3d 2a8e e0bc
000002c0: 2e09 f7bc 1aab 743d a34f ab3d ba9b 2c3d
000002d0: cdd1 a8bd 3836 9d3c 00db b63c c970 11bd
000002e0: a50f 3bbd 959c 943d 8a48 783d 2a8d 86bd
000002f0: 606c e63b 6358 97bd 0bc0 98bd d087 23bd
00000300: 7027 2bbc 1789 31bd eded ae3d fce1 053d
00000310: 702b d7bb 0216 113d 7e85 563d 169e 583d
00000320: 2019 a9bc 4bcf 09bd 0de9 983d 2d38 aa3d
00000330: 8871 8fbd 5646 70bd 572d 31bd 205f 49bc
00000340: 55ea ad3d 00e4 99bb 5035 f4bb 2670 2c3d
00000350: 5c6a 68bd 0cb6 bfbc ba67 193d 06a7 a9bd
00000360: c02b 403c 1392 50bd d8e5 00bc d65f 3bbd
00000370: 40c4 22bb 7b9e 833d 690e 903d 0b97 87bd
00000380: 1038 9cbc 6fb1 823d de41 49bd 289f b6bc
00000390: 0034 0f39 ca02 1e3d e393 3dbd 34cc 60bd
000003a0: 3d5a a4bd 8654 713d c0b3 d03c 1227 4a3d
000003b0: ebad 9f3d e087 1f3b 5d77 b4bd e503 843d
000003c0: cd62 a13d 387e c23c ed99 a03d 4907 6fbd
000003d0: 4650 a6bd 9677 68bd f817 0e3d 28f1 44bc
000003e0: a622 413d 5ba9 08bd 80eb c53b b2c5 54bd
000003f0: 80e8 b0bb d0d5 943c ce33 363d b3cc 9abd

convs.1.lin_rel.weight f4 [128, 128]
-0.027166836 0.081612475 0.06246135 -0.09414804 0.033338573 0.06268044 0.11999985 0.050591152
0.048499614 -0.023473473 0.015852943 0.01026509 0.0071123075 0.060970947 -0.09280353 -0.015060631
0.08470695 -0.07807478 -0.06768092 0.027100755 0.008353543 -0.07651338 -0.057613686 -0.01588983
0.024695508 0.10346574 0.11823837 0.07564723 0.09849472 -0.0021099527 -0.06586519 -0.030831162
0.018244667 -0.0682014 0.0839336 0.08731733 0.06746451 -0.04252158 0.11807373 0.06396917
0.076823205 0.09033514 0.017883327 -0.08497379 -0.032837126 -0.059755534 0.044058666 0.024433572
0.02359404 -0.03341605 0.059478898 -0.0010907225 -0.014221087 -0.026482757 0.011222325 -0.007131925
0.04013751 0.04423265 0.08875622 -0.05786937 0.05905491 -0.09241945 -0.038997706 -0.10504108
-0.053737354 0.045767814 -0.05874553 -0.011745115 0.07301836 0.05721302 -0.01387765 0.019443793
-0.040638965 -0.10918044 0.07048237 -0.025730724 0.078013666 0.028372495 0.03958533 0.0013291303
-0.057179388 -0.021311866 0.103004776 0.05596217 0.032626085 -0.07632342 -0.05521121 0.035356633
0.00933199 -0.0069342824 -0.07016781 0.04367385 0.092969134 0.057692148 0.083527006 -0.020018887
-0.044487726 -0.05231363 -0.0156721 0.02929973 -0.021449406 0.0005305214 -0.0013904683 -0.006096833
0.097154826 0.01862307 0.0713431 -0.0103572365 0.036817245 -0.0012399434 -0.06145565 -0.0131256385
0.0052493103 0.0020658344 -0.07596556 0.028430505 -0.043924697 0.0304618 0.09823669 0.02289439
0.009244971 0.059644822 -0.03457587 -0.046796452 -0.013730033 0.107780956 -0.026204282 -0.04155705
0.07106687 0.043206193 -0.018429188 0.019441646 -0.03608624 -0.054652456 -0.019008633 0.04509637
-0.06584446 -0.06263577 -0.018725237 -0.003619377 -0.07055934 -0.08380821 0.04875632 -0.052453667
0.00893032 0.01737636 0.070332944 0.057293523 0.03667488 0.056321222 0.09524412 0.020709984
0.051545616 0.00396324 -0.06477721 -0.065386906 0.055612598 -0.106097445 -0.015297519 -0.046892807
0.039946932 0.03735025 -0.046411417 0.012887879 0.04545125 0.046178754 0.016748756 0.060944878
0.0059665567 -0.08146985 -0.08589778 0.003615297 -0.033480242 0.118804984 0.04519757 -0.011908751
0.04046163 -0.07492136 -0.10458755 0.00094101124 0.04166776 -0.030355114 -0.045229618 -0.102827065
-0.016320234 0.037450403 -0.09054218 0.034121465 -0.082477614 0.021011291 0.040889714 -0.06993093
-0.012582976 0.052448444 -0.0012969258 0.00576918 -0.033384465 -0.012554623 -0.017475493 0.047480177
-0.078158036 0.018235153 0.024550054 -0.1005603 -0.00737764 0.049105275 -0.031105286 0.0016967783
-0.035775688 -0.055761702 0.02669561 -0.030741826 0.058377083 -0.008906708 -0.012713728 0.05398835
0.030995158 0.00033308822 0.05626446 0.071588725 0.031263016 -0.046596784 0.08776981 0.04357549
-0.072854295 -0.065697685 -0.034963332 0.07380728 0.03756108 -0.029651577 0.043710712 -0.094877996
-0.053707767 0.038167138 0.05267598 0.07013219 -0.033012915 0.01871896 0.039674647 -0.05045487
-0.012919941 -0.037286807 -0.037466224 -0.089484155 -0.08723559 -0.020883732 -0.020471368 -0.0123918485
0.047189947 -0.09767915 -0.052758597 -0.09173265 -0.027427502 -0.025680624 0.05943233 0.043212567
00000000: fc8c debc 7124 a73d 79d7 7f3d b0d0 c0bd
00000010: 078e 083d 9a5e 803d 7bc2 f53d ab38 4f3d
00000020: 88a7 463d 714b c0bc 08de 813c e82e 283c
00000030: 5c0e e93b acbc 793d c70f bebd ddc0 76bc
00000040: d67a ad3d ace5 9fbd 4b9c 8abd 6702 de3c
00000050: 4cdd 083c 0cb3 9cbd 54fc 6bbd 642b 82bc
00000060: 3c4e ca3c d9e5 d33d f526 f23d efec 9a3d
00000070: 9ab7 c93d 2247 0abb 54e4 86bd a291 fcbc
00000080: d775 953c 2dad 8bbd 61e5 ab3d 6ed3 b23d
00000090: d52a 8a3d 1c2b 2ebd a4d0 f13d 4502 833d
000000a0: 7c55 9d3d a101 b93d 0e80 923c bd06 aebd
000000b0: 3980 06bd 38c2 74bd dc76 343d ea28 c83c
000000c0: 4a48 c13c 45df 08bd 25a0 733d 93f6 8eba
000000d0: 90ff 68bc 5ef2 d8bc d8dd 373c ecb2 e9bb
000000e0: 3b67 243d 4c2d 353d d2c5 b53d 6f08 6dbd
000000f0: 90e3 713d 6946 bdbd 0fbc 1fbd c71f d7bd
00000100: b31b 5cbd 0877 3b3d 279f 70bd 956e 40bc
00000110: a68a 953d 3358 6a3d 155f 63bc 9748 9f3c
00000120: 0b75 26bd ff99 dfbd 1059 903d 3dc9 d2bc
00000130: a1c5 9f3d 6f6d e83c 3a24 223d 3636 ae3a
00000140: ef34 6abd 3996 aebc 2bf4 d23d 9738 653d
00000150: eea2 053d 744f 9cbd 2625 62bd 1ed2 103d
00000160: 34e5 183c fa38 e3bb 24b4 8fbd 5ae3 323d
00000170: 9a66 be3d 9a4e 6c3d 3510 ab3d a6fe a3bc
00000180: c338 36bd d146 56bd c762 80bc fd05 f03c
00000190: aab6 afbc b012 0b3a 6040 b6ba f1c7 c7bb
000001a0: 1cf9 c63d 698f 983c 551c 923d 66b1 29bc
000001b0: aecd 163d 9985 a2ba ebb8 7bbd eb0c 57bc
000001c0: 6802 ac3b f362 073b d593 9bbd 17e7 e83c
000001d0: 62ea 33bd 068b f93c 5130 c93d 048d bb3c
000001e0: 3878 173c 214e 743d 6d9f 0dbd a3ad 3fbd
000001f0: eff3 60bc 43bc dc3d 5daa d6bc ba37 2abd
00000200: 828b 913d faf8 303d cff8 96bc 1644 9f3c
00000210: 2acf 13bd 41db 5fbd feb7 9bbc f9b6 383d
00000220: 76d9 86bd 2f47 80bd ab65 99bc 1233 6dbb
00000230: 6a81 90bd a4a3 abbd b5b4 473d a8d9 56bd
00000240: 7a50 123c de58 8e3c b80a 903d 9dac 6a3d
00000250: 6638 163d 15b1 663d 590f c33d fca7 a93c
00000260: 7f21 533d 11de 813b eaa9 84bd 92e9 85bd
00000270: 09ca 633d 9e49 d9bd 72a2 7abc ac12 40bd
00000280: 659f 233d 93fc 183d e619 3ebd af27 533c
00000290: 172b 3a3d ef25 3d3d b034 893c 56a1 793d
000002a0: 1b83 c33b aad9 a6bd 2deb afbd 9eee 6c3b
000002b0: 9422 09bd 0750 f33d 1621 393d ec1c 43bc
000002c0: 18bb 253d 5f70 99bd ff31 d6bd 32ae 763a
000002d0: d0ab 2a3d 4aab f8bc b142 39bd ff96 d2bd
000002e0: 03b2 85bc 9865 193d 2e6e b9bd f3c2 0b3d
000002f0: 06ea a8bd df1f ac3c f97b 273d f337 8fbd
00000300: d428 4ebc 2ed4 563d 9cfd a9ba 640b bd3b
00000310: 26be 08bd e8b1 4dbc c428 8fbc 937a 423d
00000320: 5211 a0bd e361 953c 321d c93c 8ff2 cdbd
00000330: 21c0 f1bb 9d22 493d 83d0 febc 6f66 de3a
00000340: 8789 12bd 6266 64bd c0b0 da3c 48d6 fbbc
00000350: cf1c 6f3d 71ed 11bc 3d4d 50bc e322 5d3d
00000360: 8fe9 fd3c 58a2 ae39 9075 663d 1c9d 923d
00000370: a60d 003d 45dc 3ebd a8c0 b33d 377c 323d
00000380: a234 95bd 828c 86bd b635 0fbd 4528 973d
00000390: a6d9 193d dde7 f2bc 010a 333d 654f c2bd
000003a0: adfc 5bbd 2555 1c3d c5c2 573d 77a1 8f3d
000003b0: 8d38 07bd 8158 993c e281 223d c4a9 4ebd
000003c0: 29ae 53bc 0dba 18bd 2f76 19bd 7843 b7bd
000003d0: 93a8 b2bd 5c14 abbc 92b3 a7bc 2e07 4bbc
000003e0: 3f4a 413d 020c c8bd 6619 58bd 54de bbbd
000003f0: a4af e0bc 2c60 d2bc 516f 733d a9ff 303d

convs.1.lin_rel.bias f4 [128]
-0.05566157 0.1880584 0.06864356 -0.06604538 -0.10512437 0.027375447 0.13839635 -0.08698775
-0.120470256 0.19432555 0.02310179 -0.059838865 -0.10710133 0.13864064 -0.012839508 0.19447358
-0.08193899 -0.027083125 -0.059583478 0.06433733 0.010703771 0.087252 -0.018636238 0.1925737
-0.06457008 -0.08503237 0.01041266 0.02598131 0.16434322 0.16161467 0.08976783 0.0016906738
0.13632548 -0.09472643 0.18775554 0.054806195 0.098451 -0.07705368 -0.028557792 -0.034407098
0.13775441 -0.019963827 -0.033188853 -0.10685608 0.07622917 0.14835447 -0.030364756 0.09379525
-0.062361293 0.054889362 0.009371745 0.16741425 -0.04642431 -0.10547882 0.11017785 0.07479199
-0.087439366 0.13869703 0.007641782 0.14954942 0.13222118 -0.07444904 0.067572124 0.013709253
0.008280792 -0.086844146 0.084906414 0.036286626 0.11774957 -0.05576987 0.13320123 0.009448883
0.11895287 0.049527414 0.18957679 0.11777151 0.085054755 0.16087921 0.08174861 -0.039290786
-0.025517661 -0.03811346 -0.03976376 -0.100393064 -0.07710117 -0.07816771 -0.11629347 -0.06474765
0.07177725 0.09367477 -0.10072696 0.047459166 -0.03162664 0.08379146 0.045593753 0.105422385
0.086037025 0.1192332 -0.043245163 0.023018772 0.095320694 0.08867364 -0.07778206 0.066530794
0.11630361 0.17206697 0.044385392 0.10955777 -0.09239974 -0.0754125 -0.02072671 -0.01926516
-0.08174477 0.07468717 -0.013583405 0.12857202 0.20211774 -0.1067955 -0.09815041 0.16961527
0.040850252 0.06517891 0.15165727 -0.022486577 0.11024862 -0.012959129 0.16744411 0.15172398
00000000: 63fd 63bd 6292 403e ff94 8c3d cd42 87bd
00000010: 724b d7bd 7942 e03c c6b7 0d3e a226 b2bd
00000020: 1cb9 f6bd 47fd 463e f73f bd3c 9919 75bd
00000030: f157 dbbd d0f7 0d3e cd5c 52bc 1524 473e
00000040: a1cf a7bd 6edd ddbc ce0d 74bd 4ac3 833d
00000050: df5e 2f3c 2db1 b23d 06ab 98bc 0a32 453e
00000060: 513d 84bd 7425 aebd dd99 2a3c c2d6 d43c
00000070: 9749 283e 517e 253e 32d8 b73d 9999 dd3a
00000080: e898 0b3e eeff c1bd fd42 403e 767c 603d
00000090: aea0 c93d 52ce 9dbd 08f2 e9bc 75ee 0cbd
000000a0: 7e0f 0d3e 2e8b a3bc 09f1 07bd 5cd7 dabd
000000b0: 0a1e 9c3d 3cea 173e 82bf f8bc b917 c03d
000000c0: 8e6e 7fbd abd3 603d f38b 193c a46e 2b3e
000000d0: 6b27 3ebd 4805 d8bd eda4 e13d 8b2c 993d
000000e0: 6913 b3bd 9806 0e3e ea67 fa3b 7c23 193e
000000f0: fd64 073e bd78 98bd 4163 8a3d c69c 603c
00000100: 29ac 073c 58db b1bd 6ae3 ad3d 49a1 143d
00000110: b026 f13d f26e 64bd e765 083e 7dcf 1a3c
00000120: 909d f33d 42dd 4a3d 6b20 423e 3032 f13d
00000130: 3031 ae3d 85bd 243e d16b a73d 60ef 20bd
00000140: 6a0a d1bc dc1c 1cbd 53df 22bd e19a cdbd
00000150: 38e7 9dbd 6416 a0bd 452b eebd 6a9a 84bd
00000160: f3ff 923d 8fd8 bf3d f049 cebd 8b64 423d
00000170: f08a 01bd db9a ab3d 84c0 3a3d b1e7 d73d
00000180: 2e34 b03d 8930 f43d d721 31bd dd91 bc3c
00000190: 7f37 c33d 869a b53d 334c 9fbd 4c41 883d
000001a0: 9630 ee3d 5332 303e 75cd 353d d35f e03d
000001b0: 133c bdbd de71 9abd 10cb a9bc f8d1 9dbc
000001c0: cd69 a7bd 96f5 983d ee8c 5ebc 62a8 033e
000001d0: f4f7 4e3e 99b7 dabd 1503 c9bd a0af 2d3e
000001e0: 9852 273d 857c 853d 0b4c 1b3e c535 b8bc
000001f0: 07ca e13d 8752 54bc 7876 2b3e 885d 1b3e

convs.1.lin_root.weight f4 [128, 128]
-0.045021653 -0.03792782 0.0024337946 0.050493192 -0.0686481 -0.011355093 -0.17146239 -0.038971864
-0.06882551 -0.04735126 -0.058634695 -0.016507119 -0.0992112 0.06317882 0.056238443 0.0034489771
-0.053787004 0.15737511 0.05602772 0.021630958 -0.04689844 -0.020606682 0.14834227 -0.03323248
-0.09645001 -0.06316859 -0.08356018 0.015111 -0.036131192 -0.102868736 -0.052297924 -0.058502194
0.100781776 -0.07231072 0.05898186 0.03939125 0.07985302 -0.08695872 0.02432717 -0.030334499
-0.03705799 -0.059938446 0.045479815 0.044691946 -0.0203882 -0.057290442 0.012833275 0.01843161
0.009673377 0.044385206 0.053386062 -0.06627955 0.033428725 0.092173256 -0.008740322 -0.056743186
0.06718086 0.10169132 -0.06340225 0.06457422 0.0424718 0.1430373 -0.015476893 0.18137735
0.06585356 -0.0758558 -0.117504574 -0.059877623 0.07817508 0.007574626 0.09455845 0.015515954
-0.1055715 0.045615792 -0.038889024 -0.09661969 -0.10580569 0.025198745 0.08178674 0.067508176
0.040724795 0.030758241 -0.024109336 -0.12613368 0.026702655 -0.053123407 0.089385584 0.08797184
0.003967936 -0.100710854 -0.052452352 -0.074714996 -0.15730242 -0.06505381 -0.005028271 -0.03600395
0.040107045 0.010441113 -0.10451651 0.07233093 0.10460717 0.013734263 0.011308436 -0.079538636
0.02404598 -0.024876159 -0.028513158 0.006610095 -0.0385048 -0.029081583 0.0462868 0.0016096961
-0.0061502447 0.0016241099 0.15464655 -0.03148548 -0.10413107 0.029494166 -0.020632673 0.0007795501
0.05703252 0.050936148 0.15304238 -0.0002841513 -0.053507477 -0.001816833 -0.007066512 0.013553942
-0.14005151 -0.016069515 0.0054920902 0.052482348 -0.0039011266 0.062460933 0.16758928 0.012264656
0.01903282 -0.026385648 0.11373406 0.010765401 0.07134897 0.01465318 0.10016857 0.019424135
0.09326508 -0.25539994 -0.04037913 -0.02204236 0.0032870665 -0.009247442 -0.046087142 -0.05714192
-0.0015145143 0.07475333 0.15592346 -0.05386784 0.06636803 0.122859955 0.054678034 0.09908705
0.00022528818 -0.015954122 0.043296557 0.041465003 -0.04612044 0.08743635 0.018398859 0.055227123
0.11270019 0.15930574 0.13977106 0.034975458 0.09258389 -0.024481893 -0.029512396 -0.047088277
-0.057608988 -0.07469408 -0.05987208 0.053077202 0.083664864 -0.024274377 -0.011850706 0.08084778
0.12811032 -0.095368996 0.10226513 0.035217687 0.13586926 0.012363268 -0.0007446015 -0.019673921
-0.0012710602 -0.05772492 -0.010043938 -0.11011828 0.13158222 0.0062142606 0.01514439 0.06769011
0.15321423 0.05772904 0.03616368 -0.010606301 0.004348482 -0.008681414 -0.0100641595 0.01457868
-0.08334769 0.100040264 0.08632603 0.071255036 0.051141977 -0.027264562 -0.009574652 0.035821673
0.08916417 0.0474698 0.03291278 0.12008816 0.15803133 -0.016109183 0.027625576 0.047022965
0.09525674 0.13052449 -0.014542485 -0.1182183 -0.0844737 0.08285798 0.020750552 0.017713146
0.0014630893 0.016669787 -0.03257861 0.061759267 0.08865869 0.06791289 -0.08978395 0.029326394
0.120106734 -0.006505884 -0.23616916 0.10413835 -0.0034304138 0.10600737 0.06211646 -0.035565816
-0.01844212 0.14983827 -0.05838638 0.06011854 -0.05022432 0.12022343 -0.1015604 -0.041320913
00000000: a068 38bd 345a 1bbd 4c80 1f3b f3d1 4e3d
00000010: 6097 8cbd b60a 3abc d693 2fbe f6a0 1fbd
00000020: 64f4 8cbd 65f3 41bd ef2a 70bd f039 87bc
00000030: 3e2f cbbd e663 813d 485a 663d 3c08 623b
00000040: c34f 5cbd f126 213e 537d 653d 6833 b13c
00000050: 9418 40bd 58cf a8bc 09e7 173e c81e 08bd
00000060: 9587 c5bd 895e 81bd 9a21 abbd 2194 773c
00000070: 4dfe 13bd d8ac d2bd 5936 56bd ff9f 6fbd
00000080: ad66 ce3d a517 94bd f696 713d b858 213d
00000090: fb89 a33d 6a17 b2bd c649 c73c 0e80 f8bc
000000a0: 1eca 17bd 0482 75bd 0b49 3a3d e70e 373d
000000b0: 2805 a7bc 62a9 6abd a842 523c e3fd 963c
000000c0: 157d 1e3c 43cd 353d 58ab 5a3d 93bd 87bd
000000d0: 8fec 083d 55c5 bc3d 9133 0fbc 8b6b 68bd
000000e0: 1e96 893d 8a43 d03d 0ad9 81bd 7d3f 843d
000000f0: e9f6 2d3d 5f78 123e cb92 7dbc fcba 393e
00000100: 3bde 863d 495a 9bbd 3da6 f0bd 3d42 75bd
00000110: 421a a03d 9134 f83b dca7 c13d a136 7e3c
00000120: df35 d8bd a0d7 3a3d 194a 1fbd 8be0 c5bd
00000130: a7b0 d8bd 996d ce3c ce7f a73d ba41 8a3d
00000140: 0bcf 263d b5f8 fb3c f180 c5bc 3029 01be
00000150: 87bf da3c ee97 59bd ca0f b73d 942a b43d
00000160: 7605 823b 7e41 cebd 47d8 56bd 2d04 99bd
00000170: e313 21be ef3a 85bd 32c4 a4bb e178 13bd
00000180: 4947 243d 3411 2b3c c10c d6bd 3d22 943d
00000190: 493c d63d ad05 613c 0547 393c 27e5 a2bd
000001a0: 13fc c43c 16c9 cbbc 6d94 e9bc 7f99 d83b
000001b0: 36b7 1dbd 803c eebc 3a97 3d3d 70fc d23a
000001c0: fe87 c9bb 16e0 d43a aa5b 1e3e ebf6 00bd
000001d0: ac42 d5bd c09d f13c da05 a9bc b95a 4c3a
000001e0: ef9a 693d 6ca2 503d 24b7 1c3e 24fa 94b9
000001f0: a82a 5bbd cd22 eeba 338e e7bb 5a11 5e3c
00000200: aa69 0fbe 37a4 83bc fef6 b33b bbf7 563d
00000210: 0baa 7fbb 09d7 7f3d 869c 2b3e b2f1 483c
00000220: b7ea 9b3c b726 d8bc 67ed e83d 5d61 303c
00000230: 691f 923d e413 703c 2e25 cd3d 5d1f 9f3c
00000240: c301 bf3d c8c3 82be 9664 25bd 2e92 b4bc
00000250: d36b 573b 9582 17bc dfc5 3cbd a50d 6abd
00000260: ab82 c6ba 4618 993d 66aa 1f3e 86a4 5cbd
00000270: f6eb 873d 009e fb3d 13f6 5f3d 27ee ca3d
00000280: 563b 6c39 38b2 82bc bb57 313d 35d7 293d
00000290: c9e8 3cbd d411 b33d 34b9 963c d635 623d
000002a0: 5bcf e63d 0b21 233e 2520 0f3e 6d42 0f3d
000002b0: 9f9c bd3d 408e c8bc fbc3 f1bc a3df 40bd
000002c0: 67f7 6bbd 36f9 98bd 6d3c 75bd 7b67 593d
000002d0: 7c58 ab3d 0fdb c6bc 7729 42bc 8593 a53d
000002e0: 5a2f 033e d250 c3bd 6170 d13d 6c40 103d
000002f0: 5021 0b3e 4e8f 4a3c 5c31 43ba 342b a1bc
00000300: b499 a6ba f770 6cbd 548f 24bc b185 e1bd
00000310: 7dbd 063e ffa0 cb3b 2d20 783c 1da1 8a3d
00000320: 31e4 1c3e 4975 6c3d 5e20 143d 0dc6 2dbc
00000330: b67d 8e3b 7d3c 0ebc 25e4 24bc 6adb 6e3c
00000340: 32b2 aabd e9e1 cc3d b4cb b03d 29ee 913d
00000350: 407a 513d ee59 dfbc 00df 1cbc bfb9 123d
00000360: b49b b63d b16f 423d 8dcf 063d c8f0 f53d
00000370: f7d2 213e 68f7 83bc 084f e23c 279b 403d
00000380: f715 c33d 36a8 053e 9a43 6ebc 701c f2bd
00000390: 8c00 adbd 72b1 a93d 10fd a93c 291b 913c
000003a0: 21c5 bf3a 148f 883c 2671 05bd 49f7 7c3d
000003b0: b092 b53d ea15 8b3d a6e0 b7bd e83d f03c
000003c0: 85fa f53d 502f d5bb 54d6 71be 7d46 d53d
000003d0: cbd0 60bb 641a d93d d46d 7e3d 76ad 11bd
000003e0: ee13 97bc 346f 193e 8f26 6fbd dc3e 763d
000003f0: 04b8 4dbd b437 f63d e6fe cfbd 1e40 29bd

fc.weight f4 [1, 128]
-0.117211625 0.055895094 0.10221755 -0.040890258 -0.059647065 -0.068658344 0.13866809 -0.16797142
-0.09095831 0.14448108 0.08138582 -0.0647613 -0.12922014 0.14589202 -0.040771365 0.1374829
-0.021042392 -0.06866062 -0.07373748 0.12086053 -0.14703467 0.096769065 -0.012251164 0.09390147
-0.080756605 -0.1686366 -0.124868624 -0.0709188 0.1273301 0.15067296 0.16001827 -0.14007817
0.08997493 -0.08664352 0.15968017 0.1362903 0.074352324 -0.040343855 -0.095018804 -0.088675655
0.15204391 -0.06379351 -0.065119736 -0.098458186 0.13987908 0.091206595 -0.11481772 0.16770735
-0.04143018 0.10206698 -0.07801331 0.12166791 -0.055326357 -0.11227485 0.16939786 0.08759384
-0.12939349 0.14800236 -0.13429609 0.15322706 0.08849647 0.015633147 0.10218469 -0.12902474
-0.117328435 -0.11298918 0.039689783 0.1446559 0.16678734 -0.13808201 0.07941404 -0.16934817
0.11733996 0.10263881 0.17517476 0.10843092 0.10583886 0.17375831 0.06086355 -0.13927954
-0.052880388 -0.09244111 -0.07561201 -0.16679764 -0.070180826 -0.015366074 -0.05571823 -0.12237564
0.118276395 0.18030803 -0.100398734 0.11027002 -0.061158165 0.124153495 -0.05295532 0.09933912
0.1410844 0.1746471 -0.017764136 -0.058311902 0.14875562 0.11480684 -0.032342877 0.16211525
0.12608606 0.18821007 -0.03572293 0.10915618 -0.11358697 -0.15696415 -0.14446689 -0.03397276
-0.003162512 0.14761274 -0.14547677 0.113574274 0.093895376 -0.053672176 -0.060399685 0.108642004
-0.1617743 0.13595288 0.04870733 -0.09909217 0.10347557 -0.12504895 0.18087663 0.14545275
00000000: a60c f0bd 41f2 643d 6f57 d13d 8b7c 27bd
00000010: 7b50 74bd bf9c 8cbd 02ff 0d3e b300 2cbe
00000020: 5a48 babd d9f2 133e 9cad a63d 93a1 84bd
00000030: 4952 04be b864 153e e0ff 26bd 51c8 0c3e
00000040: 1861 acbc f09d 8cbd ad03 97bd ba85 f73d
00000050: 4290 16be dc2e c63d 1bb9 48bc 6a4f c03d
00000060: b863 a5bd 13af 2cbe 1fbb ffbd e03d 91bd
00000070: d262 023e 034a 1a3e d4db 233e a770 0fbe
00000080: c744 b83d 2872 b1bd 3383 233e af8f 0b3e
00000090: 0846 983d 993f 25bd 3899 c2bd 959b b5bd
000000a0: 66b1 1b3e 2ca6 82bd 7f5d 85bd 72a4 c9bd
000000b0: 763c 0f3e 86ca ba3d 8e25 ebbd 7abb 2b3e
000000c0: b1b2 29bd 7e08 d13d 71c5 9fbd 062d f93d
000000d0: e49d 62bd 5bf0 e5bd a276 2d3e 6664 b33d
000000e0: ba7f 04be ee8d 173e ea84 09be 8ee7 1c3e
000000f0: a33d b53d 1611 803c 3546 d13d 101f 04be
00000100: e449 f0bd df66 e7bd c191 223d ad20 143e
00000110: 4dca 2a3e 5f65 0dbe d4a3 a23d 9b69 2dbe
00000120: ef4f f03d 4c34 d23d 0361 333e 0811 de3d
00000130: 0bc2 d83d b3ed 313e 0f4c 793d 4c9f 0ebe
00000140: 1b99 58bd c451 bdbd 78da 9abd 00cd 2abe
00000150: f7ba 8fbd fcc1 7bbc cc38 64bd 14a0 fabd
00000160: e53a f23d aba2 383e da9d cdbd 40d5 e13d
00000170: fc80 7abd 3044 fe3d ade7 58bd 4f72 cb3d
00000180: 6e78 103e b0d6 323e 1886 91bc 76d8 6ebd
00000190: 6553 183e d91f eb3d f779 04bd 8a01 263e
000001a0: b41c 013e 24ba 403e 3552 12bd 468d df3d
000001b0: 49a0 e8bd 36bb 20be 21ef 13be 0527 0bbd
000001c0: 2642 4fbb cb27 173e ddf7 14be a199 e83d
000001d0: 384c c03d 5bd7 5bbd a965 77bd b37f de3d
000001e0: 29a8 25be 3b37 0b3e 5681 473d d6f0 cabd
000001f0: 00eb d33d d50c 00be b937 393e 91f1 143e
