gat_best.pth (torch, 409534 bytes, 13 tensors)

l1.att_src f4 [1, 4, 64]
0.11042769 -0.010396689 -0.2734012 -0.26167563 -0.28107572 0.083337836 -0.05755678 0.22387394
0.24044494 -0.09309505 -0.2148231 0.055606116 0.12157944 0.23553556 0.25096917 -0.28412524
0.06569133 0.17458758 0.12114104 0.05303279 0.07089249 -0.22782373 0.16266549 0.10673836
-0.21780021 -0.21337366 0.09307592 -0.26648432 0.012449107 -0.13647017 -0.26581427 -0.2276176
-0.22216345 -0.16190693 0.17122254 -0.018448412 -0.13653216 -0.18181325 -0.10714849 -0.21766086
0.2667911 0.24002466 0.08815503 0.019162497 -0.16546111 -0.1718704 0.064861044 -0.26790214
-0.17580697 0.23431137 -0.13404419 -0.23366335 -0.0013480328 0.23112851 0.13409844 0.20694748
0.13518575 0.08097342 -0.18463026 -0.055983618 0.08934473 0.2755065 0.10344717 0.1884686
-0.23345496 0.27856115 -0.3421853 0.2823289 0.19125873 0.10277008 -0.2555418 0.18808965
-0.25632876 -0.13927145 0.13285331 -0.1559432 0.19347282 -0.015345526 -0.13539551 -0.28574306
0.045705274 -0.1344908 -0.04297589 -0.26359016 -0.30664617 0.094118215 0.07465242 0.09760004
0.03694577 -0.1497366 0.16868252 0.11844609 -0.23513699 0.10366213 0.08647743 0.055126652
-0.16271432 0.1437004 -0.2172171 0.30038446 0.27756137 0.16768953 -0.1906413 -0.098912925
-0.22055525 -0.12310552 0.04301296 -0.14194076 0.26311317 0.35407734 0.25089443 -0.32680923
-0.03758054 0.3054783 0.24944898 0.069093205 0.11109608 0.2006517 0.21333651 -0.2392231
-0.10271056 0.18185769 0.103994295 -0.28882465 -0.21886149 -0.27226073 -0.18876798 -0.19517253
0.26045474 0.24711911 -0.0033650734 -0.13131547 0.1960694 -0.11206237 0.11862021 0.07734423
0.14164536 0.011895787 0.11504025 0.007057664 -0.085200146 -0.2891867 -0.04402204 0.29432428
0.1396522 -0.24010758 -0.2729628 -0.20051193 -0.0044579045 0.00845979 -0.13842463 0.14764655
0.2900057 -0.17347582 -0.035587326 0.20927455 0.2503293 0.179117 0.1573316 -0.111123495
-0.049005847 0.049603295 -0.14297292 -0.22645424 0.056346916 0.05908262 -0.30687752 0.00355845
-0.12379173 -0.3512882 -0.26936907 -0.19126265 -0.050896004 -0.015444355 -0.22410722 0.09167431
0.2032051 0.10318174 0.17441064 -0.061018325 0.24305232 -0.15027453 0.03710519 -0.16796795
-0.093156755 0.113366425 -0.17599744 -0.25862086 -0.29620916 -0.19331357 0.15587492 0.32597405
-0.1673814 0.23126353 0.1968978 0.16336656 -0.19123106 -0.28134826 0.24768634 -0.0071423324
-0.23316441 -0.23320013 0.307798 0.2168494 0.14306016 -0.055235572 -0.23387693 -0.18823612
0.06760947 -0.20249577 -0.15652554 0.045942944 0.09495795 0.12534635 -0.12478664 -0.12264356
-0.23433657 -0.13498047 -0.028515406 0.04296242 -0.15744472 -0.19398758 -0.25791585 -0.2591766
-0.16247612 0.22093116 -0.1862835 0.05106374 0.09574312 0.15378407 0.16956711 -0.15526034
0.036467776 -0.030943764 -0.14109091 0.1740155 -0.20642385 0.27570435 0.13446428 0.32380283
0.19764288 -0.063394465 -0.081722885 0.2751481 0.17050621 -0.13373011 0.27080882 -0.26122123
-0.2173851 0.15026246 -0.033538662 0.24495165 0.2196667 -0.119393304 -0.30639428 0.19436744
00000000: ea27 e23d e056 2abc 3efb 8bbe 59fa 85be
00000010: 28e9 8fbe 07ad aa3d a8c0 6bbd 363f 653e
00000020: 3337 763e 9ea8 bebd 96fa 5bbe 3dc3 633d
00000030: a4fe f83d 3c30 713e 087f 803e dd78 91be
00000040: 2d89 863d 16c7 323e cb18 f83d e938 593d
00000050: 1530 913d a04a 69be c891 263e a499 da3d
00000060: 0507 5fbe a07e 5abe 979e be3d a270 88be
00000070: 57f7 4b3c d6be 0bbe cf18 88be 9714 69be
00000080: d17e 63be eeca 25be f654 2f3e 2021 97bc
00000090: 16cf 0bbe 412d 3abe ab70 dbbd 7de2 5ebe
000000a0: d898 883e 06c9 753e a08a b43d abfa 9c3c
000000b0: a36e 29be cbfe 2fbe ded5 843d 782a 89be
000000c0: be06 34be 52ef 6f3e e142 09be 7245 6fbe
000000d0: 7ab0 b0ba f4ac 6c3e 1a51 093e 0aea 533e
000000e0: 226e 0a3e 64d5 a53d b70f 3dbe 144f 65bd
000000f0: 5ffa b63d 300f 8d3e 1cdc d33d eafd 403e
00000100: d10e 6fbe 919f 8e3e e932 afbe 6a8d 903e
00000110: 54d9 433e 1f79 d23d 60d6 82be 939a 403e
00000120: 863d 83be 2d9d 0ebe b30a 083e 93af 1fbe
00000130: bd1d 463e cd6b 7bbc 1fa5 0abe ea4c 92be
00000140: 7435 3b3d f5b7 09be 7d07 30bd 4af5 86be
00000150: ba00 9dbe 0dc1 c03d 5ee3 983d 88e2 c73d
00000160: 7354 173d 8d54 19be 1cbb 2c3e dd93 f23d
00000170: c0c7 70be d04c d43d 141b b13d 7ccc 613d
00000180: 959e 26be 3326 133e 296e 5ebe fecb 993e
00000190: 861c 8e3e ceb6 2b3e 7937 43be dc92 cabd
000001a0: 3cd9 61be bf1e fcbd 5c2e 303d eb58 11be
000001b0: c5b6 863e a049 b53e 3c75 803e 8a53 a7be
000001c0: 0dee 19bd a767 9c3e 8e6f 7f3e bd80 8d3d
000001d0: 5786 e33d a477 4d3e e374 5a3e e6f6 74be
000001e0: ea59 d2bd e738 3a3e f6fa d43d d3e0 93be
000001f0: 3a1d 60be c265 8bbe 654c 41be 4fdb 47be
00000200: 535a 853e cb0c 7d3e 9088 5cbb 9077 06be
00000210: 6bc6 483e f580 e5bd 27ef f23d a766 9e3d
00000220: 7b0b 113e 8ce6 423c 399a eb3d fa43 e73b
00000230: 6a7d aebd 4710 94be 7450 34bd acb1 963e
00000240: fc00 0f3e c3de 75be c8c1 8bbe 0053 4dbe
00000250: 9d13 92bb ee9a 0a3c 30bf 0dbe a830 173e
00000260: a17b 943e a5a3 31be 04c4 11bd 114c 563e
00000270: 292b 803e 726a 373e 891b 213e b794 e3bd
00000280: 5bba 48bd d32c 4b3d 7e67 12be 9fe3 67be
00000290: 06cc 663d 9e00 723d 0d1f 9dbe e234 693b
000002a0: 8586 fdbd 0cdc b3be beea 89be 5bda 43be
000002b0: 5478 50bd 520a 7dbc 5d7c 65be bebf bb3d
000002c0: ff14 503e f350 d33d b498 323e 5aee 79bd
000002d0: b5e2 783e 91e1 19be 9dfb 173d caff 2bbe
000002e0: f8c8 bebd a82c e83d ac38 34be f469 84be
000002f0: baa8 97be fef3 45be ad9d 1f3e 12e6 a63e
00000300: 0866 2bbe 59d0 6c3e 949f 493e 9049 273e
00000310: 13d2 43be e10c 90be 7da1 7d3e 3a0a eabb
00000320: a7c2 6ebe 04cc 6ebe b397 9d3e c50d 5e3e
00000330: 5d7e 123e b23e 62bd 6f7d 6fbe f8c0 40be
00000340: d576 8a3d 0d5b 4fbe 3b48 20be ab2e 3c3d
00000350: 5079 c23d cb5a 003e 2390 ffbd 8c2c fbbd
00000360: edf5 6fbe 5238 0abe 2499 e9bc 5df9 2f3d
00000370: 3039 21be aea4 46be 8c0d 84be ccb2 84be
00000380: 2460 26be c73b 623e 1ac1 3ebe 3628 513d
00000390: f814 c43d 9279 1d3e 00a3 2d3e 91fc 1ebe
000003a0: 3c5f 153d c77d fdbc 237a 10be 1f31 323e
000003b0: c660 53be 1f29 8d3e 01b1 093e 7cc9 a53e
000003c0: e562 4a3e f5d4 81bd 545e a7bd 36e0 8c3e
000003d0: 2e99 2e3e 8cf0 08be 74a7 8a3e cabe 85be
000003e0: 339a 5ebe 67de 193e d65f 09bd 9bd4 7a3e
000003f0: 4ff0 603e 7a84 f4bd b6df 9cbe 4208 473e

l1.att_dst f4 [1, 4, 64]
-0.29668292 0.044534653 -0.20134252 0.23549092 -0.06593752 0.19531447 -0.14512748 -0.06484805
0.12209444 0.23244101 0.13319431 -0.0020300008 -0.0386057 -0.22751376 -0.21781808 -0.052017856
-0.0143733015 0.10321921 -0.082458444 0.04063901 -0.30333003 -0.048829436 -0.0828893 0.1449714
-0.25236586 -0.24982926 -0.07099862 0.12134734 0.21071382 0.011968247 0.17027475 -0.20080374
-0.07617961 -0.0717026 -0.085222155 -0.25074324 0.13649496 0.13620459 0.33795375 0.25341314
0.23328356 -0.2825441 -0.086276114 -0.26258552 0.22025661 -0.21702024 -0.2622413 -0.1968942
-0.2526082 0.1058579 -0.08011031 -0.096610926 -0.19800365 -0.096745886 0.18298659 0.26811668
-0.22675186 -0.18540822 -0.08904635 0.10666504 0.101410925 0.34628183 0.17601137 0.28470105
0.21973409 0.09123432 -0.22295895 0.008398929 -0.09971249 0.049087778 0.14923608 -0.2099454
0.29990736 -0.14507478 0.28627574 -0.15904552 -0.16954865 0.17574252 -0.3221999 -0.15052362
-0.042502813 -0.07408529 -0.23660493 -0.2487541 -0.092218414 -0.2089324 0.24933861 -0.20758307
0.2708606 0.06816883 0.24244617 -0.13300064 0.049064532 -0.23653546 0.21129364 0.10939097
0.25261647 0.16903527 0.22658809 -0.31286657 -0.120029464 0.08194027 0.14994074 0.28164372
-0.17567013 -0.011921758 -0.2627698 -0.12731425 -0.2951339 0.20724526 0.19515653 0.19311747
-0.12154259 -0.07546189 -0.023184823 -0.108693 -0.104279205 0.18827432 -0.29644096 -0.051519223
-0.2212421 -0.16677973 0.1835431 0.31496865 -0.17908388 -0.3074459 0.19557749 -0.0033019676
-0.17199323 -0.40249452 0.34715584 0.25676686 0.3378218 -0.22635537 -0.13984917 0.22610997
0.03077459 0.024032647 -0.09342444 0.04473076 0.27554068 -0.026923385 -0.28993887 0.00023926701
-0.393613 0.3107149 -0.027567834 0.16032362 0.10515251 0.050526805 -0.05506773 0.10424848
0.092730016 0.43057808 0.18510498 0.079543635 0.24525474 0.013655051 0.27851284 0.33446008
-0.1759743 -0.28072438 0.16836712 0.09021798 -0.3191843 -0.027971674 -0.14195368 0.17731333
0.00928183 -0.09254451 0.12348662 -0.14748235 0.20936246 -0.16728918 -0.045157004 0.2334565
0.24554919 0.052231174 0.31735903 -0.14740446 0.34736943 0.104544014 -0.20263343 -0.3161212
-0.048666067 0.28138638 -0.23845509 -0.20790371 0.3373488 0.16444513 0.24191943 0.12238089
0.12017233 -0.124813884 0.051902086 0.2726644 0.14069712 0.24575602 0.11944459 -0.08373088
0.19581783 -0.13424738 -0.20789681 -0.0012905038 -0.003553963 -0.22052914 -0.24624294 0.22416511
0.0050737066 -0.0087824045 -0.061139263 0.14578705 -0.283406 -0.025172861 0.040662795 0.04877145
-0.28081933 0.06575323 -0.16082244 0.02973605 -0.28712958 0.3343101 -0.048736893 0.30488753
0.0018154855 0.23133865 0.0057383785 -0.2482135 0.061683808 0.03188117 -0.10429944 -0.12237922
0.0041754423 -0.114272766 0.17399399 -0.19051488 -0.043417722 0.23694377 0.18850993 -0.12922199
0.0907453 0.2522424 0.24610913 0.27679583 -0.236429 -0.1808137 -0.16215082 -0.076408096
0.18694963 -0.18230656 -0.13107294 0.29245389 0.13489082 -0.2066566 -0.19681412 0.19843018
00000000: d3e6 97be f869 363d bc2c 4ebe 8824 713e
00000010: 400a 87bd 8400 483e 4c9c 14be 0ecf 84bd
00000020: a60c fa3d 0405 6e3e 1764 083e c309 05bb
00000030: 0321 1ebd 5ef9 68be b40b 5fbe ad10 55bd
00000040: ff7d 6bbc 9864 d33d f9df a8bd 1775 263d
00000050: 134e 9bbe 6001 48bd dec1 a9bd 6273 143e
00000060: 1936 81be 3ed3 7fbe b967 91bd f484 f83d
00000070: 5dc5 573e 7716 443c 815c 2e3e 7f9f 4dbe
00000080: 0e04 9cbd d0d8 92bd f488 aebd 6b61 80be
00000090: 56c5 0b3e 3779 0b3e 4608 ad3e 5ebf 813e
000000a0: e3e1 6e3e 9fa9 90be 88b1 b0bd 9c71 86be
000000b0: f38a 613e 8e3a 5ebe 7e44 86be a29e 49be
000000c0: dd55 81be 07cc d83d e010 a4bd f3db c5bd
000000d0: 78c1 4abe b522 c6bd d660 3b3e 9746 893e
000000e0: a431 68be a7db 3dbe ef5d b6bd 3373 da3d
000000f0: 88b0 cf3d da4b b13e 533c 343e 56c4 913e
00000100: f901 613e 0fd9 ba3d 5a4f 64be a99b 093c
00000110: 1036 ccbd 4410 493d 58d1 183e edfb 56be
00000120: 758d 993e 7c8e 14be bc92 923e d4dc 22be
00000130: 299e 2dbe d9f5 333e 63f7 a4be dd22 1abe
00000140: 6e17 2ebd 07ba 97bd 9048 72be 65b9 7ebe
00000150: 02dd bcbd 60f2 55be 9f52 7f3e a890 54be
00000160: 3eae 8a3e 199c 8b3d cf43 783e 5231 08be
00000170: e4f7 483d 5a36 72be 5c5d 583e 5f08 e03d
00000180: f256 813e 9517 2d3e b506 683e 0c30 a0be
00000190: 02d2 f5bd 4dd0 a73d 118a 193e 9b33 903e
000001a0: dfe2 33be 7a53 43bc c389 86be ab5e 02be
000001b0: ca1b 97be 1a38 543e 1dd7 473e 96c0 453e
000001c0: 52eb f8bd c38b 9abd 19ee bdbc 709a debd
000001d0: 5690 d5bd fcca 403e 1cc7 97be d205 53bd
000001e0: 4a8d 62be 4ec8 2abe b9f2 3b3e 9243 a13e
000001f0: c461 37be 8d69 9dbe 7745 483e d365 58bb
00000200: fe1e 30be c313 cebe 69be b13e f276 833e
00000210: fbf6 ac3e b4c9 67be 9f34 0fbe 5f89 673e
00000220: fe1a fc3c 1de0 c43c 5055 bfbd 9a37 373d
00000230: ab13 8d3e 6e8e dcbc de72 94be c0e3 7a39
00000240: a587 c9be 0616 9f3e f0d5 e1bc e02b 243e
00000250: 335a d73d 32f5 4e3d b38e 61bd 3a80 d53d
00000260: 3ce9 bd3d bb74 dc3e 298c 3d3e c6e7 a23d
00000270: 0f24 7b3e 6fb9 5f3c 3c99 8e3e 5a3e ab3e
00000280: 9b32 34be 1bbb 8fbe 6e68 2c3e 34c4 b83d
00000290: 206c a3be da24 e5bc 4e5c 11be a091 353e
000002a0: d112 183c fa87 bdbd 8ee6 fc3d 9d05 17be
000002b0: 1d63 563e db4d 2bbe 8df6 38bd 390f 6f3e
000002c0: 3f71 7b3e 5bf0 553d e27c a23e 32f1 16be
000002d0: 68da b13e 2c1b d63d 237f 4fbe a3da a1be
000002e0: 1256 47bd e011 903e 922d 74be b6e4 54be
000002f0: fbb8 ac3e 4e64 283e bab9 773e d5a2 fa3d
00000300: e91c f63d 6c9e ffbd 4897 543d ab9a 8b3e
00000310: e812 103e 77a7 7b3e 5d9f f43d 187b abbd
00000320: 7884 483e 2578 09be e7e2 54be 1f26 a9ba
00000330: 9be9 68bb 64d2 61be 1c27 7cbe 8a8b 653e
00000340: 5641 a63b 13e4 0fbc 2a6d 7abd 3349 153e
00000350: 971a 91be 5137 cebc 088e 263d 92c4 473d
00000360: 8dc7 8fbe a1a9 863d a3ae 24be 0499 f33c
00000370: a602 93be b22a ab3e 56a0 47bd 381a 9c3e
00000380: 96f5 ed3a 0ae4 6c3e 0209 bc3b ae2b 7ebe
00000390: 29a8 7c3d d495 023d f29a d5bd f5a1 fabd
000003a0: 26d2 883b d707 eabd 7b2b 323e 5516 43be
000003b0: c8d6 31bd 63a1 723e bf08 413e c552 04be
000003c0: acd8 b93d ea25 813e 0804 7c3e 2fb8 8d3e
000003d0: 721a 72be 3a27 39be dd0a 26be d97b 9cbd
000003e0: b96f 3f3e 92ae 3abe fc37 06be 84bc 953e
000003f0: d220 0a3e ca9d 53be a489 49be 4831 4b3e

l1.bias f4 [256]
-0.00826896 0.036551796 -0.005093444 -0.006994526 -0.018915184 -0.024822418 0.0020403399 -0.0111430455
-0.008526132 0.039836086 0.011814335 -0.0047213314 -0.004531455 -0.012691664 0.03061828 0.015141781
-0.011325021 -0.0076291095 -0.025969848 0.015215062 0.0038552156 -0.0058891233 -0.009099753 -0.00776814
-0.0006597768 -0.0035776575 -0.00069063605 -0.011413504 -0.0060704253 -0.047216374 -0.036319748 -0.041161243
-0.027960883 0.015468948 -0.024074512 -0.054052297 0.032730952 -0.014423768 -0.0033027793 -0.009755012
-0.016454834 -0.021962825 -0.019749105 -0.019208534 0.029509893 -0.019182276 -0.037203223 -0.008517366
-0.009696902 0.013031841 -0.033717286 -0.005432762 -0.007394012 -0.02216451 0.039474495 -0.03358692
-0.0036724524 -0.020238692 -0.010326989 0.007020082 -0.017896185 0.035606213 -0.024567323 0.021916416
-0.001417446 0.023740208 0.029748442 0.01959343 0.01464449 -0.000101951686 0.042980146 -0.0003205374
-0.016894167 0.019002892 -0.003920532 -0.012508783 0.010914124 0.040885247 -0.00825355 -0.010548963
0.032661732 0.004550985 -0.011356375 -0.046903398 -0.025830712 0.02531961 0.006267575 -0.006057621
-0.029204546 -0.009046336 -0.06511818 0.006592228 -0.01882207 0.039359912 0.04410788 -0.03951058
0.021428848 -0.024011666 -0.021215525 0.005776169 -0.019452926 -0.00091074355 -0.03544579 -0.005956281
0.035372943 -0.012412918 0.0112750875 0.032130487 0.006287583 0.030366475 0.027809747 -0.0061072703
-0.007983451 -0.020144792 -0.029362714 -0.033814993 -0.014446315 0.0033786714 -0.0010565656 -0.041158345
-0.012973797 0.021354567 -0.05479838 -0.024620628 0.007641698 -0.020444006 0.02282256 -0.018915178
-0.014651595 -0.014986676 -0.021192115 0.008181633 -0.037238263 -0.0063779633 -0.023174314 -0.023882125
0.030074207 -0.014364568 -0.0033042966 -0.0067573735 -0.05448607 -0.038159173 0.052025188 -0.014599378
-0.008930649 0.01872375 -0.029648066 -0.0110168625 -0.030509738 -0.0011728728 0.017522978 0.04009896
0.029660909 0.012863518 -0.044433605 -0.02266057 0.0052730744 0.004109126 0.0089163305 0.0014596907
0.029647378 0.042758398 -0.005756128 0.0061377627 -0.0014839795 -0.009866821 0.021705952 -0.042222064
0.015871191 -0.039210115 -0.04762464 -0.017833982 -0.007918084 -0.011391784 -0.017268617 -0.0040919827
0.00016498423 -0.005066078 -0.00017901004 0.0071961083 -0.009918338 0.03585876 -0.020473551 0.023558341
0.0034640953 0.03218186 0.02398674 0.032680254 -0.031105615 -0.060999826 0.028676262 0.02201725
-0.01726893 -0.014589776 0.025818473 0.018040119 0.016691895 0.0013303902 -0.033926032 -0.043195557
-0.055511326 0.044715706 0.009488236 0.0037447072 -0.019069698 0.029823847 0.024040444 0.00700304
-0.028217047 -0.01588069 0.020019475 0.0013242236 -0.0039229314 -0.017185638 0.040169463 0.01589837
-0.009214378 -0.039657895 0.015652733 0.02507528 0.0038085366 0.00095538393 0.009480197 0.00048866257
0.029919304 -0.009781438 0.019585013 0.017019214 0.02620216 0.014760001 0.029455222 -0.020876035
0.006522319 0.010419759 0.021473845 0.019215485 0.030933507 -0.02524746 0.024757821 0.012340384
-0.019776177 0.044434026 0.023763347 0.03512435 0.007918437 0.017473798 -0.02125505 0.032562774
0.014083124 -0.023823967 -0.010864351 -0.036292188 0.036416978 0.009787509 0.031362593 -0.024072168
00000000: 887a 07bc 56b7 153d e8e6 a6bb 5632 e5bb
00000010: 04f4 9abc 6258 cbbc 39b7 053b 5291 36bc
00000020: 31b1 0bbc 2a2b 233d ea90 413c 66b5 9abb
00000030: 9a7c 94bb b2f0 4fbc 30d3 fa3c 3c15 783c
00000040: 958c 39bc 9cfd f9bb b8be d4bc 9848 793c
00000050: c9a7 7c3b 8cf9 c0bb 2117 15bc e28b febb
00000060: dff4 2cba 2277 6abb cd0b 35ba b5ff 3abc
00000070: 6bea c6bb f565 41bd 04c4 14bd b198 28bd
00000080: 390e e5bc 7871 7d3c e937 c5bc f165 5dbd
00000090: e410 063d ab51 6cbc 7173 58bb 7cd3 1fbc
000000a0: 4acc 86bc 62eb b3bc e0c8 a1bc 375b 9dbc
000000b0: bbbe f13c 2624 9dbc 6862 18bd 6c8c 0bbc
000000c0: c1df 1ebc 8183 553c 231b 0abd 5005 b2bb
000000d0: 7849 f2bb 5992 b5bc 02b0 213d 7092 09bd
000000e0: 87ad 70bb 9dcb a5bc 8832 29bc b708 e63b
000000f0: 059b 92bc d2d7 113d 6941 c9bc 0e8a b33c
00000100: 98c9 b9ba d37a c23c 01b3 f33c 6782 a03c
00000110: 71ef 6f3c e5ce d5b8 f30b 303d cd0d a8b9
00000120: a365 8abc f4ab 9b3c ce77 80bb a3f1 4cbc
00000130: 27d1 323c 4a77 273d e639 07bc 8fd5 2cbc
00000140: 4fc8 053d 6e20 953b 1710 3abc c71d 40bd
00000150: ee9a d3bc 126b cf3c 3b60 cd3b 027f c6bb
00000160: 5f3e efbc 1537 14bc ae5c 85bd 9e03 d83b
00000170: be30 9abc dc37 213d 77aa 343d d9d5 21bd
00000180: 8d8b af3c 1db4 c4bc 2ecc adbc 0446 bd3b
00000190: be5b 9fbc f7be 6eba 9b2f 11bd e82c c3bb
000001a0: 38e3 103d 8d5f 4bbc 25bb 383c 429b 033d
000001b0: 1208 ce3b 1dc3 f83c 44d1 e33c 7f1f c8bb
000001c0: 05cd 02bc b106 a5bc 138a f0bc 9781 0abd
000001d0: 3db0 6cbc b36c 5d3b 757c 8aba a795 28bd
000001e0: 0c90 54bc c6ef ae3c 4474 60bd 33b1 c9bc
000001f0: 3567 fa3b 307a a7bc 61f6 ba3c 01f4 9abc
00000200: 3e0d 70bc ad8a 75bc 169b adbc 420c 063c
00000210: 2687 18bd 3cfe d0bb 0fd8 bdbc 72a4 c3bc
00000220: 2f5e f63c 5d59 6bbc e68c 58bb f56c ddbb
00000230: c92c 5fbd cb4c 1cbd 5d18 553d 3b32 6fbc
00000240: db51 12bc 8d62 993c 80e0 f2bc 1280 34bc
00000250: 8fef f9bc 15bb 99ba 598c 8f3c cf3e 243d
00000260: 6ffb f23c 81c1 523c 0300 36bd a9a2 b9bc
00000270: c1c9 ac3b d9a5 863b cd15 123c 1853 bf3a
00000280: 0fdf f23c 6e23 2f3d e79d bcbb 491f c93b
00000290: 1782 c2ba 72a8 21bc aed0 b13c 0bf1 2cbd
000002a0: 4d04 823c c99a 20bd 0e12 43bd 9218 92bc
000002b0: daba 01bc 9ba4 3abc ea76 8dbc 0a16 86bb
000002c0: 9eff 2c39 5801 a6bb a4b4 3bb9 55cd eb3b
000002d0: 8680 22bc a3e0 123d 26b8 a7bc 6cfd c03c
000002e0: e005 633b 20d1 033d d77f c43c bbdb 053d
000002f0: 34d1 febc f4da 79bd 7bea ea3c 855d b43c
00000300: 9277 8dbc f509 6fbc 4381 d33c dfc8 933c
00000310: 71bd 883c 7d60 ae3a 06f6 0abd d3ed 30bd
00000320: d85f 63bd d127 373d 8c74 1b3c c369 753b
00000330: 0e38 9cbc 2451 f43c 77f0 c43c c279 e53b
00000340: 7027 e7bc 3918 82bc e2ff a33c 9291 ad3a
00000350: ef8b 80bb e5c8 8cbc bc88 243d 4c3d 823c
00000360: e7f7 16bc 5170 22bd 293a 803c ac6a cd3c
00000370: a498 793b bb72 7a3a d452 1b3c 9719 003a
00000380: 5419 f53c 5342 20bc c070 a03c e16b 8b3c
00000390: eaa5 d63c eed3 713c 144c f13c 3804 abbc
000003a0: 2db9 d53b a3b7 2a3c ebe9 af3c cb69 9d3c
000003b0: 4468 fd3c c3d3 cebc ead0 ca3c 522f 4a3c
000003c0: a601 a2bc 7400 363d 5aab c23c 8dde 0f3d
000003d0: 55bc 013c 3625 8f3c 121f aebc 8b60 053d
000003e0: e7bc 663c 7b2a c3bc 6400 32bc 1ea7 14bd
000003f0: f829 153d ca5b 203c 1076 003d ff32 c5bc

l1.lin.weight f4 [256, 128]
0.055235017 -0.024514431 -0.08325631 0.020777032 0.090779275 0.102951705 -0.1391928 0.02345474
-0.044841245 0.0838813 -0.05764599 -0.0021869838 -0.065402284 -0.029168293 0.017352954 0.10628535
0.09734754 0.12234931 0.122620955 0.03460309 0.12349565 0.11301586 -0.090250075 -0.08110294
0.10352008 0.076224625 0.074516445 0.08143827 -0.10356049 -0.03371513 -0.054917887 -0.081557736
0.06127976 0.01245524 -0.06917094 -0.019944742 0.06765875 -0.07624987 -0.12009233 0.026119173
-0.05543509 -0.012925208 0.09639877 -0.035539955 -0.103309706 0.031436443 -0.083145455 0.056455687
-0.123068586 0.117084205 -0.0065564215 -0.066211104 0.09534688 -0.10446052 0.038308024 0.014309809
-0.034623668 0.072752416 -0.014123574 -0.07701442 -0.050589666 -0.04284334 -0.02349861 -0.049771518
-0.014461204 0.012417585 -0.050055683 0.046673357 -0.016203552 -0.041094214 -0.123800784 0.11212617
-0.084518805 -0.024010614 0.03396155 0.0014303327 -0.058507428 0.01013945 0.10059114 -0.00715062
-0.036792234 -0.00075015426 -0.11838974 -0.025399774 0.039053798 -0.09225024 -0.10291208 0.04632801
0.114308804 0.1080381 0.005169958 0.047778785 -0.07675965 -0.00604406 -0.047280118 -0.09739661
-0.06801848 0.087788746 0.10918212 0.04033409 -0.07214311 0.002574712 -0.018533945 0.05553329
-0.092620224 -0.03992805 0.08253305 -0.09176123 -0.07871647 -0.0143366605 0.044479564 -0.09897573
-0.003347382 0.09909789 0.016458571 -0.073473275 0.04512915 0.070894405 0.12205337 0.08381693
0.0005098283 -0.04367499 0.01994203 -0.06494875 -0.046885297 0.04745716 -0.058936045 -0.035654142
0.032559913 -0.057479337 -0.12349777 0.0045131715 -0.053849313 -0.1228092 -0.113350056 0.023564428
0.098949194 0.022175103 -0.123652354 -0.051212743 -0.017860174 0.02820839 -0.050085023 0.02616036
0.1211825 -0.09553516 -0.008649364 -0.11776757 0.08869256 -0.08027664 0.059796244 -0.07935795
0.021341965 -0.06773716 0.0474419 0.009244934 0.098725915 -0.09429608 -0.08724545 0.10407293
-0.048521623 0.10209553 0.05196275 0.0017458498 -0.12137227 -0.017790511 -0.11674845 -0.1070195
-0.039745003 -0.068299666 0.0422291 -0.10545394 -0.06850615 0.001990199 0.052711934 0.0843544
-0.021473438 0.0143377185 0.08428362 0.07270022 -0.07810375 -0.12480098 0.021252215 0.019346878
-0.08654341 -0.11122085 -0.09446308 -0.054791823 -0.09269978 -0.010845557 -0.09434101 -0.062889576
0.024536788 -0.12473714 0.074798554 -0.08555032 -0.045437247 0.10776694 0.090450376 -0.088467464
-0.09703468 0.06796475 0.048265517 0.09534377 0.088183746 -0.070204645 0.080231145 -0.080942005
0.05487846 -0.005092114 0.03206046 -0.07421552 -0.08352953 0.09359138 0.023889601 -0.003018424
0.07351294 0.010467604 -0.113671884 -0.10844301 -0.105125025 -0.030048087 0.004710689 -0.06784253
0.03545019 -0.08721827 -0.07120252 -0.0668838 0.094241545 -0.0803871 0.03875999 0.05892256
-0.09799139 0.03222403 -0.0691348 -0.09114152 0.11951932 -0.016986921 0.11957677 0.09753686
0.025498942 -0.09521291 0.08354257 0.052564412 0.08571865 -0.087709814 0.03508915 0.09544036
0.011673182 -0.120952025 -0.0045800507 -0.108257204 -0.12099984 -0.004676923 -0.059872285 0.028779104
00000000: 1d3e 623d 7dd2 c8bc 4982 aabd 9834 aa3c
00000010: 7cea b93d 58d8 d23d 8f88 0ebe 2824 c03c
00000020: 74ab 37bd f6c9 ab3d 341e 6cbd 8053 0fbb
00000030: a2f1 85bd 58f2 eebc c827 8e3c 22ac d93d
00000040: 265e c73d 4692 fa3d b220 fb3d f8bb 0d3d
00000050: 4aeb fc3d dc74 e73d 08d5 b8bd 4c19 a6bd
00000060: 5602 d43d a81b 9c3d 149c 983d 1cc9 a63d
00000070: 8617 d4bd e018 0abd 94f1 60bd be07 a7bd
00000080: 7c00 7b3d 1011 4c3c 7ea9 8dbd 2863 a3bc
00000090: ac90 8a3d e428 9cbd f8f2 f5bd e0f7 d53c
000000a0: e80f 63bd 40c4 53bc b86c c53d 5892 11bd
000000b0: 0a94 d3bd 80c3 003d 2a48 aabd 143e 673d
000000c0: 620b fcbd d8c9 ef3d 40d7 d6bb b099 87bd
000000d0: 3a45 c33d 66ef d5bd e0e8 1c3d b073 6a3c
000000e0: 8cd1 0dbd 38ff 943d 9066 67bc bcb9 9dbd
000000f0: 1c37 4fbd 807c 2fbd 2880 c0bc 38dd 4bbd
00000100: b0ee 6cbc 2073 4b3c 3007 4dbd 902c 3f3d
00000110: 50bd 84bc 6852 28bd 448b fdbd 68a2 e53d
00000120: 3218 adbd e8b1 c4bc 441b 0b3d 007a bb3a
00000130: 7ca5 6fbd f01f 263c ba02 ce3d c04f eabb
00000140: 74b3 16bd 00a6 44ba 5276 f2bd 3013 d0bc
00000150: e0f6 1f3d b2ed bcbd 92c3 d2bd 70c2 3d3d
00000160: bc1a ea3d 1443 dd3d c068 a93b b0b3 433d
00000170: 2a34 9dbd 400d c6bb cca8 41bd e077 c7bd
00000180: 464d 8bbd 96ca b33d e09a df3d 5c35 253d
00000190: c4bf 93bd 80bc 283b 80d4 97bc e076 633d
000001a0: acaf bdbd 988b 23bd 1607 a93d 50ed bbbd
000001b0: 1a36 a1bd 50e4 6abc 3430 363d cab3 cabd
000001c0: c05f 5bbb d6f3 ca3d 20d4 863c 2879 96bd
000001d0: 58d9 383d 1631 913d 1ef7 f93d 36a8 ab3d
000001e0: 00a6 053a 8ce4 32bd 785d a33c da03 85bd
000001f0: cc0a 40bd 7062 423d ec66 71bd 140a 12bd
00000200: 8b5d 053d 746f 6bbd 66ec fcbd 3ae3 933b
00000210: 1991 5cbd 6483 fbbd 1324 e8bd 300a c13c
00000220: e0a5 ca3d 90a8 b53c 723d fdbd 74c4 51bd
00000230: 804f 92bc 4815 e73c f425 4dbd 404e d63c
00000240: 882e f83d f0a7 c3bd 10b6 0dbc 2030 f1bd
00000250: 72a4 b53d 1468 a4bd e8ec 743d 6c86 a2bd
00000260: 58d5 ae3c c8b9 8abd 7052 423d 1078 173c
00000270: d030 ca3d 4e1e c1bd bead b2bd 3024 d53d
00000280: 9cbe 46bd 7617 d13d e4d6 543d 00d5 e43a
00000290: 0692 f8bd 68bd 91bc d019 efbd 0a2d dbbd
000002a0: a8cb 22bd b2e0 8bbd 6cf8 2c3d 3cf8 d7bd
000002b0: f44c 8cbd 006e 023b 78e8 573d 00c2 ac3d
000002c0: 10e9 afbc c0e8 6a3c e49c ac3d dae3 943d
000002d0: dcf4 9fbd a897 ffbd 2019 ae3c 587d 9e3c
000002e0: ac3d b1bd c2c7 e3bd dc75 c1bd 646d 60bd
000002f0: 62d9 bdbd 90b1 31bc dc35 c1bd 40cc 80bd
00000300: 6001 c93c 3076 ffbd fc2f 993d 0235 afbd
00000310: 681c 3abd eab4 dc3d 0c3e b93d 6e2e b5bd
00000320: 1eba c6bd 1a31 8b3d 10b2 453d 9843 c33d
00000330: ae99 b43d 74c7 8fbd 3a50 a43d ecc4 a5bd
00000340: 3cc8 603d c0db a6bb d451 033d 4efe 97bd
00000350: 8811 abbd d6ac bf3d 20b4 c33c c0d0 45bb
00000360: f48d 963d 5080 2b3c cecc e8bd 5e17 debd
00000370: ca4b d7bd 6827 f6bc 205c 9a3b 06f1 8abd
00000380: 3834 113d 7e9f b2bd a0d2 91bd 60fa 88bd
00000390: b601 c13d fea1 a4bd ccc2 1e3d c858 713d
000003a0: b6af c8bd 58fd 033d 8c96 8dbd 68a8 babd
000003b0: 8cc6 f43d 2828 8bbc aae4 f43d 68c1 c73d
000003c0: 28e3 d03c fcfe c2bd 5e18 ab3d c84d 573d
000003d0: 428d af3d 34a1 b3bd a4b9 0f3d 3c76 c33d
000003e0: e040 3f3c b2b5 f7bd 4014 96bb f4b5 ddbd
000003f0: c4ce f7bd e040 99bb a43c 75bd 28c2 eb3c

l2.att_src f4 [1, 4, 64]
0.2094171 0.26146132 -0.33751103 -0.20625015 0.1999946 0.101667374 -0.1492072 -0.056925084
0.2999329 0.04336492 -0.015207551 0.0090892995 0.08933495 -0.18714502 0.08918149 -0.3187449
0.07290595 0.20459585 -0.29369375 0.24525993 0.13197173 -0.16539802 -0.2647545 0.098528445
0.12797472 -0.06550841 0.26803654 0.1203441 0.12167986 0.08591776 -0.099918865 -0.07222288
-0.30764142 -0.26605713 -0.10961126 0.23527318 -0.04070085 0.121291965 0.09362907 0.033985537
-0.25161082 0.11969648 0.023038171 0.09362689 0.17082903 -0.059152544 0.17651707 -0.14158158
0.20404412 -0.13316461 -0.19559422 -0.033188496 -0.020690238 0.18992747 0.15363602 -0.21269855
0.30381522 -0.15920225 -0.17008501 -0.18179975 0.010538262 0.16694717 -0.055376314 0.07754579
0.116995625 0.03696913 -0.23166946 -0.13478217 0.14055838 -0.12476521 -0.11767306 0.044882853
-0.17048812 0.10746972 0.2287145 0.043698553 0.010084197 0.0073730038 -0.257473 0.2102027
-0.14759594 -0.1453261 -0.20626156 0.22464672 0.0040730014 0.03487365 -0.25712863 -0.234478
0.026690474 -0.17080954 -0.13799669 0.057425376 0.05693669 0.26702055 -0.09097629 0.14822975
0.07419403 0.15807678 -0.16680822 -0.29102305 0.2261455 -0.2852071 -0.26753742 0.092039354
-0.22234581 -0.15376605 -0.24802831 -0.12894447 -0.2721821 0.006153006 0.26066905 -0.07140505
0.13919546 0.033704106 -0.24755873 0.21549511 -0.17628983 -0.24488246 -0.1552039 -0.11133993
0.033064943 -0.21784118 0.2606319 -0.2764666 0.28486636 0.050941307 0.25742334 0.13602059
0.1558367 0.14311717 -0.047570024 0.067011885 0.06574978 0.22317508 -0.20598815 0.047504798
0.07696958 0.100075826 0.27980414 0.12224531 0.04587769 -0.13482332 0.10822041 -0.17704396
0.055183403 0.28434774 -0.16292007 -0.27747673 -0.19585378 -0.17088632 -0.00038025907 0.23719105
0.009731586 -0.22370595 -0.20455728 0.18401629 0.22172305 0.0029115733 0.09715174 -0.009358794
0.05206576 0.054871242 0.09277744 0.0138435885 0.27176064 -0.19669187 0.2860748 -0.29752102
0.2071471 -0.08074993 -0.04087162 -0.1587223 -0.055698525 -0.2717806 -0.20018232 -0.0097014075
0.22385499 0.098765016 0.046227705 0.28047362 -0.04389457 -0.005929882 -0.22743876 -0.16877572
-0.1220973 0.037937403 -0.20667759 -0.18924402 0.28015885 -0.10199685 -0.06807572 -0.04285882
0.228452 0.03731779 0.27670056 0.009006398 -0.04968789 -0.116571926 0.034128275 -0.24329814
0.05450801 -0.12431503 0.06781106 0.14855647 -0.25302577 0.06938248 -0.19560598 0.10745663
0.1367112 0.15040158 -0.13954036 0.19540219 -0.26157606 0.1677547 0.12682411 0.033993267
0.2648168 -0.26410186 -0.07035746 0.05955436 -0.22065377 -0.28633317 -0.18536593 -0.16257595
0.260957 -0.2918178 0.07476624 0.049906705 0.19539654 0.15020318 -0.0018720379 0.24901685
-0.10468696 0.13688171 -0.2298671 0.26994905 0.11674953 -0.13078329 -0.09974038 -0.21630695
0.027976837 -0.1830434 0.044163063 -0.057014424 0.009399966 -0.0141195245 -0.0687428 -0.17027454
0.17997892 0.16405042 0.28964016 0.119072564 0.095534265 0.26585564 0.049368728 -0.01483367
00000000: 7071 563e 42de 853e 3fce acbe 3d33 53be
00000010: 62cb 4c3e fc36 d03d c6c9 18be 472a 69bd
00000020: ce90 993e 6a9f 313d 1829 79bc 49eb 143c
00000030: 3ef5 b63d f2a2 3fbe c9a4 b63d 8832 a3be
00000040: b74f 953d 9381 513e 075f 96be 6b25 7b3e
00000050: 9923 073e 195e 29be e78d 87be 48c9 c93d
00000060: ce0b 033e 4629 86bd 163c 893e f876 f63d
00000070: 4a33 f93d a7f5 af3d 43a2 ccbd 97e9 93bd
00000080: 2d83 9dbe a438 88be de7b e0bd 74eb 703e
00000090: efb5 26bd ec67 f83d 99c0 bf3d 6b34 0b3d
000000a0: 22d3 80be 6e23 f53d 8cba bc3c 74bf bf3d
000000b0: ceed 2e3e f049 72bd e4c0 343e c3fa 10be
000000c0: f1f0 503e 4e5c 08be da49 48be a9f0 07bd
000000d0: 937e a9bc 597c 423e c352 1d3e a6cd 59be
000000e0: ab8d 9b3e ea05 23be c42a 2ebe b729 3abe
000000f0: ada8 2c3c 33f4 2a3e 46d2 62bd 54d0 9e3d
00000100: 679b ef3d f16c 173d c23a 6dbe 5604 0abe
00000110: 89ee 0f3e e784 ffbd 93fe f0bd 15d7 373d
00000120: 7094 2ebe 1619 dc3d 2234 6a3e 41fd 323d
00000130: 3038 253c 3d99 f13b 80d3 83be 603f 573e
00000140: 6423 17be 5dd0 14be 3b36 53be ca09 663e
00000150: d076 853b acd7 0e3d 5da6 83be 001b 70be
00000160: fba5 da3c b2e8 2ebe 014f 0dbe df36 6b3d
00000170: 7236 693d ebb6 883e c751 babd 8ac9 173e
00000180: 0af3 973d e1de 213e c6cf 2abe f900 95be
00000190: b092 673e aa06 92be aafa 88be 217f bc3d
000001a0: 9fae 63be d974 1dbe 22fb 7dbe 050a 04be
000001b0: 745b 8bbe 289f c93b 6a76 853e d03c 92bd
000001c0: 4189 0e3e 510d 0a3d 0980 7dbe c0aa 5c3e
000001d0: 5285 34be 78c2 7abe c5ed 1ebe 3006 e4bd
000001e0: 1b6f 073d c211 5fbe 8b71 853e 088d 8dbe
000001f0: 01da 913e d5a7 503d fecc 833e fb48 0b3e
00000200: a893 1f3e 4f8d 123e c9d8 42bd 873d 893d
00000210: d2a7 863d 0288 643e 8fee 52be 6494 423d
00000220: 3aa2 9d3d 8ef4 cc3d 7d42 8f3e c05b fa3d
00000230: 3fea 3b3d 200f 0abe aaa2 dd3d 034b 35be
00000240: fe07 623d 0796 913e 85d4 26be 6e11 8ebe
00000250: e58d 48be d3fc 2ebe 825d c7b9 36e2 723e
00000260: 3b71 1f3c 2c13 65be 7777 51be c46e 3c3e
00000270: 5e0b 633e 18d0 3e3b 7ef7 c63d a155 19bc
00000280: e842 553d abc0 603d 1902 be3d 38d0 623c
00000290: 3624 8b3e 9869 49be 6578 923e ad54 98be
000002a0: 5f1e 543e 3860 a5bd 0069 27bd 1988 22be
000002b0: 2324 64bd d426 8bbe 98fc 4cbe a7f2 1ebc
000002c0: 3e3a 653e 5045 ca3d 4359 3d3d 3d9a 8f3e
000002d0: cbca 33bd 754f c2bb b5e5 68be 8bd3 2cbe
000002e0: 260e fabd 4064 1b3d 4aa3 53be 2fc9 41be
000002f0: fb70 8f3e b9e3 d0bd 486b 8bbd bb8c 2fbd
00000300: 52ef 693e 8ada 183d b2ab 8d3e 928f 133c
00000310: 8785 4bbd 43bd eebd 17ca 0b3d 2623 79be
00000320: cb43 5f3d e198 febd 86e0 8a3d 301f 183e
00000330: 988c 81be 6718 8e3d ef4c 48be 3912 dc3d
00000340: 05fe 0b3e df02 1a3e abe3 0ebe 8317 483e
00000350: 4ced 85be e3c7 2b3e 2ede 013e 863c 0b3d
00000360: 1196 873e 5c38 87be 9217 90bd 46ef 733d
00000370: 10f3 61be 439a 92be 91d0 3dbe 4f7a 26be
00000380: 289c 853e 2569 95be 0b1f 993d f96a 4c3d
00000390: 0816 483e ddce 193e 2b5f f5ba 46fe 7e3e
000003a0: 1e66 d6bd b82a 0c3e 4862 6bbe c336 8a3e
000003b0: 611a ef3d 0eec 05be af44 ccbd 927f 5dbe
000003c0: ae2f e53c bb6f 3bbe 54e4 343d f587 69bd
000003d0: 5102 1a3c 9455 67bc 06c9 8cbd 735c 2ebe
000003e0: 654c 383e d5fc 273e b74b 943e 51dc f33d
000003f0: 78a7 c33d 3b1e 883e dd36 4a3d ec08 73bc

l2.att_dst f4 [1, 4, 64]
0.19826952 -0.29452592 0.25205278 0.07831091 0.15276927 0.05866979 0.17531975 -0.27193204
0.2434422 -0.058286246 -0.102790184 -0.054254238 -0.09662291 0.044770874 -0.06763448 -0.20023355
-0.016373893 -0.034985997 0.2541981 -0.34697428 -0.38734326 0.008808342 -0.08128834 -0.2062533
-0.33424273 0.22630341 0.18823312 0.17426161 -0.18450084 -0.2985187 0.29895267 -0.111690715
0.36015174 0.36724323 0.25430128 -0.29072735 0.20360777 0.24666928 0.112328395 0.33795512
-0.07697818 0.075836815 -0.32348254 -0.23548117 -0.26182884 0.31852338 -0.15304239 -0.21911766
0.21511328 -0.24089052 0.13286401 -0.005417546 0.1119649 0.22761801 0.21831764 0.108499184
-0.20823939 -0.16966115 0.1393589 -0.25764665 -0.03179346 0.33481672 0.1264714 -0.32019982
-0.12422239 0.206592 0.26810145 0.22382261 -0.27571222 -0.031338554 0.272908 -0.116280966
0.16982776 -0.24824962 0.12782693 0.2441225 -0.23775151 0.14894953 0.19883107 -0.18080457
-0.27551484 -0.22915618 -0.12865464 -0.105582766 0.18361086 0.17864534 -0.23964103 -0.02352371
0.14807677 -0.2923789 -0.24733186 0.20814444 -0.21334806 -0.29088473 -0.19606267 0.08295806
-0.2445338 0.058716003 0.043317262 -0.270788 -0.2100189 -0.11058703 0.20124932 0.18157417
-0.19489427 -0.13123354 -0.14908883 -0.07188288 -0.09492933 0.26696786 -0.108398706 -0.27149186
-0.11713028 0.053780206 -0.2799894 -0.27554855 0.25882402 -0.08921431 0.30681518 -0.19358963
0.057987608 -0.14370699 -0.2952435 -0.15914997 -0.13251515 -0.12130969 0.076094516 -0.06322199
-0.15391003 -0.25257373 0.08395317 -0.25073296 -0.27532077 -0.06034766 -0.13442566 0.18459019
-0.22667529 0.16021848 0.052937362 -0.20480222 0.021191208 -0.18919621 0.20709647 -0.031170549
-0.066283554 -0.19893286 0.10488073 -0.25827646 0.011258563 -0.18746056 0.26851994 0.03265773
-0.23278357 -0.06784614 0.2011979 0.109753676 0.18849088 -0.12648347 0.04866416 -0.0058012456
-0.25028208 -0.031782035 0.06285109 0.27960852 -0.16657606 0.056060404 0.10442114 0.0019992648
-0.2510319 -0.024956875 0.22768101 0.14883545 0.19966924 -0.16873056 0.1846523 -0.2393569
-0.015158212 0.01733173 -0.1800358 0.24408415 -0.036368445 0.2248479 -0.23976961 -0.1266208
-0.056520436 0.08734965 0.2554258 0.2562313 -0.034879662 0.29041377 -0.21770714 0.19178131
-0.07418008 -0.086963266 -0.08788586 -0.17858627 0.1834278 0.06554959 0.20295271 0.20244664
0.22477286 -0.18571416 -0.049055625 0.018666288 0.11612953 -0.1060618 -0.27871358 0.06508064
-0.14238216 -0.12725194 0.11165065 -0.2324964 -0.13991238 -0.065807074 0.08574046 -0.18410544
-0.05432124 -0.2612638 0.18275492 0.10780267 -0.23967965 -0.062654205 0.24600065 -0.14619516
0.27226117 -0.058532156 0.3044811 -0.27414703 -0.16132712 -0.13267298 0.062304944 -0.27861178
-0.16544212 -0.22687264 -0.02041557 -0.10136064 -0.26407534 0.010786261 0.05787148 0.28930518
-0.23006867 -0.16315362 0.13578765 0.0035956 0.15260316 -0.0957457 -0.30315983 0.28832155
0.22042651 -0.00023640686 0.27746147 -0.052678492 -0.041381788 0.08884896 0.18156593 0.18464942
00000000: 2a07 4b3e 1acc 96be 100d 813e 7861 a03d
00000010: 8c6f 1c3e bc4f 703d 0587 333e ad3a 8bbe
00000020: e948 793e 8fbd 6ebd a983 d2bd b139 5ebd
00000030: 3be2 c5bd aa61 373d f283 8abd 060a 4dbe
00000040: 8b22 86bc 7a4d 0fbd 4126 823e 9da6 b1be
00000050: db51 c6be dd50 103c 807a a6bd 1134 53be
00000060: dd21 abbe 15bc 673e 2fc0 403e a371 323e
00000070: caed 3cbe 71d7 98be 5310 993e 1abe e4bd
00000080: cf65 b83e 4e07 bc3e c733 823e 37da 94be
00000090: 8e7e 503e df96 7c3e 6e0c e63d 7408 ad3e
000000a0: bca6 9dbd 5550 9b3d 819f a5be fa21 71be
000000b0: 6e0e 86be 7f15 a33e 25b7 1cbe 6160 60be
000000c0: a846 5c3e 01ac 76be 810d 083e ab85 b1bb
000000d0: da4d e53d b214 693e a98e 5f3e d234 de3d
000000e0: b53c 55be a7bb 2dbe 19b4 0e3e 43ea 83be
000000f0: dc39 02bd 196d ab3e b881 013e 3bf1 a3be
00000100: 4f68 febd da8c 533e 9844 893e c131 653e
00000110: 272a 8dbe db5c 00bd 99ba 8b3e b724 eebd
00000120: 54e7 2d3e 2635 7ebe 10e5 023e 40fb 793e
00000130: 2275 73be 3a86 183e 5f9a 4b3e d524 39be
00000140: 4810 8dbe eba7 6abe 0bbe 03be c73b d8bd
00000150: 7c04 3c3e ceee 363e 7564 75be ccb4 c0bc
00000160: 70a1 173e b0b2 95be 9044 7dbe d123 553e
00000170: ea77 5abe d8ee 94be a7c4 48be eae5 a93d
00000180: 1267 7abe 3180 703d 716d 313d baa4 8abe
00000190: 320f 57be 747b e2bd 4d14 4e3e 94ee 393e
000001a0: 5d92 47be 1662 06be beaa 18be 5537 93bd
000001b0: 4f6a c2bd 03b0 883e 2400 debd fb00 8bbe
000001c0: 00e2 efbd a248 5c3d c55a 8fbe b314 8dbe
000001d0: 9584 843e feb5 b6bd e116 9d3e 5c3c 46be
000001e0: 6a84 6d3d ed27 13be 282a 97be 36f8 22be
000001f0: 0db2 07be 3771 f8bd 71d7 9b3d 887a 81bd
00000200: 979a 1dbe 5851 81be a4ef ab3d 1260 80be
00000210: d8f6 8cbe 1c2f 77bd e1a6 09be 3605 3d3e
00000220: 911d 68be 5010 243e d9d4 583d acb7 51be
00000230: 2f99 ad3c a7bc 41be 1911 543e 6159 ffbc
00000240: acbf 87bd 0eb5 4bbe b5cb d63d d03c 84be
00000250: d675 383c a9f5 3fbe 727b 893e 1dc4 053d
00000260: d15e 6ebe ebf2 8abd d306 4e3e 89c6 e03d
00000270: c103 413e e284 01be 1254 473d 6018 bebb
00000280: f924 80be e12d 02bd 13b8 803d d928 8f3e
00000290: ea92 2abe 989f 653d c0da d53d 1906 033b
000002a0: 4187 80be 5c72 ccbc 3625 693e 5268 183e
000002b0: 1876 4c3e b4c7 2cbe 7e15 3d3e fa19 75be
000002c0: 265a 78bc 46fb 8d3c 4e5b 38be 32f1 793e
000002d0: 14f7 14bd 873e 663e 2a86 75be e2a8 01be
000002e0: f981 67bd 60e4 b23d 2cc7 823e c030 833e
000002f0: fadd 0ebd 1db1 943e 9fee 5ebe 5262 443e
00000300: baeb 97bd cc19 b2bd 80fd b3bd 52df 36be
00000310: 7fd4 3b3e dd3e 863d d6d2 4f3e 2c4e 4f3e
00000320: db2a 663e da2b 3ebe 8dee 48bd 0bea 983c
00000330: 52d5 ed3d ee36 d9bd 8cb3 8ebe 0049 853d
00000340: a1cc 11be 554e 02be 19a9 e43d 8913 6ebe
00000350: 3145 0fbe dcc5 86bd b298 af3d 2386 3cbe
00000360: f37f 5ebd 5ec4 85be 1b24 3b3e a5c7 dc3d
00000370: 956e 75be d950 80bd 98e7 7b3e 2fb4 15be
00000380: d165 8b3e 6abf 6fbd f2e4 9b3e 005d 8cbe
00000390: f032 25be 6ddb 07be 7833 7f3d 34a6 8ebe
000003a0: a969 29be 4d51 68be 8e3e a7bc 2b96 cfbd
000003b0: e234 87be dcb8 303c a50a 6d3d cf1f 943e
000003c0: 1f97 6bbe be11 27be eb0b 0b3e 28a4 6b3b
000003d0: 0144 1c3e 5216 c4bd c437 9bbe e29e 933e
000003e0: 7db7 613e fce3 77b9 6e0f 8e3e 67c5 57bd
000003f0: f37f 29bd 72f6 b53d 6bec 393e bd14 3d3e

l2.bias f4 [256]
-0.03977114 0.05303699 0.023967851 -0.03929922 0.02546859 -0.034592908 -0.010354081 0.038366593
-0.01961111 -0.03618354 0.017660897 0.030138403 0.021824772 0.012955651 0.0340862 0.020834614
0.0216292 0.015052386 0.01246751 0.07561596 0.06329017 0.029991854 0.025757052 0.03318731
0.056474544 -0.054856837 0.0153184375 -0.036524985 -0.019217325 0.06350095 0.0139559815 0.028176228
0.015963675 -0.056145232 -0.033177853 -0.021519478 0.0093901185 -0.0022907064 0.015885951 0.014342568
0.017990027 0.033619836 0.06853696 0.036843333 0.019224683 -0.02150721 0.03966928 -0.030661501
0.00778287 -0.030997127 0.0195708 0.022208372 -0.026779803 0.0056079617 -0.030031553 0.0025198443
-0.00520398 0.032907564 0.0051277606 0.0012438335 -0.03531769 0.01188992 0.02176849 0.0545692
-0.025338726 -0.0339588 -0.04630359 -0.03563163 0.047739543 0.025987314 -0.0032213156 0.07772219
-0.009309069 0.031032996 0.042077474 0.001933131 0.03539849 -0.032109104 -0.0052648582 -0.0070387633
0.048650187 -0.035053182 -0.052829556 0.024412934 -0.045828637 -0.033989303 -0.031135064 -0.0324438
0.044362873 0.03985742 -0.015940923 0.022319982 -0.02695215 0.021662164 -0.005121183 -0.011740306
0.047423504 0.030500403 -0.03839593 0.0326307 0.037835125 -0.021645863 0.032386366 0.03068766
0.04085002 -0.056171525 0.056573473 -0.029967153 0.032243174 0.013887537 -0.016201932 -0.027291233
-0.0070520504 -0.024627991 -0.014312448 -0.025142571 -0.026055817 -0.028824644 0.027589414 0.05146106
0.030477392 0.026734177 0.032357287 0.045513682 0.021367174 0.034071438 -0.024928637 -0.017532563
0.042404525 -0.01969377 0.022069057 0.060326707 -0.03531708 0.04148102 0.047645442 -0.030730205
0.02573251 -0.010953633 -0.024333816 0.056421228 0.04646439 0.051911607 -0.04931287 -0.022092583
-0.040781647 0.04736255 0.022762585 -0.03436339 -0.011197598 0.043961603 -0.05256567 -0.022030516
0.06852934 -0.0141526535 0.01744274 -0.036000647 0.033834014 0.02473311 -0.025337165 -0.0274349
-0.015010638 0.032845087 -0.040997457 -0.03597378 -0.018952131 -0.031633105 0.007079381 -0.035435155
0.024689602 0.049077574 0.029406082 -0.028650856 -0.039231103 0.048298176 -0.037827987 0.04424237
-0.020584324 0.036106084 0.03580305 -0.031159356 0.0068284306 0.012762488 0.03661904 -0.0335496
0.017066956 -0.03332537 0.018823707 -0.038015828 0.011035851 -0.08292855 0.06432398 0.029294241
0.045380827 -0.034624424 0.03419519 -0.03823433 -0.034336496 0.054276843 0.019586839 0.042618055
0.03753982 0.05042424 0.004267181 -0.01791022 0.04142936 0.04812645 0.051907685 0.05063195
0.06801593 -0.021306265 -0.044244416 0.043505836 -0.0424367 -0.023234593 0.030745042 0.041572552
-0.020059988 0.03336978 0.0045988634 -0.03653823 -0.016419478 0.016473684 -0.050007652 -0.07126904
-0.03797403 0.026679592 -0.03635949 0.05764457 -0.01502808 -0.01916287 0.052386265 0.029734429
0.0209615 -0.012126719 -0.036225576 0.032334108 0.037052058 -0.037653323 -0.033880144 0.022803664
0.021854121 -0.005619017 -0.03166466 0.0069767637 0.007939525 -0.031695995 -0.012773252 0.04637151
-0.027139066 0.03702796 -0.0059560356 -0.034163542 0.059233896 -0.031083811 -0.037667178 0.009592202
00000000: 10e7 22bd 513d 593d 3a58 c43c 38f8 20bd
00000010: 81a3 d03c 4bb1 0dbd 2aa4 29bc 4a26 1d3d
00000020: 7ba7 a0bc 3135 14bd 96ad 903c d0e4 f63c
00000030: ddc9 b23c f043 543c f99d 0b3d 5aad aa3c
00000040: b82f b13c 489e 763c 8744 4c3c 8adc 9a3d
00000050: 479e 813d 7ab1 f53c 7400 d33c 6bef 073d
00000060: da51 673d 90b1 60bd 2ffa 7a3c 399b 15bd
00000070: a76d 9dbc c90c 823d a1a7 643c d5d1 e63c
00000080: 41c6 823c 8bf8 65bd 80e5 07bd 9e49 b0bc
00000090: 03d9 193c ad1f 16bb 4123 823c 17fd 6a3c
000000a0: d25f 933c f4b4 093d 1b5d 8c3d 09e9 163d
000000b0: 157d 9d3c e32f b0bc 417c 223d d42d fbbc
000000c0: 7207 ff3b b0ed fdbc f152 a03c 55ee b53c
000000d0: 5161 dbbc fec2 b73b bb04 f6bc f923 253b
000000e0: 2686 aabb 15ca 063d c606 a83b 2008 a33a
000000f0: 48a9 10bd f0cd 423c d553 b23c f483 5f3d
00000100: 2993 cfbc 6218 0bbd d5a8 3dbd 79f2 11bd
00000110: 8a8a 433d 59e3 d43c b51c 53bb d02c 9f3d
00000120: 1185 18bc e938 fe3c 6e59 2c3d 1d61 fd3a
00000130: 02fe 103d d684 03bd d584 acbb 6da5 e6bb
00000140: 6b45 473d ed93 0fbd ce63 58bd a2fd c73c
00000150: cfb6 3bbd 5e38 0bbd f60e ffbc cae3 04bd
00000160: d8b5 353d 8941 233d 8a96 82bc 65d8 b63c
00000170: c1ca dcbc da74 b13c 99cf a7bb 6a5a 40bc
00000180: 263f 423d fbdb f93c 0d45 1dbd c5a7 053d
00000190: 01f9 1a3d aa52 b1bc 91a7 043d b064 fb3c
000001a0: 5a52 273d 1d14 66bd 96b9 673d ad7d f5bc
000001b0: 6b11 043d 8d88 633c eab9 84bc dd91 dfbc
000001c0: e314 e7bb a4c0 c9bc c27e 6abc cbf7 cdbc
000001d0: 0273 d5bc a921 ecbc 3203 e23c d5c8 523d
000001e0: b9ab f93c a201 db3c 1389 043d 8e6c 3a3d
000001f0: 360a af3c 7e8e 0b3d 2437 ccbc 73a0 8fbc
00000200: 5eb0 2d3d d454 a1bc 2bca b43c 2319 773d
00000210: a4a8 10bd 01e8 293d de27 433d e9bd fbbc
00000220: fccc d23c de76 33bc b657 c7bc f219 673d
00000230: 7251 3e3d 44a1 543d 4bfc 49bd 81fb b4bc
00000240: a80a 27bd 3cff 413d 9a78 ba3c a0c0 0cbd
00000250: 2176 37bc 1511 343d 1a4f 57bd 5779 b4bc
00000260: 1c59 8c3d 88e0 67bc 14e4 8e3c 6a75 13bd
00000270: 8995 0a3d 179d ca3c e38f cfbc 28bf e0bc
00000280: 2eef 75bc 9288 063d f3ec 27bd 3e59 13bd
00000290: 8041 9bbc b791 01bd 27fa e73b 7424 11bd
000002a0: d941 ca3c 9105 493d 06e5 f03c 33b5 eabc
000002b0: cbb0 20bd 4fd4 453d 85f1 1abd 7d37 353d
000002c0: 75a0 a8bc f9e3 133d 38a6 123d e841 ffbc
000002d0: 07c1 df3b c119 513c d9fd 153d 4e6b 09bd
000002e0: 00d0 8b3c 2f80 08bd 2d34 9a3c 7cb6 1bbd
000002f0: b7cf 343c 72d6 a9bd 4abc 833d 7afa ef3c
00000300: 3fe1 393d 57d2 0dbd 4110 0c3d 9a9b 1cbd
00000310: 6da4 0cbd 6551 5e3d 9474 a03c 4590 2e3d
00000320: 5bc3 193d a689 4e3d b5d3 8b3b 74b8 92bc
00000330: d5b1 293d 3e20 453d 279d 543d 7363 4f3d
00000340: f04b 8b3d 7a8a aebc a239 35bd 2d33 323d
00000350: 1bd2 2dbd 7956 bebc 07dd fb3c fb47 2a3d
00000360: d854 a4bc c0ae 083d 10b2 963b 1ca9 15bd
00000370: 2482 86bc d2f3 863c d3d4 4cbd 81f5 91bd
00000380: a88a 1bbd 298f da3c b0ed 14bd b61c 6c3d
00000390: 5638 76bc 73fb 9cbc fb92 563d 9e95 f33c
000003a0: 74b7 ab3c 25af 46bc 4561 14bd c570 043d
000003b0: e6c3 173d 5f3a 1abd e8c5 0abd c0ce ba3c
000003c0: 6a07 b33c bb1f b8bb cdb2 01bd 569d e43b
000003d0: c814 023c a9d3 01bd e746 51bc 0df0 3d3d
000003e0: bf52 debc a1aa 173d d92a c3bb 12ef 0bbd
000003f0: 3e9f 723d 7aa3 febc e648 1abd 9c28 1d3c

l2.lin.weight f4 [256, 256]
-0.02013738 -0.049262077 0.03965797 -0.032222115 0.054826748 -0.08124768 -0.114224814 0.059398044
0.0980322 0.04521966 0.06413853 -0.0026406716 -0.0016951242 0.026360067 0.032680385 0.091344565
-0.08725566 -0.011884997 0.046513855 -0.06193829 -0.038966592 0.05101631 -0.07696339 -0.06540984
-0.09068824 -0.07947742 -0.10671502 -0.10724345 -0.0868395 0.06314335 0.058957513 -0.09846882
0.06762188 0.058662895 -0.054242358 -0.051063772 -0.04050227 -0.041674964 0.076248616 -0.08205891
0.05557917 0.018173262 -0.026715755 -0.0821733 0.0322626 -0.08919632 -0.07417021 -0.0046593654
-0.053994693 -0.105850115 0.013142672 0.012783407 -0.08408785 0.015527003 0.048968397 0.006209577
0.054155834 -0.017580628 -0.07303567 0.07238558 0.052278027 -0.054266635 0.038065325 0.099055804
0.033856068 0.02613096 0.0052210893 0.102929175 0.08431318 0.045643844 -0.035439327 0.07851634
0.08462453 0.10106791 -0.086629875 -0.0035591638 -0.031092314 0.028590506 0.064733215 -0.007889253
0.06629968 -0.03617581 -0.09953529 -0.073999174 -0.11059905 0.04055773 0.07936158 0.023300266
-0.11970631 -0.11106912 -0.089526385 0.062029507 0.009259525 -0.049565062 0.022959176 0.008438346
0.07375997 0.03276081 0.08239417 0.000812673 -0.07616101 0.00556315 -0.04758537 0.058271766
0.001091549 -0.014519221 -0.0125481635 0.037514918 0.02134534 0.09141206 -0.030834459 0.052095816
0.09481669 -0.09870845 -0.10964418 0.072491124 -0.09899512 0.107255965 -0.02806788 -0.109905
-0.07775745 0.021187374 0.07096171 -0.07860117 -0.04066691 0.0010496818 0.012664581 -0.1188846
-0.017866429 0.048229042 -0.04580082 -0.008850124 -0.10083607 0.029583476 -0.044047665 -0.108991824
0.13225962 -0.087674744 0.04412869 -0.08822237 -0.009855052 0.015083729 -0.036097255 0.054825913
0.07691026 -0.030371454 -0.09740986 0.07714521 -0.019736247 0.012729596 -0.0057091704 0.10347305
0.10653828 0.008361294 0.070029356 -0.09326762 0.08774033 -0.044212315 0.07478082 0.0023893102
-0.052753273 0.08411216 -0.0031556434 0.100198954 0.00029535964 0.023220744 -0.0181796 0.0008639414
-0.103409104 -0.08900125 -0.09219468 0.045720033 -0.11133064 0.07879413 0.03960214 0.061298527
-0.030731438 -0.05114275 0.033489127 -0.09027769 0.05295799 0.07239472 -0.114833556 -0.067318656
-0.0013313788 -0.037280876 -0.063110486 0.07794671 -0.08905241 0.052106455 -0.0061087613 0.088882856
0.061692093 -0.028351985 0.042577665 0.06014691 -0.05806846 -0.04098332 0.07500407 -0.037407447
-0.104330674 0.047890253 0.01003575 0.028867466 -0.13056038 0.08113441 0.058038518 0.044534773
0.031162577 0.009596883 -0.041359026 0.0096981255 0.0514293 -0.08910306 -0.047598235 0.030972492
0.06666886 -0.10496423 0.016679183 -0.06483929 0.046344828 0.07706955 -0.024429403 0.082118884
0.0419815 -0.023181988 -0.069133304 0.0142664835 0.014344546 0.07856982 -0.08084721 0.049056873
0.023321116 -0.07675919 0.07212953 0.118137136 -0.05780413 -0.07921537 0.023211405 0.10311827
-0.0030137387 -0.067069985 -0.03149281 0.019751746 -0.009512006 -0.031469412 -0.04761062 0.04298962
0.0042415345 -0.014420443 -0.014075674 -0.004059702 -0.058677327 0.035481717 -0.047294784 -0.06562679
00000000: 26f7 a4bc 08c7 49bd 6570 223d 56fb 03bd
00000010: 0392 603d 2f65 a6bd b3ee e9bd 5d4b 733d
00000020: 1bc5 c83d 4038 393d 105b 833d 1e0f 2dbb
00000030: ee2e deba 11f1 d73c dedb 053d dc12 bb3d
00000040: 18b3 b2bd 4ab9 42bc 5085 3e3d 01b3 7dbd
00000050: 6f9b 1fbd 7af6 503d fb9e 9dbd 98f5 85bd
00000060: c2ba b9bd 0fc5 a2bd 688d dabd 74a2 dbbd
00000070: e8d8 b1bd 4d51 813d 6f7d 713d 05aa c9bd
00000080: 577d 8a3d 8148 703d 3c2d 5ebd 3f28 51bd
00000090: b5e5 25bd 5eb3 2abd 3c28 9c3d 800e a8bd
000000a0: fca6 633d 18e0 943c 00db dabc 7a4a a8bd
000000b0: ca25 043d 8fac b6bd 8de6 97bd 97ad 98bb
000000c0: 8a29 5dbd f2c7 d8bd 5d54 573c 7f71 513c
000000d0: 4036 acbd f964 7e3c 1693 483d b579 cb3b
000000e0: 82d2 5d3d 4005 90bc ba93 95bd e43e 943d
000000f0: 7c21 563d b146 5ebd 63ea 1b3d c5dd ca3d
00000100: a9ac 0a3d 9810 d63c ac15 ab3b 88cc d23d
00000110: 63ac ac3d 0af5 3a3d d428 11bd 2dcd a03d
00000120: a04f ad3d b1fc ce3d 016b b1bd dc40 69bb
00000130: 4fb5 febc a336 ea3c d992 843d ed41 01bc
00000140: 20c8 873d 162d 14bd 28d9 cbbd e18c 97bd
00000150: c181 e2bd dd1f 263d 5388 a23d 33e0 be3c
00000160: 9528 f5bd 3578 e3bd 9c59 b7bd a712 7e3d
00000170: 43b5 173c bc04 4bbd e214 bc3c fd40 0a3c
00000180: 780f 973d 3330 063d 46be a83d 9009 553a
00000190: 4efa 9bbd 164b b63b e0e8 42bd 60ae 6e3d
000001a0: 4f12 8f3a 07e2 6dbc d096 4dbc 3ea9 193d
000001b0: 6cdc ae3c 3f36 bb3d 8c98 fcbc 6c62 553d
000001c0: 412f c23d a827 cabd 218d e0bd 3a76 943d
000001d0: f4bd cabd 04a9 db3d 9cee e5bc df15 e1bd
000001e0: 4c3f 9fbd 2591 ad3c 5f54 913d a6f9 a0bd
000001f0: 5992 26bd 7a95 893a 1a7f 4f3c c579 f3bd
00000200: 9e5c 92bc d18b 453d a499 3bbd 1c00 11bc
00000210: 2483 cebd 0c59 f23c 536b 34bd 1b37 dfbd
00000220: 116f 073e d18e b3bd 49c0 343d eead b4bd
00000230: 1677 21bc bf21 773c b7da 13bd 2391 603d
00000240: 2083 9d3d 8ecd f8bc d27e c7bd 4ffe 9d3d
00000250: e9ad a1bc cc8f 503c fe13 bbbb aee9 d33d
00000260: be30 da3d cffd 083c 8d6b 8f3d 1803 bfbd
00000270: 34b1 b33d f917 35bd b026 993d f995 1c3b
00000280: d113 58bd ff42 ac3d e9ce 4ebb 1c35 cd3d
00000290: 80da 9a39 6e39 be3c 62ed 94bc 207a 623a
000002a0: 27c8 d3bd 4a46 b6bd 90d0 bcbd ee44 3b3d
000002b0: 5201 e4bd d15e a13d db35 223d 2a14 7b3d
000002c0: 7fc0 fbbc 0f7b 51bd e52b 093d 82e3 b8bd
000002d0: 7aea 583d af43 943d db2d ebbd 5dde 89bd
000002e0: a981 aeba d5b3 18bd 1240 81bd 86a2 9f3d
000002f0: 1c61 b6bd 946d 553d 012c c8bb 3708 b63d
00000300: d9b0 7c3d 6c42 e8bc eb65 2e3d 9b5c 763d
00000310: 32d9 6dbd 20de 27bd bc9b 993d 8d38 19bd
00000320: 52ab d5bd 9228 443d fd6c 243c 777b ec3c
00000330: 9fb1 05be cc29 a63d ccb9 6d3d 186a 363d
00000340: a948 ff3c 3f3c 1d3c 1568 29bd e3e4 1e3c
00000350: 88a7 523d aa7b b6bd 5ef6 42bd 06ba fd3c
00000360: af89 883d 7cf7 d6bd c8a2 883c 76ca 84bd
00000370: 13d4 3d3d a4d6 9d3d 2c20 c8bc f22d a83d
00000380: cbf4 2b3d 27e8 bdbc c395 8dbd f8bd 693c
00000390: 6305 6b3c 37e9 a03d 3993 a5bd dcef 483d
000003a0: ed0b bf3c ec33 9dbd a6b8 933d e2f1 f13d
000003b0: 06c4 6cbd ab3b a2bd d825 be3c ac2f d33d
000003c0: 2582 45bb fd5b 89bd 9bfe 00bd 6ace a13c
000003d0: 3fd8 1bbc 12e6 00bd 5a03 43bd e215 303d
000003e0: 92fc 8a3b b943 6cbc a89d 66bc 4007 85bb
000003f0: a357 70bd 4755 113d 2db8 41bd 5767 86bd
