gcn_best.pth (torch, 206974 bytes, 13 tensors)

convs.0.bias f4 [128]
00000000: 5f07 78bd 6a41 76bc d584 443d 1e78 02bd
00000010: 422f 54bd a40e 9f3c dfe5 073c d2b7 e93c
00000020: 5009 74bd 0832 a8bc 5e38 61bd e1be 1b3d
00000030: 8a3a 563d e602 b3b9 9dd6 b33b 6835 42bd
00000040: 4815 b63b 8001 d43b ced3 04bc 6c16 a23b
00000050: 5fa7 ae3b 84c9 433c ec51 a93b 4675 143c
00000060: 058e c5bb 5d47 0bbc 754b 173d d3aa beba
00000070: fa68 c13c 2943 eb3c 6f8f 633b 91ac 32bc
00000080: 1896 003c c46f 62bd 70ef f33c 473a 563c
00000090: fe5a 663b 1ce8 d7bc dfb9 313d ef61 3b3c
000000a0: 8c7f a4ba 49b8 a23c 9767 1a3d 096e d73c
000000b0: d296 1c3d 98f6 7ebc 6a60 0b3c 198b 72bd
000000c0: 6327 debb 9653 70bd c9bc 233c 526d 34bd
000000d0: b359 8938 5246 7cbc 71f7 3d3b 1486 083c
000000e0: 76e6 6f3c 9860 343c 8326 a43c ad47 52bd
000000f0: af20 49bd 616c 933b 05b7 26bc fa6d 6bbc
00000100: fd77 453c bf97 633c 558f 9e3c eb74 aa3c
00000110: 3962 873b fde1 8e3d 1605 a2bc fb23 57bc
00000120: 3050 8e3b a86c 96bd 3c19 74bc 0ff1 19bc
00000130: a2ee 4fbc 5491 80bd aaa0 853d 0d5f 91bc
00000140: 4015 2abd 5824 5b3b 20f2 0dbc bde8 84bc
00000150: 91f2 003d cfd2 093d f31d 1a3d 5643 07bc
00000160: 298a a13c c78f eeba 2dac 313d 3bdd 5e3c
00000170: 7ed3 55bd c477 763a b424 8c3c bbc9 7e3b
00000180: 6c3e 4c3b d5b3 36bc 6f6f fb3c cc9c e0bc
00000190: e926 a9bd 7c4f db3a a3f6 3a38 c646 8f3c
000001a0: 4184 153b 1445 913d 74d8 b5bc 87fe 113c
000001b0: 86ad 013d 86aa 5f3c c1f3 f83b e46c e0bc
000001c0: a539 abbd ccd1 7b3c cec6 5fbd cd5c 083d
000001d0: 6c29 15bd 614e cfbc 91c5 e23c e9ab 133d
000001e0: 2100 b33c ff57 35bd e0b3 063d dcb3 983c
000001f0: 5ae5 a93c 5ca1 a8bc be9e 6fbc 3786 26bc
-0.060553905 -0.015030244 0.04797824 -0.031852834 -0.05180288 0.01941616 0.008294552 0.028530035
-0.059579194 -0.02053167 -0.054985397 0.038023833 0.05230192 -0.000341437 0.0054882304 -0.047414213
0.005556736 0.0064699054 -0.008107139 0.0049465206 0.005330011 0.011949901 0.0051672366 0.009061163
-0.006028893 -0.008500901 0.036937196 -0.0014546759 0.023609627 0.028718548 0.0034722944 -0.010905401
0.007848285 -0.05528237 0.029777259 0.013075418 0.003514945 -0.026355796 0.04339015 0.011436923
-0.0012550219 0.019863265 0.037696447 0.026297586 0.03822977 -0.015561722 0.008506874 -0.059214685
-0.0067795976 -0.058673464 0.00999374 -0.04404957 6.549377e-05 -0.015397625 0.0028986598 0.008332748
0.0146423485 0.011009358 0.020037895 -0.051337887 -0.049103435 0.0044990038 -0.010175471 -0.014369482
0.012052533 0.01389116 0.019355455 0.020807704 0.004131582 0.069766976 -0.019777816 -0.013131137
0.004343055 -0.07344943 -0.0148985945 -0.009395852 -0.012691172 -0.06277719 0.06524785 -0.017745519
-0.04152417 0.003343841 -0.008663684 -0.01622426 0.03148133 0.03364831 0.037626218 -0.0082558
0.0197192 -0.0018200808 0.04337709 0.01360255 -0.052203648 0.0009402002 0.017107345 0.0038877565
0.0031165136 -0.011151274 0.030692784 -0.027418517 -0.08259375 0.0016732062 4.4575554e-05 0.017489802
0.0022814425 0.07093254 -0.02219794 0.008910782 0.031659625 0.013651496 0.007597417 -0.027395673
-0.08360604 0.015369844 -0.054632954 0.033291627 -0.036416456 -0.025305929 0.027682098 0.03605262
0.021850647 -0.044273373 0.032886386 0.018640451 0.020739246 -0.020584755 -0.014625249 -0.010163835

convs.0.lin.weight f4 [128, 128]
00000000: 66e6 a5bc e6a0 ebbc f703 ffbd 4ae3 f4bd
00000010: 5d04 023e 358f 1b3e 1501 383e 403a 5fbb
00000020: ab99 0b3e 98db 3cbd fc6f 553d 3cd3 01be
00000030: c8dc 593d 8c1e c9bd 362a b3bd ec11 debd
00000040: 74f2 283d 80c4 a73a be15 78bd 3ccc 223d
00000050: f427 ebbd fceb 913d 680e 3a3d 028b aabd
00000060: 8c82 2e3d c08e ecbb c264 b43d acae fdbc
00000070: ca7c a6bd f0f5 193d 6e95 2ebd 32e4 b53d
00000080: 224a 16be 226b ef3d 7a55 2cbd e2df a43d
00000090: 7a0c f73d 0050 f83a 84f3 c3bd 2512 b7bd
000000a0: b414 573d 837f 10be c866 ecbc 58f7 85bd
000000b0: e2f9 0bbe c8cc c43d e0ee 533d 00aa 3b3a
000000c0: 53ba a7bd 5ee4 dc3d afab 013e e094 48bc
000000d0: dcee 113d a4ff 02bd 28d2 c03c e132 85bd
000000e0: 00ff 043b 8d6f 013e 4c79 dabd 06c3 ce3d
000000f0: 6e77 f93d 0504 0bbe e88d a7bd 7077 593d
00000100: 400a 13bc 60dc c9bb cc9d ffbd 9675 90bd
00000110: 5954 1b3e 40c6 debb 020b 983d c0aa 0dbe
00000120: 60b3 07bd 5444 c3bd b245 c23d 881f 04bd
00000130: 72a5 c4bd c7f7 ffbd e063 e0bb d0b3 0a3c
00000140: fe10 babd 8672 e63d a560 07be c0cd 1fbd
00000150: c94e c1bd fa96 69bd 40be d0bb 181b c03c
00000160: f09e ad3c cfd6 003e f7d6 173e 543f 223d
00000170: 52c6 ce3d a8bb 04be 761e bd3d 31d9 013e
00000180: fd95 023e 3a30 9d3d a0c4 04be 3fc9 0c3e
00000190: c2da c83d a0f6 433c 385a a3bc 0e61 13be
000001a0: 0e4d 11be 12ec dc3d 141d af3d e2c1 e13d
000001b0: 982e 463d a0d0 8f3b 969f 8cbd babe fd3d
000001c0: ee7d f0bd 401a 9ebb ce95 22bd 80fb 843b
000001d0: 7db0 1a3e 1379 0d3e 9c1d 6fbd 484b 313d
000001e0: fbe9 9ebd 90c2 d9bc 925c a6bd 6a27 903d
000001f0: 7631 32bd f010 543d b262 fd3d 3f7d 0a3e
00000200: 407d d3bc 6f78 4d3d 5017 133e 6e76 a43d
00000210: 1330 f0bd 41b7 99bd da2d c3bb a092 be3b
00000220: 5ae7 af3d c6b5 fbbd 5a1c 06be d425 4bbd
00000230: 2694 febd f9ec 193e 03eb 1bbe 9ed6 d63d
00000240: d476 02be 80b4 72bb 40c7 bcbb e275 01bd
00000250: 8c9b 9b3d a473 68bd 0c6c 0b3d 1ce4 fabc
00000260: 2a07 cf3d d97b 083e d7bc 93bd afd7 e8bd
00000270: b68e 45bd c035 64bd 6053 af3c ae24 84bd
00000280: 1c5b 72bd 082c 7fbd 7805 283d 734c a6bd
00000290: 7fcc 0e3e c672 19bd 67f8 003e fa18 7ebd
000002a0: 6c7a ebbd 2073 f73b 79a3 063e 2cb8 c5bd
000002b0: 66d9 37bd f5d4 febd 7e30 10be 1e45 e53d
000002c0: 42b7 e13d a2c5 dbbd ac97 0ebe cc14 d2bd
000002d0: 2329 0ebe 1ef0 73bd eeb0 00be 560e b43d
000002e0: 98dc 8dbc 08df 7dbd 9863 8a3c 88a7 12be
000002f0: 0093 bf3c 3505 0e3e 6ba1 003e 5a4f 47bd
00000300: ae5c f4bd a209 9b3d 804a cb3c 6ee4 f73d
00000310: 243e 773d ccc3 0d3d 118f 0e3e d045 13be
00000320: f8de 2a3d 1577 08be e05b d7bd 914c 0d3e
00000330: 184e 163d 32e3 f03d c0d8 54bc 4c3d 733d
00000340: 16f7 d33d 621c ff3d f0d2 fe3c a8d2 f4bd
00000350: 0000 e034 5054 1bbd f074 7f3d 446f 16bd
00000360: 64e1 53bd e039 d9bd a05c 9e3d 5065 913c
00000370: 0ae4 dd3d b836 113d 0f40 13be d0fd 2a3c
00000380: 9283 e9bd d0e1 d43c 2057 29bd e023 a13b
00000390: bde3 10be e4ea a2bd 76e8 67bd 5052 013c
000003a0: b6f4 c5bd 6c93 cdbd 588a 893d 087a 0abd
000003b0: 22c9 13be 50fa a3bc 62b8 d83d b8a2 85bc
000003c0: 4b80 00be dd27 08be 7034 5dbd 7e59 00bd
000003d0: 3e51 ebbd a037 19bc 8e5f 65bd 78c8 fcbd
000003e0: 50c5 e4bc 5a16 c83d ebc0 fbbd 8d31 1b3e
000003f0: 1e10 cabd 4085 f0bc d285 f5bd 38e8 c3bc
-0.020251464 -0.028763246 -0.12451928 -0.119574144 0.12696977 0.15191348 0.17969163 -0.003406182
0.13632838 -0.04610786 0.05210875 -0.12678236 0.05318907 -0.098202795 -0.087482855 -0.10843262
0.041246846 0.001279965 -0.06056761 0.039745554 -0.1148223 0.071250886 0.045423895 -0.08327295
0.042604968 -0.0072191656 0.088082805 -0.03096708 -0.081292704 0.03758806 -0.042622976 0.088814154
-0.14676717 0.11690356 -0.042073704 0.08050515 0.120629266 0.001894474 -0.09567931 -0.08939008
0.05250998 -0.14111142 -0.028857604 -0.06541318 -0.13669541 0.096093714 0.05174148 0.0007158816
-0.081898354 0.10785745 0.12663148 -0.012242526 0.035628185 -0.03198208 0.02353771 -0.06503845
0.0020293593 0.1264021 -0.10667667 0.100957915 0.121809825 -0.13575752 -0.08181363 0.05309242
-0.008974612 -0.006160304 -0.12481269 -0.07053678 0.15168895 -0.0067985356 0.074239746 -0.13834667
-0.03313005 -0.09534517 0.094859496 -0.032256633 -0.09601869 -0.12498432 -0.0068478435 0.008465722
-0.09085272 0.11252312 -0.1322046 -0.039014578 -0.09438855 -0.057028748 -0.006370336 0.02345042
0.021193951 0.12581943 0.14828096 0.039611176 0.1009642 -0.1296221 0.092343256 0.12680508
0.12752528 0.07675214 -0.12965631 0.13748644 0.0980735 0.011960655 -0.01994048 -0.14392492
-0.1418955 0.10787214 0.08550468 0.11023308 0.04838428 0.0043888837 -0.06866376 0.12389894
-0.11742769 -0.0048249066 -0.039693646 0.0040583014 0.15106387 0.13815717 -0.058377847 0.043284684
-0.07759472 -0.026582032 -0.08123125 0.07038768 -0.0435042 0.051773965 0.1237234 0.1352434
-0.02581656 0.050163683 0.14364362 0.08030401 -0.117279194 -0.07505656 -0.0059563937 0.005815819
0.08589049 -0.1229053 -0.13096753 -0.049596623 -0.12430601 0.15031804 -0.15226369 0.10490154
-0.12740642 -0.0037033856 -0.005761057 -0.031606562 0.075980276 -0.05675091 0.03403859 -0.03062635
0.10108788 0.13328494 -0.07213753 -0.113692634 -0.048231803 -0.055715322 0.021402061 -0.064523086
-0.05916892 -0.06229785 0.04102084 -0.0812005 0.13945197 -0.037462972 0.12594758 -0.06203554
-0.114979595 0.0075515658 0.13148297 -0.096542686 -0.04488506 -0.12442962 -0.14080998 0.11194824
0.11021282 -0.10731055 -0.13925046 -0.10257873 -0.1388288 -0.059555165 -0.12567493 0.08791797
-0.017317101 -0.061980277 0.016893193 -0.1432172 0.023385525 0.13869174 0.12561576 -0.04865966
-0.1193174 0.07570197 0.024815798 0.121041164 0.060361996 0.034610555 0.13921763 -0.143821
0.041716546 -0.13326676 -0.10515571 0.13798739 0.03669557 0.11762084 -0.01299113 0.05938463
0.10349862 0.124565855 0.031106442 -0.11954242 4.172325e-07 -0.037922204 0.06236738 -0.036727205
-0.05172862 -0.10606742 0.077325106 0.017748505 0.108345106 0.035452574 -0.14379905 0.01043649
-0.11402048 0.025986582 -0.041342854 0.0049176067 -0.14149375 -0.07954958 -0.056618176 0.00789316
-0.096658155 -0.10037884 0.0671584 -0.033807784 -0.14432195 -0.02001682 0.10582043 -0.016312942
-0.1254894 -0.13296457 -0.054005086 -0.031335346 -0.11490105 -0.009351641 -0.05599933 -0.12342924
-0.027926117 0.09769888 -0.122926556 0.15155621 -0.09866355 -0.029360414 -0.11988415 -0.023914441

convs.1.bias f4 [128]
00000000: 65e4 6f3b ae62 053c fa9a 05bc c8a9 2abd
00000010: 3e57 d03b ad3f 353a 9cdd 0c3a f9dc c03c
00000020: 76fa 30bc 0b58 40bc 0768 0a3d 6875 233b
00000030: 598c 81bb 5f6e 143c 6991 8bbc 863e e63b
00000040: d30a b43b 885c fd3c 89bb d23b ac09 2abc
00000050: 44d6 adbb bd90 b43c 1f2a 833a 0d33 d8bb
00000060: 7b8b 3cb9 e9cf 2d3a 4fc2 9b3b 836f c4bc
00000070: ba56 ad3c a327 92bc 0b5d af3c d246 d2bc
00000080: 768e a33a a9d2 5f3b a3db f0bb b5e9 97bc
00000090: e4f7 e7bc c929 07bc c978 aabb 7897 913b
000000a0: 5cfa 173a e468 d93c a1ad 03bd defa 363c
000000b0: 8bec a13b 3e9b 84bc 829b a03c db46 783c
000000c0: fa26 b53c 88f5 b13c 7e5c 9bba 6f00 b33c
000000d0: b490 163c a928 9fbb 1a39 60bc ad8f a6bb
000000e0: 47f5 d0bc 10db adbc 532f b2bc f81f 403b
000000f0: 0938 1abd faf4 583c a194 bc3b f4d4 843b
00000100: a390 913c 9ef6 85bc 4020 233d 4a35 ec3c
00000110: 34a4 32bb 788a 8c3c 3310 663b b761 a23c
00000120: 109a dfbb d317 27bc a713 7f3c 17e6 ab3b
00000130: be31 b63c fcc7 c23c c18c 003d 4a3a a9bc
00000140: 6d29 573c 04f3 a93a eb59 a9ba 3dcb 25bb
00000150: 835e 87bb 68cf a03c 4d76 443c 50ab ec3b
00000160: 2d13 80bc f559 25bc 3e13 1e3d 0cc7 40bb
00000170: de07 29bd 3072 8b3c 0292 5f3a c8fa d73c
00000180: c8cc 02bc 1b88 0f3d 0d17 eabc c90e 62bc
00000190: f059 48bc 9aab 01bc 1ff2 103d 61f2 09bb
000001a0: 174f b63b 2a73 db3c d68a 8fbc a05e 463c
000001b0: d01e b83c a623 293c 0991 9039 193a 0cbc
000001c0: e2bb 813c 0d43 353c 7047 843c 8b1f 7ebc
000001d0: f1cd 16bd 2898 fabc edce 9d3b ab72 983c
000001e0: 4431 343c 98dd 6bbc 5ef1 073c 1398 f9bc
000001f0: 2601 883c 8a6c c83c 8188 b73c 5a05 c63b
0.003660464 0.008141203 -0.008154625 -0.041665822 0.0063580563 0.00069140905 0.00053735985 0.023542868
-0.010801902 -0.011739741 0.033790614 0.0024941806 -0.0039534983 0.009059518 -0.01703711 0.0070264963
0.0054944544 0.030927911 0.0064310473 -0.0103782825 -0.0053050835 0.022041673 0.001000706 -0.0065978826
-0.00017981038 0.00066304073 0.004753388 -0.023978954 0.021159519 -0.017841166 0.021406671 -0.025668535
0.001247837 0.0034152663 -0.0073504015 -0.018544057 -0.028316446 -0.008249708 -0.005202387 0.0044431053
0.00057974993 0.026539274 -0.032148007 0.01116821 0.004941528 -0.016187306 0.019605402 0.015153612
0.022113312 0.021723524 -0.0011853126 0.021850793 0.009189773 -0.004857142 -0.013685489 -0.0050830455
-0.025507582 -0.021222621 -0.021751082 0.002931593 -0.037651096 0.013242001 0.0057550226 0.0040537063
0.017769163 -0.016352948 0.039825678 0.028834004 -0.0027258517 0.01715587 0.003510487 0.019821985
-0.0068237856 -0.010198551 0.01556865 0.0052459347 0.022240516 0.023777 0.031384233 -0.020657677
0.013132435 0.0012966101 -0.0012920474 -0.0025298141 -0.0041311397 0.019630149 0.011991096 0.0072225705
-0.015634144 -0.010092248 0.03859257 -0.0029415516 -0.04126727 0.017022222 0.0008528532 0.026364699
-0.007983394 0.03504191 -0.028575445 -0.01379747 -0.012228474 -0.007914448 0.035387155 -0.002104901
0.0055636275 0.026788313 -0.017522257 0.012107521 0.02247563 0.010323441 0.0002757388 -0.008558773
0.01583666 0.011063349 0.016147345 -0.01551045 -0.036817495 -0.030590132 0.0048159272 0.018609365
0.010998074 -0.014396094 0.0082972925 -0.030468022 0.01660211 0.024465818 0.022403957 0.0060431184

convs.1.lin.weight f4 [128, 128]
00000000: 75f1 1ebe 4004 68bd efe0 2d3e 321a cfbd
00000010: 1caa 41bd 2cb3 a83d dc09 46bd 2d2f 313c
00000020: dadf 8d3d a2a8 c43d cb25 dabd 07a7 4dbd
00000030: 288d b6bd e1b2 d4bd df57 81bd e595 40b9
00000040: 0c15 e8bd 04d9 80bb b2ae e5bd c60f 6b3d
00000050: 90b5 8ebd bafa 51bd 59ea 3e3d 9e68 16bc
00000060: 933c 3a3d cc57 143e c570 04bd 1497 a2bd
00000070: 2420 c6bd f1d5 8b3b 5b4c e6bd fee0 a03b
00000080: df2d 89bc ab6a a93c 7be0 67bd 9187 813d
00000090: d57f 133e b0de f1bc d83e d6bc dcad 013e
000000a0: 93d4 dbbd 9b39 4a3d 0b65 d7bd fa25 af3d
000000b0: bbae 0bbd b96a e6bc 9885 183e a819 2abd
000000c0: c32f 543c d9e0 e6bc 53dc f3bd 871d e83d
000000d0: 414f 0abe 40e1 d63d 0e98 da3d b31b ef3d
000000e0: dd45 333e 6784 adbd 83a6 c0bc ece6 d43d
000000f0: 836f 09bd 6217 c63d 9676 643d b2bb d23d
00000100: f7b2 123d 7cc9 a83d 5eda 93bd b02d c4bd
00000110: a466 0e3e 757a 18bd 3cd8 133d 3e4c fbbd
00000120: 6bd1 aa3d 0332 013e b125 6e3c 1fa8 0dbd
00000130: ea8f c93d 98ab 6b3d 89d7 3e3e a841 f8bd
00000140: c0ab e43d 2181 a83c 44db 12be 5d02 d1bd
00000150: 4dd5 a7bd a088 c73d 7eda 363d d4b6 8a3c
00000160: caf9 eabd f925 02bd 8a08 0f3e 9e56 55bc
00000170: 6891 fd3c 7da7 203e 5b94 b13c 4a77 243e
00000180: c8b6 4f3d 466b a0bd a8a0 933d 0f89 08be
00000190: 306c 0c3d d0da 6cbc db2f 3f3d 3bb9 aabd
000001a0: 0e68 95bd 0c3e d8bd f0af dbbc 1001 c9bd
000001b0: 5c23 d0bc 01b8 ba3c b26a febd 3aec 1c3d
000001c0: fd4e 56bd f87b 643c 4ed6 ac3d 8e4d 123e
000001d0: a109 abbd 4b8c 64bd 25da e03d e642 9bbc
000001e0: 9e8e acbd 06d9 d0bd b348 183d 0d17 05be
000001f0: 00e3 063e 263f d63c 249c c03b 704e 03be
00000200: 8853 60bc d320 1f3c 9b88 eabc bde7 f7bc
00000210: b987 e8bd 2fb1 7abd d784 a4bd 476a e7bd
00000220: 86f7 6c3c 2c1a bf3c 63e7 60bd 877d 8b3d
00000230: 5e1a b53d b909 033e 61a6 0dbe 6581 893d
00000240: 8ada e1bd 7948 adbd 0f46 c63d 59d1 853d
00000250: 9af1 08be e231 0cbe f409 e1bd ca1f a5bd
00000260: fc50 e33d b67b 123e 120e f7bb 4d85 b1bd
00000270: 4849 583d 7ca8 17be 6a37 0fbe 4873 eb3d
00000280: 702e 4f3d 6d7e 82bd 4c86 9b3d d96e de3d
00000290: dc1a 57bd ac44 c6bd 9b63 81bd ca25 f9bd
000002a0: 3d56 7c3d f9b6 e6bd aec8 913d 603a d0bd
000002b0: 094c 98bd 6617 813c 4e04 773d 415a 8abd
000002c0: 71a0 c6bd c4a2 ef3d a540 9dbd 9e49 a73d
000002d0: b19b 7e3d 9e04 903d eb3d 2d3d 4cb5 adbc
000002e0: 90ea 97bc 032a b93d fca4 fdbd 9f47 82bd
000002f0: 48ef ecbd 471a edbd 08dc 20be 96b5 39bd
00000300: bdb8 0abe e009 833b afb1 13be 35ea 5a3d
00000310: 8627 e63d 5905 f0ba 3440 47bd 9b11 7e3c
00000320: c4c7 abbd e56c 003e 040c d53d b6ab 71bd
00000330: e4da 7b3b 10cc 0b3e f9cb f1bd c720 d0bd
00000340: 7779 c23c 29d9 893d d771 e83d a544 fd3d
00000350: 71b9 11bd 7110 cabd b942 d83d 9f93 49bd
00000360: 5f95 48bd efd0 1dbe 22c1 1cbd fae4 073d
00000370: f5c6 73bb 4d49 963d bb80 4c3d 5079 b43d
00000380: e511 72bd ef78 b43d 1ad6 67bd 5b7a 123d
00000390: e437 a33c aeb9 e7bd 9a26 05be 8822 25be
000003a0: ce81 0abd a871 f4bd 36ca cabd de38 0c3e
000003b0: 3ac5 933d 1eb9 b8bd a591 a0bc b09c c53c
000003c0: 7eda ef3d 0346 cdbd 5afe 83bc 93e2 4fbd
000003d0: 847f c9bd 9a69 0ebe 6b96 e83d 04d0 05be
000003e0: b5b3 933d ff47 2dbd 2fab d83d d119 0ebd
000003f0: 9332 303d 2371 0dbd 6c5d 1bbe eeec c83d
-0.15521796 -0.056644678 0.16980337 -0.10112418 -0.04728137 0.08237299 -0.048349246 0.01081447
0.06927462 0.09602477 -0.1065174 -0.050208118 -0.08913642 -0.10385681 -0.06315588 -0.00018366387
-0.113321394 -0.0039321203 -0.11214961 0.05738809 -0.06968224 -0.051264502 0.04661021 -0.009180216
0.045467924 0.14486617 -0.032334108 -0.07938972 -0.09674099 0.004267447 -0.112450324 0.0049096337
-0.016745506 0.020680746 -0.056610566 0.06324685 0.14404233 -0.029525131 -0.026153013 0.12663978
-0.10733905 0.049371343 -0.10517319 0.08552165 -0.034102183 -0.028127061 0.14894712 -0.041528374
0.01295084 -0.028183388 -0.11907258 0.11333757 -0.13506795 0.10492182 0.106735334 0.11675205
0.1750712 -0.08472519 -0.023516899 0.10395607 -0.03355361 0.09672429 0.055777155 0.10289706
0.035815205 0.08241555 -0.072193846 -0.09579027 0.13906342 -0.03722616 0.03609489 -0.122704014
0.083407246 0.12616734 0.0145353535 -0.03458416 0.098419026 0.05753669 0.18636908 -0.12121898
0.11165571 0.020569386 -0.14341456 -0.10205529 -0.08194981 0.09742856 0.044641964 0.016932882
-0.11473425 -0.031774495 0.13968101 -0.013021139 0.030953124 0.15688892 0.021677187 0.1606113
0.050711423 -0.07832961 0.07208377 -0.13333534 0.034282863 -0.014456466 0.046676498 -0.08336111
-0.072952375 -0.105587095 -0.026817292 -0.09814656 -0.025407486 0.022792818 -0.12422694 0.03831122
-0.052321423 0.013945572 0.08439313 0.14287397 -0.08351446 -0.055797856 0.10979108 -0.018952798
-0.084256396 -0.10197644 0.037178706 -0.12997074 0.13172531 0.026153158 0.0058779884 -0.1282289
-0.01369179 0.009712416 -0.028629592 -0.030261869 -0.11354012 -0.06120413 -0.0803315 -0.11299568
0.014463311 0.02332791 -0.054908168 0.06811052 0.0884292 0.12796678 -0.13833 0.06714133
-0.11028011 -0.08461089 0.09681331 0.065340705 -0.13373414 -0.13690904 -0.109882265 -0.08062704
0.11099431 0.14305004 -0.007539519 -0.08668003 0.05280426 -0.14810365 -0.13985983 0.114965975
0.050581396 -0.0637177 0.075939745 0.10860986 -0.05251585 -0.09681067 -0.06317826 -0.12165411
0.06160568 -0.11265368 0.07118355 -0.10167384 -0.074363776 0.015758228 0.06030684 -0.06755496
-0.096985705 0.11700967 -0.076783456 0.08168338 0.062160198 0.07032131 0.042295378 -0.021204613
-0.018544465 0.09041216 -0.12384984 -0.06361317 -0.11569077 -0.11577278 -0.15708935 -0.04533919
-0.13547035 0.00399898 -0.1442325 0.053446013 0.11238007 -0.0018312141 -0.048645213 0.015507127
-0.08387712 0.1254154 0.104026824 -0.059001647 0.003843003 0.13652062 -0.11806483 -0.10162502
0.02373956 0.06730873 0.11349838 0.123666085 -0.03557724 -0.09866417 0.10559601 -0.049213048
-0.048970576 -0.15411733 -0.038270123 0.033177353 -0.0037197445 0.073382 0.049927454 0.08812201
-0.059099097 0.08812129 -0.056600668 0.03576122 0.019924112 -0.113147125 -0.13003007 -0.16126454
-0.033815198 -0.11935741 -0.0990185 0.13693568 0.07215352 -0.09019683 -0.019600699 0.024122566
0.11711596 -0.10023119 -0.016112495 -0.050753187 -0.09838775 -0.13907471 0.11356815 -0.13067633
0.07212011 -0.04230499 0.10579526 -0.03469259 0.04301698 -0.034531724 -0.15172356 0.09810816

convs.2.bias f4 [128]
00000000: 7f71 aa3d 1b12 973d ead8 9f3d 24c5 bf3d
00000010: b218 8a3d 1723 e23d e9f8 7abc 6897 22bd
00000020: 6f7f 6abd 0386 da3c 5345 99bd 6975 0e3d
00000030: 2e51 ba3d 4100 273d 2a28 863d 4a3b 9b3d
00000040: 4912 793d 417a 843d 77aa c03d 64ea 323c
00000050: 628e bb3d 82b5 b6bb 3fc8 bfbd f518 d1bb
00000060: d51a cabd 3aa0 5b3c 116c 21bc 7aea 2d3d
00000070: 2e4e 983d b2e1 e53d 8cfa 79bc c3c7 983d
00000080: 2965 c73d 9e70 b83d 7f0a d23d 9804 c23d
00000090: fe5b 51bd 2f94 373d 4549 d3bd 9b3f fabd
000000a0: 37be adbd f613 473d ebb1 9cbc 286c c53d
000000b0: 33bc b53d 7aa6 95bd 6b52 533d 122f 453d
000000c0: 4235 dcbd 31a9 903d f985 ecbd 1e2f f7bd
000000d0: 528c b2bd 3c71 bf3d 7f2e ed3b fef6 4e3d
000000e0: fc2e ef3c 5e22 8b3d 7172 ec3c 4830 a8bd
000000f0: 8956 e2bd 2776 d93c 75ea a8bd 6bde a6bd
00000100: 8dfa a73d 4c29 98bc 9c7f 173d 21c6 583d
00000110: 6dd4 e4bd f633 c93d d1d0 8cbd 5b50 eabc
00000120: 2c7e 8c3d a3ed 7b3d 9788 ae3d f81c 9fbd
00000130: 8f10 aabd c323 c13d 9abe ccbd 086a 983d
00000140: 5f0d 843d a543 a73d 0692 e2bd f378 8c3d
00000150: a6b5 a0bd 057b aa3d 4df2 593d 345f ae3b
00000160: 0d97 29bc 80ca 973d 28d7 db3d 3e7e 983d
00000170: c062 c53d 770f c4bd b69b 423d 988c 043d
00000180: af47 cebc 6372 bbbd a605 b3bd 4d79 e83d
00000190: 027b 8a3d c902 503d 5859 c33d c419 d3bd
000001a0: 232c c43d 5fae d4bd 6329 adbd 3529 cabd
000001b0: 4694 843d be4e 59bd e014 e8bd b998 d13d
000001c0: fdc4 8b3d d751 51bc 38e1 b13d 24f1 6dbd
000001d0: 5b97 fb3c 349c ab3d fdb1 23bd 2348 cebd
000001e0: 7275 a23d 2de2 ba3d a07f a03d 92fc e4bd
000001f0: 97e9 71bc d71a 513d 5682 a83d fe33 ce3d
0.08322429 0.073765 0.07805045 0.093637735 0.067429915 0.11041849 -0.015318134 -0.039695174
-0.057250436 0.02667523 -0.07483926 0.03477994 0.09097515 0.040771727 0.065506294 0.07579668
0.060808454 0.064686306 0.094075136 0.010920141 0.09158017 -0.0055758366 -0.09364366 -0.006381149
-0.09868399 0.0134049 -0.009852425 0.042459942 0.074367866 0.112246886 -0.015257489 0.074599765
0.09736092 0.09005855 0.10255908 0.094735324 -0.05111312 0.044819053 -0.103167094 -0.12219163
-0.08483546 0.04860302 -0.019127807 0.0963977 0.08873787 -0.073071435 0.05159227 0.048140593
-0.107523456 0.07063521 -0.11548991 -0.12069534 -0.0871817 0.093477696 0.007238209 0.05052852
0.029197209 0.067936644 0.028863164 -0.08212334 -0.110516615 0.026545597 -0.08247844 -0.081478916
0.08202086 -0.01857438 0.036986932 0.052923325 -0.111733295 0.09824364 -0.06875766 -0.02860277
0.06860003 0.061505925 0.08522146 -0.07769197 -0.083039396 0.09430649 -0.09997292 0.07442099
0.06447863 0.08167199 -0.11063008 0.06859007 -0.07847147 0.08324245 0.05320959 0.0053214077
-0.010350955 0.07411671 0.10734397 0.07445954 0.09637976 -0.09573262 0.04751178 0.032360643
-0.025180666 -0.09152677 -0.08741312 0.11351261 0.06761743 0.050783906 0.09538525 -0.10307649
0.09578731 -0.10384821 -0.084551595 -0.09871141 0.064735934 -0.05305361 -0.113321066 0.10234208
0.06824682 -0.01277586 0.08685535 -0.058091298 0.03071182 0.08379403 -0.039964665 -0.10072353
0.07932557 0.09125171 0.078368425 -0.111809865 -0.014765165 0.051050987 0.082279846 0.100685105

convs.2.lin.weight f4 [128, 128]
00000000: 8be9 32bc 545f b03d e2cc 40be 0233 8e3c
00000010: cdf3 2b3c c55c 253e 69c1 41bc b2e5 5a3d
00000020: 4257 a13d fc56 e6bd 0c52 a3bd 9e5b efbd
00000030: 474b 5ebd e843 133e 10a3 e93d 4502 1dbe
00000040: a748 c73d 3407 aabd f0db 29bd 3c51 51bd
00000050: 2319 b43d 046d 9cbc 28bd 26be 6af7 ef3d
00000060: 9aff 113e b7b9 6bbd a5d2 5ebd 4f06 b7bc
00000070: 74f5 bfbd 71a5 30bc 111b 17be ff21 a73d
00000080: e870 44bd c2f5 833d 219a e73b 4798 d1bc
00000090: f566 2dbe d36d 28bc 0b98 703d 6d74 8c3d
000000a0: c7c0 b43d 1c65 b13c 4702 f73d 3047 863a
000000b0: 7939 debd cdd4 a2bd ea5f 393d e83c 143d
000000c0: b5ca 6ebd 80a2 95bd cd4a c73d 7475 f0bd
000000d0: 6aa6 1e3a ae68 813c 44a4 153d bf39 dd3d
000000e0: 6614 05bd 8d39 1abb 792f 19be 4cc7 64bd
000000f0: 1865 873d 3339 bbbc 8274 cbbd 28af 81bd
00000100: 3525 2ebd 3422 24be 2f76 c5bc 7edb c63d
00000110: 8f8b 4abd c21d ff3c 27af 673d 7721 423d
00000120: 8b2d e83d cd4c 19be aee2 bf3d 7eea f43d
00000130: fa90 1cbe 408a c43d 9035 1c3e 76c4 2cbe
00000140: 2eab 093e 9936 01be 2881 cc3d 5724 ea3d
00000150: dcf6 093e 2748 acbd dced a5bd 7f54 5dbd
00000160: 39c0 1ebe 21ce 7cbd 8067 983d b998 85bb
00000170: fd85 81bd e493 0bbe 972b 053e f22d e53d
00000180: 1330 b1bd 2b0a 003e 8a3a f5bd b788 84bb
00000190: fbdf 95bc 7500 8f3d c421 f93d 5f48 2dbe
000001a0: da12 3a3d 960b 07bd 2688 05bd b1ef c1bd
000001b0: 6e51 a0bd c25d 04be 6a50 003e eb90 493d
000001c0: 1325 d73d d236 da3c 489e 103e 224e 1d3d
000001d0: 880d ec3d c35a b33d c29a e9bd 7d20 d53d
000001e0: 52b2 5ebd 33c2 dd3c 2ec8 47bd a005 203d
000001f0: 1725 49bd 7f2d 153e 6288 30be 618c afbd
00000200: 5518 a1bd 57e2 f83c 8f61 f93d 1f78 b63d
00000210: 52ae 7d3d 6c33 ffbd 758c d3bd 8a7b 69bd
00000220: 0196 7a3d 633d 1dbd df6d a1bd 90a8 173e
00000230: 6811 0b3e 406e ad3d d77f aa3d de0d d83d
00000240: 6e7c a03d f2ec aa3c 806d b13d 894c 123d
00000250: 6fc7 b13b d475 94bd cd47 28be 6fa4 afbd
00000260: fa76 593d 380a 303d d4fd e8bd 05c5 30bd
00000270: 25af 843d 2c44 35bc 713b 653a 759f ebbd
00000280: fd64 5ebd 66ed 10be 7fdf 92bd 5d9c 4bbd
00000290: ffd5 79bd f1ed 1abe 3486 f63d 34e6 a33c
000002a0: b034 2ebd 278f fe3d 7bf3 083e bc73 2bbe
000002b0: 9636 01be 80ca 09be 320e eb3d 503a 633d
000002c0: 583f e2bd ae9c febd d288 1c3e 3ce8 6a3d
000002d0: 35a1 1d3d 1e5f 0bbe 0c74 e53d e5ca 8d3d
000002e0: 676a 2d3d 334b d6bd 310b af3d 5b4e a33c
000002f0: 4ae4 b03d 6434 00ba fa00 debc 8b1d 8b3d
00000300: e6dd 523d d742 a9bd fe90 cf3d eda5 633d
00000310: 6037 9dbd 44e3 073e 8c57 0e3e 5b0c ccbd
00000320: cbe8 cd3b 6926 9ebd ffc8 c1bd be1d eabd
00000330: 7816 babc 41c0 793d 9a39 92bd 7500 37be
00000340: c6ad 07be 0ee3 e7bc a341 1fbe 05bc 333e
00000350: a360 a8bd bf80 913d df02 76bd 5ca7 3c3d
00000360: c521 e33d f943 b33d 1dce e13d 354b 493d
00000370: 3e26 b73d 1dc5 cebd ee1e 38bd 372c 1b3d
00000380: 91d5 d93d 85b9 193c 987f f2bd cde4 a9bc
00000390: e984 093e 07a4 0fbd 9f36 923d 5bc6 d4bc
000003a0: 9165 1abe 78af 033e ad86 1c3e c5cf 143e
000003b0: 462c e93d 0566 54bc 5cd9 aabc 2f8c ec3d
000003c0: cb0a 433d 3cc3 0b3e 1aed a83d 1592 0e3c
000003d0: 7d24 09be 9dd3 95bc e0e1 05be 1521 78bd
000003e0: 41c0 b23d d1d5 243d fdca 253d 7568 13be
000003f0: 045f 08be 78a1 65bd 4f46 b6bd 1ea3 b93d
-0.010919939 0.086119324 -0.18828157 0.017358307 0.010495138 0.1614867 -0.011825898 0.05344171
0.07877971 -0.1124706 -0.079746336 -0.116873965 -0.05427101 0.14381373 0.11408055 -0.15332897
0.09730654 -0.08302155 -0.041469514 -0.05110286 0.08793857 -0.019094951 -0.16283095 0.11717112
0.1425766 -0.05755016 -0.054400105 -0.022341875 -0.09372988 -0.010781632 -0.14756419 0.08160781
-0.04795924 0.06443359 0.007067934 -0.025585307 -0.16933806 -0.01028009 0.05873875 0.06858144
0.08825832 0.021654658 0.12060981 0.0010244604 -0.10850806 -0.07950745 0.045257486 0.036190897
-0.058298785 -0.07306385 0.09731064 -0.117411524 0.00060520193 0.015796985 0.03653361 0.1080203
-0.032490157 -0.0023532838 -0.14959516 -0.055854127 0.06611079 -0.022854423 -0.099343315 -0.063322365
-0.042515952 -0.16028672 -0.024104206 0.097098336 -0.0494495 0.03114212 0.056563523 0.047395196
0.11336812 -0.14970703 0.093694076 0.11958788 -0.15289679 0.095966816 0.15254807 -0.16871819
0.13444206 -0.12618484 0.09985572 0.114327125 0.13473076 -0.084121995 -0.08102009 -0.05403566
-0.15503015 -0.061720017 0.07441616 -0.004077044 -0.06324384 -0.13630635 0.1300491 0.11190404
-0.086517476 0.12503879 -0.11974056 -0.004044618 -0.018295279 0.06982509 0.121646434 -0.16922139
0.045428135 -0.032970034 -0.032600544 -0.09469546 -0.078280315 -0.12926391 0.12530676 0.04921047
0.10505118 0.026637468 0.1412288 0.03840459 0.115260184 0.08757546 -0.11406471 0.10406587
-0.05436928 0.02707014 -0.04877489 0.039067864 -0.049107637 0.14568137 -0.17239526 -0.08571697
-0.07865969 0.030381365 0.12176811 0.0890963 0.061933823 -0.1246098 -0.103295244 -0.05700258
0.06117821 -0.03838862 -0.078822844 0.14810395 0.13580859 0.08468294 0.08325165 0.1054952
0.07836233 0.020864937 0.086634636 0.03571752 0.0054253857 -0.072490364 -0.1643364 -0.08576285
0.05309198 0.042978495 -0.11376539 -0.043156642 0.06478719 -0.011063617 0.0008744514 -0.115050234
-0.05429553 -0.1415306 -0.07171535 -0.049709667 -0.0609951 -0.1512983 0.12037316 0.02000723
-0.042530715 0.12429648 0.1337413 -0.16743368 -0.12618479 -0.13456154 0.11477317 0.055475533
-0.11047238 -0.12432228 0.15286568 0.057350382 0.038483817 -0.13610503 0.11203775 0.06923465
0.0423378 -0.10463562 0.085470565 0.019934824 0.08637293 -0.00048906193 -0.027100075 0.06792744
0.05148115 -0.08264702 0.10135077 0.05557816 -0.076765776 0.13270289 0.13900584 -0.09963294
0.0062838546 -0.0772217 -0.09462165 -0.11431454 -0.022715792 0.060974363 -0.07139893 -0.17871268
-0.13249883 -0.02830651 -0.15552382 0.17552193 -0.08221557 0.071046345 -0.06006133 0.046058044
0.110904254 0.08753199 0.11025641 0.04914399 0.08942841 -0.1009619 -0.04495137 0.037883963
0.10636438 0.00938261 -0.11840743 -0.020738984 0.13429607 -0.035068538 0.071393244 -0.02597349
-0.15077807 0.12859905 0.1528575 0.14532383 0.113853976 -0.0129637765 -0.020855598 0.115501754
0.047617715 0.13648695 0.082483485 0.008701821 -0.13392825 -0.018289382 -0.13074446 -0.060578424
0.08728076 0.040242974 0.040476788 -0.14395316 -0.13317496 -0.05606219 -0.08900129 0.09064315

norms.0.weight f4 [128]
00000000: d9f5 813f 5cb9 7c3f 38c2 803f f8f2 813f
00000010: 71d1 853f aedf 753f cce0 783f 72f3 833f
00000020: 1b71 7a3f fcad 813f 57cd 7d3f cddf 7f3f
00000030: e60c 803f 9430 7f3f 3c34 7b3f 3e03 7e3f
00000040: bcba 7c3f 13fc 7f3f 9da1 7e3f 530f 813f
00000050: c22b 823f 5f0d 783f be5a 813f aac2 773f
00000060: 5171 7b3f e47c 823f 2511 863f 940c 813f
00000070: 668e 7e3f 27e3 853f a002 7d3f 8cf9 833f
00000080: 1f9a 793f 8657 803f 8e00 803f f301 833f
00000090: 4eef 803f 79d6 7c3f 3b77 833f 4d3d 763f
000000a0: f815 813f cc3b 853f 13d9 7c3f 19d3 7a3f
000000b0: 9945 813f 0ead 7d3f 7cc7 7c3f ac30 7d3f
000000c0: 9f1f 803f 68e1 803f 46fc 7f3f 0756 7d3f
000000d0: 0134 7d3f f40f 803f 9cd5 833f 5428 803f
000000e0: cc5e 793f eb00 7d3f 36e9 783f 55dc 7b3f
000000f0: 639a 813f 7942 7d3f fad7 823f 40b6 823f
00000100: aad2 7e3f 9891 793f d7c4 843f 0219 813f
00000110: 17c5 803f b221 853f 151b 803f bcae 7d3f
00000120: 0d18 813f deb5 803f 0392 803f 7ebf 7e3f
00000130: 6fac 803f cccb 7d3f 0329 883f f01e 803f
00000140: 8f75 813f 1e32 833f ba71 843f 99be 7e3f
00000150: 0bae 823f 74ba 7d3f 4d70 7b3f 0f5d 813f
00000160: eaab 833f 0757 783f 23d5 823f 7887 803f
00000170: 3263 813f a678 7e3f 65e7 813f 3bca 863f
00000180: 4745 7e3f 87f1 7a3f 93da 843f 3b2f 813f
00000190: e12c 7e3f 0eba 7d3f e04d 7e3f 0f95 823f
000001a0: 25f0 7e3f 2583 803f 81f3 7d3f d3d1 813f
000001b0: ea18 833f 730b 833f 5db9 7d3f a9bf 7c3f
000001c0: 0bf1 7c3f c77c 7e3f 7312 7e3f 66ad 853f
000001d0: 560f 823f 4656 823f eba3 7d3f 4746 803f
000001e0: ff56 803f 2a7d 853f eea9 7c3f e129 823f
000001f0: 2fbf 7f3f 237c 7e3f 2554 7e3f 9f87 793f
1.0153152 0.98720336 1.0059271 1.0152273 1.0454541 0.96044433 0.9721801 1.0308669
0.97828835 1.0131221 0.9914145 0.9995087 1.0003936 0.996835 0.9812658 0.992237
0.98722434 0.9999401 0.9946535 1.0082802 1.0169604 0.968954 1.0105817 0.9678141
0.9821978 1.0194364 1.0473982 1.0081964 0.9943603 1.0459946 0.9883213 1.0310531
0.97500795 1.002671 1.0000169 1.023497 1.007303 0.9876476 1.0270761 0.9618729
1.0084829 1.0408874 0.9876873 0.9797836 1.0099365 0.99092185 0.9874189 0.9890239
1.000965 1.0068789 0.99994314 0.9895939 0.98907477 1.0004869 1.0299563 1.0012307
0.97410274 0.98829526 0.9723085 0.98383075 1.012524 0.98929554 1.0222161 1.0211868
0.995402 0.97487783 1.0372571 1.0085757 1.0060147 1.0400908 1.0008265 0.9909475
1.0085465 1.0055501 1.0044559 0.99510944 1.0052623 0.99139094 1.0637516 1.0009441
1.0114001 1.024967 1.0347207 0.9950958 1.0209364 0.9911263 0.9821823 1.0106524
1.0286839 0.97007793 1.0221294 1.0041342 1.0108397 0.99402845 1.0148741 1.0530466
0.9932446 0.9802479 1.0379204 1.0092539 0.9928723 0.9911202 0.9933758 1.0201739
0.9958518 1.0040022 0.9919968 1.0142158 1.0241978 1.0237869 0.99110967 0.9872995
0.988053 0.99409145 0.992469 1.0443542 1.016093 1.0182579 0.99078244 1.0021447
1.0026549 1.0428822 0.9869679 1.016903 0.999011 0.9940817 0.99347144 0.97472566

norms.0.bias f4 [128]
00000000: 56b4 08bc 047f c0bb 1e43 34bc 4708 6dbc
00000010: 0b3a acba 1fc2 50bc b2b9 31bd 054a 9a3c
00000020: 6ade 10bd 2fd9 3c3c 4bab b83b e125 19bd
00000030: 0e76 30bc 58c2 63ba 2a45 0cba 5225 c2ba
00000040: 8c25 03bd 519d a1bc e09d e1bb 2159 f83c
00000050: 0739 1dbd 2930 62bd 9565 2f3c 6d57 2abd
00000060: 2fb8 f2bc 64e5 313d eb07 183d aec9 28bd
00000070: bc26 0ebd cedd f1bb 0edd 31bd f9e4 103b
00000080: ab63 f2bc d83e 76bb 1ab1 fabc e9c2 313d
00000090: f7ca bebc f775 073c f5a6 17bd 716b 12bd
000000a0: b05f e4bb 84f2 1f3d 4811 b3bc 6b6c 1dbd
000000b0: 8296 03bd 4bb4 3dbd 1334 39bc d3a2 83bc
000000c0: e3e1 3b3c 0221 02bc 7db7 06bd 612d e7bc
000000d0: 2f97 7d3c e99d 1abd a931 0dbd ea9c cdbc
000000e0: aac9 72bc c8b2 a2bc f3ba 04bd 80f3 abbc
000000f0: 48f7 95bc 3756 083c 43af 0d3c 7d1f 1f3d
00000100: a612 4cbc 556b febc a498 223c 0631 e63b
00000110: 5bd6 c53c 4a06 bcbc ece2 b4bc eef1 b53c
00000120: 4180 ffba 3397 5ebc 7e0a e83a c280 813c
00000130: 33a8 633c e07a d3bc 2300 033c f092 20bd
00000140: 3805 5bbc d580 c73c cc8c d43c 48ef c63c
00000150: bde5 ffbc 4342 08bd b043 a7bc e221 053c
00000160: 2085 c2bc c7e6 45bd 5def 81bc 74cf 91b9
00000170: f31e 69bb 552d 14bd 426b cabc b8d1 613d
00000180: 6b95 be3c 78f2 2fba 072f 60bc 7552 2aba
00000190: 686b 20bd d9fb 5abd 8952 f1ba 98a9 263d
000001a0: 603e 1a3b 377c 0abd 84f1 3a3c 4b7f d2bc
000001b0: ee63 d4bb 1095 adbc 5f7e dfbb 800b ab3c
000001c0: ad1b 6cbd a0f2 8abc fd7a 94bc 2ea5 1cbc
000001d0: bdd3 203c c0ef 543c fa94 3ebd 366d 52bc
000001e0: a866 db3c cbd7 4f3c 77a7 abbc 8e5c 2c3b
000001f0: 3caa 73bc 7ef7 6a3c 34ef 013c 49be 91bc
-0.008343777 -0.0058745164 -0.01100233 -0.0144673055 -0.0013139857 -0.012741595 -0.043389983 0.018834123
-0.03536836 0.01152639 0.005635654 -0.03738964 -0.010770334 -0.0008688322 -0.00053508824 -0.0014812148
-0.03201823 -0.019728335 -0.0068852752 0.030315937 -0.038384464 -0.05522171 0.010705371 -0.041587282
-0.029628841 0.043431655 0.037116926 -0.04120796 -0.03470491 -0.0073811775 -0.043423705 0.0022109135
-0.029588541 -0.003757408 -0.030602027 0.04339877 -0.02329014 0.008267871 -0.037024457 -0.035746995
-0.0069694147 0.03904964 -0.021858826 -0.038433474 -0.032125957 -0.04631452 -0.011303919 -0.016068852
0.01146743 -0.00794244 -0.03288983 -0.02821988 0.0154779395 -0.03774825 -0.034471188 -0.025099237
-0.014818588 -0.01986064 -0.03240485 -0.020990133 -0.01830639 0.0083213365 0.008647743 0.03884839
-0.012455618 -0.03105704 0.009924088 0.007024887 0.024150064 -0.022952218 -0.022080861 0.022210088
-0.0019493179 -0.013585853 0.0017703322 0.015808467 0.013895082 -0.025815427 0.007995638 -0.03920263
-0.0133679435 0.024353424 0.025946043 0.02428402 -0.031237477 -0.033266317 -0.020418018 0.008125754
-0.02374512 -0.04831579 -0.015861208 -0.0002781112 -0.0035571426 -0.036176044 -0.024709348 0.055131644
0.023264607 -0.0006711851 -0.013683087 -0.00064972724 -0.03916493 -0.053462837 -0.0018411438 0.04068908
0.0023535714 -0.033809867 0.011410121 -0.025695464 -0.006481639 -0.021189243 -0.0068204845 0.020879507
-0.05764358 -0.016961396 -0.018125052 -0.009560866 0.009816107 0.012996614 -0.046528794 -0.012843421
0.026782349 0.012685726 -0.020953877 0.0026300284 -0.01487213 0.014341233 0.007930566 -0.01779093

norms.1.weight f4 [128]
00000000: 42d0 7d3f e536 7e3f 1ec9 7b3f 3284 793f
00000010: ebb9 813f 1637 7e3f 5a38 7d3f 691c 803f
00000020: 6690 803f 7332 7f3f 7093 813f b12c 7f3f
00000030: 1b07 783f 5e97 803f af4a 7e3f 7c3c 803f
00000040: 19ab 7d3f 239a 833f 9c04 803f 7448 7d3f
00000050: 4435 823f 3d6b 803f 02e9 833f a569 7b3f
00000060: 5503 803f b1ca 783f 4ff1 7f3f b15f 803f
00000070: 7592 7d3f bdba 793f b08d 843f 6989 7c3f
00000080: aa14 7f3f cde3 7a3f ddec 793f d759 813f
00000090: 9324 7b3f f46a 7b3f 956a 7c3f f994 7e3f
000000a0: 36c0 7c3f 0ce0 7e3f 9f94 7a3f 9761 803f
000000b0: 42d4 7d3f a11e 803f ed04 7f3f 6528 803f
000000c0: 3607 803f 9a27 833f ff3c 7f3f 8f06 803f
000000d0: 412f 803f 8194 7e3f 9a76 7e3f 0425 7a3f
000000e0: d4bb 793f d6f4 783f 1538 7d3f 7f8a 7f3f
000000f0: e9bd 753f da07 7f3f fd64 813f c6d0 7a3f
00000100: fbd3 7d3f 9a73 793f c820 833f d7b1 833f
00000110: b6e9 7d3f ac41 7d3f 45c0 7e3f 3358 7e3f
00000120: 1deb 7f3f 0dcc 7c3f 52ed 7d3f 2e66 813f
00000130: f4b5 813f 04a7 813f ef69 833f ebfd 7c3f
00000140: f1e7 7c3f f37f 7e3f 2e5c 773f be09 833f
00000150: a8eb 7b3f 9606 813f 2c3d 803f 3cf9 7b3f
00000160: f061 7e3f af26 7d3f 025c 833f d0da 803f
00000170: ea3a 7a3f 7943 813f 4cd1 7d3f ee41 813f
00000180: b315 7a3f e467 823f b722 7b3f 3827 763f
00000190: ffc5 793f c63f 7a3f c4c9 823f 54b8 803f
000001a0: e327 803f c2fa 7e3f 7588 803f 0417 7f3f
000001b0: fc88 803f ab64 803f 48b8 793f 2978 7c3f
000001c0: 5a95 7f3f 5200 7f3f 03b6 7d3f 6bc4 7e3f
000001d0: e94b 7c3f 9a47 7c3f 2361 803f ea42 823f
000001e0: 916b 7d3f d077 833f 5465 7f3f e821 7d3f
000001f0: 01eb 833f 0875 803f 71e5 813f f238 803f
0.991459 0.9930251 0.98353755 0.9746734 1.0134863 0.99302804 0.9891411 1.000867
1.0044067 0.99686354 1.0123119 0.9967757 0.9688584 1.0046194 0.9933271 1.0018458
0.990892 1.0281414 1.0001407 0.9893868 1.0172505 1.0032727 1.0305483 0.98208076
1.0001017 0.9718428 0.9997758 1.0029203 0.990516 0.97550565 1.035574 0.9864717
0.99640906 0.98003846 0.9762705 1.0105542 0.9810268 0.9821007 0.9860013 0.99446064
0.9873079 0.9956062 0.9788303 1.0029782 0.99152005 1.0009347 0.9961689 1.0012327
1.0002201 1.024646 0.9970245 1.0002002 1.0014421 0.9944535 0.9939972 0.9771273
0.9755223 0.9724859 0.989137 0.99820703 0.95992905 0.99621356 1.0108944 0.97974813
0.9915158 0.9744202 1.0244379 1.0288647 0.9918474 0.9892833 0.9951213 0.9935333
0.9996813 0.98748857 0.9919025 1.0109308 1.0133653 1.0129094 1.0266703 0.9882495
0.98791414 0.99413985 0.9662503 1.0237348 0.9840646 1.0080135 1.0018668 0.98427176
0.9936819 0.9888715 1.0262454 1.0066776 0.97746146 1.0098716 0.99147487 1.0098245
0.9768936 1.0187955 0.98099846 0.96153593 0.97567743 0.9775356 1.0217824 1.0056252
1.0012172 0.99601376 1.0041643 0.99644494 1.0041804 1.0030721 0.97546816 0.9862085
0.9983727 0.99609864 0.9910585 0.9951846 0.9855333 0.98546755 1.0029644 1.017667
0.9899226 1.0270939 0.9976399 0.9887986 1.0306093 1.0035715 1.0148145 1.0017378

norms.1.bias f4 [128]
00000000: b68b 94bc 30d6 ffbb d528 dcbc f17b 4bbd
00000010: 1ad3 88bc 89f1 98bb 148e d4bb 16ca 103d
00000020: 6f0a 6bbc 2632 93bc bfaf 0c3d 5052 793c
00000030: 1175 56bc c6b3 973c 895d 05bd 7b5f 123c
00000040: 263a 6ebc d68c 493d c1e1 a739 72a0 8dbc
00000050: 679e 513a f66f 853c 8afc a73c 1444 88bc
00000060: 0a10 623b 0f00 daba e77a 9dbc 7fed e8bb
00000070: 363e 573c c8bd bfbc 9e88 7f3c d1ce 17bd
00000080: 90ef bbbc a404 8abc 93b1 263b f6bb 22bd
00000090: b842 10bd 7618 a7bb 4fa3 d2bc 492d f8ba
000000a0: 3df8 cabc 8268 8f3c 2ac6 e3bc eb47 8e3c
000000b0: 2594 173c f4b3 2abd 9fd2 8c3c 782e 2b3b
000000c0: 0a3b f43c ba95 053d 229b 90bc 4dab fd3c
000000d0: f2f7 923a 2ca6 dcbc b085 12bd 9c65 c5bb
000000e0: ce5c 1bbc 3b25 27bd 44cf 40bc 37d5 33bc
000000f0: c69c 19bd 99c1 2d3c f06f 7fba d404 c1ba
00000100: 1396 dc3c 8df7 c0bc 053d 373d 9343 ef3c
00000110: 96c7 c0bc 7903 903c 174a 203c 6f20 bb3b
00000120: f7b7 3ebb 74d4 d8bc bfa6 7d3c 311e b13b
00000130: c086 f73c 4d44 043d 925b 113d f569 0fbd
00000140: 45fe b93b d38f 8b3b 4f44 3cbc dcce 01bc
00000150: 4363 ccbc 35e1 e73c fa33 3f3c 492b a9b8
00000160: d94f 28bd a6b7 b6bc b4ed 3b3d 9ed1 8bbc
00000170: 2b2a 1ebd 07c0 bc3c 12cc f8bb be14 123d
00000180: 5eb1 91bc 7a7f 333d c603 26bd fbd2 e4bc
00000190: 68e1 bbbc f118 19bc 2b89 2b3d 33b5 e4bc
000001a0: 4169 c73b 8d49 e13c cef7 94bc 9827 60bb
000001b0: 61fb 053d 949f 023c f672 86bc cb91 97bc
000001c0: 4c1b c33c 7915 023b bec4 0f3c 0fcc d1bc
000001d0: e28c b1bc c576 08bd 29e2 6ebc 1243 023d
000001e0: d535 d43c b0c3 9039 c9a9 ce3b c2bd adbc
000001f0: 7e30 e53c 41b2 0f3d 5e35 053d 27a2 66b7
-0.018133026 -0.0078075156 -0.026874939 -0.049678747 -0.016702224 -0.004667465 -0.0064866636 0.035348974
-0.014345749 -0.017968249 0.034347292 0.015217379 -0.013089434 0.01851834 -0.032559905 0.008933897
-0.014540231 0.049206577 0.00032020922 -0.01728842 0.0007996321 0.016288739 0.020506162 -0.016634025
0.0034494423 -0.0016632098 -0.019223643 -0.00710839 0.013137391 -0.023405924 0.015596537 -0.03706247
-0.02294138 -0.016847916 0.0025435432 -0.039730035 -0.035219878 -0.0050993515 -0.025712637 -0.0018934394
-0.024776572 0.017505888 -0.027804453 0.017368278 0.009251629 -0.041675523 0.017190276 0.0026120227
0.029813308 0.032613494 -0.017652098 0.030965472 0.001121281 -0.026934706 -0.035772026 -0.0060240757
-0.009482576 -0.04080699 -0.011768166 -0.010976127 -0.037503026 0.010605239 -0.0009744158 -0.001472617
0.02692703 -0.023555541 0.044735927 0.029207027 -0.02353267 0.01757978 0.009783289 0.0057106535
-0.002910135 -0.026468493 0.01548165 0.0054052104 0.030215621 0.0322917 0.03548772 -0.035013158
0.0056760632 0.0042590885 -0.011490895 -0.007922854 -0.024949675 0.02830563 0.011670107 -8.0666105e-05
-0.041091774 -0.022304367 0.04588099 -0.017067727 -0.038614433 0.023040785 -0.0075926865 0.035664313
-0.01778477 0.043822743 -0.040530942 -0.027932635 -0.02293463 -0.009344325 0.04187886 -0.027918434
0.0060855453 0.027500892 -0.018184569 -0.0034203287 0.032710437 0.007972617 -0.01641224 -0.018502137
0.023816727 0.0019849224 0.008774934 -0.025609998 -0.021673623 -0.033316392 -0.014580288 0.031802244
0.025904575 0.0002761162 0.006306861 -0.021208648 0.027977224 0.035082106 0.032521598 -1.3746822e-05

norms.2.weight f4 [128]
00000000: 0c46 883f a61b 873f 4664 883f b05a 893f
00000010: da39 853f de0e 8d3f 77b2 773f 5266 953f
00000020: 380f 943f 1b30 813f bc49 913f f0a8 823f
00000030: 8349 8b3f 2d5c 803f 7925 853f 0887 8b3f
00000040: 4fef 893f 8e93 863f 321a 8d3f 91fb 7a3f
00000050: e8c7 8b3f 1ed5 7b3f f776 8e3f c611 803f
00000060: 76aa 8c3f 3120 823f 422f 823f 9c94 873f
00000070: 808f 863f a56c 883f d117 833f f48d 833f
00000080: 241f 8a3f 46a0 873f 689a 893f dc56 873f
00000090: 74bf 953f 859c 883f cf33 8e3f fffe 8d3f
000000a0: 5cd2 7f3f e86c 833f 923e 7e3f d780 8b3f
000000b0: 8159 8c3f acd4 8e3f 7e3f 843f 8e6c 833f
000000c0: f6c5 893f 7926 863f 844b 8d3f 2e7e 873f
000000d0: 710f 903f 460a 8d3f 33be 7e3f 94a4 863f
000000e0: e260 823f 037d 883f fdf3 813f 2a26 923f
000000f0: 3de3 883f 7787 813f baaa 803f 0a2c 8d3f
00000100: c48f 873f 9838 793f 98e7 893f 6d65 833f
00000110: f2bc 8a3f 68ee 8c3f b5e7 803f d765 803f
00000120: 00b0 8b3f 0214 883f 714a 8a3f 782e 963f
00000130: ceed 8f3f 92df 8b3f 9b3f 8d3f 8c76 853f
00000140: 7cfb 8a3f 92a7 893f feff 8b3f 6cee 893f
00000150: c4d1 8f3f 30ba 893f 61da 853f b698 783f
00000160: 1aa6 773f 2642 8b3f e4bb 8b3f f05c 863f
00000170: 44a8 8a3f e6b7 923f 694e 873f cb10 833f
00000180: 6737 7c3f c4e6 8c3f daf7 843f 4b86 8b3f
00000190: e719 8c3f 4816 873f 0e5d 883f 6cfc 893f
000001a0: 0aef 8a3f 0c27 8b3f 24ff 8f3f d473 883f
000001b0: 0692 8b3f 69e5 923f 5f2a 8b3f 2bcc 883f
000001c0: c4e0 893f 9726 7d3f 4783 8a3f 8f85 933f
000001d0: e06e 873f 6673 893f 2ba7 803f 3840 8d3f
000001e0: 9317 8b3f 985c 893f cafb 883f c6a5 8c3f
000001f0: 6737 7b3f 907b 843f 1962 8b3f 6309 8b3f
1.0646377 1.0555313 1.0655601 1.0730801 1.040828 1.1020162 0.9675669 1.1671851
1.1567144 1.0092806 1.1350627 1.0207806 1.0881809 1.002813 1.0402061 1.0900583
1.0776156 1.051378 1.1023619 0.9804011 1.0920382 0.98372066 1.1130055 1.0005424
1.098952 1.0166074 1.0170672 1.0592227 1.0512543 1.0658156 1.0241643 1.0277696
1.0790753 1.0595787 1.0750246 1.0573382 1.1699052 1.0672766 1.1109561 1.1093444
0.9993036 1.026761 0.99314225 1.0898694 1.0964814 1.1158652 1.0331876 1.0267503
1.0763538 1.0480491 1.103867 1.0585382 1.1254712 1.101876 0.9950897 1.0518975
1.0185816 1.066315 1.0152584 1.1417897 1.0694348 1.0119466 1.0052102 1.1029065
1.0590749 0.9735198 1.0773802 1.0265328 1.0838912 1.1010256 1.0070711 1.0031079
1.0913086 1.0631106 1.0803968 1.1732931 1.1244447 1.0927603 1.1035036 1.0426803
1.0857997 1.0754263 1.0937498 1.0775886 1.123589 1.0759945 1.0457269 0.9710802
0.96737826 1.0879562 1.0916715 1.0497112 1.08326 1.1462371 1.0570804 1.02395
0.9852204 1.1007924 1.0388138 1.0900358 1.0945405 1.0553675 1.0653398 1.0780158
1.0854199 1.0871291 1.1249738 1.0660348 1.0903938 1.147626 1.0872306 1.0687307
1.0771718 0.9888701 1.0821313 1.1525134 1.0580711 1.0738342 1.0051016 1.1035223
1.0866569 1.0731382 1.070184 1.098809 0.9813141 1.0350208 1.0889312 1.086224

norms.2.bias f4 [128]
00000000: 9f50 b73d 6258 b83d e2d4 b93d e1be d63d
00000010: b627 a53d 0852 003e 1f6a e2bc 885c 593d
00000020: d226 1e3d 0741 b33c 763c 4a3c 3ecc 4a3d
00000030: 32c2 dd3d e0d4 6e3d cf15 953d 5c91 bc3d
00000040: b71c b73d f09e 943d dfb5 f23d 799c f8bb
00000050: ef31 d63d c628 6bbc 2c44 ef3c 495e d93c
00000060: af4f 84bc a878 4c3d 0aa9 093d ae26 913d
00000070: eadb a03d 64ae e03d 8301 fa3c b500 8f3d
00000080: 42f8 cc3d a20b ce3d 9752 e83d b494 ca3d
00000090: 915d 2d3d 4fc0 7e3d 8357 b8bc 1c5f 24b9
000000a0: 6e44 37bc 303f 7e3d 163d b239 4c9d dc3d
000000b0: 59b2 e83d 538e a13c 4ab9 803d 34f1 4d3d
000000c0: d8d9 15ba 800b a53d c298 39bc b967 273c
000000d0: d1cd 2239 500b ed3d 0f33 683c ebab 913d
000000e0: e6a0 253d 7a33 a43d ae09 f43c e8b8 113b
000000f0: 8ceb 163c 3a4c 9f3c 5964 aebc b189 c9bb
00000100: 7c5d c33d 1ae6 05bd 79e5 9f3d 0f8a 593d
00000110: 8c44 4bbc af9b f53d d7ca 35bd d61a 62bc
00000120: b9c5 ba3d e315 9d3d af2e cf3d b998 e23c
00000130: 6146 8b3c 3c34 eb3d d77a 8c3c 65d1 993d
00000140: d092 c53d 7af5 d73d bd0a 3ebc 6402 a83d
00000150: 2f69 b83c 9d6f ba3d 9f99 773d e0cf 95bc
00000160: 128b 10bd 24ab ac3d d5d6 ea3d eb27 a73d
00000170: d053 db3d b681 89bb 19ce 813d 5592 0a3d
00000180: 94cd 1fbc 0927 8f3c d189 16ba 3141 df3d
00000190: 3443 b83d cdff 7d3d 5174 c03d 168b d4bb
000001a0: 0ee0 ea3d 8731 f5bc 2daf 963c 4e44 0c3c
000001b0: f001 ba3d 44e0 053d 77fb 053d 36c1 db3d
000001c0: b178 bc3d 43e2 e7bb 1639 c43d 71d9 103d
000001d0: 4890 933d a600 bf3d b64d a5bc 98b0 07bc
000001e0: 3926 c43d 0010 d73d ed76 b53d 29f0 173c
000001f0: b457 14bc 3ac5 893d 06c1 c53d 66f5 e63d
0.08950924 0.09001233 0.09073807 0.10485626 0.08064215 0.12531292 -0.027638493 0.05306676
0.03861124 0.021881593 0.012343517 0.049511187 0.108280554 0.058308482 0.0727955 0.092074126
0.08941024 0.072568774 0.118510954 -0.0075870124 0.10458743 -0.014352983 0.029207312 0.026534216
-0.016151277 0.049919754 0.033608474 0.07087456 0.07854445 0.10970762 0.030518299 0.06982557
0.10008289 0.100608125 0.11343878 0.09891644 0.04232556 0.06219512 -0.022502666 -0.0001567569
-0.0111857485 0.06207198 0.00033996318 0.107721895 0.11362142 0.019721186 0.06285341 0.050278857
-0.000571636 0.08058834 -0.011327924 0.0102176005 0.00015526197 0.11574423 0.01417233 0.07112869
0.040436648 0.08017631 0.029789772 0.0022235457 0.009211432 0.019445527 -0.021288084 -0.0061504473
0.09539315 -0.032690145 0.0780744 0.05311018 -0.01240648 0.11992585 -0.044382896 -0.0138003435
0.09119744 0.0767019 0.10116326 0.027660714 0.017001333 0.11484572 0.017148418 0.07510642
0.09647143 0.10544868 -0.01159924 0.08203581 0.022511093 0.0910332 0.06044924 -0.0182876
-0.035288878 0.0843108 0.11466757 0.081619106 0.10709345 -0.004196371 0.06338138 0.03383096
-0.0097536035 0.017474668 -0.0005742582 0.10901106 0.08997193 0.06201153 0.093971856 -0.006486307
0.11468516 -0.029930843 0.018394077 0.008561207 0.09082401 0.03268458 0.03271052 0.107302114
0.092027076 -0.007076533 0.09581201 0.03536362 0.07205254 0.093262956 -0.020178657 -0.008281849
0.09577603 0.10501099 0.08860574 0.009273567 -0.009054113 0.06727071 0.09655957 0.11277275

fc.weight f4 [1, 128]
00000000: 4ad8 023e 2bce b33d 6b0f e73d 67d2 013e
00000010: 734a 083e 62d2 0d3e 97e8 e73c d476 73be
00000020: be02 45be d906 6f3d 77a0 4ebe 3d28 1b3d
00000030: 7d4a 1c3e 8871 003c 4093 e63d 6401 093e
00000040: 55af ba3d 6289 ae3d c3d6 0e3e 19ca 483d
00000050: 979d 0c3e 0290 0f3d 6065 12be 63e2 413d
00000060: e677 2dbe f43f 093d 6a50 f83c ef2d 963d
00000070: dd82 0e3e 7b17 da3d b5a7 283d 39ba 403d
00000080: 81fd 0b3e 8aa4 c03d e81a 203e a11a 163e
00000090: c628 51be 576a e43d 4f95 34be 3974 05be
000000a0: 8b74 b7bc 20c0 8b3d 4d93 01bb 8fc4 1c3e
000000b0: f406 1a3e 81f9 22be 861c b53d 0592 723d
000000c0: 070e ecbd 489f 093e 056e 0abe 1c54 afbd
000000d0: abcc 3cbe b44e 183e 13aa afbb 4f89 ce3d
000000e0: 0e94 623d 0853 163e 64cf 873d 368f 59be
000000f0: d2d0 cebd 1502 933d f931 ccbc f087 39be
00000100: 77ab c03d 2997 163b c028 c93d c1d5 9b3d
00000110: 1f05 0fbe 3e78 3f3e b9f0 b3bc fab0 49bc
00000120: fb74 323e 3f19 9e3d 11c0 0b3e eb5b 49be
00000130: a132 26be 5b92 f63d 6dc3 00be 8afb da3d
00000140: 114d 1d3e d408 cb3d 4667 0dbe ec41 2d3e
00000150: e68e 21be b212 d53d 4f7c 9f3d b531 c53b
00000160: 26d5 51bc 215d 1e3e 2c68 283e 5260 063e
00000170: 1506 383e 8eab 44be c5fe bc3d a346 ae3d
00000180: 29b9 e73c e7f3 0dbe fb23 cebd 87e8 123e
00000190: bf3a 343e e5f7 103e f5c5 d33d 9aa4 fdbd
000001a0: 73bc f13d c14b 29be 247b 22be af1d d7bd
000001b0: 2e64 e03d 7c7e 4cbe da8a d0bd 57e3 0d3e
000001c0: 52ea e03d e597 063d 2963 023e 7642 53be
000001d0: b2f9 973d d255 2b3e c277 61bc 6c94 17be
000001e0: 6ca5 f13d 6e5e 0d3e 35b4 283e f9f8 ffbd
000001f0: 88ee 1c3d 9490 cd3d e168 293e 5d2f 143e
0.1277782 0.08779558 0.112822376 0.12677918 0.1330965 0.13849786 0.02830915 -0.23775798
-0.19239327 0.05835614 -0.201784 0.03788017 0.1526279 0.007839568 0.112585545 0.13379437
0.09115473 0.085222974 0.13949113 0.04902086 0.13731991 0.035049446 -0.14296484 0.04733504
-0.16940269 0.033508256 0.030311782 0.0733298 0.13917108 0.1064901 0.041175563 0.047052596
0.13670923 0.09406383 0.15635264 0.14658596 -0.2042571 0.11153095 -0.17635082 -0.13032617
-0.02239444 0.06823754 -0.0019771636 0.15309356 0.15041715 -0.1591549 0.08843331 0.059221286
-0.11526113 0.13439667 -0.13518532 -0.085609645 -0.1843745 0.14873773 -0.0053608506 0.10084783
0.055316977 0.14680111 0.066313535 -0.21246037 -0.10098423 0.071781315 -0.024926173 -0.18118262
0.09407704 0.0022978282 0.098222256 0.0760913 -0.13966797 0.18698213 -0.021965371 -0.012310261
0.17427437 0.07719659 0.13647486 -0.1966397 -0.16230251 0.12039634 -0.12574549 0.106925085
0.1536143 0.09913793 -0.13808927 0.16919678 -0.15777168 0.104039565 0.07787382 0.0060178884
-0.012807166 0.15465213 0.16445988 0.13122681 0.1797107 -0.19206068 0.09228281 0.08509567
0.028286533 -0.13862573 -0.100654565 0.14346515 0.17600535 0.14157064 0.10340492 -0.12384911
0.11803522 -0.16532804 -0.15867287 -0.105037086 0.10956608 -0.19970125 -0.10182734 0.13856255
0.10982193 0.0328597 0.12733139 -0.20630822 0.074206725 0.16731957 -0.013761463 -0.14802712
0.1179913 0.13805553 0.16474994 -0.1249866 0.03831342 0.10037342 0.16543914 0.14471193
