gin_best.pth (torch, 272442 bytes, 13 tensors)

c1.nn.0.weight f4 [128, 128]
000000 e8 74 07 bd cf 38 cb bc ae 05 a4 bd 98 2d af 3b
       -0.033070475 -0.024807362 -0.08008896 0.0053460114
000010 68 04 c9 3c 7f 5a ad 3d c1 20 ea 3a fb 93 b4 3d
       0.024538234 0.084645264 0.0017862545 0.088172875
000020 db b1 ae 3d 93 f7 9b 3d 3a 30 47 3d 44 3d 99 bc
       0.08530017 0.076155804 0.048629977 -0.018705972
000030 e8 f5 3a 3c 1d 25 9b 3d fa f6 09 bd 96 4f ed bc
       0.011411168 0.07575438 -0.0336828 -0.028968614
000040 3a 86 5b bd 34 b2 a4 bd 0a b0 68 3d 74 c8 33 bd
       -0.053594805 -0.08041802 0.05680851 -0.04389234
000050 40 28 a0 bb 6c c3 04 3d 9b 48 92 bd 14 67 c8 3c
       -0.0048876107 0.03241293 -0.07142755 0.024463214
000060 9a 00 0c bd b0 a4 f7 bb 96 f4 60 3d 62 f2 00 bd
       -0.03418026 -0.007557474 0.054920755 -0.031481154
000070 98 ab 90 bd de b1 72 3d fb 76 89 bd e6 f7 99 bd
       -0.07063979 0.05925166 -0.06712147 -0.07517986
000080 b6 9b 28 3d f4 0e e4 bc c4 df 92 bc 5e 14 90 bd
       0.041164123 -0.027839161 -0.017928965 -0.07035135
000090 f0 5c d0 3b f0 92 a0 bc 38 c2 ca 3c 5e c5 25 3d
       0.0063587353 -0.019601315 0.024750814 0.040471427
0000a0 bb d7 2d bd bc c5 e6 bc 49 e2 9d bd 12 a7 5f 3d
       -0.042442065 -0.028170459 -0.07709176 0.05460269
0000b0 15 b9 8d 3d b0 84 a8 3b 96 b8 17 3d b4 17 85 bd
       0.06920067 0.0051427707 0.03704127 -0.06498662
0000c0 57 d8 a1 bd a4 33 dc 3c 38 cb 55 3c 1c 5b b4 bc
       -0.07902592 0.026880093 0.013048939 -0.0220161
0000d0 e8 e2 46 bc 44 02 92 bd 65 d8 8e 3d 2f 30 a8 bd
       -0.01213906 -0.071293384 0.06974868 -0.08212315
0000e0 39 0f a6 3d 16 46 6e 3d 30 14 90 bc dc eb f6 3c
       0.08108372 0.058172308 -0.017587751 0.030141763
0000f0 30 d3 7e bc ae 95 7b 3d 4a ac 9c bd 8e 21 74 bd
       -0.015553281 0.061422043 -0.07650049 -0.059602313
000100 9a 17 52 3d 30 28 b2 bd f8 fb a4 bd f0 68 07 bd
       0.05129204 -0.086990714 -0.08055872 -0.03305906
000110 18 dd cc bc 60 bc 66 bd 18 db b6 bc 5e 81 71 3d
       -0.02500777 -0.056331992 -0.022321269 0.058961265
000120 48 e7 c0 3c 12 49 84 bd 70 cd fb bb c8 dd 11 3d
       0.023547783 -0.064592496 -0.007684402 0.035611898
000130 c2 ec 32 3d 40 2e 82 ba 9c da ba 3c b7 d9 86 bd
       0.04368282 -0.0009931996 0.02280932 -0.065844946
000140 5a 6f f8 bc b1 8c 2f bd 90 03 5b 3c 2e d9 46 3d
       -0.030326534 -0.042858783 0.013367549 0.048546962
000150 40 61 d2 3b d1 d1 08 bd f8 f2 34 bc 08 54 b9 bc
       0.0064202845 -0.03340322 -0.011044256 -0.022623077
000160 c3 84 9e 3d 24 ed 6d bd c3 1d a3 3d b0 25 61 3c
       0.07740166 -0.058087483 0.07964661 0.013741896
000170 c6 11 6c bd 53 9d 90 3d 23 b3 0e bd 60 c2 b5 bb
       -0.057634138 0.07061257 -0.034838807 -0.005546853
000180 50 e9 e2 3c fc ab 96 3c f0 4f 9b bd ad a0 89 3d
       0.027699143 0.018392555 -0.07583606 0.067200996
000190 a2 9a 84 bd 20 a4 28 3c fe 41 90 bd 92 81 20 3d
       -0.06474806 0.010293037 -0.07043837 0.039186068
0001a0 68 5f 0f 3d a1 02 a1 bd 5a 4e 82 bd 3e a1 2a 3d
       0.035003096 -0.078618295 -0.063626006 0.04165768
0001b0 4e 68 76 3d d4 49 c1 3c bc a0 b6 bc 72 23 66 3d
       0.060158066 0.023594774 -0.022293441 0.056186147
0001c0 52 9e 6f 3d ee 8d 21 3d ff ed 91 bd 6d 4f a4 3d
       0.058500595 0.039441995 -0.07125472 0.08022962
0001d0 54 df c7 3c 61 69 99 bd 09 32 60 bd 49 26 b4 3d
       0.024398483 -0.074908026 -0.054735217 0.08796365
0001e0 c8 99 58 3c a8 a2 8e bc 30 8f 1c bd e9 1e 62 bd
       0.013220258 -0.017411545 -0.03822249 -0.05520526
0001f0 09 39 1d bd 10 56 92 bb 16 f5 d9 bc 15 04 a7 bd
       -0.03838447 -0.004465826 -0.026606124 -0.081550755
000200 12 77 ae bc 2c 3f b6 3b f5 13 9d 3d e7 ff f9 bc
       -0.021297012 0.00556173 0.07669822 -0.030517532
000210 ea 4b 8c bd 9c 73 a4 3c d5 01 89 bd f0 af cb 3b
       -0.06850417 0.020074658 -0.066898026 0.0062160417
000220 4e 61 67 3d 86 ec f0 bc e0 a7 7e 3c e3 b1 5c bd
       0.05648928 -0.029409658 0.015542954 -0.053880583
000230 14 2a f7 bc d0 c7 50 bc c6 16 54 bd 72 11 63 3d
       -0.030171432 -0.0127429515 -0.05177953 0.05543656
000240 de d1 9f bd 21 6f 86 3d cd 7d 89 3d c1 6f 88 bd
       -0.07803701 0.06564165 0.06713448 -0.0666194
000250 60 b4 66 bd 1e 29 7a 3d c0 09 c3 3a 80 35 e2 3b
       -0.056324363 0.06107437 0.0014880225 0.0069033504
000260 37 cf 9a 3d 52 2c 45 3d 12 56 1d bd b2 ee 9c bd
       0.07559054 0.04813797 -0.03841216 -0.07662715
000270 40 39 56 bb 24 21 02 3d 29 f8 ac 3d 38 a4 49 bd
       -0.0032687932 0.031769887 0.0844577 -0.049228877
000280 4e f8 7f 3d cd 18 84 3d 12 55 54 3d 86 62 28 3d
       0.06249266 0.06450043 0.051838942 0.041109584
000290 a6 75 63 3d 00 b8 0b bd be 0b 43 3d 7b b1 93 bd
       0.05553212 -0.034111023 0.04761862 -0.07211586
0002a0 ea c9 59 3d d3 5e 91 bd 90 2d f0 3b 78 9b c2 3c
       0.053171076 -0.070981644 0.00732965 0.023755774
0002b0 f3 df 87 3d 0f bf b4 3d ac b6 18 bd fb 07 b1 bd
       0.06634512 0.08825504 -0.037283584 -0.086441
0002c0 48 1d 90 bd 08 34 93 bd 48 d5 00 3d 74 11 8b 3c
       -0.07036835 -0.071876585 0.0314534 0.016976096
0002d0 3f c4 97 3d b9 3a 9b 3d 07 1b a0 3d 7d d4 3f bd
       0.07410478 0.0757956 0.07817655 -0.046833504
0002e0 c7 8f aa 3d 00 13 d8 3b 00 33 1d ba 31 7d 65 bd
       0.083282046 0.006594062 -0.00059966743 -0.056027595
0002f0 96 49 3e 3d 2a 61 a0 bd 2e 0e 39 3d d8 33 77 3c
       0.046456896 -0.078310326 0.04517954 0.015088044
000300 29 68 ab 3d 41 03 32 bd 4e 4c eb bc 3d 64 80 bd
       0.08369476 -0.043460134 -0.028722908 -0.06269119
000310 87 87 ad 3d 20 f9 54 3b b2 ff 30 3d 3f 2d 67 bd
       0.084731154 0.0032497123 0.0432126 -0.056439634
000320 d0 6c 6a 3c 29 c2 a9 3d a8 06 13 3d 62 18 ac bd
       0.0143081695 0.08288986 0.03589502 -0.08403088
000330 36 be 86 bd 08 d4 eb 3c ce 6b 55 3d ad 2f b1 3d
       -0.065792486 0.028787628 0.052104764 0.086516716
000340 c5 cc 3c bd 6e 1c 9a bd 80 1c c7 bb ff 81 88 bd
       -0.04609372 -0.07524954 -0.0060763955 -0.0666542
000350 ab 20 0b bd 20 9f c6 3c 27 82 54 bd 6f 49 b3 bd
       -0.0339667 0.024245799 -0.051881935 -0.08754241
000360 64 d4 ad bc 50 4d 09 3d b0 30 72 bd 40 d5 d6 bb
       -0.02121944 0.033520997 -0.059128463 -0.006556183
000370 eb bb 93 3d 28 8f a2 bd e9 f7 34 bd e5 fc 06 bd
       0.07213577 -0.07937461 -0.044181738 -0.032956023
000380 79 1e a1 3d 29 74 9d 3d 80 74 ef bc 09 8a 60 bd
       0.0786714 0.076881714 -0.029230356 -0.05481914
000390 02 80 34 3d 4d f8 92 3d 09 0c a4 3d fc 52 8c bd
       0.04406739 0.07176266 0.08010108 -0.068517655
0003a0 58 a7 ca bc 74 40 12 3d 59 a4 33 bd fa 33 61 3d
       -0.024737999 0.035706 -0.043857906 0.05498121
0003b0 d0 c4 17 3c db 1c ad 3d 30 d2 d2 3c 48 98 d9 3c
       0.009263232 0.08452769 0.02573499 0.026561871
0003c0 00 ab 85 3c b0 89 7a bd a0 e0 00 bc 80 4e 36 3c
       0.01631689 -0.061166465 -0.007866055 0.011127114
0003d0 b0 0e 8b bc a2 a7 8d bd 68 35 cb 3c 61 1f 88 3d
       -0.016974777 -0.06916739 0.02480574 0.0664661
0003e0 70 c4 9a bb 64 c8 be bc 96 27 2a 3d a6 b3 45 3d
       -0.004723124 -0.023288913 0.04154166 0.04826703
0003f0 bf a4 19 bd 79 4f 9f 3d 76 3b 45 3d 23 e0 86 3d
       -0.03751063 0.0777883 0.04815241 0.065857194

c1.nn.0.bias f4 [128]
000000 13 6f 75 3d d1 d1 76 bd 25 ed df 3c 97 7c 5e 3c
       0.05992038 -0.06025869 0.027334759 0.013579509
000010 60 c3 ef 3c 7a c1 6f bd 07 f1 4c bd 07 cc 9e bd
       0.029267967 -0.058534123 -0.05003455 -0.07753759
000020 52 4c 6d 3c 5c 4e 06 3d 72 e5 88 3d 9c f5 f3 3b
       0.014483528 0.032789573 0.06684388 0.0074450504
000030 bf e2 5d bd 6e 72 2e bd b9 80 9a bc c0 76 0a 3d
       -0.05417132 -0.042589597 -0.018860208 0.033804655
000040 e4 ed 30 bd 19 72 1e 3d 60 1b 9d 3c 55 6e 16 bd
       -0.04319562 0.03868303 0.019178092 -0.036726315
000050 d2 e2 74 3d 8a 0b 84 3d 56 b5 51 bc 02 16 39 3d
       0.059786625 0.064475134 -0.0127995815 0.045187004
000060 9a 92 94 bd 60 0f 3a 3d 8b 78 92 bc 37 40 ab bd
       -0.072545245 0.04542482 -0.017879745 -0.083618574
000070 ba 59 0c bd 54 c5 1b 3d 69 30 b0 bd d0 e7 83 3d
       -0.034265257 0.038029984 -0.086029835 0.06440699
000080 46 f9 67 bd fc 90 2d bd 63 7f 4f bd 8d ab 8a bd
       -0.05663421 -0.042374596 -0.050658595 -0.06771002
000090 54 9c 1b bd 8b 45 4a bd 04 e2 43 bd f9 d5 0e 3d
       -0.037990883 -0.049382728 -0.047822967 0.03487203
0000a0 0f 1c 9c bd 20 ec b6 3c 0a e3 9b 3d 03 98 e3 bb
       -0.07622539 0.02232939 0.07611664 -0.0069456114
0000b0 37 8d be 3c 71 8b 4f bd 44 33 c0 3d ac cf a8 3d
       0.023260696 -0.05067009 0.09384778 0.08242735
0000c0 56 79 98 3d ab 02 7d 3d 76 1f 8f 3d 2a 57 5e bd
       0.07445018 0.061770122 0.069884226 -0.054282345
0000d0 8d 9a 87 3d f2 6f 9a bd 88 39 a1 3d 20 00 af 3c
       0.06621275 -0.07540883 0.07872301 0.021362364
0000e0 a3 f2 74 3d 91 e0 e2 3c 5f d1 22 bc b5 95 75 3d
       0.05980171 0.027694972 -0.009937613 0.059957225
0000f0 03 c9 4a 3d e9 57 a1 bd e9 c7 0c bd 13 fd 57 bd
       0.049508106 -0.07878096 -0.034370337 -0.052731585
000100 f5 cf 7f 3d 8e 97 2a 3c 1a 83 77 3d ee f7 97 bd
       0.062454183 0.01041211 0.060427763 -0.07420336
000110 1f a5 9a bd cd c1 47 bd 17 2f 2b bc 58 5e 48 3d
       -0.075510256 -0.048768807 -0.010448239 0.0489181
000120 81 82 95 3d ba 12 fc 3c fc c7 da bc 0d 02 30 3c
       0.07300282 0.030770648 -0.026706688 0.010742676
000130 41 d1 09 bc 7c 6b 6b 3d 6b bd d5 3c 88 9c 87 bd
       -0.008411706 0.057475552 0.026091298 -0.06621653
000140 5c 2b 9d 3c e0 7e e6 3c 64 18 fa bb 6c 87 da 3c
       0.019185714 0.02813667 -0.007632302 0.026675902
000150 00 10 b4 bd 0e 85 b3 3d 78 35 8e 3d 4c c3 9a bd
       -0.08792114 0.087656125 0.06943792 -0.07556781
000160 39 68 77 3d 2f 28 3f 3a 92 f3 15 bd 1f f2 75 bd
       0.06040213 0.00072920596 -0.03660924 -0.060045358
000170 6c fa 2c 3c 13 c5 ba bb 60 84 2c 3d d3 84 2a 3c
       0.010557752 -0.0056997626 0.04211843 0.010407644
000180 0b c4 29 3d ee 54 c4 bb 6a 9f 65 3d af b8 5f 3d
       0.041446727 -0.0059915697 0.056060232 0.054619487
000190 8d 36 1b bd 76 76 5f bd 79 60 7c 3b e4 36 3c 3d
       -0.03789382 -0.054556333 0.003850965 0.045950785
0001a0 89 85 7d bd ef e6 8c bd c5 e9 b8 3c 99 e8 9f bd
       -0.061894927 -0.068799846 0.022572407 -0.07808036
0001b0 11 84 ad 3a f8 cf a2 3c 2a 18 b3 3d 44 24 20 bd
       0.0013238211 0.019874558 0.08744843 -0.039097086
0001c0 b9 7c a3 bd 1f 55 9e bb 58 a9 a8 3c 15 fb 6f 3d
       -0.07982773 -0.0048319246 0.020588562 0.05858906
0001d0 81 cb 31 3c ea 6f 5f 3d 66 7f 89 3d 46 1d 28 3c
       0.010851742 0.05455009 0.067137524 0.010260886
0001e0 68 df fb 3b eb f2 81 bd b9 3a 9a 3c 11 b5 34 3c
       0.007686544 -0.06345161 0.01882683 0.011029498
0001f0 7a 60 4e 3d ed eb d3 bc d4 21 13 bd 28 5b 28 3d
       0.050384976 -0.025869334 -0.035920933 0.04110256

c1.nn.2.weight f4 [128, 128]
000000 a5 1c 40 bd d7 bc 32 bd a6 30 ca 3c b6 30 46 bd
       -0.046902318 -0.043637123 0.0246814 -0.048386298
000010 ea 0a fa bc e8 83 72 3d 3b 46 58 bc 74 45 9d 3b
       -0.030522782 0.059207827 -0.013200338 0.004799539
000020 5b a5 e7 bc 0f 3d 9d 3d 82 7f e9 3b ea e0 39 3d
       -0.02827709 0.07677662 0.007125796 0.04538051
000030 8b 42 7b 3d fc d0 32 bd 84 5a 8b bd 7e 5c 19 3d
       0.061342757 -0.043656334 -0.06804374 0.037441723
000040 df 40 a9 bd ed 77 cc bc 1d 4c b9 3b 37 5c 47 3d
       -0.08264326 -0.024959529 0.0056548254 0.048671927
000050 07 f9 7c 3d ae 3a 88 bd 35 1a 34 3c 6a 47 24 3b
       0.06176093 -0.06651817 0.010992576 0.002506698
000060 bc 79 d1 bc 22 bc 71 bd be 0b 99 3d b2 fc 33 bd
       -0.025570743 -0.059017308 0.07472943 -0.04394216
000070 60 56 b9 3a 8b ab a0 3d e5 4e 40 bd ac fa d6 bc
       0.0014140122 0.07845219 -0.04695024 -0.026242577
000080 b3 fd 0d bc f9 0d af 3d 04 45 93 bd ec 93 86 3d
       -0.008666444 0.08547587 -0.07190898 0.065711826
000090 11 62 8b bd 74 3a 86 3d 37 ee e1 3c 9d 87 2f bd
       -0.06805814 0.06554118 0.02757941 -0.04285394
0000a0 fa 9a 09 3d 2c c3 34 bd 0e c7 07 3d fa 77 4a bc
       0.033595063 -0.044131443 0.033148818 -0.012357706
0000b0 6e 74 db bc 28 36 b4 bd 28 37 33 bd 0f 19 2f 3d
       -0.026788916 -0.08799392 -0.043753773 0.042748507
0000c0 f2 a5 89 bc cc be 84 3d 2f 8c 33 bd fc 60 91 bd
       -0.016802762 0.06481704 -0.04383486 -0.070985764
0000d0 39 1c 33 3d a4 27 0c 3d c3 43 5b bd 9f ba 22 3d
       0.043728087 0.03421749 -0.05353142 0.039728757
0000e0 79 d9 12 bd 9e 37 87 bd 62 4d 2f bc 40 d2 7b 3d
       -0.03585193 -0.06602405 -0.010699602 0.061479807
0000f0 4d 0b b1 bd 9c 29 9c bc 41 19 af bc 3a cf 73 bd
       -0.086447336 -0.01906281 -0.021374347 -0.0595238
000100 cb ce 54 3d eb b5 0f bd 9b d4 1e bd 91 b0 8c bd
       0.051955026 -0.0350856 -0.038776975 -0.06869615
000110 ab 20 6f bd 17 bc 5e bd c9 b3 7a bd 1b ca 95 3d
       -0.058380764 -0.054378595 -0.061206613 0.07313939
000120 2a 5f 17 bd 12 a0 84 bd 06 c5 65 3d e5 6e 89 bc
       -0.03695599 -0.064758435 0.0560961 -0.016776511
000130 bf aa d5 bc fb 39 b4 bd 82 35 05 bd ed 30 e9 bb
       -0.026082395 -0.088001214 -0.032521732 -0.007116428
000140 59 24 a6 ba 3f d8 26 3d de 57 88 3d 5a b8 a0 3c
       -0.0012675627 0.040733572 0.06657384 0.019619156
000150 62 eb 47 3c a5 cc 49 bd 9e 4f 23 bd 4e 9b 47 3c
       0.012202116 -0.04926743 -0.03987085 0.012183024
000160 97 fa 50 bc 17 89 1d bb 96 df 73 3d ef aa 47 bd
       -0.012755058 -0.002403801 0.0595394 -0.048747
000170 88 73 bc 3b b9 ed 5c 3b ff 5c a7 bc 72 33 96 bc
       0.005751077 0.003371103 -0.020430086 -0.018335078
000180 b4 a4 8f bd 2a 91 59 bd 19 35 17 3c fe 09 75 3d
       -0.070138365 -0.053116955 0.009228968 0.059823982
000190 b7 e3 29 3c 9d 1d 01 bd 9a cd 95 bd 6f 6d 08 bd
       0.010369233 -0.031522382 -0.07314606 -0.03330749
0001a0 8d b1 4f bc d7 c4 86 3d 74 09 48 bd 97 63 3b bd
       -0.012676609 0.06580513 -0.04883714 -0.045749273
0001b0 ea 05 2c bd c3 3d 89 3d 71 ec 7c 3c c3 a7 70 3d
       -0.041997828 0.06701233 0.015437231 0.05875374
0001c0 64 ae b6 bd 90 21 dd bc 69 a8 59 bd f5 df 9b bc
       -0.08919981 -0.026993543 -0.053139124 -0.01902769
0001d0 f7 f2 7e 3d d8 41 88 3d 66 c4 29 3b dd 36 b2 bc
       0.062243428 0.06653184 0.0025904416 -0.021754676
0001e0 5a 10 a6 bc 5e b2 8b 3d 2b e4 82 3d cd b3 05 bd
       -0.020271469 0.0682113 0.06391176 -0.032642175
0001f0 b7 21 a0 bd 45 a4 1a 3b dc 72 db bc 07 2b 23 3d
       -0.078189306 0.0023596447 -0.026788168 0.039835956
000200 f6 83 58 3d 90 19 93 3c d6 f3 ad 3d ca 2b b4 bd
       0.052860223 0.017956525 0.08493774 -0.087974146
000210 8f 61 14 bc 2c 8b 33 bd 6f 9b ad 3d 63 69 9b bd
       -0.009056463 -0.043833897 0.08476912 -0.0758846
000220 3c 44 35 bd ac 8f 9b bc ef 14 87 3c 8f 8b 8b 3d
       -0.044254526 -0.018989407 0.016489474 0.06813728
000230 07 07 aa bd dc 0f 04 bd 12 61 eb 3c 6b 3c 16 bc
       -0.083021216 -0.032241687 0.02873281 -0.009169678
000240 da 54 7f 3c 98 a2 4a 3d cd 80 f5 3c 0f 60 06 bd
       0.015584195 0.049471468 0.029968644 -0.032806452
000250 46 8d 5c bd d4 e5 0d bc 26 3c ab bd cf 6a 8d bb
       -0.053845666 -0.008660752 -0.08361082 -0.004315711
000260 a1 c8 08 3d 0c 69 7a 3d 22 ea eb bb 12 d3 47 bd
       0.03339446 0.061135337 -0.0071995417 -0.048785277
000270 49 74 c1 3c dd 32 85 bd aa b9 25 36 46 3b a6 bd
       0.02361502 -0.06503842 2.4694987e-06 -0.08116774
000280 75 2c 30 bd 0d e8 83 3d a3 d2 47 bd 4d 58 9d bd
       -0.043011148 0.064407445 -0.048784863 -0.07682858
000290 28 f4 0c 3d 41 41 71 3c 24 28 e0 bc a0 2f 4f 3d
       0.034412533 0.01472503 -0.02736289 0.050582528
0002a0 aa a2 bd 3c aa aa 6a bd 84 96 65 3c c4 31 64 3c
       0.023148853 -0.057291664 0.0140129365 0.013927881
0002b0 82 16 77 bd 91 82 5a bd 14 3a 41 bd 4d 5f 96 3d
       -0.0603242 -0.053347174 -0.04717453 0.07342396
0002c0 a7 1e 50 3d f0 86 99 3d 6c 2e 0f bd ae e8 71 3d
       0.050810482 0.074964404 -0.03495638 0.05905979
0002d0 22 74 93 bd e9 81 c5 bc 00 be 68 3d 6d cb be 3c
       -0.07199885 -0.024109798 0.056821823 0.02329036
0002e0 69 d6 52 bc 7a f1 97 bd dd fe 18 3c 36 9d cb 3c
       -0.012868502 -0.07419105 0.009338108 0.024855237
0002f0 26 f7 af 3d 94 53 b4 3b f8 39 1b ba e9 e8 65 3d
       0.08592062 0.0055031274 -0.0005921419 0.056130324
000300 fe f3 a8 bd 9b 88 a1 3d fc c0 e4 bc 21 1f 3b bd
       -0.08249663 0.078873836 -0.027924053 -0.045683984
000310 b9 10 6c bd 67 3d 98 3c 34 8a 7d 3d 20 ba 8f 3d
       -0.057633135 0.018583966 0.06189938 0.070179224
000320 c9 cc 8d 3d af af 8d 3c e6 05 6e bd 8d 43 eb bc
       0.06923825 0.017295687 -0.058111094 -0.028718734
000330 72 f6 9a bd d7 94 ed bc 32 89 89 bd a2 c1 21 3d
       -0.07566537 -0.029001636 -0.06715621 0.039491303
000340 4b 13 bd bc 44 f3 35 3d 20 09 84 3d 77 0c 00 bd
       -0.023080489 0.04442145 0.06447053 -0.031261887
000350 93 de a6 3c 52 76 18 3d d9 95 a6 bd 3e 0f 58 bd
       0.020369804 0.037222214 -0.0813405 -0.05274891
000360 7a b9 07 3d cc fb b6 3c 0c f6 8f bd fe a5 a7 bd
       0.03313587 0.022336863 -0.070293516 -0.08185957
000370 74 e4 bc bd f2 db a3 bd da 51 39 bd 80 5f 6d 3d
       -0.092232615 -0.080009356 -0.045244075 0.057952404
000380 92 f7 12 bd 14 ce 5d bd 43 f6 04 bc 5c c0 4f bd
       -0.035880633 -0.05415161 -0.008115354 -0.050720558
000390 86 d8 8f 3b 92 33 9a bd 10 da 01 3d 1d fd 0f bd
       0.0043898253 -0.075293675 0.0317021 -0.035153497
0003a0 a3 f7 88 bd d0 6c 8a bd f2 4c 9d bc df 3d 9f 3d
       -0.06687858 -0.067590356 -0.01920173 0.07775473
0003b0 db 0c 9c bd 41 1f f7 3c 9a 0b c2 3c 8d f5 3c 3d
       -0.076196395 0.03016627 0.023687173 0.046132613
0003c0 5e d9 2b bd 89 9b 93 bd 14 41 88 3c e1 18 6f 3d
       -0.041955344 -0.072074 0.016632594 0.058373336
0003d0 99 68 ff bc 1e 35 3d 3c 16 14 52 bd c4 e5 3c 3c
       -0.031177806 0.011548309 -0.051288687 0.01152939
0003e0 52 24 09 3d e3 9e 8c 3d b6 d0 39 bb 7c a2 99 3d
       0.033481903 0.06866243 -0.0028353161 0.075016946
0003f0 8e c7 3e 3d 94 db be 3c da 8b f9 3b 09 31 66 3d
       0.04657703 0.023298062 0.0076155486 0.056199107

c1.nn.2.bias f4 [128]
000000 29 ac 50 bc 06 13 49 3d 28 d1 91 bc d1 cc 7c bb
       -0.012736359 0.049090408 -0.017799929 -0.0038574229
000010 1b b2 83 3d e3 97 50 bc ec da fc bc 83 00 1a 3c
       0.06430455 -0.012731525 -0.030866109 0.009399536
000020 d7 84 46 3d ff 9d 6c 3c 5e 82 6f 3d 0d 72 01 bd
       0.04846653 0.014441966 0.058473937 -0.031602908
000030 2a d8 4a bc 17 c6 55 3d 5c 37 d3 3c 8d c1 b3 3d
       -0.012380639 0.052190866 0.025783233 0.08777151
000040 5f 2a 83 bd 1f 0e 13 3d a6 96 7c 3b f2 fe 2f bd
       -0.06404566 0.03590214 0.0038541942 -0.042967744
000050 e3 5f a0 bd 26 d9 a0 3d b9 6a b0 3a d8 4d 5f bd
       -0.07830789 0.07853918 0.001345954 -0.054517597
000060 2e 64 14 3d 6b b4 19 3d 32 d9 b2 bd af 1e 85 3b
       0.03622835 0.037525576 -0.08732833 0.0040624957
000070 bd 2a 55 bd 00 c2 34 bd ca 35 49 bd 86 01 11 3d
       -0.05204271 -0.044130325 -0.049123563 0.035401843
000080 59 73 59 3d e9 87 97 bd 46 14 88 3d c4 84 d7 bc
       0.05308852 -0.0739897 0.06644492 -0.026308425
000090 c1 25 06 bd b0 1d 58 3d 71 69 69 3c 68 ed b1 3d
       -0.03275085 0.052762687 0.014246331 0.0868786
0000a0 9c 62 12 bd af dd 20 3c 5a 94 46 bd e9 28 01 3d
       -0.035738572 0.0098184785 -0.048481323 0.031533156
0000b0 9b ce 9e bd 60 cb 24 3d f6 3f 45 3c 0e ea 84 ba
       -0.077542506 0.040233016 0.012039175 -0.0010140555
0000c0 bc bf 39 3d af 9a ac 3b 1c 10 9e ba bd 03 c3 bc
       0.045348868 0.005267463 -0.0012059244 -0.023805493
0000d0 7f 33 aa bc 36 3e 23 bc 5b c5 13 3d ca 0b 8b bd
       -0.020776508 -0.009963563 0.036076885 -0.06789358
0000e0 a5 fc c7 bc 64 98 71 bd 60 79 ab bd 69 c2 41 bd
       -0.024412462 -0.05898322 -0.0837276 -0.047304545
0000f0 27 42 0a 3d 15 31 70 3d 37 57 22 bc ce 14 1c bd
       0.033754494 0.05864056 -0.009908489 -0.03810578
000100 7d 17 8d bd bb 54 89 3a 51 88 70 bd 30 ce df 3c
       -0.06889246 0.0010477522 -0.05872375 0.027319998
000110 df 22 31 bd c6 3c 57 bd f2 d4 b2 3d 84 6a 96 3d
       -0.043246146 -0.052548192 0.08732022 0.07344535
000120 d2 30 79 bd 35 79 97 3d 16 5e 63 bd b3 ff 0d bd
       -0.060837574 0.07396165 -0.05550965 -0.034667682
000130 70 84 32 bd 81 eb 38 bd 0c 99 a8 3d 3a 4f 9e bc
       -0.043583333 -0.04514647 0.082323164 -0.019324888
000140 f9 5c be bc 17 cc db 3c 17 64 36 bd 28 11 9b 3d
       -0.023237692 0.026830716 -0.044529047 0.07571632
000150 22 42 3b bd f7 47 9d 3d 24 f0 49 3c ec 2f 22 3d
       -0.045717366 0.07679742 0.01232532 0.039596483
000160 25 49 74 bc 8c 14 3e bd a9 29 e6 3c 49 3b 1b 3c
       -0.014910017 -0.046406314 0.028096037 0.009474584
000170 aa a6 a0 bd 4c e0 e9 3b e8 d1 b2 3d 82 d7 3b bd
       -0.07844289 0.007137334 0.08731443 -0.04585982
000180 9b 14 6c 3c e6 a8 5b bb 95 57 67 3d 71 a9 82 3d
       0.01440921 -0.003351742 0.05648001 0.06379975
000190 14 9a 9f 3d a0 50 6e 3d dc 30 1f 3d fc e9 cc 3c
       0.0779306 0.05818236 0.038864955 0.025013916
0001a0 11 03 ab 3d cf 9a 41 3c a4 a7 50 bd 60 00 9f bd
       0.08350194 0.011816694 -0.050941125 -0.077637434
0001b0 5b 08 ac 3d 97 13 a4 bc 05 7e 8f 3d e2 be 27 3c
       0.08400031 -0.020028872 0.07006458 0.010238381
0001c0 c4 52 f2 bc 6c 67 ad bd a2 f5 03 bd 6f e5 04 bc
       -0.029580481 -0.08466992 -0.032216676 -0.008111342
0001d0 58 57 96 3d ca 36 ae bd d3 02 fe 3c bb 81 a2 3d
       0.07340878 -0.08506544 0.031007206 0.079349004
0001e0 b2 af 6f bc d4 26 b1 3c 6e 01 2a bc 62 32 aa 3d
       -0.014629291 0.02162496 -0.010376317 0.08310391
0001f0 d2 3b 8b bd 58 d5 af bd d2 fb 1c bd 26 a7 b0 bd
       -0.06798519 -0.08585614 -0.038326092 -0.08625631

c2.nn.0.weight f4 [128, 128]
000000 cf fc 51 3c 8b 39 e9 3c 5d 1a 44 bd bf f5 32 bd
       0.012816622 0.028469821 -0.047876704 -0.043691393
000010 fd a2 3d bd 54 cf 65 bd c7 a5 9b bd 04 6b ae 3d
       -0.046298016 -0.056105927 -0.07599979 0.08516505
000020 5c ab a5 bd 7b 43 7f 3d 17 eb 16 3d 0b 9d 71 bd
       -0.08089325 0.062320214 0.036845293 -0.05898766
000030 25 e3 99 bd 76 e5 99 3c 85 66 bc 3d ca c8 92 bc
       -0.075140275 0.018786173 0.091992415 -0.01791801
000040 be b0 46 3a b5 76 bb 3d e1 07 04 3c 0b 58 55 bc
       0.0007579437 0.09153501 0.008058519 -0.013021479
000050 a2 45 bc 3b a6 90 60 3d af 25 4e 3d 3c 4c 7e bd
       0.0057456056 0.054825447 0.050328907 -0.06208442
000060 25 29 b8 3d 34 a1 97 3d 8c 8c a2 bd 4a a7 55 3d
       0.08992223 0.07403794 -0.079369634 0.052161492
000070 35 84 46 3d 34 ed 78 3d a1 f4 23 3d 1e 88 80 3b
       0.048465926 0.06077309 0.04002822 0.0039224764
000080 21 a5 89 bd 7c 00 7f bd a5 94 5f 3d 0e e5 97 bd
       -0.06720949 -0.06225632 0.054585118 -0.074167356
000090 aa a7 8a 3c f8 c1 e4 bc 33 00 99 3c 30 ca 94 3d
       0.016925652 -0.027924523 0.018676853 0.07265127
0000a0 81 83 41 3b 66 98 8b bd 1f 7c 50 bd f9 ee c2 3c
       0.0029527845 -0.06816177 -0.05089962 0.023795592
0000b0 0f 38 66 bd 14 09 68 bc 05 df a6 3c 0e 62 4a bd
       -0.056205805 -0.014162321 0.020370016 -0.04940992
0000c0 9c b5 1f bd a6 4c 9f 3d 03 c4 a1 bd 1d 30 de bc
       -0.038991556 0.077782914 -0.078987144 -0.027122552
0000d0 42 2f 2b bc f5 af 8e bd 5c 6f 9c bc 09 f7 e8 bb
       -0.010448279 -0.06967155 -0.019096069 -0.007109527
0000e0 e8 a7 d6 3b b2 5b dc 3c c9 c1 6d bd d7 b2 37 bd
       0.0065507777 0.026899192 -0.058046136 -0.04484829
0000f0 85 ce 32 bb 11 61 95 3d bb 52 cd bc 84 aa 32 3d
       -0.002728374 0.072939046 -0.025063863 0.043619648
000100 09 61 9b bd 85 38 f7 3c c2 ec 8c 3d d8 02 4e bd
       -0.07586867 0.030178318 0.068810955 -0.05029568
000110 80 28 36 bd 79 f0 51 3d 6a 26 6d 3d 29 6c e4 bb
       -0.044472218 0.051254723 0.057897963 -0.0069709015
000120 17 21 4d bd 73 bb 31 3d 08 b8 88 3d 33 13 10 3b
       -0.050080385 0.043391656 0.06675726 0.00219841
000130 9e 66 80 3d f9 a8 62 bd ed db f3 bc 7e e1 ed 3b
       0.06269573 -0.055336926 -0.029767955 0.007259547
000140 4e 6f b2 3b 05 b5 75 3d 9f 7e 8a bd 99 c8 a6 bd
       0.0054453975 0.059987087 -0.06762432 -0.0814373
000150 9d c2 f7 3b bc 34 9b bd d8 bf ec 3c c2 fe eb bc
       0.0075610415 -0.07578418 0.028900072 -0.028808001
000160 cf c3 9a bd 18 c5 31 3d 8f 4b 2f bc 61 14 76 bd
       -0.07556879 0.043400854 -0.010699167 -0.06007803
000170 21 e1 10 3d 18 50 0f bb 9f 06 3f 3d ea ef 96 3d
       0.03537095 -0.0021867808 0.046637174 0.07369979
000180 b6 30 98 bd e4 06 81 3c f9 2b 11 3d 3d 77 21 bc
       -0.07431166 0.015750356 0.035442326 -0.009855089
000190 e1 e4 05 3d 7c 8a ad 3d a1 55 78 3d f0 05 3f bd
       0.03268898 0.084736794 0.060628537 -0.04663652
0001a0 46 7d 78 3d ec ba ac 3d 23 a7 8d bd 75 9b 5a 3c
       0.060666345 0.0843409 -0.069166444 0.013342728
0001b0 0e e2 43 bd 62 0f 69 3d 07 f1 ac bd ea 4f b4 3d
       -0.047823004 0.056899436 -0.0844441 0.08804305
0001c0 42 33 13 bd 0e ef 86 3d 33 a4 86 bd 2f e6 80 3d
       -0.035937555 0.06588565 -0.06574287 0.06293904
0001d0 d8 53 75 3d 3d 06 1e ba b6 87 53 3c 6f 0f 4d bc
       0.059894413 -0.0006028151 0.012910774 -0.012515887
0001e0 f5 60 a3 3c cf 53 4a bd 6c 5a 4f bd 39 e0 ec bc
       0.019943694 -0.049396332 -0.050623342 -0.028915511
0001f0 7e 6d 1e bd 53 ff 62 3d e1 ff 97 bd 96 b2 18 3d
       -0.03867864 0.055419277 -0.07421852 0.037279688
000200 6c 42 e6 bc 14 ed 56 bd 46 55 1e 3d d1 e6 5d bd
       -0.028107844 -0.05247219 0.03865554 -0.0541752
000210 d0 d7 b6 3c f0 9c 4a 3d 19 b2 68 3d c6 4b 8a bd
       0.022319704 0.049466074 0.056810472 -0.06752734
000220 bf 71 0e bd 8c e1 13 3d b3 ff be bd 7d 3f 82 bd
       -0.034776445 0.03610377 -0.093261145 -0.06359766
000230 61 01 87 3d b3 7c 91 bd 6b 36 3d bc a6 b6 75 3d
       0.0659206 -0.071038626 -0.011548619 0.05998864
000240 13 01 84 bd 05 e7 46 bc 1c 31 4c bd 25 13 38 3d
       -0.064455174 -0.01214004 -0.04985152 0.044940133
000250 0a a2 91 3c 69 c7 58 3d 94 a7 b3 bd d6 3c b1 bd
       0.017777462 0.052924547 -0.08772197 -0.08654182
000260 f0 59 9c bd 5f e1 03 3d 97 09 90 bc 60 ba d6 bc
       -0.07634342 0.032197352 -0.017582698 -0.026211917
000270 4b 53 e7 bc f8 74 d5 3c cc 66 a3 3d aa 13 0f bd
       -0.02823796 0.026056752 0.07978591 -0.034930862
000280 12 0b 1b bd c1 ce 94 3d 8c 0d 89 bc ec 78 d4 bc
       -0.037852354 0.07265998 -0.016730092 -0.025936566
000290 4a c5 7d bc ba bd a5 3d b0 af 99 bd 80 b8 6a bd
       -0.015488932 0.08092828 -0.07504213 -0.05730486
0002a0 76 fc 03 bd fa e0 e4 bc b1 ba 18 bd ec fd a9 bd
       -0.032223187 -0.027939308 -0.037287418 -0.08300385
0002b0 b4 6d 27 bc b5 70 fc 3c 8a 18 96 bd 0b fc b4 bd
       -0.010219026 0.030815462 -0.07328899 -0.08837136
0002c0 fb a8 51 bd 13 6b 08 3d 88 31 44 3d e8 17 ef bc
       -0.051186543 0.03330524 0.0478988 -0.029186204
0002d0 5d c0 c2 bc 80 96 3e bc dd 8b 43 bd 61 82 5e 3c
       -0.023773367 -0.011632562 -0.047740806 0.013580889
0002e0 8d 6f 98 3d 4c 0c 92 3d d5 b4 15 bd 40 96 50 bc
       0.074431516 0.07131252 -0.036549408 -0.012731135
0002f0 d2 9d ce 3c 11 c6 72 3c 93 73 8b 3b a1 d8 a2 bc
       0.025221739 0.0148177305 0.004255721 -0.019878687
000300 dc 76 7b bd ca 91 92 3d 2e 46 82 bc a9 36 b9 bd
       -0.06139265 0.07156713 -0.015902605 -0.09043629
000310 04 df 8c 3d 3e 48 0f 3c 72 5f 8c bd 60 4c 42 bd
       0.06878474 0.008745251 -0.06854142 -0.047436118
000320 09 14 3b bd da 0b 36 3c f8 8b 67 bc 9e 47 18 3d
       -0.045673404 0.011111224 -0.014132492 0.037177674
000330 8d 35 f9 3c 18 19 0d bd e2 98 a5 bd 33 b8 46 bd
       0.030421043 -0.03444776 -0.08085801 -0.04851551
000340 e7 4c 62 3d 55 a0 a4 bd d8 92 99 3d b1 4e 82 3d
       0.05524912 -0.080383934 0.07498711 0.063626654
000350 a8 a4 ab bd 69 85 4e 3d f1 b1 f8 3c da ea 3a 3d
       -0.08381015 0.0504202 0.030358287 0.04563413
000360 2e 11 30 3d d6 19 88 bd 30 b5 23 3d 24 7e 9d bd
       0.042985134 -0.06645553 0.039967716 -0.07690075
000370 8f 7b 16 3d 7b 18 0f bd ec bb 95 3b 99 17 91 3d
       0.03673893 -0.034935456 0.004569521 0.07084579
000380 41 6c 27 bc c8 7c 49 3b 9a 14 84 3d f9 6e 68 bd
       -0.010218681 0.0030744541 0.06449242 -0.056746457
000390 cc 27 96 bd 50 8d 62 bd 81 ab 10 3c bf 60 81 3d
       -0.073318094 -0.055310547 0.008829952 0.06317281
0003a0 7b 35 1c 3d 41 1f c5 3c 22 48 fb bc a7 e4 9c 3d
       0.03813694 0.024062755 -0.030674044 0.076607995
0003b0 b7 c1 33 3d ce 61 5e 3c 7c 3d 9b bd 9d 05 2c 3d
       0.043885913 0.013573123 -0.075800866 0.04199754
0003c0 49 f8 45 bd 8b ea 8c bd c7 33 c0 3c a5 10 4b 3d
       -0.048332486 -0.06880673 0.02346219 0.04957642
0003d0 41 7e 93 3d b9 7c 15 3d 62 3c 43 bd ba 46 a0 bc
       0.072018154 0.036495898 -0.047665007 -0.019564975
0003e0 c7 4c 89 3d f4 f2 28 bc 9f 10 16 bd 79 16 9a bd
       0.06704097 -0.010311831 -0.036636945 -0.075238176
0003f0 f0 7f 74 3d 5c eb 48 bd 8c 42 90 3d 28 59 af bd
       0.059692323 -0.04905258 0.07043943 -0.08561927

c2.nn.0.bias f4 [128]
000000 66 53 79 bd 80 2d a2 bc 19 69 49 ba 45 07 62 3d
       -0.06087055 -0.019797087 -0.0007683202 0.055182714
000010 80 a9 71 bd 71 a3 a9 bc f9 11 27 bd 53 b3 b8 3c
       -0.05899954 -0.020707818 -0.040788624 0.022546446
000020 be 44 1e 3d 1b 83 0e bc f9 93 93 3d 98 e1 3e 3d
       0.038639776 -0.00869825 0.07205958 0.04660186
000030 a2 fb 6f 3c 97 5b 01 3d 9d e9 5f bc 19 f6 8a 3d
       0.014647396 0.031581488 -0.013666538 0.06785221
000040 86 34 31 3d ae 97 48 3d 8d 53 01 bd f6 8d 87 bd
       0.04326298 0.048972778 -0.03157382 -0.06618874
000050 fb 9d f3 bc 5c db d8 bb 74 0a 82 bd aa 06 85 bb
       -0.029738417 -0.0066179466 -0.0634965 -0.0040596323
000060 e1 e3 a6 bd b6 90 64 bd 9f 75 67 bd 17 5e 8f bc
       -0.08148933 -0.05580207 -0.056508657 -0.01750092
000070 f6 b7 4e bc f4 f0 04 bd 47 a6 50 3d 23 14 e5 3c
       -0.012617102 -0.032456353 0.050939824 0.027963703
000080 b9 03 d3 3b a4 ba b0 3d 1f 40 74 3d 50 08 51 3d
       0.0064396528 0.08629349 0.059631463 0.051033318
000090 c3 13 ff bc 2f 7c 2d 3d 37 2b 1d bd f7 3a 70 bd
       -0.031137353 0.04235476 -0.03837129 -0.058649983
0000a0 12 b7 02 bc d4 fc 21 3d 38 32 2d bb 37 4e 14 bd
       -0.007978218 0.039547756 -0.0026427638 -0.036207404
0000b0 43 67 3a 3d 85 57 0a 3c 9b 89 b3 bc 31 9b 33 bc
       0.045508634 0.008443718 -0.021916201 -0.0109622935
0000c0 be 20 bc bd d2 95 85 bc a7 1c 72 bc c2 0b b1 3c
       -0.091859326 -0.016306791 -0.014777339 0.021612052
0000d0 4d 88 7c bd d7 6a 95 bd 27 92 80 3d fd c5 3c 3d
       -0.061653424 -0.07295769 0.06277876 0.046087254
0000e0 dd 76 41 bd 5f 2b 46 3d 0c 29 47 3d 02 3a 0b bc
       -0.047232497 0.048381206 0.04862313 -0.008497717
0000f0 31 0e 8c 3c 53 ad 08 3d 90 99 ea bc 83 65 1b 3d
       0.01709661 0.03336842 -0.028637677 0.037938606
000100 8f 36 14 bd 0f 72 a5 3c a9 4e ac bd 56 e4 c0 3c
       -0.036184844 0.020195989 -0.08413441 0.023546379
000110 53 94 dd 3c 78 7d ad bd 5e 02 cc ba 4a 41 5d 3d
       0.027048266 -0.08471197 -0.001556467 0.054017343
000120 a8 e0 cb 3b db 10 b2 3d a5 ad bd 3d 7d f4 03 3d
       0.0062218495 0.08694621 0.09261636 0.032215584
000130 34 e2 b5 bd 71 ea c2 bd aa 14 44 bb 5f 08 af bd
       -0.088810354 -0.095173724 -0.0029919543 -0.085465185
000140 32 4e 6c bd 60 27 8b bd 7a ca a1 3d 82 7b 8c bd
       -0.05769176 -0.067946196 0.078999475 -0.06859495
000150 28 39 1b bc bf d2 ac 3d 47 62 86 bd 55 0c 6f bc
       -0.009474076 0.08438634 -0.06561714 -0.0145903425
000160 ed c0 a7 bd 45 76 24 3c 61 f7 8f 3d 1c f7 a1 3d
       -0.081910945 0.010037963 0.07029606 0.079084605
000170 80 5b 42 bc c5 1b 7b bc d8 f7 97 3d fb 9f 3d bd
       -0.011862636 -0.015326445 0.07420319 -0.046295147
000180 e2 f6 87 3d a5 99 37 bd b5 f4 91 bd 77 f0 30 3c
       0.06638886 -0.04482426 -0.07126752 0.010799519
000190 73 d3 a7 bd 8b 2d d3 3c c5 c0 bc 3d 10 f5 cd bc
       -0.081946276 0.025778553 0.09216455 -0.025141269
0001a0 2f cc b5 bb 13 c3 a9 bd 4e b3 77 bd 94 98 95 3d
       -0.005548022 -0.082891606 -0.060473733 0.073044926
0001b0 72 bd f1 bc bd 30 6a 3d b0 f0 36 3c f0 68 ce 3b
       -0.02950928 0.057175387 0.011165783 0.0062991306
0001c0 17 20 7a 3d 2c 80 81 3c 7a df 31 bd f6 2e 5c bb
       0.06106576 0.015808187 -0.043426014 -0.0033597327
0001d0 31 7d 0c 3d 87 d1 3d 3d ef 19 6c bd 67 11 0f 3c
       0.03429908 0.0463424 -0.05764192 0.008732176
0001e0 f0 12 43 3c f3 44 82 3d 0f 02 6c bd 6d 17 5b bc
       0.0119063705 0.06360807 -0.05761915 -0.013372284
0001f0 47 ab 10 bd ee 35 9e 3d ca 41 8b 3d 68 92 af bd
       -0.035319593 0.0772513 0.06799658 -0.08572847

c2.nn.2.weight f4 [128, 128]
000000 00 35 88 3d 93 29 88 3d d8 d8 7b ba cd b7 1d bd
       0.06650734 0.06648555 -0.00096072024 -0.038505364
000010 d9 f3 28 3b 7f 87 40 bd 44 c1 9b 3d 14 1a 29 bd
       0.002578011 -0.04700422 0.07605222 -0.041284636
000020 bc d1 1c 3d 50 39 b5 bd b6 b2 a6 3c a0 31 e3 bc
       0.038285956 -0.08848822 0.020348888 -0.027733624
000030 8b 9c 7e bc 56 fd 18 3d 34 0a f4 3b c5 b7 aa bd
       -0.015540252 0.037350975 0.0074475054 -0.083358325
000040 9a 2e 22 bd c6 05 2a 3d 12 a1 77 bb aa 16 65 bd
       -0.039595224 0.041509412 -0.0037785214 -0.055929817
000050 71 61 92 bb 23 52 03 bd b1 63 7f bd f3 6a 9e bd
       -0.0044671823 -0.032060754 -0.062350933 -0.07735243
000060 a2 71 92 3c fa e5 4d 3c 2b 64 79 bb 45 84 19 3c
       0.01787645 0.012567038 -0.003805409 0.009369914
000070 42 15 f1 3c 71 1e 88 bd ca 18 a1 bc 9f 18 50 3c
       0.029429082 -0.06646431 -0.01966514 0.012701183
000080 aa 15 16 bd 57 d2 4c 3d 36 44 f9 bc fb 26 97 3d
       -0.036641754 0.050005283 -0.030428033 0.07380482
000090 4d 97 83 bd 49 28 1a 3d 2a 1a 69 3d bc ed 9a 3d
       -0.06425343 0.037636075 0.056909718 0.075648755
0000a0 df cd f7 bb e3 cf 9a 3d 5e b3 b4 3b 0f c7 42 bd
       -0.0075623835 0.075591825 0.0055145463 -0.04755312
0000b0 de 51 8a bd c0 cd a3 3d 0e 2a 7c 3d 36 4b 70 bd
       -0.06753896 0.07998228 0.061563544 -0.058665477
0000c0 32 04 a0 bd d7 01 55 3d a6 48 18 bc 03 d6 a2 3b
       -0.078133 0.052003708 -0.0092946645 0.00496936
0000d0 01 26 43 bd 6c 21 f1 bc d0 d6 97 3d d5 7e ab 3b
       -0.047643665 -0.029434882 0.07414019 0.0052336254
0000e0 5a d7 87 bd e0 b9 a6 3d 33 27 29 3d 4b 6f a2 bd
       -0.06632872 0.081409216 0.04129715 -0.07931384
0000f0 9f ef 07 bc f9 d8 a2 3d 82 20 81 bb 3c 70 63 bd
       -0.008296876 0.079515405 -0.003940643 -0.055526957
000100 54 4e c3 3c 05 48 99 bd aa 29 1f 3d be 35 2f 3c
       0.02384106 -0.0748444 0.038858093 0.0106939655
000110 7b 3f ae 3d be 88 82 bd a4 35 7f 3d f8 f5 28 bd
       0.08508202 -0.06373738 0.062307015 -0.0412502
000120 d6 b8 e9 3c bd 8e a7 bd 75 ab 6e bd 17 cc 98 bd
       0.02853052 -0.08181522 -0.058268983 -0.07460802
000130 38 e2 a7 3d 05 5c 94 bc 08 23 2d bd cf 2b a5 bd
       0.08197445 -0.018110285 -0.042269737 -0.080649965
000140 c9 26 3c bc 5a fd 83 3c 79 90 a4 bc b9 21 7a 3d
       -0.0114838565 0.016112018 -0.020088421 0.061067317
000150 32 f3 a8 3d 3f fc 0e 3d a9 18 3e bd f7 d2 b7 bd
       0.08249511 0.03490853 -0.046410237 -0.08975785
000160 94 d8 8f 3d 0d 68 64 bd c3 fe 6f 3d 8f 92 97 bd
       0.07023731 -0.055763293 0.05859257 -0.07401001
000170 e4 63 51 bd 83 f8 bf 3c 44 19 0a bd c2 63 77 bd
       -0.051120654 0.02343393 -0.0337155 -0.06039787
000180 d1 33 9d bd b3 15 36 3d 6e 73 80 bd 6f dd 5b bd
       -0.07675899 0.044454288 -0.062720165 -0.053677972
000190 3f 54 aa 3d df 4d 23 3d 97 d6 4c bc eb 81 76 3d
       0.0831685 0.039869186 -0.012502334 0.060182493
0001a0 98 ba b9 3c 08 9b 0d bc 66 a3 e4 bc 5f 8a 50 bd
       0.022671983 -0.008642919 -0.027909946 -0.05091321
0001b0 23 79 b6 bb ff 80 aa 3d 6e c2 e9 bb bd c6 31 bd
       -0.00556864 0.08325385 -0.0071337735 -0.043402422
0001c0 80 8e 27 3d 3a f5 88 3d b3 a6 46 3d c0 0e b8 bc
       0.040907383 0.06687398 0.04849882 -0.02246797
0001d0 44 22 49 bd c2 13 70 bd 94 68 14 3d 15 f4 2e 3c
       -0.049104944 -0.058612593 0.036232546 0.010678311
0001e0 4c 34 37 bc d3 2f 90 bd 8a c0 02 3d d0 e9 a8 3c
       -0.011181902 -0.07040372 0.0319219 0.020619303
0001f0 d4 ed d2 bc cb 46 cf bc e9 23 47 3d f6 9e 53 bd
       -0.02574817 -0.025302311 0.04861823 -0.05166527
000200 43 1c 6b bd b1 0d a4 3d a0 7f 80 3d 09 9f d5 bc
       -0.0574 0.08010424 0.062743425 -0.02607681
000210 7b 75 1e bd 83 b2 e8 3c 01 f5 59 bd ac e6 dd 3c
       -0.038686257 0.028405434 -0.05321217 0.027087532
000220 15 b2 21 bd 51 83 4f 3d ca e7 1a bd d6 1b 7c 3d
       -0.039476473 0.050662342 -0.037818708 0.061549984
000230 ce 6e 21 3c 25 af 85 bd 78 e1 14 3d c4 6e a4 3d
       0.009853078 -0.06527547 0.036347836 0.08028939
000240 77 0b 6b bd c0 b1 b0 3d 10 72 b7 3d d6 1e c2 3d
       -0.05738398 0.08627653 0.089573026 0.09478538
000250 c7 38 8f bd a9 fb 84 3d 2f 08 21 bd 1d fd a2 3d
       -0.06993251 0.06493313 -0.039314445 0.07958434
000260 39 18 84 bd 45 40 a4 3c 46 6f a9 3d 1e 3d 70 bd
       -0.064499326 0.020050177 0.08273177 -0.058652036
000270 61 90 33 3d 7b 20 c4 bc b7 72 9e bd 13 b2 9f 3d
       0.043838862 -0.02394127 -0.07736724 0.07797637
000280 68 43 77 3d c3 5b 2f bc 1e 49 ee bc 23 21 16 3c
       0.060367018 -0.01070303 -0.0290876 0.009163174
000290 09 7e a7 3d 16 16 70 bd 27 95 c4 bc 8d 7c 28 3d
       0.08178336 -0.058614813 -0.023996903 0.041134406
0002a0 71 81 e6 bc d4 47 b9 3d 11 6a 79 3c b0 ec f9 3c
       -0.028137894 0.09046903 0.015223042 0.03050837
0002b0 c7 b2 97 3c 9e 9f 37 3b b4 5e 1e 3d 91 44 7b bd
       0.018517865 0.0028018723 0.038664535 -0.061344687
0002c0 4b fb 93 bd 88 4c 81 bd 0d 6e 38 3d 1b ac 91 3d
       -0.07225665 -0.06313425 0.045026828 0.07112905
0002d0 7a fa 4c 3d 88 66 02 3d 76 eb 8c bd 27 87 68 3d
       0.05004356 0.031836063 -0.06880848 0.056769516
0002e0 f2 bb 8e 3c af 91 96 bd 9b 4c 9b bc c2 15 8e 3d
       0.017423604 -0.07352006 -0.018957427 0.06937744
0002f0 f7 e4 a8 3d 9c 27 cd 3c 1b 24 93 3d 5b 0c 0c 3d
       0.082467966 0.025043301 0.07184621 0.03419147
000300 44 51 2d 3d a9 8c a1 3d 7b d2 5b bd d4 07 8d 3d
       0.04231383 0.07888157 -0.053667527 0.06886259
000310 65 7b 1a 3d 0c 6c 89 3d c3 a8 cf 36 bc eb 96 3d
       0.037715334 0.067100614 6.188727e-06 0.073691815
000320 f3 56 6f 3d 0d e0 97 3d 1f 96 d6 3c b5 e1 9c bd
       0.05843253 0.07415781 0.02619463 -0.07660238
000330 cf 6b ba bd 44 b6 2e 3c c3 74 a3 3d fe 27 62 3c
       -0.09102594 0.010663573 0.07981255 0.01380348
000340 98 f2 46 bd dc 76 59 bc 2a 05 e3 bc 4f 47 ff bc
       -0.0485712 -0.013272967 -0.027712423 -0.031161932
000350 92 7a 8b 3d 14 94 03 bc 0e 5b da bc 3f 8c 0c 3d
       0.06810488 -0.00803091 -0.026654746 0.034313437
000360 d3 42 95 3b 11 f1 61 bd 0d 74 22 3d 36 b7 88 bd
       0.004555085 -0.05516154 0.039661456 -0.0667557
000370 6e 54 4f 3d 61 a5 c8 bc 80 c6 45 3d 9b 9a aa bb
       0.050617628 -0.024492921 0.048285007 -0.0052064187
000380 b3 c5 c6 3c a6 50 00 bc 4d 10 40 3d b5 ee ab bb
       0.024264192 -0.007831728 0.046890546 -0.005246962
000390 9d 3c 86 3c 8d 2e 93 bc 63 49 71 3d 07 2c 8d 3d
       0.016386325 -0.017966533 0.058907878 0.06893163
0003a0 b7 78 93 3d 4c b8 18 bd b4 a9 6a 3c c6 d0 fd 3c
       0.07200759 -0.037285134 0.014322687 0.03098334
0003b0 38 e6 5e bd 0e ef 3b bd 6e fe c2 bc 1e 26 9d bd
       -0.054418772 -0.045882277 -0.023802962 -0.07673286
0003c0 35 b4 6b 3d d9 b6 17 bd b1 7c 35 bd 58 6d 8a bd
       0.057544906 -0.03703961 -0.044308368 -0.06759137
0003d0 6f e7 50 bd 75 5b 0a 3d b9 2c b6 3c 4a 10 a2 bd
       -0.051001962 0.033778626 0.022238122 -0.07913263
0003e0 13 c0 65 3b 4e fe 8d 3d 04 5f 74 3d 5d d4 b8 3d
       0.0035057112 0.069332704 0.059660926 0.0902488
0003f0 44 8f f3 3c 06 07 1f bc 1a 5d ef bb ff d2 57 bd
       0.0297314 -0.009706264 -0.0073047997 -0.052691456

c2.nn.2.bias f4 [128]
000000 ca a9 30 3d 94 69 93 3d da 56 98 bd 6b 0b 53 bd
       0.043130673 0.07197872 -0.074384406 -0.05152456
000010 d3 79 12 3d 7a cc 56 bc a1 0c 15 3c 28 db f7 bb
       0.035760712 -0.013110274 0.009097249 -0.0075639673
000020 b2 b6 71 bd d6 63 13 bd a7 d8 5b 3d ef 8b 80 3d
       -0.059012122 -0.035983883 0.053673413 0.0627669
000030 0d 1c 4a bd dd 90 ce ba 7f 8b bf 3d 41 a6 a0 3d
       -0.049343158 -0.0015759725 0.09352779 0.078442104
000040 d3 5e 13 bd 86 0e aa 3d 6a a2 98 bd 14 fe d1 bc
       -0.035979103 0.083035514 -0.07452853 -0.02563385
000050 12 ef 1b bd 7f 1f b6 bc 61 91 48 bd 92 d3 00 bd
       -0.038069792 -0.022231815 -0.04896677 -0.03145177
000060 6d bf 2e 3d 8f c8 c8 bd e4 59 07 3c 3a 89 75 3d
       0.042663027 -0.098038785 0.008261178 0.059945323
000070 63 e4 f3 bc 5c 40 f4 bc 04 37 4c 3d e9 9f 4f bc
       -0.02977199 -0.029815845 0.049857154 -0.012672403
000080 4f 33 98 bc f9 2d b7 3d 49 5b 45 bd 62 92 a5 bb
       -0.018579153 0.089443155 -0.04818276 -0.0050528506
000090 a9 fe 67 bd a6 97 8e bd de a2 52 3c 17 11 a6 3b
       -0.056639347 -0.069625184 0.012856213 0.0050679552
0000a0 60 ec a2 3d 01 12 1d 3d cb ec 20 3d be 97 8c bc
       0.07955241 0.038347248 0.039288323 -0.0171622
0000b0 7d cc 9c 3d da 77 17 bd c0 29 97 bd 31 20 56 bd
       0.076561905 -0.036979534 -0.0738101 -0.052276794
0000c0 6d bc 1e 3d 58 24 b8 3d 45 1a 90 bd d1 5a 74 bd
       0.038753916 0.08991307 -0.070362605 -0.05965692
0000d0 b7 05 3c 3d 96 41 6b 3d bc b4 bc 3a ab e1 20 3a
       0.045903888 0.057435594 0.0014397125 0.0006137143
0000e0 1a f6 55 bd df bb ca bc 28 34 7c bc 1b 72 6a 3d
       -0.052236654 -0.024747787 -0.015393294 0.057237726
0000f0 59 36 b8 bd fd 6f d2 3c e1 8e e6 3b 80 ab 5d bd
       -0.08994741 0.025688166 0.0070360755 -0.054118633
000100 81 f5 f3 bc 1d 22 c5 3d 3c 28 ab bc d8 d4 5f 3d
       -0.029780151 0.09625647 -0.020893209 0.054646343
000110 37 e7 58 bd 1b f5 b6 bd 7f 5c 28 3d b5 b7 7e 3d
       -0.05295488 -0.08933469 0.041103836 0.062186915
000120 b1 f9 5c bd d3 7f 40 bd 8a 80 a6 bb b3 14 4c bd
       -0.05394906 -0.046996903 -0.005081241 -0.049824428
000130 b8 74 92 3d b1 c3 98 3b 51 a6 9e bc a8 5c d4 3b
       0.071511686 0.004662 -0.019366415 0.006480772
000140 c8 e0 96 bd ec b2 8d 3c 99 f4 b6 bb 5d 0e 81 bd
       -0.07367092 0.01729723 -0.0055833575 -0.06301568
000150 61 1a 85 3b 58 e8 06 3d ba 68 4c bd 49 25 75 bc
       0.0040619825 0.032936424 -0.049904563 -0.014962503
000160 ab 2a bf bd 58 ee a2 3d d2 3c 38 3d c9 a3 a1 3d
       -0.0933431 0.07955617 0.044979878 0.07892568
000170 36 ee 53 3d bc 40 b6 3b 56 be 26 3d 15 36 98 3d
       0.051740848 0.005561916 0.040708862 0.0743219
000180 68 91 cc bd 60 9d 6a bc 23 fd a9 3d 51 c0 16 3d
       -0.099886715 -0.014319748 0.08300235 0.0368045
000190 9f 64 78 bd 59 10 56 bd c6 51 1a bd ba bb e9 bc
       -0.060642835 -0.052261684 -0.03767564 -0.028531898
0001a0 50 32 39 3d 51 d0 84 bd e8 ad 8c bd 26 71 30 bd
       0.045213997 -0.06485046 -0.068691075 -0.043076657
0001b0 70 37 ac 3d 61 9f 7a 3d 0f 31 6f 3d 2c ca fa 3b
       0.08409011 0.06118715 0.058396395 0.0076534953
0001c0 57 cd 11 bd 83 be 96 3d b1 63 c5 bd c8 87 82 3d
       -0.035596218 0.07360556 -0.09638155 0.063735545
0001d0 a7 3f a1 bd a7 1e bc 3c 82 5c d8 3c 7f 8b f4 3c
       -0.07873469 0.022963835 0.026411299 0.029851673
0001e0 de 30 9e 3d b9 bd a5 bc 13 d5 33 bd dd 7b 53 3d
       0.077241644 -0.020232068 -0.043904375 0.051631797
0001f0 47 bd ad 3d 52 af 84 3d ec 52 04 3d f7 b7 8b bd
       0.084833674 0.06478752 0.032305643 -0.06822198

n1.weight f4 [128]
000000 a1 4f 80 3f b3 17 80 3f 94 9d 80 3f d5 73 80 3f
       1.0024301 1.0007232 1.0048089 1.0035349
000010 c7 bb 7f 3f 0a 34 80 3f 07 e9 7f 3f 9b 22 80 3f
       0.998959 1.0015881 0.99964947 1.0010561
000020 2c 21 80 3f 95 10 80 3f ea 4c 80 3f e1 df 7f 3f
       1.0010123 1.000506 1.0023472 0.9995099
000030 03 2a 80 3f 06 2f 7f 3f 1f b6 7f 3f 97 aa 80 3f
       1.0012821 0.9968113 0.9988727 1.005206
000040 47 60 7f 3f f5 90 7f 3f ea 15 7f 3f 68 85 80 3f
       0.9975628 0.9983056 0.99642813 1.0040712
000050 a3 6a 7f 3f b5 15 80 3f 12 a6 80 3f d9 a2 80 3f
       0.9977209 1.0006624 1.0050681 1.0049697
000060 00 43 80 3f 00 81 7f 3f 65 1c 80 3f 59 a6 80 3f
       1.0020447 0.99806213 1.0008665 1.0050765
000070 0d 66 80 3f fa 36 80 3f 47 e6 7f 3f f3 d9 7f 3f
       1.0031143 1.0016778 0.9996075 0.9994194
000080 06 74 7f 3f 6c 58 80 3f 83 07 80 3f 96 f3 7f 3f
       0.9978641 1.0026984 1.0002292 0.9998106
000090 5f 11 80 3f 27 fc 7f 3f fa 42 7f 3f 3e 52 80 3f
       1.0005301 0.9999413 0.99711573 1.0025098
0000a0 69 ec 7f 3f 39 13 80 3f 48 b2 7f 3f 09 d3 7f 3f
       0.9997011 1.0005866 0.9988141 0.9993139
0000b0 07 f9 7f 3f b1 b6 7f 3f 99 f4 7f 3f 25 17 80 3f
       0.9998936 0.9988814 0.999826 1.0007063
0000c0 51 d6 7e 3f 0c fe 7f 3f e7 f1 7f 3f 16 a4 7f 3f
       0.9954577 0.9999702 0.9997849 0.9985975
0000d0 bc 06 80 3f c7 88 7f 3f f9 81 7f 3f d2 58 7f 3f
       1.0002055 0.9981808 0.998077 0.99744904
0000e0 f8 77 80 3f 0f f7 7f 3f 87 11 80 3f c0 fa 7f 3f
       1.0036612 0.99986356 1.0005349 0.9999199
0000f0 4b 7f 7f 3f 03 02 80 3f fb 5b 80 3f 0a be 7f 3f
       0.9980361 1.0000614 1.002807 0.9989935
000100 f1 c6 7f 3f a1 5a 80 3f 83 3b 80 3f fd 50 80 3f
       0.99912935 1.0027658 1.0018162 1.0024716
000110 58 03 80 3f b0 be 7f 3f a4 68 7f 3f 61 a9 7f 3f
       1.000102 0.9990034 0.99769044 0.99867827
000120 bb 60 7f 3f d7 c5 7f 3f ec 16 7f 3f 23 95 80 3f
       0.99756974 0.99911255 0.9964435 1.0045513
000130 c1 94 7f 3f f1 df 7f 3f 97 c5 7f 3f a7 a3 7f 3f
       0.99836355 0.9995108 0.99910873 0.9985909
000140 b0 7f 7f 3f 3f af 7f 3f 95 68 80 3f 73 60 7f 3f
       0.9980421 0.9987678 1.0031916 0.99756545
000150 65 49 80 3f f0 4e 80 3f 61 0a 80 3f 10 0d 80 3f
       1.0022398 1.002409 1.0003167 1.0003986
000160 f8 c3 80 3f 68 0a 80 3f bb 01 80 3f 2c 71 7f 3f
       1.0059805 1.0003176 1.0000528 0.9978206
000170 4e 98 7f 3f c0 77 7f 3f 6d 9a 7f 3f 56 96 7f 3f
       0.99841774 0.997921 0.9984501 0.9983877
000180 ba 24 7f 3f a1 2f 80 3f 00 e1 7f 3f df 82 7f 3f
       0.99665415 1.0014535 0.999527 0.9980907
000190 98 59 80 3f 63 3f 80 3f 4f c5 7e 3f a4 b9 7f 3f
       1.0027342 1.0019344 0.9951982 0.9989264
0001a0 7d 07 80 3f b3 79 80 3f 9c 28 80 3f 23 bb 7f 3f
       1.0002285 1.003714 1.0012393 0.9989492
0001b0 65 25 80 3f 6f ca 7e 3f 7f 26 80 3f 9b 32 80 3f
       1.0011412 0.9952764 1.0011748 1.0015444
0001c0 9e 11 80 3f 79 fd 7e 3f 17 b9 80 3f 9c d0 7f 3f
       1.0005376 0.9960552 1.0056485 0.9992769
0001d0 d7 34 80 3f 27 42 80 3f 7d 0d 80 3f 1f 1c 80 3f
       1.0016125 1.0020188 1.0004116 1.0008582
0001e0 70 ef 7f 3f 1c 59 7f 3f 5a 69 7f 3f 1a 34 80 3f
       0.9997473 0.99745345 0.9977013 1.00159
0001f0 c4 00 80 3f 54 d9 7f 3f 21 a4 7f 3f 52 0f 80 3f
       1.0000234 0.9994099 0.99859816 1.0004675

n1.bias f4 [128]
000000 c8 ac 07 3c 39 44 44 ba 07 59 99 3b b1 af db ba
       0.00828094 -0.00074869726 0.0046798023 -0.0016760734
000010 7c 19 8e bb eb 06 15 3b 84 cd 00 3a ae a2 2d 3b
       -0.004336534 0.002273972 0.0004913437 0.002649467
000020 b2 ad ae 3b 8f cc 29 3a 52 aa 9c 3b de 79 25 bb
       0.0053307647 0.000647732 0.004781046 -0.002524964
000030 f5 7f 5f 3b 7a 47 87 ba 6b 9f c1 b8 9e 04 86 b8
       0.0034103368 -0.0010320984 -9.232651e-05 -6.390478e-05
000040 d7 ac a6 36 f4 31 1f 39 23 bf a2 bb b5 c7 a3 3b
       4.9673067e-06 0.0001518203 -0.004966633 0.004998172
000050 40 44 3a bb 56 55 6b 3b 0d a8 48 bb 9d b6 04 3c
       -0.0028422028 0.0035909018 -0.0030617744 0.008100179
000060 31 1d 39 3b 07 f7 b9 ba 56 4d 4f b8 66 c2 a1 3b
       0.002824616 -0.0014188 -4.942467e-05 0.004936504
000070 c2 66 de 3b b4 ab 13 ba 1a c0 93 b9 12 7c da b9
       0.006787152 -0.0005633191 -0.00028181152 -0.0004167264
000080 05 f4 5b bb 7a 3d 82 3b 93 76 15 b9 ed 89 b2 ba
       -0.0033562195 0.0039746137 -0.0001425392 -0.0013621427
000090 ab 66 f9 3a f2 84 f7 b9 59 b4 0f ba 15 06 4f 3a
       0.001902779 -0.00047210563 -0.0005481891 0.00078973296
0000a0 3d e2 32 bb e4 98 c8 ba e0 4e a0 3a 75 6f 7b 3b
       -0.0027295493 -0.0015304354 0.0012230538 0.0038365994
0000b0 89 19 e0 b9 0a 58 96 ba 90 60 7e ba 97 52 43 3b
       -0.00042743635 -0.001147033 -0.000970372 0.0029803866
0000c0 29 dc ae 38 b0 60 53 bb 90 cc 20 bb 1d 34 84 ba
       8.3379746e-05 -0.0032253675 -0.0024535991 -0.0010086332
0000d0 27 63 26 bb ba 21 46 39 31 a0 55 bb 91 e2 cf 3a
       -0.002538869 0.00018895316 -0.0032596702 0.0015860369
0000e0 ca 38 eb 3a ef ec f9 3a 43 a6 e4 3b 4f f8 1e ba
       0.0017946002 0.0019067804 0.0069778278 -0.00060642225
0000f0 2c 8e 17 3b fd df 92 3a f4 f6 24 3b 74 4a 54 3b
       0.0023125513 0.001120567 0.002517161 0.003239301
000100 ed 47 02 bb 41 12 e7 b8 ef 5f e3 3a 51 3a 58 3b
       -0.0019879297 -0.000110183384 0.0017347316 0.0032993744
000110 a6 94 cd ba 4d 45 95 ba 1d 05 42 ba 15 a2 d1 ba
       -0.001568456 -0.0011388451 -0.00074012746 -0.0015993739
000120 74 00 eb ba 81 32 c2 ba 08 3b 82 bb 47 f8 16 3c
       -0.0017929212 -0.0014816077 -0.003974322 0.009214467
000130 55 58 59 ba 24 bd 23 bb c0 d7 f3 ba e6 d7 24 b8
       -0.00082910556 -0.0024984563 -0.0018603727 -3.9301718e-05
000140 43 5d 72 bb 3e 05 a3 39 ed ec a4 3b a0 d0 29 ba
       -0.0036981858 0.00031093688 0.0050331266 -0.0006477926
000150 de f4 44 3b 7b 81 27 ba 98 c3 40 ba d8 e5 4b 3a
       0.0030053179 -0.00063898385 -0.00073533645 0.0007778085
000160 09 aa 32 3c 66 04 a8 3a c2 a0 87 3b ec 86 84 bb
       0.010904797 0.0012818694 0.004139037 -0.0040444043
000170 6c c2 93 bb 79 3f 6b bb 87 15 05 bb 27 c1 03 3b
       -0.004509261 -0.0035895987 -0.002030702 0.0020104141
000180 9c 8f 5b bb 99 fd 84 ba c2 0e 8e 3b 20 96 f0 ba
       -0.0033502346 -0.0010146379 0.0043352554 -0.0018355288
000190 a0 02 8f 3a c2 2d e8 39 2d e1 f5 ba 2a 77 f6 3a
       0.0010910816 0.0004428458 -0.0018759124 0.0018803824
0001a0 0c f2 3e b9 8c 06 96 3b b8 09 86 3b 50 28 65 bb
       -0.00018209981 0.004578417 0.004090514 -0.0034966655
0001b0 9f 50 e2 3a 74 f7 5e bb 47 08 e0 3a db c9 02 3b
       0.0017266459 -0.0034022005 0.0017092311 0.001995674
0001c0 9b 33 c0 3a b6 a0 9b bb a1 a3 cd 3a 06 38 67 bb
       0.0014663817 -0.004749383 0.0015689024 -0.0035281195
0001d0 a6 83 24 3b 34 b9 d3 3b d9 b9 f9 ba 8b 1a 88 3b
       0.0025102883 0.006461287 -0.0019052579 0.004153555
0001e0 7d 6e 8b ba 6e 7d 75 bb d6 98 79 bb 5a fd 7a bb
       -0.0010637786 -0.0037458795 -0.0038085482 -0.0038297982
0001f0 dc d4 b5 39 40 0b aa ba b0 30 56 bb dc c3 02 3b
       0.00034681603 -0.0012973323 -0.0032682829 0.0019953167
