graphsage_best.pth (torch, 270370 bytes, 11 tensors)

l1.lin_l.weight f4 [128, 128]
0.04541128 0.054499336 0.09496869 -0.06707344 -0.044433188 -0.002849169 -0.03616126 -0.06296734
-0.008088879 -0.02887056 -0.061866462 0.0002874285 0.08028107 0.050225727 0.0012841523 -0.025281765
-0.0064368993 0.008751489 0.033955872 0.0499193 0.009181671 -0.04475224 -0.056891218 -0.0798701
0.06308461 -0.0151473135 -0.06718016 0.08769212 -0.084565446 0.06661288 -0.040787254 0.030281529
-0.03607456 -0.047130227 0.0778585 -0.045264926 -0.0743574 0.057592176 0.013023369 -0.058402658
0.031444952 -0.057275217 -0.0064245164 -0.058743067 0.00016026199 -0.043916773 0.06660078 -0.0116690695
-0.043103877 0.062049754 -0.058227196 0.03818526 0.004258327 -0.064029805 0.049216114 0.05557836
0.043558203 -0.017719083 -0.009940796 0.06783391 -0.08318294 0.064235054 -0.0020320714 -0.06684774
0.029272959 0.020113394 0.05745911 0.068950646 0.019378096 0.07895709 -0.06676608 -0.05709055
0.048938744 -0.078824714 -0.00385198 -0.055574477 0.012793526 0.052879088 -0.052601837 -0.04035765
0.061678357 0.007990234 0.05415485 -0.07426912 -0.046578474 -0.057782665 0.07651126 -0.026544906
-0.06064609 -0.06664896 0.06432291 -0.05917971 0.06699752 -0.07438415 0.035269238 0.05500052
0.04785178 -0.006007731 0.032077737 0.06922809 0.085172154 -0.08623791 -0.020349815 -0.024830215
-0.07807548 -0.006675765 0.07808667 0.037412055 0.05233092 -0.05717499 -0.07819458 -0.039540317
-0.052967954 -0.016749926 0.08699431 -0.08367272 0.02595029 -0.014191106 0.0113228485 0.082241006
-0.061632905 -0.06561168 -0.022594929 0.021190464 -0.037991717 0.087410726 -0.08415129 0.015563659
0.036040567 0.013397103 0.009005623 -0.01084494 -0.06106779 0.034110993 -0.049183443 -0.049343485
0.012402698 0.034623906 0.04939749 -0.013364017 0.07010285 0.019989312 0.042535253 0.0072651654
-0.008306429 -0.055620003 0.031931326 -0.03888525 -0.061225135 -0.06334456 0.06914956 -0.06522849
-0.04542841 0.045831762 -0.0077041835 0.070285045 -0.020073965 0.073221065 0.0069341287 -0.0022840127
0.008669719 0.059060834 -0.08378292 0.024245016 0.051659755 -0.07677979 0.04042559 0.046516158
-0.03922777 -0.045995496 -0.009464085 -0.06879231 0.002300553 -0.05364315 0.0042315125 0.08307325
-0.033558976 -0.04249949 0.071185894 -0.0751828 0.0075943694 -0.048343487 -0.015721291 0.060420178
0.002226323 0.07526801 -0.045396075 -0.066608995 -0.072391786 -0.07622236 -0.009365439 0.0005658418
-0.0117127225 0.052564494 -0.021576993 -0.0007667765 0.054415114 0.063798495 0.03525374 0.07982474
0.0024182498 0.07355373 -0.084832005 -0.07347514 -0.064881146 0.07775205 -0.0520251 0.027681261
0.03033553 0.03182382 -0.007976912 0.067446984 0.033183835 -0.01146666 -0.05618789 -0.07498154
-0.06577635 -0.016216539 -0.057044905 0.019179195 -0.03207102 -0.05102057 -0.07000221 -0.03602233
-0.07733525 0.07085458 0.07146362 -0.022607103 0.01983872 0.08371692 0.032716766 -0.055469655
0.05580952 0.07154056 0.051613726 -0.0006221682 -0.067420185 0.07023171 0.0068926215 0.033391975
0.031237118 0.0854894 0.06966565 -0.030828774 0.024053216 -0.043623008 -0.0068499073 -0.03373613
0.062578 -0.018711738 -0.0277441 -0.07015087 -0.083810516 -0.041663088 0.029914029 -0.04730955
00000000: 2e01 3a3d b23a 5f3d f27e c23d cd5d 89bd
00000010: 93ff 35bd 20b9 3abb d41d 14bd 05f5 80bd
00000020: 3887 04bc f481 ecbc b067 7dbd 00b2 9639
00000030: 676a a43d 7eb9 4d3d 0051 a83a b41b cfbc
00000040: a0ec d2bb 6862 0f3c 5015 0b3d 2e78 4c3d
00000050: b86e 163c 204e 37bd c406 69bd ef92 a3bd
00000060: 8132 813d 702c 78bc c095 89bd ed97 b33d
00000070: a630 adbd 556c 883d 8910 27bd f810 f83c
00000080: ebc2 13bd a00b 41bd 4774 9f3d b767 39bd
00000090: b148 98bd c6e5 6b3d f85f 553c a037 6fbd
000000a0: 6ccc 003d 6b99 6abd c084 d2bb 929c 70bd
000000b0: 000c 2839 13e2 33bd fd65 883d a02f 3fbc
000000c0: b18d 30bd e227 7e3d a47f 6ebd 2668 1c3d
000000d0: 7089 8b3b 0f22 83bd d696 493d 22a6 633d
000000e0: 166a 323d 9c27 91bc b8de 22bc 81ec 8a3d
000000f0: d15b aabd ab8d 833d 802c 05bb 78e7 88bd
00000100: d8cd ef3c d8c4 a43c 3e5a 6b3d ff35 8d3d
00000110: d0be 9e3c 41b4 a13d a8bc 88bd c8d7 69bd
00000120: fe73 483d da6e a1bd 8071 7cbb 10a2 63bd
00000130: f09b 513c be97 583d 0675 57bd 104e 25bd
00000140: 72a2 7c3d 78e9 023c 7ad1 5d3d 691a 98bd
00000150: 12c9 3ebd 84ad 6cbd efb1 9c3d b474 d9bc
00000160: 0968 78bd 407f 88bd bbbb 833d 6c66 72bd
00000170: ff35 893d b856 98bd 7a76 103d 3a48 613d
00000180: 3a00 443d 80dc c4bb f263 033d 75c7 8d3d
00000190: bd6e ae3d 809d b0bd a8b4 a6bc bc68 cbbc
000001a0: 0ae6 9fbd 60c0 dabb e7eb 9f3d 623d 193d
000001b0: f258 563d 5330 6abd 7b24 a0bd 07f5 21bd
000001c0: edf4 58bd 2437 89bc 132a b23d 9a5c abbd
000001d0: b495 d43c d081 68bc 7883 393c f96d a83d
000001e0: c972 7cbd 6b5f 86bd 0019 b9bc a097 ad3c
000001f0: 349d 1bbd 6504 b33d 8357 acbd b8fe 7e3c
00000200: 469f 133d 867f 5b3c 528c 133c faae 31bc
00000210: 3822 7abd f8b7 0b3d 9474 49bd 651c 4abd
00000220: b034 4b3c ccd1 0d3d 0655 4a3d c0f4 5abc
00000230: 1592 8f3d a0c0 a33c 7239 2e3d a010 ee3b
00000240: b017 08bc cdd1 63bd 6cca 023d 2446 1fbd
00000250: 35c7 7abd cbba 81bd 499e 8d3d 8496 85bd
00000260: 2413 3abd 16ba 3b3d 6073 fcbb 9bf1 8f3d
00000270: 2872 a4bc edf4 953d b037 e33b 60af 15bb
00000280: 700b 0e3c c6e9 713d 6196 abbd 7c9d c63c
00000290: 2e99 533d b93e 9dbd 4e95 253d ba87 3e3d
000002a0: 4cad 20bd c665 3cbd 400f 1bbc fce2 8cbd
000002b0: e0c4 163b ebb8 5bbd 80a8 8a3b 4f22 aa3d
000002c0: 2375 09bd f213 2ebd e9c9 913d 71f9 99bd
000002d0: 30da f83b d203 46bd f0c9 80bc 267b 773d
000002e0: 80e7 113b 1d26 9a3d 3cf1 39bd 4c6a 88bd
000002f0: 2542 94bd 781a 9cbd 8071 19bc 0055 143a
00000300: b8e6 3fbc de4d 573d 3cc2 b0bc 8001 49ba
00000310: 62e2 5e3d c9a8 823d 3a66 103d 277b a33d
00000320: 807b 1e3b 57a3 963d 67bc adbd 227a 96bd
00000330: 68e0 84bd 773c 9f3d 4518 55bd d0c3 e23c
00000340: 3882 f83c b259 023d 98b1 02bc a521 8a3d
00000350: c6eb 073d a8de 3bbc 4625 66bd ec8f 99bd
00000360: c0b5 86bd 8cd8 84bc eba7 69bd b01d 9d3c
00000370: e75c 03bd f2fa 50bd 525d 8fbd 278c 13bd
00000380: f261 9ebd 351c 913d 855b 923d 8832 b9bc
00000390: d084 a23c c773 ab3d 0402 063d 2634 63bd
000003a0: 8698 643d db83 923d ea68 533d 0019 23ba
000003b0: 9813 8abd a5d5 8f3d 80db e13b 06c6 083d
000003c0: fce4 ff3c 1115 af3d ddac 8e3d a08c fcbc
000003d0: 400b c53c 0aae 32bd 3075 e0bb e52e 0abd
000003e0: e528 803d 5c49 99bc 9847 e3bc 42ab 8fbd
000003f0: d9a4 abbd eaa6 2abd 440e f53c a9c7 41bd

l1.lin_l.bias f4 [128]
0.016272504 0.005065398 -0.07114368 0.020777391 0.017462404 -0.00040972568 -0.028463537 0.07098659
0.032566145 0.059067436 0.056442656 0.06770345 -0.028509783 0.02366 -0.056654852 0.04109994
-0.0032508464 0.04380554 -0.00070017844 -0.008472019 0.055603538 -0.03741998 -0.0042714924 -0.09294929
-0.05855161 0.047823835 0.04877299 0.0482146 -0.011375666 0.05105871 0.032144736 0.043771744
0.0705731 0.051046796 0.020128755 0.04985978 -0.009533009 0.0027912653 0.029549692 0.015542355
-0.01398711 0.03915814 -0.07568119 0.047110077 -0.00830758 0.05255212 0.05702523 -0.030473374
-0.008192655 0.054691497 0.0350479 0.042784773 0.0156064015 0.043913968 0.04422561 -0.05087507
-0.111561865 0.056553602 -0.0035366886 -0.055456653 0.03588431 -0.012080615 0.0059467917 0.048194397
0.053973433 -0.011925883 -0.020599749 0.044398326 0.035353113 -0.053710558 0.060815167 -0.022234285
-0.0041994173 -0.03474323 -0.0362811 -0.030919448 0.014853392 -0.057087425 0.042535402 -0.06759302
0.007924184 -0.012956496 0.050863814 -0.07212856 -0.028965274 0.009765053 -0.034837756 -0.020882362
0.02738319 0.061011817 -0.06015121 -0.05481621 0.02995733 -0.1044107 -0.037866715 0.045661982
-0.030032251 0.004148971 -0.004122252 0.026825497 0.03721544 0.026315004 0.0003077534 -0.04216498
-0.012462363 -0.015210247 0.0016235823 0.050720833 0.022224292 -0.0073320074 0.0013625149 0.052361116
0.055552304 0.046184573 0.05455034 0.023556693 -0.022185037 -0.02410025 0.024460498 -0.032262653
-0.0025574735 -0.03281471 0.026548777 0.046726085 -0.06251093 -0.06326736 0.0014637596 -0.04209753
00000000: ea4d 853c a3fb a53b c7b3 91bd 5935 aa3c
00000010: 510d 8f3c 73d0 d6b9 5d2c e9bc 6b61 913d
00000020: 1464 053d b2f0 713d 6a30 673d 1ba8 8a3d
00000030: 598d e9bc 9ed2 c13c eb0e 68bd 6958 283d
00000040: 270c 55bb 706d 333d 2e8c 37ba 39ce 0abc
00000050: 89c0 633d b145 19bd e0f7 8bbb 335c bebd
00000060: d0d3 6fbd ede2 433d 30c6 473d ac7c 453d
00000070: 0061 3abc f022 513d 33aa 033d 004a 333d
00000080: a188 903d 7216 513d 0fe5 a43c c539 4c3d
00000090: 5630 1cbc a9ed 363b 3212 f23c 5da5 7e3c
000000a0: 312a 65bc 4964 203d bdfe 9abd 7ff6 403d
000000b0: 841c 08bc e440 573d 4a93 693d 4ca3 f9bc
000000c0: 7c3a 06bc 3104 603d 638e 0f3d 163f 2f3d
000000d0: feb1 7f3c 22df 333d ea25 353d 6162 50bd
000000e0: 8c7a e4bd c0a4 673d cac7 67bb 8426 63bd
000000f0: 6dfb 123d c6ed 45bc 4edd c23b 7d67 453d
00000100: 3f13 5d3d c764 43bc cec0 a8bc 05db 353d
00000110: 6dce 103d 9aff 5bbd 5319 793d ad24 b6bc
00000120: 449b 89bb eb4e 0ebd 7e9b 14bd c84a fdbc
00000130: a45b 733c 81d4 69bd 9a39 2e3d 366e 8abd
00000140: 70d4 013c 7c47 54bc 9356 503d 23b8 93bd
00000150: 9548 edbc 9afd 1f3c 09b2 0ebd 7d11 abbc
00000160: b652 e03c 87e7 793d 1d61 76bd f686 60bd
00000170: 1369 f53c 47d5 d5bd 211a 1bbd 0f08 3b3d
00000180: 3206 f6bc 17f4 873b f513 87bb 25c1 db3c
00000190: 386f 183d 9092 d73c f659 a139 30b5 2cbd
000001a0: f02e 4cbc 6634 79bc 62ce d43a a6c0 4f3d
000001b0: b80f b63c 5641 f0bb 6a96 b23a 9c78 563d
000001c0: d08a 633d 092c 3d3d 2d70 5f3d f7f9 c03c
000001d0: 65bd b5bc e36d c5bc 6261 c83c d825 04bd
000001e0: 499b 27bb b868 06bd d27c d93c da63 3f3d
000001f0: bb05 80bd 5192 81bd 9fdb bf3a 766e 2cbd

l1.lin_r.weight f4 [128, 128]
0.10200274 -0.049036913 -0.011933749 -0.044344384 -0.083385155 -0.009164281 -0.038406778 0.051726066
0.04001666 0.003925249 0.052652188 0.037596337 -0.029650833 -0.08623341 -0.072583385 -0.008588232
-0.00324931 -0.07701891 -0.001685977 0.0863784 0.0026169792 0.06461974 0.024062015 0.0037756935
-0.02123452 0.022445925 -0.04979886 0.018262282 -0.084268436 -0.07280127 -0.06680815 0.08648088
-0.024155788 -0.012756787 -0.044394076 -0.050780367 0.040334858 0.02733019 0.014361516 0.07286788
0.03377249 -0.036770616 0.044771142 0.039812542 0.07163801 -0.010478161 -0.05643264 -0.06612163
-0.027850963 -0.041496344 0.036684863 0.029873468 0.002395302 0.0013035312 0.040036686 0.024276197
-0.01904279 0.037332408 0.072906084 0.036892213 -0.06850527 0.03374151 0.04736767 -0.0113320425
0.027690023 -0.060978323 -0.025112912 0.08157586 0.01199647 -0.028984547 0.084925 -0.048374675
0.062228434 0.056987695 -0.07658313 -0.0005958602 0.06846059 -0.010480553 0.0011627823 0.015188545
0.026489586 0.02490034 -0.01546073 0.019449435 0.032200687 0.08086657 0.009993836 0.021532558
-0.009287722 0.0014704317 -0.06584658 -0.020166814 0.085309274 -0.08382245 -0.06577768 -0.03630109
-0.040609878 0.07512637 -0.077549234 -0.047600873 -0.07793643 -0.04175566 -0.07060398 0.026427
0.07770582 -0.022784881 0.025901884 0.07926259 -0.025451414 0.07700009 -0.012974836 0.045791827
0.027046941 0.04955045 -0.065925226 -0.03181026 -0.0039632767 0.001979135 -0.020258412 -0.04047654
0.036615632 -0.05973021 -0.08467671 -0.057991788 0.023148008 -0.022317 -0.00815735 0.04850789
-0.06051205 -0.0052513503 0.008457287 0.050739095 0.01085986 -0.078742765 0.36831537 -0.08648534
0.06648711 -0.077429146 0.0028550178 0.06590765 0.076115735 0.032573953 -0.047384057 0.03342969
0.0785623 0.080669455 -0.034843862 0.054631867 -0.06091371 0.031475045 -0.058635935 0.049945273
-0.038116734 0.042781897 -0.0866669 0.023174055 0.07888859 -0.06071064 -0.015849382 0.036408342
0.008015811 -0.013438761 -0.061491154 -0.08331804 0.00095005333 0.032929175 0.0023047999 -0.05461257
0.005081147 -0.053338163 -0.012597576 0.014591925 -0.04331948 0.0003277883 -0.02284868 0.08227945
0.057029 -0.027864534 0.043803774 -0.07450285 0.04791958 0.08707216 -0.027622253 -0.058225155
0.0017018244 0.041351385 -0.05169959 -0.043632377 0.05560174 0.07781472 0.0747314 0.006807916
-0.06812532 0.027637333 0.087540366 -0.053756397 0.006240599 0.048482828 -0.05166346 -0.020502895
0.033897668 0.05236768 0.022277705 0.01014632 -0.021264642 -0.0034159943 -0.03626203 -0.032871664
0.00061704963 0.0067601427 -0.06139913 -0.0031135157 -0.033769023 -0.023386188 -0.07426702 -0.08576759
0.03530314 0.080322735 -0.076365665 -0.02321633 0.0785998 -0.058474652 0.010741644 0.0456694
0.0466286 -0.07191703 -0.034665592 0.030982979 -0.005577415 -0.022999838 0.0031726956 0.043396242
-0.033351917 0.0061996654 0.03328161 0.07248866 0.03799676 0.01769571 0.060297824 0.0876186
0.029596992 0.082632 0.07672093 0.050276108 -0.06642775 -0.038538888 -0.041911606 -0.01689902
-0.07402688 0.055344902 0.06280739 -0.034214612 -0.0023500994 -0.0023463145 0.028022267 0.08093464
00000000: d0e6 d03d eeda 48bd c585 43bc 75a2 35bd
00000010: d6c5 aabd c825 16bc 6d50 1dbd b6de 533d
00000020: 82e8 233d 609f 803b d2a9 573d 9efe 193d
00000030: 4ee6 f2bc 249b b0bd 99a6 94bd a8b5 0cbc
00000040: 60f2 54bb 17bc 9dbd 00fc dcba 29e7 b03d
00000050: a081 2b3b 5b57 843d b41d c53c a071 773b
00000060: 04f4 adbc 84e0 b73c e4f9 4bbd c89a 953c
00000070: ee94 acbd d518 95bd b6d2 88bd e31c b13d
00000080: 5ce2 c5bc d801 51bc 90d6 35bd 13ff 4fbd
00000090: 2a36 253d 90e3 df3c 904c 6b3c c13b 953d
000000a0: 0655 0a3d c99c 16bd f261 373d 7a12 233d
000000b0: f3b6 923d 98ac 2bbc e925 67bd c76a 87bd
000000c0: b427 e4bc 12f8 29bd de42 163d 34b9 f43c
000000d0: 80fa 1c3b 40db aa3a 82fd 233d e0de c63c
000000e0: a0ff 9bbc dee9 183d c94f 953d 4a1c 173d
000000f0: 7e4c 8cbd 8a34 0a3d 9a04 423d 08aa 39bc
00000100: 30d6 e23c 68c4 79bd 98b9 cdbc 3f11 a73d
00000110: d88c 443c 0071 edbc 29ed ad3d 8624 46bd
00000120: 3ee3 7e3d ee6b 693d 9ed7 9cbd 8033 1cba
00000130: 1135 8c3d a0b6 2bbc 8068 983a 60d9 783c
00000140: b000 d93c ccfb cb3c 004f 7dbc 6c54 9f3c
00000150: dee4 033d 5f9d a53d 30bd 233c 0c65 b03c
00000160: 882b 18bc 80bb c03a 92da 86bd e034 a5bc
00000170: a1b6 ae3d 1bab abbd 73b6 86bd 74b0 14bd
00000180: 8b56 26bd dbdb 993d 22d2 9ebd 22f9 42bd
00000190: 239d 9fbd fc07 2bbd d298 90bd 707d d83c
000001a0: 3b24 9f3d 5ca7 babc 3030 d43c 6d54 a23d
000001b0: 7c7f d0bc 39b2 9d3d 6894 54bc 3690 3b3d
000001c0: 8c91 dd3c 6af5 4a3d ce03 87bd 7a4b 02bd
000001d0: 60de 81bb 60b4 013b f8f4 a5bc baca 25bd
000001e0: 46fa 153d aaa7 74bd fc6a adbd cc88 6dbd
000001f0: e4a0 bd3c 24d2 b6bc 68a6 05bc 36b0 463d
00000200: 7cdb 77bd 8513 acbb 6f90 0a3c ccd3 4f3d
00000210: 8eed 313c e343 a1bd d593 bc3e 3a1f b1bd
00000220: 652a 883d 2c93 9ebd 401b 3b3b 97fa 863d
00000230: 91e2 9b3d 446c 053d c915 42bd 92ed 083d
00000240: 45e5 a03d 0736 a53d 70b8 0ebd aac5 5f3d
00000250: a880 79bd faeb 003d 3c2c 70bd 6a93 4c3d
00000260: 4b20 1cbd 123c 2f3d 6a7e b1bd 84d7 bd3c
00000270: 5790 a13d b8ab 78bd 90d6 81bc ea20 153d
00000280: c054 033c 402e 5cbc 26de 7bbd a6a2 aabd
00000290: 000d 793a bee0 063d 200c 173b 6eb1 5fbd
000002a0: c07f a63b 1e79 5abd 1066 4ebc f812 6f3c
000002b0: c46f 31bd 00db ab39 282d bbbc 2182 a83d
000002c0: 3e97 693d 2a44 e4bc 966b 333d f394 98bd
000002d0: 5247 443d e352 b23d 1048 e2bc 807d 6ebd
000002e0: c00f df3a 1260 293d f3c2 53bd ddb7 32bd
000002f0: a6be 633d 535d 9f3d c70c 993d f014 df3b
00000300: 4a85 8bbd b067 e23c 5d48 b33d ab2f 5cbd
00000310: f07d cc3b ee95 463d 109d 53bd b0f5 a7bc
00000320: 48d8 0a3d 7e7f 563d bc7f b63c c03c 263c
00000330: 3033 aebc e0de 5fbb 7f87 14bd 70a4 06bd
00000340: 80c1 213a 3084 dd3b a77d 7bbd 200c 4cbb
00000350: 6351 0abd 6494 bfbc 4f19 98bd eba6 afbd
00000360: 069a 103d 3f80 a43d 9a65 9cbd 2c30 bebc
00000370: eff8 a03d 1e83 6fbd b8fd 2f3c d60f 3b3d
00000380: a2fd 3e3d 3c49 93bd 82fd 0dbd 04d0 fd3c
00000390: c0c2 b6bb 286a bcbc 00ed 4f3b 42c0 313d
000003a0: 059c 08bd 9026 cb3b 4c52 083d ef74 943d
000003b0: 7ea2 1b3d 98f6 903c dafa 763d 6171 b33d
000003c0: 6475 f23c f73a a93d dd1f 9d3d 52ee 4d3d
000003d0: 460b 88bd f4da 1dbd 81ab 2bbd d06f 8abc
000003e0: 689b 97bd 56b1 623d 29a1 803d 9f24 0cbd
000003f0: 2004 1abb a0c4 19bb f48e e53c 0fc1 a53d

l2.lin_l.weight f4 [128, 128]
-0.0019161981 -0.04176829 0.019600956 0.0112599395 -0.07840244 -0.04560901 0.10593663 -0.031712446
-0.027217286 0.0044488483 -0.025766332 0.019512942 -0.025015239 0.10082678 0.01775246 0.026703808
-0.07425868 0.035493206 -0.039475035 0.0037388299 0.014377899 0.04804717 -0.0392633 0.021620603
0.032120027 0.04015442 -0.054315206 -0.008967762 0.032555446 -0.007746846 -0.009722727 -0.0008737759
-0.0439113 0.103010766 0.052703183 0.116690405 -0.056955375 0.020068621 0.06420684 0.0634382
0.037104644 0.07454739 0.0196126 0.007534843 -0.018464599 -0.038523953 0.023404703 0.031162351
-0.034240633 -0.023142384 0.10287478 0.04177643 0.061562274 0.114667766 -0.01090323 -0.019246308
-0.04030271 -0.05418341 0.08709077 -0.054192703 0.019252572 -0.04091947 0.07942762 0.09312764
-0.008491369 0.08793036 0.022236165 -0.027201425 0.025150038 -0.018940272 -0.010108621 0.031906918
0.045845266 -0.04321919 0.023347288 0.07882874 -0.020296529 -0.045598075 -0.03861697 -0.0054936865
-0.048218828 0.00015669168 0.021871101 -0.00017421794 -0.03473915 -0.022982156 0.03311824 0.048391197
-0.008280657 -0.018699318 0.075884484 -0.022398053 0.09119398 0.015618526 0.020652104 0.031392865
-0.033840157 0.0044885986 -0.025179693 0.010033387 -0.0037852817 0.008332102 0.08448854 0.071029626
-0.033777356 -0.004849717 0.007229686 0.019277155 0.048571035 -0.013651047 -0.046955574 -0.020223137
0.032008078 0.011111091 0.057057735 -0.08193079 0.0024582604 0.018989405 0.009782026 -0.032598484
-0.050323766 0.030549692 -0.033200264 -0.042182777 0.028215148 -0.040046636 -0.059246495 0.040335625
0.07724579 0.08745742 -0.0007061935 0.06820012 0.04342011 0.061579607 0.027304491 0.08142819
0.058440823 -0.2366429 -0.056204513 -0.051889997 0.08491744 -0.005732078 -0.043136682 -0.026047628
0.029459469 -0.08201635 -0.042351298 0.059264872 -0.02825416 0.11094405 -0.07533023 0.1383678
0.008442651 0.083361916 0.093171425 -0.20994487 0.011800381 -0.07061699 0.06594302 0.058237668
-0.007945572 -0.22639915 -0.041717 0.046994593 0.035102103 0.07529486 0.1026101 0.056762643
0.024498638 -0.12136125 0.03735956 -0.15617187 0.084661864 -0.047635622 -0.0712671 0.08894577
0.0933136 -0.14436632 -0.041412473 -0.040920276 -0.021882331 -0.16079527 0.013733523 0.1356086
0.09077749 -0.078752965 -0.015037069 -0.03273382 0.014460561 0.07914419 -0.0048948913 -0.12660863
0.027113961 -0.019040858 -0.036364622 -0.06304605 -0.08733751 0.009144145 0.060537107 0.0106209265
0.08685232 0.0733663 -0.0064260126 -0.07657241 0.0068429294 -0.05741547 0.046434 0.07277722
-0.025322348 -0.09746073 -0.12772472 0.11607454 0.087388195 -0.04998563 -0.0037827357 -0.0814593
0.021061426 0.07995134 0.073955774 0.10416527 0.0041776896 0.12845927 0.03672029 -0.00044543803
0.058082134 0.051841024 0.0666256 -0.02857427 -0.057877507 -0.076359235 -0.10076117 -0.014311369
0.1201705 -0.091902524 -0.01189353 0.05137547 0.11855231 -0.074940704 -0.027581342 -0.101369925
0.042753164 0.014303443 -0.20427272 0.018952124 -0.112669565 0.06447584 -0.008574199 0.03524685
0.016513027 -0.063143104 0.035371754 0.032294005 0.051664222 -0.030059762 0.068752035 -0.16647255
00000000: f028 fbba 3a15 2bbd 2f92 a03c 9c7b 383c
00000010: 7591 a0bd 83d0 3abd 4ef5 d83d e9e4 01bd
00000020: c9f6 debc a5c7 913b ea13 d3bc 9bd9 9f3c
00000030: c2ec ccbc 457e ce3d 9b6d 913c f2c1 da3c
00000040: ef14 98bd 5361 113d 93b0 21bd 2807 753b
00000050: 4791 6b3c 1ccd 443d 8ed2 20bd b11d b13c
00000060: 4a90 033d f678 243d 9f79 5ebd 85ed 12bc
00000070: dc58 053d 41d9 fdbb 134c 1fbc 1c0e 65ba
00000080: 56dc 33bd 4ff7 d23d 4bdf 573d 61fb ee3d
00000090: 0a4a 69bd f366 a43c e07e 833d e3eb 813d
000000a0: 0afb 173d 4dac 983d 9aaa a03c d8e6 f63b
000000b0: 1243 97bc 4bcb 1dbd 38bb bf3c 3048 ff3c
000000c0: e83f 0cbd 1995 bdbc 03b0 d23d c31d 2b3d
000000d0: b928 7c3d efd6 ea3d 76a3 32bc 6faa 9dbc
000000e0: 7414 25bd 6cef 5dbd a55c b23d 2bf9 5dbd
000000f0: 92b7 9d3c 2d9b 27bd f3aa a23d b4b9 be3d
00000100: 621f 0bbc d514 b43d 9e28 b63c 86d5 debc
00000110: 7407 ce3c a128 9bbc a19e 25bc d4b0 023d
00000120: 3fc8 3b3d 9b06 31bd d042 bf3c f670 a13d
00000130: e844 a6bc 0cc5 3abd d42c 1ebd 6204 b4bb
00000140: 1b81 45bd 9a4d 2439 062b b33c 46ae 36b9
00000150: a44a 0ebd 1345 bcbc fea6 073d d935 463d
00000160: 98ab 07bc 502f 99bc 5369 9b3d 1f7c b7bc
00000170: e9c3 ba3d d9e4 7f3c 9a2e a93c ce95 003d
00000180: fa9b 0abd 1815 933b a545 cebc 1363 243c
00000190: 7d12 78bb 5e83 083c 5408 ad3d fb77 913d
000001a0: 205a 0abd 60ea 9ebb 00e7 ec3b 20eb 9d3c
000001b0: 6cf2 463d a4a8 5fbc 7d54 40bd feaa a5bc
000001c0: e71a 033d 4b0b 363c 5fb5 693d 54cb a7bd
000001d0: c41a 213b ab8f 9b3c ca44 203c fd85 05bd
000001e0: 4b20 4ebd 5943 fa3c 00fd 07bd d9c7 2cbd
000001f0: 7423 e73c f107 24bd 74ac 72bd f836 253d
00000200: 0a33 9e3d e01c b33d d81f 39ba 81ac 8b3d
00000210: 49d9 313d e63a 7c3d abad df3c d3c3 a63d
00000220: a55f 6f3d 8452 72be b436 66bd 9b8a 54bd
00000230: 32e9 ad3d 28d4 bbbb 17b0 30bd d661 d5bc
00000240: fc54 f13c 30f8 a7bd 8e78 2dbd b9bf 723d
00000250: 4575 e7bc a236 e33d bc46 9abd 4ab0 0d3e
00000260: 0b53 0a3c a7b9 aa3d a9d0 be3d cafb 56be
00000270: 6356 413c a49f 90bd 220d 873d 9f8a 6e3d
00000280: 252e 02bc 2ed5 67be 72df 2abd 677d 403d
00000290: 39c7 0f3d 3134 9a3d 3e25 d23d f27f 683d
000002a0: 5eb1 c83c 3f8c f8bd 5706 193d 85eb 1fbe
000002b0: 3363 ad3d 921d 43bd 7cf4 91bd 3329 b63d
000002c0: 331b bf3d c4d4 13be 20a0 29bd 059c 27bd
000002d0: 9342 b3bc 84a7 24be 9202 613c fbdc 0a3e
000002e0: 8ce9 b93d 3c49 a1bd 0a5e 76bc e613 06bd
000002f0: fdeb 6c3c 5916 a23d 5365 a0bb b1a5 01be
00000300: 191e de3c 93fb 9bbc 12f3 14bd 4a1e 81bd
00000310: 02de b2bd 53d1 153c c2f5 773d 6503 2e3c
00000320: a1df b13d 1241 963d 4d91 d2bb ffd1 9cbd
00000330: a73a e03b 7c2c 6bbd 9431 3e3d 390c 953d
00000340: d070 cfbc 7e99 c7bd 45ca 02be 7db8 ed3d
00000350: 95f8 b23d bbbd 4cbd c6e7 77bb 22d4 a6bd
00000360: 0389 ac3c 87bd a33d 2076 973d 9a54 d53d
00000370: 00e5 883b d48a 033e 0468 163d ae89 e9b9
00000380: 88e7 6d3d 4157 543d 0173 883d 9614 eabc
00000390: f710 6dbd 3b62 9cbd df5b cebd 3b7a 6abc
000003a0: f31b f63d 6437 bcbd 15dd 42bc 166f 523d
000003b0: 8ecb f23d 837a 99bd 44f2 e1bc 099b cfbd
000003c0: f11d 2f3d fd58 6a3c de2c 51be 7c41 9b3c
000003d0: 4dbf e6bd e90b 843d cc7a 0cbc 005f 103d
000003e0: 5446 873c 2c51 81bd f9e1 103d b846 043d
000003f0: dd9d 533d e43f f6bc decd 8c3d c877 2abe

l2.lin_l.bias f4 [128]
-0.09312497 -0.05165382 0.126627 0.17389913 -0.04450346 -0.1529906 0.13901392 -0.1228327
-0.118946135 0.15069832 -0.053751387 0.02107231 0.26443037 -0.07509205 -0.1486176 0.019024286
-0.08691994 0.05697579 0.26617417 0.2229539 0.093067355 -0.14976013 0.14838107 -0.021308282
0.032499168 -0.13730675 0.16894202 -0.02637257 -0.113634735 -0.15547343 0.12780848 -0.10191194
0.16804196 -0.1155862 0.23404892 -0.08171772 -0.11966411 0.043034457 0.14790297 0.03895472
0.16571485 -0.15904291 -0.009265572 -0.007820119 -0.117841706 -0.096093796 0.09704707 -0.08280182
0.14636257 -0.15124711 -0.13061613 -0.043345276 0.27899614 0.02261964 -0.04452371 -0.095796436
-0.06889264 0.22287436 -0.06496175 -0.16973215 0.17317489 0.16397488 0.091360226 0.21655558
-0.09907473 0.22684693 0.053248983 0.17116545 -0.0007723607 0.03216963 -0.04612066 0.20588727
-0.16472457 0.09288265 0.09182008 -0.14969355 -0.0870181 -0.04424166 -0.12979335 -0.10453964
-0.14661592 -0.13193569 0.16341595 0.05122045 0.16486219 0.11750713 0.12191553 0.12324249
-0.08496628 0.0046362053 -0.17723776 -0.026045145 -0.13613522 0.19150497 0.21702649 0.003709102
-0.1045085 -0.11643234 -0.1513322 0.13152191 0.08004162 -0.07291663 -0.075298324 0.09925296
0.11398922 -0.05630751 -0.10238369 0.17350608 -0.08015414 -0.12832335 0.0056433035 0.19827437
0.013310267 -0.09888579 0.15121408 -0.10766242 -0.14902918 -0.12834994 -0.17009303 0.22448643
0.19079524 -0.08240535 -0.08536081 0.10321259 0.10737624 -0.06709582 -0.15903261 0.15203518
00000000: 4eb8 bebd f592 53bd 82aa 013e 9d12 323e
00000010: 4349 36bd 91a9 1cbe aa59 0e3e b68f fbbd
00000020: 089a f3bd a950 1a3e 6a2a 5cbd d69f ac3c
00000030: 6b63 873e dcc9 99bd 362f 18be d2d8 9b3c
00000040: 1503 b2bd 725f 693d fb47 883e 074e 643e
00000050: 199a be3d b85a 19be 35f1 173e b58e aebc
00000060: d91d 053d 249a 0cbe 23ff 2c3e 4a0b d8bc
00000070: 54b9 e8bd 6d34 1fbe 3ae0 023e 35b7 d0bd
00000080: 3113 2c3e 75b8 ecbd 85aa 6f3e 9f5b a7bd
00000090: 7512 f5bd e644 303d e073 173e fc8e 1f3d
000000a0: 27b1 293e 25dc 22be a0ce 17bc f51f 00bc
000000b0: fe56 f1bd d3cc c4bd 9dc0 c63d 0094 a9bd
000000c0: 12e0 153e 86e0 1abe 3cc0 05be d18a 31bd
000000d0: 95d8 8e3e d34c b93c 7e5e 36bd ec30 c4bd
000000e0: 9617 8dbd 2d39 643e aa0a 85bd 44ce 2dbe
000000f0: c254 313e 08e9 273e 121b bb3d bfc0 5d3e
00000100: b1e7 cabd 904a 683e 9b1b 5a3d ff45 2f3e
00000110: 4078 4aba 4dc4 033d 04e9 3cbd 1dd4 523e
00000120: 8fad 28be 4239 be3d 2b0c bc3d 4449 19be
00000130: 8c36 b2bd be36 35bd 8ce8 04be e118 d6bd
00000140: 7c22 16be 261a 07be 8356 273e 89cc 513d
00000150: a2d1 283e 94a7 f03d d9ae f93d 8f66 fc3d
00000160: cd02 aebd 4feb 973b d17d 35be a15c d5bc
00000170: 0867 0bbe e119 443e 313c 5e3e 6814 733b
00000180: 8d08 d6bd 1474 eebd d4f6 1abe aead 063e
00000190: dcec a33d 5055 95bd 0236 9abd 2345 cb3d
000001a0: 2e73 e93d b4a2 66bd 8aae d1bd 94ab 313e
000001b0: db27 a4bd 3267 03be 76eb b83b 7008 4b3e
000001c0: 4e13 5a3c a284 cabd ddd7 1a3e 1d7e dcbd
000001d0: 1b9b 18be 2b6e 03be de2c 2ebe c5df 653e
000001e0: d45f 433e 23c4 a8bd a6d1 aebd 1f61 d33d
000001f0: 13e8 db3d 8969 89bd 72d9 22be 1caf 1b3e

l2.lin_r.weight f4 [128, 128]
-0.0051494 0.030277152 -0.043756712 0.0051440974 0.05698733 0.023087233 -0.105435714 0.030156057
-0.045887023 0.018682858 0.042125177 -0.030719643 0.025010418 -0.012828516 -0.026128469 -0.012955333
0.074958846 -0.01317987 0.052426014 -0.0035808205 0.028002927 -0.0918441 -0.005155519 -0.060572103
-0.053348616 -0.012525687 0.07488985 0.027068403 -0.08424619 0.026904533 -0.031958397 0.002914805
0.029475318 -0.042827502 -0.059104227 -0.04870516 -0.009853689 -0.021912413 0.000528305 -0.0018519384
-0.019493924 0.03973532 0.050428625 0.03864199 0.02152201 0.042681936 -0.057596307 -0.032955494
0.009196324 0.030032644 -0.07291454 -0.008006325 0.02429897 0.00908272 0.032723337 -0.051836137
0.06087419 -0.0013469285 -0.08991001 0.059610922 -0.0035397732 -0.055560935 0.056106474 -0.04522473
0.058988743 -0.06937252 -0.057553988 -0.023640057 0.03442353 0.023225574 0.047207125 -0.024323953
0.0026251024 0.02092217 -0.07867268 -0.075905845 0.001926854 0.026109893 -0.0021645774 0.04385041
-0.022715194 -0.060408715 0.04111571 -0.05659517 -0.0049778256 -0.026269753 0.011313613 -0.032678008
0.012336895 -0.030565938 -0.072128735 -0.0008472135 -0.036567997 0.0629307 -0.054878034 0.014838906
-0.003841764 -0.04222719 0.0025353273 0.025639744 -0.06475754 0.0414006 -0.03474425 -0.09881065
0.006340322 0.008264453 -0.0016838762 -0.062292885 -0.052292094 0.011689436 0.009612029 0.017264778
0.044134006 -0.053398687 0.011164153 0.07342654 -0.086395256 0.01116411 0.030407151 0.009760642
0.020292101 0.054642424 0.015994247 -0.0051036603 -0.009271123 0.041424148 0.034899052 0.0306878
-0.049555283 -0.08535952 0.06406966 0.036406636 0.06609863 -0.009567859 -0.044624794 0.025456393
0.028439492 -0.12097184 0.018789181 -0.040404774 0.0889746 -0.044664312 -0.031178908 0.060957562
-0.06794691 -0.019738043 0.021428281 -0.057067838 -0.15094207 0.017773595 -0.044984788 0.07866043
-0.0046411245 -0.058485817 -0.010997039 -0.13461009 0.008039046 -0.03405286 -0.027171884 -0.01938624
0.03759505 -0.09597209 0.03232278 0.026515704 -0.016789041 -0.012690218 -0.0153832445 -0.105021074
-0.015060832 -0.049166504 0.12392548 -0.071457595 0.025872676 -0.05715051 -0.06190995 0.069928214
0.006231015 -0.07532439 -0.013388193 0.00652619 -0.015617252 -0.089071035 -0.050366905 -0.0392823
-0.011444627 -0.018495435 -0.039906718 0.084163055 0.041132938 -0.018707583 -0.08557524 -0.04394577
-0.01741461 -0.043813705 -0.029188622 0.028068194 0.019917145 0.0509766 -0.0016166817 -0.026395295
0.07120506 -0.0054113124 0.048826616 -0.0655635 -0.06103749 -0.009683196 0.03775972 0.04692567
-0.020704005 0.0363695 -0.08287991 0.011401836 -0.04035845 -0.07219309 -0.008539363 -0.081546105
-0.09853619 -0.004911806 -0.018433996 0.048250042 -0.07039396 -0.019701371 -0.061890278 -0.11412402
-0.11714082 0.036617104 -0.024342354 -0.010155045 -0.0076932586 0.052492183 -0.051958524 -0.0008995272
0.07901481 -0.03445931 0.058974616 -0.04221692 0.046191715 -0.010796606 -0.09412617 -0.05864037
-0.03234401 -0.03148623 -0.17041217 -0.026354272 -0.035929985 0.067233935 0.050568048 -0.018574122
0.033913124 -0.09234646 -0.032600336 0.011287933 0.02259092 0.07938884 0.044119157 -0.103433035
00000000: 4cbc a8bb ca07 f83c 3d3a 33bd d18f a83b
00000010: 8c6b 693d 7021 bd3c aeee d7bd d609 f73c
00000020: 08f4 3bbd cb0c 993c 738b 2c3d c3a7 fbbc
00000030: a6e2 cc3c b22e 52bc 5f0b d6bc 9b42 54bc
00000040: 0684 993d 62f0 57bc a9bc 563d 33ac 6abb
00000050: 6566 e53c c218 bcbd a1ef a8bb 741a 78bd
00000060: 1484 5abd 8a38 4dbc da5f 993d 8ebe dd3c
00000070: 4489 acbd e566 dc3c cfe6 02bd 5006 3f3b
00000080: 3976 f13c e46b 2fbd 4617 72bd 107f 47bd
00000090: 5e71 21bc a981 b3bc f37d 0a3a bebc f2ba
000000a0: b9b1 9fbc 81c1 223d 3f8e 4e3d 1047 1e3d
000000b0: ed4e b03c 41d3 2e3d 1bea 6bbd 57fc 06bd
000000c0: 2eac 163c 0507 f63c 3854 95bd f62c 03bc
000000d0: a20e c73c b0cf 143c e808 063d 2152 54bd
000000e0: 3757 793d 6c8b b0ba bd22 b8bd 952a 743d
000000f0: 8afb 67bb dd93 63bd e7cf 653d 913d 39bd
00000100: 2e9e 713d 2e13 8ebd bbbd 6bbd cba8 c1bc
00000110: b0ff 0c3d 8f43 be3c 425c 413d 0743 c7bc
00000120: e909 2c3b f864 ab3c 241f a1bd 8674 9bbd
00000130: 7e8e fc3a 6ae4 d53c 95db 0dbb 7d9c 333d
00000140: 3715 babc 216f 77bd f268 283d 56d0 67bd
00000150: 071d a3bb aa33 d7bc bb5c 393c 60d9 05bd
00000160: b020 4a3c 6b65 fabc 3bb8 93bd 8917 5eba
00000170: 53c8 15bd d0e1 803d cac7 60bd e21e 733c
00000180: 1bc6 7bbb 6bf6 2cbd bc27 263b 710a d23c
00000190: 9a9f 84bd ad93 293d fd4f 0ebd 3d5d cabd
000001a0: 7ac2 cf3b a167 073c 82b5 dcba d326 7fbd
000001b0: 3c30 56bd 0c85 3f3c c67b 1d3c dd6e 8d3c
000001c0: dcc5 343d 95b8 5abd dae9 363c a760 963d
000001d0: ffef b0bd ace9 363c 6b18 f93c 1aeb 1f3c
000001e0: 9f3b a63c bcd0 5f3d 5e06 833c 9b3c a7bb
000001f0: e9e5 17bc 5eac 293d 4ff2 0e3d fb64 fb3c
00000200: 7bfa 4abd f9d0 aebd f436 833d 201f 153d
00000210: b85e 873d 82c2 1cbc 7dc8 36bd ed89 d03c
00000220: f0f9 e83c 16c0 f7bd c5eb 993c 7a7f 25bd
00000230: 5138 b63d edf1 36bd e96a ffbc a3ae 793d
00000240: c027 8bbd adb1 a1bc 5d8a af3c f7bf 69bd
00000250: 8f90 1abe ee99 913c f841 38bd b818 a13d
00000260: 9314 98bb d38e 6fbd ed2c 34bc 3ad7 09be
00000270: 34b6 033c 037b 0bbd 9297 debc e4cf 9ebc
00000280: 44fd 193d 048d c4bd e464 043d 7637 d93c
00000290: 2c89 89bc a2ea 4fbc 010a 7cbc 4a15 d7bd
000002a0: b5c1 76bc d162 49bd a4cc fd3d 5c58 92bd
000002b0: eff2 d33c a716 6abd 4a95 7dbd 8636 8f3d
000002c0: 8b2d cc3b ac43 9abd 275a 5bbc a6d9 d53b
000002d0: 81df 7fbc e06a b6bd 874d 4ebd 7ae6 20bd
000002e0: 3f82 3bbc bd83 97bc 3a75 23bd ae5d ac3d
000002f0: 037b 283d a540 99bc 1242 afbd 7b00 34bd
00000300: 16a9 8ebc 0076 33bd fa1c efbc 45ef e53c
00000310: 4829 a33c d7cc 503d d6e6 d3ba f23a d8bc
00000320: f5d3 913d 6151 b1bb 6bfe 473d 2846 86bd
00000330: 7202 7abd 45a6 1ebc f0a9 1a3d 2235 403d
00000340: 729b a9bc 2ff8 143d f1bc a9bd c4ce 3a3c
00000350: e74e 25bd f9d9 93bd afe8 0bbc a501 a7bd
00000360: 58cd c9bd 37f3 a0bb e402 97bc d6a1 453d
00000370: b52a 90bd c564 a1bc a980 7dbd dbb9 e9bd
00000380: 87e7 efbd d1fb 153d 9e69 c7bc 5961 26bc
00000390: bb17 fcbb 0b02 573d 76d2 54bd 40ce 6bba
000003a0: 84d2 a13d 3525 0dbd 5e8f 713d a6eb 2cbd
000003b0: 8633 3d3d 3fe4 30bc 39c5 c0bd e230 70bd
000003c0: 277b 04bd b5f7 00bd 8780 2ebe eae4 d7bc
000003d0: 522b 13bd f2b1 893d 7120 4f3d c228 98bc
000003e0: 7de8 0a3d 2420 bdbd ee87 05bd 06f1 383c
000003f0: 9810 b93c 9e96 a23d 4ab6 343d b3d4 d3bd

n1.weight f4 [128]
0.9506815 1.0376886 1.0932218 0.93282884 0.9258457 0.9616117 1.1676757 0.86734605
0.93652207 1.0367179 0.9405167 0.8802742 0.96294796 1.0446973 0.9425703 0.9523937
0.97867805 0.8613991 1.0634525 0.9486757 0.98320866 1.0256287 0.95683545 1.0070068
1.0197558 0.9341928 0.9396061 1.0332924 1.0026612 0.9601003 0.90654117 0.8355491
0.977777 1.0787582 0.92747986 0.9939897 0.90082914 0.90492904 1.0144377 1.0408903
0.96912163 1.0112238 1.017633 0.9699361 0.95187384 0.96725345 0.98965526 0.9892937
0.94810206 1.001531 0.94621736 0.99541193 1.051345 0.99489486 0.96330327 1.0050572
1.0445902 0.9419473 1.0582196 0.9489178 0.95497704 0.9586293 0.99663645 0.9924979
0.88047653 1.1212118 1.0422834 0.96920466 0.8377072 1.0024784 0.9925879 1.0448976
0.94039726 1.0602536 0.9933607 1.0540338 1.1381345 0.99124205 0.93452436 1.0115757
0.9769592 0.9240955 0.9876168 1.0239315 0.95430064 0.96205854 0.9785053 1.0120647
1.0748992 0.9334525 1.0973842 1.0602536 1.0372223 1.022684 1.0630403 1.0533197
1.0483576 0.9186723 1.0279493 0.85334355 0.9721049 0.8971757 1.1230175 1.0878382
0.8961488 0.9913453 0.91011 0.94796234 0.9200775 0.8899141 0.95688134 0.9845403
0.9254193 0.9909907 1.0373607 0.9668687 0.96121824 0.9886706 0.95249337 1.0850202
1.0119693 1.0364068 0.8840337 0.950242 0.98375016 1.024068 0.9596587 1.0614158
00000000: dd5f 733f fbd2 843f b1ee 8b3f dfcd 6e3f
00000010: 3904 6d3f 2f2c 763f 6676 953f 640a 5e3f
00000020: e9bf 6f3f 2cb3 843f b4c5 703f a659 613f
00000030: c283 763f a4b8 853f 4a4c 713f 13d0 733f
00000040: a58a 7a3f a784 5c3f 361f 883f 69dc 723f
00000050: 90b3 7b3f cd47 833f 2bf3 743f 99e5 803f
00000060: 5c87 823f 4227 6f3f 068a 703f ed42 843f
00000070: 3457 803f 22c9 753f 1513 683f 8ce6 553f
00000080: 984f 7a3f c014 8a3f 526f 6d3f 1c76 7e3f
00000090: bd9c 663f 6ea9 673f 18d9 813f e53b 853f
000000a0: 5b18 783f c86f 813f cc41 823f bb4d 783f
000000b0: 01ae 733f ec9d 773f 0c5a 7d3f 5a42 7d3f
000000c0: d1b6 723f 2b32 803f 4d3b 723f 51d3 7e3f
000000d0: 7992 863f 6eb1 7e3f 0b9b 763f b7a5 803f
000000e0: 22b5 853f 7523 713f bd73 873f 47ec 723f
000000f0: 6079 743f bb68 753f 9123 7f3f 5814 7e3f
00000100: e966 613f de83 8f3f 8b69 853f cc1d 783f
00000110: fb73 563f 3651 803f 3e1a 7e3f 34bf 853f
00000120: e0bd 703f 64b6 873f e34c 7e3f 94ea 863f
00000130: 64ae 913f 0ac2 7d3f fd3c 6f3f 507b 813f
00000140: 001a 7a3f 8691 6c3f 74d4 7c3f 3010 833f
00000150: 0c4d 743f 7849 763f 537f 7a3f 568b 813f
00000160: 4c96 893f bef6 6e3f 1677 8c3f 64b6 873f
00000170: b3c3 843f 4fe7 823f b411 883f 2ed3 863f
00000180: 9530 863f 1c2e 6b3f d893 833f b974 5a3f
00000190: dedb 783f 4fad 653f 0abf 8f3f 483e 8b3f
000001a0: 026a 653f cec8 7d3f f8fc 683f a9ad 723f
000001b0: 338a 6b3f 69d1 633f 2df6 743f d50a 7c3f
000001c0: 47e8 6c3f 91b1 7d3f 3cc8 843f b584 773f
000001d0: 6612 763f 8419 7d3f 9bd6 733f f1e1 8a3f
000001e0: 3688 813f faa8 843f 0850 623f 0f43 733f
000001f0: 0dd7 7b3f a914 833f 31ac 753f 79dc 873f

n1.bias f4 [128]
0.118721776 -0.039869457 -0.035797685 0.015192725 0.031188356 0.041783534 -0.12003299 -0.17114753
-0.11819194 -0.12890261 -0.11981326 0.011805274 -0.09090991 -0.054634888 -0.059453886 -0.09913575
-0.0014987731 -0.011215918 -0.030739227 -0.07253023 -0.1278331 -0.0706474 -0.05273287 -0.08050492
-0.040618163 -0.053058393 -0.1140152 -0.11380115 -0.06845353 -0.08434228 0.044567455 -0.039158065
-0.112152345 -0.10917433 -0.00078291376 -0.09100389 0.06808842 -0.116031304 -0.11703726 -0.06693455
0.09351845 -0.14432968 -0.07829228 -0.08604098 0.013422617 -0.09969254 -0.096783966 -0.19265328
-0.1941564 -0.10672739 -0.14090534 -0.07847603 -0.047403075 -0.11136346 -0.09481874 -0.052605864
-0.08649831 -0.12518269 -0.1315171 -0.08272973 -0.09311297 -0.0762476 -0.063015886 -0.13652779
-0.16766617 -0.059958346 -0.049500156 -0.08408853 -0.16703823 -0.06642545 -0.10157534 -0.09089742
-0.09119508 -0.08602294 -0.036261946 -0.019429022 -0.09234282 -0.035175655 -0.0683943 -0.090352625
-0.050354566 0.028989792 -0.13058236 -0.09465658 0.03683385 -0.09569237 -0.07771631 -0.034420677
-0.081747904 -0.13513175 -0.091979705 -0.030436797 -0.110347904 -0.09393253 -0.09928748 -0.11193622
-0.101420276 -0.07870125 -0.06341816 -0.15390743 -0.04724638 -0.02916413 -0.12491774 -0.103695184
-0.048297483 -0.03174573 0.0061297575 -0.11021924 -0.0089721745 -0.054539006 -0.048976917 -0.07267818
-0.14768638 -0.041799545 -0.10983712 0.070819296 -0.046935756 -0.0038711475 -0.10805618 -0.09337672
0.14216542 -0.08346733 -0.043258507 -0.09783633 -0.06530084 -0.08807882 0.056797426 -0.04544069
00000000: 6724 f33d 284e 23bd 98a0 12bd e8ea 783c
00000010: b97e ff3c 3625 2b3d dbd3 f5bd 4c41 2fbe
00000020: 9e0e f2bd 0cff 03be a860 f5bd e86a 413c
00000030: fa2e babd d5c8 5fbd eb85 73bd af07 cbbd
00000040: 7b72 c4ba f8c2 37bc d5d0 fbbc bb8a 94bd
00000050: aee6 02be 96af 90bd 6cfe 57bd c3df a4bd
00000060: 3b5f 26bd c253 59bd cd80 e9bd 9410 e9bd
00000070: 5d31 8cbd a5bb acbd 5d8c 363d 3564 20bd
00000080: 21b0 e5bd cb96 dfbd 743c 4dba 3f60 babd
00000090: f171 8b3d d2a1 edbd 3bb1 efbd fb14 89bd
000000a0: 9a86 bf3d 29cb 13be b457 a0bd 4136 b0bd
000000b0: 89ea 5b3c 9a2b ccbd ac36 c6bd e746 45be
000000c0: efd0 46be e493 dabd 7d49 10be 0ab8 a0bd
000000d0: ba29 42bd 8712 e4bd 5430 c2bd 3f79 57bd
000000e0: 0726 b1bd e42f 00be 6bac 06be 346e a9bd
000000f0: 03b2 bebd b427 9cbd 790e 81bd f1cd 0bbe
00000100: aeb0 2bbe e296 75bd adc0 4abd 9b36 acbd
00000110: 120c 2bbe 110a 88bd bb06 d0bd 6d28 babd
00000120: 7cc4 babd cc2c b0bd 6887 14bd 9d29 9fbc
00000130: 3b1e bdbd 5914 10bd 5012 8cbd cc0a b9bd
00000140: 9740 4ebd 007c ed3c 62b7 05be 4fdb c1bd
00000150: 17df 163d 5cfa c3bd bb29 9fbd b2fc 0cbd
00000160: 726b a7bd fa5f 0abe db5f bcbd 9756 f9bc
00000170: 15fe e1bd b35f c0bd 3c57 cbbd d13e e5bd
00000180: 6fb5 cfbd 1f2e a1bd 61e1 81bd e999 1dbe
00000190: 6c85 41bd 9de9 eebc dfd4 ffbd 245e d4bd
000001a0: 95d3 45bd d007 02bd 22dc c83b a0ba e1bd
000001b0: 0700 13bc 4b64 5fbd 059c 48bd 4cd8 94bd
000001c0: 193b 17be 0036 2bbd 49f2 e0bd b509 913d
000001d0: b53f 40bd 14b3 7dbb 8f4c ddbd 4b3c bfbd
000001e0: d093 113e ebf0 aabd d52f 31bd 6a5e c8bd
000001f0: 72bc 85bd ab62 b4bd 6ba4 683d 0420 3abd

n2.weight f4 [128]
1.2220287 1.0165533 1.0564172 1.0427977 1.2372189 1.2568121 1.028448 1.2215352
1.2532275 1.0681278 1.0029955 0.9735727 1.1057209 1.2177429 1.2562824 0.98772216
1.2212234 0.99593556 1.0748861 1.0542629 1.0139997 1.262099 1.0814844 0.9986639
0.98915124 1.0881248 1.0729753 1.0262238 1.239666 1.2424755 0.99587625 1.2307783
1.0193316 1.2034911 1.1783357 1.0226299 1.2572911 1.0498796 1.0524749 0.99176484
1.0735737 1.2195951 0.99754995 1.0098861 0.9954144 1.2991271 1.041355 1.2175614
1.0585349 1.2079657 1.006488 1.0485936 1.0698742 1.039593 0.97402316 1.2453749
0.95734096 1.0740894 1.1745181 1.2127379 1.0805095 1.0158455 1.0512737 1.0642319
1.2240422 1.0645285 1.0419204 1.0035547 0.9917416 0.97192276 1.2051857 1.060983
1.1967351 1.0456303 1.0178883 1.2809635 1.209304 1.2121887 1.1994399 1.0134432
1.2120918 1.1974181 1.0032824 1.0330722 1.0351418 1.0228702 1.017759 1.014367
0.99378026 0.9936904 1.2106371 0.9721894 1.2193593 1.0262089 1.1289252 0.99181557
1.2748331 1.2614952 1.2450253 0.99699956 1.0276139 1.0027087 1.2663236 0.99611974
0.9921968 0.9769609 1.2601036 1.098511 1.2745026 1.2189859 0.9990856 1.12112
1.0616407 1.1874717 1.1221983 1.2672621 1.2671089 1.2366679 1.205986 1.0695947
1.0646694 1.2426076 1.0116069 1.013043 1.1086848 1.2115107 1.0474817 1.0386466
00000000: 706b 9c3f 6b1e 823f ae38 873f 657a 853f
00000010: 305d 9e3f 38df a03f 2fa4 833f 445b 9c3f
00000020: c269 a03f 69b8 883f 2862 803f 0f3c 793f
00000030: 4388 8d3f 00df 9b3f ddcd a03f 5cdb 7c3f
00000040: 0c51 9c3f a2f5 7e3f de95 893f 16f2 863f
00000050: beca 813f 768c a13f 156e 8a3f 70a8 7f3f
00000060: 0439 7d3f ac47 8b3f 4157 893f 4d5b 833f
00000070: 60ad 9e3f 7009 9f3f bff1 7e3f 258a 9d3f
00000080: 7579 823f ff0b 9a3f b4d3 963f 89e5 823f
00000090: eaee a03f 7462 863f 7fb7 863f 4de4 7d3f
000000a0: dd6a 893f b11b 9c3f 6f5f 7f3f f343 813f
000000b0: 7ad3 7e3f cc49 a63f 1f4b 853f 0dd9 9b3f
000000c0: 127e 873f 9f9e 9a3f 99d4 803f 5138 863f
000000d0: a3f1 883f 6211 853f 9559 793f 7268 9f3f
000000e0: 4c14 753f c37b 893f 9c56 963f ff3a 9b3f
000000f0: 234e 8a3f 3a07 823f 2390 863f c038 883f
00000100: 6aad 9c3f 7842 883f a65d 853f 7b74 803f
00000110: c7e2 7d3f eecf 783f 8643 9a3f 4ace 873f
00000120: 9e2e 993f 37d7 853f 2a4a 823f 9df6 a33f
00000130: 79ca 9a3f 0029 9b3f 3f87 993f 82b8 813f
00000140: d325 9b3f ff44 993f 8f6b 803f b63b 843f
00000150: 877f 843f 69ed 823f ed45 823f c7d6 813f
00000160: 6268 7e3f 7e62 7e3f 28f6 9a3f 68e1 783f
00000170: f713 9c3f d05a 833f 9f80 903f a0e7 7d3f
00000180: bb2d a33f ad78 a13f fd5c 9f3f 5d3b 7f3f
00000190: da88 833f c258 803f e416 a23f b401 7f3f
000001a0: 9c00 7e3f 1c1a 7a3f 134b a13f 029c 8c3f
000001b0: e722 a33f bb07 9c3f 13c4 7f3f dc80 8f3f
000001c0: d8e3 873f 13ff 973f 32a4 8f3f a535 a23f
000001d0: a030 a23f 224b 9e3f c05d 9a3f 7be8 883f
000001e0: 1647 883f c40d 9f3f 567c 813f 65ab 813f
000001f0: 62e9 8d3f c812 9b3f e113 863f 5ff2 843f

n2.bias f4 [128]
0.014802679 -0.077652305 0.15938798 0.10787087 -0.016814474 0.03835026 0.20981713 0.017502354
0.008408613 0.18591723 -0.09199156 -0.11446063 0.19310187 -0.005549704 0.053333398 0.15948978
0.022182541 0.018129885 0.20784724 0.17248803 0.19429433 0.004525072 0.17340325 -0.13218117
0.13080958 -0.020635787 0.1887604 0.06855208 0.020505404 0.020334916 0.20047645 -0.0011385963
0.19849572 -0.0010723798 0.19692338 -0.06682106 0.0038455362 0.08152912 0.11900533 -0.13911402
0.12206449 0.009349884 -0.15035728 -0.09223642 -0.12743334 0.024285696 0.17100649 -0.039829656
0.21768084 0.02953109 -0.10945133 -0.0754623 0.198186 0.13038208 0.12643234 0.018433472
0.040046312 0.21675618 -0.010551449 0.011108566 0.19287413 0.2022691 0.18876886 0.17492299
0.011641174 0.18205579 0.1784997 0.19933818 -0.14571382 0.1731918 -0.015059129 0.19490528
-0.0006387187 0.17566498 0.15320837 0.021293629 -0.021349669 -0.0103014335 -0.028308557 -0.10838621
0.024112832 -0.010584188 0.14390187 0.12029821 0.14746039 0.12380115 0.15936784 0.19735451
-0.117852956 -0.16488075 0.0016713128 -0.04201969 0.027718503 0.21356824 0.19127785 0.105581276
0.0139227295 0.033434596 0.033472613 0.18868603 0.18907273 -0.16180035 0.010925314 0.09981129
0.15850791 0.072464146 0.007085627 0.21948318 0.012782486 0.023469277 -0.14616242 0.19532284
0.09921264 0.018662754 0.17238516 0.0049618254 0.042379357 0.024376202 -0.0004816835 0.19584101
0.20321381 0.008246029 -0.10391455 0.14050883 0.19156945 0.005498034 -0.02579266 0.1252503
00000000: f086 723c 2c08 9fbd 9a36 233e 67eb dc3d
00000010: 82be 89bc 2a15 1d3d 4dda 563e 1961 8f3c
00000020: 47c4 093c 1661 3e3e 1266 bcbd 566a eabd
00000030: 7fbc 453e 4bda b5bb 1f74 5a3d 4a51 233e
00000040: 29b8 b53c 2085 943c e8d5 543e b4a0 303e
00000050: 18f5 463e 0e47 943b 9f90 313e 805a 07be
00000060: f2f2 053e 620c a9bc 684a 413e 0865 8c3d
00000070: f3fa a73c 6995 a63c b349 4d3e f43c 95ba
00000080: 7642 4b3e 188f 8cba 48a6 493e 7bd9 88bd
00000090: 6405 7c3b bdf8 a63d 11b9 f33d e873 0ebe
000000a0: f3fc f93d 4230 193c 42f7 19be 73e6 bcbd
000000b0: e37d 02be ccf2 c63c 531c 2f3e 6c24 23bd
000000c0: bae7 5e3e 2feb f13c 0528 e0bd fa8b 9abd
000000d0: 45f1 4a3e e182 053e 7b77 013e cb01 973c
000000e0: 9a07 243d 55f5 5d3e fcdf 2cbc b400 363c
000000f0: cc80 453e a21f 4f3e a04c 413e 031f 333e
00000100: 9fba 3e3c d56c 3a3e a0c8 363e 4f1f 4c3e
00000110: 0136 15be 3159 313e 91ba 76bc 4095 473e
00000120: b06f 27ba 85e1 333e a8e2 1c3e fa6f ae3c
00000130: 80e5 aebc 58c7 28bc 59e7 e7bc 97f9 ddbd
00000140: 4688 c53c 4d69 2dbc 035b 133e e85e f63d
00000150: dbff 163e 758b fd3d 5331 233e 4d17 4a3e
00000160: e45c f1bd 80d6 28be f40f db3a d71c 2cbd
00000170: ea11 e33c a2b1 5a3e 57de 433e ff3a d83d
00000180: 291c 643c b7f2 083d 941a 093d e936 413e
00000190: 489c 413e feae 25be 1700 333c dd69 cc3d
000001a0: e64f 223e 1568 943d 8c2e e83b 33c0 603e
000001b0: a26d 513c a442 c03c 9aab 15be b602 483e
000001c0: ff2f cb3d a2e2 983c bc85 303e cf96 a23b
000001d0: fa95 2d3d 9ab0 c73c 778a fcb9 8c8a 483e
000001e0: 4817 503e 5a1a 073c 27d1 d4bd 8ce1 0f3e
000001f0: c82a 443e da28 b43b 214b d3bc 9d41 003e

fc.weight f4 [1, 128]
-0.22937188 -0.03111357 0.121922426 0.11593673 -0.2873577 -0.24253732 0.09329691 -0.2640103
-0.3084404 0.16667524 -0.025632218 -0.0016907655 0.16443144 -0.26284406 -0.24307612 0.017797677
-0.2798981 0.0099673765 0.17306064 0.121077135 0.081937246 -0.30418763 0.18302622 -0.04204863
0.032007813 -0.099766016 0.17715943 0.060691714 -0.2835315 -0.24495149 0.037169527 -0.29340422
0.093656 -0.25894973 0.25556406 -0.050946344 -0.28368255 0.09866561 0.10671786 -0.014562207
0.12963767 -0.2709692 -0.019779595 -0.031728346 -0.011606122 -0.28155106 0.079607174 -0.22428487
0.13202597 -0.25698072 -0.039093763 -0.09327569 0.1658802 0.06953764 0.023612399 -0.27673867
-0.0039838846 0.13673481 -0.23723786 -0.21661918 0.15843812 0.058063637 0.10283386 0.16554126
-0.25742114 0.14763086 0.089047454 0.079696976 -0.020405589 0.017707434 -0.268086 0.14590575
-0.26828516 0.10228411 0.07868302 -0.2641876 -0.22288954 -0.26611036 -0.21671799 -0.03256273
-0.22483295 -0.23264986 0.057026993 0.11634859 0.11627491 0.09888031 0.05853225 0.047185548
-0.017824616 -0.025326433 -0.24334657 0.0037637362 -0.28619373 0.070507035 0.15410383 0.04391944
-0.24247366 -0.2657256 -0.23733184 0.045156483 0.07008858 -0.024257079 -0.25003132 0.06582653
0.01912929 0.0141939 -0.2665692 0.1503773 -0.24804345 -0.23954123 -0.02047015 0.19449815
0.114313215 -0.22754379 0.1879241 -0.29577747 -0.26816434 -0.23437546 -0.26375264 0.15653096
0.15983516 -0.25154763 -0.029960351 0.09470005 0.20198902 -0.2676643 -0.06722791 0.120781094
00000000: 76e0 6abe e3e1 febc 77b2 f93d 3c70 ed3d
00000010: 8c20 93be b45b 78be 7312 bf3d 5c2c 87be
00000020: e6eb 9dbe eaac 2a3e a8fa d1bc ad9c ddba
00000030: b760 283e 7f93 86be f2e8 78be 6fcc 913c
00000040: ce4e 8fbe 354e 233c cf36 313e 4af7 f73d
00000050: b7ce a73d 7bbe 9bbe 3a6b 3b3e 2f3b 2cbd
00000060: a01a 033d 2052 ccbd 4869 353e e097 783d
00000070: 0a2b 91be 90d4 7abe 133f 183d 1439 96be
00000080: b8ce bf3d 0f95 84be 4bd9 823e 1dad 50bd
00000090: d73e 91be 3211 ca3d e58e da3d 5396 6ebc
000000a0: bdbf 043e 7abc 8abe d108 a2bc 95f5 01bd
000000b0: 9b27 3ebc 7627 90be 1609 a33d efaa 65be
000000c0: d131 073e fa92 83be c820 20bd 5307 bfbd
000000d0: 80dc 293e c069 8e3d ca6e c13c b1b0 8dbe
000000e0: 3f8b 82bb 3604 0c3e 7bee 72be 6bd1 5dbe
000000f0: 9a3d 223e 23d4 6d3d 8f9a d23d a683 293e
00000100: b4cc 83be 8b2c 173e 835e b63d 2b38 a33d
00000110: 9f29 a7bc 2e0f 913c 9142 89be 5168 153e
00000120: ac5c 89be 557a d13d 9024 a13d 9943 87be
00000130: 283d 64be 9e3f 88be 52eb 5dbe 7f60 05bd
00000140: 9c3a 66be c43b 6ebe 2395 693d 2b48 ee3d
00000150: 8a21 ee3d c381 ca3d 83bf 6f3d a245 413d
00000160: ee04 92bc 6179 cfbc d82f 79be 04a9 763b
00000170: fc87 92be fe65 903d 65cd 1d3e dfe4 333d
00000180: 044b 78be 300d 88be 1e07 73be 01f6 383d
00000190: 9a8a 8f3d c8b6 c6bc 1b04 80be 0fd0 863d
000001a0: 07b5 9c3c 888d 683c c27b 88be 82fc 193e
000001b0: 1aff 7dbe 4c4a 75be 04b1 a7bc 862a 473e
000001c0: 0c1d ea3d 3d01 69be 2d6f 403e 2570 97be
000001d0: d64c 89be 1f00 70be 960a 87be a749 203e
000001e0: d4ab 233e daca 80be 696f f5bc 1af2 c13d
000001f0: 36d6 4e3e 4c0b 89be c9ae 89bd 145c f73d
