refined05_best.pth (torch, 887178 bytes, 35 tensors)

input_norm.weight f4 [7]
0	0x3f80cf17	1.0063199
1	0x3f6f691b	0.93519753
2	0x3f752b32	0.95769036
3	0x3f82f7f1	1.0231916
4	0x3f79ed8a	0.9762808
5	0x3f815271	1.0103284
6	0x3f8235f7	1.0172719

input_norm.bias f4 [7]
0	0x3c4c6ab0	0.012476608
1	0xbc94d09a	-0.018165875
2	0x3c00e949	0.0078681195
3	0x3cf3a99a	0.029743958
4	0xbc281b19	-0.010260367
5	0xbbcecd53	-0.0063110976
6	0xbbc9d3b6	-0.006159271

layers.0.embed.weight f4 [128, 7]
0	0xbe714fbc	-0.23565573
1	0xbe3d5b51	-0.18491866
2	0x3c5cd450	0.013478354
3	0x3e9ea076	0.30981797
4	0x3c7fd111	0.01561381
5	0xbd2dcb20	-0.042430043
6	0xbe5acfb8	-0.21368301
7	0xbe1c6827	-0.15274106
8	0xbe9c3a25	-0.3051311
9	0x3d9d060b	0.07667168
10	0x3d236f95	0.039901335
11	0x3bdeb684	0.00679666
12	0x3db5fa6d	0.088856556
13	0xbb274437	-0.0025522837
14	0x3e9afc7d	0.30270758
15	0xbe8589ec	-0.2608179
16	0xbe83e832	-0.25763088
17	0x3dc4463a	0.09583707
18	0x3d047f70	0.032348096
19	0x3d6f4ba8	0.05842176
20	0x3e5104bd	0.20411964
21	0xbd9a1926	-0.07524328
22	0xbccd3d6b	-0.0250537
23	0x3e7ccce3	0.24687533
24	0x3e313170	0.17304015
25	0x3d533ae5	0.051569838
26	0x3d8ef857	0.06980961
27	0x3e8ae785	0.2712976
28	0x3e02a392	0.1275771
29	0xbe8692c3	-0.26283845
30	0xbe7b72e0	-0.2455554
31	0x3eaa8272	0.33302647
32	0x3e350a1d	0.17679639
33	0xbe08fbba	-0.13377276
34	0xbd80aa48	-0.062824786
35	0xbda0492b	-0.07826456
36	0xbe9a8504	-0.30179608
37	0xbc177c57	-0.0092459535
38	0x3e3e86c7	0.18606101
39	0xbe93ba11	-0.28852895
40	0x3e840c67	0.25790712
41	0x3dd4ad94	0.1038467
42	0x3e2759ae	0.16342804
43	0x3e45ada0	0.19304514
44	0x3dd14b14	0.10219398
45	0x3bf83cf1	0.007575624
46	0x3e960478	0.29300284
47	0x3d9c6e33	0.07638206
48	0xbe9f9bec	-0.31173646
49	0x3e79f4df	0.24409817
50	0x3dbe1a7e	0.09282397
51	0x3deeebf8	0.11666101
52	0x3e4da104	0.20080954
53	0x3e5ff6a5	0.21871431
54	0xbe7c5818	-0.2464298
55	0x3e7d5828	0.2474066
56	0x3e354c39	0.17704858
57	0x3eba316a	0.36365825
58	0xbe377198	-0.17914426
59	0x3e537d4f	0.2065327
60	0xbdbfbc02	-0.093620315
61	0xbebcddb6	-0.36887902
62	0x3ded6d94	0.11593166
63	0x3eb54ea4	0.3541156
64	0x3e68cb88	0.22733891
65	0x3eb6f871	0.3573642
66	0x3e2e6b04	0.1703301
67	0x3db37ce1	0.08764053
68	0x3e63cccb	0.22246091
69	0x3e845b30	0.2585082
70	0x3ea33847	0.31878874
71	0xbe183229	-0.14862885
72	0xbe7ec149	-0.2487842
73	0xbde1656e	-0.11005674
74	0xbcc6a724	-0.02424962
75	0x3e94f74d	0.29094926
76	0x3e6fec6a	0.23430029
77	0x3d9723cf	0.07379877
78	0x3ce16c3a	0.027517427
79	0xbdd6face	-0.10497056
80	0x3e94b14c	0.29041517
81	0xbea406ab	-0.32036337
82	0xbe3eba83	-0.18625836
83	0x3d4c58ef	0.0498895
84	0x3e2cfdf5	0.16893752
85	0xbe68d398	-0.22736967
86	0xbdb42deb	-0.08797821
87	0xbeb45380	-0.35219955
88	0x3e132e0b	0.14373033
89	0xbd734fbd	-0.059402216
90	0x3c93f4a4	0.01806099
91	0x3eb344c8	0.35013413
92	0xbe3f52e1	-0.1868396
93	0x3e836b80	0.25667953
94	0x3e26d5d9	0.16292514
95	0xbc251514	-0.010075826
96	0xbec0ba4a	-0.37642127
97	0x3ccf000b	0.025268575
98	0x3e7ec558	0.24879968
99	0x3dbd9cc3	0.092584155
100	0xbd59e764	-0.053199187
101	0xbe5da5de	-0.21645305
102	0xbe90eaa1	-0.28304008
103	0xbd94f251	-0.07272781
104	0x3ea5f81e	0.3241586
105	0xbce8fe34	-0.028441526
106	0xbe3161e7	-0.17322503
107	0x3c4f68b8	0.012659244
108	0x3dd18748	0.10230881
109	0xbe03e47e	-0.12880132
110	0xbd755f12	-0.05990512
111	0xbddbe3db	-0.10736819
112	0x3e3830d8	0.17987382
113	0x3e45ed77	0.19328867
114	0xbd613dba	-0.054990508
115	0xbe64c54c	-0.22340888
116	0x3df69a74	0.12041178
117	0x3db8b2e5	0.090184964
118	0x3d3a55c3	0.045491945
119	0xbe94c79c	-0.2905854
120	0x3ea9f7de	0.3319692
121	0xbeb3bb50	-0.35103846
122	0xbe5304d2	-0.20607308
123	0xbc8a44b8	-0.01687847
124	0x3e9b3b63	0.30318746
125	0xbe142997	-0.1446899
126	0xbe844bd9	-0.25839117
127	0x3e8270a2	0.25476557
128	0x3ebb047f	0.36526868
129	0xbe679ebf	-0.2261915
130	0x3e4d4619	0.20046271
131	0xbe593c9a	-0.21214524
132	0xbe4ea619	-0.20180549
133	0xbe0bb211	-0.13642146
134	0xbd676cf5	-0.056500394
135	0x3d330da3	0.043714177
136	0xbe769523	-0.24080329
137	0xbe6d8a1b	-0.23197214
138	0xbe34cd5b	-0.17656462
139	0x3e85a6ca	0.26103812
140	0xbe8aa080	-0.27075577
141	0xbdb03114	-0.08603111
142	0xbe930b56	-0.28719586
143	0x3dfd72e7	0.123754315
144	0x3dcf19b7	0.101123266
145	0x3d5bffe8	0.053710848
146	0x3d905b3c	0.070486516
147	0x3ec1e99f	0.3787355
148	0xbea68e36	-0.32530373
149	0x3d02bfea	0.031921305
150	0xbdea47e4	-0.11439493
151	0xbd76cea9	-0.06025568
152	0xbeab66da	-0.33476907
153	0x3dcc0170	0.09961212
154	0x3e33505c	0.17511123
155	0x3dd6a321	0.10480333
156	0x3e6628eb	0.22476546
157	0x3e966891	0.29376653
158	0xbeb0531c	-0.34438407
159	0xbe2baa31	-0.16764142
160	0xbdd35555	-0.1031901
161	0x3ec0b120	0.37635136
162	0x3e9b7972	0.30366093
163	0xbeb5d5d2	-0.35514694
164	0xbe5c31ad	-0.21503325
165	0x3d86f7a6	0.06590204
166	0xbeae538c	-0.34048116
167	0xbea56e9b	-0.32310948
168	0xbe9f32c8	-0.3109343
169	0xbe9fb6a3	-0.31194028
170	0x3d264ef2	0.040602632
171	0x3e96c399	0.29446104
172	0x3dd3f570	0.10349548
173	0x3e2b145d	0.16706987
174	0x3e72080e	0.23635885
175	0xbeb86603	-0.3601533
176	0x3e8ae132	0.27124935
177	0x3ea800e3	0.32813177
178	0x3d50d313	0.050982546
179	0xbeb65f6e	-0.35619682
180	0xbe54777d	-0.20748706
181	0xbe36e3e8	-0.17860377
182	0x3db81f04	0.08990291
183	0xbe212998	-0.15738523
184	0xbe83ecdf	-0.25766656
185	0xbe390029	-0.18066467
186	0xbea6b898	-0.3256271
187	0xbe89e515	-0.26932588
188	0xbeac7933	-0.33686218
189	0xbdf939bf	-0.12169217
190	0x3eae0108	0.33985162
191	0xbc94a8f9	-0.018146979
192	0x3ea8f523	0.32999524
193	0xbe0852b5	-0.133128
194	0x3de24bcc	0.11049613
195	0x3e267229	0.16254486
196	0x3eb330d5	0.34998193
197	0xbdd4dc5f	-0.10393595
198	0xbd73cf4d	-0.05952387
199	0xbe91ada4	-0.2845279
200	0xbe1428c7	-0.1446868
201	0xbeacd5e4	-0.33756936
202	0x3da71b4c	0.08159503
203	0x3b3d7d4d	0.0028913796
204	0x3e92bdc8	0.28660417
205	0xbd9ce3d4	-0.07660642
206	0xbd0cb8b1	-0.034355823
207	0x3e38a2e3	0.18030886
208	0xbe5b482c	-0.2141425
209	0x3de1692c	0.11006388
210	0xbeb1552c	-0.34635293
211	0x3d8602bd	0.06543491
212	0xbe9b487b	-0.30328736
213	0xbe2a1299	-0.16608657
214	0xbe719884	-0.23593336
215	0x3e84ca8e	0.25935787
216	0x3e4b6a44	0.19864756
217	0xbe673115	-0.22577317
218	0xbd0fb83e	-0.035087816
219	0x3e9ad921	0.3024378
220	0xbe2bb84a	-0.1676952
221	0x3da6d798	0.0814659
222	0x3e528b5f	0.20560978
223	0x3e5ba6a3	0.21450286
224	0xbe5af36d	-0.21381922
225	0xbc7cd6d0	-0.015432075
226	0xbea42d08	-0.32065606
227	0xbe548f78	-0.20757854
228	0xbe746b2d	-0.2386901
229	0xbe379226	-0.17926845
230	0xbeb85870	-0.36004972
231	0xbec8d808	-0.3922732
232	0x3e5642db	0.20923941
233	0xbe77e2f9	-0.24207677
234	0xbe048fc5	-0.12945469
235	0x3da2e1ed	0.07953248
236	0x3deb2d8f	0.11483299
237	0xbeac175d	-0.33611575
238	0xbea33c89	-0.31882122
239	0xbe2e2022	-0.17004445
240	0xbeb563e7	-0.35427782
241	0xbebafafb	-0.36519608
242	0xbe8be3f3	-0.2732235
243	0x3e8c4cc5	0.2740232
244	0x3e27c662	0.16384271
245	0x3e633af1	0.22190453
246	0x3d8f6f70	0.07003677
247	0xbcf02d07	-0.029318346
248	0x3e594104	0.21216208
249	0xbdb15ab4	-0.086598784
250	0x3e4e6487	0.20155536
251	0x3dd9fa96	0.106434986
252	0xbe448af0	-0.19193625
253	0xbdfa4eb2	-0.12222041
254	0x3e45c1de	0.19312236
255	0xbdba1ce3	-0.09087541

layers.0.embed.bias f4 [128]
0	0x3bede077	0.0072594243
1	0x3e86c536	0.26322335
2	0xbe2c7b62	-0.16843942
3	0xbde04c18	-0.10952014
4	0x3d73914a	0.05946473
5	0x3e950167	0.29102632
6	0xbe926afb	-0.28597245
7	0xbe1be259	-0.15223064
8	0xbdff3bd0	-0.1246258
9	0xbe28194c	-0.164159
10	0x3e72316f	0.2365167
11	0x3cb3dc71	0.0219557
12	0x3e0e8a09	0.13919844
13	0x3ecd0668	0.4004395
14	0x3e140287	0.14454089
15	0x3e9609a3	0.29304227
16	0xbe973fec	-0.29540956
17	0xbeba35ac	-0.36369073
18	0xbe1410b0	-0.14459491
19	0xbe90b06e	-0.28259605
20	0x3e454834	0.19265825
21	0x3ce8a127	0.028397156
22	0xbd562281	-0.052279
23	0xbe152e95	-0.14568551
24	0x3ea8adc5	0.32945076
25	0xbeaac811	-0.33355764
26	0x3ec53cdc	0.38522995
27	0x3e1f44ca	0.15553585
28	0x3eb7336a	0.35781413
29	0x3e10e678	0.14150417
30	0x3e4875d2	0.19576195
31	0x3dd7a921	0.10530306
32	0x3d96d77a	0.07365318
33	0xbe0d5606	-0.13802347
34	0xbeaeaffa	-0.34118634
35	0x3e1c315b	0.15253203
36	0xbe1452bb	-0.14484684
37	0xbea025ec	-0.31278932
38	0x3e45af93	0.19305257
39	0xbdc797a0	-0.09745717
40	0xbec01aad	-0.37520352
41	0x3e660807	0.22464
42	0x3d458560	0.0482229
43	0xbe48bd2e	-0.19603416
44	0xbe835c40	-0.2565632
45	0xbebfcda7	-0.37461588
46	0x3e8bec7d	0.27328864
47	0xbdad76db	-0.084699355
48	0x3e7e2ef7	0.24822603
49	0xbe918328	-0.28420377
50	0xbe821607	-0.2540743
51	0xbd95f4c7	-0.07322078
52	0xbd916f65	-0.07101325
53	0x3eafee4d	0.34361497
54	0x3e1a64b0	0.15077472
55	0x3d030117	0.03198346
56	0xbeac13ca	-0.33608848
57	0xbe46bd98	-0.19408262
58	0x3e6f5f76	0.23376259
59	0xbea12993	-0.3147703
60	0xbe8e9a16	-0.27851933
61	0xbce8b5eb	-0.028407058
62	0x3d83c300	0.06433678
63	0x3dd30743	0.103041194
64	0x3d8b22e0	0.06793761
65	0x3ebf7470	0.37393522
66	0xbe98e2a1	-0.29860404
67	0x3e386f79	0.18011273
68	0x3e31816d	0.17334528
69	0x3d5bf76e	0.053702764
70	0xbe11a4f3	-0.1422308
71	0x3de08962	0.10963704
72	0xbe9cc42d	-0.3061842
73	0x3e9e4031	0.3090835
74	0xbe7a9f8b	-0.24474923
75	0xbe4d91d4	-0.2007516
76	0x3eab69d9	0.33479193
77	0x3d0cceb2	0.034376808
78	0x3e8cc851	0.2749658
79	0x3c1cc80e	0.009569181
80	0xbea186fe	-0.31548303
81	0x3b0d9ee9	0.002160961
82	0x3e9bb94a	0.30414802
83	0x3dd260aa	0.102723435
84	0x3e9ba5bb	0.3039988
85	0x3d0803a1	0.033206586
86	0x3cada48f	0.021196632
87	0xbd45383f	-0.048149344
88	0x3e775b35	0.24155886
89	0xbc91eec7	-0.017814053
90	0xbe30b014	-0.17254668
91	0x3e1998cf	0.14999698
92	0xbe178d8b	-0.14800088
93	0xbdf59c2d	-0.11992679
94	0x3e81c6c9	0.25346974
95	0x3d2d8304	0.042361274
96	0xbdd9d2ca	-0.10635908
97	0xbea21242	-0.31654555
98	0x3ec1cac5	0.37850013
99	0xbdb7e8ce	-0.08979951
100	0xbbdec96d	-0.006798914
101	0xbe2f54f5	-0.17122252
102	0xbe4f34b7	-0.20234953
103	0x3e7ec8f0	0.24881339
104	0x3e09951f	0.13435791
105	0xbd87bac9	-0.06627423
106	0xbd9c572a	-0.07633813
107	0x3de1dda4	0.11028603
108	0x3d3ba083	0.045807373
109	0xbd8e5f68	-0.06951791
110	0x3ba0b694	0.0049045775
111	0x3d9f9956	0.077929184
112	0xbe59d513	-0.21272688
113	0xbeace33e	-0.33767122
114	0xbd99397f	-0.0748167
115	0xbcbe9d17	-0.023268266
116	0xbc78a0c9	-0.015175053
117	0x3e3563bf	0.17713831
118	0xbea71410	-0.32632494
119	0x3ea76c7c	0.32699955
120	0x3e8e015b	0.2773541
121	0xbeb5e1c2	-0.35523802
122	0xbe6010bd	-0.21881385
123	0x3e2d9dcc	0.16954726
124	0x3df7d136	0.12100451
125	0xbe2c04fb	-0.16798775
126	0xbe21cb5e	-0.15800235
127	0xbe85ca33	-0.26130828

layers.0.W_att.weight f4 [128, 128]
0	0xbd893078	-0.06698698
1	0xbda08081	-0.0783701
2	0xbd7ffbf1	-0.06249613
3	0xbd0b8326	-0.03406062
4	0x3d74c851	0.05976135
5	0xbd21fd49	-0.039548192
6	0x3d24d0b3	0.040238094
7	0x3d7c256e	0.061559133
8	0x3cfaebdc	0.030630045
9	0xbd0057ef	-0.03133386
10	0xbd9df2e0	-0.0771234
11	0x3b687601	0.0035470726
12	0xbd8d4008	-0.068969786
13	0x3d131bcc	0.03591518
14	0xbb6708af	-0.0035252979
15	0xbcda1b03	-0.026624208
16	0xbd761aef	-0.06008428
17	0x3d5be47c	0.053684697
18	0x3d588d46	0.052869104
19	0xbbe2406d	-0.006904653
20	0x3d94c85e	0.072647795
21	0x3d31cb0e	0.04340654
22	0x3d2eed6e	0.0427069
23	0x3cc92354	0.024552979
24	0x3d80a651	0.06281722
25	0x3daab4b4	0.08335248
26	0x3b435ce6	0.002981001
27	0xbd174daf	-0.03693932
28	0x3d6b3773	0.057425927
29	0x3c95b1f6	0.018273335
30	0x3d9d6163	0.07684591
31	0x3abf49bc	0.0014594118
32	0xbd51a3e6	-0.051181696
33	0xbd021289	-0.031755958
34	0x3dad9a6e	0.08476721
35	0xbce7b0db	-0.028282573
36	0x3cd21715	0.025645772
37	0x3d1dbb65	0.03850879
38	0x3cc2652f	0.023729889
39	0xbdab535e	-0.083655104
40	0xbccf9d9d	-0.02534371
41	0xbd9af54c	-0.07566318
42	0x3d9b8f54	0.07595697
43	0x3d8ba584	0.06818679
44	0xbc629ff9	-0.013832086
45	0x3d2986a9	0.041388188
46	0x3c376205	0.011192803
47	0x3d5609f0	0.05225557
48	0xbd62acbd	-0.055340517
49	0x3dc292f9	0.09500689
50	0x3caf7837	0.021419628
51	0x3d7dde4d	0.06197958
52	0xbd181d84	-0.037137523
53	0x3d3ed3dd	0.046588767
54	0xbc9f672a	-0.019458372
55	0x3d5a4a89	0.05329374
56	0xbd2f0135	-0.04272576
57	0x3d8006a7	0.06251269
58	0x3d00bbb3	0.031429004
59	0x3be921fd	0.0071146474
60	0xbd78728c	-0.060656115
61	0xbd560032	-0.05224628
62	0xbcc0700c	-0.023490928
63	0xbd1aa044	-0.037750497
64	0x3d35f3fc	0.044422135
65	0x3d162419	0.03665552
66	0xbbf30862	-0.007416771
67	0x3cd396ac	0.025828682
68	0x3c9f7179	0.019463288
69	0x3d17a55e	0.03702294
70	0x3dae7b34	0.08519593
71	0x3cb71b51	0.022351893
72	0x3da4dc4e	0.08049832
73	0xbd6299a7	-0.055322316
74	0xbd8eec46	-0.06978659
75	0x3c7d67b4	0.015466619
76	0x3d8e56cd	0.0695015
77	0xbba91d75	-0.0051609823
78	0xbd8d32e8	-0.06894475
79	0x3c89e1b8	0.016831264
80	0x3d936b4a	0.07198198
81	0x3d2dd2b8	0.042437285
82	0xbd813df8	-0.06310648
83	0xbd231d18	-0.039822668
84	0x3cb33ae9	0.021878676
85	0x3dc2fb01	0.095205314
86	0xbd73ae2c	-0.059492275
87	0xbdb337e7	-0.08750897
88	0xbd726222	-0.059175618
89	0xbb51a296	-0.0031987778
90	0xbd3ada86	-0.045618556
91	0xbd8ca67c	-0.06867692
92	0xbd7abc0d	-0.061214495
93	0xbd125f0f	-0.035735186
94	0xbdc526ca	-0.09626539
95	0x3d1a47e4	0.037666216
96	0x3d67bf2f	0.05657881
97	0xbd699111	-0.05702311
98	0x3bce3b01	0.006293655
99	0xbdc9aae6	-0.098470494
100	0x3d481da5	0.048856396
101	0xbd5dad63	-0.054120433
102	0xbcd870d7	-0.026420994
103	0xbcf36bb4	-0.029714443
104	0xbc0bbd59	-0.008529031
105	0x3d158774	0.03650613
106	0xbd1acc04	-0.03779222
107	0x3c241cd8	0.0100166425
108	0xbd5c1fb7	-0.053741183
109	0xbce653a8	-0.028116062
110	0x3daa34eb	0.083108746
111	0xbd891eef	-0.06695353
112	0x3cf5eefa	0.03002118
113	0x3cd9ba90	0.026578218
114	0xbd87d0c1	-0.066316135
115	0x3d8ba9f6	0.06819527
116	0x3d26639b	0.040622335
117	0xbd123169	-0.035691652
118	0xbd22e16a	-0.039765753
119	0xbc1668b2	-0.009180235
120	0xbc938e67	-0.018012239
121	0x3d5de0dd	0.054169524
122	0x3da86321	0.08222032
123	0x3cc85e8f	0.024459152
124	0x3d97b1f5	0.074069895
125	0x3c3f4e2d	0.011676353
126	0xbd4e0c16	-0.050304495
127	0x3c736715	0.01485612
128	0x3d3e2492	0.046421595
129	0x3d4a33c4	0.049365774
130	0x3ce0667d	0.02739262
131	0xbd780fe1	-0.06056202
132	0x3a06609e	0.00051260914
133	0x3d63cd41	0.055615667
134	0xbcf893f5	-0.030343989
135	0x3c9a9716	0.018870872
136	0xbd476dd2	-0.048688717
137	0x3d9359cf	0.07194864
138	0x3b8723a9	0.004124124
139	0x3bb56d51	0.005536713
140	0x3cb95428	0.022623137
141	0x3bdfcee9	0.0068300855
142	0xbc8835b8	-0.016627178
143	0x3da4be9e	0.0804417
144	0xbd44953a	-0.047993876
145	0x3dc068a3	0.09394958
146	0x3db322f4	0.08746901
147	0xbd163ce2	-0.036679156
148	0x3d8a7b95	0.06761853
149	0xbd091049	-0.033462796
150	0x3c4a9972	0.012365686
151	0x3d9da99a	0.076983646
152	0x3d79497c	0.060861096
153	0x3d40ee76	0.047102414
154	0x3cb53a9b	0.022122672
155	0xbd33878a	-0.043830432
156	0x3d89acb8	0.067223966
157	0xbd088527	-0.03333011
158	0x3b3edf7a	0.0029124902
159	0xbc131419	-0.00897696
160	0x3d6a9218	0.057268232
161	0x3d830a1d	0.06398413
162	0xbd8ca7cd	-0.06867943
163	0x3d32e7e0	0.043678164
164	0xbd9369f8	-0.07197946
165	0xbc1f1cfb	-0.009711499
166	0xbcb5dba2	-0.022199456
167	0x3d539a8c	0.05166106
168	0x3d892987	0.06697374
169	0x3d7d8548	0.061894685
170	0xbdca851b	-0.09888669
171	0x3d0cc615	0.034368593
172	0xbcc8dc7a	-0.024519194
173	0xbd4a3c71	-0.049374048
174	0xbc88c8d5	-0.016697327
175	0x3b4591da	0.0030146749
176	0x3c859b6e	0.016309466
177	0x3da9bda1	0.08288122
178	0x3d31ecd8	0.043438762
179	0xbda4522c	-0.080234855
180	0x3d1270c6	0.03575208
181	0x3d806205	0.06268696
182	0xbd9779e9	-0.073962994
183	0xbc5143eb	-0.012772541
184	0xbcf35b7c	-0.02970671
185	0xbc8d4d6e	-0.017248835
186	0xbd94723d	-0.07248352
187	0x3d3ee9e9	0.046609793
188	0xbca7ebcf	-0.020498184
189	0xbd806247	-0.06268745
190	0xbd108c87	-0.035290267
191	0xbdafd258	-0.08585042
192	0x3d4365a2	0.047704346
193	0x3ca2a95d	0.01985615
194	0x3ca9728c	0.020684503
195	0x3d08a0e5	0.033356566
196	0x3cadf1c6	0.02123345
197	0x3d0e8f60	0.0348047
198	0xbd8401f8	-0.06445688
199	0xbc87475a	-0.016513515
200	0xbc19a4f1	-0.009377704
201	0xbd0cc286	-0.0343652
202	0x3c071d4f	0.008246734
203	0xbcb0a469	-0.021562772
204	0x3cf197ac	0.029491268
205	0xbd900705	-0.07032589
206	0x3b8ff3d8	0.004393082
207	0x3d2b95dd	0.041890968
208	0xbcb99dc1	-0.02265823
209	0x3d9c2ffc	0.0762634
210	0xbc7d52ad	-0.015461606
211	0x38b224b5	8.4945386e-05
212	0x3d26d129	0.040726814
213	0x3d4cac5e	0.04996907
214	0x3d9f3a0b	0.07774743
215	0xbce5c8bc	-0.02804982
216	0xbda719b0	-0.081591964
217	0xbd875b19	-0.066091724
218	0x3d1866df	0.03720748
219	0xbc114ff3	-0.008869159
220	0x3cdea129	0.027176457
221	0x3d81d058	0.063385665
222	0x3d885882	0.066575065
223	0x3d8e312d	0.06942973
224	0x3d7e623b	0.0621054
225	0xbd984aa2	-0.0743611
226	0x3d26d13a	0.040726878
227	0x3d3a84b4	0.04553671
228	0xbcb67023	-0.022270268
229	0x3c9f679c	0.019458584
230	0x3d863adf	0.065541975
231	0xbcf5487e	-0.029941794
232	0x3d6ada41	0.05733705
233	0xbd25ce7c	-0.040480122
234	0xbca4d963	-0.02012319
235	0xbcfd640b	-0.030931493
236	0xbb039ef5	-0.002008376
237	0xbd9502e1	-0.0727594
238	0xbc6a75ca	-0.01431031
239	0x3d626b72	0.05527825
240	0x3d54051f	0.051762696
241	0xbd9e2446	-0.07721762
242	0xbd067adb	-0.032832008
243	0xbdaf4c23	-0.08559444
244	0xbd66b630	-0.05632609
245	0x3d0ed84f	0.034874257
246	0xbd929844	-0.071579486
247	0x3d9f2856	0.07771365
248	0x3c40cbb6	0.0117673185
249	0xbc64efce	-0.0139731895
250	0xbdaa2f67	-0.083098225
251	0x3d08ebc7	0.03342798
252	0x3d332ed1	0.04374582
253	0x3c8ec40f	0.017427472
254	0xbd866f76	-0.06564228
255	0xbb35cd9e	-0.0027740966

layers.0.phi_att.weight f4 [128, 128]
0	0xbcab54ae	-0.020914402
1	0x3c893718	0.016749904
2	0x3b6bd0e3	0.003598266
3	0xbd09d55c	-0.03365074
4	0xbc13f0c9	-0.009029576
5	0xbd7f3497	-0.062306013
6	0xbd8a874d	-0.06764088
7	0xbab1bc3a	-0.0013560124
8	0xbd9fce8c	-0.078030676
9	0x3d8329af	0.06404435
10	0xbd44be08	-0.04803279
11	0x3d905920	0.07048249
12	0xbd630753	-0.055426907
13	0x3cefb8c2	0.029262904
14	0xbd8d89d8	-0.06911057
15	0xbda1ebed	-0.079063274
16	0x3d44b3ac	0.04802291
17	0x3caffd24	0.021483012
18	0xbd8707e9	-0.065933056
19	0x3d550ef2	0.052016206
20	0x3da96602	0.082714096
21	0x3ba9c58e	0.005181021
22	0x3d3f3f8d	0.046691466
23	0xbdc0e0b2	-0.09417857
24	0x3d2b75fd	0.04186057
25	0x3d9893ae	0.07450043
26	0x3cfb8bb2	0.03070626
27	0x3d3aafa0	0.045577645
28	0xbdb965d5	-0.09052626
29	0x3cb9d73e	0.022685643
30	0xbcbe8455	-0.02325646
31	0x3c4fc1cc	0.012680482
32	0xbd4cc0ce	-0.04998856
33	0xbd3e0b3f	-0.046397444
34	0x3dc6d2ab	0.097081505
35	0xbd697592	-0.05699689
36	0x3dac212c	0.084047645
37	0xbd51ecaf	-0.05125111
38	0xbd84ad50	-0.06478369
39	0xbd5f995a	-0.054589607
40	0x3b1a18b2	0.0023513255
41	0xbc77a5a5	-0.015115176
42	0x3d42c744	0.047553316
43	0x3d9f11de	0.0776708
44	0xbcd6d305	-0.026223669
45	0xbc275512	-0.010213153
46	0xbd93eff5	-0.072235025
47	0xbc9c983c	-0.01911556
48	0xbc8bc887	-0.017063392
49	0xbd38d3e2	-0.045123942
50	0xbd5a4f58	-0.053298324
51	0x3da1e689	0.07905299
52	0x3c07d799	0.008291149
53	0x3c812ff7	0.015769942
54	0xbd6109e3	-0.05494107
55	0xbdab9413	-0.08377852
56	0x3daf53b8	0.0856089
57	0x3c064615	0.00819542
58	0xbaac6f36	-0.0013155702
59	0xbd7cc5d9	-0.06171212
60	0xbd7ccfad	-0.061721493
61	0x3d123335	0.035693366
62	0xbd8fe885	-0.070267715
63	0xbd95348c	-0.07285413
64	0xbd727099	-0.059189413
65	0x3b8fdf2a	0.004390617
66	0xbb288e83	-0.002571971
67	0x3d503758	0.05083403
68	0xbdc04f1e	-0.093900904
69	0x3d7b4d3c	0.061352953
70	0x3d9438b5	0.072373785
71	0xbd1ff802	-0.039054878
72	0xbdc0872c	-0.09400782
73	0x3d33c012	0.043884344
74	0x3cff667a	0.031176794
75	0xbdc2e4fc	-0.095163316
76	0xbaa84dc8	-0.0012840563
77	0xbd1a1c23	-0.03762449
78	0xbb720c52	-0.0036933613
79	0xbd5b5590	-0.053548396
80	0x3c8203e8	0.015871003
81	0x3dc22290	0.094792485
82	0xbdd38f72	-0.103300944
83	0xbd1030a6	-0.035202645
84	0xbda617e4	-0.081100255
85	0xbd119e18	-0.03555116
86	0x3d71f285	0.059069175
87	0xbd3c04ad	-0.045902897
88	0xbcc91a98	-0.024548814
89	0x3d55c5c9	0.052190576
90	0xbd15dc14	-0.036586836
91	0xbd23977e	-0.039939396
92	0xbda49ee0	-0.080381155
93	0xbbb57426	-0.0055375276
94	0x3d802421	0.06256891
95	0xbdd3a414	-0.1033403
96	0xbd71c85d	-0.059028972
97	0xbd331889	-0.04372457
98	0xbd2cef69	-0.042220507
99	0xbd4592a0	-0.048235536
100	0xbd0c4daf	-0.034253772
101	0x3d06b55a	0.032887794
102	0x3db6a2c1	0.089177616
103	0xbde72a09	-0.112873144
104	0xbdd1ecbf	-0.10250234
105	0xbbd59741	-0.006518275
106	0x3dcede6e	0.10101019
107	0xbbe324d7	-0.006931882
108	0xbd61d355	-0.055133183
109	0xbd72630b	-0.059176486
110	0x3d7a99af	0.06118172
111	0x3d94710f	0.07248127
112	0x3cc714a4	0.024301834
113	0xbd9bfafa	-0.07616229
114	0x3db0c42f	0.08631169
115	0xbcd3eedb	-0.025870731
116	0xbd81ec2f	-0.063438766
117	0x3d17b89c	0.03704129
118	0x3daada07	0.08342367
119	0xbd9a2366	-0.07526283
120	0xbceb70c2	-0.02874029
121	0x3c10ffeb	0.008850078
122	0xbdaf1c85	-0.085503615
123	0xbd80d665	-0.062908925
124	0xbd882159	-0.066469856
125	0xbd837a1a	-0.064197734
126	0xbd179f65	-0.037017245
127	0xbdc2c7d8	-0.095107734
128	0x3d631c87	0.055447128
129	0x3d490ae1	0.04908264
130	0x3d7100a8	0.058838516
131	0xbdbda5bf	-0.09260129
132	0x3d23f1c1	0.040025476
133	0x3d29398a	0.04131464
134	0x3daa9761	0.083296545
135	0x3d8ef519	0.069803424
136	0x3d839b12	0.06426062
137	0x3d2e9b40	0.042628527
138	0xbc9624cb	-0.018328091
139	0x3d97fd50	0.074213624
140	0x3dbf7e3d	0.0935025
141	0xbd806b97	-0.06270521
142	0x3daa2acd	0.08308945
143	0x3d051aa2	0.032496102
144	0xbd20d92e	-0.03926962
145	0xbd65a1e2	-0.056062587
146	0x3bb81f03	0.0056189313
147	0x3d8563cc	0.06513175
148	0x3d512c11	0.051067416
149	0xbd324fc4	-0.0435331
150	0xbd47d2e7	-0.048785117
151	0xbd50b78c	-0.050956294
152	0xbdbe979d	-0.09306262
153	0x3d8e95cc	0.06962165
154	0x3dc6f294	0.09714237
155	0xbdb105b0	-0.08643663
156	0x3d8b5b66	0.06804542
157	0x3c845178	0.016152129
158	0x3d4312cf	0.04762536
159	0xbcc93b28	-0.02456434
160	0xbd320cc9	-0.043469224
161	0xbdb72702	-0.08942987
162	0xbd7e1b08	-0.062037498
163	0xbc9e2780	-0.019305944
164	0x3d5fa496	0.05460032
165	0xbda820c8	-0.082093775
166	0xbdab4ebb	-0.08364626
167	0xbd974ccf	-0.07387697
168	0x3d8b024b	0.06787547
169	0xbdab3547	-0.08359771
170	0x3d74a17f	0.059724327
171	0xbd98ba89	-0.07457454
172	0xbbee2e71	-0.00726872
173	0x3c1fe7c1	0.009759844
174	0xbd6a9e21	-0.05727971
175	0x3c7b69d7	0.015345058
176	0x3d3122d6	0.043246113
177	0xbde03c3a	-0.10948987
178	0xbd7134b6	-0.05888816
179	0xbd97b785	-0.074080504
180	0x3d2456b9	0.040121768
181	0xbd835a67	-0.06413727
182	0x3d2d62a4	0.0423304
183	0x3dbed645	0.093182124
184	0xbce2a9b9	-0.02766882
185	0xbcd78266	-0.026307296
186	0xbda714d9	-0.08158273
187	0xbd328502	-0.043583877
188	0xbca056d8	-0.01957266
189	0x3d1d9ab0	0.0384776
190	0xbcb60daa	-0.022223312
191	0xbce87569	-0.028376298
192	0xbc9ac7e1	-0.018894138
193	0xbd9e7319	-0.07736797
194	0x3d96a6cc	0.07356033
195	0xbbaeda0c	-0.005336052
196	0x3d1f428f	0.038881835
197	0xbb365244	-0.002782003
198	0x3d429264	0.04750289
199	0xbc376227	-0.011192835
200	0xbd39cacc	-0.045359418
201	0x3cca3902	0.024685387
202	0x3d8685fd	0.06568525
203	0x3cd9d68d	0.026591564
204	0xbd6d0524	-0.05786623
205	0x3d61958f	0.05507427
206	0x3c43f49e	0.011960177
207	0xbcd07488	-0.025446191
208	0xbd04c4fb	-0.032414418
209	0xbc0a43a5	-0.008438979
210	0xbd050546	-0.032475732
211	0x3cc2af4a	0.023765225
212	0x3d35f2a0	0.04442084
213	0xbd6d2456	-0.05789598
214	0xbd77a615	-0.060461123
215	0x3d1cb9cd	0.03826313
216	0x3dd03746	0.101667926
217	0xbd8e136e	-0.069373
218	0x3d35fded	0.044431616
219	0x3d43bc4e	0.047787003
220	0x3cd3719f	0.025811015
221	0x3d2652bd	0.04060625
222	0xbd4b2bab	-0.049602192
223	0xbd47e2a8	-0.04880014
224	0xbcf901e6	-0.030396413
225	0x3d62a496	0.055332743
226	0xbd01b065	-0.031662364
227	0x3d302e5e	0.04301297
228	0x3cc28714	0.02374605
229	0xbcdab7a2	-0.026698891
230	0xbc7d1c05	-0.015448575
231	0x3cd8f7f3	0.026485419
232	0x3d0e4d82	0.034741886
233	0xbc20f3f7	-0.009823791
234	0x3b182515	0.0023215462
235	0xbc81a846	-0.01582731
236	0x3c80894d	0.01569047
237	0xbd654900	-0.05597782
238	0xbd625601	-0.0552578
239	0x3d0e6d68	0.034772307
240	0xbcd40290	-0.025880128
241	0xbcaabb29	-0.020841198
242	0xbcf1179d	-0.029430205
243	0xbad404ff	-0.0016175805
244	0x3dca0be7	0.098655514
245	0xbd93dce6	-0.072198674
246	0xbce0f93a	-0.02746259
247	0xbd92dff8	-0.07171625
248	0xbd3f953c	-0.04677318
249	0x3c617c10	0.013762489
250	0x3bab5d7a	0.005229649
251	0xbcec231e	-0.028825339
252	0xbd64d688	-0.055868655
253	0xbda9ff17	-0.08300608
254	0xbca1766f	-0.019709794
255	0x3c8f16ff	0.01746702

layers.0.phi_att.bias f4 [128]
0	0x3d8b6a30	0.06807363
1	0x3b11115a	0.0022135586
2	0x3d4a5708	0.049399406
3	0xbd15b137	-0.03654596
4	0x3d330625	0.04370703
5	0xbc5c1583	-0.013432863
6	0x3c2e2ae6	0.010630345
7	0xbcdccab0	-0.026952118
8	0x3c9d2ecb	0.019187352
9	0x3d547bec	0.051875994
10	0x3c55823f	0.013031541
11	0x3d117ff2	0.03552241
12	0x3da20e18	0.079128444
13	0xbd496a2d	-0.049173523
14	0x3da7b0b0	0.08187997
15	0x3cb09259	0.021554159
16	0xbb4c5f31	-0.0031184668
17	0x3d80a91c	0.06282255
18	0xbce69ae2	-0.028150026
19	0xb9d5e80a	-0.00040799408
20	0x3d8d3a21	0.06895853
21	0xbc23b2ff	-0.009991406
22	0x3d139617	0.03603181
23	0x3d1e6cc2	0.03867794
24	0xbca2fe0b	-0.019896528
25	0xbcac87a1	-0.021060767
26	0xbd978f2d	-0.074003555
27	0xbd90d283	-0.07071402
28	0xbd5dcfff	-0.05415344
29	0xbd38e303	-0.04513837
30	0x3d8eec08	0.06978613
31	0xbd8b04de	-0.06788038
32	0x3d36617e	0.04452657
33	0x3d7425e6	0.059606455
34	0x3d76bb8e	0.06023746
35	0x3ccd09cb	0.025029084
36	0xbd86996c	-0.06572232
37	0x3d5fad04	0.05460836
38	0xbdaf98c6	-0.08574061
39	0xbd18b1b5	-0.03727885
40	0xbdac2f37	-0.08407443
41	0xbd17f460	-0.03709829
42	0xbd8c998b	-0.068652235
43	0xbbfd05cc	-0.0077216383
44	0xbd094c11	-0.03351981
45	0x3da50261	0.08057094
46	0xbd9c6a15	-0.07637421
47	0x3db99b38	0.09062809
48	0xbd0faf80	-0.03507948
49	0xbd284163	-0.041077983
50	0xbca4488a	-0.02005412
51	0xbd607a32	-0.054804035
52	0x3daa95d8	0.08329362
53	0xbd5c6020	-0.05380261
54	0x3d8529e4	0.06502131
55	0x3d399c64	0.04531516
56	0xbd93445e	-0.071907744
57	0x3da33143	0.0796838
58	0x3cf0aa8d	0.0293782
59	0x3c3a1e57	0.011359773
60	0x3d66f264	0.056383505
61	0xbdac764c	-0.08421001
62	0x3daa3f2c	0.0831283
63	0x3cbaf4f8	0.022821888
64	0x3d3e45a1	0.046453122
65	0xbc84dc71	-0.016218396
66	0xbd23669c	-0.039892778
67	0xbb903bde	-0.004401668
68	0x3da39b38	0.0798859
69	0x3ca0c4e7	0.01962514
70	0xbd9a51d6	-0.0753514
71	0xbd2d8060	-0.042358756
72	0x3d9e144f	0.07718717
73	0xbdb6fb87	-0.08934694
74	0x3d861c0d	0.06548319
75	0x3d472b68	0.04862538
76	0x3ca6d0d9	0.020363258
77	0x3cbc7131	0.023003193
78	0xbd22de88	-0.039763004
79	0x3d8d75e3	0.06907251
80	0x3c506980	0.012720466
81	0x3a7d4905	0.0009662065
82	0xbd870447	-0.06592613
83	0x3cb60904	0.022221096
84	0x3d9f1741	0.07768107
85	0x3db6061f	0.08887886
86	0xbc4b48e0	-0.0124075115
87	0xbdb0f9c4	-0.08641389
88	0xbd940b99	-0.072287746
89	0xbcd539c5	-0.026028523
90	0xbb71dc93	-0.0036905154
91	0xbd257426	-0.04039397
92	0x3d93a3e5	0.07208995
93	0xbd741ca6	-0.059597634
94	0xbcd08b5c	-0.025457077
95	0x3cc4c3dd	0.024019176
96	0xbd01e51f	-0.031712648
97	0x3bd028bb	0.0063525117
98	0xbb794a20	-0.0038038567
99	0xbdb93152	-0.0904261
100	0x3ccd9361	0.02509469
101	0xbdafe7b2	-0.08589114
102	0xbd31f57b	-0.043447
103	0xbd8bd88f	-0.06828415
104	0x3d9b7a44	0.0759168
105	0xbc2bfbba	-0.010497028
106	0xbd4e7766	-0.050406836
107	0xbd3ffdd2	-0.04687292
108	0x3d3fe706	0.04685118
109	0x3cedb241	0.029015662
110	0xbc16dc8e	-0.009207858
111	0xbd9ba0c0	-0.0759902
112	0xbc919597	-0.017771525
113	0xbd2b8647	-0.041876104
114	0x3b8576d8	0.004073005
115	0xbb998e2a	-0.0046861367
116	0x3d88869b	0.06666299
117	0x3cfc84a5	0.030824969
118	0x3b9d56ce	0.0048016077
119	0x3c4aa91b	0.012369419
120	0xbd870263	-0.06592252
121	0x3da0bce2	0.078485265
122	0x3d4f34e6	0.050587557
123	0x3d98ce68	0.07461244
124	0xbd0adef3	-0.033904027
125	0xbd8c2457	-0.06842869
126	0xbc53d908	-0.012930162
127	0x3c3dcaad	0.011583966

layers.0.W_p.weight f4 [128, 128]
0	0x3d5e66b9	0.054297183
1	0x3d698429	0.057010803
2	0x3dbbfe05	0.0917931
3	0x3bbdcfc3	0.0057925894
4	0x3d3892e3	0.045061957
5	0x3c94ae1f	0.018149434
6	0x3d92a19a	0.07159729
7	0x3d76a126	0.060212277
8	0x3b73d021	0.0037202912
9	0x3c7f0b47	0.015566654
10	0xbc432403	-0.011910441
11	0xbda68eed	-0.0813273
12	0xbd7378e6	-0.05944147
13	0x3cd2dde3	0.02574057
14	0x3d7e232a	0.062045254
15	0xbc83999f	-0.016064463
16	0x3d4fc94c	0.05072908
17	0xbc64edec	-0.013972741
18	0xbd586ae2	-0.052836306
19	0xbda23130	-0.07919538
20	0x3d35fa4e	0.044428162
21	0x3c359f40	0.011085331
22	0xbdb64684	-0.089001685
23	0xbd33e4bc	-0.04391931
24	0xbcc2ed28	-0.023794726
25	0xbd2e79ea	-0.042596735
26	0x3a84c71a	0.0010130138
27	0xbd8bca4f	-0.06825697
28	0x3d35cea1	0.04438651
29	0x3d168dd8	0.036756366
30	0xbd9b3993	-0.07579341
31	0xbda81b3b	-0.08208319
32	0x3d4c9be0	0.04995334
33	0x3c04ca87	0.008104927
34	0xbb182a63	-0.0023218624
35	0x3d08ac9e	0.033367746
36	0xbcf2c4be	-0.02963483
37	0xba5b2de2	-0.0008361024
38	0xbd376fe6	-0.04478445
39	0xbdac3f80	-0.08410549
40	0xbc908d99	-0.017645644
41	0xbae42748	-0.0017406726
42	0xbd54c63f	-0.051946875
43	0xbd6f84ba	-0.058476187
44	0xbd9ff827	-0.07811003
45	0x3cdf7189	0.027275817
46	0xbd2f9315	-0.042864878
47	0xbda4674b	-0.08027514
48	0xbd153c44	-0.036434427
49	0x3d2f3a35	0.04278012
50	0xbc4a29dd	-0.012339083
51	0xbd6f6b5d	-0.058452
52	0x3d88aba8	0.06673366
53	0x3c717e49	0.014739581
54	0xbd040e06	-0.032239936
55	0xbc66b875	-0.014082064
56	0xbab7839c	-0.0014001015
57	0xbd9a5289	-0.075352736
58	0x3d822c8b	0.06356152
59	0x3d5521db	0.05203424
60	0x3d9afd48	0.07567841
61	0xbd301c67	-0.042995837
62	0x3d2413c1	0.0400579
63	0x3d5ef7ad	0.05443542
64	0x3d97f327	0.074194245
65	0x3cb4e28b	0.02208068
66	0xbd6eb890	-0.05828148
67	0x3b4bb53e	0.003108337
68	0xbd76ae60	-0.06022489
69	0xbbe636d0	-0.007025577
70	0xbcbdbd18	-0.023161456
71	0xbd830be0	-0.06398749
72	0x3d1f7860	0.038933158
73	0x3a4ad520	0.00077374466
74	0x3d797fa0	0.06091273
75	0x3db083e2	0.08618905
76	0x3db1159c	0.086467
77	0xbd1d9766	-0.038474463
78	0x3daad45f	0.08341288
79	0x3cfe18c1	0.031017663
80	0xbd82bfba	-0.06384225
81	0xbdb88004	-0.09008792
82	0xbd98565e	-0.07438348
83	0xbdaf64a7	-0.0856412
84	0x3d9f4522	0.07776858
85	0xbd9eeb17	-0.077596836
86	0xbdb948c8	-0.09047085
87	0x3d655c71	0.055996362
88	0xbd97a24e	-0.07404004
89	0xbd59ed87	-0.05320504
90	0x3b7462bd	0.0037290298
91	0x3d219523	0.03944887
92	0x3dacd525	0.084390916
93	0xbc642e17	-0.013927004
94	0x3bd7ace1	0.006581888
95	0x3d4f5d53	0.05062611
96	0x3d1d08e7	0.038338568
97	0xbd8cdc21	-0.06877924
98	0xbd351a35	-0.044214446
99	0xbc9a81c5	-0.018860707
100	0x3c3127f4	0.010812748
101	0x3cc189d3	0.02362529
102	0x3c1b8d62	0.0094941575
103	0xbd584676	-0.05280157
104	0xbd6c6b58	-0.05771956
105	0x3d01ea7b	0.03171776
106	0xbd3e58eb	-0.046471518
107	0x3d66b935	0.05632897
108	0x3a94b62e	0.0011345798
109	0x3d55fbf2	0.052242227
110	0xbbb6e844	-0.0055818874
111	0x3da21721	0.07914568
112	0xbd3d4a3e	-0.04621338
113	0xbd734be2	-0.05939854
114	0x3db13bff	0.086540215
115	0x3d337af0	0.043818414
116	0x3d18efb3	0.03733797
117	0xbcdcd378	-0.026956305
118	0x3ca41d49	0.020033496
119	0x3d942219	0.07233066
120	0xbd24fbbc	-0.040279135
121	0x3d726070	0.059174
122	0xbda2dab6	-0.07951872
123	0xbcddafc3	-0.027061349
124	0x3da74183	0.08166792
125	0xbcb367f9	-0.021900164
126	0xbcd60884	-0.026127107
127	0xbcf2ba4b	-0.029629847
128	0xbd263868	-0.040581137
129	0xbd8e9770	-0.06962478
130	0x3c6783fe	0.0141305905
131	0xbda50188	-0.08056933
132	0x3d972936	0.07380907
133	0xbd9d8701	-0.076917656
134	0xbc9fb8cf	-0.019497303
135	0xbd5bd171	-0.053666536
136	0xbd512539	-0.05106089
137	0x3d21d294	0.039507464
138	0xbd8db528	-0.069193184
139	0x3c60ff52	0.013732748
140	0x3d3539ad	0.044244457
141	0xb9c75b8e	-0.0003802445
142	0x3d13692a	0.035988964
143	0xbd661b18	-0.056178182
144	0xbc9f7907	-0.01946689
145	0x3cf15045	0.02945722
146	0xbd827630	-0.06370199
147	0xbd87a039	-0.06622357
148	0x3bfc3c12	0.0076975906
149	0xbcf725d7	-0.03016941
150	0xbc27838c	-0.010224234
151	0xbca88c4b	-0.02057471
152	0x3cadeb1f	0.021230279
153	0x3c263904	0.0101454295
154	0x3d582c7c	0.0527768
155	0x3d1707e0	0.036872745
156	0x3d4daf95	0.050216276
157	0xbd907ec1	-0.070554264
158	0x3c7e7083	0.015529755
159	0xbcb1aeb0	-0.021689743
160	0x3daf7d9b	0.08568879
161	0xbda75938	-0.08171314
162	0x3c3880a3	0.011261138
163	0xbd66d8e5	-0.05635919
164	0x3d00094d	0.03125887
165	0x3cd9e27c	0.026597254
166	0x3cd0ac97	0.025472922
167	0xbd131957	-0.035912838
168	0x3da0c7dd	0.07850621
169	0x3dbc6022	0.091980234
170	0x3d55115b	0.052018505
171	0x3da1ed8e	0.07906638
172	0xbd8d0fa5	-0.068877496
173	0x3d0ec42a	0.034855045
174	0x3dbc43e8	0.091926396
175	0x3b8a47e6	0.0042199967
176	0xbd47c8c5	-0.048775453
177	0xbd973604	-0.073833495
178	0xbcd2a4f9	-0.02571343
179	0xbd19b57d	-0.037526596
180	0x3d2bb4d1	0.041920487
181	0xbd3ce935	-0.04612084
182	0xbd5fdefc	-0.054656014
183	0x3d641477	0.05568358
184	0x3d4c7df5	0.04992481
185	0xbdbbeecb	-0.091764055
186	0xbd6caf3e	-0.05778431
187	0x3d5a3477	0.05327269
188	0x3cd612e4	0.026132055
189	0x3d7a7933	0.06115074
190	0xbd266a7e	-0.040628903
191	0xbd73eb31	-0.059550468
192	0xbd2a4608	-0.041570693
193	0xbd4a570d	-0.049399424
194	0xbc50eddd	-0.0127520235
195	0xbd310d5c	-0.04322563
196	0xbdad7de9	-0.08471281
197	0x3d9a5342	0.075354114
198	0xbd19b392	-0.037524767
199	0x3db01946	0.085985705
200	0x3d5571ce	0.052110486
201	0xbc5371c3	-0.012905541
202	0x3da075da	0.078349784
203	0xbc52684b	-0.012842248
204	0xbdae9cb1	-0.0852598
205	0x3d111a7c	0.035425648
206	0x3d43f559	0.047841404
207	0x3d29f6b7	0.04149505
208	0x3da384c2	0.07984306
209	0xbd550af7	-0.05201241
210	0xbd7850ce	-0.060623936
211	0xbd0499c3	-0.0323732
212	0x3c8e9231	0.017403694
213	0xbd995890	-0.07487595
214	0x3d8b64ec	0.06806359
215	0x3d93ddbd	0.072200276
216	0xbc99d1cb	-0.018776795
217	0xbce86e1a	-0.028372813
218	0xbd7c2595	-0.06155928
219	0x3d2d4b40	0.042308092
220	0xbd19ad67	-0.037518885
221	0xbdbd0bab	-0.09230741
222	0xbda43928	-0.08018714
223	0x3d98e712	0.07465948
224	0xbbd26c27	-0.006421584
225	0x3d88ce3e	0.066799626
226	0x3c25147d	0.010075686
227	0xbd88a08a	-0.066712454
228	0x3d970c85	0.07375435
229	0xbdb348a4	-0.087540895
230	0x3d71a711	0.058997218
231	0xbb5bcff4	-0.0033540698
232	0x3d000e5e	0.0312637
233	0xbd528e30	-0.05140513
234	0xbc9d95d5	-0.019236485
235	0x3b8e8649	0.004349504
236	0xbca1bac1	-0.019742372
237	0x3d9a61db	0.07538196
238	0xbd707068	-0.05870095
239	0xbc766bdf	-0.015040367
240	0x3da03734	0.07823029
241	0xbc9d7b4a	-0.019223828
242	0x3a9484ea	0.0011331115
243	0x3da789ac	0.08180556
244	0xbdbbab1a	-0.091634944
245	0xbcc80719	-0.024417447
246	0xbccc5c32	-0.024946306
247	0xbd8030b2	-0.06259288
248	0xbdac4f0f	-0.08413517
249	0x3d33f3ca	0.043933667
250	0xbd4315ac	-0.04762809
251	0xbda653fc	-0.081214875
252	0x3d3ba502	0.04581166
253	0x3da53661	0.080670126
254	0xbcc7bc04	-0.024381645
255	0xbb19555e	-0.002339683

layers.0.W_p_prime.weight f4 [128, 128]
0	0x388b3975	6.638739e-05
1	0x3da38e3a	0.07986112
2	0xbda3287d	-0.07966707
3	0xbd95bd9b	-0.07311555
4	0xbcd79856	-0.026317757
5	0xbc193123	-0.009350094
6	0x3d85ba3e	0.065296635
7	0x3c990bbd	0.018682355
8	0x3d28071f	0.041022416
9	0x3d07cff0	0.03315729
10	0xbda8aad6	-0.08235709
11	0xbd806bb5	-0.062705435
12	0xbd9915ce	-0.07474862
13	0x3d9799e4	0.07402399
14	0xbcb6545a	-0.022257019
15	0xbc62a005	-0.013832097
16	0x3d810390	0.062995076
17	0xbcb5a873	-0.02217505
18	0xbdac1f0b	-0.084043585
19	0x3db23b45	0.08702711
20	0xbdb5906b	-0.08865436
21	0xbc910ac3	-0.017705327
22	0xbd23153e	-0.03981518
23	0xbb998af1	-0.0046857526
24	0x3c85f0a7	0.016350104
25	0xbd167cdb	-0.036740165
26	0xbd10f07d	-0.035385597
27	0xbb45b13f	-0.0030165461
28	0x3b18655e	0.002325378
29	0x3da0589c	0.07829401
30	0xbccfce77	-0.025367005
31	0xbd4b56e5	-0.049643416
32	0xbda85165	-0.0821865
33	0x3cd42cfd	0.025900358
34	0x3d9e93f0	0.077430606
35	0x3d890229	0.06689865
36	0x3da0ec03	0.07857516
37	0xbc4e67d5	-0.012597998
38	0xbcf4a944	-0.029865868
39	0x3d52195d	0.05129372
40	0x3d3a6c56	0.045513473
41	0xbcc6de79	-0.024276005
42	0xbbea1e6c	-0.00714474
43	0x3cb30303	0.021852022
44	0xbca72060	-0.02040118
45	0x3bf85435	0.0075783976
46	0x3c51d1bf	0.012806355
47	0xbb862bb8	-0.004094567
48	0xbdab9259	-0.08377523
49	0xbd9d95a5	-0.07694558
50	0xbda5d46c	-0.08097157
51	0x3d9b5111	0.075838216
52	0x3daf68f7	0.08564942
53	0xbdab8f3d	-0.0837693
54	0x3d8fc217	0.070194416
55	0x3d958895	0.073014416
56	0xbcc40a59	-0.023930715
57	0x3d4a80c4	0.049439207
58	0xbd5f48ea	-0.054512896
59	0x3ca94442	0.02066243
60	0xbd87b60d	-0.0662652
61	0xbd5c590f	-0.05379587
62	0x3d4eb1cf	0.05046254
63	0xbc551c8e	-0.013007296
64	0x3a98a2d5	0.0011645207
65	0xbb1fc011	-0.0024375955
66	0x3d8f52d0	0.06998217
67	0xbd9fa731	-0.07795561
68	0xbd60465a	-0.054754592
69	0x3d024145	0.031800527
70	0x3dac5df8	0.084163606
71	0xbd055d02	-0.032559402
72	0xbd56f95a	-0.052483894
73	0xbda0d67b	-0.07853409
74	0xbd91e842	-0.07124378
75	0x3d8094dd	0.062783934
76	0x3c546037	0.0129623925
77	0x3c3f4a2f	0.011675402
78	0xbc7a12f9	-0.0152633125
79	0x3d5f18b8	0.054466933
80	0x3ba68b97	0.0050825584
81	0x3cd58c32	0.026067827
82	0x3d23a79a	0.03995476
83	0x3dac52fc	0.084142655
84	0x3d4be82e	0.04978197
85	0x3d7fb6a4	0.06243004
86	0x3c421bb3	0.011847424
87	0x3d1318b1	0.03591222
88	0x3d8b189e	0.06791805
89	0xbcd5a00c	-0.026077293
90	0x3d5ed883	0.0544057
91	0xbd6ccf80	-0.057815075
92	0x3caa335d	0.020776445
93	0x3c53425b	0.012894238
94	0xbd4f76de	-0.05065047
95	0x3c5b9326	0.013401782
96	0xbc07512d	-0.0082591
97	0xbd7b76f3	-0.061392736
98	0x3d87064a	0.065929964
99	0xbc6f71d7	-0.014614544
100	0x3b95ad94	0.0045678113
101	0xbcb6371e	-0.022243079
102	0x3d04cebe	0.032423727
103	0x3ba37262	0.0049880007
104	0x3d839e37	0.064266615
105	0x3cd8a8d2	0.026447687
106	0xbdb30efd	-0.08743093
107	0x3d53136c	0.051532194
108	0x3cdf08ee	0.027225938
109	0xbcadf426	-0.021234583
110	0x3c838221	0.016053261
111	0x3d8ae61a	0.0678217
112	0xbdbbbbd8	-0.09166688
113	0xbdb88cd0	-0.09011233
114	0xbc196412	-0.0093622375
115	0x3db1f8b6	0.08690016
116	0x3d6c1ec2	0.05764652
117	0x3ce695b2	0.028147552
118	0xbda70fe8	-0.08157331
119	0xbc199ad6	-0.009375295
120	0xbd3c3921	-0.04595292
121	0x3cb3c5d9	0.021944927
122	0xbd1e0e43	-0.03858782
123	0xbd63c89f	-0.05561125
124	0x3d823c55	0.06359164
125	0x3c5860a2	0.013206633
126	0xbb732541	-0.0037101062
127	0x3d911688	0.070843756
128	0x3c8c30a4	0.017113037
129	0x3dabaf53	0.0838305
130	0xbd16bd79	-0.03680179
131	0xbd13886b	-0.03601877
132	0x3d883796	0.06651227
133	0xbd559548	-0.05214432
134	0xbd26148b	-0.040546935
135	0x3d6743f7	0.0564613
136	0xbc260040	-0.010131896
137	0xbd983b1d	-0.0743315
138	0x3bb2aa69	0.0054524434
139	0xbca4a162	-0.020096485
140	0xbd8d61de	-0.06903432
141	0xbd1cf81d	-0.038322557
142	0x3d8bfbe6	0.06835155
143	0x3ac2f2d4	0.0014873394
144	0xbd040ed3	-0.0322407
145	0xbc975f0a	-0.018477935
146	0x3d455b48	0.048182756
147	0x3db02c6e	0.08602224
148	0x39a1268c	0.00030737033
149	0x3d806473	0.06269159
150	0xbce5fca4	-0.02807457
151	0x3c962d4f	0.018332152
152	0xbd864610	-0.06556332
153	0x3d8814c6	0.06644587
154	0x3cf95e81	0.03044057
155	0xbca6377e	-0.020290133
156	0xbc16449f	-0.009171634
157	0xbd1b06c5	-0.037848253
158	0xbd3e3c22	-0.046444066
159	0xbdaddfc3	-0.08489945
160	0xbd947df5	-0.07250587
161	0xbb31dea6	-0.0027140765
162	0x3d6c98d3	0.057762932
163	0xbd64a2ae	-0.055819206
164	0x3d93184c	0.07182369
165	0x3d281c44	0.04104258
166	0xbd63a694	-0.055578783
167	0x3da0e2a9	0.07855732
168	0x3d3edc6e	0.046596937
169	0x3d0d9a57	0.034571018
170	0xbcb40fb2	-0.02198014
171	0x3d0e06a6	0.03467431
172	0xbc2c084b	-0.010500024
173	0x3da47051	0.08029235
174	0x3cebf158	0.028801605
175	0xbd8959db	-0.06706592
176	0xbdaf476f	-0.08558547
177	0xbc00aa29	-0.007853069
178	0x3ce3a5d6	0.027789038
179	0x3d05bb15	0.03264912
180	0x3d9a39a2	0.07530524
181	0xbd8eeea2	-0.06979109
182	0xbc913859	-0.017727064
183	0x3c8d55d7	0.017252846
184	0xbd9ac3a8	-0.0755685
185	0x3ce7ac13	0.028280294
186	0x3d4db39b	0.050220113
187	0xbd93c4fd	-0.07215307
188	0x3dadaf1b	0.08480664
189	0x3bd77034	0.006574655
190	0xb973801f	-0.00023222015
191	0xbd02f695	-0.03197344
192	0xbc4f292a	-0.012644092
193	0xbd87a456	-0.066231415
194	0x3d743c2d	0.0596277
195	0xbd3a270d	-0.045447398
196	0x3d178467	0.036991503
197	0x3d7c7ebf	0.061644312
198	0xbd2768c3	-0.040871393
199	0xbd556c9b	-0.052105527
200	0x3d655dc6	0.055997632
201	0x3d80ccf2	0.0628909
202	0x3aa8bec6	0.0012874238
203	0x3c8cb13c	0.017174356
204	0xbd9e75c8	-0.07737309
205	0x3d9ad83a	0.07560773
206	0x3da03927	0.07823401
207	0x3d1f6b4a	0.03892068
208	0x3cbaafe7	0.022788955
209	0x3d3147b3	0.04328127
210	0x3d8fa8c0	0.070146084
211	0xbd0baf93	-0.034102987
212	0x3d166c1a	0.036724187
213	0x3d00d6b8	0.03145477
214	0x3d82244b	0.063545786
215	0x3cb4a107	0.02204944
216	0x3d462750	0.048377335
217	0xbd49140a	-0.049091376
218	0x3d587ebf	0.05285525
219	0xbd933c78	-0.07189268
220	0x3d4af7e3	0.04955281
221	0xbd565eb3	-0.052336406
222	0x3d4c4451	0.04986984
223	0xbd385e35	-0.045011718
224	0xbd68f28c	-0.056871936
225	0x3d4ebebc	0.050474867
226	0xbd864eeb	-0.06558021
227	0x3c3bc9f4	0.011461724
228	0x3d80a6b2	0.062817946
229	0xbd0e33d1	-0.034717385
230	0xbd9218a4	-0.07133606
231	0xbd841923	-0.06450107
232	0x3d2e2bc7	0.042522218
233	0x3d11935b	0.03554092
234	0xbb4a022e	-0.0030824053
235	0x3d55988b	0.05214743
236	0xbc40bdd3	-0.011764008
237	0x3d22ab8e	0.03971439
238	0xbab5f0fc	-0.0013881023
239	0x3bf03c18	0.0073313825
240	0xbd36fb8b	-0.044673484
241	0xbd9e2cd5	-0.07723395
242	0x3d6d39f1	0.057916585
243	0xbca45482	-0.020059828
244	0xbd9118b3	-0.07084789
245	0xbd123b6b	-0.035701197
246	0xbd17aaf9	-0.037028287
247	0x3ccc1fe9	0.02491756
248	0xbd91b133	-0.07113876
249	0xbc7792f0	-0.015110716
250	0x3c749c73	0.0149298785
251	0xbd6fed5e	-0.05857598
252	0x3d998e51	0.07497848
253	0xbd67a280	-0.056551456
254	0x3d1945a5	0.037419934
255	0x3d08275c	0.03324066

layers.0.f_def.weight f4 [1, 128]
0	0x3e1c2d7b	0.15251724
1	0x3d64836a	0.05578939
2	0x3c479c86	0.012183314
3	0xbba2649d	-0.0049558417
4	0x3df2eaf9	0.11861224
5	0x3db92439	0.09040112
6	0xbcf95540	-0.030436158
7	0x3d553a6a	0.05205766
8	0xbd215f09	-0.039397273
9	0xbc72c863	-0.014818284
10	0xbb0556fa	-0.0020346032
11	0x3e15a666	0.14614257
12	0xbdc07f31	-0.0939926
13	0x3e04890c	0.12942904
14	0xbdb700f1	-0.089357264
15	0x3d8b19a4	0.06792
16	0xbd3709bb	-0.044687014
17	0x3c451e3f	0.012031137
18	0x3d4f2c70	0.05057949
19	0xbda0a944	-0.07844785
20	0xbce8390a	-0.02834751
21	0x3cefe6d7	0.029284878
22	0x3e1e10d7	0.15436111
23	0x3d8b6857	0.068070106
24	0x3b0b6392	0.0021269065
25	0xbd95da43	-0.07317021
26	0x3df6f8e0	0.12059188
27	0xbda546ed	-0.08070169
28	0xbc545228	-0.012959041
29	0x3da982e2	0.08276917
30	0xbdb7703e	-0.089569554
31	0xba34318f	-0.000687384
32	0xbd5c6d29	-0.05381504
33	0xbd0d7c71	-0.034542505
34	0xbd41e8f2	-0.047341295
35	0x3d1b8220	0.037965894
36	0xbda084a2	-0.07837798
37	0x3d016cfd	0.03159808
38	0xbba54a6f	-0.0050442736
39	0xba1de704	-0.0006023499
40	0x3ca532e1	0.020165863
41	0x3d030d30	0.031995
42	0x3e016ab7	0.12638365
43	0x3db4a4da	0.088205054
44	0x3d84467f	0.064587586
45	0x3d9c15f0	0.07621372
46	0xbdce3ba3	-0.100699686
47	0x3d6ae2c5	0.05734517
48	0xbad25d52	-0.001604954
49	0xbdaf4523	-0.08558109
50	0x3d439ddb	0.047757965
51	0x3d8df152	0.06930794
52	0xbe160d5a	-0.1465353
53	0x3dc322f9	0.09528155
54	0x3d98c3e6	0.0745924
55	0x3b0183df	0.001976244
56	0xbe2a440f	-0.16627525
57	0xbd0ab556	-0.03386434
58	0x3d8df4fc	0.06931493
59	0x3c246b46	0.010035342
60	0x3e083c67	0.13304292
61	0xbd2f5ed0	-0.04281503
62	0xbd4e2cae	-0.05033558
63	0xbdae38e5	-0.085069455
64	0xbcdad674	-0.026713587
65	0xb852def2	-5.0275536e-05
66	0xbdb29eff	-0.08721732
67	0x3cae0c6f	0.021246163
68	0x3cd4b31b	0.02596431
69	0xbc698f51	-0.014255361
70	0x3de69004	0.112579376
71	0x3ccb224b	0.024796626
72	0xbb1c344a	-0.0023834878
73	0xbd91c032	-0.071167365
74	0xbc8f5961	-0.017498674
75	0xbd57d589	-0.052693877
76	0x3d90de59	0.070736594
77	0xbddae3ae	-0.10687958
78	0xbda31b75	-0.079642214
79	0xbdc1312a	-0.094332054
80	0xbde7bdad	-0.11315475
81	0x3e49efd6	0.19720396
82	0xbcb9db92	-0.022687707
83	0xbe065398	-0.13117826
84	0x3d56b88e	0.0524221
85	0xbd492137	-0.04910394
86	0x3cfbd034	0.030738927
87	0x3d80896f	0.062762134
88	0xbce4f669	-0.027949529
89	0xbcfb33a1	-0.030664267
90	0xbcf30ce8	-0.02966924
91	0xbcb068aa	-0.021534283
92	0xbccfa998	-0.025349423
93	0x3bcc1bb9	0.0062288907
94	0x3d8c4cb5	0.06850568
95	0x3d8b3028	0.067962945
96	0x3d3dccf1	0.046338025
97	0x3cb30594	0.021853246
98	0x3cbef3ed	0.023309672
99	0x3d5113fe	0.051044457
100	0x3e2ac792	0.16677693
101	0xbdbc62d2	-0.09198536
102	0xbc168731	-0.009187506
103	0x3cd8a5a7	0.026446177
104	0xbc93e33b	-0.018052688
105	0x3dc0f35e	0.094214186
106	0xba8a891c	-0.0010569426
107	0x3e2eb1d2	0.1706002
108	0xbd114dce	-0.03547459
109	0x3d99e876	0.075150415
110	0xbda99dc7	-0.08282047
111	0x3dedf9fc	0.11619946
112	0xbda2c100	-0.07946968
113	0xbdcbefc6	-0.099578425
114	0xbdaedc17	-0.085380726
115	0xbd86378e	-0.06553565
116	0x3da3df1b	0.08001538
117	0xbbf12750	-0.0073594227
118	0xbd5d596f	-0.05404037
119	0x3bbe13c7	0.0058006975
120	0x3ccec2e5	0.025239417
121	0x3d20b38f	0.03923374
122	0xbde77376	-0.11301319
123	0x3d4562d2	0.048189946
124	0x3c4f4127	0.012649811
125	0x3aff6879	0.0019486091
126	0xbdcc15d7	-0.09965103
127	0x3db42841	0.0879674
