refined_10new.pth (torch, 888358 bytes, 36 tensors)

input_norm.weight f4 [7]
00000000: 894a 793f 8d4a 533f fe48 663f 3d8d 733f
00000010: 4856 743f c8d6 833f 1e9d 863f
0.97379357 0.8253563 0.8995513 0.9513739 0.95444155 1.0299921 1.0516698

input_norm.bias f4 [7]
00000000: 0cc0 66ba b2d0 3abc b3e1 08bc 3426 073d
00000010: a510 59bb 6cd5 a7bb 50ba 3ebb
-0.0008802421 -0.011402296 -0.008354592 0.032995418 -0.0033121493 -0.0051218774 -0.002910275

layers.0.embed.weight f4 [128, 7]
00000000: 5f80 923c d33f eabd 4b27 a93e b7bd 2fbd
00000010: 90ba bc3d 6c6a 44be cc65 f3bd c08d 213e
00000020: 15a9 5f3e 4ade a6be 5dc5 12be cdbd 96be
00000030: 6ba4 633c 3427 dbbe 707a 67bb 62a1 4abe
00000040: dd4a 8c3e 68ff 9e3d a627 84be 92ae aebe
00000050: 54a3 23be 5faa 843e 7a15 733e 5a63 bdbd
00000060: a5d5 483e 33f5 b2be afec 893d 2a94 7dbe
00000070: 3965 9a3e 8be2 223d 8459 d3bb 18ea f53d
00000080: 921d a33e 6e3b ac3e f9c2 703e 8cd7 98be
00000090: 5005 9a3d 73c9 3bbe cafd 173e 9591 51be
000000a0: dbbc 373e 62a4 97be 4461 333e bdb1 9abd
000000b0: ec4d 4cbe dcda a1be 2b19 383e c5a5 0ebe
000000c0: f676 c43e 0d38 ac3e 7639 ab3e 1a88 663e
000000d0: ba3c aa3e 792f a33d f4b5 74be fd11 b33e
000000e0: a13a 44bd 8176 8bbe 24ff a5be 8656 793e
000000f0: 5868 a7be 9962 45be 1f82 7fbe 6e3d 2ebe
00000100: f698 6e3e 2255 a93e 3a41 b93d 5cf5 d5bd
00000110: f160 8f3d 104c 4ebe 46a9 9d3e b1a4 533e
00000120: 5127 7abd 98bb 9c3c c191 c23d c09f 713e
00000130: 68cd aebe 78b3 b13e 9478 f53a 503e 1b3e
00000140: 1748 9abe 4dd7 2cbe cafa 3b3e c78d ddbc
00000150: f9f6 68be 83b4 35be 5512 91be bb7c 6c3e
00000160: ac31 593b c50a bb3e d067 50be abe9 b6be
00000170: 891e 803d a20e 49be b47a 203e 01b8 dbbd
00000180: 5b6b 983d 8389 cdbb c4cf a13e f8a7 90bd
00000190: 9ec4 ddbd 98a1 80be fb2c bdbc 4499 a2be
000001a0: cce8 c13d d3f3 0cbe 98cd b53e f8a0 733e
000001b0: a8e2 2bbe db5a 833e f21f d13d 73b2 803d
000001c0: 3110 4b3e 337f 853e 9ecc 8cbd ee1d 2f3d
000001d0: 2f62 febd d3f4 263e 58af 023e 221d b93e
000001e0: baa5 e53d 2415 6dbe 6438 6d3e 1b2d 04be
000001f0: dacf bb3d fb81 0fbe b182 fc3d 1b10 763e
00000200: cd64 ac3e 28e2 2d3d a2dd a83d 150b 773e
00000210: 8e35 183e 7ad6 183e 203e 21be 92b2 a0be
00000220: f8dc a5be 5a92 47bd 55a4 23be d262 603e
00000230: cfb1 3cbe 5e41 cfbd cd18 85be 9b89 573d
00000240: 6c43 493e 8f73 a6be a454 383e 2f02 8abc
00000250: 4c64 a0bd 6bf0 e6bb 656c 973e 3ea0 39be
00000260: 890e 5fbd de3c 5f3e 0fc0 533d 861e 3d3e
00000270: c10b aebe 3090 5abe 55ab af3e 1b8d dd3d
00000280: 1f64 c43b adef 123e e60c 473e d1f6 953d
00000290: 75ee ef3d f064 a33e b476 983e 7ce4 4cbc
000002a0: 2151 ccbd 66ed 15be 82a5 923e 76ee be3e
000002b0: 3d11 57be d3f2 b7be afa0 ae3e 038f a1be
000002c0: 519e d53d 5223 cc3d 365f 3bbe c22d 413c
000002d0: 71db a03e 940f d53c cd6a 9d3e 6342 973e
000002e0: 29d2 883e 2928 1d3d c80b a03e e70b 1bbd
000002f0: 3b9b 83be 105f 70bd 81a4 29be cf62 973d
00000300: ef3a f53c b620 493e bc67 52be 1971 bbbd
00000310: 5383 d2bd fee8 5dbe 0faf 92be ad32 9bbe
00000320: 5537 a7ba fc48 a3bd f372 ce3d 7260 8e3e
00000330: 5716 bdbd 625b 443d 8863 973e 3bfe 553e
00000340: 2036 5ebe b265 86be f74b d8bd 7c56 3abd
00000350: fb90 aa3e 290d 6b3d b816 b2be 835c 5dbe
00000360: a44e d63e ade3 a7bd 74f3 c83d 1b21 253b
00000370: 025e 2b3e 7361 923e bf12 5dbe 71d9 1ebe
00000380: 45ed 26be 4df9 9cbe 0db2 9c3e 7c9f 973e
00000390: 9b01 293d 50d3 ce3d b893 a0bd b9fd 123d
000003a0: d2e8 a73c a021 19bc 2e1e 19be 31b2 a8be
000003b0: 4667 abbe cefe 83be 0310 8e3e 0033 f73c
000003c0: cff4 a6bd d611 bb3e e604 cdbe cf37 c1be
000003d0: 7d6d 80be 1106 7fbe c233 7dbe df8a 433d
000003e0: 93e9 48be 7874 ea3d 4ec1 80be 7e9d a1be
000003f0: 0657 c23e 7767 38be c226 8f3b 24dc 86be
0.017883478 -0.11437955 0.3303779 -0.042905536 0.092152715 -0.19181222 -0.118846506 0.1577673
0.21841843 -0.32591468 -0.143331 -0.29441682 0.013894181 -0.42803347 -0.0035320781 -0.19788125
0.27400866 0.077635586 -0.258115 -0.34117562 -0.15980273 0.25911233 0.23738661 -0.092474654
0.19612749 -0.34952697 0.06734597 -0.24763551 0.30155352 0.03976683 -0.00644988 0.120075405
0.31858498 0.3363909 0.23511876 -0.2985195 0.075205445 -0.18338566 0.14842907 -0.20465691
0.17943136 -0.29617602 0.17517573 -0.07553432 -0.199516 -0.3161229 0.17978351 -0.13930424
0.3837201 0.33636513 0.33442277 0.22512856 0.33249456 0.07968039 -0.23897535 0.3497466
-0.047907475 -0.2723885 -0.3242122 0.24349412 -0.32696795 -0.19275893 -0.24951981 -0.17015621
0.23300537 0.33072764 0.09045644 -0.10447189 0.07000912 -0.20146203 0.30793208 0.20668294
-0.06107265 0.01913242 0.095004566 0.23596096 -0.34141088 0.34707236 0.0018727952 0.15160489
-0.30133125 -0.16879006 0.18357387 -0.027045144 -0.22750463 -0.17744641 -0.283343 0.23094456
0.003314118 0.36531654 -0.20352101 -0.3572515 0.06255824 -0.19634488 0.15671808 -0.10728455
0.074423514 -0.006272496 0.31603825 -0.070632875 -0.108285174 -0.25123286 -0.023092737 -0.31757557
0.094682306 -0.13764887 0.35508418 0.23791873 -0.16785681 0.25655255 0.10211171 0.062840365
0.19830395 0.26073608 -0.06874965 0.042753153 -0.12421071 0.1630433 0.12762201 0.3615504
0.112132505 -0.23152596 0.23166043 -0.12907831 0.09170504 -0.14014427 0.12329615 0.24029581
0.33670655 0.042452008 0.08245398 0.24125321 0.1486418 0.14925566 -0.15746355 -0.31386238
-0.32395148 -0.048723556 -0.15980656 0.21912697 -0.18427204 -0.1011989 -0.25995484 0.052621465
0.19654626 -0.3251004 0.18001038 -0.016846744 -0.0783163 -0.007047703 0.29574886 -0.18127534
-0.05445722 0.21800563 0.051696833 0.18468675 -0.33993343 -0.21344066 0.34310403 0.10817929
0.0059933807 0.14349242 0.19438514 0.07322467 0.11715404 0.31912947 0.29778063 -0.012505647
-0.099764116 -0.14641342 0.28641897 0.37291306 -0.2100267 -0.35927448 0.34106967 -0.31554422
0.10430587 0.09967674 -0.18298039 0.011790695 0.3141742 0.026008405 0.30745545 0.29542837
0.2672284 0.038368378 0.31258988 -0.037853148 -0.2570437 -0.05868441 -0.1656666 0.07391893
0.029935328 0.19641384 -0.20547384 -0.09152431 -0.10278954 -0.2167091 -0.28649184 -0.303121
-0.0012757579 -0.07972905 0.100805186 0.27807957 -0.092327766 0.047938712 0.29568124 0.20897762
-0.21700335 -0.26249462 -0.10561364 -0.045492634 0.33313736 0.057385597 -0.34782958 -0.21617322
0.41856873 -0.081977226 0.0981206 0.0025196734 0.1673508 0.28589973 -0.21589182 -0.15512635
-0.16301449 -0.3065895 0.30604592 0.29613864 0.041261297 0.100988984 -0.07840675 0.0358865
0.02049676 -0.009346396 -0.14952919 -0.3294845 -0.3347723 -0.25780338 0.2774659 0.030175686
-0.08152162 0.36537045 -0.400428 -0.3773789 -0.25083533 -0.24904658 -0.24726775 0.04773986
-0.19620351 0.11447996 -0.2514748 -0.3156547 0.3795702 -0.18008219 0.004368634 -0.2633983

layers.0.embed.bias f4 [128]
00000000: ce40 85be 584c 3b3e d4af a73c 97c4 ad3c
00000010: d6cc 31be ee85 aa3e 533d b93e 7113 4a3e
00000020: 1ea2 a5be fc67 2fbd 7cb7 7c3e fe7f 503e
00000030: 1f65 863e f617 9fbe 268a 393e c19b 4cbe
00000040: 1906 c03e fcbe 923e e017 59be e077 9bbe
00000050: 4c1e e9ba 8efd d83d 1e68 bfbc 8eda 1c3c
00000060: b1d3 aabd 1a26 943e 2018 9f3e 54c7 9cbe
00000070: 1e85 89be f521 b8bd 6e60 793e 3405 083e
00000080: 327e fb3d 6a42 0f3e bf5c bf3e dd12 e3bb
00000090: c701 9e3e ae5a 3a3d 330a adbe 252a 0f3d
000000a0: 98a8 96be ffee 6cbe 21fe 00be c337 ec3d
000000b0: 4816 84be bcdb 80be f7e5 b2be 07ad 96be
000000c0: ea08 5abe fa0f 51be ef0d 07bd 2b08 673e
000000d0: 199e 58be cdea eabc 95d0 5c3d 10ca a8be
000000e0: 17e5 773d c22a 9abe 29e4 4f3e 007f 98be
000000f0: 6e8f a83e 8573 08be 9482 7e3e 7ac9 64be
00000100: a5a7 d3bd d20d 493e 33d3 7c3e 542e 543c
00000110: 3b07 52be 99d2 3a3e 734c ba3e 2c61 0fbd
00000120: 199b c9be 1315 6d3e 639d b63c fe65 323e
00000130: cd20 b0be 49a8 503d eb0b aabd a8ca 163e
00000140: cbfb b2be d66e a2be d2f6 11be 6061 95bd
00000150: d641 9fbe 0708 c8bc 422a a1be bad7 983e
00000160: a12c d53b 922f 87b9 99b2 b43e e6b8 97be
00000170: 78e4 b0be 7998 87be bbe3 503d ca3d d73d
00000180: 4ecc 1d3e 41c0 323e b9f2 663d ebd5 5cbe
00000190: 98ee 853e 0bfa 0b3d f7dc cb3c d130 90be
000001a0: 4431 77be 70d6 b6be bada d0bd 0a8a c03e
000001b0: 15ae 5f3e e158 fd3d 1c77 55be e488 8a3e
000001c0: eb93 733e 8103 49bd 9936 4cbc dc56 4abe
000001d0: 5ea9 093e 8f7d 843d b10e 8abe 77da aabe
000001e0: 56f2 973e c276 953d adcc 0f3e 43d0 803e
000001f0: 7980 d4bd 760a b5be b73f 303d 1f97 6dbe
-0.26026005 0.18290842 0.020469584 0.021211905 -0.17363295 0.33305305 0.361796 0.19733979
-0.32350248 -0.042823777 0.24679369 0.20361325 0.26249024 -0.31072968 0.18119106 -0.1998129
0.37504652 0.28661335 -0.21200514 -0.30364895 -0.0017785518 0.10595237 -0.023365077 0.009573592
-0.08341158 0.2893532 0.31073093 -0.30620825 -0.26859373 -0.08990852 0.24353191 0.13283235
0.12279929 0.13990179 0.37375447 -0.006929739 0.3086073 0.045496635 -0.33796844 0.0349523
-0.29425502 -0.23138045 -0.12596942 0.11534073 -0.2579825 -0.25167644 -0.34941074 -0.29428884
-0.21292463 -0.20416251 -0.032972272 0.2256171 -0.2115406 -0.028676415 0.053909857 -0.3296666
0.06052121 -0.30110747 0.2030188 -0.29784393 0.32921928 -0.13325317 0.24854499 -0.22342482
-0.1033471 0.19634178 0.24689941 0.012950499 -0.2051057 0.18244399 0.3638645 -0.03500478
-0.39376143 0.2315257 0.022291845 0.1742172 -0.34400025 0.05094174 -0.083030544 0.14725745
-0.34957728 -0.31725186 -0.1425431 -0.072939634 -0.31104916 -0.02441789 -0.31477553 0.29852086
0.0065055643 -0.0002578465 0.3529251 -0.29633254 -0.34549308 -0.26483515 0.05099843 0.10509832
0.15409967 0.17456152 0.056383822 -0.21565978 0.26158595 0.034174006 0.024885638 -0.28162244
-0.24139887 -0.35710478 -0.10197969 0.37605315 0.21843751 0.12370468 -0.20846218 0.27057564
0.23786895 -0.049075607 -0.012464189 -0.19759697 0.13443515 0.06469261 -0.26964334 -0.333698
0.29677075 0.07298042 0.14042921 0.2515889 -0.10376067 -0.35359544 0.043029513 -0.2320218

layers.0.W_att.weight f4 [128, 128]
00000000: e0b5 4cbd 5c08 09bc 78b6 253c 7361 6ebd
00000010: fa13 5ebd 306d 1e3d 8726 cb3c 674f 403c
00000020: 9678 5c3d 37a7 fbbc 2bda 94bc ad56 733d
00000030: 18bf 82bc 2b8b a3bd 4cdd 72bd c16d e1b9
00000040: b795 4ebd 67f0 663d 0db8 a2bd 86e2 ccbd
00000050: c214 b8bd 5e3b 893d 05ed 88bd f574 b63d
00000060: 0b4c e7bd 7cd9 333c eb69 ad3d 3ba4 fbba
00000070: 987d f33c 69e3 92bc e26c 6b3d 945c 5bbd
00000080: 2ce6 ab3d baa3 9b3d 1b4e 3ebd c94d 78bd
00000090: 5e11 61bd d5c4 d73c 54a0 063c 202e 333d
000000a0: 152b 48bd 653a a13c 16a7 c03d 6d04 fdbc
000000b0: 0dce 6e3d b45a be3c 50cb 3e3d 6ff6 453d
000000c0: 9ee6 043d 3d26 1d3d aa5e 633d dc88 b73d
000000d0: 6037 dbbc a233 05bd 7eba 63bd ee74 913d
000000e0: 722d e1bc 41be 8fbd a77e 883d e20f 213d
000000f0: 299a 9f3b 34d0 adbc db36 853d 2725 cdba
00000100: 7f1a 773d 6713 a4bd 03ec 143c 448b 88bd
00000110: 5d2f eabc 3cfe 883b 8ecc 4e3d 6d22 5ebd
00000120: 71f1 babd 79e5 8c3c 270f 92bd 7e87 963d
00000130: 3d74 8d3d 9696 5d3c 44e6 d2b9 b621 93bd
00000140: 2249 33bd 64b3 c5bd a77e b1bd dbb1 943d
00000150: ee33 033d 63a7 e8bc 6bf9 553d 4ab8 783d
00000160: 05fe fdbb b8f5 dbbc 05e4 9abc 3cc2 05bd
00000170: 159d 5bbc f553 cfbd 042e b7bd ae1b 143d
00000180: d31f 95bd 7dd2 0abd b4e9 90bc 28da afbd
00000190: 1d30 943d 09bd c13d ebaa 1d3d b725 0bbb
000001a0: 60fc c43c 427d c8bd fb4e b5bc 2830 a93d
000001b0: a2ae 1dbb 5f69 87bd 470d f0bb 3862 56bd
000001c0: abbc 823c bfa3 963d 7c2f acbd 6981 b3bd
000001d0: 4c84 75bd be8b 543d 63b4 68bd 5f74 ef3c
000001e0: edea 293d bd30 a13c 50f5 813d cd82 693c
000001f0: 8469 bebd 89d2 783d f78a 2e3c fcd7 86bd
00000200: 327c 523c 9a9b c0bd e93e 0dbd df1b 7abd
00000210: b5f5 9e3c 22b8 023d ba9b d4bc da4c 44bd
00000220: d8ad 78bd ac90 86bd 3dbf 223d f134 9bbd
00000230: 8a60 c1bc b20d 36bb a85b 953d eb7b 5cbc
00000240: 3d63 243d 8b66 dcbb a9de 9ebd 406f 05bd
00000250: f3ff 0dbd 3984 513d 0808 5c3d 0b48 fb3c
00000260: 97f4 deba a29a df3c 40cb 083d 8456 e73b
00000270: 30a7 1dbd 3312 973d 846a c63c 84ae aeba
00000280: 851b a4bc c5d5 6ebb 43be 75bd c9a5 923a
00000290: fdd5 99bd 88eb 5b3c bf97 3ebb 0bfb 973b
000002a0: c8a8 9a3d 1fe9 83bd 2cdb cdbd b712 493d
000002b0: 12d8 593c d52e 473d 6b26 893d 2762 cabd
000002c0: c34f cb3d f3aa acbd e2ea 9ebd be53 1abd
000002d0: 3172 cebb 7852 5c3d 69b5 9f3d 8d68 56bd
000002e0: 7951 83bd 73ae ecbc d295 d7bc b70b 463d
000002f0: 610f 0cbd a2b4 343d a976 5b3d 31dc c3bc
00000300: da9e 69bd 49aa 55bd 761b 55bc 03d1 94bd
00000310: ea62 923d fe60 893d ab22 c9bd 733c 443d
00000320: 9531 c23b 672d 393c dc9d 113d f2bb 35bd
00000330: 0e15 623d 820e e9bc 8dc8 bd3d 6f4b 683c
00000340: c1e5 ca3c 162e 2fbd 9f85 5c3d cd82 f8bc
00000350: 5acf 32bd 3ea1 a33c 0bb8 163d 2b61 503c
00000360: 3a58 e53c 65fa 47bd c446 86bd fcf6 ebbc
00000370: c7ba 833d 92e8 9d3d 97a5 8e3d 230d 5fbc
00000380: 058e c8bd 04f8 843d ef64 bd3d 01be 62bc
00000390: 8867 863d 2707 85bd 7bd3 e13b 1bb3 693d
000003a0: e459 84bb 6f53 e1bb d14e 47bd 9d31 5d3d
000003b0: 7267 91bd f428 aebd 8e75 35bd 17de 523a
000003c0: f34e 623d 117c ecbd 654d 2f3d 3f68 6cbd
000003d0: 1228 40bd eaf8 833c 39dc 34bd b0ce 28bb
000003e0: 8ca0 f43c db22 793d 51f0 823d dd11 0dbd
000003f0: c9b2 17bd 0370 363d 6038 c83b 0443 483d
-0.049978137 -0.008363809 0.010114305 -0.058198404 -0.05421827 0.038678348 0.024798645 0.011737681
0.053825937 -0.030719383 -0.018170437 0.059408832 -0.015960261 -0.079855286 -0.059293076 -0.00042997117
-0.050435748 0.05638161 -0.07945261 -0.100041434 -0.08988334 0.067007765 -0.06685833 0.089090265
-0.11293801 0.010977145 0.08467468 -0.0019198725 0.029722974 -0.017930703 0.057476886 -0.053555086
0.08393511 0.07599588 -0.046461206 -0.060621057 -0.054948203 0.026338974 0.008216936 0.04374516
-0.04886921 0.019681165 0.09406869 -0.0308859 0.058301974 0.02323661 0.046580613 0.04833072
0.032446496 0.038366545 0.0555102 0.08961651 -0.026759803 -0.032519944 -0.055597775 0.07102381
-0.02748749 -0.0701871 0.06664782 0.039321788 0.0048706722 -0.021217443 0.065046035 -0.0015651331
0.060328003 -0.08011513 0.009089473 -0.06667188 -0.028587038 0.0041806977 0.050488047 -0.05423205
-0.091280825 0.017199265 -0.07131796 0.07350062 0.06906936 0.013524672 -0.00040225883 -0.07184164
-0.043770917 -0.09653357 -0.08666735 0.07260486 0.032031946 -0.028400129 0.052239817 0.060722627
-0.0077512288 -0.026850566 -0.018907556 -0.03265594 -0.0134041505 -0.101234354 -0.08944324 0.03615921
-0.072814606 -0.033892144 -0.017689563 -0.08586532 0.072357394 0.09459884 0.03849308 -0.0021232197
0.024046123 -0.09789516 -0.022132387 0.08261138 -0.0024060388 -0.06611895 -0.0073258015 -0.052339762
0.015959105 0.07355451 -0.084074944 -0.087649174 -0.05994062 0.05189108 -0.056812655 0.029230295
0.04148381 0.01967656 0.06345618 0.014252377 -0.09297469 0.060747657 0.010653249 -0.065841645
0.012846993 -0.09404679 -0.034483824 -0.061061736 0.019404272 0.031913884 -0.025953162 -0.047924854
-0.060712665 -0.06570563 0.03973316 -0.07578457 -0.023605604 -0.002777916 0.07292873 -0.013457279
0.040133704 -0.0067260913 -0.07757313 -0.0325768 -0.03466792 0.051151488 0.053718597 0.030674001
-0.0017010149 0.027295414 0.03339696 0.007059874 -0.03848952 0.07376518 0.024220712 -0.0013327156
-0.020032654 -0.0036443335 -0.0599959 0.0011188324 -0.07511518 0.013422854 -0.0029082147 0.004638081
0.07551724 -0.06440949 -0.10051569 0.049090113 0.013296144 0.048628647 0.06696781 -0.09882002
0.09927323 -0.084310435 -0.07759644 -0.03767752 -0.006300234 0.053789586 0.07798273 -0.0523458
-0.06412024 -0.028891778 -0.026316557 0.048351016 -0.034194354 0.044117577 0.05357996 -0.023908706
-0.05703626 -0.05216435 -0.0130070355 -0.07266428 0.071477726 0.06707953 -0.098210655 0.04790921
0.005926321 0.011302329 0.035550937 -0.04436869 0.05519586 -0.0284493 0.09266768 0.014178141
0.024767758 -0.04276856 0.05383837 -0.030335808 -0.043654777 0.019974347 0.03679661 0.012718479
0.027996171 -0.04882278 -0.06556466 -0.028804295 0.06432109 0.07710375 0.069651775 -0.013613972
-0.09792713 0.06492618 0.09247767 -0.013839246 0.06562716 -0.06495505 0.0068916655 0.057055574
-0.004039036 -0.006876401 -0.04865915 0.054002393 -0.07099809 -0.08503905 -0.044301562 0.0008043958
0.055251073 -0.11547101 0.04279842 -0.057716604 -0.046913214 0.016109902 -0.044155333 -0.002575796
0.029861711 0.060824256 0.06393493 -0.034440864 -0.037035737 0.044540416 0.006110236 0.048892036

layers.0.phi_att.weight f4 [128, 128]
00000000: fcf8 97bd cfd0 893d e27b 38bd 0a4d 953d
00000010: bc2a 453d dfd7 8dbd 9e02 36bc a990 1e3d
00000020: 6579 cc3d 9bd7 113d c34b b4bd b31c 19bd
00000030: 9da4 3b3d 0d43 d33c 4c2e 3fbd c6e5 473d
00000040: cd28 023c b2ef fdbc ad13 fe3d 9931 303d
00000050: 311f 4b3d ab53 c03c 95f0 323d da2e c8bd
00000060: acfc 563b 3616 4bbd 6012 b0bd 8eb9 7abd
00000070: 9bac 89bc b8ae 713d 3cc8 8a3d 52b2 ddb9
00000080: 1bc9 093c a1ee c83c 47ed 5bbd 119d e5bd
00000090: a6cd 983b 3fe0 113d 791a 813d befd a6bd
000000a0: e030 abbd 9b18 963c 911f a2bc 1de0 993d
000000b0: 2a56 863d 1bc0 963d 4fbf 6cbd 1119 3a3d
000000c0: ea78 b63d baef 8d3d 695f 23bd 289e 97bd
000000d0: 363e 803d 1f49 f6bb 566d 093d 0157 71bd
000000e0: d717 60bd e1ea 0dbd e3c7 a83d d493 3d3c
000000f0: c80e 57bd 9b4c 84bd c4a8 333d fb92 493c
00000100: 3ab7 f63c 3737 423c cc54 b7bd ccdf af3b
00000110: 9b7b b53d e9e7 b9bb a54c d0bd 3721 d8bc
00000120: c9b0 513d d5a2 1d3d 048d fdbc 840d afbd
00000130: 4f72 993c fa44 333d 32a6 11bc bc4b 963d
00000140: ad64 6c3d 8282 933c 7e28 89bd 4b63 8abd
00000150: 2f6b f3bc edfb 013d 946d 593d 83ee 5e3d
00000160: a62c 35bd ac70 413d 1529 e7bc ebb8 793d
00000170: a399 1fbd fd72 43bd 31f5 7e3d 1e45 82bb
00000180: bdee 75bd 278a 723c ed88 e7bd 1708 8b3d
00000190: a54c d6bd 9c3c 87bc 2361 cbbc 93ff 97bd
000001a0: 01ad 6c3d 1696 263d d453 28bd b9cf fbbc
000001b0: 3fa7 fe3c 7ec7 623d bab5 8a3c 84c8 17bd
000001c0: d106 bcbd a933 80bd 0564 afbd f569 ba3d
000001d0: 8449 d93c 0d8a be3d bfb0 d3bc 9c02 0bbd
000001e0: 5ea1 f0bd ac78 2cbd 5fe4 923d c432 493d
000001f0: 3865 bfbd 6ade 353d ae78 c5bd 345c 723d
00000200: ef3f 1cbd e991 7dbd fa35 093c df01 b13d
00000210: 4b65 973d 2b40 be3d 1e2d 9fbd 6320 c8bd
00000220: 59f4 73bd 5573 343d b45a 083d 796f 9ebc
00000230: 6a15 0e3e 75d2 c93d 9cbe f2bd 6270 39bd
00000240: 33e1 8c3d d24f fd3c 2db8 ba3a 65d5 c63b
00000250: 6d98 913c e8f7 b7bc 523e 943c fec6 dd3d
00000260: ad59 49bc 4c64 893d 1e69 443b 4842 e23c
00000270: 3113 87bd fd06 94bd edd7 a6bd 4550 a5bd
00000280: 46c2 893c 422d acbd 9ad6 ccbd 7227 5d3d
00000290: 4e3a cabd ca48 77bd 93a8 0d3e b9cc 92bc
000002a0: e422 8dbc cddf 6e3d 3303 bfbc a487 083d
000002b0: 5078 153e e8cc c63d 2213 ff3d 1e88 5cbd
000002c0: c147 d5bd 3a41 493d fff4 6e3d 174c 863d
000002d0: 7396 b8bd 74da 80bd 8cb9 223d 3a37 67bd
000002e0: e655 d13c 5a32 b73d cee2 f63c ca0e 83bd
000002f0: 09b8 74bd 9b84 ad3c 7b8b 183d 6d04 2c3d
00000300: 4413 03bc c7c7 7dbd b2a3 8dbd 8b3d 5cbd
00000310: 262d 58bc b0ec 74bd db7b d73d d0a5 3bbd
00000320: 8a15 5c3d 3217 853d 8e6f b2bd 28c2 d7bc
00000330: f7f0 313d 5229 a83d 8ad5 b8bd 4e0b 05be
00000340: c196 6a3d 8c33 81bd 9bdd 4cbd 758e 623d
00000350: 152b c63c 1ff8 9bbd f7c9 21bd 22fb 8dbd
00000360: 01eb b73d a331 643d 6214 3cbd c656 173d
00000370: f1fa d03c 001c 853d 11f0 55bd c38a 3e3d
00000380: edbd acbd d37d 453d 48ab 5dbd 87f1 90ba
00000390: 1499 b5bd 662e 593d ac3a bc3d 7ace 37bd
000003a0: 8a65 dfbb 9bd0 763d c7f2 103d 6b27 92bd
000003b0: 69c9 91bd 658a 12be 03a2 f6bc 0794 50bd
000003c0: 5779 573d 585f f8bc 3689 f0bc 38d4 b3bd
000003d0: e7ef 893d a782 62bb 8c9a 913d d033 103d
000003e0: 3227 13bc 2865 933c 16d9 61ba 0767 e03d
000003f0: 9abb 603d 0e1f 1a3d 143d a73d 2e11 823c
-0.07420537 0.0672928 -0.04504002 0.07290085 0.048136458 -0.0692594 -0.011109022 0.038712177
0.09984092 0.035606008 -0.08803513 -0.037380885 0.045811284 0.025788808 -0.04667501 0.048803113
0.007944298 -0.030998085 0.124060966 0.04301605 0.049590293 0.023477396 0.04368647 -0.09774561
0.0032804413 -0.04958173 -0.08597255 -0.061212115 -0.016805938 0.059004515 0.06776473 -0.00042285264
0.008409764 0.02452785 -0.053693082 -0.11211599 0.004663187 0.03561425 0.063038774 -0.08153866
-0.083589315 0.01832228 -0.019790443 0.07513449 0.06559403 0.0736086 -0.057799634 0.04543406
0.08909781 0.0693049 -0.039885912 -0.07403213 0.06261866 -0.007516041 0.033551537 -0.058920864
-0.054710235 -0.034647826 0.0824125 0.0115708895 -0.05250433 -0.06459924 0.04386212 0.012303109
0.030116666 0.011853985 -0.089517206 0.005367255 0.088614665 -0.005673398 -0.10170869 -0.026383026
0.051193986 0.038485367 -0.03095103 -0.085475 0.018731264 0.043766953 -0.008889722 0.07338664
0.0577132 0.018006567 -0.066971764 -0.0675722 -0.029714195 0.031734396 0.053083017 0.05442668
-0.044232033 0.047226593 -0.028217832 0.060967367 -0.03896488 -0.047717083 0.06224555 -0.0039755246
-0.06004213 0.014803446 -0.113054134 0.067886524 -0.104638375 -0.016508393 -0.024826592 -0.07421794
0.057782177 0.040670477 -0.04109557 -0.030738698 0.031085609 0.05536603 0.016932357 -0.03705646
-0.091809876 -0.062598534 -0.08563999 0.09102241 0.026524313 0.09303675 -0.025841115 -0.033938035
-0.11749528 -0.04210727 0.071724646 0.04912068 -0.09345478 0.044401564 -0.096421584 0.059169963
-0.03814691 -0.06190673 0.008374685 0.08642935 0.07392367 0.09289583 -0.07772277 -0.09771802
-0.0595592 0.0440553 0.033289626 -0.019340264 0.13875356 0.098545946 -0.11852762 -0.045273192
0.06878891 0.03092185 0.0014245562 0.006067919 0.017772878 -0.022457078 0.018096123 0.108289704
-0.012289447 0.06708583 0.0029969881 0.027619496 -0.06595457 -0.072278954 -0.08146653 -0.08071951
0.01681627 -0.0840707 -0.100018695 0.053992696 -0.09874402 -0.06037215 0.13833837 -0.017919885
-0.017228551 0.0583189 -0.023316955 0.033332482 0.14596677 0.097070515 0.12454821 -0.05384075
-0.104140766 0.04913447 0.058339115 0.06557482 -0.09013071 -0.062916666 0.039727733 -0.056449153
0.025553655 0.08945151 0.030137446 -0.06399305 -0.059745822 0.021181395 0.037242394 0.04199641
-0.008000199 -0.0619581 -0.06915988 -0.05376963 -0.013194358 -0.059796035 0.105216704 -0.045812428
0.05373148 0.06498565 -0.087126836 -0.026337698 0.043442693 0.08211006 -0.09025104 -0.12992594
0.057272676 -0.0630866 -0.050016027 0.05531164 0.024190465 -0.07615685 -0.03949925 -0.069326654
0.0898037 0.0557114 -0.045917876 0.036947988 0.025510283 0.06499481 -0.0522309 0.046519052
-0.08434663 0.0482157 -0.054118425 -0.0011058309 -0.08867088 0.053022765 0.09190878 -0.044874646
-0.0068175243 0.060257535 0.03538778 -0.07136425 -0.07118494 -0.14310606 -0.03010655 -0.05092242
0.052605953 -0.030318901 -0.029362302 -0.08780712 0.06735211 -0.0034562738 0.071095556 0.035205662
-0.008981513 0.017992571 -0.0008615417 0.10957151 0.05486641 0.037627272 0.081659466 0.015877333

layers.0.phi_att.bias f4 [128]
00000000: 09bd efbd e4e3 1b3d d644 b03d 676b 0a3d
00000010: a7c7 02be 5b03 95bd c914 af3d 5015 273d
00000020: d91b 9abd 20b1 34bc 394f 6ebc cadf 723c
00000030: fad7 c43c d6c5 893d 86e7 423d 7e99 4ebd
00000040: 5c78 113d a4aa a03d 1060 5b3d fed6 d73b
00000050: 64b5 55bd 9278 71bd eeb3 3c3d 795c aabd
00000060: 775f ffbc 38f8 9d3d 3825 48bd 4841 bbbc
00000070: 387a 77bd 4ee6 19bd 2392 a4bd e11b 03bd
00000080: d648 80bc 049d e63c 2ac4 dbbd b994 11bd
00000090: 4b93 4f3d 4f2a fa3c 442d de3c ec0e a8bd
000000a0: a7f7 8bbd 5d0e d4bd aadd 813d 3f1e 84bd
000000b0: f9e0 b7bd 0e69 49ba acbb 963d b435 513d
000000c0: cee6 f43d 7e26 ecbb 8ef5 e83c ecc8 0abd
000000d0: 973f 1bbc 31e2 dcbc 4f2c 9a3d 9fc6 d13c
000000e0: 873f 98bd 5240 9cbd b580 963c f63d 883d
000000f0: 5c25 eb3d beae 02bc 2139 4a3c 0370 5dbd
00000100: 92bc 84bd 160b 9fbd b9a8 fb3c 8e3a 75bd
00000110: e9ab 40bd 9407 323d 438a 99bd 6049 0bbd
00000120: 0630 a23d 60d4 ecbd a6d8 a5bb 4f58 a3bd
00000130: 64e4 743b 3382 7abd 4aeb 7e3c 3a4a 2e3d
00000140: 0b72 8e3d e095 dfbc cc2e 16bd cf36 a43d
00000150: 5594 293d d365 a23d 6c55 ddbd f7c3 4e3c
00000160: 608a 063d 622c bcbc 69e4 263d d9b1 5b3d
00000170: 8657 b23d 714a a1bc 79aa acbb e2b5 57bd
00000180: 52e2 aa3d 788d 19bc a0b8 2e3d 37f4 56bb
00000190: c750 a63d 79c6 64bd a045 a1bd 2a40 abbd
000001a0: 9499 af3d af99 133d 922c 4d3d cb12 c1bd
000001b0: 158c 193d 1ad4 cc3c 3157 3dbd 5aab 5abd
000001c0: e77c 063c 517e 523d 3cc0 22bd 74de 803c
000001d0: fabe 843c fe48 983c c65f 86bd 41bb 49bd
000001e0: f58b 18bd 55a4 82bb 924e 273d a175 37bd
000001f0: 2c2a debc 867e c73c 9cd1 4a3d 5231 f4bc
-0.117059775 0.03805913 0.086068794 0.033793833 -0.12771474 -0.07276031 0.08548886 0.04079181
-0.07524843 -0.011028558 -0.014545255 0.014823863 0.024028767 0.06727187 0.04758408 -0.05043935
0.035515174 0.07845047 0.05355841 0.0065869084 -0.05217494 -0.058952875 0.04607003 -0.08318419
-0.03117345 0.077133596 -0.04886362 -0.022858277 -0.06041929 -0.03757315 -0.08035686 -0.03200901
-0.01565973 0.028151043 -0.10730775 -0.035542224 0.05067758 0.030537752 0.027121194 -0.08205971
-0.06834345 -0.10354302 0.06341107 -0.064510815 -0.08978457 -0.0007683196 0.07360014 0.051076606
0.11958085 -0.007206737 0.028437402 -0.03388302 -0.00947561 -0.026963325 0.075279824 0.025607405
-0.07433992 -0.076294556 0.01837192 0.06652443 0.11481735 -0.007976232 0.012342722 -0.0540619
-0.064812794 -0.07765786 0.030720102 -0.059870295 -0.047038946 0.04346426 -0.074970745 -0.034005523
0.07919316 -0.11563945 -0.005061227 -0.07975828 0.0037367577 -0.061159324 0.015559027 0.042551257
0.06955346 -0.027293146 -0.036665723 0.080182664 0.041401226 0.07929578 -0.108073086 0.012619964
0.03284681 -0.022970382 0.040745173 0.053636406 0.087081 -0.019688817 -0.0052693454 -0.05266369
0.083439484 -0.009372108 0.04265654 -0.0032799372 0.08120876 -0.05585334 -0.07874608 -0.08361848
0.085742146 0.036035236 0.050091334 -0.094274126 0.03748711 0.025003482 -0.04622573 -0.05338607
0.00820849 0.051389996 -0.03973411 0.015731074 0.016204346 0.018589493 -0.06561236 -0.049250845
-0.03724285 -0.003986875 0.040846415 -0.044789914 -0.027119718 0.024352323 0.049516305 -0.029808674

layers.0.W_p.weight f4 [128, 128]
00000000: b92e 7abc 5879 863c 1c34 9cbd b67f 27bd
00000010: 2aea 20bb 916f a43c 0291 eebc c058 ca3d
00000020: aa4b 82bb 8a87 463d 92cf 563d 1c3a 1cbc
00000030: 7b48 c53b 2644 bcbc a0f7 c63c 93d7 09bd
00000040: e536 ac3d 944c 3ebd 9472 9dbd cd11 2bbd
00000050: 851d f43d c59c 2bbd 6226 0fbd 9ea7 ee3c
00000060: 98e3 52bd 0a25 803d 728a abbd a7b0 df3c
00000070: 31d7 cbbc 39de 7ebd b9a5 83bd f1a6 1d3c
00000080: 458f a4bd c76c 3d3d 967e b93c ff7f a33d
00000090: e4f5 583d e737 79bd 3d6e 273d 70ce 64bd
000000a0: 7028 a9bd 2954 0b3d 024f 7ebd 4717 dd3b
000000b0: 1c43 a1bc d91a 2c3d db0f b2bd 401a b2bd
000000c0: ec28 a43c e6b9 9cb8 b9ee b4bc 5ac4 c4ba
000000d0: f048 26bd 26b2 a53d 4122 ed3c f223 fe3c
000000e0: 8f62 953d de9a 453c 0ba5 09bd 5c76 ca3d
000000f0: 788f 303d 8ac6 673d 8442 9a3d 3de3 4a3c
00000100: 58ea 78bd 449c a6bd 63c1 ff3c db93 8f3d
00000110: 81f1 59bb bcfb 0b3d 4b8c 96bb a95f ac3d
00000120: e85d b73c ef3b 0bbd e51c af3c 1045 d8bc
00000130: fe36 82bc f893 a2bd 0835 94bc 496d ad3d
00000140: ecb7 2bbd c3aa 7a3c feba adbd b196 5c3c
00000150: 0daa 963d d5d0 b23d 3b2b 373d be10 e83c
00000160: b77b a2bd 7eb1 13bd 2848 eabc d13b f43b
00000170: 724f 23bd 882f 82bd 0ff1 623a b4bf 913d
00000180: 7a85 023d 7dc5 bbbc 8cb1 8c3c 061c 403d
00000190: 178f 0a3d 2d42 f2bd 7f49 cebd 244a aabc
000001a0: a150 47bd 2440 723d 008e 763d ee30 bfbc
000001b0: 148a 0bbd 2387 43bd 250e ff3b 4f7a a53d
000001c0: 73c1 573d 0ad3 623d 9518 983d 53c1 83bc
000001d0: d974 b7bc 7616 cdbd c60d eabd f5ef 3ebd
000001e0: 197c e6bc e290 b0bd 1550 8f3d d210 97bd
000001f0: 8711 bb3d 7cb7 b43d a813 93bd 567e 883d
00000200: 6158 763c 993d 89bd 132d 7d3d 36e4 73bc
00000210: bfea 88bc 6af0 84bc 403d 8dbd c804 953d
00000220: 6486 bebd f01c d63c 7227 39bd e226 723d
00000230: e1c9 c23d e1b1 b2bd c688 7b3d 67ca 9ebd
00000240: 5fc6 623c 5577 693d 898e 8fbd c71b b33c
00000250: d34b 2a3d 209a a83d 4df4 db3c e628 6e3d
00000260: 670a c03b b962 e9bb 6461 733d 3dda 9e3d
00000270: 180f 03bd 4374 7fbd 5152 1b3c b7da 223d
00000280: 1f9e 32bd b470 493d 4bde 323d 8142 393d
00000290: b438 4f3d 7e66 73bc 1c19 583d f775 25bd
000002a0: 5bd0 6fbb cf4a 923d 7bbf b9bd 07f4 c73c
000002b0: 3bef 4b3d 7148 cf3c 904a 983d 7523 1cbd
000002c0: 7687 efbc edaa a1bd 2626 81bd 4acc 883d
000002d0: 370b 063c e60e 95bd 80c4 16bd e1a2 89bd
000002e0: a02f 873d 6fee c7bd b3fd 913c d064 78bb
000002f0: 0ffc debc 0645 843d f56c d1bb 251e d9bb
00000300: 6694 893d 0e41 2b3d b0d2 503d bc4b 773b
00000310: ad6f 1a3d 1b45 f6bc 4a16 d43d 72eb 753d
00000320: 4e1a 1c3d 7a56 a53d ffe7 8abd 1f1a 873d
00000330: 69e8 3cbd 8e0f 4a3d c051 c7bb 912a fb3b
00000340: 44d2 bb3c 644c c33d 4943 dbbc 4932 9a3d
00000350: 1cc2 1dbc 6726 49bc d922 aebd 06de 573c
00000360: fcd0 b23d 23f7 46bd c1e1 1fbd ec04 90bd
00000370: 8e9f cbbc 5072 2abd d408 45bd acf8 503d
00000380: f4ac 4dbd c128 76bd 6042 993d 5e0c 83bd
00000390: 4a28 8c3d 493c 8dbd 8b7d 0a3d 264f 963d
000003a0: afa6 94bb b85a 7dbd 4f81 98bd b392 59bd
000003b0: a1ff 8bbd 85de 0fbc fdb5 5d3d eb1e b83d
000003c0: 865d 4c3d ca96 953c 0119 733d 29ca 0dbc
000003d0: e97a b0ba cf01 a038 5900 c4bc 69e4 633a
000003e0: 86ce 6fbd eb96 90bd b1f4 c13c e2d9 30bc
000003f0: fcbf 843d 4821 b6bd 2b29 81bc e47c 153d
-0.015269929 0.016415283 -0.076271266 -0.04089328 -0.0024553635 0.02007273 -0.02912188 0.09880209
-0.003976305 0.048469104 0.05244405 -0.009535339 0.0060206032 -0.022981714 0.024287999 -0.033652853
0.08408908 -0.04645975 -0.0768787 -0.041765023 0.11919693 -0.041897554 -0.034948714 0.02913266
-0.05148658 0.06257065 -0.08376016 0.027305914 -0.024882885 -0.062223647 -0.064280935 0.009622321
-0.08035139 0.046246316 0.022643369 0.07983398 0.052968875 -0.06084433 0.040876616 -0.055860937
-0.08259666 0.03401581 -0.062087066 0.0067471596 -0.01968532 0.04201779 -0.086944304 -0.08696413
0.020039044 -7.473286e-05 -0.022086488 -0.0015012131 -0.040596902 0.0809062 0.028946998 0.031023
0.07294189 0.012060849 -0.033604663 0.098858565 0.043105572 0.056585826 0.07532218 0.012383279
-0.060770363 -0.08135274 0.031220144 0.07010623 -0.003325552 0.03417562 -0.004594361 0.08416683
0.022383645 -0.033992704 0.021376083 -0.026400119 -0.015895363 -0.07938379 -0.018091694 0.0846811
-0.04192345 0.015299502 -0.084829316 0.013463662 0.07356653 0.08731238 0.044718962 0.028328296
-0.07933753 -0.03605794 -0.02859886 0.0074534197 -0.039870687 -0.06356722 0.00086571363 0.071166426
0.031865574 -0.022921318 0.017174505 0.046901725 0.033827867 -0.11829028 -0.10072612 -0.020787306
-0.048660878 0.0591432 0.060194016 -0.023338761 -0.03406723 -0.0477363 0.0077836686 0.08079969
0.052674722 0.055377044 0.07426564 -0.016083395 -0.022394584 -0.1001405 -0.11428408 -0.04661556
-0.028135346 -0.08621384 0.06997696 -0.07376255 0.091342025 0.08824059 -0.071814835 0.06664722
0.01503572 -0.06701202 0.061810564 -0.014885953 -0.016713498 -0.01622792 -0.06896448 0.072763026
-0.09302977 0.026136845 -0.045203634 0.059119113 0.095111616 -0.08725334 0.061409734 -0.07753449
0.013841241 0.05699857 -0.07009608 0.021863831 0.041576218 0.08232522 0.02684989 0.058144473
0.005860615 -0.0071223644 0.05941905 0.077564694 -0.031996816 -0.062366735 0.009480075 0.039759364
-0.043607827 0.049179748 0.043669026 0.04522944 0.050591186 -0.014855979 0.05275832 -0.040395703
-0.0036592695 0.07143175 -0.09069725 0.024408353 0.049788695 0.025303097 0.07436097 -0.038119752
-0.029239397 -0.0789393 -0.06306104 0.0667959 0.008181385 -0.07278232 -0.03680849 -0.0672052
0.066008806 -0.097622745 0.017821169 -0.0037901886 -0.0272198 0.06458478 -0.0063911625 -0.006625908
0.06717758 0.041810088 0.050982177 0.003773435 0.03770416 -0.030062249 0.10355814 0.06003899
0.038111024 0.08073135 -0.06782531 0.06596779 -0.04612008 0.04933124 -0.0060827434 0.0076649864
0.02292741 0.09536055 -0.026765483 0.075291224 -0.009628799 -0.012277222 -0.085027404 0.013175493
0.08731267 -0.04857553 -0.039033655 -0.07032189 -0.024856355 -0.041612923 -0.048104122 0.051018402
-0.05021377 -0.06009746 0.07483363 -0.06398843 0.06843622 -0.06896264 0.033811133 0.07339315
-0.004536472 -0.061854094 -0.07446539 -0.05311842 -0.06835867 -0.00878108 0.054128636 0.08990272
0.04989388 0.018260378 0.059350017 -0.008654156 -0.0013464364 7.6297314e-05 -0.023925947 0.00086933986
-0.058546565 -0.07060035 0.023676248 -0.010794135 0.064819306 -0.08893067 -0.0157667 0.036496058

layers.0.W_p_prime.weight f4 [128, 128]
00000000: 5250 53bb 9a76 bd3c 9e7b 403c 8af8 373c
00000010: ef16 8bbd d4cc 15bd 456d 3c3d 97e1 cb39
00000020: b471 2d3d ca62 af3c baaa 5b3c 6bdf a63d
00000030: d231 a2bd 796b a03d f36c b43d 8ba7 a93c
00000040: eff4 8abd 92bc 863b 061a 2a3d 9fc4 863c
00000050: 6a6d 413d 5125 bcbd ef83 1dbd 1ba2 9c3d
00000060: fae1 8ebd 7e77 f4ba fc2c 953d a71c 72bc
00000070: 7e01 493d 72f3 b13d e215 9bbc 2a8b 12bd
00000080: f023 f9bc 9e91 68bd 01b2 e7ba 4474 063d
00000090: be9c d03c 35a8 b73d 3c7a 793d d867 30bd
000000a0: 98c5 a0bd 7cbe 1c3c fccf c1bd 0e58 433d
000000b0: ec9e 563c f964 be3d bebc 623d f8ce 5a3c
000000c0: 011f 11bc 0dff 7ebd 4845 91bc 929d 2a3d
000000d0: f4af c93c 0504 0cbd 63d5 2f3d 78cb 083d
000000e0: f7e2 c43d ce85 8dbd 3684 e43c ac87 01bd
000000f0: faca d13d 5ca2 69bd 0c59 db3c 84a5 9f3d
00000100: c04e b1bd c203 473d 954d 78bd fa0c 59bc
00000110: c313 a8bc d8dc 413d 4d0b 463d f738 6cbd
00000120: 5e09 39bd 6ac9 6abd 8722 a0bd 4b40 95bd
00000130: 931a 61bc 18af df3d d3e0 853d a8a7 5f3d
00000140: 194c 15bd f505 cb3c d9bc 583a 32b2 933d
00000150: df07 703b dbba 1dbd 84a5 ce3c d82c 98bd
00000160: 0ab8 3c3d cf88 b5bc 9171 763d 6d0a f83c
00000170: 7f92 4dbd a7e0 58bd caa6 94bb 927b 95bd
00000180: df9d 34bd cbb0 2abd fae7 81bc 50a6 d13c
00000190: 825a 0bbd f09a 0abd e0d2 3c3d d4bf 8a3c
000001a0: 87c1 c73c 06da afbc 58b0 d93c 974c d0bc
000001b0: 93a8 ecbc c9ad bb3c fc01 a83c 722d ef3c
000001c0: 055f 7b3d c1c3 96bb 857a b5bc ffd8 acbc
000001d0: 718f 673b b028 c93c 2073 f73b 6446 d03c
000001e0: 4ccc a13d 6e99 b13d 1550 253d e349 acbd
000001f0: 2407 f0bc 80ab 53bd c75d a2bd 3e03 3abd
00000200: a2fa 193b 2c18 8fbd 395f 8d3d 0dca 8fbc
00000210: f042 20bd b732 803d cf18 2dbc 007d 173d
00000220: 270b b7bd d033 5a3d 85b5 db3c 9bfd 003c
00000230: f4cd 4d3d 2a45 75bc 1816 93bd fa7b 923d
00000240: 3a65 bebd a6f8 ec3c 5e50 8e3d 204f 673d
00000250: 872f 21bd 7f3e 05bd 33da 5f3d 12f6 8fbd
00000260: 7dd2 fd3c 20d5 35bc 1047 a1bc 3716 8c3d
00000270: b65c d13c 28c5 33bd d9d9 f0bc 714e 57bd
00000280: b2a3 86bd 4b15 7f3d 2f67 f3bc 49d5 753d
00000290: 5078 aa3d a068 683d a349 803d e97f 96bd
000002a0: 1595 8ebd 245f 00bd 18a3 923d 5f86 eebc
000002b0: 3a03 7b3d 298f 95bd fc5e d6bc 4777 90bd
000002c0: e216 5c3d e1d9 263c ed43 043c c8a4 c4bc
000002d0: 8a9d 153d af45 47bd 2d1a 50bc 50b3 073d
000002e0: 5650 b73d bf9c 1dbd 15a7 99bd 4459 28bd
000002f0: 567a b73d 58a6 07bd 5865 b23d 60e3 9b3d
00000300: 5a30 49bd 9b91 92bd 918d d03c f363 0bbc
00000310: 6956 173d c262 52bd 65dd fdbc 2504 39bc
00000320: 0588 6fbc 906a 563d a6ad 41bd f723 07bc
00000330: 4ca8 d63a 7836 403d 4a18 88bd ddcb 923c
00000340: 183f babd 5410 94bd 05cb 763d 7757 7dbc
00000350: 7b28 9b3d 10f0 df3a f32a d03c d80a 12bd
00000360: 90ff a03a c3ea f43c d97d c9bc 82fd d1bd
00000370: f3f8 6e3c 7c75 1dbd 6dc8 343d bdbb 3fbd
00000380: f608 8cbc 171b 3ebd a431 d9bb d7d7 633d
00000390: e826 d53c 92fe 0f3d d867 3fbd 5ba6 16bb
000003a0: f470 873d 682d b43c e1a1 093d 0375 293d
000003b0: 7e58 4abd 910f cfbc 41aa 343d db58 f2bb
000003c0: 038b bd3d 6d95 5bbc 81cc d4bc cae7 1b3d
000003d0: 7af9 98bc 5de8 8bbc 69b2 eabc 1a48 0abd
000003e0: 43e7 80bd bd82 753c ba0f 883c 086d f2bc
000003f0: 3ccf 523d a806 42bd 0b5f 9d3d 1b6e 3d3d
-0.003224392 0.023127843 0.011748223 0.01122869 -0.067914836 -0.036572292 0.046002645 0.00038887255
0.042344764 0.021409411 0.013407404 0.08148082 -0.07919659 0.07832999 0.08809843 0.020709774
-0.067849986 0.004111835 0.041528724 0.016451178 0.047223486 -0.09186805 -0.0384559 0.07648107
-0.06976695 -0.0018651334 0.07283971 -0.014777339 0.04907369 0.08689012 -0.018931333 -0.03577725
-0.030412644 -0.056779496 -0.0017676951 0.032825723 0.025465365 0.0896763 0.060907587 -0.043067783
-0.07850188 0.009566899 -0.09463498 0.047691397 0.013099413 0.09296603 0.05535578 0.013355009
-0.00885749 -0.062254954 -0.017733231 0.041654177 0.024620034 -0.03418352 0.04292811 0.033397168
0.096136026 -0.06910287 0.027895074 -0.031623527 0.10243793 -0.057039604 0.02677586 0.077952415
-0.086575985 0.048587568 -0.060620863 -0.013247723 -0.020517236 0.047329754 0.04835062 -0.057671513
-0.04517495 -0.05732099 -0.078190856 -0.072876535 -0.013739246 0.10922068 0.065370224 0.05460325
-0.036449526 0.024783114 0.00082678866 0.072117224 0.0036625785 -0.038508277 0.025225408 -0.07430428
0.04607395 -0.022159962 0.0601669 0.030278409 -0.050188538 -0.05294862 -0.0045364844 -0.0729896
-0.04409587 -0.04167251 -0.015857685 0.025592 -0.03402186 -0.033839166 0.046099544 0.016937174
0.024384273 -0.021466266 0.026573345 -0.025427146 -0.028888976 0.022910016 0.020508759 0.029196475
0.061369915 -0.0046009724 -0.022153148 -0.021099566 0.00353333 0.024555534 0.0075515658 0.02542419
0.07900295 0.086718425 0.040359575 -0.0841253 -0.02930028 -0.051677227 -0.07928043 -0.04541325
0.0023495336 -0.06987032 0.06902928 -0.0175524 -0.039126337 0.06259673 -0.010564997 0.036984444
-0.08937674 0.05327207 0.026819954 0.007872964 0.05024524 -0.014970103 -0.071819484 0.07152553
-0.09296651 0.028927159 0.069489226 0.056471944 -0.039351966 -0.032530304 0.05465145 -0.07029356
0.030984158 -0.011098176 -0.019687206 0.06840175 0.025556903 -0.043889195 -0.029400753 -0.052565042
-0.06574191 0.062276166 -0.029712288 0.060017858 0.08323729 0.056740403 0.06264045 -0.07348616
-0.06962029 -0.031340733 0.07160014 -0.029116808 0.061282374 -0.07302696 -0.026168339 -0.07054
0.05373276 0.010183782 0.008072835 -0.024004355 0.036527194 -0.04865044 -0.012701553 0.03312999
0.0895087 -0.038479563 -0.075025715 -0.041100755 0.089588806 -0.033117622 0.08710736 0.07611728
-0.049118377 -0.07156678 0.02545813 -0.0085077165 0.03694764 -0.051363714 -0.030989358 -0.011292492
-0.014619832 0.05234772 -0.047284745 -0.008248321 0.0016377061 0.046926945 -0.06645258 0.017919475
-0.090940654 -0.07229677 0.06025221 -0.015462748 0.075760804 0.0017085094 0.025411105 -0.035654873
0.0012283195 0.0298971 -0.024596142 -0.10253431 0.014585721 -0.03844212 0.044136453 -0.0468099
-0.017094117 -0.046412554 -0.006628232 0.055625763 0.026019529 0.035154887 -0.046729892 -0.002298734
0.06613341 0.021994308 0.033601645 0.041371357 -0.0494008 -0.025275977 0.04410768 -0.0073958463
0.0925503 -0.013402325 -0.025976421 0.03806285 -0.018673647 -0.017078573 -0.028649526 -0.033760168
-0.0629411 0.014984784 0.016609062 -0.029593006 0.051467165 -0.04736963 0.07684144 0.046247583

layers.0.f_def.weight f4 [1, 128]
00000000: 0b36 06bc 8ff6 453c a9f2 9e3d a1fb ebbc
00000010: 0bcb 083d db86 773c f76f b8bd 0be6 033d
00000020: 4a7d 963d c4a4 b43c fe2d abbc a0b9 c5bd
00000030: bf8b 9a3d d98a 6b3a 3a6c 61bd ee86 2dbe
00000040: 65a3 b23c 130a 233c 9021 b3bd 35c0 cbbd
00000050: d65a bb3d 217d 0c3e e219 03be 54f1 4fbd
00000060: f1e6 023e 8c0c 24be 003a cf3d 52a8 f03c
00000070: d5b3 d33b 95e9 363d 91bf 19be 4109 893c
00000080: 2dc1 503d d4cf b13d 2fb9 343e c3a0 c53d
00000090: 4b79 583c 267d ae3d 4098 c8bc 90a2 363e
000000a0: 8f85 063d f12f 94bd 1609 6a3d 1399 8c3d
000000b0: b9cc 353d 1cce d5bc 7833 f23d 5c36 fc3d
000000c0: 0c57 28be 47e4 f6bd ef16 8bbd 72de fbbd
000000d0: 23b5 813d e5d7 243d b4fd 26bd 6c0c ccbc
000000e0: 2c42 ba3d 1ebd c3bc 581e 1cbb 0197 43bd
000000f0: 9ba8 31bd 752b 4f3e 011c 08bd c88b a13c
00000100: 930d 803c ec69 28be 752a 443d 45f1 3a3d
00000110: 90c7 003b 8ac2 a3bd 1834 b53c f6bb 5f3b
00000120: cad3 f03d f327 ff3d 3948 ebbd b39d de3c
00000130: e395 ee3d 9b76 703d 18b6 c3bc 018a 53be
00000140: 6059 903d 92c5 1c3d a8fb 943a ba5b 6cbd
00000150: 8a40 973c 0ea7 c1bd 300a d93d d0b8 e2bd
00000160: 54c9 b23d 6b53 9fbd 2710 8abd a428 c5bd
00000170: 3f61 4e3e b523 29bd 63c3 9cbd c608 0dbd
00000180: cf57 e83c 5121 d23c 9a75 70ba 741c d8bd
00000190: 02d8 debc 4b11 3e3d 7b34 ef3d 4ae7 863c
000001a0: 47df c1bd 26bd 963b 8811 e1bd 27d1 30bd
000001b0: c16b f5bd f6ff abbd 8cef 6dbc 3c99 0cbe
000001c0: 56bb 2bbd 7dc5 0f3e 0d69 533d 062a bcbb
000001d0: fdba 613d 4e84 96bd 7c54 a3bd 4184 a1bd
000001e0: 2b5f 963d 8c29 bc3d 36da fdbd 1e7d f23d
000001f0: 5838 8bbd e780 8e3c 27ca 033e f2e6 103e
-0.008191596 0.01208271 0.077611275 -0.02880651 0.033396762 0.015107836 -0.090057306 0.032201808
0.07348116 0.022051223 -0.020895954 -0.09654546 0.07546186 0.00089852285 -0.055034854 -0.16946003
0.021806428 0.009951132 -0.08746636 -0.0994877 0.09148185 0.13719608 -0.12802842 -0.050767258
0.1278341 -0.16020411 0.101184845 0.029377136 0.0064606466 0.044656355 -0.15014483 0.016728045
0.050965477 0.08682218 0.17648767 0.096498035 0.013212512 0.08519964 -0.024486661 0.1783545
0.032842215 -0.072357066 0.05713757 0.06865134 0.044384692 -0.026099257 0.11826223 0.12315056
-0.16439456 -0.12055259 -0.067914836 -0.122982875 0.06333377 0.040244956 -0.040769294 -0.024908267
0.090946525 -0.023893889 -0.0023821797 -0.04775143 -0.043373685 0.20231421 -0.03322983 0.019719973
0.015631473 -0.16446656 0.047892053 0.04564025 0.0019650199 -0.0799609 0.022119567 0.0034139133
0.117591456 0.124587916 -0.11488385 0.027174806 0.116496824 0.05870686 -0.02389054 -0.20658113
0.07048297 0.038274355 0.0011366503 -0.057704665 0.018463392 -0.09455691 0.10597646 -0.110704064
0.087298065 -0.077795826 -0.06741362 -0.09626892 0.20154284 -0.04129382 -0.076544546 -0.034432195
0.028362183 0.025650652 -0.00091727974 -0.10552302 -0.02720261 0.04640321 0.11679932 0.01646771
-0.09466415 0.004600185 -0.10989672 -0.043168213 -0.11983443 -0.0839843 -0.014522444 -0.1373033
-0.041926704 0.1404018 0.051613856 -0.0057423143 0.055109967 -0.07349454 -0.079750985 -0.078865536
0.073423706 0.09187612 -0.12395136 0.118402705 -0.06797856 0.01739545 0.12870084 0.14150599

layers.0.W_self.weight f4 [128, 128]
00000000: f865 9abd bdf9 1ebd e57a 193d aa41 31bd
00000010: e16b 39bc 0e06 c23c 8f31 01bd 5010 98bb
00000020: 19cc df3a 9ed8 ef3c c406 76bd 6e3c 03bc
00000030: 6295 ab3c 223d 0bbd 7bbb 8bbd fdd2 6eba
00000040: 024b 0ebd b799 9c3d 1432 55bd ace5 ac3a
00000050: b340 1abd 4299 aa3d 6f5c 7d3d f841 9cbd
00000060: 7b52 6b3d 3ba4 ebb9 381c 423c 867b e63c
00000070: 63d2 33bc d0a7 413d f209 413c 2ec2 803d
00000080: e16c 30bc 8a4d 4b3d 1503 77bc 60ee dabd
00000090: 80cf b0bc dc53 f53c 868d 1b3d 2dfd e4bc
000000a0: bc73 a83d bcb3 603b b0b0 773d 9210 3abd
000000b0: 4bdd 8c3c 7f11 c4bc fccb 78bd 97bf ff3c
000000c0: 3762 d7bc 895e 3bb8 4068 0e3d 6970 c13b
000000d0: 73aa 3e3c d94e 0a3c 7c79 b43d cd1c 8e3d
000000e0: 0c99 e2bd 0a92 1cbb ceb2 813d 0b1f 533a
000000f0: f47e 493c 3718 79bd 0f5a 8b3d aab7 683d
00000100: d113 53bd efa7 4e3d 9818 d6bd 6017 93bc
00000110: b039 16bd c831 4fbd e1aa 8b3d b399 a53d
00000120: 6a21 a9bb e055 b43d 3d09 c73c 7300 cabc
00000130: d704 47bd a54e 83bc 5236 603c 8cf0 b0bd
00000140: b9d5 2dbd b8ff dabb d2ab 403c f369 353c
00000150: 7ceb 76bd 7e10 77bb 65bf a63d ece6 45bd
00000160: 6d18 53bd 63f9 b53d 0b71 0d3d b6e7 183d
00000170: 0828 85bd 92e7 a83c 28f0 b03d 7487 de3c
00000180: 3d8f bebc bc0b d13c 24c4 b63c 63d2 d83c
00000190: 0fc2 ec3c fe5e 93bd fb5d 1c3d 120d 6b39
000001a0: 6734 c53d 5996 603d 1210 78bd 5f41 9ebd
000001b0: 53d8 55bc d222 65bc f725 14bd d8e1 22bd
000001c0: 9ea0 d3bc 8588 623d ce50 ecba 3fa8 b73d
000001d0: 18da 5dbc 8863 9f3d 6559 8a3d b348 c23d
000001e0: 0951 6dbb 5e50 c1bd 1926 913d 3e3c 523d
000001f0: f2bd 3d3d b700 a7bd dd25 0bbd aa78 5cbd
00000200: bf53 0c3d 54fc 533d 478e 243d eb04 853d
00000210: f0d3 f93d 0305 13be e26e 8e3c a693 813c
00000220: 7fee f63c e220 47bc c8d1 bebb bb89 a43d
00000230: 4f21 cf3c ccb5 b73b bfa4 9abd 06b2 433d
00000240: d071 88bd 7b47 413d 1612 e53c b811 0abd
00000250: 32a9 93bd 0516 6abd b3c6 83bd a05b 79bd
00000260: 512f 22bd adb9 ccbd 6493 ff3c 3da1 c13d
00000270: 6fa4 bcbc 4e1e 893d 6a47 993c 7d36 6abd
00000280: 9cf5 843d 81b4 f0bd 922c e4bc 1f2e 99bc
00000290: d12c 9d3d 854d a8bb e3da 913d d86d 913c
000002a0: 4d90 25bd 89ce 4bbd 0f09 fb3c b9ef 943d
000002b0: a2f7 383c af62 953d d906 a2bd be3a 6bbd
000002c0: a22a 5a3d 7542 69bd d8d4 86bd 82a5 0f3d
000002d0: 49f2 ac3c c46e e13d 1904 cd3c bf4e ce3d
000002e0: 28dc 313d bd7e 1abd da13 51bd c2b1 41bd
000002f0: 9873 ba3d 38af 56bd 03ee 94bc 4d32 083e
00000300: 4055 d83d d02c 9fbd 8461 ae3d f4e9 453d
00000310: c51a 323d f05f 10be 7aa3 0b3d ea31 31bd
00000320: 28b2 503d ea8e bbbc a4a9 823d 6909 543d
00000330: e2c4 cb3d 841d 603d b8b9 803d e494 9bbd
00000340: 4fc4 d63c 244d d2bc 6242 753d e844 a73d
00000350: f684 153d 343f 613d f473 463d aa46 2fbd
00000360: 1ca6 a8bd 5fcf eebc 1ed1 64bd 1ce7 8dbd
00000370: 0fd9 973c 6193 6e3c f599 a4bc 6d3a 8e3d
00000380: 5701 2cbd 3d40 9fbd 3a41 943d f113 68bd
00000390: 6bf2 483c 06f8 0d3d 2f70 cd3c 98f9 c13c
000003a0: 8003 dd3a 553f b53d 0fb1 8ebd dd64 3dbd
000003b0: c90d e5ba 8045 42bb 82a0 c0bd 5d03 cbbc
000003c0: b74e 9e3d 9ff6 c43c ec24 9fbd 966e 093d
000003d0: 5b16 5b3d b225 34bd ee42 de3b 842d 8ebd
000003e0: 12a8 483c 4b53 6abd 018f 08bd 7000 7cbd
000003f0: a086 f8ba d932 843c 43c6 753c f3e3 95bd
-0.0753898 -0.038812388 0.037470717 -0.043275513 -0.011317224 0.023684528 -0.031541403 -0.0046406165
0.0017074376 0.029278096 -0.060065046 -0.008010013 0.020945255 -0.033993848 -0.068228684 -0.0009110419
-0.0347395 0.07646506 -0.05204971 0.0013191006 -0.03765936 0.08330013 0.06185573 -0.0762977
0.057451706 -0.00044945054 0.011847548 0.028135072 -0.010975453 0.04727918 0.011782156 0.06287037
-0.010768146 0.049634494 -0.015076418 -0.10689998 -0.021583319 0.029947214 0.037976764 -0.027952755
0.082251996 0.0034286818 0.060471237 -0.04542596 0.017195364 -0.023934124 -0.06074141 0.031219287
-0.02629195 -4.4672317e-05 0.03476739 0.005903293 0.011637318 0.00844165 0.08812234 0.06939087
-0.110643476 -0.0023890757 0.063329324 0.0008053637 0.012298334 -0.06081411 0.06804287 0.05681578
-0.05153257 0.050453123 -0.1045391 -0.017955482 -0.03667611 -0.050584584 0.06819702 0.080859564
-0.005161454 0.08805442 0.024296397 -0.024658417 -0.0485886 -0.016028712 0.013684826 -0.08639631
-0.04244015 -0.006683316 0.011759715 0.011072624 -0.06028317 -0.003769904 0.08141974 -0.048315927
-0.051536966 0.08885457 0.034531634 0.03733035 -0.06501776 0.020618234 0.08639556 0.027164198
-0.02326166 0.02551829 0.022310324 0.026467508 0.028901128 -0.07195853 0.038175564 0.00022416216
0.096291356 0.054830883 -0.0605622 -0.07727312 -0.013052064 -0.013985353 -0.03616902 -0.039766163
-0.025833424 0.055305976 -0.0018029453 0.08967637 -0.013540767 0.07782656 0.06755332 0.094865225
-0.003621163 -0.09439157 0.07087345 0.051326983 0.046323724 -0.08154433 -0.033971656 -0.05382601
0.034259554 0.05175431 0.04017475 0.06495079 0.12198627 -0.1435738 0.017386857 0.015817475
0.03014302 -0.012153836 -0.0058233477 0.080340825 0.025284437 0.0056063887 -0.07550954 0.0477772
-0.06662333 0.04718731 0.027962726 -0.033708304 -0.07210006 -0.057149906 -0.06434383 -0.060878396
-0.039595906 -0.09996352 0.031198211 0.09454582 -0.023027627 0.06695233 0.01871081 -0.05718087
0.06492159 -0.117531784 -0.027853284 -0.01869875 0.07674564 -0.005136194 0.071218275 0.017752573
-0.04042082 -0.049757514 0.030643968 0.07272286 0.011289509 0.07294213 -0.07911462 -0.057429068
0.053263314 -0.056948144 -0.065835655 0.03506995 0.021111624 0.11007455 0.025026368 0.100736134
0.043422848 -0.037718523 -0.051044323 -0.047288664 0.09104079 -0.052413195 -0.0181799 0.13300438
0.10563135 -0.07772219 0.085146934 0.04831882 0.04348256 -0.14099097 0.03409145 -0.043260492
0.050951153 -0.022895295 0.06380013 0.051766787 0.09949662 0.05471565 0.06285423 -0.07596758
0.026216654 -0.02567155 0.05987776 0.0816744 0.036503755 0.054991916 0.048450425 -0.042792
-0.08234808 -0.029151617 -0.055863492 -0.06928846 0.018536119 0.014561505 -0.020092944 0.069447376
-0.041993465 -0.07775924 0.072390035 -0.056659643 0.012264828 0.03466036 0.025077907 0.023678586
0.0016862005 0.0884997 -0.06967365 -0.04623877 -0.0017475422 -0.0029643476 -0.094056144 -0.024781877
0.077298574 0.02404338 -0.07770714 0.03355273 0.053488117 -0.04398126 0.006782881 -0.06942275
0.012247102 -0.05720834 -0.033339504 -0.061523855 -0.001896102 0.016137527 0.015000883 -0.073188685
