refined_no_rank_loss_best.pth (torch, 887704 bytes, 35 tensors)

input_norm.weight f4 [7]
0	0x3f7549b9	0.95815617
1	0x3f712eea	0.9421221
2	0x3f70d3de	0.94073284
3	0x3f8015e8	1.0006685
4	0x3f7c43de	0.9854106
5	0x3f82b5ed	1.0211769
6	0x3f832f4b	1.0248808

input_norm.bias f4 [7]
0	0x3cdc3477	0.026880486
1	0xbd439a17	-0.047754373
2	0x3b17c45d	0.0023157813
3	0x3c85a2c6	0.016312968
4	0x3bace8dd	0.005276783
5	0xbb34aa8d	-0.0027567476
6	0xbbc3c329	-0.0059741926

layers.0.embed.weight f4 [128, 7]
0	0xbc6dbeb8	-0.014510803
1	0x3e1878fd	0.14889903
2	0xbe91c9bd	-0.28474227
3	0x3e3601fe	0.17774197
4	0x3e9759d0	0.2956071
5	0xbea543f2	-0.322784
6	0xbe8405e8	-0.25785756
7	0xbe712ead	-0.23552962
8	0xbd2dcb7c	-0.042430386
9	0xbe08039d	-0.13282628
10	0xbe3fa7fd	-0.18716426
11	0x3eb9c5b9	0.36283663
12	0xbd27ff8e	-0.0410152
13	0xbadbb8f9	-0.00167635
14	0x3e4b17c1	0.1983328
15	0xbe3196c0	-0.17342663
16	0x3eb1ee56	0.34752148
17	0xbea1994e	-0.31562275
18	0x3d972986	0.07380967
19	0xbdca54a9	-0.09879429
20	0xbe77be25	-0.24193628
21	0xbd9de12d	-0.077089645
22	0xbe9ddc55	-0.30832162
23	0xbe841084	-0.2579385
24	0xbd51f344	-0.051257387
25	0xbe93c3f8	-0.2886045
26	0xbe9f4e5f	-0.3111448
27	0xbe115383	-0.14192013
28	0x3e4b436b	0.19849937
29	0xbc025da5	-0.007956897
30	0xbea6c00c	-0.32568395
31	0x3e782972	0.2423456
32	0xbe3d5896	-0.18490824
33	0x3e912c96	0.2835433
34	0x3e12ba64	0.14328915
35	0xbe876d7e	-0.26450723
36	0xbd19c8e4	-0.0375451
37	0xbe983581	-0.2972832
38	0x3e8d86b6	0.2764184
39	0xbe7c1502	-0.24617389
40	0x3e323b15	0.1740535
41	0x3eae1b01	0.34004977
42	0x3e27977d	0.16366382
43	0x3ddd222c	0.107975334
44	0x3e3ff663	0.18746333
45	0x3e0396dd	0.12850519
46	0x3d9bea80	0.07613087
47	0x3eb96a61	0.36213973
48	0x3bb959f9	0.0056564775
49	0x3e1201cd	0.142585
50	0x3cc73f03	0.024322039
51	0xbec182fa	-0.3779524
52	0x3ebd3200	0.3695221
53	0x3e6a825e	0.22901294
54	0xbe6eb69d	-0.23311849
55	0xbea2cb70	-0.31795835
56	0x3eb76a0d	0.35823098
57	0x3c31815e	0.010834066
58	0xbd91fd1b	-0.07128354
59	0x3d10fc28	0.035396725
60	0xbd1e0e90	-0.038588107
61	0xbebdc27e	-0.37062448
62	0x3e357ded	0.17723818
63	0x3e4da2f5	0.20081694
64	0x3e8cf3da	0.27529794
65	0xbebb9232	-0.36634976
66	0x3dc701b6	0.09717123
67	0x3d6162f3	0.055026006
68	0xbeab1503	-0.33414468
69	0xbeb8dbd9	-0.3610523
70	0xbe33a9bd	-0.17545219
71	0x3e819d24	0.253152
72	0x3e7163fa	0.23573294
73	0xbdbcb2e2	-0.09213807
74	0x3eaf10b4	0.3419243
75	0x3e95826d	0.2920107
76	0xbec09c7c	-0.37619388
77	0xbebee73d	-0.37285796
78	0xbea0c655	-0.31401315
79	0xbe22a500	-0.15883255
80	0x3d738514	0.059453085
81	0xbcf9469e	-0.03042918
82	0x3e4a859a	0.19777527
83	0x3e6412ef	0.22272848
84	0x3eb69c9a	0.35666353
85	0xbc5c6d17	-0.013453743
86	0xbec6082a	-0.38678104
87	0x3d5ae09b	0.053436857
88	0x3e243e88	0.16039479
89	0xbeb4c21e	-0.3530435
90	0x3e4e3818	0.20138586
91	0x3d2a0c01	0.041515354
92	0x3cc40de3	0.023932403
93	0x3e695864	0.22787625
94	0xbe5be8c7	-0.21475516
95	0x3eaf258d	0.34208336
96	0x3e131359	0.1436285
97	0xbe3c145f	-0.18367146
98	0xbdcde8cb	-0.10054167
99	0xbe650fad	-0.22369261
100	0xbe85bb55	-0.26119485
101	0x3e6fbde7	0.23412286
102	0xbe55ba6d	-0.20871897
103	0xbdd069de	-0.101764426
104	0xbe842ccf	-0.25815436
105	0x3e4f7e24	0.20262963
106	0xbe647d02	-0.22313312
107	0xbe38d4f6	-0.18049988
108	0xbc49ee50	-0.0123248845
109	0x3e58ca25	0.21170862
110	0xbe96cd28	-0.29453397
111	0xbe98b56b	-0.2982591
112	0xbe1d1dfa	-0.15343466
113	0x3e541ed1	0.2071488
114	0x3e32473c	0.17409986
115	0xbe20eed7	-0.1571611
116	0xbea7f537	-0.32804272
117	0x3d461256	0.04835733
118	0x3e4bb18f	0.19891952
119	0x3e5a49fb	0.21317284
120	0x3e8498f1	0.25897935
121	0xbde1c65b	-0.110241614
122	0xbd08441c	-0.03326808
123	0xbe1ce84c	-0.15322989
124	0x3d704496	0.05865916
125	0x3dafc3e9	0.08582289
126	0xbea84f2d	-0.32872906
127	0x3da37845	0.07981924
128	0x3e4d29a6	0.20035419
129	0xbe3adf0c	-0.18249148
130	0x3e9202d9	0.28517798
131	0x3e8d6d28	0.27622342
132	0x3dfb95cd	0.122844316
133	0x3e4a6ab0	0.1976726
134	0xbbdf8ad3	-0.006821969
135	0x3e8d8093	0.27637157
136	0x3ca0cf3a	0.019630063
137	0xbd3088a8	-0.043099076
138	0x3dec5019	0.11538715
139	0x3e675ddc	0.22594398
140	0xbe53b03f	-0.20672701
141	0xbdc7922c	-0.09744677
142	0x3e5b9483	0.21443371
143	0xbe379c7f	-0.17930792
144	0xbeb14f13	-0.3463064
145	0xbebf6b34	-0.37386477
146	0xbe054cea	-0.13017622
147	0xbe0ec79e	-0.13943335
148	0x3eaead97	0.34116814
149	0x3e427eeb	0.18993728
150	0xbec0c6b7	-0.37651607
151	0x3eb72d75	0.35776868
152	0x3eaa64af	0.3327994
153	0x3e326963	0.17423014
154	0x3e6180c6	0.2202178
155	0x3e34fb8f	0.17674087
156	0x3e39156d	0.1807458
157	0xbc1eb855	-0.009687503
158	0x3e7f29ee	0.24918339
159	0x3e031f4b	0.12804906
160	0xbe0ec41e	-0.13942
161	0x3de94d02	0.11391641
162	0xbe35d5ce	-0.17757341
163	0x3d25cf1d	0.04048072
164	0xbd9768ff	-0.07393073
165	0x3dd4208b	0.103577696
166	0xba3827b2	-0.0007024958
167	0x3d3cb1ad	0.046067882
168	0xbe6c942a	-0.23103395
169	0x3e08f657	0.13375221
170	0x3d0a0a32	0.03370113
171	0x3e26a631	0.16274334
172	0xbe8257ae	-0.2545752
173	0xbe26ba01	-0.16281892
174	0xbe02a04f	-0.12756465
175	0x3d344f19	0.044020746
176	0xbe90045d	-0.2812833
177	0xbe6c7e28	-0.23095
178	0x3dbc1d38	0.091852605
179	0x3e8ea08b	0.2785686
180	0xbd48a237	-0.048982825
181	0xb9a36ad3	-0.00031169373
182	0x3d7cca00	0.06171608
183	0xbd3040fc	-0.043030724
184	0xbd158004	-0.03649904
185	0x3ebdebbb	0.3709391
186	0xbe91bc56	-0.28464
187	0xbdc0c1cf	-0.09411966
188	0x3e844c6b	0.25839552
189	0xbe1d9433	-0.15388565
190	0xbda51da9	-0.08062298
191	0x3e9b4609	0.3032687
192	0x3e73cd0b	0.23808686
193	0x3e9e32e9	0.30898216
194	0x3d5e60f1	0.05429167
195	0x3ecb17e7	0.39666674
196	0x3eb541d3	0.35401782
197	0x3df66872	0.1203164
198	0xbd2ed735	-0.042685706
199	0x3e8d6ec8	0.27623582
200	0x3ebb96c2	0.36638457
201	0x3e9079b6	0.28217858
202	0x3eb20ccc	0.34775388
203	0x3d823fa8	0.06359798
204	0xbe5f4769	-0.21804585
205	0x3e7bd7e3	0.24594073
206	0x3e12f484	0.14351088
207	0xbd8e6635	-0.06953088
208	0x3e432ad1	0.19059302
209	0xbeb92866	-0.36163634
210	0x3eb3ebe5	0.3514091
211	0xbeb5f458	-0.35537982
212	0xbdaf16b9	-0.08549256
213	0xbe81c172	-0.253429
214	0xbe881cd0	-0.26584482
215	0xbe9c4883	-0.30524072
216	0xbd95e3b9	-0.07318825
217	0xbe60a601	-0.21938325
218	0x3cfae2d6	0.030625742
219	0x3e99861e	0.29985136
220	0xbe366823	-0.17813163
221	0x3d09c6fc	0.033637032
222	0x3e86d629	0.26335266
223	0x3e30055c	0.17189544
224	0x3e816d1b	0.25278553
225	0xbe6e584d	-0.23275872
226	0xbd8597a9	-0.065230675
227	0x3d5a6cb8	0.05332634
228	0xbdb27e21	-0.087154634
229	0x3d8bc048	0.06823784
230	0x3e8988f5	0.26862302
231	0x3dcfcafd	0.10146139
232	0xbe07c13c	-0.13257307
233	0xbe03848f	-0.12843536
234	0xbe291a26	-0.16513881
235	0x3e14bc73	0.14525013
236	0xbd814760	-0.06312442
237	0x3e01503d	0.12628265
238	0xbe01bbae	-0.1266925
239	0x3e88774b	0.26653513
240	0xbd02e78f	-0.031959113
241	0x3ccfb245	0.02535356
242	0x3eba2fae	0.36364502
243	0x3ead2ac2	0.33821684
244	0xbeb5cb8c	-0.35506856
245	0xbeba721c	-0.36415184
246	0xbe87e003	-0.26538095
247	0x3b8d1a6c	0.0043061282
248	0x3ea42436	0.32058877
249	0x3e2a05ed	0.16603823
250	0x3d9fbd04	0.07799724
251	0x3d008272	0.031374402
252	0xbe0c0f5f	-0.13677739
253	0xbe677022	-0.22601369
254	0xbcb2b900	-0.02181673
255	0x3d982dcb	0.07430609

layers.0.embed.bias f4 [128]
0	0xbe16f262	-0.14740899
1	0xbda1de91	-0.07903779
2	0x3e9cf62c	0.30656564
3	0x3d8fe3c6	0.07025866
4	0x3eb95593	0.361981
5	0x3e6afa7b	0.22947113
6	0xbea0de00	-0.31419373
7	0x3d8bbd42	0.068232074
8	0x3ddf5e3d	0.109066464
9	0x3d9539f0	0.07286441
10	0x3ebfb2f4	0.37441218
11	0x396bc893	0.00022486066
12	0x3e1ce42c	0.15321416
13	0xbd3f7099	-0.04673824
14	0x3ecbc6f6	0.39800233
15	0x3e3dee0c	0.18547839
16	0xbea24727	-0.3169491
17	0x3e3a7f3b	0.18212597
18	0x3db2dd5e	0.08733629
19	0x3dca7547	0.0988565
20	0xbdb13d21	-0.086542375
21	0xbda9634d	-0.08270893
22	0xbdd33a41	-0.103138454
23	0xbeaa32fa	-0.33242017
24	0xbe9e8c12	-0.3096624
25	0xbd155c2d	-0.03646486
26	0xbe7ad2ba	-0.24494448
27	0x3d710cfd	0.058850277
28	0xbe9807b6	-0.29693383
29	0xbdabf4eb	-0.08396324
30	0xbe051046	-0.12994489
31	0xbea05aec	-0.31319368
32	0xbe88c5c0	-0.2671337
33	0x3eb7c648	0.35893464
34	0xbbbb6d6b	-0.0057198307
35	0x3e17a6d9	0.14809741
36	0xbd9d7d29	-0.07689888
37	0xbd82eada	-0.06392451
38	0xbdb09113	-0.08621421
39	0xbdd0dd6f	-0.10198485
40	0x3d9e7736	0.077375814
41	0x3e0417fb	0.12899773
42	0xbe8b68f6	-0.27228516
43	0xbe8d94d3	-0.27652606
44	0xbe7b415c	-0.24536651
45	0xbe64a825	-0.22329767
46	0x3dff7992	0.124743596
47	0xbe99029e	-0.2988481
48	0x3d8c7743	0.06858685
49	0x3e84c2eb	0.2592996
50	0xbe86571b	-0.2623833
51	0x3cf4c8e3	0.029880947
52	0x3d4fc04c	0.050720498
53	0x3ea70e18	0.3262794
54	0xbe7cf6e8	-0.24703562
55	0xbe98a5bd	-0.29813948
56	0x3e1e06b3	0.15432243
57	0x3e04958f	0.12947677
58	0xbeb520af	-0.35376498
59	0x3e257727	0.16158734
60	0xbe35bf5f	-0.17748784
61	0xbd1fa513	-0.038975786
62	0xbd9c60a9	-0.07635624
63	0xbdb636a3	-0.0889714
64	0xbe3c81fd	-0.18408962
65	0x3cee8007	0.029113783
66	0x3e6e5152	0.23273209
67	0x3daa92fb	0.083288155
68	0xbeb19c21	-0.3468943
69	0x3e69db69	0.22837605
70	0xbe98e8e0	-0.2986517
71	0xbe2cd374	-0.16877538
72	0xbe2b946c	-0.16755837
73	0xbd61b0fd	-0.05510043
74	0x3e9b8cd1	0.30380872
75	0xbebe7a49	-0.3720267
76	0xbeb0ba42	-0.34517103
77	0xbd82fd1f	-0.06395935
78	0xbe3d36e3	-0.18477969
79	0x3dfb5f84	0.122740775
80	0xbe86119a	-0.26185304
81	0xbde32568	-0.11091119
82	0xbe2ab59f	-0.16670845
83	0x3e4bf541	0.19917776
84	0xbde27dc9	-0.11059148
85	0xbd703696	-0.058645807
86	0xbe358c89	-0.17729391
87	0x3eb3c02d	0.35107556
88	0xbe75f219	-0.24018134
89	0x3d52aa2a	0.051431812
90	0x3ea590c9	0.32337025
91	0x3e27db16	0.16392168
92	0xbe4ba22e	-0.19886085
93	0x3de9b6d8	0.11411828
94	0x3eb47903	0.35248575
95	0x3d882420	0.06647515
96	0xbe7f830b	-0.24952333
97	0xbeb4f640	-0.35344124
98	0x3dc8721f	0.09787392
99	0xbea80e6d	-0.32823506
100	0xbea1fd05	-0.3163835
101	0x3eb7142a	0.3575757
102	0xbe17332f	-0.14765619
103	0xbe674ae8	-0.22587168
104	0xbca01bfe	-0.019544598
105	0xbdd286be	-0.10279606
106	0x3e029278	0.12751186
107	0xbeb6960c	-0.35661352
108	0xbe98f4ad	-0.29874173
109	0x3e48e524	0.1961866
110	0xbd0237f0	-0.031791627
111	0xbc85b1e3	-0.016320175
112	0x3e995700	0.29949188
113	0xbc15598d	-0.009115589
114	0xbdfd7f6b	-0.12377819
115	0xbeb19e67	-0.34691164
116	0x3e99ec1f	0.3006296
117	0x3df549fb	0.11977001
118	0x3ebb14ea	0.36539394
119	0xbea7a797	-0.32745048
120	0xbe27ad2b	-0.16374652
121	0xbeb2802d	-0.34863415
122	0xbdb5113f	-0.0884118
123	0xbe491242	-0.19635871
124	0xbd512b55	-0.051066715
125	0xbcfa45ee	-0.030550923
126	0x3dcbf044	0.099579364
127	0xbe8decf3	-0.2771984

layers.0.W_att.weight f4 [128, 128]
0	0x3d2865ca	0.0411127
1	0xbd70e575	-0.058812577
2	0x3d1c1ed4	0.038115337
3	0x3d8125c0	0.06306028
4	0xbcb0dd01	-0.021589758
5	0x3db851d1	0.0899998
6	0x3da51b8e	0.08061896
7	0x3c7f0782	0.015565755
8	0xbd85cc7b	-0.06533142
9	0xbc216ba2	-0.009852322
10	0xbd80e9fc	-0.06294629
11	0x3d80f56d	0.06296811
12	0x3ce0b6f2	0.027430985
13	0x3d55e779	0.052222703
14	0xbdb37b53	-0.087637566
15	0x3cb02d44	0.02150596
16	0x3ca7307d	0.020408863
17	0x3db2a565	0.08722953
18	0x3abdea78	0.0014489433
19	0xbd285ded	-0.0411052
20	0x3cd6a89f	0.026203452
21	0xbd8ac266	-0.0677536
22	0x3d6785b8	0.05652401
23	0x3d86d1a5	0.06582955
24	0x3c53d777	0.012929789
25	0xbd98f83e	-0.074692234
26	0x3da81fc2	0.08209182
27	0x3db664b2	0.08905925
28	0xbd0201dd	-0.03174006
29	0xbd2a7573	-0.041615915
30	0x3da92a62	0.08260037
31	0x3caa5748	0.020793572
32	0x3d04eb71	0.032451097
33	0x3d78d4c6	0.06074979
34	0x3c4ba6f5	0.012429942
35	0x3d5be18c	0.053681895
36	0xbb1c9af8	-0.002389608
37	0x3c4ea5fe	0.012612818
38	0x3c89212e	0.016739454
39	0xbd3d0207	-0.04614451
40	0x3da2ebf3	0.0795516
41	0xbd818b4d	-0.06325398
42	0xbb2ff84d	-0.002685088
43	0xbd4017da	-0.046897747
44	0x3b84ac66	0.004048872
45	0xbd8525e0	-0.06501365
46	0xbd3ff1bf	-0.046861406
47	0xbd11c73f	-0.035590407
48	0x3d0e0b92	0.034679003
49	0xbd352567	-0.044225123
50	0x3d54ce69	0.05195466
51	0xbd7b97c0	-0.061424017
52	0x3c20ae50	0.009807184
53	0xbd06eff5	-0.032943685
54	0xbb9498ec	-0.0045348313
55	0xbce88c64	-0.028387256
56	0x3cea82a5	0.02862675
57	0x3d618cc0	0.05506587
58	0xbc7afae5	-0.015318607
59	0x3b18580d	0.0023245842
60	0xbd9c9b9b	-0.07646867
61	0xbd8bf034	-0.068329245
62	0x3da151a8	0.07876903
63	0x3d93ef66	0.07223396
64	0xbdb51315	-0.0884153
65	0x3cdd86ea	0.027041871
66	0x3d0eb58c	0.034841105
67	0xbd91e542	-0.071238056
68	0x3d20a5eb	0.03922073
69	0x3d0e08d1	0.034676377
70	0xbd8ed034	-0.06973305
71	0xbdb6f2f2	-0.08933057
72	0xbbc370ab	-0.005964359
73	0xbd3084aa	-0.04309527
74	0xbce447fa	-0.027866352
75	0xbd8f8582	-0.070078865
76	0x3db305f0	0.08741367
77	0x3d5ddbc2	0.054164656
78	0xbc0e9905	-0.008703475
79	0x3d743d03	0.059628498
80	0x3d605b32	0.05477447
81	0x3d9126a0	0.07087445
82	0x3d7f5e6e	0.062345915
83	0xbbaf8154	-0.0053559933
84	0x3cf51965	0.029919336
85	0x3d9dd354	0.07706323
86	0x3c0526de	0.008126942
87	0x3d972cbf	0.073815815
88	0x3d975f4c	0.07391223
89	0x3d1b9502	0.0379839
90	0xbd8df44d	-0.06931362
91	0x3d3e655b	0.04648338
92	0x3cfadb99	0.03062229
93	0x3da8a06b	0.08233722
94	0x3daa8a3e	0.08327149
95	0xbd80bae4	-0.062856466
96	0x3d9686d1	0.07349933
97	0x3c83b108	0.016075626
98	0xbc48b29e	-0.012249617
99	0x3d6e589e	0.05818998
100	0x3da53924	0.08067539
101	0x3c3cd7e7	0.0115260845
102	0x3d3e3ee9	0.046446715
103	0xbc4b1537	-0.012395195
104	0x3ca0c47a	0.019624937
105	0x3d08daaa	0.03341166
106	0x3cbbd6c3	0.022929555
107	0x3d672d4f	0.056439694
108	0x3d51af81	0.051192764
109	0x3d88f8f9	0.06688113
110	0x3d8a708b	0.06759747
111	0x3da32f0c	0.07967958
112	0x3da1d80a	0.07902534
113	0xbd54d6fc	-0.051962838
114	0x3d3a3248	0.04545811
115	0x3d88ea43	0.06685307
116	0x3d7912af	0.060808834
117	0xbcb93d2e	-0.02261218
118	0xbc40757f	-0.011746763
119	0xbd63613d	-0.055512656
120	0xbd363b62	-0.044490226
121	0xbc213b6b	-0.0098408265
122	0x3dab26cc	0.08357009
123	0x3c4e6a4b	0.012598584
124	0xbcae28c4	-0.021259673
125	0xbdbb7d2f	-0.09154736
126	0x3dbdbb09	0.0926419
127	0xbbddf2be	-0.006773322
128	0xbd87b39e	-0.06626056
129	0xbce41fac	-0.027847134
130	0xbd2218f4	-0.03957458
131	0xbd8bb51a	-0.06821652
132	0x3d6a22e9	0.0571622
133	0x3af75528	0.0018869983
134	0xbc393c57	-0.01130589
135	0xbcf46b45	-0.029836306
136	0x3d78eed3	0.060774636
137	0x3c91fc0e	0.017820384
138	0xbd96e30d	-0.07367525
139	0xbd8faea3	-0.07015731
140	0x3d7921aa	0.06082312
141	0xbd42d539	-0.047566626
142	0x3d008716	0.031378828
143	0xbda8ce1d	-0.08242438
144	0xbdb1459b	-0.08655854
145	0x3d3236a3	0.043509137
146	0xbb95e357	-0.00457422
147	0xbd7ae3a7	-0.061252262
148	0x3db6621e	0.08905433
149	0xbc78fe81	-0.015197397
150	0xbd35b980	-0.04436636
151	0x3b6fab42	0.0036570583
152	0xbd4190e2	-0.04725731
153	0x3c470b3e	0.012148676
154	0xbc41429a	-0.011795664
155	0xbd8ef334	-0.06979981
156	0x3cfb77b7	0.030696733
157	0x3d4cde21	0.050016526
158	0x3d8d70b4	0.06906262
159	0xbc979d9e	-0.018507775
160	0xbd932a09	-0.07185752
161	0x3d1949d8	0.03742394
162	0x3d37b0a6	0.0448462
163	0x3caf1787	0.021373523
164	0xbd20f251	-0.03929359
165	0xbd54ca64	-0.051950827
166	0x3d94c2d0	0.0726372
167	0xbd310714	-0.04321964
168	0x3d648e9f	0.055800077
169	0x3b825453	0.0039773374
170	0xbd808607	-0.06275564
171	0x3d8ae386	0.06781678
172	0xbd069d7d	-0.032865036
173	0xbdb63f66	-0.08898811
174	0x3d404ff1	0.046951238
175	0x3cdddf1c	0.027083926
176	0xbd81604a	-0.06317194
177	0xbd73dab4	-0.059534743
178	0x3d337143	0.043809187
179	0xbd8ca33d	-0.06867073
180	0x3c8b19b0	0.016980022
181	0xbd224fb0	-0.039626777
182	0xbbd7927c	-0.0065787416
183	0x3d983636	0.07432215
184	0xbcd8a7a5	-0.026447127
185	0xbd7be54f	-0.061497983
186	0xbc9d122a	-0.0191737
187	0xbdca6d96	-0.09884183
188	0x3ddcdb1c	0.10783979
189	0xbcae4630	-0.021273702
190	0x3ae0f66a	0.0017163281
191	0x3d0acd14	0.033886984
192	0xbd5dc72b	-0.05414502
193	0xbc6c7cdb	-0.014434065
194	0x3cb9318e	0.022606637
195	0x3d86e7bb	0.06587168
196	0xbd0d28b0	-0.03446263
197	0x3d407e64	0.046995535
198	0x3ce6e221	0.028183999
199	0x3b7bfa61	0.0038448798
200	0xbd48b073	-0.0489964
201	0x3d7ec984	0.0622039
202	0xbd971556	-0.073771164
203	0x3c087a8a	0.008329997
204	0xbd93fc66	-0.072258756
205	0x3c388fdc	0.0112647675
206	0xbcf87030	-0.030326933
207	0x3d2c81cf	0.042115983
208	0x3cb5eead	0.022208536
209	0x3bd7ead3	0.0065892725
210	0xbc9375e7	-0.018000556
211	0xbd00b15f	-0.031419154
212	0x3d97c180	0.07409954
213	0x3d42da71	0.047571603
214	0x3d81e921	0.06343294
215	0x3ce72c1d	0.028219277
216	0xbd5e2f5f	-0.054244395
217	0x3c3b5695	0.011434217
218	0xbd9dcdfd	-0.07705305
219	0xbda39581	-0.079875
220	0xbd2ac517	-0.041691866
221	0xbd43b083	-0.047775757
222	0xbd587ab2	-0.052851386
223	0xbcdee7b5	-0.027210096
224	0x3d5ec80e	0.054390006
225	0xbd112282	-0.0354333
226	0xbdb3b0ff	-0.08773994
227	0x3d6e311b	0.0581523
228	0xbdae71e1	-0.085178144
229	0xbc32c32c	-0.01091079
230	0xbdbd6066	-0.09246902
231	0x3c9ed63a	0.01938926
232	0x3d110ff3	0.0354156
233	0x3cfee736	0.03111611
234	0xbd757251	-0.059923474
235	0x3cc436a5	0.023951838
236	0xbd0a63ff	-0.03378677
237	0x3b244e0b	0.0025070931
238	0x3d8753cb	0.06607779
239	0xbd094f9b	-0.033523183
240	0xbce53ace	-0.027982142
241	0xbd670720	-0.05640328
242	0xbdb0d308	-0.08634001
243	0xbce0e81a	-0.027454425
244	0x3c583584	0.013196353
245	0x3db44eab	0.08804067
246	0x3d71b15a	0.059007026
247	0x3da23211	0.07919706
248	0xbc82099c	-0.015873723
249	0x3b5088cf	0.0031819826
250	0x3d2d3304	0.04228498
251	0x3d425a62	0.047449477
252	0x3dc39b70	0.09551132
253	0x3d27b9e6	0.04094877
254	0x3d428ef8	0.047499627
255	0x3d83d79c	0.064376086

layers.0.phi_att.weight f4 [128, 128]
0	0xbd029aa3	-0.031885754
1	0x3abe6582	0.0014526101
2	0x3d74f4ef	0.0598039
3	0xbd1235af	-0.035695728
4	0x3dc74183	0.09729292
5	0xbc01f48d	-0.007931841
6	0xbd0f227a	-0.03494499
7	0x3d6d8b36	0.05799409
8	0xbd75fb1d	-0.060053933
9	0x3cbe7b7f	0.023252247
10	0xbd1b1a53	-0.0378669
11	0xbcdcbe6b	-0.026946267
12	0x3c8b2a0f	0.016987829
13	0x3d3888a3	0.045052182
14	0x3d34099c	0.043954477
15	0x3d8bf843	0.068344615
16	0xbd87a09a	-0.06622429
17	0xbd91781d	-0.07102988
18	0x3d4bcbb1	0.049754802
19	0xbd0b1a31	-0.033960525
20	0x3d69a979	0.057046387
21	0xbdca8e42	-0.09890415
22	0xbc930850	-0.0179483
23	0xbd4b3f63	-0.049620997
24	0x3d173491	0.036915366
25	0x3b485fb5	0.0030574624
26	0xbceee0b7	-0.029159887
27	0x3d821317	0.06351297
28	0x3c5ed3d0	0.013600305
29	0x3d34f60f	0.044179972
30	0xbc6853a2	-0.014180096
31	0xbdaee72b	-0.085401855
32	0xbca183da	-0.019716192
33	0x3d83c0a4	0.06433228
34	0xbdb593a1	-0.088660486
35	0x3c907875	0.017635563
36	0xbcc6ab4d	-0.024251604
37	0xbdc8878f	-0.09791481
38	0xbd8dcc44	-0.06923726
39	0x3d183e89	0.037169013
40	0x3d4bcf1f	0.049758073
41	0x3d4eb3b8	0.050464362
42	0xbcd9acad	-0.026571596
43	0x3d9eb865	0.07750014
44	0x3d2b44cb	0.041813653
45	0xbd3e9388	-0.046527416
46	0xbd5ab5cd	-0.053396035
47	0x3b3c8f08	0.0028771777
48	0x3d90af42	0.07064678
49	0xbd5e7449	-0.054310117
50	0x3cd96538	0.026537523
51	0x3d04be37	0.032407966
52	0xbad349ec	-0.0016120053
53	0xbd40dca1	-0.047085408
54	0x3c2e9296	0.010655066
55	0x3beb3ac1	0.007178635
56	0xba6393ef	-0.00086814066
57	0x3d422084	0.04739429
58	0x3ccdf4bd	0.025141114
59	0x3cba4816	0.022739451
60	0x3cc69371	0.024240227
61	0x3c543b6b	0.0129536195
62	0x3d46dfc7	0.048553254
63	0xbc1ea75a	-0.009683454
64	0xbd5c9a4b	-0.053858083
65	0xbd23f529	-0.040028725
66	0x3dcdfc58	0.100578964
67	0x3c2d91f4	0.01059388
68	0xbcb721e4	-0.022355027
69	0xbd84d739	-0.06486363
70	0x3dd435af	0.10361802
71	0xbcf0f142	-0.029411916
72	0xbcea8751	-0.028628977
73	0x3da19866	0.07890396
74	0xbba82a2f	-0.005131982
75	0xbdb6ad96	-0.08919828
76	0xbdb1413f	-0.08655023
77	0xbd54e441	-0.051975492
78	0x3c3ce0af	0.011528178
79	0x3d76786f	0.06017345
80	0xbc94a7d0	-0.018146425
81	0x3d66c5c5	0.05634095
82	0xbd814c41	-0.063133724
83	0xbcb71d9f	-0.022352992
84	0x3d7c375d	0.061576236
85	0xbd22fbf1	-0.03979105
86	0x3d543930	0.05181235
87	0xbcabb325	-0.020959446
88	0xbd00068c	-0.031256244
89	0x3c534942	0.012895884
90	0xbcc4263c	-0.023944013
91	0x3c14c9dd	0.009081331
92	0x3dc12128	0.09430152
93	0xbd7e5c68	-0.062099844
94	0x3c8c8223	0.017151898
95	0x3bee28c5	0.0072680437
96	0x3d8d233e	0.068914875
97	0x3da5eb18	0.08101481
98	0xbda24dab	-0.0792497
99	0x3c0d14f5	0.008610954
100	0xbd12bf06	-0.035826705
101	0xbd83cacc	-0.06435165
102	0x3bfe81a6	0.00776692
103	0x3d5a0424	0.053226605
104	0x3d2384fb	0.039921742
105	0xbdb8d98c	-0.09025869
106	0x3dd91635	0.10599939
107	0xbdb90209	-0.09033591
108	0x3d3cdab7	0.04610702
109	0xbbbaceb1	-0.005700909
110	0x3d96aef7	0.07357591
111	0xbd791fca	-0.060821332
112	0x3c24bea9	0.010055223
113	0x3dbced1c	0.092249125
114	0xbda54c0a	-0.08071144
115	0xbcbaacb1	-0.022787424
116	0x3d596120	0.05307114
117	0x3da4b971	0.08043183
118	0x3d34806b	0.04406778
119	0x3dc3b07c	0.09555146
120	0xbd106957	-0.03525671
121	0xbbfb7d13	-0.007674822
122	0x3d605d54	0.054776505
123	0x3d8d5446	0.069008395
124	0xbbdbd570	-0.0067087933
125	0x3d4b7540	0.049672365
126	0xbceed0e5	-0.029152343
127	0x3db81026	0.08987455
128	0x3d392879	0.045204613
129	0xbd94bf83	-0.072630905
130	0xbd1c5e9f	-0.038176175
131	0x3d948cf5	0.07253448
132	0xbcf67ae4	-0.030087896
133	0x3d158c25	0.036510605
134	0x3d856f7f	0.06515407
135	0xbd5d6601	-0.054052357
136	0x3cacbbe2	0.021085683
137	0x3b232930	0.0024896376
138	0x3c90e4e7	0.017687274
139	0x3d3f2ac1	0.046671633
140	0xbda1e8e3	-0.07905748
141	0x3d10eee1	0.035384063
142	0xbce273dd	-0.027643139
143	0x3d437971	0.047723237
144	0xbd8597a2	-0.06523062
145	0xbd9e284e	-0.07722531
146	0x3cda3f89	0.026641624
147	0x3db2dca0	0.08733487
148	0x3d7bf908	0.06151679
149	0x3d27d829	0.04097763
150	0x3cb551dc	0.02213376
151	0x3d61db42	0.05514074
152	0x3be16b77	0.006879266
153	0x3a11fee9	0.00055692956
154	0x3d0199c4	0.031640783
155	0x3bd3db9b	0.006465388
156	0xbc946a70	-0.01811716
157	0x3d871382	0.06595518
158	0x3c4df40e	0.012570394
159	0xbcb3abbc	-0.021932475
160	0xbd6ce1ec	-0.057832643
161	0xbc89795a	-0.016781498
162	0xbd02dd02	-0.03194905
163	0xbd77b818	-0.0604783
164	0x3cbfc30d	0.023408437
165	0x3d8d3e57	0.06896656
166	0xbd5fda0f	-0.054651316
167	0xbd887218	-0.06662387
168	0xbc350c37	-0.0110502755
169	0xbdbd92df	-0.09256529
170	0xbbdcab9f	-0.006734326
171	0x3c5f18d9	0.013616764
172	0xbca24017	-0.019805951
173	0x3d10e27e	0.03537225
174	0xbd0b26bf	-0.033972498
175	0x3d203e8b	0.039122146
176	0xbc968be9	-0.018377261
177	0xbd420122	-0.04736436
178	0xbd531ee8	-0.051543146
179	0xbd7e92a9	-0.062151585
180	0xbdb93cb4	-0.09044781
181	0x3d5c515f	0.05378854
182	0x3d9ea8f3	0.07747068
183	0xbcbece42	-0.02329171
184	0x3bafd50e	0.0053659743
185	0x3cdb306f	0.026756493
186	0xbbf5abf1	-0.0074973037
187	0xbd27c361	-0.040957812
188	0x3d26a458	0.040684074
189	0xbd1a1432	-0.037616916
190	0xbdab02c4	-0.08350137
191	0x3b9296f5	0.004473562
192	0x3c904d3e	0.017614957
193	0xbd08d218	-0.033403486
194	0xbbc8c050	-0.006126441
195	0xbc832a83	-0.016011482
196	0xbd9d5f4d	-0.07684193
197	0x3d8d17a6	0.06889276
198	0xbd43821a	-0.047731496
199	0xbd3a447f	-0.04547548
200	0xbd6c32db	-0.057665687
201	0x3d2ebe6f	0.04266208
202	0xbd2e09dc	-0.04248987
203	0x3d81fc2f	0.06346928
204	0xbd05ad7d	-0.032636154
205	0xbc3e1dc3	-0.011603775
206	0xbd2c8d75	-0.04212709
207	0x3ce533d1	0.02797881
208	0x3d2dc8ea	0.042427935
209	0x3c84044c	0.01611533
210	0xba621149	-0.00086237915
211	0xbd321743	-0.043479215
212	0x3d16edf1	0.036848012
213	0xbd91b0bf	-0.0711379
214	0xbb89624a	-0.004192625
215	0xbd9dfd9e	-0.07714389
216	0x3cec2fde	0.028831419
217	0x3d4f0020	0.05053723
218	0xbd3c0729	-0.045905266
219	0x3d930795	0.071791805
220	0xbbb59cf9	-0.0055423942
221	0x3c8ca3d5	0.017167965
222	0x3d25f0a4	0.040512696
223	0xbcf81ce5	-0.030287215
224	0xbdc82dd0	-0.09774363
225	0xbd70c6ba	-0.05878327
226	0x3d946968	0.07246667
227	0xbca6d23c	-0.02036392
228	0xbcfffdbb	-0.031248918
229	0x3dbd1dd7	0.09234207
230	0xbbf3b5d1	-0.0074374457
231	0x3da61ca8	0.081109345
232	0x3bf74ec3	0.007547231
233	0x3c05ee36	0.00817447
234	0xbd15619f	-0.03647005
235	0xbc5f00b7	-0.01361101
236	0x3dd4daa2	0.103932634
237	0xbaf770a0	-0.0018878169
238	0xbd7d3b03	-0.061823856
239	0xbbbba372	-0.0057262713
240	0xbd28dd1a	-0.041226484
241	0xbd8d9808	-0.06913763
242	0xbca97a7d	-0.02068829
243	0x3c384179	0.011246079
244	0xbd908253	-0.07056107
245	0xbd71846a	-0.05896417
246	0xbc975c1c	-0.018476538
247	0x3db86bc0	0.09004927
248	0xbd8b69ab	-0.06807264
249	0x3d87bc86	0.06627755
250	0xbd530063	-0.05151404
251	0x3d3a4240	0.045473337
252	0xbba11535	-0.004915858
253	0xbcf493a3	-0.029855555
254	0xbd6d626a	-0.057955183
255	0xbcefa342	-0.029252652

layers.0.phi_att.bias f4 [128]
0	0x3c0f74d1	0.008755879
1	0x3d67e4b0	0.056614578
2	0xbcb379e2	-0.021908704
3	0xbd4aade6	-0.04948225
4	0xbd4ac732	-0.049506374
5	0xbc0c3e5a	-0.008559788
6	0x3ce0cac2	0.027440432
7	0xbd770ca5	-0.060314793
8	0xbca251cb	-0.019814393
9	0x3d3c7d26	0.04601779
10	0xbd1370f6	-0.0359964
11	0x3d7963aa	0.060886063
12	0x3ccfcc64	0.025366016
13	0xbd14ad76	-0.036298238
14	0xbc6c8f50	-0.014438465
15	0x3d01c06a	0.03167764
16	0xbd525fe5	-0.051360983
17	0xbc12a815	-0.008951207
18	0x3dd59373	0.10428514
19	0xbd930969	-0.07179529
20	0xbdc95387	-0.09830385
21	0x3c13c08c	0.009018075
22	0x3c4cd314	0.012501497
23	0xbc68789f	-0.014188915
24	0xbcadafa2	-0.021201912
25	0xbda52e8f	-0.08065521
26	0xbda06516	-0.078317806
27	0xbd90ff07	-0.070798926
28	0x3c855704	0.016276844
29	0xbca71158	-0.020394012
30	0xbb1faeb1	-0.0024365599
31	0xbda9404e	-0.08264218
32	0xbd17e1f3	-0.037080716
33	0xbd734052	-0.059387513
34	0x3db29789	0.08720309
35	0xbd1b7ff7	-0.037963834
36	0x3d238c9c	0.039929017
37	0xbcce7b5e	-0.02520531
38	0x3d256e58	0.040388435
39	0xbcd346c1	-0.025790574
40	0xbc88d6dc	-0.016704015
41	0xbd132d77	-0.03593203
42	0x3d5c8453	0.05383713
43	0xbcfc1d91	-0.030775817
44	0x3d71dde5	0.059049506
45	0xbd37f495	-0.044910986
46	0x3d48b2dd	0.048998702
47	0xbda36ee2	-0.079801336
48	0xbcb62ad7	-0.022237225
49	0x3d620377	0.055179086
50	0xb8c888ad	-9.562201e-05
51	0xbbaf42f3	-0.005348557
52	0xbc3936f9	-0.01130461
53	0x3d4bb0d8	0.0497292
54	0xbd8ed23c	-0.06973693
55	0x3c812f5f	0.015769659
56	0x3c28815f	0.010284751
57	0xbd5647d5	-0.052314598
58	0xbd71053b	-0.05884288
59	0x3cd6991f	0.02619606
60	0xbcf8080d	-0.030277276
61	0x3da22d3f	0.07918786
62	0xbd65ca0d	-0.056100894
63	0x3db13dd5	0.08654372
64	0x3d191cc8	0.037380964
65	0x3cc19d4d	0.023634577
66	0xbd17b82a	-0.037040867
67	0xbdc00eb6	-0.09377806
68	0x3dc25a4c	0.09489879
69	0xbcd41dd3	-0.025893128
70	0x3d38845d	0.045048106
71	0xbd34515d	-0.044022907
72	0x3d1f91f3	0.038957547
73	0xbc7be473	-0.015374291
74	0xbd8caeda	-0.06869288
75	0xbd14716b	-0.036240976
76	0xbbe8c15f	-0.0071031298
77	0xbc8b87e3	-0.01703257
78	0xbc75de0c	-0.015006553
79	0x3d309840	0.043113947
80	0xbdaa1795	-0.08305279
81	0x3d8bfdb5	0.068355
82	0x3d0bb25e	0.03410565
83	0x3d4c6edf	0.049910422
84	0xbcc3d565	-0.023905465
85	0x3c93e33c	0.01805269
86	0x3ba4c7ea	0.0050287144
87	0x3d9fad20	0.07796693
88	0x3b996c15	0.004682074
89	0xbd04c815	-0.032417376
90	0xbd945b4d	-0.07243977
91	0x3d85284a	0.06501825
92	0xbbe0f4d5	-0.0068651238
93	0x3ccbcba5	0.024877379
94	0xbdcbde29	-0.09954483
95	0x3d9ce191	0.07660211
96	0x3c831ff1	0.016006442
97	0xbdb8d008	-0.09024054
98	0x3d809d62	0.062800184
99	0xbdafb362	-0.085791364
100	0xbd31e39a	-0.04342995
101	0xbd2014b5	-0.039082248
102	0xbc18532a	-0.009297172
103	0x3b257e16	0.0025252155
104	0x3c8177db	0.015804222
105	0x3b8ea6bb	0.004353372
106	0xbd27a91e	-0.040932767
107	0x3d09fa4d	0.03368597
108	0xbd871b83	-0.06597044
109	0x3d0cee53	0.03440697
110	0xbdbd2e02	-0.09237291
111	0x3d096b7c	0.03354977
112	0xbc02381b	-0.007947947
113	0xbcf25ec7	-0.029586209
114	0xbdd4b6d6	-0.10386436
115	0x3d504e0f	0.050855692
116	0xbd3b21b6	-0.045686446
117	0x3d36fc51	0.04467422
118	0x3d603c09	0.054744754
119	0xbbb034a5	-0.0053773695
120	0x3a8ddb6b	0.0010822838
121	0xbd99ee9d	-0.07516215
122	0x3d342b12	0.043986388
123	0xbd11c547	-0.03558853
124	0x3c9739ec	0.018460236
125	0x3d2df687	0.042471435
126	0x3cffdbd6	0.031232756
127	0x3b1ffe02	0.0024412875

layers.0.W_p.weight f4 [128, 128]
0	0xbc725e0b	-0.014792929
1	0x3cf17079	0.029472576
2	0x3c5b8afe	0.013399838
3	0x3d564994	0.052316263
4	0xbdac5727	-0.084150605
5	0xbd24ca75	-0.04023214
6	0x3d1e8714	0.03870304
7	0x3d811aa0	0.063039064
8	0x3d810251	0.0629927
9	0x3ceb3e72	0.0287163
10	0xbd1953b0	-0.037433326
11	0xbd51ab8b	-0.051188987
12	0x3d41d8be	0.047325842
13	0x3b97ddad	0.00463458
14	0xbdb4d72e	-0.08830105
15	0x3da4c865	0.08046035
16	0xbd164b39	-0.03669283
17	0x3bf1615a	0.0073663415
18	0x3d9b9583	0.075968765
19	0xbd52dd75	-0.05148073
20	0x3d38f8e2	0.04515923
21	0x3d080912	0.033211775
22	0x3c49b57e	0.0123113375
23	0x3d000ec8	0.031264096
24	0xbd549fb0	-0.051910102
25	0xbcc36946	-0.02385391
26	0x3d8e0d56	0.069361374
27	0xbd88655a	-0.06659956
28	0x3d55bb86	0.05218079
29	0xbcae1b63	-0.021253293
30	0x3d69ada1	0.05705035
31	0x3d531c54	0.051540688
32	0xbafe6a95	-0.0019410426
33	0xb91011f5	-0.000137396
34	0x3d5b1daa	0.053495087
35	0xbd7e501c	-0.062088117
36	0x3da076ac	0.07835135
37	0x3c144a35	0.009050895
38	0xbd83f6a8	-0.0644353
39	0xbd5a632a	-0.053317226
40	0x3d0b4178	0.033997983
41	0xbd4a5892	-0.049400873
42	0x3d1d9b11	0.03847796
43	0xbcfcb685	-0.03084875
44	0x3d82c52d	0.063852645
45	0xbcc5d731	-0.024150463
46	0x3d2e65f0	0.042577684
47	0xbd68b56d	-0.056813646
48	0xbbfaba8e	-0.0076516336
49	0x3a896c53	0.0010484554
50	0x3d63031b	0.055422883
51	0xbc88f2e4	-0.016717382
52	0xbd3bc806	-0.045845054
53	0xbd85d11c	-0.06534025
54	0xbd49ee69	-0.04929963
55	0x3c56d277	0.013111702
56	0xbdd441fb	-0.10364147
57	0xbc157901	-0.009123088
58	0x3d95156f	0.07279479
59	0x3d9b17af	0.07572877
60	0x3d7ea818	0.062172025
61	0x3d05ee31	0.03269786
62	0xbd235cd3	-0.039883446
63	0xbc99db71	-0.018781396
64	0xbd821552	-0.06351723
65	0x3ba05ac7	0.004893634
66	0xbd1233a5	-0.035693783
67	0xbd877e01	-0.0661583
68	0xbd336d13	-0.043805193
69	0x3d330e8f	0.043715056
70	0x3d5d0ad7	0.053965416
71	0xba92a29a	-0.0011187375
72	0xbd5b01ce	-0.053468518
73	0xba86d39d	-0.0010286454
74	0xbd885d8f	-0.0665847
75	0xbc6b7406	-0.014370924
76	0x3d970c23	0.07375362
77	0xbcc7779e	-0.02434903
78	0x3b9fe322	0.0048793713
79	0x3cebc2fe	0.028779503
80	0xbd2d59c9	-0.042321954
81	0x3c349053	0.011020738
82	0x3da8b437	0.08237498
83	0xbd77bed9	-0.06048474
84	0xbda56841	-0.080765255
85	0xbd04df56	-0.032439552
86	0x3bd68b4e	0.006547368
87	0x3c822822	0.015888277
88	0xbce10d23	-0.027472084
89	0x3d95464c	0.07288799
90	0xbd34f604	-0.04417993
91	0x3d8dcf4d	0.06924305
92	0x3d9e79d6	0.07738082
93	0xbd201a7d	-0.03908776
94	0x3d867995	0.06566159
95	0x3d1119ca	0.035424985
96	0x3db98631	0.09058798
97	0x3d87c0b5	0.06628553
98	0x3dbb79ab	0.09154066
99	0xbcf88607	-0.030337347
100	0xbd7d9a2c	-0.061914608
101	0x3d1502f5	0.036379773
102	0x3db81792	0.08988871
103	0xbd7d4c10	-0.061840117
104	0xbc9e69a5	-0.019337485
105	0x3d078329	0.03308407
106	0xbd7e640a	-0.062107123
107	0x3c5077a2	0.012723835
108	0x3d4c71b0	0.04991311
109	0x3a21556e	0.00061543926
110	0x3d6571fb	0.056016903
111	0xbd6ec14a	-0.058289804
112	0x3d69ad05	0.05704977
113	0xbca41718	-0.020030543
114	0x3c66cb4c	0.014086556
115	0xbd9551b9	-0.07290978
116	0xbc92dc98	-0.017927453
117	0xbbbfc36f	-0.005852155
118	0x3d83ce1b	0.06435796
119	0x3cd6ef8b	0.02623727
120	0x3c819ab1	0.015820833
121	0xbcbf8a12	-0.023381267
122	0xbcfb1efe	-0.030654427
123	0xbca22607	-0.019793523
124	0xbd872780	-0.06599331
125	0x3b123d35	0.0022314314
126	0xbd837bc6	-0.06420092
127	0x3d812a7b	0.06306931
128	0x3d69de89	0.05709699
129	0xbd1b68f7	-0.0379419
130	0xbda2eba5	-0.07955102
131	0x3ca710e6	0.0203938
132	0x3d23c542	0.03998304
133	0xbd74f368	-0.059802443
134	0x3cd2026d	0.025635922
135	0xbd00f9f6	-0.03148838
136	0x3d928f25	0.07156209
137	0xbce6a275	-0.028153637
138	0xbd857fa7	-0.065184884
139	0xbb8a881a	-0.0042276504
140	0x3da648ca	0.08119352
141	0x3d2b3da2	0.041806825
142	0x3cce785a	0.025203872
143	0xbad5104a	-0.0016255465
144	0xbd366cac	-0.04453723
145	0xbc0a037b	-0.008423681
146	0xbc9f2d9e	-0.019430932
147	0xbc85bc45	-0.016325125
148	0x3baa3bb4	0.0051951054
149	0xba49ffd2	-0.00077056617
150	0xbd836964	-0.06416586
151	0xbdb4efc2	-0.08834793
152	0x3d8430fb	0.06454655
153	0x3d5cfb4c	0.053950593
154	0x3c15336f	0.009106501
155	0x3d6ada61	0.05733717
156	0x3d46b26a	0.048509993
157	0x3d938440	0.07202959
158	0x3d560449	0.05225018
159	0x3d333840	0.043754816
160	0xbd73f356	-0.059558235
161	0xbcc47b8b	-0.023984691
162	0x3d3187e8	0.0433425
163	0xbd32b3c1	-0.043628458
164	0x3d4a4225	0.049379487
165	0x3b691c3e	0.0035569812
166	0x3d1da00d	0.038482714
167	0xbd4c341e	-0.04985439
168	0x3ce85804	0.028362282
169	0x3db7a69d	0.08967326
170	0x3d8c0d7a	0.06838508
171	0xbd500023	-0.05078138
172	0x3d8c618e	0.068545446
173	0xbcb6b177	-0.022301419
174	0xba064145	-0.000512142
175	0xbd44e4e2	-0.048069842
176	0x3daa8b41	0.08327342
177	0xbd5ffc66	-0.054684065
178	0x3d0dec8d	0.03464942
179	0x3d579861	0.052635554
180	0xbc8a23d2	-0.016862784
181	0x3d970c13	0.0737535
182	0xbdc58ed4	-0.09646383
183	0x3d5ea28f	0.054354247
184	0x3c9d51ab	0.019203981
185	0xbd302f35	-0.04301377
186	0xbd79b59a	-0.060964204
187	0xbc4ad32a	-0.012379447
188	0x3c4ba1d6	0.012428721
189	0xbd9f73fe	-0.07785796
190	0x3d108a71	0.035288278
191	0xbcf59289	-0.0299771
192	0x3cb19ae8	0.02168031
193	0x3da80e74	0.08205882
194	0xbc533da9	-0.012893119
195	0x3d173045	0.036911268
196	0xbda98bf8	-0.0827865
197	0x3d72b097	0.05925044
198	0xbdb2bacf	-0.08727037
199	0xbd857253	-0.06515946
200	0x3c414226	0.011795556
201	0xbdc5f201	-0.09665299
202	0x3d14fec6	0.036375783
203	0xbd9ae9ca	-0.07564123
204	0xbd76dc7e	-0.06026887
205	0x3da7752e	0.08176647
206	0x3c27a7b8	0.010232858
207	0x3d5d486f	0.054024156
208	0x3d6b7af9	0.057490323
209	0xbd251a7a	-0.040308453
210	0xbd3fd949	-0.04683808
211	0x3da225e9	0.07917387
212	0xbd0bc075	-0.03411909
213	0x3dc14d3c	0.094385594
214	0x3d35e065	0.044403452
215	0x3c1e9b47	0.009680576
216	0xbda95ae8	-0.08269292
217	0xbd61fd49	-0.055173192
218	0x3d45328e	0.048143916
219	0xbd847425	-0.06467465
220	0xbc84f48a	-0.016229887
221	0x3da0d36b	0.07852825
222	0x3d8241b8	0.06360191
223	0x3d84b253	0.06479325
224	0xbda72e75	-0.08163158
225	0x3da5184b	0.08061274
226	0x3d409134	0.047013476
227	0xbae57311	-0.0017505606
228	0xbd6351dc	-0.05549799
229	0x3dd35a11	0.10319913
230	0x3b8d2040	0.004306823
231	0xbc4e034f	-0.012574031
232	0x3d212260	0.039339423
233	0x3bbfe7dc	0.005856497
234	0x3d9f91e9	0.07791502
235	0xbd67cb61	-0.05659044
236	0xbd87063c	-0.06592986
237	0xbcb0ba08	-0.021573082
238	0xbca358ce	-0.019939806
239	0xbd6819a1	-0.056665067
240	0x3c015e7c	0.007896062
241	0xbcee1670	-0.029063433
242	0xbceb8616	-0.02875046
243	0xbd816f79	-0.0632009
244	0xbb3c6798	-0.002874827
245	0x3da40515	0.08008782
246	0x3d90bcf4	0.0706729
247	0x3d4e6159	0.050385807
248	0xba8aa9fd	-0.0010579225
249	0xbd8318ad	-0.06401191
250	0x3b043a03	0.002017618
251	0xbda2174e	-0.07914601
252	0x3c2c4289	0.01051391
253	0x3d12ebaa	0.035869278
254	0x3d91dec3	0.071225666
255	0xbb793c4a	-0.003803032

layers.0.W_p_prime.weight f4 [128, 128]
0	0xbce0789b	-0.02740126
1	0xbd52634c	-0.051364228
2	0x3d89bcae	0.06725441
3	0xbd94f8e9	-0.07274038
4	0xbcef791a	-0.02923255
5	0x3cafe0dd	0.021469528
6	0x3d95094c	0.07277164
7	0xbd377577	-0.044789758
8	0xbc309660	-0.01077804
9	0x3cbf00af	0.023315756
10	0x3c1fc2af	0.009751006
11	0xbd390ecf	-0.04518014
12	0x3d2545c2	0.04034973
13	0xbd610773	-0.054938745
14	0x3d37b4e5	0.04485025
15	0xbcf016a1	-0.029307665
16	0xbcb73d77	-0.022368176
17	0x3b1f55b9	0.002431257
18	0xbd57a263	-0.0526451
19	0xbc01ffbf	-0.00793451
20	0x3d3a9336	0.045550548
21	0xbcc0484e	-0.023471978
22	0x3d6518cc	0.05593185
23	0xbc2b5d45	-0.010459249
24	0x3ca19a0b	0.019726774
25	0xbd02d038	-0.031936854
26	0xbd5a9ecb	-0.053374093
27	0xbd5a2f24	-0.053267613
28	0xbc646c7b	-0.013941879
29	0x3d089f86	0.03335526
30	0x3daac5b6	0.083384916
31	0x3d59d477	0.053181138
32	0xbd294b07	-0.041331317
33	0x3caa6423	0.020799702
34	0xbc87aa4e	-0.0165607
35	0x3d3a035b	0.045413356
36	0x3c27476f	0.010209902
37	0xbd2795fa	-0.040914513
38	0x3ce65ba2	0.028119866
39	0x3d36e24b	0.044649404
40	0x3c8353f7	0.016031248
41	0xbd036600	-0.032079697
42	0xbd6ca96e	-0.05777877
43	0xbd54429d	-0.05182134
44	0xbdb5371a	-0.088484004
45	0x3c9493be	0.018136855
46	0xbb88986d	-0.004168561
47	0x3a929c6b	0.0011185532
48	0xbc85d5b9	-0.016337262
49	0x3dae0cb1	0.084985144
50	0xbcc36e93	-0.023856437
51	0xbda74404	-0.0816727
52	0xbd0f5c8c	-0.03500037
53	0x3cb2a598	0.021807477
54	0xbd72a887	-0.05924275
55	0xbd36b62f	-0.044607338
56	0xbc88f1a0	-0.016716778
57	0x3c07f776	0.008298745
58	0x3da0f1b0	0.07858598
59	0x3da5ce94	0.08096042
60	0x3d928eb3	0.07156124
61	0xbd1fc848	-0.039009362
62	0x3d7cc8bc	0.061714873
63	0x3c5a2a1a	0.013315702
64	0xbcf98ceb	-0.030462703
65	0x3d6b9263	0.057512652
66	0xbd94403b	-0.072388135
67	0xbd6dc008	-0.058044463
68	0x3d3e3bec	0.046443865
69	0x3a0d1bc4	0.00053828605
70	0x3d9cdc1b	0.07659169
71	0xbcee3b6a	-0.029081065
72	0x3d11c4e8	0.035588175
73	0xbd95b910	-0.073106885
74	0xbdb42db8	-0.08797783
75	0x3d559a40	0.052149057
76	0xbc951ac4	-0.01820124
77	0x3d6ba606	0.05753138
78	0xbd7cf1c4	-0.061754003
79	0x3d9adefa	0.07562061
80	0xbd106ff1	-0.035263006
81	0x3d1ecb6c	0.038768217
82	0xbbc7c3e5	-0.0060963505
83	0x3d143a7d	0.03618859
84	0x3cbd67a1	0.023120703
85	0xbcec7429	-0.028863983
86	0xbd7b2420	-0.06131375
87	0xbc9e939f	-0.0193575
88	0xbd7b2848	-0.061317712
89	0xbd0d98e1	-0.034569625
90	0xbca6e529	-0.020372944
91	0xbd2a3507	-0.041554477
92	0x3cd4af43	0.025962478
93	0x3cfb4781	0.030673744
94	0x3d891e68	0.06695253
95	0xbc16209a	-0.009163046
96	0xbb55cc34	-0.0032622935
97	0xbcb4192d	-0.021984661
98	0x3d755f4e	0.059905343
99	0xbc79658a	-0.015221963
100	0xbd82c8da	-0.06385966
101	0xbd59d91a	-0.05318556
102	0xbd81390d	-0.0630971
103	0xbc922591	-0.017840179
104	0x3d2b3a11	0.041803423
105	0x3bdda49a	0.006764007
106	0xbda57065	-0.08078078
107	0xbcaa116c	-0.02076026
108	0x3c6726d4	0.014108378
109	0x3d0845b5	0.033269603
110	0xba586516	-0.0008254809
111	0x3db8f2e9	0.090307064
112	0xbb5a2218	-0.0033284482
113	0xbd3238ba	-0.04351113
114	0xbd758f46	-0.05995109
115	0x3c70753c	0.014676388
116	0xbda38d08	-0.07985884
117	0x3d703dc8	0.05865267
118	0xbd80348c	-0.062600225
119	0x3da6b0d8	0.08139199
120	0x3d7672f1	0.06016821
121	0x3c90e6c2	0.017688159
122	0xbd723468	-0.05913201
123	0x3d48bb6a	0.049006857
124	0x3daf1de4	0.08550623
125	0xbcfc1f42	-0.030776624
126	0xbb11a676	-0.0022224463
127	0xbcec4df2	-0.028845761
128	0x3d75e5a8	0.06003347
129	0xbb901da7	-0.004398066
130	0x3d488da1	0.048963193
131	0xbd80667d	-0.06269548
132	0x3cb7d55e	0.022440609
133	0x3d6609da	0.05616174
134	0x3c23f82b	0.010007898
135	0xbbb9df6a	-0.005672385
136	0x3d2423e8	0.040073305
137	0xbb1e939a	-0.0024196864
138	0x3d992f85	0.07479767
139	0xbd4292e3	-0.047503363
140	0x3d2582d6	0.040407978
141	0x3c2c86e3	0.010530206
142	0xbdac5872	-0.08415307
143	0x3c60c3ab	0.013718526
144	0x3d80b333	0.062841795
145	0xbcac5e36	-0.021041017
146	0x3c9bd1d0	0.019020945
147	0x3d54bbf4	0.05193706
148	0x3d27a0b0	0.040924728
149	0x3cc23726	0.023707937
150	0xbc3e4c98	-0.011614941
151	0xbd6c45cc	-0.05768375
152	0xbd490bb9	-0.049083445
153	0xbda4051d	-0.08008788
154	0xbdaaaeb8	-0.08334106
155	0x3d8b66bf	0.06806707
156	0xbd26a783	-0.040687095
157	0x3d9e2f1b	0.077238284
158	0xbc8e4072	-0.017364714
159	0xbd2d9d9b	-0.042386632
160	0x3d160bb5	0.03663226
161	0x3d8eacd7	0.0696656
162	0xbd5586c8	-0.05213049
163	0x3d45f814	0.04833229
164	0xbd41229e	-0.047152154
165	0x3dada122	0.08477999
166	0x3d94143b	0.07230421
167	0x3d867f12	0.065672055
168	0x3dbdf41b	0.09275075
169	0x3d745ad2	0.059656925
170	0xbd07b928	-0.033135563
171	0xbd4e863a	-0.050420977
172	0x3da174d6	0.07883613
173	0xbc96678b	-0.01835992
174	0xbd1278d4	-0.035759762
175	0xbb8e9a33	-0.004351878
176	0xbd5078e9	-0.05089656
177	0x3d4a3474	0.04936643
178	0xbbd54f30	-0.006509684
179	0x3d095406	0.033527397
180	0x3d6c558f	0.057698783
181	0x3cd6eb77	0.026235325
182	0x3c988768	0.018619254
183	0xbdade9cb	-0.08491858
184	0xbdcd5902	-0.100267425
185	0x3d83f951	0.06444038
186	0x3b078130	0.0020676367
187	0xbd5db43a	-0.054126956
188	0xbd378ed7	-0.044813957
189	0x3dc46135	0.09588853
190	0x3da2be04	0.07946399
191	0x3d478b5f	0.0487169
192	0x3d942c7c	0.07235047
193	0xbdae8b10	-0.08522618
194	0x3d5792a7	0.052630093
195	0x3d9b7b77	0.075919084
196	0x3db77590	0.0895797
197	0xbd8df26b	-0.06931003
198	0x3d40dc54	0.04708512
199	0xbc0f5fa7	-0.008750833
200	0x3d9cb9fd	0.07652662
201	0xbd2d0877	-0.0422444
202	0x3daccfa8	0.08438045
203	0xbd34c4db	-0.04413305
204	0xbb819e27	-0.003955621
205	0x3dac109d	0.08401606
206	0xbd8b9195	-0.06814877
207	0xbd56f33e	-0.052478068
208	0x3bebea07	0.007199529
209	0x3cd407ee	0.025882687
210	0x3b964575	0.0045859166
211	0x3d211d70	0.039334714
212	0x3d9121d4	0.0708653
213	0xbd925b17	-0.0714628
214	0xbdad0644	-0.08448461
215	0xbdafd10f	-0.08584797
216	0xbd818630	-0.06324422
217	0xbd774baf	-0.060374912
218	0xbd9afbef	-0.07567584
219	0x3d9c8b90	0.07643807
220	0x3db09326	0.08621816
221	0x3d35990b	0.044335406
222	0xbb9e3c20	-0.004828945
223	0xbd8cd5fe	-0.06876753
224	0x3d8b3b68	0.0679844
225	0x3d8223bb	0.06354471
226	0xbd98460a	-0.07435234
227	0x3c47aeed	0.012187702
228	0x3ccfa5c0	0.02534759
229	0x3c8e444a	0.017366547
230	0x3d17e693	0.037085127
231	0xbc12ad69	-0.008952477
232	0x3d93494f	0.07191717
233	0x3d96e9f9	0.073688455
234	0x3dad8998	0.084735096
235	0x3cfb3e2f	0.0306693
236	0xbd38085c	-0.044929847
237	0x3d819490	0.06327164
238	0x3bf1879d	0.0073709027
239	0x3ae99fee	0.0017824152
240	0x3d0eca7b	0.03486107
241	0x3dc11859	0.09428472
242	0xbcdc0e88	-0.026862398
243	0xbd8bfa87	-0.06834894
244	0xbc32c05f	-0.010910123
245	0xba487b08	-0.00076477276
246	0x3d064551	0.03278095
247	0xbd757bd1	-0.059932534
248	0xbb233fd7	-0.0024909878
249	0x3d34bd3b	0.044125777
250	0x3d967284	0.07346061
251	0xbda385e1	-0.0798452
252	0xbcd3db62	-0.025861446
253	0x3ce77bef	0.028257338
254	0xbd5a6ad3	-0.05332453
255	0xbd71a3a3	-0.058993947

layers.0.f_def.weight f4 [1, 128]
0	0x3dcab909	0.09898574
1	0xbc4b18ef	-0.012396081
2	0xbcd021e2	-0.025406782
3	0xbc1b796a	-0.009489397
4	0x3d200089	0.03906301
5	0xbd0fd73a	-0.035117365
6	0x3d46d74d	0.04854517
7	0x3d8536d4	0.06504598
8	0x3c54cda4	0.012988482
9	0x3d3350c9	0.043778215
10	0xbc289bab	-0.01029102
11	0xbdc2562e	-0.09489094
12	0x3d1d3aa1	0.03838599
13	0x3c0e42d4	0.008682925
14	0x3d4c2348	0.049838334
15	0x3d83ee82	0.06441976
16	0xbdd920da	-0.10601969
17	0x3c88bd4a	0.016691823
18	0xbd52e8c7	-0.051491525
19	0x3d972fa8	0.073821366
20	0x3d2d40f2	0.042298265
21	0xbd33e9a1	-0.043923978
22	0x3c0cfdd9	0.008605444
23	0x3d0918d9	0.033470962
24	0x3cd63b1d	0.026151234
25	0x3dd49cd8	0.10381478
26	0xbd15e1d1	-0.03659231
27	0xbd0ceb10	-0.03440386
28	0x3d8b0bad	0.06789336
29	0x3d34e679	0.04416511
30	0xbc5273e7	-0.012845016
31	0x3b83f3d4	0.0040268693
32	0xbd3d6d95	-0.046247084
33	0x3c65ffec	0.014038067
34	0xbbb334e6	-0.0054689525
35	0x3d9926e6	0.074781224
36	0x3dc30a29	0.09523422
37	0xbdbf44db	-0.09339305
38	0x386993c4	5.5689146e-05
39	0xbd635fb2	-0.055511184
40	0xbd433965	-0.047662158
41	0xbd0cfe9d	-0.034422506
42	0x3c85b455	0.01632134
43	0xbe116f0d	-0.14202519
44	0x3da64d1c	0.08120176
45	0x3cd8607f	0.0264132
46	0xbd0e9a30	-0.034815013
47	0x3b8d2c09	0.004308228
48	0xbb7583b6	-0.003746254
49	0x3d851d5c	0.064997405
50	0xbddecbcd	-0.10878716
51	0xbb369616	-0.0027860454
52	0xbddee9a2	-0.10884406
53	0x3c112c2f	0.008860632
54	0xbd4de6aa	-0.050268807
55	0xbdae36c5	-0.0850654
56	0x3d215ee1	0.039397124
57	0x3ae3a9b9	0.0017369307
58	0xbb3b017b	-0.0028534818
59	0x3c7b1032	0.0153236855
60	0x3d3e7b7c	0.046504483
61	0x3cec283c	0.028827779
62	0xbe09875d	-0.13430543
63	0xbd412008	-0.047149688
64	0x3c88167e	0.016612288
65	0x3de12255	0.109928764
66	0x3e283560	0.16426611
67	0xbda26590	-0.07929528
68	0x3d7487d2	0.05969984
69	0x3cdcad15	0.026938
70	0x3dce945a	0.100868896
71	0xbd0f1bb1	-0.034938518
72	0x3d0346ea	0.03205005
73	0x3ad891ae	0.0016522908
74	0xbd921460	-0.071327925
75	0xbdf6dae2	-0.12053467
76	0xbca7db13	-0.020490205
77	0xbd4f5b29	-0.050624046
78	0xbda71db4	-0.08159962
79	0xbc6476ee	-0.013944371
80	0xbc104e2c	-0.0088077
81	0x3da6248d	0.0811244
82	0x3bb7d796	0.0056104166
83	0x3ca7c0a9	0.02047761
84	0xbd743620	-0.05962193
85	0x3c370861	0.011171431
86	0xbd26cfe6	-0.04072561
87	0x3cc01608	0.023448005
88	0xbe0852e3	-0.13312869
89	0x3ce0f8eb	0.027462443
90	0xba817bb4	-0.0009878785
91	0xbe1ec4b5	-0.15504725
92	0x3d05ec1e	0.032695882
93	0x3c9f791d	0.019466931
94	0xbbe86285	-0.0070918226
95	0xbccec733	-0.02524147
96	0xbd9f9f23	-0.07794025
97	0xbdeacd1f	-0.11464905
98	0x3cfc1169	0.03077002
99	0x3e0c78a7	0.137179
100	0x3d768840	0.060188532
101	0xbd94abc1	-0.07259322
102	0xbd81fbe7	-0.06346875
103	0xbdc796e0	-0.09745574
104	0x3dcfa475	0.101387896
105	0xbcb7ed7c	-0.022452109
106	0x3d36c8d5	0.044625122
107	0xbdb18af7	-0.086690836
108	0x3d688a55	0.05677255
109	0xbd01a6c3	-0.031653177
110	0xbcf696d3	-0.030101215
111	0x3d2e7241	0.04258943
112	0xbcb01e69	-0.021498876
113	0x3d545fd9	0.05184922
114	0x3cb500a7	0.022095038
115	0x3c53c4d3	0.0129253445
116	0xbd0adcb4	-0.033901885
117	0x3d00cc64	0.031444922
118	0x3dab15ec	0.08353791
119	0x3d64c9e2	0.055856593
120	0xbe03c169	-0.12866749
121	0x3ddc1708	0.1074658
122	0xbcfcc138	-0.030853853
123	0x3ce77458	0.02825372
124	0x3a046107	0.00050498586
125	0xbd8555b4	-0.06510487
126	0xbd072bd7	-0.033000793
127	0xbdcf556d	-0.101237155
