refined_1000new.pth (torch, 888446 bytes, 36 tensors)

input_norm.weight f4 [7]
000000 e6 21 80 3f ca d1 5d 3f a8 c5 72 3f 1a 54 74 3f
       1.0010345 0.8664824 0.9483285 0.9544083
000010 cb 36 7a 3f be 4c 84 3f f9 f3 82 3f
       0.9773986 1.033592 1.0230705

input_norm.bias f4 [7]
000000 d2 0f 40 3d ea 1b 72 bd 9b 1b cd 3b 18 67 8f 3c
       0.046890087 -0.059108652 0.0062593943 0.017505214
000010 2f 74 57 bc 61 52 ec bb 9b 87 31 bb
       -0.013150259 -0.007211969 -0.0027088884

layers.0.embed.weight f4 [128, 7]
000000 ed 84 30 be fc 6a 63 3d ec 67 4e bd 66 36 41 be
       -0.17238207 0.05552195 -0.050392076 -0.18868408
000010 d5 55 34 3e 41 25 eb bd 9f 8f 92 be c6 6b 62 be
       0.17610867 -0.11481715 -0.286252 -0.22111425
000020 86 f4 37 3e f8 46 38 be 5b 9b cb bd 74 e4 0f bc
       0.17964372 -0.17995822 -0.09941741 -0.008782495
000030 a9 cb e1 3d f1 f1 ba 3e 9c 69 b0 be 0c 65 ad 3e
       0.11025173 0.36512712 -0.34455574 0.33866155
000040 8e 62 23 be 51 db 0c be 42 cd 6e bd 6a 3a 15 bd
       -0.15955564 -0.13755538 -0.058301218 -0.03643266
000050 5f 84 19 3e 9f a4 d3 bd b7 c9 0b be ed 59 42 3e
       0.14991902 -0.10334133 -0.13651167 0.18979616
000060 0e 47 ee 3c 17 f7 9d be ab 37 10 3e 70 cb a9 3d
       0.029086616 -0.30852577 0.14083736 0.08290756
000070 31 0b 71 bd 65 45 fa 3d 82 8c 69 be cb 13 0d 3d
       -0.058848564 0.12220267 -0.22807506 0.034442704
000080 62 96 7f be f8 d3 8f 3e ce b7 a4 bd 92 bc a1 be
       -0.2495971 0.28091407 -0.080428705 -0.3158918
000090 2c 84 b9 3d 3f b2 78 3e 93 85 66 3d 77 40 83 3e
       0.09058413 0.24286745 0.05627973 0.2563512
0000a0 bf 1f 91 be 9c b3 7f be 0b 70 3c 3d ad 8a e6 3d
       -0.28344533 -0.2497086 0.04600529 0.11256919
0000b0 f8 6b a5 3e c5 eb e4 3d 92 6a 53 3e f9 ff 4f 3a
       0.32308936 0.11177782 0.20646122 0.0007934566
0000c0 de 55 a2 bd d9 2c 0c bd ed 01 4c 3e e9 11 76 be
       -0.07926534 -0.034222458 0.1992261 -0.2403027
0000d0 f0 01 ab 3e 3c 9c 95 be 91 44 12 be 26 e6 9c 3e
       0.33399916 -0.2922076 -0.14283969 0.3064434
0000e0 fb 3c b5 3e 57 4c 3b be 3b 7a 28 bc a5 95 87 3d
       0.35398087 -0.1829084 -0.010283048 0.06620339
0000f0 d1 28 76 3e a8 08 58 be a7 be bc be 82 c2 70 3e
       0.24039008 -0.21097052 -0.36864206 0.23511699
000100 6b 84 94 be fb 4d cf bd 88 5c 03 3e 70 90 34 be
       -0.29007277 -0.101222955 0.12828267 -0.17633224
000110 8e ff 51 3e 0e 9a 2d bc 65 6f b7 bd f2 bf 09 3d
       0.20507643 -0.0105958115 -0.08956794 0.03363032
000120 81 95 17 3e 01 61 28 be 10 c2 38 bd 9e 0b a6 be
       0.14803125 -0.16443254 -0.045106947 -0.32430738
000130 bc 8f 79 be eb 7c e4 3d 9d 91 6a 3e 98 dc 4f bd
       -0.24371237 0.11156639 0.2290711 -0.050747484
000140 31 1e 86 3e 08 e1 a9 3e 63 23 62 3c 06 53 bc 3e
       0.2619491 0.33179498 0.013802382 0.36782092
000150 51 4c 1f be e5 06 ae be 75 02 91 bd 3c b4 64 be
       -0.15556456 -0.33989635 -0.07080547 -0.22334379
000160 53 fd 77 3e ad 5e 94 3e 88 e2 90 be a9 16 51 be
       0.2421773 0.28978482 -0.2829783 -0.204188
000170 1f ce 88 be 67 0f 87 3d dd 2e 1c 3e dc 46 9c 3c
       -0.26719758 0.06594735 0.15252252 0.019076757
000180 03 d0 bd 3e e4 d8 82 be d1 d2 ba be 31 3b ac be
       0.37072763 -0.255561 -0.36488965 -0.3363891
000190 1e b6 a1 be 0b e0 1f be 8f 13 71 3e d4 9f bd 3d
       -0.31584257 -0.1561281 0.23542617 0.092590004
0001a0 04 7a 9a be 67 91 80 3d 0b 40 ac 3e 04 d5 65 be
       -0.30171216 0.06277733 0.3364261 -0.2244454
0001b0 fb 3c e1 bc a2 d6 a4 3e 65 9e a3 3e d9 ff 83 3e
       -0.027494898 0.32195002 0.31956783 0.25781134
0001c0 79 46 e2 bd e4 a2 4b 3c 02 58 fb bc 31 ca 95 be
       -0.11048598 0.012428973 -0.030681614 -0.29255822
0001d0 62 5a c0 3e 68 6f f3 3d 8b 41 8d be 5d 56 1e 3d
       0.37568957 0.118864834 -0.27589068 0.03865658
0001e0 01 80 b7 3d 21 ec 77 3e 4b 90 45 3d 46 ef 1a 3e
       0.08959962 0.2421117 0.04823331 0.15130338
0001f0 c6 5a 0d be 54 ea 03 3e 7d e8 b2 be 3b aa 1a be
       -0.13804159 0.12882358 -0.34943 -0.15104
000200 a4 ca ad 3e 44 04 ab be 3f d2 09 be f9 69 7a be
       0.33943665 -0.33401692 -0.13459109 -0.24454488
000210 38 8b 05 3e e1 a6 2c 3e b5 89 46 be 53 37 66 3e
       0.13041389 0.16860534 -0.19388469 0.22482042
000220 db 8f b0 be 3c 5d 21 be d1 a8 6e be 9d 07 c7 bd
       -0.34484753 -0.15758222 -0.23306586 -0.09718249
000230 35 38 86 bd 4d 59 9a 3e 91 0c 98 3c b5 85 a6 3d
       -0.065536894 0.30146256 0.01856068 0.08130971
000240 6c 9e c8 3e a0 04 70 be 4f 3e b0 3d 78 25 81 be
       0.39183366 -0.23439264 0.086056344 -0.252239
000250 fe c9 8e 3e ab 44 27 bd be 0d 5d be 8e cf 93 be
       0.27888483 -0.04083697 -0.21587273 -0.2886929
000260 8e 18 af be a6 60 78 3e 6e e1 9b bb a1 4e 8a be
       -0.3419842 0.24255618 -0.004757098 -0.27013114
000270 c2 c0 40 bd d0 52 88 be 60 23 22 3e 43 3c 3b 3e
       -0.04705883 -0.2662568 0.15833807 0.18284707
000280 ff 56 6a 3e fa 58 88 be 33 ab 9a be 44 96 0d 3e
       0.22884749 -0.26630384 -0.3020874 0.13826853
000290 35 59 70 be df 8e 33 be 5f a1 9b be 78 16 76 3e
       -0.2347153 -0.1753497 -0.30396554 0.24032009
0002a0 62 29 ad 3e 07 28 69 be 55 18 a4 3e 4c f2 26 3e
       0.33820635 -0.22769175 0.32049814 0.16303366
0002b0 90 bb 5e 3e f3 85 d6 3e 77 87 5b 3e 30 19 60 be
       0.21751237 0.4189907 0.21438394 -0.21884608
0002c0 ac 19 15 bd 44 b8 4a 3e 71 04 5b be c8 49 f3 3b
       -0.036401436 0.19796854 -0.21388413 0.007424567
0002d0 d6 84 25 bd 87 81 a7 be e5 c5 8b 3e c2 46 20 be
       -0.040409885 -0.3271601 0.2729942 -0.15651992
0002e0 8e 87 87 3e b4 32 70 3e ca d4 78 be 4a ed bc 3d
       0.26470608 0.23456842 -0.24299923 0.09224947
0002f0 81 ab 5c be de 6e 15 3e 97 a6 ce 3d 84 c2 60 be
       -0.21549799 0.14593074 0.10090368 -0.21949202
000300 8c 5f ab 3d 23 c5 86 be 8b 5e ce 3d 95 5e 71 be
       0.083678335 -0.26322278 0.100766264 -0.23571236
000310 d4 20 f4 3c f6 35 3a be b7 f7 6d be d2 00 b9 be
       0.02980081 -0.18184647 -0.23239027 -0.36133438
000320 9a e8 32 bd 5a ae 8f be df ae ad be f8 17 56 3e
       -0.043678857 -0.28062707 -0.3392248 0.20907581
000330 9c 14 fe bd 10 93 8e be ae 71 7b be 42 3a a4 bc
       -0.12406275 -0.27846575 -0.24555084 -0.02004731
000340 36 ee a1 be 62 9b 35 3e cd cf a6 3e 5b 16 82 3c
       -0.31627053 0.17735055 0.32580414 0.0158798
000350 34 de a4 3d 9c 37 0f 3e c0 30 f4 3c 3d 23 bf be
       0.080501944 0.13986057 0.029808402 -0.37331572
000360 e5 42 a0 3e 5a 5d 7c be df 14 e1 3d 04 01 b6 3d
       0.31301036 -0.24644986 0.10990309 0.088869125
000370 d7 17 8e 3d 87 85 88 bd 77 25 cf bd 8b 66 98 bc
       0.06938141 -0.06666093 -0.10114568 -0.018603584
000380 f7 4c 39 be f3 a4 91 3e 3a c4 8b be b0 a9 a5 be
       -0.18095766 0.2844616 -0.27298146 -0.32356024
000390 bf 90 17 be 57 12 8b be b8 10 74 3e ca af 33 be
       -0.1480131 -0.2716243 0.23834503 -0.17547527
0003a0 83 e4 19 3e df a7 e4 3d 0a 07 80 3d 84 b4 b5 3e
       0.15028577 0.11164831 0.062513426 0.35489285
0003b0 a0 86 aa 3e a7 61 84 3e 80 d8 9b 3e 08 7b 8a 3e
       0.33305836 0.25855753 0.30438614 0.2704699
0003c0 6b 64 99 be e5 c7 ad be 90 3f f4 bc 95 e0 2f be
       -0.29959425 -0.3394157 -0.029815465 -0.17175515
0003d0 ed 6b 21 3e 41 98 2a 3e 3b b3 83 3e 4c e1 33 be
       0.15763827 0.16659643 0.2572268 -0.17566413
0003e0 ba 0e 49 be 1b 50 1c 3e ce 72 79 be de 80 84 be
       -0.19634524 0.15264933 -0.24360201 -0.25879568
0003f0 d9 1a 66 3e 45 51 1f be 5c c4 b0 be 68 06 a6 3e
       0.22471179 -0.15558346 -0.3452481 0.32426763

layers.0.embed.bias f4 [128]
000000 54 68 a0 bd 54 fb 32 bd e4 4a f2 bc 68 52 65 3e
       -0.07832399 -0.043696716 -0.029576726 0.22394717
000010 0c 7a 05 3d 86 7a 8d 3d 92 c4 d1 3d 07 ca a5 be
       0.032587096 0.06908135 0.10242571 -0.32380697
000020 95 dd 1c 3e d8 43 e6 bc ce 70 80 3d 19 b9 38 be
       0.15318902 -0.028108522 0.06271516 -0.18039359
000030 4c 1f a7 be 80 48 78 3e 60 41 87 3e 82 2d c3 be
       -0.32641065 0.24246407 0.26417065 -0.38120657
000040 7e 01 2f 3e 3b b2 ac 3e 85 73 46 be 63 4b 91 3e
       0.17090413 0.3372973 -0.19380005 0.28377828
000050 a5 64 a2 3e 1b b3 3f bd cd f4 97 3e fb 7a 38 bc
       0.3171741 -0.046801668 0.29678956 -0.01125979
000060 8d ba b1 3d aa ad ae bc 8d 37 86 3d ad 90 f6 bd
       0.0867816 -0.021323044 0.06553564 -0.120393135
000070 28 ef ac be 50 df a2 be 57 d5 1f be 54 ed c2 be
       -0.33776212 -0.31811 -0.15608726 -0.38071692
000080 da 5d 3e 3d a4 de cf be be 0c 18 3e ed aa 94 be
       0.046476223 -0.4059955 0.14848611 -0.29036656
000090 a6 ef 32 3e 29 5d 66 3e 83 81 7d 3e 01 7a a0 3e
       0.17474231 0.22496475 0.24756436 0.31343082
0000a0 32 f3 17 3e 3b d2 bb bd 10 c9 43 bd 53 e8 a7 3d
       0.14838865 -0.09170958 -0.04779917 0.08198609
0000b0 46 77 b7 be 35 19 b7 3e f9 39 b3 be 42 1a 4d bc
       -0.35833186 0.3576142 -0.35005167 -0.012518467
0000c0 20 27 3a bd c1 b0 d4 bd 11 d5 9c 3e 29 4f 5e 3e
       -0.04544747 -0.10385276 0.30631307 0.21709885
0000d0 ce c1 2a b8 bb 88 61 3e d0 b3 96 be 4e 21 a8 bd
       -4.0711653e-05 0.22024815 -0.2943406 -0.08209477
0000e0 65 bf 86 be e3 2c 5e 3e 08 61 3a be ad a1 63 3e
       -0.26317897 0.2169681 -0.18201077 0.22229643
0000f0 f8 a1 43 bb a4 6b 8e bd 11 ac 02 3d 48 43 67 3e
       -0.002985118 -0.069541246 0.031902377 0.2258426
000100 28 1e be 3e 03 09 b8 be db a1 2f 3d 66 e7 41 be
       0.37132382 -0.35944375 0.042878967 -0.18935928
000110 90 af 74 3e 3e d6 e5 bd ac ed ea 3d 64 ca f8 bd
       0.23895097 -0.11222504 0.114711136 -0.12147978
000120 f4 06 c9 3d 7f 8d 35 bd 60 43 8d 3e 48 e5 93 be
       0.09815779 -0.044324394 0.27590466 -0.28885865
000130 06 cb 81 bd 58 92 01 3e 94 41 69 be b7 25 ae be
       -0.06337552 0.12653482 -0.22778922 -0.3401315
000140 22 08 2c be 30 17 94 bd 69 cd 62 be 25 63 32 3d
       -0.16799977 -0.07230985 -0.2214867 0.043551583
000150 c3 76 69 be ee 9b b9 3e e9 99 d1 3d 91 b6 fe bd
       -0.2279921 0.36251777 0.10234434 -0.124371655
000160 54 c3 9f 3e 1d b1 a3 3e a0 b1 8c 3e ca 16 34 3e
       0.3120371 0.31971064 0.27479267 0.17586818
000170 15 b3 19 3e 08 07 ae bb 35 b3 30 be be 2f 49 be
       0.1500972 -0.005310897 -0.17255862 -0.19647118
000180 54 39 c5 be 3c 69 80 3e b2 f0 4e be be 25 bc 3e
       -0.385203 0.25080287 -0.20209005 0.36747545
000190 c3 ea 87 be 86 a8 bc be 81 a2 b4 be 5c 24 25 be
       -0.26546296 -0.36847323 -0.3528023 -0.16127151
0001a0 d0 59 ca 3e e7 00 e1 3d 9d 97 8a be fc 29 b4 bd
       0.39521646 0.109865 -0.27068797 -0.087970704
0001b0 22 41 4b 3e a7 e5 7d be 96 8d a9 3e 92 1d 3c 3e
       0.19849065 -0.24794637 0.33115834 0.18370655
0001c0 31 35 3f 3d 31 d1 a0 3e 98 23 09 3e 1a 04 5a 3d
       0.046681587 0.314096 0.13392484 0.053226568
0001d0 b4 7e 8d 3e 36 5d 06 be 1a 02 24 3e 9b 59 a0 bd
       0.2763573 -0.13121495 0.16016427 -0.07829591
0001e0 8f e4 ab 3e 8b db ba 3e 28 b8 a8 3e 73 41 56 3d
       0.33572814 0.36495623 0.32953 0.05230851
0001f0 d0 eb 5b 3e 1e c9 97 3e 15 3c 28 3e 9a 96 b6 3e
       0.21476674 0.29645628 0.1642917 0.35661775

layers.0.W_att.weight f4 [128, 128]
000000 27 22 22 3d 46 fc ab bd 88 9d 59 3d 35 69 c5 bc
       0.03958335 -0.08397727 0.05312875 -0.024098018
000010 f4 f4 e4 3b d2 e3 8a 3d 69 06 ec bc f9 42 a5 3d
       0.0069872085 0.067817345 -0.02881165 0.08069415
000020 60 8a f1 3c 3f 7d 2f bd ae ad e9 bc 92 74 53 3d
       0.029484928 -0.042844053 -0.0285252 0.051624842
000030 bf 65 ae bd 41 df a9 3d dd 80 23 bd ad 75 8d bd
       -0.085155 0.082945354 -0.039917815 -0.069072105
000040 d1 e2 af bc fc 2f 58 bc 47 61 bc bd 3f dc 4a 3d
       -0.02147046 -0.013195034 -0.09198242 0.04952645
000050 e4 61 a7 3d e7 4e 17 bd 99 4a c3 3c 50 67 3a 3d
       0.08172968 -0.03694048 0.023839282 0.045508683
000060 c0 82 cc 3c 42 72 1c bb 2c 4e 4d bd 81 79 a0 3d
       0.02496469 -0.0023871814 -0.05012338 0.07835675
000070 f5 27 5c 3b 6f 78 2a 3d 97 1e 91 bd 1c 09 db bd
       0.0033593152 0.04161876 -0.07085913 -0.10695097
000080 15 94 4a bd 4b bb 75 bd 46 9d 8c 3d 07 58 93 bd
       -0.04945763 -0.05999307 0.06865935 -0.07194524
000090 4a e8 1c bd be 69 ba 3c 84 fe 0c bd 86 f9 97 3d
       -0.038307466 0.0227555 -0.034422413 0.0742064
0000a0 77 c3 b5 3d a6 73 b2 3c 78 e1 b9 ba 73 e1 a2 bd
       0.088751726 0.021783661 -0.0014181575 -0.07953157
0000b0 03 63 b0 bd 04 0d 97 3d 86 d4 11 3d 90 e8 8c 3d
       -0.08612635 0.073755294 0.03560307 0.06880295
0000c0 32 f2 48 bc 80 79 1a 3c 6b 1b 5d 3b a5 24 e1 3c
       -0.012264775 0.009428382 0.0033738266 0.027483294
0000d0 46 4b 0a bc 20 f5 93 3d 87 45 27 3c a6 4f 5d 3d
       -0.008440798 0.07224488 0.010209448 0.054031037
0000e0 71 14 65 bd cc 18 5a 3d 64 32 19 3a 5b 87 f0 3c
       -0.055927698 0.053246304 0.00058439956 0.029361418
0000f0 d5 67 8f 3d a9 f1 94 bd e7 94 20 bd 55 66 96 bd
       0.07002226 -0.072726555 -0.039204504 -0.07343737
000100 f4 36 f4 3b 73 62 56 bd 32 21 ac bb c2 a0 80 bd
       0.00745284 -0.052339982 -0.0052529806 -0.06280662
000110 7d 73 78 bd 49 48 31 3d 8f 92 62 3d db 98 c1 bd
       -0.060657013 0.043281827 0.05531555 -0.09452983
000120 08 c7 54 bd 8d 7b 94 3d 92 c5 25 3d 1f 0e 7b bd
       -0.051947623 0.07250128 0.04047162 -0.061292764
000130 03 f6 80 3d a8 5c 37 3d 2a d2 c8 bc a5 e0 b4 bd
       0.06296923 0.0447661 -0.024514277 -0.0883191
000140 19 d0 a5 bd df 27 9d 3d dd a0 4f bd 06 b3 66 3c
       -0.08096332 0.076736204 -0.05069052 0.014080768
000150 c8 e7 03 bd 4f d8 8d 3d b4 21 25 bc 2e 7e a2 bb
       -0.032203466 0.06926023 -0.010078836 -0.0049588894
000160 f4 c8 05 3c 4d 7e 3a 3c e0 c6 16 3d 5e 56 36 3d
       0.008165587 0.0113826515 0.036810756 0.04451596
000170 7b ab 06 bd 0b 88 a8 bd c9 67 02 bd 4c 1c 84 bd
       -0.03287838 -0.08229073 -0.03183726 -0.0645071
000180 bb 64 be bc 72 36 20 bd cb 97 77 bd 89 58 cd 3d
       -0.023241391 -0.039114423 -0.060447495 0.10026652
000190 70 5e b9 bd 08 b5 a7 bd 29 23 de bc 4e d7 91 3b
       -0.09051216 -0.08188826 -0.027116375 0.004450715
0001a0 b7 6c 93 3d ea 2e fc 3c 77 bf 94 3d d7 20 13 3d
       0.0719847 0.03078409 0.072630815 0.03591999
0001b0 79 d6 cb 3d 63 f9 8b bd 50 49 a1 3c 85 db c3 3d
       0.09953017 -0.06834676 0.019688278 0.095633544
0001c0 ee 87 57 bc 20 13 67 b8 54 14 24 3c 9c d5 79 3d
       -0.013154967 -5.5092503e-05 0.010014612 0.06099473
0001d0 89 f4 e6 3d 8d 7d 27 bd f4 40 4a bd 25 d4 77 bd
       0.1127711 -0.04089122 -0.04937835 -0.06050505
0001e0 bb cb 2e 3d ca 09 06 3b a1 c6 16 bd 6a 12 5c bd
       0.04267476 0.0020452612 -0.03681052 -0.0537285
0001f0 97 73 f4 3c 63 8b af 3d d4 89 38 3d 3c bf 06 bd
       0.029840274 0.08571508 0.04505332 -0.03289722
000200 5b 53 41 3d e4 a2 4e 3d 66 68 6a 3d 92 3a 17 bd
       0.047198635 0.050448313 0.05722847 -0.03692109
000210 dd f2 a6 3c be 36 b5 3d cf 98 98 3d 9b fd 90 bc
       0.020379478 0.08848332 0.07451021 -0.017699054
000220 0f ea 01 bd 19 90 8f bd 10 a2 8d 3d 9d a2 d3 3c
       -0.031717356 -0.07009906 0.069156766 0.025834376
000230 66 30 59 3b a1 43 b2 3d 01 1d 43 bc 11 57 ca 3d
       0.003314042 0.087043054 -0.011908771 0.09879888
000240 aa 0a 8b 3d 42 f4 b0 3c f9 0f 9d bd 60 80 80 3d
       0.067891434 0.021600846 -0.07669062 0.062744856
000250 ed 37 70 bd 54 58 c2 3c a9 8f 91 3c 91 0e fe bc
       -0.058647085 0.023723759 0.017768698 -0.031012805
000260 74 c5 5e 3d 5a f6 a7 3d 9b 74 01 3d b1 7a aa bc
       0.054387525 0.08201285 0.031605344 -0.020810457
000270 4f f9 39 bc eb 6f da bc 78 55 16 3c 1d 5c dd 3d
       -0.011350944 -0.026664695 0.009175651 0.10808585
000280 66 0a d6 3b 65 11 31 bd 0e c9 73 3d 6a 70 5b bd
       0.0065320013 -0.04322948 0.059517913 -0.053574003
000290 a7 d3 53 bc d3 fc 1e 3c a1 16 90 3c 61 10 92 3d
       -0.01292888 0.009703833 0.017588915 0.0713203
0002a0 c1 a4 41 bd b3 0f 0c bd 5a bf 44 bd 30 31 3c 3d
       -0.047276262 -0.03419466 -0.04803405 0.045945346
0002b0 62 b5 b9 3d 2c 63 78 3d 08 1e 84 3d 82 fa 87 3d
       0.09067799 0.060641453 0.064510405 0.066395774
0002c0 73 3a 16 bd 4a 14 17 3a de a0 b3 bd 02 9d 2d bd
       -0.036676835 0.0005763216 -0.08770917 -0.042386062
0002d0 a4 fd 9e 3c bc f8 62 3d 27 a2 79 bd aa 97 b0 3d
       0.019408055 0.055412993 -0.060945656 0.086226776
0002e0 ea 69 a8 3d e7 1c b6 bd cc df 8a 3d 4f 4e bc 3b
       0.082233265 -0.088922314 0.06780967 0.00574664
0002f0 18 4c 9d bd b9 16 76 bd 35 90 5e 3c 5f 26 eb bc
       -0.07680529 -0.060080264 0.013584186 -0.02870482
000300 c3 fa 93 bd b5 8b a4 3c 37 b2 00 bd 26 9a ee bb
       -0.072255634 0.020086149 -0.03141996 -0.0072815595
000310 6f 4f 89 bc 42 4e a1 3d 9c 30 0e bd 8b 55 ba 3d
       -0.01676151 0.078762546 -0.034714326 0.09098347
000320 1c a5 11 bd 6f d4 aa bc 2a 5d 61 bd 41 e5 87 3d
       -0.03555785 -0.02085325 -0.05502049 0.066355236
000330 07 c0 12 3d a2 6b b3 3d 29 9e 9b 3d 1e 12 46 bd
       0.035827663 0.08760764 0.07598526 -0.04835712
000340 10 6f 05 3d 22 5d 94 3d 43 69 87 bd ba 7f af bd
       0.03257662 0.07244326 -0.06611874 -0.08569284
000350 07 a5 0d 3d c5 e7 5b 3d 7d bd a0 3d 6f 81 77 3d
       0.03458121 0.05368783 0.07848642 0.060426172
000360 6e 84 0a bd b1 92 1d 3c 5d 24 e2 bb b1 af a7 bd
       -0.0338177 0.0096174935 -0.0069013075 -0.08187807
000370 fa 7f ab bd ab ec 7e 3c bf d8 b0 3c 66 f2 9c 3d
       -0.08374019 0.015559356 0.021587728 0.07663421
000380 70 b6 bd 3d 1c d3 0f bd 87 64 9a bd bf 84 8c bd
       0.09263313 -0.03511344 -0.07538705 -0.06861257
000390 c6 9e 2a 3b 68 be 45 3c 70 c9 d8 3d ce 01 9a 3d
       0.0026034578 0.012069322 0.10585296 0.075198755
0003a0 68 ed 43 bd 1f 45 d2 bc c8 41 25 bd 15 27 d2 3c
       -0.04783383 -0.025667725 -0.040345937 0.025653401
0003b0 c8 5f a8 bd 4f 05 c6 3d a9 2a 82 3d 75 cc 9b bc
       -0.08221394 0.09668981 0.06355793 -0.019018391
0003c0 3f 45 60 bc 98 41 51 3d 15 91 fb bb 5d 37 8e bd
       -0.013688385 0.051087946 -0.0076772072 -0.069441535
0003d0 8f 41 4e 3a e5 f8 90 3c 90 4e ff 3c 45 cf ad 3d
       0.00078680454 0.017696807 0.031165391 0.08486799
0003e0 21 12 1b 3d f4 68 95 3d 56 31 b6 bd 42 2c 26 3c
       0.037859086 0.07295409 -0.08896129 0.010142388
0003f0 7b 4a a1 3c cd 90 1c bd 00 22 10 bd 09 b1 77 bd
       0.019688835 -0.03822403 -0.035188675 -0.06047157

layers.0.phi_att.weight f4 [128, 128]
000000 68 61 29 bd a3 8c 56 bd 3e e1 9f bb b2 bc 97 3d
       -0.04135266 -0.052380215 -0.004879146 0.07409038
000010 bc b3 05 3d e8 15 07 3d e4 46 85 3d fa b6 ce 3c
       0.03264211 0.032979876 0.06507662 0.025233734
000020 4a 3f 8c 3d ba a4 45 bd 91 60 ac 3d bf 86 f1 3c
       0.06848009 -0.0482528 0.08416856 0.029483197
000030 7d bf 48 3a cf 56 99 bd 79 bc db bd 06 6e 8b 3d
       0.00076579285 -0.074872606 -0.10729308 0.06808095
000040 45 dd ec bd 76 a2 a9 b8 99 c5 e6 3c 14 4c d1 3d
       -0.11565641 -8.088809e-05 0.028170394 0.10219589
000050 e7 e9 5c 3d 4c 34 cf 3d 57 47 08 3d 1b 31 b2 3d
       0.053934004 0.10117397 0.03327116 0.087007724
000060 75 c3 87 3d 86 d4 08 3d bd 38 a4 bd ba b6 1d bd
       0.06629077 0.033405803 -0.080186345 -0.03850434
000070 6f 81 a2 bd f3 de 81 3d f4 25 d2 3d e0 a3 16 3d
       -0.07934844 0.06341352 0.10261145 0.036777377
000080 4b 1b d6 3c d4 ca cb bd a9 6a 4e 3d 06 7a 52 bd
       0.026136061 -0.09950796 0.050394688 -0.051385902
000090 bf e4 ac 3d 29 3f 45 3d 16 33 7d 3d 7f fb 91 3c
       0.08442067 0.048155937 0.061816297 0.017820118
0000a0 1c 79 95 bd b5 2e 97 3d 67 62 2b 3d 34 26 a2 3d
       -0.072984904 0.073819555 0.04184189 0.07917443
0000b0 6f dc b7 bd 26 fc 02 bd f6 06 e2 3b 2a 20 60 bd
       -0.08977591 -0.03197875 0.0068978025 -0.054718174
0000c0 75 e3 8d 3d 9b 03 3a 3c 5b 00 75 bd 92 ad 24 bd
       0.069281496 0.011353399 -0.059814792 -0.040204592
0000d0 3b a6 94 3d ba 8c 9e bd b8 4b 3a bd 9a db 74 3d
       0.072582684 -0.07741685 -0.045482367 0.05977974
0000e0 eb 2b 90 3d 0e a5 1a bd c0 c5 7b bd 22 13 57 3d
       0.07039627 -0.037755065 -0.061467886 0.05250848
0000f0 b9 7c a5 bd a1 8d 39 ba 2c 30 d0 bd 0b 8d 0f 3c
       -0.080804296 -0.00070782943 -0.10165438 0.008761655
000100 e2 c8 fc 3d 9a 81 94 3c 93 fb 90 3d e3 61 af bd
       0.12343003 0.018128205 0.07079234 -0.08563592
000110 b0 04 c4 bd 94 26 7d 3d 5a 30 08 bd 63 2e fa bc
       -0.095712066 0.06180437 -0.033249237 -0.030539697
000120 74 4d a9 3d 6a 47 ae bd 67 d4 42 3d 97 1e 5f bd
       0.08266726 -0.08509715 0.047565844 -0.054472532
000130 56 f6 d0 bb ae 8e d0 bd 69 04 46 bc 9f 83 62 3d
       -0.006377022 -0.10183464 -0.012086012 0.055301305
000140 42 6e 92 bd 53 a9 bd 3d 52 34 da 3d a8 41 f3 bb
       -0.07149936 0.09260812 0.106545106 -0.0074235983
000150 7a f2 bd bd 65 3c 22 bd 7c cc 91 bd 1e 51 57 bb
       -0.09274764 -0.039608378 -0.071190804 -0.0032854746
000160 95 82 d6 3c de 2c 36 3d ba 5d ef bd 9d 59 fb 3a
       0.026185313 0.044476382 -0.11687799 0.0019176487
000170 56 20 11 bc e1 d7 03 be 92 66 f0 bc c5 93 e3 bc
       -0.008857807 -0.1287532 -0.029345784 -0.027780423
000180 c5 25 ff 3c a5 6a 53 bd 89 27 ec 3c 11 aa 02 be
       0.03114594 -0.051615376 0.028827446 -0.12760188
000190 68 b2 cb bc be 86 83 3c 6a 05 85 3c 12 ca a3 3d
       -0.024865344 0.016055461 0.016237933 0.07997526
0001a0 36 a8 26 bd ce 1b a2 bd d0 0b 0b 3d e1 f6 e1 3d
       -0.040687762 -0.079154596 0.033946812 0.110334165
0001b0 21 78 16 3d 72 07 a6 bc 6d 1d 36 bd 05 fd 79 3d
       0.036735658 -0.020267222 -0.044461656 0.061032314
0001c0 8c 74 2b 3d 15 c5 1c bd de 7a a5 bc 2c b0 8b bd
       0.041859195 -0.03827389 -0.02020019 -0.068207115
0001d0 8e 36 c1 bd 4c dd 49 bd 03 c0 d2 3b 4a 4c c2 3d
       -0.094342336 -0.04928331 0.006431581 0.09487207
0001e0 12 ee 70 bd ca 90 2b 3d 4e 7c df bc 43 72 83 bd
       -0.05882079 0.04188613 -0.027280953 -0.06418278
0001f0 99 4f a4 bd b3 08 0e 3d ce de 5b 3d 90 df 0e bd
       -0.080229945 0.034676265 0.05367928 -0.034881175
000200 d3 f2 ef bd 59 4a 8b 3d d1 35 82 3d 2a 83 0b 3d
       -0.11716237 0.0680129 0.06357921 0.034060635
000210 52 cb cb 3d ab 80 4a 3d 08 7c a4 bd c9 5c f1 3c
       0.0995089 0.049439114 -0.080314696 0.029463189
000220 6f 8b 2c 3d 07 81 65 bd c7 21 f8 bc 5c ba 96 3d
       0.04212516 -0.056031253 -0.030289544 0.07359764
000230 4e 2b da bd 73 1b a4 3d 4d 4d 1a bd 1f 4b be bc
       -0.10652791 0.08013048 -0.037671376 -0.02322918
000240 0b 05 d6 bd 5f 18 2d 3b e1 2b f1 bc 12 f8 30 bd
       -0.104501806 0.0026412231 -0.029439868 -0.04320533
000250 a1 72 08 bd fb 85 d1 bc aa b5 b9 3d bd eb 24 3d
       -0.033312444 -0.025576582 0.09067853 0.04026388
000260 05 2d 54 3c 03 b9 36 3c 19 45 09 3d 66 34 a1 3d
       0.012950187 0.011152509 0.033513162 0.07871322
000270 40 43 2a 3c 9c 16 0a bd b0 82 5b 3d ea e5 15 bc
       0.01039201 -0.03371297 0.05359143 -0.009149054
000280 65 f7 97 bc 47 58 9f bd 20 87 d9 3c f3 e1 7b bc
       -0.018550584 -0.077805094 0.02655369 -0.015373695
000290 ba a5 f3 3d f2 fa 1d 3d 60 76 1d bd 7b 19 9b 3d
       0.11896844 0.0385694 -0.03844297 0.075732194
0002a0 85 39 0d 3d 19 f0 4a 3d 9f 6e e5 3d 3f cc 80 3d
       0.034478683 0.04954538 0.1120274 0.06288957
0002b0 1c 37 eb 3b 9a 22 19 3d 1e 47 b6 bb 03 81 5f 3d
       0.0071782004 0.037386514 -0.005562677 0.054566395
0002c0 75 67 76 bd 50 57 4e 3d 38 05 54 bd 37 f5 75 3d
       -0.060157258 0.050376236 -0.05176279 0.06004831
0002d0 2d 01 47 3d d0 91 aa bd 98 98 5c bd 0e 39 fe 3c
       0.048585106 -0.08328593 -0.053856462 0.031033065
0002e0 c4 fc 2b 3d e5 5f 8f bd 2e a2 82 bc 27 9f 0a bd
       0.041989103 -0.07000712 -0.015946474 -0.033843186
0002f0 62 d6 f2 3b 1a 6b 52 bd 63 d0 33 3b 0c 1d fb 3b
       0.0074108103 -0.05137167 0.002743744 0.0076633748
000300 ab f7 57 bd d8 58 a1 bb f7 b2 58 3c c8 17 ca bc
       -0.05272643 -0.004923921 0.013226262 -0.024669543
000310 d1 22 8a bd 28 ca a4 3d 2f 81 2c bd 64 25 3c 3d
       -0.06744922 0.08046371 -0.042115387 0.045934096
000320 dd b6 be bc 62 32 fc bd 86 64 a1 bc 0e 7a 91 bd
       -0.023280555 -0.12314297 -0.019701254 -0.07103358
000330 11 11 b0 3d 4b 54 a9 bd ad 66 66 bc 3e 63 4a 3d
       0.08597005 -0.08268031 -0.014062566 0.04941105
000340 09 16 3a bc 0e 8f 44 3d f7 59 78 3d 24 4d e4 3d
       -0.011357793 0.04798799 0.060632672 0.11147526
000350 1f 13 1b bd 34 4e 0d 3c d8 0e 83 3d fa e2 08 bd
       -0.037860032 0.008624602 0.063993156 -0.033419587
000360 2a 7c 38 3d 70 01 d6 3c e0 78 2a 3d b1 2d ed 3c
       0.045040287 0.026123732 0.04161918 0.028952451
000370 3b d2 3c 3d 4a b7 75 3c ba 65 3d bd 73 57 b1 3d
       0.04609893 0.014997313 -0.046239592 0.08659258
000380 68 6f 82 3d 45 0b b9 3d 20 2c ae bd 21 b2 fd 3c
       0.06368905 0.090353526 -0.0850451 0.030968728
000390 27 50 0a 3d be 41 08 3d 04 fd e4 3b ef 82 1e 3c
       0.033767845 0.03326582 0.0069881696 0.009674772
0003a0 93 04 43 bc 55 66 66 3d a9 75 04 3d 36 da 59 bb
       -0.011902946 0.056249935 0.032338772 -0.0033241636
0003b0 43 d3 66 3d 8e 3c 40 bd 29 d5 02 bd 66 5c 4e 3d
       0.05635382 -0.04693275 -0.031941567 0.050381087
0003c0 1d 85 52 3d b4 d2 d2 3d 1a f9 86 bd 69 08 50 3d
       0.051396478 0.10294095 -0.06590481 0.05078927
0003d0 22 bf df 3c 5c b2 1e bd 1e 11 c5 bb 29 23 26 bb
       0.027312819 -0.038744316 -0.0060140034 -0.0025350547
0003e0 6e 4b ff bc 8b 22 d6 bc 1e 97 9f bc 07 da 96 3d
       -0.031163897 -0.026139518 -0.019481238 0.07365804
0003f0 b6 9e fd bd 63 fd ca 3c 9b 8f 92 3d 0d 84 a9 3d
       -0.12383787 0.024779027 0.07156297 0.0827714

layers.0.phi_att.bias f4 [128]
000000 7c 21 0e 3d 34 43 e8 bc c4 4f eb 3c 39 b6 88 bc
       0.034699902 -0.028352357 0.028724559 -0.016688453
000010 8b c4 76 bd fe 9b ee bc 75 7e 26 3d 2b 04 ed 3c
       -0.06024603 -0.029127117 0.040647943 0.028932652
000020 fc c4 0c 3c 63 2f de 3c 29 da d3 bc 6a eb 16 bc
       0.008591887 0.027122205 -0.025860863 -0.0092114005
000030 e0 c7 a1 bd fa d8 a1 3d f4 81 fc 3c f9 1a 8a 3d
       -0.07899451 0.07902713 0.030823685 0.06743426
000040 04 1d ce ba 08 76 a8 3c 86 d2 b0 3d c9 13 1c bd
       -0.00157252 0.020564094 0.08633904 -0.038104806
000050 7f 3e 6c 3d a1 4b 54 3d 0c 42 d8 3c 97 69 05 bd
       0.05767679 0.051829938 0.026398681 -0.0325714
000060 d4 33 b2 3c 82 c3 13 bb 32 1b 81 bd 7b 56 89 bd
       0.02175323 -0.0022546952 -0.06304015 -0.06705948
000070 d6 2c 1d bd f4 eb 95 bd 52 f3 6b 3d e5 1c c6 3c
       -0.038372837 -0.07320395 0.057605095 0.0241837
000080 12 22 b9 bd f3 94 94 3c 19 bb 1d bd 8b ea a1 bd
       -0.090397015 0.01813743 -0.03850851 -0.07906064
000090 76 fe b3 3d ff b7 f4 bc 53 d5 c3 ba bc 06 c5 3c
       0.08788769 -0.029872892 -0.0014940895 0.024051063
0000a0 e3 20 af 3c 8d b2 d5 bd b3 ba 37 3d 15 7d b4 3d
       0.021377986 -0.104344465 0.044855785 0.0881292
0000b0 9c c8 a3 3d d5 4b 87 bd 13 59 93 bd a0 ab 47 3c
       0.079972476 -0.06606261 -0.07194724 0.012186915
0000c0 2e 8f 25 3d 30 bf b7 3d 3e cf 62 3d 9d 77 81 3d
       0.04041975 0.08972013 0.055373423 0.063216425
0000d0 11 0c 7b 3d 71 df 03 bd 5e a1 0d bd a3 53 13 bb
       0.061290804 -0.032195512 -0.03457772 -0.0022480271
0000e0 cd 80 59 3d 1e 75 1c 3c e2 ff 45 bd 60 27 c8 3d
       0.05310135 0.009549407 -0.048339732 0.09773135
0000f0 ad 8c c1 bc 72 dc a1 bd de e5 55 3d a7 57 a6 3d
       -0.02362665 -0.07903375 0.05222117 0.08122187
000100 61 09 62 3c 3d 79 9f bc 04 2a 70 bb 33 80 1f bd
       0.013796181 -0.01946699 -0.0036646137 -0.03894062
000110 bf 19 b8 3d 58 01 6f bd b7 40 23 bd 1a ac ab 3d
       0.08989286 -0.05835089 -0.03985664 0.08382435
000120 4f b1 b2 3d 2b 1b 83 bd 50 f8 ce 3c 72 65 1d bd
       0.08725225 -0.06401666 0.025264889 -0.038426824
000130 de df ca bd 02 be 6f bc 94 6a 50 3d 0d 55 20 3c
       -0.099059805 -0.014632704 0.05088289 0.009785903
000140 f0 3c 9e bd 0d c1 ac 3d 0d 05 2e 3d b7 75 70 3d
       -0.07726467 0.08435259 0.042485286 0.05870601
000150 8c 8f 2b bd 43 f3 8d bd 86 06 8a 3d 98 89 94 3d
       -0.041884944 -0.06931164 0.067395255 0.072528064
000160 47 81 7b 3d aa 00 36 bd 73 e7 93 bc f5 53 69 3d
       0.061402585 -0.044434227 -0.0180547 0.056964833
000170 a0 2b 79 3d 24 81 d2 bd 1d 57 a2 3d 79 d8 aa bc
       0.06083262 -0.10278538 0.07926772 -0.020855175
000180 89 9b b8 3d 59 59 28 3b 6a 06 a4 bc f3 1e 65 bd
       0.09014041 0.002568802 -0.02002259 -0.05593772
000190 60 20 9b bd 10 46 50 3d a2 f3 87 3c 09 5c b4 3c
       -0.075745344 0.050848067 0.016595665 0.022016542
0001a0 e5 65 3a 3d bd 3d ac bd a4 70 1b 3d b1 c4 27 3c
       0.04550733 -0.08410213 0.03794922 0.010239766
0001b0 18 08 7d bd 3b ae ef 3c 05 b3 6d bd ad 7b 92 bd
       -0.061775297 0.029257884 -0.058032054 -0.071524955
0001c0 9a 69 b1 bc 3f a4 40 3d 53 8f ed bc e5 dd 1c 3d
       -0.0216568 0.047031637 -0.028999006 0.038297553
0001d0 b1 a7 57 bd 2d 08 4a bd 70 47 6b bd 76 52 89 3d
       -0.052650157 -0.049324203 -0.057441175 0.06705181
0001e0 7a ef 89 3d 8b be fa 3c 41 1a b3 bd 3e 51 15 b9
       0.0673513 0.030608436 -0.08745242 -0.00014240012
0001f0 7c 76 11 3c 73 d6 93 bc 70 d7 ed 3c 2f 7e 6a bd
       0.0088783465 -0.018046593 0.029033393 -0.057249244

layers.0.W_p.weight f4 [128, 128]
000000 4d 47 22 bd 78 9b 89 bd a2 c6 a7 bb 87 45 f8 bc
       -0.03961878 -0.067191064 -0.0051201144 -0.03030659
000010 9f 1b 35 3d 98 20 94 bb 7f e5 33 bc 95 7d fd 3b
       0.044215795 -0.004520487 -0.010980009 0.007735918
000020 88 9d 7c bd 03 6c a9 3d a1 c3 32 bd f1 bf af 3d
       -0.06167367 0.08272555 -0.043643598 0.08581532
000030 10 b2 a5 3d 2e 94 03 bd 14 7b 6a 3d 34 bc ef 3b
       0.08090603 -0.032123737 0.057246283 0.0073161367
000040 fc c9 17 bd f7 5f 98 3d 80 a6 30 bd 1f ce bc bd
       -0.03705786 0.07440179 -0.043127537 -0.09219002
000050 7d c0 0f 3d 1f 10 a2 3d 19 e4 7c bd 38 59 63 3d
       0.03509568 0.07913231 -0.06174097 0.055505008
000060 ce ac 30 bc a0 07 90 3d 8a b1 e0 3c 66 65 49 3d
       -0.010783387 0.07032704 0.027428407 0.049168967
000070 3b 5a b5 3c c1 e3 b3 3d db e0 69 bc 64 97 98 3d
       0.022137752 0.08783675 -0.014274801 0.074507505
000080 29 75 52 3c a0 56 38 bd 19 e1 b7 bd 89 98 5f bd
       0.012845316 -0.045004487 -0.08978481 -0.05458883
000090 67 ee 8a bd 33 85 68 bd 11 21 a1 bd 5e 7a b7 3c
       -0.06783753 -0.056767654 -0.07867635 0.022397216
0000a0 92 30 81 3d a9 6e f8 3c d1 c5 1d 3d 57 28 5e bd
       0.06308092 0.030326204 0.03851873 -0.05423769
0000b0 65 63 26 bd 2b 12 b7 3b 9d 03 74 3d 78 56 27 bd
       -0.040622134 0.0055868826 0.05957376 -0.040853947
0000c0 8f 28 25 3d eb 0e 05 bc 28 d4 fb bc 6d 8d 97 3d
       0.040321883 -0.0081212325 -0.030740812 0.07400022
0000d0 ab d0 94 bc 06 cc 8b bc 75 b4 a0 bd 8e ce 3e 3d
       -0.018165907 -0.01706506 -0.078469194 0.046583705
0000e0 8f 55 d2 3d 13 3f 80 3d 81 8d 99 3d 4d 8d 38 3d
       0.10270225 0.062620305 0.07497693 0.04505663
0000f0 b1 14 a5 bd d4 a1 61 bd be c5 17 3d 95 2a 22 bd
       -0.08060587 -0.055085972 0.037053816 -0.03959139
000100 b7 1a b1 bd 6b 7d 13 3d 81 94 ea ba 60 71 c5 3c
       -0.086476736 0.03600828 -0.0017897041 0.024101913
000110 55 db 6c bd 23 6c af 3d 77 d1 a1 bd 03 19 8a bd
       -0.05782636 0.08565547 -0.079012804 -0.06743052
000120 89 ca 98 3d 06 2d b4 3c 71 ec 31 3d ec 6b 48 bd
       0.074605055 0.021994125 0.04343838 -0.048931047
000130 45 e1 af 3d 27 9a 66 bd 04 e0 a0 bd 5c da 5d 3d
       0.08587889 -0.056299355 -0.078552276 0.05416332
000140 50 b2 17 3d 0b 90 2d bc 5b ab 2c 3c ed 72 3f bd
       0.037035286 -0.010593425 0.010538901 -0.04674046
000150 1a 67 16 3d 8e d7 1f 3d 56 bf 8b 3d cc d6 88 3d
       0.03671942 0.03902393 0.06823604 0.06681594
000160 0f eb 85 bd 0c 5e 1c bd 92 3f 0b bb aa 7c 95 bd
       -0.065389745 -0.038175628 -0.0021247608 -0.072991684
000170 f8 a3 d8 3c b5 0d b5 3d 46 64 1e 3d 86 fc 73 3d
       0.026445374 0.08840505 0.038669847 0.059566997
000180 d3 7d 6b 3d b8 f5 a6 3d e5 c4 10 3d 8e e9 d7 bd
       0.057493042 0.08152336 0.035344023 -0.10542594
000190 04 9d 30 3d f0 3b 50 bd 6b 9f b0 bd b1 f3 16 3d
       0.04311849 -0.05083841 -0.086241566 0.036853496
0001a0 25 b4 e3 bb 1b d1 a3 bd 3a 33 43 3d ad da c3 bc
       -0.006948965 -0.07998868 0.047656275 -0.023907984
0001b0 37 0b 4c bd 41 6b c6 bc 79 e2 0d 3d f5 69 9f 3d
       -0.049815383 -0.024221065 0.03463981 0.077838816
0001c0 31 f1 82 3d e9 e2 15 3d 0e 53 99 bc e2 da 8f bc
       0.0639366 0.03659335 -0.018716361 -0.017560426
0001d0 c7 58 55 bd ba 68 0d 3d 71 b0 86 3d c6 84 aa 3d
       -0.052086618 0.034523703 0.06576622 0.08326106
0001e0 d6 b5 9f bc 55 0e 78 bd 3d ba 02 3c f5 92 9d 3d
       -0.019495886 -0.060560543 0.007978973 0.076940455
0001f0 70 a9 d8 3c e7 4f 06 bd e4 45 0d 3d 41 e2 43 bd
       0.026447982 -0.032791045 0.03449048 -0.047823194
000200 f4 44 8b bc 61 3e 84 3d c8 7e 0c bc 2f 5c 35 bd
       -0.017000653 0.0645721 -0.008575149 -0.044277366
000210 ff 31 b8 3d 6f e8 ce 3c 07 0b 79 3d e4 db 25 bb
       0.08993911 0.025257317 0.060801532 -0.0025308067
000220 00 aa ca 3c e8 0a 8e bd f8 d4 97 3d dc e4 08 3d
       0.024739265 -0.06935674 0.074136674 0.033421382
000230 cb ea 29 3d ea 0c dd bc 90 89 80 bd d7 64 a0 3c
       0.04148368 -0.026983697 -0.06276238 0.019579334
000240 8f 40 21 3a d8 b9 51 bd cd 8b bd 3c 26 27 ac 3d
       0.00061512826 -0.051202625 0.023137951 0.084059045
000250 aa c3 7f 3d ab ee 1a bd b9 5f 9c bd d6 3a 14 bd
       0.06244246 -0.037825268 -0.07635445 -0.036188923
000260 24 1c 24 bd 58 3f eb bc b7 f3 82 3d 0c 83 38 bd
       -0.0400659 -0.028716728 0.06394141 -0.04504685
000270 65 3e 47 3d fc d7 aa bd cd 27 ba 3c 97 0e 3d bd
       0.04864349 -0.08341977 0.022724057 -0.046156492
000280 5d 0b af bd 08 d1 06 bd ed 50 2a 3d ed a8 2e 3d
       -0.08547089 -0.03291419 0.041581083 0.04264157
000290 90 f2 43 bc df d1 88 bc 94 3c 4b 3b 6a 1e cf 3a
       -0.011959687 -0.016701637 0.003101145 0.0015801911
0002a0 e2 d7 16 bd da e6 f2 bc 35 b2 4f 3d c7 bf 9a bd
       -0.036826976 -0.029651094 0.05070706 -0.0755611
0002b0 0a 81 f4 bc c5 4c d2 3d 10 b9 ad 3d 54 7b 60 bd
       -0.029846687 0.10268549 0.084825635 -0.054805115
0002c0 f2 53 8c 3d b6 7c 73 bd ca b1 2e bd 88 2c 4f bd
       0.06851949 -0.059445105 -0.04265002 -0.050579578
0002d0 e3 eb 08 bc 76 81 27 bc 64 a2 7c bd 95 e0 24 bd
       -0.008357021 -0.010223737 -0.061678305 -0.04025324
0002e0 73 9d 0a 3c 74 f5 48 bd 33 cd c1 bc 25 66 4a 3b
       0.00846039 -0.049062207 -0.023657417 0.0030883637
0002f0 fb be 96 3d bf fd 33 bd 12 0b c4 ba 8e 40 49 3d
       0.073606454 -0.043943163 -0.0014956912 0.04913383
000300 68 0f 14 bc ce 36 46 3d 9d 49 b4 bd a8 8d 8c bd
       -0.009036876 0.04839211 -0.08803103 -0.06862956
000310 08 eb b9 3d 77 36 7a bd 17 f7 31 3c 92 76 a0 bd
       0.09078032 -0.061087098 0.0108621335 -0.078351155
000320 f2 59 1c bd 85 52 49 bd f0 5b 73 bc 9d a2 c2 bd
       -0.038171716 -0.049150962 -0.014853463 -0.09503672
000330 e8 2b 71 3c ac 09 7c 3c 41 53 c9 3d e2 72 39 3d
       0.014719941 0.015383165 0.098303325 0.045275576
000340 fa a6 66 bd 68 03 d1 bb 5f 78 13 3d 4c 2c 80 3d
       -0.056311585 -0.00637858 0.036003467 0.06258449
000350 fe 2f 25 bb f0 95 ec 3d 3a 63 be bd 1f e0 52 bd
       -0.0025205608 0.11552036 -0.0929627 -0.05148327
000360 47 87 92 3d f6 ad 09 bd 8a eb 79 3d b0 f2 19 bd
       0.07154708 -0.033613168 0.061015643 -0.03758496
000370 37 d3 84 bd 2d 83 4e bd 86 39 02 3d c1 d2 24 3d
       -0.064855985 -0.050418068 0.03179314 0.040240053
000380 89 75 b1 bd 46 ca a4 3d 8e 9f 9f bd 16 ac 82 3d
       -0.08664996 0.08046393 -0.077941045 0.06380479
000390 ca 23 fd bc 80 b2 31 bd c3 a9 e1 bc 30 5e 95 bc
       -0.030900855 -0.04338312 -0.027546769 -0.018233389
0003a0 14 67 cf 3b 2c 5c 8c bd ab 04 84 bc 70 d0 83 bd
       0.0063294265 -0.06853518 -0.016115507 -0.06436241
0003b0 9d fb b7 bc 08 d6 a1 bd 40 2d 52 3d 11 29 43 3d
       -0.022458846 -0.07902151 0.051312685 0.047646586
0003c0 ab 4d ff bc c6 3d 19 bd 06 c0 8e bc 68 81 52 3d
       -0.031164965 -0.037412427 -0.017425548 0.051392943
0003d0 31 a7 bc 3d 28 91 56 3d 12 9f ac 3d af 94 c4 bc
       0.09211577 0.052384526 0.08428778 -0.02399668
0003e0 b3 a3 9b 3c 4d 1d 92 3d b5 5d 09 3c b1 3d 5b bb
       0.018998956 0.07134495 0.008384158 -0.003345352
0003f0 a8 5d fa 3c d5 2b 68 bc ad 7f e3 3c a5 5e 7c bd
       0.030562237 -0.014170607 0.027770841 -0.061613698

layers.0.W_p_prime.weight f4 [128, 128]
000000 2f 81 8a 3d ae 20 3b bd e1 17 3f bc 17 46 08 3d
       0.06762921 -0.045685463 -0.011663408 0.033269968
000010 3b 95 c2 bc 35 49 65 bd e3 e2 98 3b 51 49 f6 3b
       -0.0237528 -0.05597802 0.004665719 0.007516064
000020 91 a5 a0 3d 59 3d 4d 3d 1b 60 5c bb c1 b9 16 bc
       0.07844079 0.050107334 -0.003362662 -0.009199561
000030 61 46 aa bd 69 f0 3c 3d 75 f2 1b bc a9 64 a6 bd
       -0.08314205 0.04612771 -0.0095182555 -0.08124668
000040 a3 c8 3e 3d 2e 4c bb 3d 48 2e 47 3d 06 15 88 3d
       0.04657806 0.091453895 0.04862812 0.06644635
000050 2c b5 66 bd 3d 33 3d bc 13 1a 1b bd f2 5f 0c 3d
       -0.056325123 -0.011547861 -0.037866663 0.034271188
000060 f2 39 39 bd a1 c3 0a 3d ba b8 45 3a ef a9 3e b8
       -0.045221277 0.033877973 0.000754248 -4.5457793e-05
000070 f1 f2 6d bc 6d 78 9d 3d 5e b0 d0 bc 67 4b d8 3c
       -0.014523254 0.07688985 -0.025474723 0.026403142
000080 b8 96 87 bd 01 d3 95 3d e7 be 81 3d 8f 4c b7 3c
       -0.06620544 0.073156364 0.0633524 0.022375373
000090 7a 12 71 bd e0 2b c0 3d 48 4c 6d 3d aa 46 c1 3d
       -0.05885551 0.093833685 0.057934076 0.09437306
0000a0 05 d7 2d bd 47 5a 7d bd 8b ab 7c 3a c2 35 45 3b
       -0.042441387 -0.061853673 0.0009638599 0.0030091857
0000b0 e2 d7 21 bd 62 9a 91 3d ca c4 e0 bc e6 7c a1 bd
       -0.039512523 0.07109524 -0.027437586 -0.078851506
0000c0 9a 0c bb 3d f0 d1 86 bd 7d aa 2d 3c 60 82 59 bd
       0.09133263 -0.06583011 0.01059973 -0.05310285
0000d0 f8 a1 80 3c 07 45 99 3d 1a cb 83 3d c9 21 86 3d
       0.015702233 0.07483869 0.06435223 0.06549413
0000e0 4d 8c 84 bb 2b 0b 8c 3d aa 81 ce 3c 66 cb 23 3d
       -0.0040450455 0.068380676 0.025208313 0.039988898
0000f0 57 23 83 3d 70 59 43 bd 6b 13 8a 3c 85 43 be bd
       0.06403225 -0.047692716 0.016854962 -0.09290222
000100 ac bd ae 3d d7 53 af bd 46 60 4d bd 9d 3a 7d b9
       0.08532271 -0.08560913 -0.05014064 -0.00024149795
000110 ad 8f a5 bd 02 59 0e bc 2b ca 9e bd 0c aa 2a bd
       -0.080840446 -0.008688213 -0.07753404 -0.041666076
000120 00 33 f7 bc 74 bf ba bd 23 73 29 bd c2 db 4f bc
       -0.030175686 -0.09118548 -0.04136957 -0.012686672
000130 a8 95 8e bb de 0f 68 bd f0 15 36 3d ed b0 a0 3d
       -0.0043513365 -0.056655757 0.044454515 0.07846246
000140 b0 bf 62 bd 14 93 d7 3c 23 95 9b 3d 18 f0 e7 bc
       -0.05535859 0.02631525 0.07596805 -0.028312728
000150 a0 6f a4 bd 5b 85 9e bd 3b 4e c3 bb bc 2b c4 3c
       -0.08029103 -0.07740279 -0.0059602535 0.023946635
000160 09 11 95 3d 82 6d c1 3d 88 95 a0 bd 3d e4 ed bc
       0.0727864 0.09444715 -0.07841021 -0.029039497
000170 29 8a 2d bd 55 5a d1 3b 7b ca 67 bd ac 95 18 3d
       -0.042368088 0.0063889422 -0.056589585 0.037252113
000180 61 85 88 3d 43 c3 37 3c 10 ec ac 3c df 83 91 3c
       0.06666065 0.011215988 0.021108657 0.017763076
000190 f7 e9 b8 bc 6b 43 c3 bd 03 d6 e5 bb 13 88 18 3c
       -0.0225725 -0.09534343 -0.0070140376 0.009309786
0001a0 1e f3 3f 3c b0 90 1b 3d 22 17 c4 3c 22 22 c9 3d
       0.0117156785 0.03797978 0.023936812 0.098209634
0001b0 83 0a 37 3d 2c 1e 4d 3d fb 44 81 3d 76 84 b8 3d
       0.04468776 0.050077602 0.06311985 0.0900964
0001c0 39 45 18 bd a9 a9 24 bd be b4 cb bc 79 9b 07 3d
       -0.03717539 -0.040200863 -0.024866458 0.033107255
0001d0 3b 9f 0e 3d e5 da d8 3c 23 23 ee 3b 96 6b aa bd
       0.034819823 0.026471565 0.007267372 -0.08321302
0001e0 02 8e 82 bd a7 b3 b7 3d b8 bb 90 bc 9b 87 3d 3d
       -0.06374742 0.08969813 -0.017667636 0.0462719
0001f0 08 3d 8a ba c4 28 84 bd c8 a4 10 ba 5a a5 94 3d
       -0.0010546753 -0.06453088 -0.00055177184 0.07258101
000200 81 53 bc 3d 01 cd 2d 3d a9 17 0e 3d 2d 4e 71 3d
       0.091956146 0.042431835 0.034690533 0.058912445
000210 9a 16 79 3d 90 1c 8d bd a1 98 3e bc 6d d8 d0 bc
       0.06081257 -0.068902135 -0.011633069 -0.025493825
000220 6d 3b 6c bd dc ab 1e 3d eb 50 9f 3c a1 79 88 3d
       -0.05767386 0.038738117 0.019447764 0.06663824
000230 97 cb 18 bd d0 64 2e bd 7f 0c 1e 3d 5b 8f c4 3a
       -0.037303533 -0.04257661 0.038586136 0.0014996337
000240 07 fb 65 bc 21 d8 29 bd 32 f9 1d 3c 66 50 61 3d
       -0.0140369 -0.041465882 0.009641932 0.055008315
000250 fc 28 44 bd db 6f 68 3d ed 66 17 bd b9 e6 c6 b8
       -0.04789065 0.0567473 -0.036963392 -9.484351e-05
000260 da fd 0e bd b7 b1 00 3d 88 d8 80 3c 4e 58 71 3c
       -0.03491006 0.031419482 0.01572825 0.014730526
000270 38 21 ba 3c ef 8e 6e 3b 68 4e bc bc ca 12 a5 3c
       0.022720918 0.0036401113 -0.022986606 0.02015056
000280 8a 0a 06 3d 41 0f c0 bd 3a 47 ad 3c b5 74 5d 3d
       0.032724895 -0.093779095 0.021152128 0.05406638
000290 82 6c 26 bd ca e2 8f 3d 80 49 c9 bb 4a a7 08 bd
       -0.040630825 0.070256785 -0.006142795 -0.033362664
0002a0 57 bd 9f bd 63 58 7a 3d 75 4a 63 3d de b6 65 3d
       -0.077997856 0.06111945 0.05549093 0.0560826
0002b0 78 dc 60 3a 35 30 2e bd d5 5a e7 bb a9 8a 0a 3d
       0.0008577774 -0.042526443 -0.0070603886 0.033823643
0002c0 30 01 0c 3d b7 24 26 3c 7f 9a 9e bd 8e 4c a1 3d
       0.03418082 0.010140589 -0.077443115 0.0787593
0002d0 eb f1 5b bd 0d c1 b4 3d 4a e2 8b 3d b4 8a 6e bd
       -0.053697508 0.08825884 0.068302706 -0.058237746
0002e0 6d 1e 91 3d ce 8d 17 3c 10 d1 ca 3c 06 4f e0 3c
       0.070858814 0.0092501175 0.024757892 0.027381431
0002f0 c9 1e 9b 3c 87 ba 06 bd 67 e4 8e bd db b4 ae 3d
       0.018935578 -0.03289273 -0.06977158 0.08530589
000300 9e 3f 2a 3a b8 ae 99 bc ef 95 40 3d 18 f7 bd 3d
       0.0006494465 -0.01876007 0.047017988 0.09275645
000310 46 05 68 3d dc 41 32 3d 0e 73 b7 bd ce 71 8e 3d
       0.056645654 0.04351984 -0.08957492 0.069553
000320 30 8f 69 3d d3 7a af 3c 7a dd 9a 3d c5 c6 80 3d
       0.05702132 0.021420872 0.075617746 0.06287912
000330 7e fe e8 3c ce 6c 31 bd cb 18 3c bd 29 28 4d 3d
       0.028441664 -0.043316655 -0.045922082 0.050087128
000340 bc 48 52 3d e1 09 ec bb ff 2b b3 bd fa 30 1b 3d
       0.051338896 -0.007203326 -0.08748626 0.037888505
000350 25 c2 a0 3b 84 32 b9 3d e6 95 8d 3d 95 40 e4 3b
       0.0049059563 0.09042838 0.069133565 0.0069657066
000360 28 90 13 3c 63 f1 c7 bc 43 e4 47 bd f1 27 19 bd
       0.0090065375 -0.024407094 -0.04880167 -0.037391607
000370 5d 27 8c 3d bc d0 8c 3d 65 ee 66 3d 4d b5 15 3a
       0.068434455 0.068757504 0.056379694 0.0005710915
000380 f1 1d a6 bc 97 88 8a bd 60 33 6f bc c7 7d b0 3d
       -0.020277949 -0.06764334 -0.014599651 0.0861774
000390 88 a4 8a bd 9d a8 4d 3c 3c bc 9a 3d d4 d3 5d 3d
       -0.06769663 0.012552408 0.07555434 0.054157093
0003a0 9d 3c 2c 3d d6 45 84 3d 63 da e7 3c 09 f3 18 3d
       0.042049993 0.06458633 0.028302377 0.03734115
0003b0 cb 45 af bd 6d 60 3d bd 64 e1 bf bd fc fb 8d bb
       -0.08558234 -0.046234537 -0.09369162 -0.0043330174
0003c0 09 37 5a bd ac 9c d4 bd d7 03 2a 3d 87 4b 4b 3d
       -0.053275142 -0.10381445 0.04150757 0.049632575
0003d0 6d 1c 1d 3d e2 e8 93 bd 99 48 99 bd 10 1a 2d bd
       0.038357187 -0.07222153 -0.0748455 -0.042261183
0003e0 8e 59 84 bd 34 06 32 bd 5e d7 6b 3d 99 53 47 3d
       -0.06462394 -0.043462947 0.057578437 0.04866371
0003f0 49 0e 3b bd d1 ee 32 bd cd e3 bb bd db 03 98 3d
       -0.04566792 -0.043684784 -0.09174309 0.0742261

layers.0.f_def.weight f4 [1, 128]
000000 8f 01 0e 3d 29 2c 28 3c 50 f8 84 3d 81 30 6e bd
       0.034669455 0.010264435 0.06492674 -0.058151726
000010 06 f8 db 3c 32 44 4f 3c b5 7c ab 3c a5 26 d9 3d
       0.026851665 0.012650536 0.020933488 0.10603074
000020 c4 c6 ea bd ff 68 33 bd 2c 77 44 bd 7d 5d d2 3d
       -0.11463693 -0.043801304 -0.047965214 0.10271738
000030 8f 11 6e bd 04 70 c5 b9 a4 a4 63 bd 2d 23 f0 3d
       -0.058122214 -0.00037658226 -0.055576935 0.11725459
000040 21 ec 97 bd b1 33 06 be 1d c5 7a bd 2c 0e 15 bd
       -0.07418085 -0.13105656 -0.061223138 -0.03639047
000050 96 3d 3e bd 00 05 67 bd d4 da f4 bc cf 7a 6b bd
       -0.04644545 -0.056401253 -0.029889502 -0.057490166
000060 59 9a 07 be 6b b5 e1 3c 59 4e 2f bc 79 9e fd 3d
       -0.13242473 0.027552327 -0.010699832 0.12383742
000070 f1 22 fa 3c 65 52 44 3d 4a 02 e6 bb 2a d9 10 3e
       0.03053424 0.04793014 -0.007019316 0.14145342
000080 b5 79 aa 3d f1 c8 06 3e 77 f4 c9 bd 54 0c 75 3c
       0.08323995 0.1316259 -0.09861081 0.014956553
000090 28 37 44 3c da a5 cf 3d 6a 83 b1 3b df 1d 31 bd
       0.011976041 0.101390556 0.005417277 -0.043241378
0000a0 09 85 8c 3c cd 18 84 3c cd ca 40 3d ab 7f cc bd
       0.01715328 0.016125107 0.047068406 -0.09985288
0000b0 8f 2b 89 3d 91 95 02 bd 32 2a a9 3d 68 6b d2 3d
       0.06697761 -0.03188092 0.08260001 0.10274392
0000c0 df 87 9e bb c8 44 0a bd e9 49 2e bb aa af 2c bd
       -0.0048379744 -0.033757 -0.0026594347 -0.042159714
0000d0 05 fd c1 3d e2 dc 4e bd 3c 2e 12 bd 1b 09 38 bd
       0.09472088 -0.05050362 -0.035688624 -0.04493056
0000e0 79 fe ae 3d 55 24 09 3d b9 e9 48 3d dc a5 b1 3d
       0.085446306 0.033481915 0.04905102 0.08674213
0000f0 37 65 a3 bd 11 6d d1 3d 48 44 52 3c 84 fd 44 3d
       -0.079782896 0.10225881 0.012833662 0.048093334
000100 cb 76 18 bd bb d6 ef 3d ce cb 6e 3d 3c 26 5f bd
       -0.037222665 0.117108785 0.058299832 -0.054479823
000110 cf fa ea 3c 87 71 33 3d ad e2 da bc cd 26 e2 3d
       0.028684048 0.04380944 -0.026719416 0.11042557
000120 16 65 65 3d 14 08 5d bd 0f 14 00 be d1 37 6e 3d
       0.056004606 -0.053962782 -0.12507652 0.0581587
000130 0b 53 fe 3c 73 f0 4b bd 93 fb b1 3c 2b ef 70 bd
       0.031045457 -0.049789857 0.021726405 -0.05882184
000140 87 d4 1a 3c c2 1f db bc 96 85 0a bb c4 2a e5 3d
       0.0094500845 -0.026748542 -0.0021136752 0.111897975
000150 06 84 61 3d d1 3c fd bc 73 5e b4 3b 6f f7 a4 3d
       0.055057548 -0.030912789 0.0055044233 0.08055007
000160 88 56 d7 bd e6 b4 bf 3c 06 2f a1 3c df 2f a6 3d
       -0.105145514 0.023401689 0.019675743 0.081145994
000170 cb b4 3f bd 6e 7c e7 3d af 5d a5 3d 75 aa 0e bd
       -0.046803277 0.1130303 0.08074509 -0.03483053
000180 83 38 d3 3d 13 cc 63 3d aa 2b 07 3e e8 17 1b bd
       0.10313513 0.055614542 0.1320025 -0.037864596
000190 90 95 bc bc 9d d9 83 bc d9 7e 83 bd c6 43 dd 3c
       -0.023020536 -0.016094977 -0.06420679 0.027009856
0001a0 e1 79 13 be 57 b9 86 3d 80 c1 83 bd 8e fc 15 bd
       -0.14401962 0.065783195 -0.064333916 -0.036617808
0001b0 bb ec bb bd d4 8f 05 3e ee 5a 3f 3d fe 2d f2 bd
       -0.09176012 0.13043147 0.046717577 -0.118251786
0001c0 82 5a 59 bc d9 bb 81 3d 2a 49 b2 3d 88 32 cd bd
       -0.013266208 0.06334657 0.08705361 -0.10019404
0001d0 e7 4b 0f 3b 0b c2 69 3c 3b 4f 88 bc cd 18 1f 3b
       0.002186531 0.014267455 -0.016639343 0.0024276257
0001e0 b7 da 95 bd 51 96 c3 3b 4c e1 ee bd f0 69 30 bd
       -0.07317107 0.005968847 -0.11664066 -0.04306978
0001f0 ff 3b dc bd 21 6b 21 be b1 f6 a2 bd cb ce 82 3d
       -0.10753631 -0.15763523 -0.07957209 0.06387099
