refined_03new.pth (torch, 888358 bytes, 36 tensors)

input_norm.weight f4 [7]
00000000: 69e6 7a3f 7f54 683f f144 753f eea8 803f
00000010: 93e6 7a3f cb6b 833f 0ac1 833f
0.9800783 0.9075393 0.9580832 1.0051553 0.9800808 1.0267271 1.0293286

input_norm.bias f4 [7]
00000000: 58cb b83c 5561 1abd eec8 d8bb 4d63 823c
00000010: f89d 3bba 7e92 ebbb 8798 e33a
0.0225579 -0.03769048 -0.0066157496 0.01591649 -0.0007157023 -0.007189094 0.0017364182

layers.0.embed.weight f4 [128, 7]
00000000: b95c 65be bd5e a5be bd0f 67be 8092 283d
00000010: 263a 8cbd c0b2 cebe c14e 493e 914b 903d
00000020: a7e3 07be 01a4 b4be 6f37 8b3e 56eb d739
00000030: 9881 983e 47c7 b33c 51e7 1a3d 6a52 a43e
00000040: c843 dc3d 9c79 50be 5fcb 94be 77a1 bebe
00000050: 97cb 4b3e 5deb a7be 5886 60be 5440 8f3e
00000060: 74b7 9b3e c3aa 66bc 19cb aebe 5ff2 6e3e
00000070: 5f5b 7abe d833 823c b4cf fd3d 1e1a 963e
00000080: 565f 973d 7d1a bbbe 86d8 1c3e 78a7 113e
00000090: 8c6d f0bd 9514 db3d 1310 763d 5aa5 323e
000000a0: 623d c53e 2948 fbbd 735b 9fbe be55 1dbe
000000b0: ac79 00be 7521 103e cc8e 65be 7ee2 adbd
000000c0: 7181 cfbe 7929 dd3d 26cc b23e 155b a13e
000000d0: 415b 57be 1919 5a3d 8910 3dbd db19 04be
000000e0: 76b3 6c3d 3488 e13c 10ce 9a3e 410c 36be
000000f0: 16a7 c0bd cb47 ad3e a61f 6fbe 6774 183d
00000100: 7e9b 283e eeef 9a3d 6a27 233c 3ace 9fbe
00000110: 6edc 71bc a7fb 203e 24c5 6d3e b7ac f73d
00000120: c89d 823e dcf3 4abe 4df4 f43d 8adf 443e
00000130: 71a0 0abc d6f2 adbd c11b 3c3e 97dc 9a3e
00000140: c7f4 b8be d1ad 873e 7d07 8a3e 41dd a0be
00000150: cd17 d6bd 5c7b 5fbc d805 48bd 0ca6 923d
00000160: 3a6a 123e 748e 513e 0a30 96be 355c 97be
00000170: 4e16 84be 9b53 a13e 7af0 9d3e 5018 643c
00000180: 3bdf 18be c842 5f3e 8900 a53e 65d9 73be
00000190: d640 6ebe a994 403e 8c40 983e 0385 933e
000001a0: 9940 913e f872 5c3d b013 f73d f532 04be
000001b0: 733d 91be c444 793e 59e7 28be 362e ad3e
000001c0: d1c4 1dbe 7d1a 563e 75cc 4b3e 9217 413e
000001d0: 4988 95be 9a51 803e c25b f53d 5f45 a23e
000001e0: f7ef 843d 6cbd 8abe a242 ac3e 0004 d33d
000001f0: d44e 023e 787c 803c 5121 993e 58d2 933e
00000200: 8b1a cf3d 6e38 aa3d 117c 65be b3a9 323c
00000210: c477 81be 8dfb 023e 7c08 a23e daa1 c63c
00000220: fb46 27bd 36bd df3d f94e aabe fb5e 9cbe
00000230: c07a 98be a70f ab3e 3711 2a3e 2ccd 9fbe
00000240: 736c 263e ccba a63e 493e 64be eb03 b93b
00000250: 9b24 ed3d 511e 70be fa37 a0be 8e6a a43e
00000260: 71c0 b0be db4f 083e c398 a83e e618 da3b
00000270: 00fe a7be e40b bf3e 4e53 b5be 69a4 9dbc
00000280: 6c7d 493e c790 af3d d013 06be f8dc 60be
00000290: 430d 00be 48da 88bd 3dfd abbe 3a8a 5bbe
000002a0: 8cbc afbb ef87 cebd 5fe7 2cbe e64f 1c3e
000002b0: 58fc 113e 570d cd3d bd30 5f3d 9b88 09be
000002c0: 78ea b6be 36ab 49be 016e 7fbe 11fe a83e
000002d0: 0a31 40be 63fb e43d ba15 493e e2c7 0cbe
000002e0: cb77 933e d053 67be 3dbf 943d 4247 c2be
000002f0: 2007 26bc 0801 503d 499d a13e 6fd9 69be
00000300: 7684 a4be c3fd f43c 290f 493e 5f1b 983d
00000310: 0175 b3bd 08e9 98be ef70 3b3e 27cb 2e3e
00000320: 22fe 543e 79d0 91bd 3e4f 753e 08c1 b5be
00000330: 4f31 9f3e 869c 53be 1b32 39bd 53eb debc
00000340: 43a4 76be cca9 af3e 5e03 61be 0ce8 143d
00000350: 9341 9a3e 0b5c 293e ded0 693c 4ebe 43bc
00000360: af16 49be 2fc5 a2be f877 e33d cf23 35be
00000370: 7741 8e3e e94e a13c 8002 0b3e fa59 af3d
00000380: e327 45bb 5cdc 63be bc25 a7be 82b0 a83e
00000390: baea b33e 6c04 313d af7b b23e e1b7 5d3e
000003a0: 21ad 833e 1ccc b63e 4344 a73e 46e7 3cbe
000003b0: 7020 973e f717 09bd 31d1 8ebe e03b 0fbe
000003c0: 6997 aa3c dd8c 8e3c c12c 89be 7520 8abc
000003d0: a4ec 533d bcd0 9b3e 40a4 32be 3489 96be
000003e0: 6142 c4be 3500 febd d207 0c3e 38ce 9ebe
000003f0: 27b8 a63d b0f7 02be 2739 40bc 30aa 1ebe
-0.22398652 -0.32298842 -0.22564597 0.04115534 -0.068470284 -0.4037075 0.19658948 0.07045663
-0.13270436 -0.35281375 0.2719073 0.00041183335 0.29786372 0.021945609 0.037818257 0.32094127
0.10755116 -0.2035889 -0.2906141 -0.37232563 0.19901882 -0.32796755 -0.21926248 0.27978766
0.304134 -0.014078799 -0.34139326 0.23334645 -0.24448918 0.015893862 0.12393132 0.293168
0.07391231 -0.36543646 0.15316972 0.1422404 -0.117396444 0.10697285 0.060073923 0.17445889
0.38523394 -0.12269623 -0.31124458 -0.1536474 -0.12546414 0.14075263 -0.22417754 -0.084904656
-0.40528443 0.10798926 0.34921378 0.31514803 -0.21030904 0.05324659 -0.046158347 -0.12900488
0.057788335 0.027530767 0.30235338 -0.17778112 -0.09406869 0.33843836 -0.23351917 0.037220385
0.16465566 0.07565294 0.0099581275 -0.31212026 -0.014762027 0.15720998 0.23219734 0.120934896
0.25511003 -0.19819587 0.11960659 0.19225898 -0.008461104 -0.08493583 0.18369962 0.30246422
-0.3612425 0.264998 0.26958838 -0.31418803 -0.104537584 -0.013640251 -0.048833698 0.07160577
0.14298335 0.20464498 -0.29333526 -0.29562536 -0.25798267 0.31509098 0.30847532 0.013921812
-0.14928906 0.21802819 0.3222697 -0.23813398 -0.2326692 0.1880671 0.29736745 0.28812417
0.28369597 0.05382058 0.12064302 -0.12910064 -0.28367195 0.24342638 -0.16494502 0.3382432
-0.15407111 0.20908542 0.19902213 0.18856648 -0.2920554 0.25062257 0.11980392 0.3169355
0.06491082 -0.27097642 0.33644587 0.10303497 0.12725383 0.015684351 0.2990823 0.28871417
0.101124845 0.08311544 -0.22410609 0.010904717 -0.25286686 0.12791272 0.31647098 0.024247099
-0.040839177 0.10924761 -0.33263376 -0.30541214 -0.2978115 0.3341038 0.1660813 -0.3121122
0.16252308 0.3256439 -0.22289385 0.005646219 0.115792476 -0.23449065 -0.31292707 0.32112545
-0.3452182 0.13311712 0.32929048 0.0066558 -0.32810974 0.3731376 -0.3541512 -0.019243436
0.19676751 0.08572536 -0.13093495 -0.21959293 -0.12505059 -0.06682259 -0.33591643 -0.21439448
-0.0053630527 -0.10084521 -0.16885136 0.15264854 0.14256418 0.1001231 0.05448984 -0.13431017
-0.3572576 -0.19694218 -0.24944307 0.33006337 -0.18768707 0.11180761 0.19637194 -0.13748124
0.28802332 -0.22590566 0.07263038 -0.3794499 -0.010133535 0.050782233 0.31565312 -0.2283685
-0.3213231 0.02990616 0.1963469 0.074270956 -0.08762551 -0.2986529 0.183048 0.17069684
0.20800069 -0.07119841 0.2395601 -0.35498834 0.31092307 -0.20665178 -0.0452138 -0.02721182
-0.24086098 0.34309232 -0.2197394 0.03635411 0.30128154 0.16539018 0.014270989 -0.011947228
-0.1963756 -0.31791064 0.111068666 -0.17689441 0.2778432 0.019690948 0.13575172 0.085620835
-0.0030083589 -0.22252029 -0.32645977 0.32947165 0.3514002 0.043217108 0.34859988 0.21652175
0.25718024 0.35702598 0.32669267 -0.18447599 0.29516935 -0.03347012 -0.27893975 -0.13987684
0.020824151 0.017401153 -0.26791957 -0.01686118 0.05173935 0.3043269 -0.17445469 -0.29401553
-0.38331893 -0.12402383 0.13674858 -0.31016707 0.08140593 -0.12789798 -0.011732376 -0.15494609

layers.0.embed.bias f4 [128]
00000000: bb02 9f3c 7329 5a3e 907d 833e 9670 c03e
00000010: 611e 2abe 7d36 023e 1632 af3e 86f4 b3be
00000020: fadf ad3d 6e29 06bc 27f6 5b3e a03f 57be
00000030: 3ae3 a8be 21d7 823e cd8c 0fbd f4e7 4fbe
00000040: 12d5 aa3e 64af 943e bf15 9cbe a5c0 ba3d
00000050: 53ea 3f3e 13ab a9be 972b ba3e dede 8bbd
00000060: 488c c0be a992 6b3e cac8 9ebe 07ec c4be
00000070: f91c 923e 5502 153e e6ed 6e3e d60b 48be
00000080: 9d19 8c3d e8d7 e8bd e21d 25be b03d c83d
00000090: 72de 58be d8b8 56bd 9151 573e 9991 77be
000000a0: 9dcf 033e 79d3 0abe de9a 59ba a2e2 853e
000000b0: 92af 9bbe 8561 1dbe 8173 afbe 3f89 cb3d
000000c0: cabd 8fbe 44a7 8cbe b961 6fbe 17d2 30be
000000d0: 9c36 acbe aab0 743e 5c56 89be 47af 593e
000000e0: 3310 5ebe 0cdd c93b 9a73 143e d69a 913d
000000f0: 8314 dbbd b340 8bbe 3c14 8d3c 47c5 bc3e
00000100: 6199 98be f0e1 9f3e ca63 9bbe b819 debd
00000110: df99 ce3b 9678 e33c 915e 643e ba93 a73e
00000120: c688 49be 7557 67be 1760 d739 392d 0fbe
00000130: 0893 67bd 0821 0f3e ff18 8c3e bebf bcbe
00000140: 3bde 0f3d c06f febd 88fc 203d 4da7 48bc
00000150: 8271 8b3e f97b 2d3e d751 be3e 9daa 863e
00000160: 3a89 a13e 3ee5 153e e256 163e 6289 4b3c
00000170: 80ff 853e e18b 97bd c501 933e fd6c 2cbe
00000180: 8449 01be 187b 033e 75e2 4dbe 6664 1a3e
00000190: 2705 77be bf4d 4fbe b31a fabd ad8c be3e
000001a0: 9b49 2a3e f3bd b43e 5aa8 83bd 4eab 22be
000001b0: beb3 1dbe 8715 5d3e 3d92 733e bf13 f5bc
000001c0: ccd0 80bd 04ef 48bb f41c 80bc e59b ca3d
000001d0: c7f7 9f3e 5890 b6be 2148 20be 31ac fc3b
000001e0: 656a 853d 70e9 85be a6b5 8d3e 8640 9f3e
000001f0: b407 5c3e 849e cfbd 4bd8 fabc d514 923e
0.019410482 0.21304874 0.25681734 0.37585896 -0.16613151 0.12716098 0.342179 -0.35147494
0.08489986 -0.008188589 0.21480618 -0.21020365 -0.3298586 0.25554755 -0.035046387 -0.20303327
0.33365685 0.29040062 -0.3048534 0.09118775 0.18741731 -0.33138332 0.3636138 -0.06829618
-0.37607026 0.23005165 -0.31012565 -0.38461325 0.2853773 0.14551671 0.23332939 -0.19535765
0.06840823 -0.11369306 -0.1612468 0.09777391 -0.21178606 -0.052422374 0.21027209 -0.24176635
0.12872167 -0.13557233 -0.000830097 0.2614947 -0.30407387 -0.15369232 -0.3426781 0.09938287
-0.28074485 -0.27471364 -0.23377122 -0.17267643 -0.33635414 0.23895517 -0.268237 0.21258269
-0.21685867 0.006160384 0.14497223 0.07109611 -0.10697272 -0.271978 0.017221563 0.3686926
-0.2980452 0.31227064 -0.3034957 -0.10844749 0.006304964 0.02776746 0.22301699 0.32729894
-0.19681081 -0.22591956 0.00041079588 -0.13982095 -0.056536704 0.13977444 0.2736282 -0.36865038
0.035124045 -0.12423658 0.039303333 -0.012246919 0.27235037 0.16941823 0.37171814 0.26302043
0.31550008 0.1463823 0.1468158 0.012422891 0.26171494 -0.07399727 0.28712288 -0.1683845
-0.126257 0.12839925 -0.20105918 0.15077361 -0.24123059 -0.20244502 -0.12212124 0.37216702
0.16629641 0.3530117 -0.06428595 -0.1588566 -0.15400597 0.21590243 0.23786254 -0.029916642
-0.06289825 -0.0030660043 -0.015638806 0.09893016 0.31243727 -0.35657 -0.15652515 0.0077109565
0.06514434 -0.2615466 0.2767765 0.31103915 0.21487314 -0.10137656 -0.030620715 0.2853152

layers.0.W_att.weight f4 [128, 128]
00000000: c7f1 403d bb19 81bc 4bcd 793a 1f23 a7bc
00000010: 8d38 49bd 4b82 a2bd 396f b9bb 3951 133d
00000020: 4421 b73d 8db4 913d aca3 cb3d 16c4 773c
00000030: 733d 323c a877 09bc 92ac a0bd 634f d13c
00000040: 11b5 cb3c 7cf9 a53d 1388 763b 36a4 913d
00000050: 794e a0bd d78b 7dbd ff57 e0bc b870 083d
00000060: 862d bbbd 8026 033c 0ae4 afbd c9eb b43d
00000070: 6c53 a13d 508e b2bd 5117 2bbc 14aa 75bd
00000080: 7bea 8fbc 5220 52bd 67a9 20bd 6997 0dbd
00000090: 9e75 823c 806a 833d 2cab d53d 4742 963d
000000a0: 4cfa e0bc ab1c 583c ce4a 31bd 7780 55bc
000000b0: c522 27bd ece8 9cbc 7ae2 583d 8148 843d
000000c0: 7c0b 1a3d bba2 1e3d 7265 a0bc 1a9f 5f3d
000000d0: 73eb 75bd 1a14 f2bc b7f7 86bc 0d67 a83d
000000e0: 754b 8dbd 2b25 4fbd d426 2d3d 8970 23bc
000000f0: 13bf 8fbd b0a3 7fbd 31d4 31bd e679 e53b
00000100: 98ff 793b 6237 24ba c7a1 c03d 3652 28bd
00000110: 1605 39bc 3d02 53bd d191 393d eb13 77bd
00000120: acf7 bd3b fbfe 593d 1379 32bd f697 953d
00000130: e5a5 7e3d 6e2d a1bd 88db 773d 9ee2 83bd
00000140: 775d 17bd d321 54bd fa85 63bd edfb 623c
00000150: 0e3c a53c 9211 343c 2e6e 20bd 0750 e73d
00000160: ba3f bc3c 6327 8f3d 7774 843c abc5 643c
00000170: 1e10 9d3d a0c4 813d b307 de3c 2a44 8dbd
00000180: 1409 8e3c 216a 7a3d 3926 b93c c5e8 3b3d
00000190: f0f1 8d3d 724f 933d 9ea7 a4bd 5d46 013b
000001a0: 8def e43c 065d 133d 64e0 46bd cd04 b1bd
000001b0: 890d 7dbd f2d5 b2bd a000 7fbc 5a8b cebc
000001c0: 52ef 113d 41b2 2e3d bdb7 e63b 9040 973d
000001d0: 9334 c4bc 1c15 993c c70e c73c 92ec 493d
000001e0: 2814 b53c bb10 8bbd fb2b a03c 572c 8a3d
000001f0: d3f1 2cbd 9554 383c 993f 1a3d 07a0 153d
00000200: cc78 5f3d f12c b8bc 4957 c6bc 02be 363d
00000210: 67bf 03bd 32f8 a43d bc49 333d c827 14bd
00000220: b737 81bd e835 9a3d 7be2 4cbd c91b 22bd
00000230: db4f 3fbd 444d e9bc 3eb2 a9bd 2b12 3c3d
00000240: 945a 0e3d 2bee 32bd 0d88 8ebd ff57 0c3d
00000250: f701 b5bd 09b5 883a 8bab c43d c195 1d3d
00000260: 7dd4 e0bd bed6 8c3c 76ab 8dbc 9cb7 03bc
00000270: 4884 9b3d 5baa 043b 9d45 84bb 0fc6 8d3d
00000280: 1928 d6bc 4daf a23d e764 2b3d 9ff7 0c3d
00000290: a107 1e3d 3768 9d3d 80e9 20bd db2e 64bc
000002a0: 8cc3 ad3d 468c 6a3d 39eb 653d 8eb9 1a3d
000002b0: df17 2a3b 5df1 dabc 6e8c f13c 918e b53d
000002c0: 6bfd 863b 4b1a 9bbd 218a babb 477f aabd
000002d0: 9cef c1bd 4613 84bd 6efe cd3c 7dc0 49bd
000002e0: be73 95bd 7591 a0bd 9c09 803d 629d 953d
000002f0: 198d 883d 3ddc bc3d 9d53 633d 12e1 5ebd
00000300: 8261 6cba b324 613c f6ef 463d f617 433d
00000310: 67dd 1cbd ab84 823d e4e4 763d 79b4 3cbd
00000320: 21f3 a9bb 10b8 4cbc 162b 993d 7217 9cbb
00000330: 9dc5 0d3d 97a2 1bbd 550d a4bd 6a08 41bd
00000340: ede0 8f3d b2c9 583d c5b5 8dbd a170 90bd
00000350: bb43 fc3c 70e3 abbc 38af 56bd 049f 503d
00000360: 33e1 78ba 34e1 76bc a638 debc 3dd6 973d
00000370: eda0 a0bd da4a 043d 2a92 24bd 705d dabc
00000380: 9309 6dbd bbb9 86bd 22a9 463c e893 573c
00000390: b9f2 6dbc 7e6d e8bc d8fb 9d3d 97e8 103d
000003a0: ff9c 46bd eb75 9ebb 4b19 093d 58d4 21bc
000003b0: 5a16 87bd 4c53 a7bd f766 553d 72eb 9ebd
000003c0: 7db6 f83c 2561 723d 807f 7bbd 3cb8 8b3d
000003d0: 34e7 53bd cbab 9b3d 65d8 7b3b 949a 56bd
000003e0: 2210 61bd 40ec 063d 1712 813d 8c45 a53d
000003f0: 52a1 963d f544 16bd b3e1 bc3c 8eca 923d
0.047105577 -0.01575934 0.0009529187 -0.02040249 -0.049126197 -0.07935008 -0.0056590107 0.03596613
0.08941892 0.071145155 0.09943327 0.015122434 0.010878908 -0.008390345 -0.07845415 0.02555055
0.024866613 0.08104226 0.0037617728 0.07111399 -0.078274675 -0.06190094 -0.02738571 0.033310622
-0.09139542 0.008004785 -0.08588417 0.08834035 0.078772396 -0.0871855 -0.010442571 -0.059976652
-0.017567864 -0.051300354 -0.039224055 -0.034568224 0.015925225 0.06416798 0.10433039 0.0733686
-0.0274631 0.013190429 -0.04328423 -0.013031117 -0.040804643 -0.019154035 0.05295036 0.064591415
0.03760861 0.03872941 -0.019579623 0.05459509 -0.060038995 -0.0295506 -0.016475542 0.082227804
-0.06899158 -0.050572556 0.042273358 -0.009975561 -0.070188664 -0.062411964 -0.043415252 0.007003057
0.003814673 -0.0006264356 0.094058566 -0.041094027 -0.0112927165 -0.051515806 0.045305077 -0.06032173
0.005797347 0.053221684 -0.043572497 0.07304375 0.062169928 -0.07869993 0.060512096 -0.06439708
-0.03695437 -0.05179007 -0.055547692 0.013854009 0.020170238 0.010990517 -0.039167576 0.11294561
0.022979606 0.06989934 0.016168816 0.013963143 0.0766909 0.06336331 0.02710328 -0.06897767
0.017338313 0.06113637 0.022601234 0.045876283 0.069309115 0.07192887 -0.08039783 0.0019725778
0.027946258 0.035977386 -0.04855384 -0.08643494 -0.061780486 -0.08732213 -0.015564114 -0.025212932
0.035628624 0.042650465 0.0070409463 0.07385361 -0.02395085 0.018686824 0.024299039 0.049297877
0.022104338 -0.067903005 0.019552222 0.067467384 -0.04222281 0.011250635 0.037658308 0.036529567
0.05455856 -0.022482367 -0.024211543 0.0446148 -0.032164957 0.08055152 0.04377149 -0.03617075
-0.06309455 0.07529813 -0.050020676 -0.03957728 -0.046707015 -0.028479226 -0.0828595 0.045915764
0.03475435 -0.043684166 -0.069595434 0.034263607 -0.088382654 0.0010429929 0.09603032 0.038472895
-0.10978029 0.01719224 -0.017293673 -0.008039381 0.0759359 0.0020243141 -0.004036619 0.06922542
-0.026142167 0.07943592 0.041844275 0.034415837 0.038581494 0.07685893 -0.039285183 -0.013927187
0.08484563 0.05726268 0.05613253 0.037774615 0.002595417 -0.02672642 0.029485907 0.08865083
0.0041195652 -0.07573374 -0.005692736 -0.083250575 -0.0946953 -0.064489886 0.025145736 -0.049255837
-0.07297467 -0.07840244 0.06251833 0.07305409 0.06667537 0.092216946 0.05549966 -0.054413863
-0.00090172153 0.01374166 0.04856869 0.047630273 -0.038297083 0.06372961 0.06027688 -0.04607055
-0.005186454 -0.012495056 0.07478921 -0.004763537 0.034612287 -0.037996855 -0.080103554 -0.047127165
0.07025323 0.052926727 -0.069194354 -0.07052732 0.030794015 -0.020982474 -0.052413195 0.0509329
-0.00094940065 -0.015068341 -0.027126621 0.074139096 -0.07843194 0.032297947 -0.040178455 -0.026655883
-0.05787046 -0.06578394 0.012125285 0.013157822 -0.014523202 -0.028372522 0.07714051 0.035378065
-0.048489567 -0.0048358343 0.033471387 -0.009877287 -0.0659606 -0.081701845 0.052100148 -0.077597514
0.030360455 0.059174675 -0.06140089 0.06822249 -0.051734164 0.07601126 0.0038428542 -0.05239351
-0.054947026 0.03294015 0.063022785 0.08069906 0.07354988 -0.036686856 0.02305684 0.071675405

layers.0.phi_att.weight f4 [128, 128]
00000000: b149 47bc 4720 4bbd f89b 13bc 15a1 cdbc
00000010: 4d07 b43d 4b95 60bd 211c 5f3d 3fd5 8b3c
00000020: 0daa ccbd c413 a9bd 59b5 9fbd 59c8 5abd
00000030: cf07 0cbd 5aa1 a1bc 5bdb 7a3c 35c7 29bd
00000040: 51df 95bd 28cc 42bd d423 81bd 400d 933d
00000050: eefc d9bc 9b17 6ebc c845 503d 4e35 80bc
00000060: 386c 4ebb e105 60bd b98f 73bd 8e0b 213d
00000070: 52d5 a2bd 4796 c4bc f1c6 073d 0200 90bd
00000080: 5fdd bf3c f8f9 a63d 040f 48bc bbee 893b
00000090: f871 7b3d 000f 4cbd a86e 1c3d 7c23 33bc
000000a0: 7613 073d a320 0cbd 3541 8d3c 9bd3 81bc
000000b0: 2028 44bd c32f dabc 8579 913d aa5a b23d
000000c0: ec13 4ebc f36e 11bd 98f7 b3bd b0e8 c73d
000000d0: 034b 2f3d b36a 7f3b 48a1 a3bc aa3a 993d
000000e0: bd8e 95bd da57 94bd 57fe 09bd adb4 363d
000000f0: 73a1 87bc 7c69 433d 0bbc 77bd beb7 053d
00000100: 4016 76bc c225 0fbd 374f 82bd ce47 f93c
00000110: 6a27 abbd c48f 6dbd ac69 8ebd 5dc8 1bbd
00000120: c2a9 0e3d 2722 ec3c c94c 7ebd d99a bd3d
00000130: 52c5 8fbc 700d 143d bd07 253d 04f8 54bd
00000140: 5f28 a2bd a6cd eebb 6c64 b6bd a614 883d
00000150: 4f84 343d 57ea b7bd 6e22 f9bc a6b5 c9bc
00000160: a5d7 2c3d 2302 05bd 0f21 473d 9e36 9bbd
00000170: 9b4f a9bd 2846 9d3c 4513 a8bd 92fa 183c
00000180: ace8 67bd 3bac 31bb a023 463d 3121 aa3d
00000190: 3457 a0bd 619f 24bd a854 743d 3431 913d
000001a0: 4e28 62bb a5c9 d7bc 0881 a83d d038 103d
000001b0: ae57 53bd 1206 2cbd 7c3b a1bd b659 fdba
000001c0: d84c 8d3d 15b8 0d3d 697f 903c 0fa7 89bc
000001d0: 872a 933d b181 353d 886b 9bbd a5db cb3d
000001e0: aacd a43d dee0 e7bc 3274 77bb f314 acbd
000001f0: 99ac 623c 5ecc 58bd c0ef 903d 775f 733c
00000200: 5803 3bbd 4071 56bb e541 983d 0d68 e2bc
00000210: 4aca 2fbd 20a9 23bd 4d6d 0dbd 2788 753d
00000220: 82f9 303d bfe1 413b afda 91bd 78ec 813d
00000230: c885 ae3b e2e6 a3bc 2158 d93c 2173 33bd
00000240: 3eed 823d 56b4 1f3c 846a bc3c 6a7f 50bd
00000250: 74b4 87bc 3178 473d a53f 323c 53fd 8abd
00000260: bdd2 123d ce94 a23d 11e8 d73c 50d1 9ebd
00000270: e78d 8c3d 0c17 2c3c 6dce 69bd ac75 b2bc
00000280: 8360 b4bb 2593 6bbd cb12 c6bb 9bdd 833d
00000290: 6935 8dbc 2801 4dbc f5ba 94bd cf38 993c
000002a0: d3be 2bbd baf0 f9bc 1b1b 55bd 59ca 2cbc
000002b0: 38e8 f4bc 82d7 51bd 7479 123d c18c 20bd
000002c0: c1ef 90bc 6d6e 783d 5173 e9bb a6bf 523d
000002d0: 8810 993d 2680 a53c 2f9b 53bd b17a 7b3d
000002e0: 927c 2cbc 15db 77bd 7176 acbd 9942 49bd
000002f0: ac12 7cbd e389 cf3c 6f27 9f3d c8a8 973d
00000300: cfe4 14bd 186c 6c3d e84e 4d3d add6 18bd
00000310: 8808 6c3d 8d8e 19bd 1a4d 82bd 2391 6bbd
00000320: 54ac ca3c 48a1 54bd 7c7d 0fbd 66a2 7d3d
00000330: 0938 f73c 89dc 0ebd 11ef 02bd 1de9 5b3c
00000340: bc23 31bd 60d1 7fbd ab2e 113d 2e63 88bd
00000350: 1095 0cbd a8e0 1fbc daf1 80bd 67a8 163a
00000360: 9863 9e3d b00b 3b3d f2d8 8e3d 2ff8 90bc
00000370: e74f 75bd 22a4 91bc 771d 76bd 3ebe acbd
00000380: a39d 963d 9f4e aa3d ebee 96bd 53ea cebb
00000390: 4f96 15bd d4f5 a8bb 57b9 98bd dc14 29bd
000003a0: 0182 993d 603c 84bd ac9e a33d 49d4 0abd
000003b0: 908c b4bd 55e0 f8bc 4f3c 00bd 5a16 403d
000003c0: 64bf bbbd c7f6 5cbd ec4f 4bbd 5449 bb3c
000003d0: 72e5 4d3c 01da a4bb 49e1 933d abe9 473d
000003e0: 571b 29bd 57c1 3abb 2973 9ebc f822 bd3d
000003f0: 1ef6 753d 7442 ec3c 280b 86bd 367e 8bbd
-0.0121635655 -0.04959133 -0.009009354 -0.025101224 0.08790455 -0.054829877 0.054470185 0.017069457
-0.09993372 -0.08255723 -0.07798261 -0.053413723 -0.034187134 -0.019730259 0.0153110875 -0.041449744
-0.07317985 -0.04755798 -0.06305662 0.071802616 -0.026609864 -0.014531995 0.0508478 -0.015650418
-0.003149761 -0.054693107 -0.059463236 0.03931766 -0.07950844 -0.02399744 0.03314871 -0.070312515
0.023420988 0.081531465 -0.012210611 0.004209367 0.061387986 -0.049818993 0.038191468 -0.010933753
0.032977544 -0.034210812 0.017243007 -0.015847972 -0.04788983 -0.026634103 0.07103256 0.08708699
-0.012577992 -0.0355062 -0.08787459 0.097611785 0.042796146 0.003897351 -0.019974366 0.074818924
-0.07302616 -0.07243319 -0.033689823 0.0446059 -0.016556477 0.04770802 -0.060482066 0.032645933
-0.015019953 -0.034948118 -0.06362765 0.030429747 -0.08357127 -0.057998434 -0.06953749 -0.03803288
0.034829862 0.028824879 -0.062084947 0.092580505 -0.017550144 0.036145627 0.040290583 -0.05199434
-0.079178564 -0.007287699 -0.08905873 0.066445634 0.04407149 -0.08980244 -0.030411925 -0.02462275
0.042197842 -0.03247274 0.04861551 -0.07578777 -0.08267137 0.019198492 -0.082068 0.009337084
-0.056618378 -0.0027110714 0.04837382 0.08307112 -0.07829133 -0.040191058 0.059651047 0.07089463
-0.0034508887 -0.026341269 0.08227736 0.03521043 -0.05159729 -0.041997977 -0.07872674 -0.0019329104
0.068994224 0.034599382 0.017638879 -0.016803293 0.07185846 0.044313136 -0.07588869 0.09954003
0.0804704 -0.028305467 -0.0037758467 -0.08402433 0.013835096 -0.052929275 0.07076979 0.014854304
-0.045657486 -0.003272131 0.074344434 -0.027637506 -0.042917527 -0.039956212 -0.034528065 0.059944298
0.0432067 0.0029584018 -0.07121789 0.06343931 0.0053260066 -0.020007554 0.026531281 -0.043810967
0.063929066 0.009747585 0.02300001 -0.05090276 -0.016565539 0.048698608 0.010879432 -0.06786599
0.035845507 0.079385385 0.026355775 -0.07754767 0.06863003 0.010503542 -0.05708163 -0.021784626
-0.005504669 -0.057513375 -0.0060447208 0.06438752 -0.017237382 -0.012512483 -0.07262222 0.018703846
-0.04193003 -0.030510295 -0.052027803 -0.01054629 -0.029895887 -0.051230915 0.035760358 -0.039196733
-0.017692449 0.060652185 -0.0071243425 0.0514523 0.07473856 0.020202707 -0.051661666 0.061396305
-0.010527747 -0.060511667 -0.084210284 -0.049135778 -0.061541244 0.025334304 0.07771193 0.07405239
-0.03635102 0.057720274 0.05012408 -0.037314106 0.057625324 -0.037489463 -0.06362362 -0.05751146
0.024740376 -0.051911622 -0.03503178 0.061922453 0.030178087 -0.034878287 -0.031966273 0.013422278
-0.04324697 -0.062455535 0.035444897 -0.06659542 -0.034321845 -0.009758152 -0.062961295 0.000574714
0.0773384 0.045665443 0.06974973 -0.017696468 -0.059890654 -0.01777846 -0.060086694 -0.08434723
0.073542856 0.08315777 -0.07369789 -0.0063145547 -0.0365203 -0.005156258 -0.07457226 -0.04127966
0.074954994 -0.06456828 0.07989249 -0.033893857 -0.08815873 -0.030380407 -0.031307515 0.046896316
-0.09167364 -0.053946283 -0.049636766 0.022862114 0.012566911 -0.005030871 0.07220704 0.048806828
-0.04128584 -0.0028496587 -0.019342022 0.092351854 0.06004917 0.028840281 -0.06545097 -0.06811182

layers.0.phi_att.bias f4 [128]
00000000: 961a 9e3d 5c47 203c 5f3e 67ba 1cf4 823d
00000010: be31 8b3d 4fde 7c3d 5480 863d 52ba 82bd
00000020: 82bd 92bd f8d9 39bd 9df4 90bd 12e5 e63c
00000030: ca7e 503d 6e7a 9abc ac45 2fbd 0d61 83bd
00000040: 85f7 a83d 9f42 97bd d718 2fbb 559c 89bc
00000050: f89e 8f3d d520 54bc bbdc 883d 3ea1 d53b
00000060: bee1 be3c 52db 373d 9983 d8bc 22d1 973d
00000070: 0451 013d fa76 97bd 04c4 57bd 34b9 a13c
00000080: 7877 853c c4b6 25bc 9256 9dbd ed4f bebd
00000090: ab59 8dbc a552 8fbd 3c04 7c3c 981f 693d
000000a0: b962 193d f8dc aabd 49c8 213d 42f0 82bd
000000b0: 15e0 1fbc edd9 0fbd c625 65bc fd52 553d
000000c0: fb3e 4fbd 038e 953d 0d45 603d 4e50 5ebd
000000d0: e4e1 883d b164 4b3d 5aaf 013d bd17 8ab9
000000e0: 8192 8abd 4fa7 9abd 1a07 4d3d 6bc2 f7bc
000000f0: ed5b b53b 4e47 24bd 217e a2bc 9fde 1abd
00000100: 54cf a6bd 186d 4bbd 26fe 8ebd c9da 32bd
00000110: 7832 c03c 404a 7cbc 3f7b 66bd 39e1 1ebd
00000120: bd1c 893d 6248 883d 8a62 d33c 7ce3 aabd
00000130: 0e94 17bd 53f2 a73d 6bc6 4a3c a6d0 9dbd
00000140: df56 a4bd ab56 82bd 1c12 b43c 9408 aabd
00000150: 41e0 b13d ef89 383d dddf 97bb 0b43 943c
00000160: 0ec8 003d 7ac4 823d 7553 8fbd cd2e 67bd
00000170: 1989 9bbc e318 07bd a6d8 6abd a636 073d
00000180: 909d 52bd e60a 4b3d b239 173d b051 3d3d
00000190: dcd7 41bc f3ea 5d3d eabd b3bc cf88 273d
000001a0: d4cf 85bd 2a4c f5bc 3719 bf3c 74ec fe3b
000001b0: 7e7f bd3b 5a75 5dbd 3e1c 31bd 3ef2 cf3b
000001c0: 8ebc 363d e053 a53d e406 a5bd e99a 4bbd
000001d0: e384 083d bf6e 1c3c d5f4 a2bd 972d fdbc
000001e0: 441c 82bd 8f15 93bc 0367 b03d adf0 4bbd
000001f0: d392 843d 242b 7c3d 137d 983c 7e12 343d
0.077199146 0.009782638 -0.00088212447 0.063942164 0.06796597 0.061735447 0.065674454 -0.06383194
-0.07165052 -0.045373887 -0.07077906 0.028185401 0.050902165 -0.018857207 -0.042791054 -0.06414995
0.082503356 -0.07385754 -0.0026717687 -0.016798178 0.07012743 -0.012947281 0.06682726 0.0065194657
0.023301002 0.044886895 -0.026429938 0.07412936 0.031571403 -0.0739574 -0.05267717 0.019741632
0.016292319 -0.0101143755 -0.076825276 -0.092925884 -0.017254671 -0.06998185 0.015381869 0.056914896
0.037447665 -0.08342928 0.039497647 -0.06393482 -0.009758015 -0.03511994 -0.013986057 0.052081097
-0.050597172 0.07302477 0.054753352 -0.054275803 0.0668371 0.049656574 0.03166137 -0.00026339098
-0.06766225 -0.07551443 0.0500556 -0.030244073 0.00553464 -0.040107064 -0.019835534 -0.037809964
-0.081450135 -0.049664587 -0.06982069 -0.04366568 0.023461565 -0.015398562 -0.05626988 -0.038789008
0.066949345 0.06654431 0.025803823 -0.083441705 -0.03700643 0.082005166 0.012376408 -0.07705812
-0.08024382 -0.06364187 0.021981291 -0.083024174 0.08685351 0.04505342 -0.004634841 0.018098375
0.031440787 0.06385131 -0.0699834 -0.056441117 -0.018986272 -0.03298272 -0.05733552 0.0330111
-0.051419795 0.04957094 0.036920257 0.04622048 -0.01183125 0.054179143 -0.021941144 0.040901955
-0.06533781 -0.029943544 0.023327453 0.0077796523 0.0057830205 -0.054066993 -0.043239824 0.006346016
0.044613414 0.080726385 -0.08057955 -0.04970828 0.033329856 0.009547888 -0.07956854 -0.030905528
-0.063530475 -0.017954616 0.08613398 -0.049790073 0.06473317 0.06156458 0.018614328 0.043962948

layers.0.W_p.weight f4 [128, 128]
00000000: 0f24 3f3c 537b 753d 93fe b23c e586 0c3d
00000010: fbd0 c23d 494f 283d 37d3 833c c30e 7e3d
00000020: efd1 07bd deaa 973d 688c 513d e09b 513c
00000030: 1417 eb3c 594f 8dbc 70d4 803d 4d41 4a3d
00000040: d6e0 463c 1901 08bd 8f2f 96bd 3fe3 9fbd
00000050: 30c5 37bd 3b56 e8bc ef5a 1fbd dac9 96bc
00000060: a814 81ba a949 063b dc2d 85bc d8ea ad3d
00000070: 0939 70bd a84b bfbc 8306 c3bc ff74 803d
00000080: 0b51 803c 31ce 42bd 5d3a d53b fc59 7d3c
00000090: c6c4 ee3c 5371 9a3d 3efe 5cbb a3e6 a0bd
000000a0: 9d99 09bd c8a5 a5bd ca46 b83c eceb 92bd
000000b0: f925 b53d 3203 3fbd da72 803d 36f6 233d
000000c0: 5a4a 573c d1b5 95bd 561d 073d d329 7c3c
000000d0: b06e fcbc 2904 363d e89b 81bd ea48 66bd
000000e0: 23e9 5b3d 86d7 033d 4269 e739 e5e9 07bd
000000f0: cafd 99bd 3a7b 38bd a625 8fbd 0e91 3cbd
00000100: 6c36 a43d b602 6bbd 91d3 11bd 5dc8 74bd
00000110: 9443 dcbc bd7d 91bd 210b 46bc 5c5a f9bc
00000120: 2aee d3bb a900 5a3d 0037 433c 0351 87bd
00000130: bb9e bd3d 3d74 8e3d 56e0 c8bd 77a8 91bc
00000140: 0a4e 0dbd ab26 cabc 0446 a9bc 45f4 fbbc
00000150: bff3 0c3d 3f9c f3bc 25c5 3a3b 28e8 b4bd
00000160: afe5 aabd fccf 74bd c9e3 383c e90a a33d
00000170: 046d 2abd 5177 a8bd 9712 63bd e89e 95bd
00000180: 198c 96bd a09e c2bd 6e26 43bd e418 49bc
00000190: d816 91bd be54 e93c 6bc0 febc 7e37 8abd
000001a0: 962d 71bd 9c00 ab3b 471a 2d3b 378a 583d
000001b0: e52f 6abd ad43 d2bc 49fb bb3b 96f6 81bc
000001c0: 2be7 ffbc ce39 86bc 086e 353c 6e33 ad3d
000001d0: ad38 41bd 765d 2fbd 712a 5b3d ac48 d33c
000001e0: 95f7 2f3d 04f7 5c3d c468 fdbc 3870 da3c
000001f0: 507b 50bd 82ac fd3c 4b5d 883d e0cb 70bd
00000200: fcb6 1b3d e5a0 c3bd 6b7f 3fbd 0ab4 3e3d
00000210: 3be2 783d 8d7c 0e3d 9301 9a3c fc70 46bc
00000220: ac50 cf3c ff9d 47bd 2cb1 833c 55bb 49bd
00000230: 2e5d 683c 7ef5 673d 62f2 48bd eb83 263d
00000240: 9ca8 79bb 0e9d bd3c ac77 863b bdb2 dd3c
00000250: 4d8e 8c3d eb9d 81bc f81d 803d a9bc 8d3d
00000260: 984b 99bd 0458 8a3c 42c9 273d 116b 813d
00000270: 46a7 903d bd73 7abd cc01 96bd d383 71bc
00000280: 6839 a63d f605 26bd e503 223c 1053 4a3d
00000290: 92df cebb 41ed c33d daa3 8b3d 0903 0a3d
000002a0: 7349 df3c ca79 81bd 0635 21bd 4137 00bd
000002b0: 6b0a 893d d8d0 8ebd a780 2bbb 80d3 233d
000002c0: a2db b4bd 2522 ca3c 5896 3abd 7bb3 c9bc
000002d0: 68d3 ffbc 2d6a 673c cf47 7abb e0fb 2abc
000002e0: eee0 863d 8303 983d 0e58 1f3d 4d3c 0f3d
000002f0: ec2c 49bc 117f 383d b17f cb3b aa31 32bd
00000300: ac39 433a 29f4 64bd 3c39 10bd f959 3d3c
00000310: 0af5 aa3d d1c3 3c3d 4395 58bd 2f1e 5abc
00000320: f3c2 8e3d cc77 4d3d 2885 b6bd e423 343d
00000330: 1248 703d 1a0e 953c b662 8a3d 0264 9d3d
00000340: 6629 dc3c c7b7 9abd 8ba5 51bd 8e2d 843d
00000350: 8123 743d e74a b9bc 81f6 693d c201 22bc
00000360: c09c 463d b58f 9b3d ca8c 5abb 186e 8f3d
00000370: fcc7 98bc a256 3abd bad4 5cbd d27b c33c
00000380: 084e 463d f0dc 2f3d 7d53 48bd 5fb0 9cbc
00000390: 9395 423d eebe e63c d220 4c3c 7bcc 20bd
000003a0: b6aa 20bd 20b2 25bd 7b84 903d 118c 00bc
000003b0: 7ba6 27bd e5af f43b 0f3b efbc 9553 e13b
000003c0: cdb5 903d 3f0f 8b3c 9395 383d 8927 35bc
000003d0: 0cf8 67bc d9ec 523d eaf1 7cbd 46e2 6bbd
000003e0: 9765 153c 9e87 d7bc 8d5e 363d 430a a1bd
000003f0: e797 80bc e5a7 4b3c ebc3 923d c1c0 4d3d
0.011666312 0.059932064 0.021849906 0.034308333 0.09512516 0.041091237 0.016091926 0.062025797
-0.033159193 0.07405637 0.051159292 0.012793511 0.028697528 -0.01724975 0.06290519 0.049378682
0.012138566 -0.03320417 -0.0733329 -0.07807016 -0.044865787 -0.02836143 -0.03890508 -0.018406797
-0.0009848075 0.0020490682 -0.016257219 0.084920585 -0.058648143 -0.023351505 -0.023806816 0.06272315
0.015663644 -0.04755992 0.0065072016 0.0154633485 0.029146563 0.07541146 -0.0033720876 -0.078564905
-0.033593763 -0.08088261 0.022494692 -0.07173905 0.08845133 -0.046633907 0.06271906 0.040029727
0.013140285 -0.07310069 0.03298696 0.015390831 -0.030814499 0.04443756 -0.06328565 -0.05622188
0.053689133 0.03218796 0.00044138177 -0.033182044 -0.075191095 -0.045039393 -0.06989603 -0.046036772
0.08018193 -0.057375632 -0.035602156 -0.059761394 -0.026887693 -0.07104061 -0.012087614 -0.030438595
-0.0064676004 0.053223286 0.0119149685 -0.06607249 0.09258791 0.069557644 -0.09808414 -0.017780526
-0.034498252 -0.024676641 -0.020663269 -0.030756125 0.034412142 -0.02973759 0.0028498855 -0.08833343
-0.0834459 -0.05976866 0.011284777 0.07961065 -0.04160787 -0.08225883 -0.05543765 -0.073056996
-0.0735094 -0.095029116 -0.04764407 -0.012274001 -0.07084435 0.028482791 -0.031097611 -0.067488655
-0.058881365 0.0052185785 0.0026413368 0.052866187 -0.057174582 -0.025667036 0.0057367426 -0.015864652
-0.03123816 -0.016384985 0.011073597 0.08457075 -0.04717319 -0.04281374 0.053507272 0.025791489
0.042960722 0.05394651 -0.030933745 0.026664838 -0.05089885 0.030966047 0.06658419 -0.05878818
0.038016304 -0.095521726 -0.046752375 0.046558417 0.060762625 0.03478675 0.018799579 -0.0121118985
0.025307022 -0.04873466 0.016075693 -0.04925092 0.014182372 0.056630604 -0.04905928 0.04065315
-0.0038094884 0.023146179 0.0041036215 0.027062768 0.06863079 -0.015822371 0.06255716 0.0692075
-0.074851215 0.016887672 0.04096342 0.063192494 0.07063155 -0.061145533 -0.073245615 -0.014740902
0.08116418 -0.04053303 0.009888624 0.04939562 -0.0063132728 0.09566737 0.068183616 0.0336943
0.027256703 -0.063220575 -0.039357208 -0.031302694 0.0669144 -0.069734275 -0.0026169212 0.039996624
-0.08830954 0.024674485 -0.045553535 -0.024621716 -0.031228736 0.014124435 -0.0038189774 -0.010436028
0.06585871 0.07422545 0.038902335 0.034969617 -0.012278777 0.045043055 0.0062102904 -0.043504395
0.00074472534 -0.05589691 -0.035210833 0.011557096 0.08347519 0.046085183 -0.052876722 -0.01331286
0.06970777 0.050163075 -0.08912116 0.04397954 0.05866248 0.0181952 0.06757109 0.076850906
0.026875209 -0.07554584 -0.051183265 0.06454001 0.05960417 -0.022618724 0.05711985 -0.009888114
0.048489332 0.07595769 -0.0033348077 0.070034206 -0.018650047 -0.045492776 -0.05391381 0.023862753
0.04841426 0.04293531 -0.048907746 -0.019127069 0.047505926 0.028167214 0.012458997 -0.039257508
-0.039225303 -0.040453076 0.07056519 -0.007845894 -0.040930253 0.0074672573 -0.029202966 0.006876419
0.07065926 0.016975043 0.04506452 -0.011056789 -0.01415826 0.051495407 -0.061754145 -0.057588838
0.009118459 -0.026309785 0.044523764 -0.078632854 -0.015697433 0.012430166 0.07166275 0.050232653

layers.0.W_p_prime.weight f4 [128, 128]
00000000: cf4e 213d 286a af3c 93ca 323b d7d9 13bd
00000010: 6df2 b7bd 5fbf c93d 376b 263d 7672 4bbc
00000020: 5402 b03d f203 45bc 6b1e 4dbd 58f6 21bd
00000030: a2db 043d 6a04 9cbc 17ed d0bc 3c35 843d
00000040: b3e0 babc 2490 383c a1ad eebc 6afa 383d
00000050: 3092 6cbd 467a 9d3d e2f7 adbd 69e8 4bbd
00000060: a489 573d 6160 a2bd dc48 dc3c bf72 973d
00000070: 496d e9ba 50b4 da3c 7647 b2bd 1aeb 883d
00000080: 8760 a23d 9bd4 6dbb aba8 a2bd 446e 7f3d
00000090: f4f7 a8bc 285b b13d 7a8f 383d 5fb1 b9bb
000000a0: 487e 963d 99d9 06bc be8d 57bd d08c 18bd
000000b0: f59f fb3c 8930 38bd c38b 0fbd d0ac c8bc
000000c0: 3318 383d 269b 99bd 1292 ac3d 476f 80bd
000000d0: 9278 a4bc 895d 0c3b 221b 3abc b0e4 523d
000000e0: 696d 343d 5372 26bd 3b74 7f3d a777 153d
000000f0: 67e3 963d 8f24 6f3d 6a3a 50bb 0d22 74bd
00000100: 71e2 013d 5235 5a3d aca7 7c3d c9fe 44bd
00000110: b0ee 59bd 40d9 803d f12e 2fbd fccf b23c
00000120: 99fe 76bd 3f2f b9bc ccb9 de3c b4a6 503d
00000130: b5be 09bd a163 8c3d 301a 39bd a8f4 993b
00000140: dafe 213d 47e6 253d 42de 5cbd 1ff2 2fbd
00000150: 2a51 243d fe9e 893d 5565 973d 3f97 3dbd
00000160: d3cf 86bd fce3 d4bc 76af 78bd d4b6 243d
00000170: dd68 8f3d a9f8 883d 53e1 42ba c5ec 67bd
00000180: a4c8 8f3d 0ea1 bf3d bc86 b83d 5302 853d
00000190: 08a3 153d ffc0 963c 57ae 6abc fc36 963d
000001a0: 4477 9ebd bd37 cfbc b2fe 9e3b 4c8d 83bd
000001b0: 1a3f 0bbc b833 a9bd 5341 4b3d 01ac 22bd
000001c0: 2d92 063d e2a7 263d 1073 aebc c956 b6bb
000001d0: db1c 583d 8d98 743d b22c 35bd 74d5 163d
000001e0: 2fa1 053d ffef d8bc cd3b 62bd 9e01 b73d
000001f0: 7387 a9bc ce53 ac3d 3564 9bbc 2ecc 883d
00000200: 2848 16bd 6b48 81bd 60b9 7abc 6374 a63c
00000210: 61e4 153d 5a9c bfbb c877 383d a162 783d
00000220: 3344 d8bc ff4f 793d c8f9 9dbd 2b79 45bd
00000230: f8b5 9c3d 6089 fa3c 8ab2 b43b 1395 34bc
00000240: 48a5 833d d25f 06bd 6500 8a3c cd68 f43c
00000250: f587 6c3d 1a37 8dbd 4f07 90bc bb43 abbd
00000260: 9a06 05bd e445 7c3d 0902 be3c 6117 5a3d
00000270: 2918 fc3c e272 cabc bf51 7ebc d11d bfbd
00000280: a0b9 3b3d 646c 8a3d cbb5 e83c 08b5 84bd
00000290: d416 77bd 30b1 8a3d 7696 d23c e8de b13d
000002a0: c840 a2bc 7734 39bd 7b3a b7bd df5f bfbd
000002b0: d084 b4bc 6d89 2cbd b900 b2bd 3e34 0f3d
000002c0: 0ab7 453d f12a 4f3d 1bcf 7a3d 95f3 773d
000002d0: 9a1b fe3c d84c 43bd 9b65 62bd 19bb de3c
000002e0: b9cc b93c fd8c 8abc a15f 473d e5e8 a53d
000002f0: 787c 44bc 1a2e 3e3c 47f8 a2bd bc5b 6e3d
00000300: 3f5a c5bc a521 96bd a230 79bd 779b 763d
00000310: a3d9 d4bc dbc2 e8bb 532f c4bb a40f e33c
00000320: 683c 91bd c744 89bc d76c 61bc 0930 103c
00000330: 6a30 32bb 149a a1bd 10f5 683d d8ba a83c
00000340: 7245 be3d fd24 82bd 9a56 b13d ef6b a4bd
00000350: 5e70 3dbd 6dc1 19bd 2222 a33b 351f 783d
00000360: 1312 ec3b 4b1f 943d 3e0c 57bc 7a74 aa3c
00000370: 17cb 56bd 72b2 8c3c df38 943d 0c87 5b3c
00000380: 4676 a9ba 4808 3dbd 34c7 c8bc dba6 ec3c
00000390: b0f8 8cbd ae1c 8abd 3973 a03d 9260 83bd
000003a0: ea55 523c 45c5 853d ffe2 3a3b 74cd b5bd
000003b0: 77be 123c 9a11 423d 1480 803d 3a13 663d
000003c0: 7eeb 9f3c b254 54bd 085c e0bc c2dd 633d
000003d0: 0fc8 33bd 4617 50bc a998 65bd a8a1 8cbd
000003e0: 7a66 bb3d 57b3 b5bd fb0c 84bd 400f 613d
000003f0: a07a dcbc 96bb 343d 1735 013c 8f01 3ebd
0.0393818 0.021412924 0.0027281388 -0.03609642 -0.08981786 0.09850954 0.04062959 -0.012417426
0.08594194 -0.012024866 -0.050077837 -0.039541572 0.03243602 -0.019045074 -0.025503678 0.06455466
-0.022812223 0.011264835 -0.029135527 0.04516069 -0.057756603 0.076893374 -0.084945455 -0.04978219
0.0526215 -0.07928539 0.02689021 0.07394933 -0.0017809059 0.026697308 -0.08705036 0.06685467
0.079285674 -0.0036290053 -0.07942327 0.062361017 -0.020626046 0.08659965 0.045058705 -0.0056668962
0.07348305 -0.00823059 -0.05262541 -0.037243664 0.030715922 -0.04496816 -0.035045397 -0.024496466
0.044944953 -0.07500295 0.08426298 -0.062712245 -0.020077024 0.0021418056 -0.011359008 0.051487625
0.044049654 -0.04063637 0.062366705 0.036491062 0.07367592 0.058384474 -0.0031773099 -0.059602786
0.031710092 0.053273506 0.06168334 -0.048094545 -0.053206146 0.06291437 -0.042769376 0.02182769
-0.060301397 -0.022605537 0.027188204 0.05094023 -0.033629138 0.0685494 -0.04519099 0.0046983548
0.039549686 0.040502813 -0.0539229 -0.042955514 0.040116467 0.067197785 0.073923744 -0.046286818
-0.06582608 -0.025987618 -0.060714208 0.04021342 0.07002423 0.06688053 -0.00074340886 -0.056622285
0.07020691 0.093568906 0.090100735 0.06494584 0.03653243 0.018402575 -0.014323792 0.07334706
-0.07737592 -0.025295133 0.0048521394 -0.064234346 -0.008498931 -0.08261818 0.049622845 -0.039714817
0.032854248 0.04068745 -0.0212951 -0.005564545 0.052761894 0.059715796 -0.044232078 0.03682466
0.03262442 -0.026481627 -0.05523281 0.08935855 -0.02069447 0.08414422 -0.01896868 0.06679569
-0.036689907 -0.06312641 -0.015302986 0.02031917 0.036594752 -0.005847496 0.045036107 0.060640935
-0.026399707 0.060867306 -0.077136576 -0.048211258 0.07651895 0.030583084 0.0055144476 -0.01102187
0.06428009 -0.032806225 0.016845891 0.02983513 0.057746846 -0.068952754 -0.01758161 -0.08362528
-0.032477 0.06159009 0.02319433 0.053244952 0.03077324 -0.024712984 -0.0155224195 -0.09331859
0.045831323 0.06758955 0.028406998 -0.064798415 -0.060324505 0.06772077 0.025706511 0.08685094
-0.01980628 -0.04521605 -0.08946701 -0.09344458 -0.022035986 -0.042123247 -0.08691544 0.03496193
0.048270263 0.05057806 0.061232667 0.060535032 0.03101902 -0.047680706 -0.05527268 0.027188824
0.022680627 -0.016912932 0.048675183 0.08101062 -0.011992566 0.011607671 -0.079575114 0.058192953
-0.024090884 -0.07330636 -0.060837395 0.060206857 -0.025982684 -0.0071033067 -0.005987087 0.027717419
-0.070916 -0.016756428 -0.01375886 0.008800515 -0.0027189502 -0.07890716 0.056874335 0.020596907
0.092905894 -0.06354711 0.08659096 -0.08028399 -0.04624974 -0.03753798 0.004978434 0.060576636
0.007204303 0.07232531 -0.013125477 0.020807493 -0.052439775 0.017174933 0.0723741 0.013398897
-0.0012928925 -0.046150476 -0.02450905 0.028888157 -0.06883371 -0.067437515 0.07834477 -0.06414904
0.012837866 0.06531767 0.0028516648 -0.08877078 0.008956543 0.047380067 0.06274429 0.05617068
0.019521471 -0.051838584 -0.027387634 0.055631407 -0.043891963 -0.012700861 -0.05605379 -0.06866771
0.09150405 -0.08872097 -0.06447788 0.054946184 -0.02691394 0.04412421 0.007886193 -0.046388205

layers.0.f_def.weight f4 [1, 128]
00000000: 8ef9 a3bd 6c15 b8bc b1dd 99bc 546c 3bbd
00000010: 7ba4 7ebd 1b35 303d bb17 8b3d 43b1 b83d
00000020: 4fa5 b0bd f817 9cbd b33c c8bd 3dc8 b03d
00000030: 2cbf 693c 6fbb a23d 3239 6c3d 8123 84bc
00000040: 541b 1c3d f137 09be 136f bebd 96c1 3fbd
00000050: 27d0 c23c 25a8 d13c 0923 c9bd 6fcd 3cbd
00000060: fac6 1e3d 43e0 68bd 082e bd3c f9cc 283d
00000070: cbec 9b3c 0594 a53d 0169 193d 054d dc3c
00000080: 62e8 72bd f7e9 16bc 4d5b 133d c327 d2bd
00000090: bc38 8d3d ed39 183d 21b8 233b a587 afbd
000000a0: 08ec dabd d50d dabd a595 8f3c 4919 1dbd
000000b0: 0709 b93d 3999 82bc 8a09 e23c fbdf 10bd
000000c0: 05c2 bd3d 0984 1fbd 809f f13d 97b9 e03c
000000d0: 8898 f6bc 60aa aeba c862 823d 6227 30bd
000000e0: a496 813d 6210 48bd 155d febc f45a a7bc
000000f0: 4b62 843d c178 713d a3a4 b53d 2be7 08bc
00000100: 9314 2cbc e02a a13d 0c29 a7bc c2c1 be3c
00000110: dc38 fc3d 7773 35bd ec3d 033b b2bd 0cbd
00000120: f5dd 8d3d 5b71 eb3d f692 37bc e705 9bbd
00000130: 81da a83d 8244 bbbc b3e8 a3bb c232 203d
00000140: 7730 1e3c 3eb3 a3ba 05cd 233d 8f06 7a3d
00000150: 444f c73c d8fd 643d f259 1c3d 5643 babd
00000160: 0e27 f33c ac80 8ebd 92b9 013d d347 88bd
00000170: c8a0 76bb c493 4c3d e6a0 0bbc 9d22 8b3c
00000180: ca7d 17bd c9b2 113d 7979 0f3d d89f 02bd
00000190: 8551 88bd f529 24bd 86f2 d63d bbf1 733d
000001a0: 0612 a33d f751 4e3c f7f7 453c 1db6 3a3d
000001b0: 1d74 bfbc c8b6 95bd 7f48 ec3c 95ef 9bbd
000001c0: 2900 0abd 9b9e 3abc 8771 183a ee57 79bd
000001d0: 14f7 5e3d 6acf a23d 3f4d 38bd 48fa 73bd
000001e0: 5e25 2ebd 846b 3d3c 8b84 5cbd be81 5fbd
000001f0: e261 1d3b b911 b4bd 3cbf bdbc 0e69 95bc
-0.08006583 -0.022471152 -0.018782469 -0.045757607 -0.06216858 0.043019395 0.067916356 0.09018185
-0.0862528 -0.07621759 -0.097772025 0.086319424 0.01426677 0.07945906 0.057671733 -0.01613021
0.038112 -0.13400246 -0.092985295 -0.046815477 0.023780895 0.025592873 -0.098211356 -0.046094354
0.038763978 -0.056854498 0.023093238 0.041211102 0.01903381 0.08084873 0.037453655 0.026892195
-0.05930365 -0.009211055 0.035975743 -0.1026149 0.06895587 0.037164617 0.0024981576 -0.08570794
-0.10689551 -0.106471695 0.01752741 -0.038354192 0.09034925 -0.015942203 0.02759244 -0.035369854
0.09265522 -0.038944278 0.11798 0.027432246 -0.03010203 -0.0013325922 0.06366497 -0.04300631
0.063275605 -0.04884375 -0.031050244 -0.020429112 0.064640604 0.05895305 0.088692926 -0.008355896
-0.010502952 0.07869506 -0.020405315 0.02328575 0.123155326 -0.04429957 0.0020025922 -0.034360595
0.069271006 0.1149623 -0.011204472 -0.07569485 0.08244801 -0.022859816 -0.005002105 0.039110906
0.00965511 -0.0012489331 0.039990444 0.06104141 0.024329789 0.055906147 0.038171716 -0.090948746
0.029681709 -0.06958136 0.031671114 -0.066543244 -0.0037632454 0.049945608 -0.008522248 0.016984278
-0.036985196 0.035570893 0.035027955 -0.03189072 -0.066561736 -0.040079076 0.104954764 0.059556704
0.07962422 0.012592784 0.012083045 0.045583833 -0.023370797 -0.073102534 0.028843163 -0.07614056
-0.03369156 -0.011390354 0.0005815257 -0.060874872 0.05443485 0.07949717 -0.044995543 -0.05956486
-0.042516105 0.011561278 -0.05383734 -0.05456709 0.0024014642 -0.08792443 -0.023162477 -0.01823857

layers.0.W_self.weight f4 [128, 128]
00000000: 5420 c83b 4068 52bd e7e1 1bbd fb17 013d
00000010: 6f8d a23d 11af 4fbd b9e8 c5bc b7db 6fbd
00000020: 65a7 603d 5cab 5c3d af9c 843c b6f5 a0bd
00000030: 4f0f e03a 0719 8c3c 2eb2 90bc 9975 693d
00000040: 2a0c 443d b245 7e3d ee02 8a3d 2f98 b03d
00000050: 717c 23bc 1c8d 83bd f0db 7d3d 369d 853c
00000060: fdf0 6b3d 1490 293d 262b 943d 514a 233d
00000070: f979 7e3d 45cd 993d ce1a ee3c b0b2 3abd
00000080: fe9a 393d 4403 9ebd 04c6 9ebc 785a 18bd
00000090: 581f 813d 7cc4 f8bc fe64 40bd 118f 9d3d
000000a0: 5b90 703d be74 723d ed7c acbd 0755 a73d
000000b0: 72d4 8dbc a1e6 b1bd dacb 6a3d 9e91 833c
000000c0: b284 9c3d 972f 5dbd b236 2e3d 7a25 8f3d
000000d0: bc76 2bbd f253 8bbb 9b64 ca3c e724 2cbd
000000e0: b858 813d 701d a23c 7ed5 b2bc bff7 80bd
000000f0: 0aa6 fd3c aef0 5f3c 0982 99bd 8fd4 8cbd
00000100: 35fe 0abd cbf5 83bd feff 8a3c 5488 8fbd
00000110: 1750 b93d 914e 523d d6c0 a6bc 46ab 9abd
00000120: 41fe 9d3d 7276 b73d 0641 a1bd c964 463d
00000130: e8d4 303b 9637 b9bc f622 a63d 69df 443d
00000140: d33d a13b 51f3 993d 0527 77bd 553e 683d
00000150: 12a8 babd 49f5 133c 8eda 10bd 9f27 b0bd
00000160: 0a08 81bd ce85 99bd 5bdd 6ebd 0c1d c23b
00000170: 1fb0 393d 422a 7f3c 1ec2 1bbd 3953 44bd
00000180: a5c7 9dbc c7ab 88bd 7f54 ad3c 3f3e 2fbc
00000190: e77f 9abc c2f4 743c eb8d 813d 82b0 64bd
000001a0: f284 96bd 6000 4ebd fc37 083d 1bbb 8ebc
000001b0: a5d4 4dbd 2c8a 77bd ed77 5a3c 2d39 8dbd
000001c0: ddc0 4f3c d43e a7bc 6aca ecbc ced6 66bd
000001d0: c252 6cba 7f78 bebd 2ec7 353d 4db1 d8bc
000001e0: 1fbb 95bd 9bf5 78bd 73a8 873c a73d b0bc
000001f0: c5a7 36bb feb6 b13c b38b 59bd b644 673d
00000200: f29d 9dbd c6a4 aa3d 0c74 5cbd e47c d43c
00000210: d54c efbb 63d7 213d e305 8d3d 8749 c9bc
00000220: 6824 0abd 2ce0 ab3b d268 a03d e23c a0bc
00000230: e5d1 923d dd06 77bd b79f 77bd f60c 98bd
00000240: 0549 523c c4de 1cbc 7725 85bd 04ae 3c3d
00000250: a6e2 a3bd 95ac 1ebd a67f b53d 3627 26bd
00000260: 2733 12bd ba0b ca3c c5a9 cf3c 30ed febc
00000270: 997a 9fbc e7a2 103d d26c df3c 9c85 a43d
00000280: a29b e83c 007d 40bd 3970 9d3d f5ac bd3d
00000290: 9a00 9dbb bb7a 25bd c88e 8a3d 3651 a43d
000002a0: b793 14bd 7611 523d 3456 c2bc a89e bcbc
000002b0: d870 043d 4b18 03bd 8eaa b63c f022 e83c
000002c0: 30d8 a8bd be22 1fbd 5d4e 85bd 3c03 e33b
000002d0: 9583 013d ea53 37bc dccc b5bd 9982 543d
000002e0: 81c3 cb3d 4956 9a3d 5a3c d93c 0eb6 b93d
000002f0: 2ab3 933d e124 323d 683f a3bd 4653 41bc
00000300: e5cb 28bd e181 c1bc ae99 12bb 9201 0dbd
00000310: 2da1 79bd f78f 8a3c 03a3 92bd affb 2abd
00000320: 5aa0 4c3c dad5 a8bd d6cb 773d 9ec2 47bc
00000330: d340 66bd ea3e 77bd 737e 613d 11ed c93c
00000340: fef6 063d 2b2b 91bd 165a 853c c5dd a9ba
00000350: d34f 07bd db93 8ebd 8574 a63d fb97 923d
00000360: 768e 883c 847a aebd b1b3 253d 2785 a03c
00000370: d084 b23d ea5a b43d d863 94bd 2b4e 90bd
00000380: 6dba c0bd 425f 9b3d 2826 073d 94f2 dc3c
00000390: b6f3 553d e51f aebd 4068 9c3d 86b5 2dbd
000003a0: ab18 883d 680e 80bd 229c d93c 9ed8 a93d
000003b0: d166 183d ae0a 81bd 87c7 193c 78d0 72bd
000003c0: 28b0 a2bd 79b2 153d b473 8e3d f8c3 fdbc
000003d0: b43d 833b 7d07 3b3d 47b6 8bbd 7fb9 c6bc
000003e0: 353f 8b3d 5fb0 ff3c 7084 903d 255b b93b
000003f0: 1f22 a0bd 390b 4d3d 03ac 603d 86e8 f5bc
0.0061073694 -0.05136895 -0.038057234 0.03151701 0.079371326 -0.050704066 -0.024158822 -0.058559146
0.05484714 0.05387436 0.016187994 -0.07859366 0.0017094406 0.017101778 -0.017663088 0.056996915
0.047863163 0.062078185 0.0673884 0.08622777 -0.0099784 -0.06423399 0.061977327 0.016310316
0.05760287 0.04139717 0.072347924 0.039865796 0.06212804 0.07509855 0.029065516 -0.045580566
0.045313828 -0.077154666 -0.01938153 -0.037195653 0.063048065 -0.030367129 -0.046971314 0.076933034
0.058731418 0.059193365 -0.08422265 0.081705146 -0.017313216 -0.08686567 0.057323314 0.016060647
0.07642497 -0.054000463 0.04253263 0.0698957 -0.04186128 -0.0042519504 0.024706176 -0.04202738
0.0631575 0.019789428 -0.021830317 -0.06297254 0.030962963 0.013668222 -0.07495505 -0.0687648
-0.033933837 -0.06443366 0.01696777 -0.070084244 0.09048479 0.051344458 -0.020355623 -0.07552199
0.07714511 0.089581385 -0.0787373 0.04843596 0.002698237 -0.022609513 0.08112137 0.048064623
0.0049207 0.07517112 -0.060339946 0.05670007 -0.09114088 0.0090306485 -0.03536468 -0.08601307
-0.063003615 -0.07496224 -0.05831657 0.005923873 0.045333978 0.01557404 -0.03802692 -0.04793093
-0.019260237 -0.06673389 0.021158455 -0.010695993 -0.018859817 0.014950933 0.06325897 -0.055832393
-0.07349576 -0.050293326 0.033256516 -0.017423203 -0.05025162 -0.060434505 0.013334257 -0.06895671
0.0126802595 -0.020415701 -0.028905112 -0.056357197 -0.00090150174 -0.093003266 0.044379406 -0.026451731
-0.07311081 -0.060781103 0.016559815 -0.021513773 -0.0027870995 0.021693703 -0.053111743 0.056462012
-0.07696141 0.08332209 -0.05382161 0.025938459 -0.0073028603 0.03951205 0.068858884 -0.024571193
-0.033726126 0.005245229 0.07832493 -0.019560281 0.071689405 -0.06030928 -0.06045505 -0.07424347
0.012834792 -0.009574596 -0.065012865 0.04606439 -0.08002214 -0.038738806 0.08862238 -0.04056474
-0.035693314 0.024663795 0.025349507 -0.03111896 -0.019467639 0.035311606 0.02727357 0.080332965
0.028394524 -0.04699421 0.076874204 0.092615046 -0.0047913315 -0.040400248 0.067655146 0.08023302
-0.036273684 0.051286183 -0.023722745 -0.023024872 0.03233418 -0.03200559 0.022298124 0.028336972
-0.082443595 -0.038851492 -0.06509087 0.006927876 0.031619627 -0.01118944 -0.088769644 0.05188236
0.09949399 0.07535989 0.026518036 0.09067927 0.07211907 0.0434922 -0.07971078 -0.011799639
-0.041210074 -0.023621501 -0.0022369432 -0.034425326 -0.060944725 0.01691435 -0.07159998 -0.04174393
0.012489403 -0.08243914 0.060497127 -0.012192396 -0.056214165 -0.060362734 0.055052232 0.024649175
0.032950394 -0.07088312 0.016278308 -0.0012959769 -0.03303511 -0.06961795 0.08127693 0.07157894
0.016669493 -0.08519462 0.04045457 0.019594742 0.08716738 0.08806403 -0.07245606 -0.07046159
-0.09410558 0.07586528 0.032995373 0.026971139 0.052234374 -0.08502177 0.076370716 -0.042409442
0.0664533 -0.06252748 0.026563708 0.082932696 0.03720743 -0.06300865 0.00938595 -0.059280843
-0.079437554 0.036547158 0.06955662 -0.030977234 0.0040051583 0.04566144 -0.06821876 -0.024258373
0.06799165 0.03121203 0.070565104 0.005656617 -0.07819008 0.05005953 0.054851543 -0.030018102
