refined09_best.pth (torch, 887178 bytes, 35 tensors)

input_norm.weight f4 [7]
000000 62 12 80 3f d3 97 67 3f f7 82 73 3f 66 bf 80 3f
       1.000561 0.9046604 0.9512171 1.005841
000010 18 56 79 3f 92 58 82 3f 1a 7a 82 3f
       0.97396994 1.018328 1.0193512

input_norm.bias f4 [7]
000000 7a 8f a1 3c 5f 08 1a bd 45 20 09 3c f9 9e 62 3c
       0.019721735 -0.03760564 0.00836951 0.013831847
000010 da de 1d ba a9 35 c5 bb 3d 7d 93 3b
       -0.0006022282 -0.0060183597 0.0045010136

layers.0.embed.weight f4 [128, 7]
000000 43 f9 72 be 34 a3 13 3c 3c 77 3a 3d 2e 45 85 bd
       -0.23727898 0.009011079 0.045523867 -0.065073356
000010 18 85 8d bb 7b aa 18 be 93 83 3a 3e cd b6 2c bd
       -0.0043188445 -0.14908783 0.18214254 -0.04216652
000020 a6 9b ba 3d 49 e4 a5 be b0 2a 5b 3e 75 21 fb bd
       0.09111719 -0.3240073 0.21403003 -0.12262241
000030 68 ae 79 3e ff a4 95 3e 10 b0 67 3e c9 f8 16 3e
       0.24382937 0.29227445 0.22625756 0.14743342
000040 84 88 51 bd b5 f9 40 be d6 5e c1 3e 84 15 5e 3e
       -0.051155582 -0.18845256 0.37767667 0.21687895
000050 4f 50 bd 3e 46 5a 98 be f0 96 d3 3d 1f 6e 10 3e
       0.36975333 -0.29756373 0.103315234 0.14104508
000060 a7 5a 0c 3e fc 1e 95 ba 0c 90 b8 be 02 aa 8c 3e
       0.13706456 -0.0011377032 -0.360474 0.27473456
000070 59 28 06 3e 43 72 8d 3d f8 a1 7a be 7e d2 50 3e
       0.13101329 0.06906559 -0.24475849 0.20392796
000080 99 97 c4 bd 18 2c 73 be cb b8 94 be 1c 25 5d be
       -0.095992275 -0.23747289 -0.29047236 -0.21596187
000090 00 54 88 3e ec 98 61 3e 3b b5 85 be 63 02 eb 3d
       0.26626587 0.22030991 -0.2611483 0.114750646
0000a0 62 fa 62 3d 80 bb 2e 3e f3 a8 03 3e 9b fd 1e bd
       0.055414565 0.17063713 0.12857418 -0.038816076
0000b0 fa 14 74 3e 1c c6 3d be 20 95 ac 3e ef 65 ee 3d
       0.23836127 -0.18532604 0.33707523 0.11640536
0000c0 0a fb ff 39 c9 19 59 3d 67 84 73 bd 7c 77 60 3b
       0.0004882443 0.053003106 -0.05945244 0.0034250906
0000d0 a8 65 a7 be 4a db 1b bc d5 28 32 be 8e d5 82 bb
       -0.32694745 -0.009512732 -0.17398389 -0.003992743
0000e0 cf 71 8b 3e 01 11 1e be 2f 40 8f be 15 e0 8c 3e
       0.27235267 -0.15436174 -0.27978656 0.2751471
0000f0 63 6c 2b 3e cd cd b6 be 3c 02 26 ba ab 05 81 3d
       0.16740565 -0.3570389 -0.00063327304 0.06299909
000100 2f 46 99 3e a3 cc 36 3d bc 0a 02 be 92 82 88 3e
       0.29936358 0.04462875 -0.12699407 0.26662117
000110 17 6f 52 3e b0 d7 96 be b8 3f a2 bd 90 90 9e be
       0.2055019 -0.29461432 -0.0792231 -0.30969667
000120 4d 50 d0 bd 6c 8d a8 3e ea 69 06 3e db 91 90 be
       -0.10171566 0.32920396 0.1312634 -0.2823628
000130 c4 7d 3a 3d d4 5a ac 3e 57 13 a7 be 97 51 4e 3e
       0.045530096 0.33663046 -0.32631943 0.20148312
000140 56 db 85 be 76 c6 53 3e 3a 64 81 be e1 a7 d1 bd
       -0.26143903 0.20681176 -0.2527178 -0.102370985
000150 c9 5d 64 bc 0d 89 7b 3e b4 f9 00 3c 17 5d 6f be
       -0.013938376 0.24564 0.007872034 -0.23375355
000160 2a f4 9e be 30 16 5b 3e 6e c5 84 be 76 0e b5 bb
       -0.31045657 0.21395183 -0.25931877 -0.0055254055
000170 9a 7b 4f 3e fa b0 76 be f0 c1 25 3e b7 9b bf bc
       0.20261994 -0.24090949 0.16187263 -0.02338968
000180 3e 68 fc bc 7f b1 aa be e0 37 a7 bd 1d be af 3e
       -0.030811425 -0.33338544 -0.08164954 0.34324732
000190 4f de d1 3d 88 73 88 3e bc b2 5f be 26 20 ae bc
       0.1024748 0.26650643 -0.21845526 -0.021255564
0001a0 63 f8 55 3e 5e 15 8d 3e ba f9 8c be d7 5e 45 be
       0.20895533 0.27555364 -0.27534276 -0.1927446
0001b0 12 a2 ee 3d 33 64 21 bd 79 d9 83 3e 93 29 bb bd
       0.11652006 -0.039402198 0.25751856 -0.09138789
0001c0 11 65 18 bd 35 44 76 3e eb bf 53 bd 2c 77 73 be
       -0.03720576 0.24049456 -0.0516967 -0.23775929
0001d0 3c a8 9c be b0 80 ba 3e 1e 88 af be 8a 25 6d be
       -0.30597103 0.36426306 -0.34283537 -0.23158851
0001e0 f4 12 c2 3c 77 4b 9d be 9c bd 78 3e db 4d 9c 3c
       0.023690678 -0.30721638 0.2429108 0.019080093
0001f0 65 56 93 3b bb 07 a9 be 5b 4c 67 be 2e 4c 1e 3e
       0.004496383 -0.3301371 -0.22587721 0.15458748
000200 1f 2d 0f 3d 2d 6d 67 3e 18 72 d5 bd a9 95 08 3e
       0.03495514 0.22600241 -0.10422152 0.13338341
000210 ef 0f 42 3e b1 4a aa be 5a 4f ff 3c 1d e3 8b be
       0.1895139 -0.3326011 0.031165767 -0.2732171
000220 4b 0f 85 be a4 57 43 3e 06 2c ac 3e ae 80 7c be
       -0.2598823 0.19076401 0.33627337 -0.24658462
000230 71 af b0 be 7d ec 73 3e 23 cc 93 3e 50 8a 1d be
       -0.3450885 0.23820682 0.2886668 -0.15384793
000240 2a 3c e1 3d 9d b3 03 3e 9e 68 c9 3b ad 7b 8f be
       0.109978035 0.12861486 0.0061465045 -0.28024045
000250 6d fe 37 3e 66 56 68 3d d4 1d 28 3e 03 97 90 3e
       0.1796815 0.05672302 0.16417629 0.28240213
000260 b6 f8 3e be a5 46 28 be 99 3d a8 be 81 69 8c be
       -0.18649563 -0.16433199 -0.32859495 -0.27424243
000270 5a 0b bb be 6b 09 a3 3e 91 0f e1 bd 10 52 e3 bd
       -0.36532098 0.31843123 -0.10989297 -0.110996366
000280 63 6f 16 be 94 a9 88 3e 07 b9 7c 3e 4a 49 86 3e
       -0.14690928 0.26691878 0.24679957 0.2622779
000290 75 dc b7 3e 0a 83 dd 3d 51 76 8a be e7 bc e9 bd
       0.35910383 0.10816009 -0.27043393 -0.114129834
0002a0 10 d3 91 3e a8 64 e2 bd 0e a7 10 3e 90 a0 ab 3e
       0.2848134 -0.11054355 0.14126226 0.33520937
0002b0 70 80 98 3e 6f b3 88 3d a5 c6 85 3e bd 40 84 3e
       0.2978549 0.06674849 0.26128116 0.2583064
0002c0 c8 a2 94 3e 47 7c ab 3d 4b 67 c2 bd 0f c3 fe bc
       0.29030442 0.083733134 -0.09492358 -0.03109887
0002d0 d5 40 19 bc 80 b8 6e 3e 55 f7 14 be 58 f9 a9 3d
       -0.009353836 0.23312569 -0.14547475 0.08299512
0002e0 0c aa 6a 3e d2 ee b6 3d b8 a5 ca bd b3 f9 5b 3c
       0.2291643 0.0893227 -0.098948896 0.013426232
0002f0 0b 8f 1c be 23 67 8c 3e 73 70 03 3d fa 07 36 3e
       -0.15288942 0.27422437 0.03208966 0.1777648
000300 84 f1 8c be 4a 5f 30 be 17 c2 06 3d 50 28 9c 3e
       -0.27528012 -0.1722385 0.032899942 0.30499506
000310 08 c7 8a 3e dc a8 9d bd 58 14 82 be 3f af c7 3d
       0.27104974 -0.07698223 -0.25406146 0.097502224
000320 2e 5e e9 bd 20 fe e9 3d 5f 3a 33 be 8d c9 60 3e
       -0.113949165 0.114254236 -0.17502736 0.21951886
000330 d9 e3 4b 3e a5 f3 82 bd 5f 8d 88 be e3 49 aa be
       0.19911136 -0.06394128 -0.26670358 -0.33259496
000340 74 11 89 3e 9f 73 a0 3e 58 e2 b3 be 95 63 a7 bd
       0.26771128 0.31338212 -0.35133624 -0.08173291
000350 49 87 76 3c e6 e2 5b be 21 0d 0d 3e 20 06 c9 3d
       0.015046903 -0.21473274 0.1377454 0.098156214
000360 ae f7 6e be c4 4c 9a bc a7 93 6d 3e e3 dc 56 be
       -0.2333667 -0.018835433 0.23200856 -0.20982699
000370 72 17 a1 3e e6 5d 88 bb 74 44 28 be e3 ed 9a 3e
       0.314632 -0.004161584 -0.16432363 0.30259618
000380 17 93 6c 3e 25 d6 be bd fb cc 73 be 21 28 95 be
       0.23102985 -0.093181886 -0.23808663 -0.29132178
000390 e9 70 0e 3a 35 5c d5 3d 0f dc b6 be 11 85 c7 3d
       0.0005433695 0.10417978 -0.35714766 0.09742177
0003a0 a6 11 3d 3b ac 66 af be bf bc 15 3e 76 1d 98 be
       0.002884963 -0.3425802 0.14622782 -0.29709977
0003b0 1e a6 b3 3d b5 71 c8 3d c7 52 8a 3e a2 71 79 be
       0.08771919 0.09787313 0.2701628 -0.24359754
0003c0 8f b7 25 be 2d f0 72 3d 32 24 7d be 3c b5 0a 3e
       -0.16183303 0.05931108 -0.24720839 0.13545698
0003d0 f8 d5 d5 bd 36 62 39 3e c0 f5 6d 3e 3a fe ce bd
       -0.10441202 0.18103871 0.23238277 -0.101070836
0003e0 d0 bf 90 3e 33 15 02 be 0b a1 6e 3e 4c e8 78 3e
       0.2827134 -0.127034 0.2330362 0.24307364
0003f0 fc e4 b9 bc b6 11 50 3e 95 74 78 be df 00 57 be
       -0.022692196 0.20319256 -0.24263223 -0.20996426

layers.0.embed.bias f4 [128]
000000 5b 84 9a bd bd 14 92 3d d2 37 df 3d 65 b2 86 3e
       -0.07544776 0.07132862 0.10899319 0.2630798
000010 84 73 62 3d fa 2b 87 bd 7d 33 98 3e 29 2b 4d 3e
       0.055285946 -0.06600185 0.29726782 0.20035996
000020 4c 11 94 be 62 c3 16 be b7 1b f3 bd 2f 75 af 3d
       -0.28919446 -0.1472297 -0.118705206 0.08567273
000030 77 f6 8d 3d c2 34 c9 bb 80 0a a0 3e 73 4f 8a be
       0.06931775 -0.0061403224 0.3125801 -0.2701374
000040 81 a4 77 bd 26 7c 14 3e 41 1b be be a5 f0 84 3e
       -0.060459618 0.14500484 -0.37130168 0.25964847
000050 71 5d bb 3e 4f f8 b1 3e ff 7e 4a be fb d6 9d 3e
       0.36594728 0.34759757 -0.19775008 0.3082808
000060 8e cc 44 be cd a9 20 be 01 32 bf 3c 86 d5 64 3e
       -0.19218656 -0.15689774 0.023339273 0.22347078
000070 90 0c 9a 3e ac 66 f8 bd 4f 8b 40 be ce 4d b4 3e
       0.3008771 -0.12128958 -0.18803142 0.3521561
000080 c3 e4 f1 bc 1d e3 8c bd ce 4d aa be f2 71 c0 bd
       -0.029528027 -0.06879256 -0.33262485 -0.09396733
000090 84 09 44 be f9 eb f8 3d 9d 65 91 be d1 9e 3e be
       -0.19144255 0.12154383 -0.28397837 -0.18615271
0000a0 97 c1 9e be 06 38 be 3d 6a 22 4a be d2 f6 f6 bd
       -0.31007072 0.092880294 -0.1973969 -0.12058796
0000b0 be e8 99 3d 99 fc 5c 3e 48 dd 1b 3e 76 95 75 3e
       0.07515095 0.21580733 0.15221131 0.23982796
0000c0 63 be 12 be 1a 58 f9 bd fb 1b 81 bd f4 c6 89 be
       -0.1433044 -0.12175007 -0.06304165 -0.26909602
0000d0 8b 4b aa be 41 7f 27 3e f0 8b a8 3e 9c 44 92 3d
       -0.3326076 0.16357137 0.32919264 0.071419924
0000e0 de 73 6f bd ac f4 6e 3e 8c a4 54 3e 61 e8 b7 3e
       -0.05846011 0.23335522 0.20765895 0.3591948
0000f0 61 7a 3e 3d ae c1 f3 3d 60 50 2c be 3e ff 8d be
       0.04650343 0.11902176 -0.16827536 -0.27733797
000100 30 56 af be d4 98 3b bd 3a 49 32 be 47 63 37 3e
       -0.34245443 -0.045800045 -0.17410746 0.17908965
000110 97 11 d6 3c 32 e9 a0 bd 82 d2 d9 bc ed af ea bd
       0.026131434 -0.078569785 -0.026589636 -0.114593364
000120 50 af cd bc 02 f2 3d be ae 9c c2 3e 49 77 3f 3e
       -0.02510801 -0.1854935 0.38010162 0.18697847
000130 13 c1 0c 3e 26 98 97 3c 8a 85 e8 3c 5c 1c e8 bd
       0.13745527 0.018505167 0.028383989 -0.11333534
000140 fb 6e 5f bc 03 0e bb bd 52 31 b2 be 15 b7 8d 3e
       -0.0136373 -0.09133532 -0.34803253 0.27678743
000150 f3 db 15 3e b2 7a 77 be be f3 89 bc 87 fe bb 3e
       0.14634685 -0.24167898 -0.016839858 0.36717626
000160 18 20 83 3e 61 ed ae be 9a 5d 2c be f6 74 bd 3e
       0.25610423 -0.3416548 -0.16832581 0.37003297
000170 81 ea 20 bd c1 0f c4 3c 5c 7e 87 be 66 81 9a be
       -0.03928614 0.023933293 -0.26463592 -0.30176848
000180 d2 4b ac be 0b c8 32 be 5b 84 67 be 4a 6e 37 bd
       -0.33651596 -0.17459123 -0.22609083 -0.044782914
000190 18 45 9b 3e 9a 7b 07 be c9 a7 18 3e a7 0a 5d 3e
       0.30326152 -0.13230744 0.14907755 0.21586095
0001a0 1a f8 9c 3e 18 8d 93 3d c4 7b 26 be 39 89 54 be
       0.30658036 0.07204646 -0.1625815 -0.20755471
0001b0 2a 5a 20 be 13 5c 32 be 3c 2e ba 3e 8e d7 60 be
       -0.15659395 -0.17417936 0.363634 -0.21957228
0001c0 a2 7e 8f 3e 8c c9 51 be 79 f6 58 be 17 35 1f 3d
       0.280263 -0.2048704 -0.21187772 0.03886899
0001d0 f0 da 78 bd 12 a1 5d be 1e 82 ff 3d f1 8f 8e be
       -0.06075567 -0.21643475 0.1247599 -0.27844194
0001e0 e2 d1 f5 bd ae 9b 66 be 6d 43 6e 3d 16 b4 89 be
       -0.120029226 -0.22520325 0.05816977 -0.26895207
0001f0 0b 23 a0 bd 19 79 39 be e4 b5 f0 3d fb 33 c1 bd
       -0.07819184 -0.18112601 0.11753443 -0.094337426

layers.0.W_att.weight f4 [128, 128]
000000 78 2a 3b bd 79 d8 8d 3d 5c a8 2f 3d 51 2b c2 3d
       -0.0456948 0.069260545 0.04288517 0.09480918
000010 17 7c a8 3d 26 c0 61 bd 75 90 bb 3c 8c c3 80 3d
       0.08226793 -0.055114888 0.02289603 0.062872976
000020 a8 5c af bd 02 6b ad 3d 28 73 ca bc 60 1d a7 bd
       -0.08562595 0.08467676 -0.024713114 -0.081599
000030 39 a2 b8 3d f3 e4 49 bd ce 9b 99 bd 52 a2 93 bb
       0.090153165 -0.04929061 -0.075004205 -0.004505434
000040 d3 91 26 bc 9e ae d3 3c e3 3a 33 3c 91 79 a7 3c
       -0.010166603 0.0258401 0.010939333 0.02044371
000050 71 df 40 3d d2 16 8c 3d a8 8c 37 3d da 71 b3 3c
       0.04708809 0.0684029 0.044811875 0.021904875
000060 85 9c 23 bd 7a 96 47 3d 1c 71 89 3d 3e e7 80 3d
       -0.03994419 0.04872749 0.06711027 0.06294106
000070 d5 a3 a8 bd 42 26 ab 3d 44 f3 58 3d 0c 26 68 3c
       -0.082343735 0.083569065 0.05296637 0.014169227
000080 51 b1 4f bd f4 0b 94 bd c1 67 aa 3c 3a 84 7d bd
       -0.05070621 -0.072288424 0.020801427 -0.06189368
000090 e3 1a 99 3d 77 d2 2b bd ac 67 97 bd 0d d1 41 3d
       0.07475831 -0.04194876 -0.07392821 0.047318507
0000a0 6f fb a0 bd d0 42 19 3d da 1c 3f bc d3 b4 0b 3d
       -0.07860457 0.037417233 -0.011664594 0.034107994
0000b0 20 05 cd 39 86 9f 0f bc 51 f6 c3 3d 43 40 b8 bc
       0.00039104465 -0.008766061 0.095684655 -0.02249158
0000c0 42 c4 79 bd 84 cd 19 bd f7 04 58 bc ff 74 b4 3c
       -0.06097818 -0.03754951 -0.013184777 0.022028444
0000d0 43 ee 85 ba 95 d8 93 bc 86 06 31 3c 10 cc 60 3d
       -0.0010218102 -0.01804761 0.010804778 0.05488211
0000e0 f6 74 8d 3b 4f b2 0d bc 82 69 b1 3d 06 12 93 3d
       0.0043169213 -0.008648469 0.08662702 0.07181172
0000f0 5f 5c 77 bd de cc 33 bc e9 49 a6 bd ac 96 b5 bd
       -0.060390826 -0.010974137 -0.08119566 -0.08866629
000100 73 39 94 bc 4c 86 55 3c e6 78 84 3c 05 5d a4 3d
       -0.0180938 0.013032507 0.01617093 0.080255546
000110 ff f2 d1 bd ea 5c 9c 3c e4 85 10 3d e5 f1 0a bc
       -0.10251426 0.019087274 0.035283938 -0.008480524
000120 46 ea 9f bc 7a 52 d1 bd d3 87 5b 3c 04 55 e7 bc
       -0.01952089 -0.10220809 0.013399082 -0.02823878
000130 a5 55 f4 ba 6d df 5d bd cc 04 19 bc 30 77 b7 3b
       -0.0018641247 -0.054168154 -0.009339523 0.005598925
000140 fc a1 87 3d cc af 5a bb e2 5a 01 bd bd cb 2e bc
       0.06622693 -0.0033368943 -0.031580813 -0.010668692
000150 e5 22 9f bd a8 d1 9c 3c 51 4a b2 3c c4 84 32 bd
       -0.077703275 0.01914294 0.021763952 -0.043583646
000160 01 e3 71 3c cb bf 31 3d 50 f6 eb bc e2 27 a8 bd
       0.014763595 0.0433958 -0.028803974 -0.08210732
000170 70 e2 06 bd 74 8b 73 bd e7 79 9d 3d 6b 00 57 bd
       -0.03293079 -0.059459165 0.07689267 -0.052490633
000180 d6 40 83 bd be a0 1b bc d9 03 37 bb 38 39 88 bd
       -0.06408851 -0.009498773 -0.0027925877 -0.066515386
000190 5c 7f 89 3d e6 be ff 3a 16 5c 23 3d c7 2f 80 bd
       0.06713745 0.0019511848 0.039882742 -0.06259113
0001a0 b9 e8 87 3d 1b 4f 52 bd 2d 84 6a bd 12 9b 15 bc
       0.06636185 -0.051344972 -0.05725496 -0.00913121
0001b0 03 94 a0 bc da 82 fc 3c ed 82 2a 3d 52 f1 a6 bd
       -0.019601827 0.030824114 0.041628767 -0.08151497
0001c0 de f4 1c 3d b6 4d b4 3d 44 52 a9 3c 5e 0c 6f bc
       0.03831946 0.08803885 0.02066911 -0.014590351
0001d0 bc 66 11 bd b1 0a b4 3d c0 43 9b bd 1e e8 f0 3b
       -0.035498366 0.08791102 -0.07581282 0.0073518893
0001e0 bb e3 a4 3c ad cb 79 bb fb d7 64 bd 09 ef c3 3d
       0.020128122 -0.0038115785 -0.055870038 0.09567077
0001f0 3d 9c 28 bd b2 6e 85 3d e3 c6 fb 3c 77 af 16 bd
       -0.041164625 0.06515254 0.030734485 -0.03678843
000200 f1 53 2f 3d 89 1e 88 bd 6e 6f 29 3d 99 77 77 bc
       0.042804662 -0.06646449 0.041366033 -0.015104198
000210 2d 9d 02 bd aa 01 30 3d f6 33 a0 3d d7 76 a4 3d
       -0.031888176 0.042970337 0.07822411 0.080304794
000220 e4 97 a9 bd 6a 5a 73 3d 6d 96 98 3c ae e6 99 3d
       -0.08280924 0.059412397 0.018626416 0.07514702
000230 8d d5 ed bc bb 57 8a bb 9d 35 b0 3c 9b b1 35 3d
       -0.029032493 -0.004221884 0.02150994 0.04435883
000240 45 ad 74 bd 68 c7 5f bd 27 83 a1 3c 4f 80 6b 3d
       -0.059735555 -0.054633528 0.019715859 0.05749541
000250 a1 f7 66 3d 68 2f 24 3c 58 cd 65 3d 4a 70 00 bd
       0.0563885 0.010021068 0.056104034 -0.031357087
000260 92 40 ac bd a3 4b 50 bd 09 af 0f 3d ec d1 81 bd
       -0.08410753 -0.050853383 0.035079036 -0.063388675
000270 a7 5b a8 3d a7 7c 68 bc c6 1b a0 3d f7 29 44 3d
       0.08220606 -0.014189876 0.07817797 0.047891583
000280 a2 24 84 3d 5c 6d c6 3c de 39 a6 bc cb dc 0b 3d
       0.064523 0.024222068 -0.020291265 0.03414611
000290 d4 f9 e7 bb 02 68 9c 3d 13 dd d9 bc 42 7b 68 bd
       -0.0070793424 0.076370254 -0.026594674 -0.056758173
0002a0 1d cf d2 3b 8b 49 b0 3d 97 d6 11 bd e5 d4 88 bc
       0.0064333812 0.08607777 -0.03560504 -0.016703079
0002b0 2d 07 a8 bd 71 11 ad 3c 68 91 7f 3d 6f b1 39 3d
       -0.08204494 0.02112648 0.06239453 0.04533523
0002c0 c0 fe a2 bd f7 0b 53 3d 48 d9 c2 bb 0c 1f 3b 3c
       -0.07958746 0.051525082 -0.005946312 0.011420976
0002d0 06 cb ac bc 3c 25 49 bd 3b 12 5b 3d 6a 0b a8 3d
       -0.021092903 -0.049107775 0.053484183 0.08205302
0002e0 1c 0a 70 bc 10 af 7d bd 9b b8 85 bd 58 63 10 3d
       -0.014650848 -0.06193453 -0.06529351 0.03525099
0002f0 d3 64 00 3d 02 28 54 bd fb 2e 03 3d 87 83 9d 3d
       0.031346153 -0.051795967 0.032027226 0.076911025
000300 79 c3 91 bd bd 76 91 bd 3d 16 3f bd 15 20 8b 3b
       -0.071173616 -0.07102726 -0.046652067 0.004245768
000310 1f 40 dd b9 21 ef b8 3d 25 02 61 bd 12 b2 40 bd
       -0.0004220018 0.09029985 -0.054933686 -0.04704482
000320 4d 8a 97 bc 95 50 0e bd 44 4f 92 bd 3c a0 a9 3b
       -0.018498564 -0.034744818 -0.07144025 0.005176572
000330 05 5a fe bb 5b d5 51 bd d5 fd 98 3d 26 4a 15 bd
       -0.007762196 -0.051228862 0.074702896 -0.036447667
000340 04 bc 53 3d 56 b6 01 bc 28 52 20 3d 99 23 c3 3c
       0.051692978 -0.007917007 0.03914085 0.023820685
000350 43 59 00 3d 8e c2 4c bd 68 9b 75 bd b3 df 7b bd
       0.031335127 -0.04999023 -0.05996266 -0.061492633
000360 cf 44 aa 3d d7 f8 80 bd 7b 77 19 3c 74 12 ca 3b
       0.083139054 -0.062974624 0.009366865 0.0061667506
000370 53 d9 af bd 94 26 a7 bd 25 d2 84 3c 43 f8 96 bd
       -0.08586373 -0.08161655 0.016213486 -0.07371571
000380 38 e4 38 3d f4 32 f9 3c 6f 21 a7 3b c0 40 2a bd
       0.04513952 0.030419804 0.005100421 -0.041565657
000390 35 32 62 3d 8c 98 9f 3d 4e dd 7f bc 85 43 2c bd
       0.055223662 0.07792768 -0.015616728 -0.04205658
0003a0 2d e7 a2 3d e3 f3 da bc b6 d7 9c bd 8f 22 72 3d
       0.079542495 -0.026727622 -0.07658331 0.05911499
0003b0 0e 01 9c bd 08 bd 81 3b f4 39 3d 3d b4 2a 8a bd
       -0.07617389 0.003959302 0.046197847 -0.06746426
0003c0 c5 27 95 3c 01 79 3d bd a4 2e 9e bd 17 51 c2 bc
       0.01820744 -0.046257976 -0.0772374 -0.023720307
0003d0 5e b7 8f bd 81 79 9e bd 32 71 3e 3d 1a b1 a5 3c
       -0.070173964 -0.07738019 0.04649467 0.02022605
0003e0 7d bb d6 3c 47 d0 6f 3c 47 01 71 3d f8 26 3c bd
       0.026212448 0.0146370595 0.05883911 -0.0459356
0003f0 d0 88 41 3d fa c2 97 3d 3e 0a 93 3c c3 0a b7 bd
       0.047249615 0.07410236 0.01794922 -0.089375995

layers.0.phi_att.weight f4 [128, 128]
000000 94 b3 73 3d 2e 71 85 bc 66 56 e3 bb b6 cc 9b bd
       0.05949743 -0.01628932 -0.0069377897 -0.07607405
000010 a8 dc 9f bd f4 80 18 3d 67 e4 18 3d f5 cc 74 3d
       -0.07805759 0.037232354 0.037327196 0.059765775
000020 97 ec 2a 3d a1 06 92 bd 3b f6 d3 bc d9 72 4e bd
       0.041729536 -0.071301706 -0.025874248 -0.050402496
000030 dd 8b 76 bd be e8 a7 bd ee f3 a1 3c 34 bf 9b 3d
       -0.060191978 -0.08198689 0.019769635 0.076048285
000040 0e 03 79 3d 65 09 7d 3d 2a 67 87 3d d2 4c 06 bd
       0.06079393 0.061776537 0.06611474 -0.032788105
000050 9d a7 ac bd f4 3b cc 3c 27 54 8e 3d b7 99 5f bd
       -0.08430407 0.024930932 0.069496445 -0.054589953
000060 ef 7c bc 3c 90 6a 68 bc 78 c4 46 bd 11 05 14 3c
       0.023008792 -0.014185563 -0.04852721 0.009034411
000070 66 75 7f bd 15 62 b5 3c e0 d8 92 bd ac 56 01 bd
       -0.06236782 0.022141496 -0.07170272 -0.031576797
000080 1c e5 46 bd ac 82 1e 3c 61 c6 61 3d b9 12 9f 3d
       -0.04855834 0.009674709 0.05512083 0.07767243
000090 7e f3 c1 bb 96 e6 86 3c 52 92 8e 3d 42 71 a2 bd
       -0.005918919 0.016467374 0.06961502 -0.079317585
0000a0 fc 78 cf 3c 4f 20 6d 3c 31 dc 98 bd 7c 46 c4 3c
       0.025326245 0.014473035 -0.07463873 0.02395939
0000b0 d6 ce 8a 3d 88 a4 23 bd d9 2e 14 3b 94 97 63 bc
       0.06777732 -0.03995183 0.0022610931 -0.0138911195
0000c0 48 2f 1a 3d 03 cc 75 3c 3f a4 11 bd 2e fe d5 3c
       0.037642747 0.015002253 -0.035557028 0.026122179
0000d0 77 a4 8f bd 34 80 fe 3b 0a 7a 64 3c d4 98 60 bd
       -0.07013791 0.007766748 0.013945112 -0.05483325
0000e0 09 a7 4a bd c9 cc 45 3c a0 54 61 bd 1d f7 89 bd
       -0.049475703 0.01207275 -0.055012345 -0.06736586
0000f0 d5 b2 84 3d d8 38 68 bd c3 4e 75 3d c8 85 9e bd
       0.06479422 -0.056694835 0.059889566 -0.077403605
000100 58 29 d1 3c e2 c4 15 bc 7a 16 a3 3d 11 cf 5b 3d
       0.02553241 -0.009141179 0.079632714 0.05366427
000110 86 23 2c bd 9b df fb bc 4c b4 b4 bd 7b 97 81 3c
       -0.042026065 -0.030746272 -0.088234514 0.015819302
000120 f4 24 9b bd ef fa 20 3b 6e bd 26 3c df f1 cb bd
       -0.075754076 0.002456363 0.0101769995 -0.099582426
000130 14 b6 36 bd 58 36 6d bd 97 b9 cb 3c d6 d5 8f 3d
       -0.044607237 -0.057913154 0.02486877 0.07023208
000140 30 d8 8b 3c d8 30 b3 3d 5b 75 19 bd 6d 8e ae 3c
       0.01707086 0.087495506 -0.037465435 0.021308148
000150 bb d1 57 3d 9c 49 f1 39 fc 7f 0a 3d e4 69 51 3d
       0.05269025 0.00046021945 0.03381346 0.051126376
000160 3e 1f cf 3c 04 22 1b bc 12 0e 2b 3d 75 ae f9 3b
       0.025283452 -0.009468559 0.041761465 0.007619674
000170 2a 84 25 3d 83 4d 12 bc 25 78 17 3d c8 dd 7e bd
       0.040409245 -0.008929613 0.036979813 -0.062223226
000180 0a 62 a4 3c e7 69 41 3c 2f d5 06 bc e7 bf c0 3c
       0.02006628 0.011805034 -0.008229538 0.023529006
000190 79 ac f9 3c b1 9d 1b 3d 14 ec be bd 52 6d 3c 3d
       0.03047775 0.037992183 -0.09322372 0.046002693
0001a0 25 dc 1b 3d 70 3d 54 3d 62 64 b8 bd 7c fb 7b 3d
       0.038051743 0.051816404 -0.090035215 0.06151913
0001b0 29 63 d8 3d e7 d6 d8 3c af 39 11 3b f1 f8 99 3d
       0.10565788 0.02646966 0.0022159626 0.07518185
0001c0 e7 31 92 3d 7f f2 ac bc ca 2d 54 3d 3f 40 35 bd
       0.07138424 -0.021111725 0.05180148 -0.044250723
0001d0 3c 06 89 3d 24 78 6f bd 1c 94 38 bb 07 22 27 3d
       0.06690642 -0.058464184 -0.0028164452 0.040803935
0001e0 53 9f 8b 3d 5d bf 9a 3d 7f 5c 36 3c a1 b3 18 3d
       0.06817498 0.07556031 0.011130451 0.037280682
0001f0 d6 25 8d 3c d3 7b 48 3b 1c 0d 9c bd da 21 eb 3c
       0.017229956 0.0030591383 -0.07619688 0.028702665
000200 72 15 a7 3d f9 4d b5 3d 31 ca 9e bc 35 e9 a0 3d
       0.08158387 0.08852763 -0.019383522 0.07856981
000210 6f d6 88 bc 06 03 b6 3d 3a 9c 2a bc 1a c6 a3 3d
       -0.016703812 0.088872954 -0.010413224 0.07996769
000220 55 fd 99 bd cd 0a 9e bd 24 4d b6 bd b5 df 88 3d
       -0.075190224 -0.07716904 -0.08901432 0.06683294
000230 28 75 d1 bc 3c 37 44 bd 3c 32 98 3d a7 56 5b 3c
       -0.02556856 -0.047904238 0.074314564 0.013387359
000240 a1 30 b9 3d 9f e6 be 3c 41 11 77 bc 56 ea 8a bd
       0.09042478 0.023303328 -0.015079797 -0.06782977
000250 e7 fb 80 bd f6 81 dc bb f1 99 99 bd b8 e5 91 3d
       -0.062980466 -0.0067293597 -0.07500065 0.071238935
000260 16 a4 76 bd 0f 8c 77 3b 7e 68 92 3c e7 32 a7 3d
       -0.06021508 0.003777269 0.017872091 0.08164006
000270 bb 5b 9a bd 1a 62 44 3d 57 34 16 3d 0f 57 b3 bc
       -0.075370274 0.04794512 0.03667101 -0.021892099
000280 9a f2 a2 bd 4f 66 32 3d 70 cf 22 bc d2 07 77 bc
       -0.07956429 0.0435546 -0.009937152 -0.015077548
000290 bd 02 dd bc a3 f1 90 bd ff 91 e5 3c 51 59 4b bb
       -0.026978845 -0.070773385 0.028023718 -0.0031028579
0002a0 ef 95 6f 3d c3 3c 28 bc b8 c7 39 3c be ea 5d bd
       0.058492597 -0.010268393 0.011339121 -0.054178946
0002b0 3e 6f 98 3d ee e5 c0 3d dc 72 d1 3b 20 48 8e bd
       0.07443093 0.094188556 0.006391866 -0.069473505
0002c0 a2 1e 28 3d 61 50 17 bd 49 aa 95 bd e0 66 db bd
       0.04104484 -0.03694189 -0.0730787 -0.10712981
0002d0 a6 60 c1 3a 91 5e 9a 3d 62 bc a6 bc e1 37 1e bd
       0.0014753535 0.07537568 -0.0203535 -0.03862751
0002e0 c9 da 84 bd 7b cc 9b 3c f2 82 28 3c 7d 92 10 3d
       -0.064870425 0.019018402 0.010285126 0.035295952
0002f0 f1 f8 8c bc 38 03 99 bd 0c 14 42 bd 05 1e 59 bc
       -0.017208548 -0.07471317 -0.0473824 -0.013251786
000300 1d 89 9a 3c 08 c7 9e 3d f2 27 0b bd ac fe 54 3d
       0.018864209 0.07752806 -0.03397364 0.052000687
000310 03 80 25 3d 35 83 36 3d ce bf f0 bb 64 3b 93 bc
       0.040405285 0.044558723 -0.0073470837 -0.017972656
000320 2d bd 3a bd f4 9f df bd 80 63 c4 3c 6f 17 96 3d
       -0.04559057 -0.109191805 0.023973227 0.07328688
000330 a6 d0 67 bd e7 0d d5 bd 0c 1f 31 bc b8 b8 42 bd
       -0.056595467 -0.10403042 -0.010810625 -0.047539443
000340 9d 7d 0f bc 7e ed 52 3d 53 c5 49 bc cb 91 c1 bd
       -0.008757976 0.05149602 -0.012315112 -0.09451636
000350 c0 72 ab bd c1 cd b9 bd 9b 35 8f 3d cc 08 a9 bd
       -0.08371496 -0.090724476 0.06992646 -0.08253631
000360 0d 4e af bd 59 8d ae 3d 6e 18 87 3d 16 9a 33 bd
       -0.08559809 0.08523054 0.065964565 -0.04384812
000370 ff 95 aa 3d 1c 6c 80 bd 23 51 c2 3d 4e 4c 04 bd
       0.08329391 -0.0627062 0.09488132 -0.032299332
000380 a3 f6 68 bb 5c 5b 1b 3d ab c9 80 3d 8a c3 7e bd
       -0.0035547398 0.037928924 0.06288465 -0.0621982
000390 00 b5 04 3d 59 73 a0 3c e3 ca 4e 3b 8c 03 11 3d
       0.032399178 0.019586252 0.0031554035 0.035403773
0003a0 21 de 63 bd ce d7 6f bd 55 79 4c 3d 99 ad bf bd
       -0.05563176 -0.058555417 0.0499204 -0.09359283
0003b0 72 3c 88 bd 02 6b 9f bd c8 d2 3d bd f8 96 91 bd
       -0.06652154 -0.07784082 -0.046343595 -0.07108873
0003c0 aa 9d 5d bd c0 ee 52 3d 1c 37 f8 3c e5 7c 95 3d
       -0.05410544 0.05149722 0.030299716 0.07299212
0003d0 44 09 96 3d 11 3c 8c bd 65 ef 13 3d cc 4b 0f 3d
       0.07325986 -0.06847394 0.036116976 0.034984395
0003e0 5d 0b 92 bd 57 8d 84 bd 66 67 36 3d 54 22 b9 3c
       -0.071310736 -0.06472271 0.044532202 0.022599377
0003f0 a9 3e 94 3d 14 db 7b bc cc 83 09 bd 57 e9 89 3d
       0.07238514 -0.0153720565 -0.033572957 0.06733959

layers.0.phi_att.bias f4 [128]
000000 e3 2b af bd a3 a1 1e 3d 75 ca 86 bd 3e ea fe 3c
       -0.085532926 0.038728368 -0.06581584 0.031117555
000010 9d fe ec 3c 87 06 86 bd 73 ef b3 bd 8a 20 c9 3c
       0.028930003 -0.06544214 -0.08785906 0.024551649
000020 64 40 bf 3d d3 31 8d 3d a4 24 af bd 4c f4 43 3d
       0.093384534 0.06894269 -0.085519105 0.0478404
000030 0b 6d 1f 3d 85 39 34 bc 8b 26 8d 3d 35 88 69 3d
       0.03892235 -0.011000042 0.06892117 0.057014663
000040 7e 93 34 3d fc 5b a2 bd 9f 07 dd 3c 82 21 27 3d
       0.044085972 -0.07927701 0.026981173 0.04080344
000050 6d 85 98 bc d0 74 87 bd e9 a4 f7 bc 3d 9d 9d bd
       -0.01861831 -0.06614077 -0.030230002 -0.076960064
000060 61 7b 38 3d 7d de d2 bc 2c cb 3f bd b9 b2 0e 3d
       0.04503954 -0.025740856 -0.04682462 0.034838412
000070 90 e0 6a bd e0 f4 45 3c 9e 20 28 bd ce 5c b3 3d
       -0.057343066 0.0120823085 -0.04104673 0.087579355
000080 ab 52 08 3d ff fe 59 3c a2 7b ae bb 10 72 78 bb
       0.033281963 0.013305425 -0.005324797 -0.0037909783
000090 e8 3f ab bb 67 a5 cb bc 9d 8b 3a bd 61 c0 eb 3c
       -0.005226124 -0.024859143 -0.0455433 0.028778257
0000a0 8d 17 40 bd 42 c9 a5 bd e5 73 52 bd 6c ea e4 bc
       -0.04689746 -0.080950275 -0.051380057 -0.027943812
0000b0 c7 7d a9 3d e6 3c 87 3d 48 05 a0 bd ca 47 d5 3c
       0.08275943 0.06603412 -0.07813507 0.026035208
0000c0 bb 65 08 3d e9 0d 90 3d bd 98 80 3d e7 e0 93 3d
       0.033300143 0.07033903 0.062791325 0.07220631
0000d0 73 f0 a4 bc 13 93 94 3d 91 90 8f 3c 0a 0a da 3c
       -0.020134186 0.07254615 0.01752499 0.026616115
0000e0 0d 32 5d bd 3b 49 70 bd 1f 50 3c 3c 29 a0 c6 3d
       -0.05400281 -0.058663588 0.011493712 0.09698517
0000f0 da 27 99 bd 9d 87 59 bb a7 c0 59 bc 60 73 8f 3c
       -0.07478304 -0.0033192404 -0.013290561 0.01751107
000100 24 a1 a9 bc 43 9a 25 3d 24 c1 9f 3d 6c 3a b3 3d
       -0.02070672 0.04043032 0.078005105 0.087513775
000110 44 3b 92 bc 23 21 a1 3d 4a d6 90 bd 9c 72 7d 3d
       -0.017850526 0.078676485 -0.070721224 0.06187688
000120 ae 91 bb bc 11 1e 12 bd 5c ed 11 3d 3d 6f 41 3d
       -0.022896614 -0.035673205 0.035626754 0.047225226
000130 46 52 a9 bd 02 fe 88 bd d2 0e 8d bd f9 10 c0 bd
       -0.082676455 -0.06689073 -0.068875924 -0.09378237
000140 70 50 a8 3d e1 24 96 3d c2 11 2c bc b3 3c 7a bd
       0.08218467 0.07331253 -0.010502281 -0.061093044
000150 aa 57 b0 3b 8e c4 82 3d 80 f5 b1 bd 48 58 31 3b
       0.005381544 0.06385146 -0.086894035 0.0027060676
000160 2e 48 5c 3d 86 1b 52 3d 95 69 51 bd 48 9f 84 bc
       0.053779773 0.05129578 -0.05112608 -0.016189232
000170 50 88 7a bd db 9c d3 bc 20 d8 99 bc 85 47 ca bc
       -0.061165154 -0.02583163 -0.018779814 -0.024692306
000180 2f 67 60 3d 17 e9 87 3d d8 ea 3c bd d9 66 49 bd
       0.054785904 0.06636255 -0.046122402 -0.04917035
000190 86 1b 14 3c 70 7e 97 3d d3 05 af bd b5 60 d4 bc
       0.009039765 0.07397163 -0.08546033 -0.02592502
0001a0 b3 48 40 bb 52 be c3 3c 13 97 93 3d 0e b2 af bd
       -0.0029340207 0.023894463 0.072065495 -0.08578883
0001b0 da 06 e9 bb 6a 2d 14 bd a8 df 1a bd 2b 20 25 bd
       -0.0071114125 -0.036176123 -0.03781095 -0.04031388
0001c0 db d4 83 bb 85 04 0e bd e9 ec 90 3d ae a2 65 3d
       -0.004023177 -0.03467228 0.07076437 0.056063347
0001d0 f1 54 a0 3d c5 de 55 bd 16 bf 08 3c 94 78 29 3d
       0.07828701 -0.052214403 0.00834634 0.041374758
0001e0 97 b2 64 ba 24 1c 4d 3d c8 24 0c 3b b7 6c 58 3d
       -0.0008724122 0.050075665 0.0021384228 0.052838054
0001f0 06 08 d2 bc 40 b2 87 3c 70 39 24 3d 90 9b 16 3d
       -0.025638591 0.016564488 0.04009384 0.03676945

layers.0.W_p.weight f4 [128, 128]
000000 22 fa 8d 3d d3 f6 84 bc e9 05 42 bd db 17 55 3d
       0.06932475 -0.016230976 -0.047368918 0.052024703
000010 b9 be 84 bc d0 b6 d0 bb 13 82 61 bc b2 0a 80 bc
       -0.016204225 -0.006369449 -0.013763922 -0.0156301
000020 18 5a 92 bd fd ec ad bd a3 10 a4 3d 19 c0 2e 3d
       -0.0714609 -0.084924676 0.08010986 0.042663667
000030 ef 78 47 bd db e0 9b 3c aa 00 5e 3d 87 9a fc bc
       -0.048699316 0.019028118 0.054199852 -0.030835403
000040 22 4c db 3a 48 28 5a bd 99 c1 8f 3d b8 29 38 bd
       0.0016731063 -0.05326107 0.07019348 -0.04496166
000050 e2 94 95 bc 3d 5c 86 3c b5 63 ba bc 4e e3 ad bd
       -0.01825947 0.016401405 -0.022752622 -0.084906206
000060 94 4b 6d bc e2 c1 ce 3c d8 33 54 3d 34 c6 22 3d
       -0.014483351 0.025238935 0.051807255 0.039739802
000070 59 4e 51 3d 0e 2a 9d bd 6b 29 73 bd 62 b8 86 3c
       0.05110011 -0.07674037 -0.05936567 0.016445342
000080 08 29 99 3d 81 d0 f7 3c 5a cc 1f bd c5 9a 37 3d
       0.07478529 0.03025079 -0.039013244 0.044825334
000090 00 b2 7d 3d 55 3a 1e bc ec 68 0f 3c 8b f7 80 3d
       0.061937332 -0.009657462 0.008753043 0.06297215
0000a0 6b 6a 4e bd 8a f2 d1 bc 5b ec 0d 3d 13 66 84 3c
       -0.050394457 -0.025628347 0.034649234 0.016161954
0000b0 a4 23 84 3c 1c 37 a9 bb 23 02 0c ba a4 aa 26 bb
       0.016130276 -0.0051640403 -0.00053408946 -0.00254313
0000c0 f3 a1 86 3d eb 6f 1a 3c 97 79 a0 bd eb 6f 18 3d
       0.06573858 0.009426097 -0.078356914 0.03721611
0000d0 d1 0f bb bd 34 08 82 bd 98 8e 2b bd 0d 4d 46 3d
       -0.09133876 -0.06349221 -0.041884035 0.048413325
0000e0 76 6a 91 3c 65 dd 32 3d 16 cc 67 bd f8 d7 c1 3c
       0.01775096 0.04366817 -0.056591116 0.023662552
0000f0 96 fb 99 bd c0 9f 0e 3d da 7c f0 bc 1a e1 9a 3d
       -0.07518689 0.03482032 -0.029356409 0.07562466
000100 75 1b a9 3d 67 bf 89 bc 40 50 8c 3d c9 10 30 3c
       0.0825719 -0.0168149 0.06851244 0.010746189
000110 7c 4c 33 bd 68 5b 80 bd 9a 23 a4 bd 60 26 60 3d
       -0.043774113 -0.06267434 -0.08014603 0.054724097
000120 65 51 8c bd 0d 32 1e bd 69 96 32 bd 72 c0 bd 3c
       -0.06851462 -0.03862195 -0.043600474 0.023163054
000130 0d 99 b0 3d 3a f9 8a bd e9 94 39 3d 3e 6c ff bc
       0.08622942 -0.067858174 0.045308027 -0.031179544
000140 a4 5d 88 bd ee 57 5f bd 54 f2 24 bd 08 f1 a3 bd
       -0.066584855 -0.054527216 -0.040270165 -0.080049574
000150 eb 52 e3 bc 55 d4 bc 3c b1 36 1c 3c 96 8f 99 bc
       -0.0277495 0.023050467 0.009534524 -0.018745225
000160 f3 3c 32 bc d8 55 30 3c c1 43 f3 3c e4 ab b9 3c
       -0.010878789 0.010762654 0.029695394 0.022664972
000170 ea 1a 82 3d 05 92 12 3d df 00 66 bd 53 8f 1b bc
       0.0635279 0.035783786 -0.056153174 -0.00949462
000180 08 2d 37 bd 49 fe 1a 3d c6 e4 8d 3d ad 8f 5f 3d
       -0.04472068 0.03784016 0.06928401 0.05458038
000190 6c 4e f3 bc 9b 76 af 3d a6 29 8c 3c a3 49 62 3d
       -0.02970048 0.08567544 0.017109703 0.055246007
0001a0 c3 f4 11 3d 0b 79 92 bd ee 2a 0a ba 30 3d 1a bc
       0.035633814 -0.07151993 -0.0005270679 -0.009414002
0001b0 e2 39 b4 3d 51 7a c1 bd 34 bc c2 bc 50 4c d5 3c
       0.08800103 -0.09447158 -0.023771383 0.026037365
0001c0 51 84 b3 bd ac 5e 74 bc 30 dc 54 bd 58 62 eb 3c
       -0.08765472 -0.01491515 -0.0519678 0.028733417
0001d0 e5 8c a2 bd 06 e2 b5 bd 81 6d fa 3c e6 ae 87 bd
       -0.0793703 -0.08881001 0.030569794 -0.06625156
0001e0 b7 cd 67 3c 0a 51 08 bb 7d 2c 6e 3d d1 dc fe bc
       0.014148167 -0.0020800256 0.058147896 -0.031111153
0001f0 09 02 2d 3d c7 c1 7f bd 11 7a db bb ea a9 5e bd
       0.04223827 -0.06244066 -0.006697901 -0.05436126
000200 52 d0 a8 3c 38 f0 24 3d 79 1c 49 bc e7 b6 36 3d
       0.020607147 0.040268153 -0.012274855 0.044608023
000210 37 61 38 bd 73 e8 68 bd 61 32 4b bd 82 c2 82 bd
       -0.045014586 -0.056862306 -0.049608592 -0.06384756
000220 75 c4 cb 3d 82 f4 c5 bc fe a6 b0 3d 52 7f 6c 3d
       0.099495806 -0.024164442 0.08625601 0.05773861
000230 1d b9 a3 bc 79 f5 b6 3c 78 84 2d bd 31 13 d2 bc
       -0.01998573 0.022333847 -0.04236266 -0.025643917
000240 99 1a fd bc c0 3a 00 bc 9b a5 02 bd 11 20 2a bc
       -0.030896472 -0.007826507 -0.031896215 -0.010383622
000250 1b 56 c1 bc 96 67 75 3d a8 f5 f5 3c f1 7f f1 3a
       -0.023600629 0.05991324 0.030024365 0.001842497
000260 05 aa 8e bd bf b4 06 bb 66 d5 1b bd cf 47 fa bc
       -0.069660224 -0.002055451 -0.03804531 -0.03055182
000270 8b 0f 80 3b 44 bd ca bb 11 f8 cd 3a 7a e2 ad 3c
       0.003908103 -0.006187113 0.0015714188 0.021226157
000280 b5 e1 8b 3d b0 b0 8c 3d 7b 09 7b 3c 90 e3 4f bd
       0.068301596 0.06869638 0.015322085 -0.05075413
000290 0a 11 87 3d 9d bc 62 3d ad 40 79 bc a6 fb 0c bd
       0.06595047 0.055355657 -0.015213174 -0.03441968
0002a0 81 cc 90 bd cf 63 c5 bd 85 74 53 3d 57 8b 56 3c
       -0.07070256 -0.096381776 0.051624794 0.013094745
0002b0 2d 98 ac 3d 65 d0 9d bd 00 69 30 bc 76 29 a7 bd
       0.08427463 -0.07705764 -0.010767221 -0.08162205
0002c0 fb 5f 51 3d c9 bc 0a 3d f1 4e 89 bb 01 9f 9c 3d
       0.051116925 0.033871446 -0.0041903188 0.07647515
0002d0 da 08 45 3d 44 f6 9f bd 66 9d 27 bd 2c 45 3e bd
       0.048104145 -0.07810643 -0.04092159 -0.046452686
0002e0 3b 09 a1 3d c9 18 9d 3d fa 42 0d 3d c9 2f 7f bc
       0.07863089 0.07670743 0.034487702 -0.015575358
0002f0 ff cb 41 bd 3c db 5d 3d 03 d6 90 3d 7f cd 5f 3b
       -0.047313686 0.054164156 0.070720695 0.0034149585
000300 0b 16 4f 3c 57 76 b7 3d eb 86 9c 3c 2d fe a3 bd
       0.012639533 0.089581184 0.019107303 -0.080074646
000310 13 e0 5d 3d aa 2b 96 3d cd 3b ed 3c d5 1d 02 bd
       0.054168772 0.07332547 0.02895918 -0.03176673
000320 d3 4b a0 bd b9 ee 10 bd 6c cf 58 3d 6a 09 65 bd
       -0.07826962 -0.035383914 0.052932188 -0.05591718
000330 7b 17 2c bd bf 55 a1 3d be 13 69 3c 95 75 99 bc
       -0.04201458 0.07877683 0.014225898 -0.018732825
000340 70 61 36 3c de c7 01 bc ab 8c 47 bc d2 32 ad 3d
       0.011131629 -0.007921187 -0.012179534 0.08456959
000350 92 c2 33 ba 52 be 9a bd f1 6a 53 3d 15 35 d3 3c
       -0.00068573013 -0.07555832 0.05161566 0.025782147
000360 df c7 99 3c d9 6c 98 bd 28 29 02 bd e1 bb 9a 3c
       0.018772064 -0.07442636 -0.03177753 0.018888416
000370 71 5d a2 3b 90 81 a2 bc 0e 3c 33 bd 4c f6 b2 bc
       0.0049549867 -0.01983717 -0.043758444 -0.02184596
000380 d4 96 67 bd 4c bd 63 bd d6 c1 1e 3b c8 da 16 3b
       -0.056540325 -0.05560045 0.0024224422 0.0023018587
000390 0e 0e 2c bc 1d b1 2c 3d 31 44 ed bc 84 5a 99 3d
       -0.010501398 0.042161096 -0.02896318 0.074879676
0003a0 94 17 36 3d 61 ed 48 bd 70 48 87 bc a8 17 d3 3a
       0.04445608 -0.049054507 -0.016514033 0.0016105073
0003b0 c5 cc 97 bd da 02 e3 3b d4 4f 3f bd ac 0e fc bc
       -0.074121036 0.00692783 -0.04670699 -0.030768715
0003c0 94 5f d7 bc aa 4d fb 3c 93 be aa 3d 67 7c 9b bd
       -0.026290692 0.030676682 0.083371304 -0.07592087
0003d0 6a d0 ac bc 21 0a 94 3d 54 22 67 3b 3b 1f a2 3d
       -0.021095473 0.072284944 0.0035268264 0.07916113
0003e0 c9 9a 8e bd c9 27 84 3d 26 18 fa 3c 59 61 d7 bc
       -0.06963117 0.06452901 0.030529093 -0.026291536
0003f0 b6 99 48 bb 2f 62 ec bc 05 68 ae bd 48 b5 65 3c
       -0.0030609197 -0.028855411 -0.08515934 0.014020272

layers.0.W_p_prime.weight f4 [128, 128]
000000 24 0d 04 3d 1e ac f8 3c b3 28 a0 bb c8 de c0 3d
       0.032239094 0.03035551 -0.004887664 0.09417492
000010 55 70 9f bd 12 71 93 3c 96 e7 b1 bd b3 49 7e 3d
       -0.077850975 0.017998252 -0.0868675 0.062082004
000020 ca c6 84 bd b2 50 92 bd b7 7f f2 3c a0 03 b2 bd
       -0.064832285 -0.07144298 0.029601915 -0.08692098
000030 4a da b5 3c 8e 5f 34 3c a6 74 7e 3d d3 68 23 bd
       0.022198815 0.01100911 0.062122963 -0.03989489
000040 7a 74 81 bd 81 89 bd bc 7d 6a d9 bc 0a 69 79 3b
       -0.06321044 -0.023136856 -0.026540035 0.0038056993
000050 03 37 96 3d 2a 51 94 bc 97 4a 88 bd 7f b2 7e bd
       0.073347114 -0.018105108 -0.06654852 -0.062181946
000060 33 a9 58 3c 20 92 48 bd 66 47 96 3d 2d 17 aa 3d
       0.013223934 -0.04896748 0.07337837 0.08305202
000070 1d 9e 52 bc 75 e2 98 3d 73 9a 2e 3c 7b e4 92 3d
       -0.01285508 0.07465068 0.010656941 0.071724854
000080 68 63 87 bc 7d ea 10 bd 17 82 24 bd 95 1f 0f 3d
       -0.016526893 -0.035379875 -0.040163126 0.03494223
000090 34 6b 89 3d 84 1b 56 3c 61 3e 66 3d a9 17 91 3d
       0.067099005 0.013068084 0.056211833 0.07084591
0000a0 fe 8f 44 3c 3e f8 9d bd f8 65 ae 3c 62 a6 00 bd
       0.011997221 -0.07713364 0.021288857 -0.031408675
0000b0 19 2c 32 bd e9 16 b1 bd fe c8 04 bd 1d 19 1f 3d
       -0.043499086 -0.08646948 -0.032418244 0.03884231
0000c0 90 fb 2d 3d 96 eb 25 3d 3c 03 a2 bd e6 2d a8 bc
       0.042476237 0.040507875 -0.07910773 -0.020529699
0000d0 f0 80 01 bd e0 00 ab 3d dc ec 82 bd 5a 63 7f 3c
       -0.031617105 0.08349776 -0.063928336 0.015587652
0000e0 84 bc b1 3d 41 de 77 bd e8 93 80 3d bc ee 94 3c
       0.086785346 -0.060514692 0.06278211 0.018180244
0000f0 6e c8 2a 3c f8 8b 91 bc 3c 7e dc 3c ff 07 27 3c
       0.010423763 -0.017766938 0.026915662 0.0101947775
000100 73 6b 9a bd 9d 5a 75 3d 87 22 83 3d b3 71 41 bd
       -0.075400256 0.05990087 0.0640307 -0.047227573
000110 6d b9 dc 39 3b 85 ae 3d 91 a3 40 bd 21 d4 f9 3c
       0.00042099823 0.085215054 -0.04703099 0.030496659
000120 1f 6d b7 bd 9c b9 fa 3b 75 c1 c2 bd 59 e2 c3 3b
       -0.0895636 0.007651521 -0.09509555 0.0059779105
000130 e3 18 84 bb 3d e9 f2 ba 29 5d 4b 3d 12 d1 d0 bc
       -0.004031287 -0.0018532645 0.04964939 -0.025490317
000140 6d 04 86 bd b5 13 3f bb b9 84 21 bd a6 f8 88 3d
       -0.06543813 -0.0029156033 -0.039433215 0.06688051
000150 bd 2a 0c bd 53 0a c0 bd f6 e4 8a bd 7c fa 9d bd
       -0.034220446 -0.09376969 -0.06781952 -0.07713792
000160 18 6c a5 bd ef a9 10 bd e3 a3 75 ba 48 6d 6a 3c
       -0.08077258 -0.03531831 -0.00093704293 0.014308281
000170 cd 52 80 3a ce ae 48 bd 7a e8 33 bc 1a b1 86 3d
       0.0009790302 -0.04899483 -0.01098072 0.06576748
000180 37 db 12 3b 74 1b 6c bd 2d 41 80 bd 0a d7 eb 3c
       0.0022408494 -0.05764337 -0.06262431 0.028789062
000190 9d 9a 91 3d bd 43 6a bd b1 59 d5 3c 0d ee 9d 3d
       0.07109568 -0.057193507 0.026043745 0.0771142
0001a0 c0 dd c5 3c d4 96 a1 bd ac 96 91 3d f1 42 36 3d
       0.02415359 -0.07890096 0.071088165 0.044497434
0001b0 a4 fc 35 3c 6d 87 2e bd f1 18 9e bd 09 f0 94 bd
       0.0111075975 -0.04260962 -0.07719601 -0.072723456
0001c0 09 0d 29 3d 7b fb 40 3c 68 89 d7 bc bf 34 a1 bd
       0.041272197 0.011778708 -0.026310638 -0.07871389
0001d0 aa 8a d5 bc a4 89 8f 3b 54 06 e6 bc d7 fd ac bd
       -0.026067097 0.0043804217 -0.02807919 -0.084468536
0001e0 6b de 17 bd c7 3f 8b bd 17 b6 a6 bd be 7e 83 bd
       -0.03707735 -0.06799274 -0.081402 -0.064206585
0001f0 d0 3c 41 bd d2 7d 60 bd a1 77 2f bd c0 34 17 bd
       -0.047177136 -0.05480749 -0.042838696 -0.03691554
000200 a5 b4 48 3d 71 88 93 bd d9 f6 97 3d 08 eb 28 bd
       0.0490004 -0.072037585 0.07420129 -0.04123977
000210 58 11 f0 3c 78 0e 19 bd 57 c6 8d 3d b8 d5 0a bd
       0.029305145 -0.037367314 0.06922596 -0.033895224
000220 32 08 61 3d db 6f c5 3c 8a 5f ab bb df 6d 3e 3d
       0.054939456 0.024101188 -0.005229895 0.0464915
000230 dd 67 31 bd e4 76 ac bc a5 b9 ab bd 1d 4c 83 3d
       -0.043311942 -0.021052785 -0.08385018 0.06411002
000240 57 d5 09 bd 4d 2d 1d bc d4 04 83 bd eb 88 71 bd
       -0.033650722 -0.00959332 -0.06397405 -0.058968466
000250 00 88 89 3d ce 75 9d 3d e8 69 df 3c eb 3e dc 3c
       0.06715393 0.07688485 0.02727218 0.02688547
000260 36 ab 18 bd 8d 93 ef 3c dc ca 8e bc 18 5b 5f bd
       -0.037272654 0.029245162 -0.017430715 -0.054530233
000270 11 3e 6f bd 37 79 84 3d 9f 30 b1 bd 9a 66 62 bd
       -0.0584088 0.064684324 -0.08651852 -0.05527363
000280 b5 3a 7e 3b 40 88 44 3a 10 8a a3 bc 4a 16 6d 3c
       0.0038792316 0.00074971095 -0.019963294 0.014470646
000290 08 50 58 3d 8a f6 a4 3c 07 a0 94 3d af 83 c9 bb
       0.0528107 0.02013709 0.07257085 -0.006149731
0002a0 ee 44 a0 39 ea d8 90 3c ee 23 ae bd 4a ee 10 bb
       0.00030568935 0.017681558 -0.08502947 -0.0022114688
0002b0 28 8f 27 3d 0b 49 85 bd 6e ef 8b bb 23 07 30 3d
       0.04090801 -0.065080725 -0.0042704856 0.042975556
0002c0 36 5f 59 bd 07 fa 80 bd 42 6f 24 3b 56 b9 ae bc
       -0.053069316 -0.06297689 0.002509073 -0.02132861
0002d0 2f ab a8 bc c2 1c e5 bc 27 3f cd 3b a6 54 81 bd
       -0.02058944 -0.027967814 0.006263632 -0.063149735
0002e0 f5 48 be bd 00 57 db 3c 77 1f 57 3b f7 8a ba bc
       -0.09291259 0.026774883 0.003282515 -0.022771342
0002f0 96 bb 89 bd e2 7a b6 bc 38 49 4b 3c a2 52 a9 3a
       -0.06725232 -0.022275392 0.012407593 0.0012918303
000300 20 91 b8 bc b2 7b 65 bd bf 52 9b 3d 1c 98 0e 3d
       -0.022530138 -0.05602617 0.07584142 0.03481303
000310 0d 7b 87 bd 7a 66 04 bb 70 c6 5c 3d 31 55 65 bd
       -0.06615267 -0.0020202682 0.053900182 -0.055989448
000320 28 2f 3c bb 94 1b 60 3d c9 1d 1d bd a5 98 9d bc
       -0.002871463 0.0547138 -0.038358483 -0.019237826
000330 0e 4b 22 bb aa 85 74 bd 16 a4 3a bd d9 65 46 bd
       -0.0024763974 -0.059697784 -0.04556664 -0.048436973
000340 12 d0 89 3d 56 06 98 3b ed e5 9f bd 3e c1 02 3d
       0.067291394 0.004639427 -0.07807527 0.03192257
000350 52 9e b8 3c a5 86 9e 3d 04 2a ce 3c ca a3 a1 3d
       0.02253643 0.07740525 0.025166519 0.078925684
000360 0e ac 3f bd 97 cb 29 3d db 5e e6 3c 02 1f 74 bd
       -0.046794944 0.041453924 0.028121402 -0.059599884
000370 cd 45 15 bd 77 da 1e 3d f8 63 a4 bd 0a 0a 1d bd
       -0.03644352 0.038782563 -0.0802688 -0.038339652
000380 da dc 84 bd 75 a1 42 bd bd 0b 3d 3d 83 74 70 bd
       -0.064874366 -0.04751726 0.046153773 -0.058704864
000390 5f 30 3e 3d a0 7d 08 bd 01 83 7e 3d a1 65 af bc
       0.04643285 -0.03332293 0.062136654 -0.021410765
0003a0 c0 01 a2 bc 96 86 50 3c d4 55 12 3d 50 cf 75 3d
       -0.019776225 0.0127274 0.035726383 0.06001216
0003b0 2c 59 b8 3d 5f ee 8c 3d 48 7a 78 bd 53 9a d3 3c
       0.09001383 0.06881403 -0.06066349 0.025830423
0003c0 a9 87 0f 3d 6f 01 2c bd b5 06 88 bc a5 53 65 bd
       0.035041485 -0.041993555 -0.01660476 -0.055987973
0003d0 5d ab 31 3c 84 aa bb 3d 1e 5a a8 bb ad 4f 09 bd
       0.010844079 0.09163383 -0.005137696 -0.03352325
0003e0 b9 01 7b bd 4b ca 2d 3d 84 e8 9a 3d 55 62 88 bd
       -0.06128094 0.04242925 0.0756388 -0.0665938
0003f0 b8 6d d8 bc 25 17 a6 bd 05 9f c7 bc 70 2c 80 3d
       -0.026419505 -0.08109883 -0.024367819 0.06258476

layers.0.f_def.weight f4 [1, 128]
000000 db e7 c3 3b ac 4e 57 3c ae 62 ed 3c 99 0e 20 3d
       0.005978567 0.013141315 0.028977718 0.03907642
000010 09 ba 8e bd 1f 0c d7 3b 66 db 24 bc 51 c3 28 3d
       -0.06969077 0.0065627242 -0.010062074 0.041201893
000020 be a0 be bd 25 04 23 3c 8f 8c 70 3d 84 e5 b0 bd
       -0.09308003 0.009949719 0.058727797 -0.08637527
000030 7a b9 d4 3c f4 15 0b 3d 9a f9 7e 3d 80 88 c0 bd
       0.025967348 0.033956483 0.062249757 -0.09401035
000040 da 96 87 3d 6a a3 46 bd 8c f2 f8 3d 33 37 aa 3d
       0.066205695 -0.048495688 0.12155637 0.0831131
000050 2e 3c 9d bc 2d 21 df 3d 1d 26 f3 3c 2c 42 5f bd
       -0.019193735 0.10895 0.02968126 -0.054506466
000060 ea b7 a8 bd c6 68 2c 3d b1 3f 1a 3d 3a d2 6e bd
       -0.08238204 0.042092107 0.037658397 -0.058305956
000070 78 b1 88 bd ea 75 8b bd b7 4a 74 3d d8 df 9c bd
       -0.066744745 -0.068096 0.059641566 -0.07659882
000080 08 5a 6d 3c 85 a2 8f bd 5a ec 82 bd 66 b0 a0 3d
       0.014486797 -0.0701342 -0.06392737 0.07846145
000090 19 9a aa 3d 04 70 c2 3d 30 4a 6b bd b1 73 b4 3c
       0.08330173 0.094940215 -0.057443798 0.022027822
0000a0 f2 d2 54 3c 0c 87 95 bd 88 44 eb 3c a2 49 47 bd
       0.012989746 -0.07301149 0.028719202 -0.048654206
0000b0 c2 43 8d bd b6 c2 a5 bd 23 9f 23 bd 05 2a 62 3d
       -0.068976894 -0.08093779 -0.039946686 0.055215854
0000c0 be 9f 98 bc 65 49 7a bd 8a 03 75 3d 6d 51 52 3d
       -0.018630859 -0.06110515 0.05981783 0.051347185
0000d0 e2 cf d4 bd 9a dc 60 bc 97 21 d6 3d 14 a5 a4 3c
       -0.10391213 -0.0137244705 0.104556255 0.020098247
0000e0 d7 50 c0 3c fa 7c de 3d e4 ec d6 bc b7 ee 8a bc
       0.023476047 0.10863681 -0.026236005 -0.016959531
0000f0 7e cc d7 bd ae af c5 bc f6 8f 11 bd 71 97 f4 bb
       -0.10537051 -0.024131622 -0.035537682 -0.0074643423
000100 db fa 60 bc a5 f7 d1 bd 24 1f 41 3d fc 90 2b 3d
       -0.013731684 -0.102523126 0.04714884 0.041886315
000110 69 c7 8a bd e7 05 4c 3d 74 0e 3c bd e2 03 9c 3c
       -0.06776316 0.049810316 -0.04591222 0.01904482
000120 55 7f 56 bd e2 60 9e bd a9 85 96 bd 22 cb 14 3c
       -0.052367527 -0.07733323 -0.073497124 0.009081634
000130 4b 55 ba 3d f1 02 68 bd bf 20 cc bc ab ca 2f bb
       0.090982996 -0.05664343 -0.024917958 -0.002682368
000140 10 53 bc bd 74 be f3 3d bd 2f a6 3d 23 9c bd bd
       -0.091955304 0.119015604 0.08114574 -0.09258296
000150 0f 90 37 bd 66 9d 10 bd 75 9e 7d 3d f5 5a e1 bd
       -0.04481512 -0.035306357 0.061918695 -0.11003677
000160 ef 17 93 3d 0c ff 92 3d 9b dd 7f bd e9 e9 02 bd
       0.07182299 0.071775526 -0.0624672 -0.031961355
000170 fe 0d 7e 3d fc 47 57 3c 5f 91 56 3c 26 e9 be bd
       0.062025063 0.013139721 0.013096183 -0.09321813
000180 16 72 27 bd b9 3a d3 3d 7b 96 13 bc 25 5f de 3d
       -0.040880285 0.10313935 -0.009008045 0.10857991
000190 ee 80 01 bd c7 41 10 3a 10 41 dd bd 10 c0 9e bd
       -0.031617098 0.00055029657 -0.10803425 -0.07751477
0001a0 51 97 a2 bd 45 2e 5e 3d 96 fa 49 ba b3 ba 95 3d
       -0.079390176 0.054243345 -0.0007704882 0.07311001
0001b0 48 4f e4 3b fc 36 01 bd e0 8d 16 bd 13 2b 58 3d
       0.006967459 -0.031546578 -0.036756396 0.052775454
0001c0 06 00 ab bd 98 a6 90 3d e8 d6 62 bd d6 52 b9 bb
       -0.08349614 0.07063025 -0.05538073 -0.0056556268
0001d0 c3 6b f8 bd f3 f7 03 3d d6 54 91 3d 3b ed ec bc
       -0.12129929 0.032218885 0.07096259 -0.028921714
0001e0 ff f9 80 bc f3 53 de bb 3e 34 36 bd e2 7d c8 bc
       -0.015744207 -0.00678491 -0.044483416 -0.024474088
0001f0 ca 14 f0 3b bd 7e 91 bd 36 e8 3f bd b8 03 c4 3c
       0.007326697 -0.071042515 -0.046852313 0.023927554
