refined_1new.pth (torch, 888314 bytes, 36 tensors)

input_norm.weight f4 [7]
0	0x3f800ce3	1.0003933
1	0x3f6b8850	0.9200487
2	0x3f70d669	0.94077164
3	0x3f80e36f	1.0069407
4	0x3f7a2122	0.97706807
5	0x3f82fa83	1.02327
6	0x3f8305c9	1.023614

input_norm.bias f4 [7]
0	0x3be2b43c	0.0069184583
1	0xbcca09f6	-0.024662953
2	0x3b2d4278	0.0026437324
3	0x3c480b20	0.012209684
4	0x3c3fea4b	0.011713575
5	0x39d7c741	0.0004115645
6	0xbb65bcc5	-0.0035055142

layers.0.embed.weight f4 [128, 7]
0	0x3e8bb171	0.27283815
1	0x3e261e6a	0.1622254
2	0x3e490c4f	0.19633602
3	0x3df13b26	0.1177886
4	0x3e16ea5c	0.14737839
5	0x3e7cf242	0.24701789
6	0xbe2861f6	-0.16443619
7	0x3d9a10e7	0.07522755
8	0x3e8750aa	0.2642873
9	0xbdd925f5	-0.10602943
10	0x3c3b7dde	0.011443583
11	0xbe99588c	-0.29950368
12	0xbe16a8c8	-0.14712822
13	0x3e36f092	0.17865208
14	0x3daa357d	0.08310983
15	0xbdb5eb95	-0.08882824
16	0xbebb6a30	-0.36604452
17	0xbec5fafd	-0.3866805
18	0x3ea15ec2	0.31517607
19	0xbcedb0ed	-0.029015029
20	0x3eb5b301	0.35488132
21	0xbaab4d8c	-0.0013069375
22	0x3d5822e9	0.052767668
23	0xbe10e2df	-0.14149044
24	0xbe11a49a	-0.14222947
25	0x3e2ca13f	0.16858386
26	0xbe19c6c0	-0.15017223
27	0x3e1cc56a	0.15309682
28	0x3dd6f7b9	0.10496468
29	0x3ec3151f	0.38102052
30	0xbe245c6f	-0.16050886
31	0x3e875b8f	0.2643704
32	0x3d422ac5	0.04740407
33	0xbd82722b	-0.06369432
34	0xbeb09111	-0.34485677
35	0xbebb9775	-0.3663899
36	0xbd7fb526	-0.062428616
37	0xbde96927	-0.11397009
38	0xbb5b80c6	-0.0033493503
39	0x3d8863a5	0.06659631
40	0xbd67f44a	-0.056629457
41	0x3e9035d9	0.28166083
42	0x3e6d4326	0.23170146
43	0xbe9aa0c8	-0.3020079
44	0xbeb1eb92	-0.34750038
45	0x3e38d7eb	0.18051116
46	0xbdc601cb	-0.09668311
47	0xbe5b4e13	-0.21416502
48	0x3d545824	0.05184187
49	0xbe86c1a8	-0.26319623
50	0x3df829d8	0.12117356
51	0xbe2dd4b0	-0.16975665
52	0x3e3ae33f	0.1825075
53	0x3e321ee4	0.17394596
54	0xbe489f73	-0.19592075
55	0x3e8d82b3	0.27638778
56	0xbe404383	-0.18775754
57	0xbe4477c7	-0.19186316
58	0x3e8b1875	0.27167097
59	0xbd05c137	-0.032654967
60	0x3e91e813	0.2849737
61	0x3e9fc5c2	0.31205565
62	0xbe4ae378	-0.19813335
63	0xbe983e8b	-0.29735216
64	0x3e3cda4f	0.18442653
65	0xbdf9663e	-0.12177704
66	0x3ea2a0a3	0.3176318
67	0xbe09e0a0	-0.13464594
68	0x3e2334a5	0.15938051
69	0x3ea691be	0.32533067
70	0xbe919894	-0.2843672
71	0x3eaba813	0.33526668
72	0xbead060c	-0.33793676
73	0xbe761208	-0.24030316
74	0x3e2db0fd	0.16962047
75	0xbe9658d2	-0.2936464
76	0x3d8354d1	0.06412662
77	0x3e99f00b	0.3006595
78	0xbe6045f1	-0.2190168
79	0x3dcc9f57	0.09991329
80	0x3e863ccb	0.26218256
81	0xbe7ec614	-0.24880248
82	0xbd9952e8	-0.07486516
83	0xbe174c00	-0.14775085
84	0xbe6c8263	-0.23096614
85	0x3e8d6f1d	0.27623835
86	0x3d841269	0.06448824
87	0x3eb29103	0.3487626
88	0x3e8bd2f0	0.2730937
89	0x3e034d0d	0.12822361
90	0xbe389299	-0.18024673
91	0xbec2c756	-0.38042706
92	0x3d9d7f71	0.07690323
93	0x3de13a8c	0.10997495
94	0x3d84bed7	0.06481712
95	0x3d48ea04	0.0490513
96	0xbd3439e4	-0.04400052
97	0xbdccbbaa	-0.099967316
98	0x3e52e131	0.20593716
99	0x3eac537c	0.33657444
100	0xbdefc6f3	-0.117078684
101	0xbdac10bc	-0.08401629
102	0x3e626983	0.22110562
103	0xbdb9da32	-0.090748206
104	0x3ea89c66	0.32931823
105	0xbe6fdc1f	-0.23423813
106	0xbea431f2	-0.32069355
107	0xbe20e95e	-0.15714023
108	0x3e33780f	0.17526267
109	0xbe2e0462	-0.1699386
110	0x3e9e53ea	0.30923396
111	0x3e9b4786	0.30328006
112	0xbeb4382f	-0.35199115
113	0xbe80f1ba	-0.25184423
114	0xbe7183e8	-0.23585474
115	0x3d9cf830	0.076645255
116	0xbea61742	-0.3243962
117	0xbe64fdd9	-0.2236246
118	0x3e2c7b23	0.16843848
119	0x3eaf63ad	0.34255734
120	0xbdb3c81d	-0.08778403
121	0xbeb7bd9b	-0.35886845
122	0x3d1d9ad1	0.038477723
123	0x3ddf5697	0.109051876
124	0xbe13e848	-0.14444077
125	0x3e264699	0.16237868
126	0x3e5bf485	0.21479996
127	0x3e0e8ca0	0.13920832
128	0xbd6a52b2	-0.05720777
129	0x3d66749b	0.056263547
130	0xbebf76bc	-0.37395275
131	0xbdcd6193	-0.100283764
132	0x3ec5d9b3	0.38642654
133	0x3e64e71d	0.22353788
134	0xbe9b47af	-0.30328128
135	0x3e6907a6	0.22756824
136	0x3d0f3978	0.034966916
137	0x3cefac4a	0.029256959
138	0x3e334ae1	0.17509033
139	0xbe12d308	-0.14338315
140	0x3eb6c813	0.3569952
141	0x3e221beb	0.15830962
142	0xbeb20739	-0.34771135
143	0xbd96005d	-0.07324288
144	0x3e8327ea	0.2561639
145	0x3e2439e5	0.1603771
146	0x3e03d2d6	0.12873396
147	0x3e91af6c	0.2845415
148	0xbe2a708c	-0.16644496
149	0xbe168ef2	-0.14702967
150	0x3e5f6860	0.2181716
151	0x3dbea32e	0.09308468
152	0xbda1311d	-0.07870696
153	0x3c89261b	0.016741803
154	0xbeb0e022	-0.34546
155	0x3e9d6494	0.30740798
156	0xbe864862	-0.262271
157	0xbbd9229c	-0.00662644
158	0x3e415b24	0.18882424
159	0x3e6dfd43	0.23241143
160	0xbe138a77	-0.14408289
161	0xbec264c1	-0.37967494
162	0x3e8a28b8	0.2698419
163	0xbea97fda	-0.33105356
164	0xbddd8b13	-0.10817542
165	0xbe677feb	-0.2260739
166	0x3e6689ac	0.22513455
167	0xbd50de2f	-0.05099314
168	0x3e3cf440	0.18452549
169	0xbe35b6c5	-0.17745502
170	0xbe8940f1	-0.2680736
171	0xbe8156e4	-0.25261605
172	0x3e875ff3	0.2644039
173	0x3d3f9f61	0.046782855
174	0xbe7ddc28	-0.24791014
175	0x3e98fbe4	0.29879677
176	0xbd1ef6b6	-0.0388095
177	0xbd313096	-0.043259226
178	0xbe45c0da	-0.19311848
179	0xbe033e83	-0.12816815
180	0xbeb205a4	-0.34769928
181	0x3e5810e4	0.21100193
182	0x3bca9a94	0.006182978
183	0xbe8aef4d	-0.27135697
184	0x3ca581a3	0.020203417
185	0xbe2ce572	-0.16884401
186	0x3d87a54d	0.066233255
187	0xbe8a23d7	-0.2698047
188	0x3dbf43e9	0.09339125
189	0xbdf539cd	-0.11973915
190	0xbeb95c87	-0.36203405
191	0x3d63d37e	0.055621617
192	0xbe2c0771	-0.16799714
193	0x3ea39c43	0.31955156
194	0x3dcb7922	0.099352136
195	0x3db6a3ba	0.08917947
196	0x3ea5d27b	0.32387146
197	0x3eb07ab7	0.34468624
198	0xbe00d735	-0.12582095
199	0x3ea8b46c	0.3295015
200	0xbe56aa0b	-0.20963304
201	0x3e27b93b	0.16379254
202	0x3e10f0e2	0.1415439
203	0x3ea88988	0.32917428
204	0x3eb44b9c	0.35213935
205	0xbe298685	-0.16555221
206	0x3de684f5	0.11255828
207	0xbdc98091	-0.09838975
208	0xbe05d612	-0.13069943
209	0x3db1106c	0.0864571
210	0x3e72bcb9	0.23704804
211	0x3e2cb7b8	0.16866958
212	0xbdd4a71c	-0.10383436
213	0xbec357a9	-0.38152817
214	0xbe9bd7ee	-0.3043818
215	0x3e91dcd8	0.28488803
216	0xbe507f77	-0.20361124
217	0xbe69e170	-0.22839904
218	0x3ebada9a	0.36494905
219	0x3e1cb571	0.1530359
220	0xbe160705	-0.14651115
221	0x3dea35ca	0.11436041
222	0xbea4df06	-0.32201403
223	0xbe28168f	-0.16414855
224	0x3ec249c3	0.379469
225	0x3d73aaff	0.059489246
226	0xbe81bd30	-0.2533965
227	0xbeb58a36	-0.3545701
228	0x3cc4a253	0.024003183
229	0x3da99dc8	0.082820475
230	0x3da20750	0.07911551
231	0x3e1b08e4	0.1514011
232	0x3eb14990	0.34626436
233	0xbd9cbc7a	-0.076531366
234	0xbbf01635	-0.007326866
235	0x3eaeefd3	0.34167346
236	0x3caa2df1	0.02077386
237	0xbeabc581	-0.3354912
238	0xbca434e3	-0.02004475
239	0xbdcfb206	-0.10141377
240	0x3e66210f	0.22473548
241	0xbe9a9cd4	-0.30197775
242	0x3d211b20	0.03933251
243	0x3e751b09	0.23936094
244	0x3d30ee43	0.043195974
245	0xbc5c21ba	-0.013435775
246	0xbe9fc1b4	-0.3120247
247	0xbeaccaf0	-0.3374858
248	0x3cd9fa9f	0.026608763
249	0xbe930ad6	-0.28719205
250	0x3e800e20	0.25010777
251	0x3e830f88	0.25597787
252	0x3eb27c7e	0.34860605
253	0xbd31064b	-0.043218892
254	0xbe911deb	-0.28343138
255	0x3d84eb05	0.06490139

layers.0.embed.bias f4 [128]
0	0xbd856672	-0.065136805
1	0xbe7c8fcb	-0.24664228
2	0xbe9b0e42	-0.30284315
3	0xbd9bfff3	-0.07617178
4	0x3c27dd68	0.010245658
5	0xbe546ef4	-0.2074545
6	0xbeb05fc5	-0.34448066
7	0x3e178f41	0.14800741
8	0xbea75887	-0.32684729
9	0xbe9f4919	-0.31110457
10	0xbd229aff	-0.039698597
11	0xbe78701b	-0.24261515
12	0xbd22b758	-0.03972563
13	0xbebe9df4	-0.37229884
14	0xbde7e8b9	-0.11323685
15	0xbe404658	-0.18776834
16	0xbe75c8a2	-0.24002317
17	0x3e7d8ce8	0.24760783
18	0x3ebb351f	0.36563966
19	0x3ead9ad4	0.33907187
20	0x3da2589c	0.07927057
21	0x3d666a67	0.056253817
22	0xbe98ed4b	-0.2986854
23	0xbe8d5d71	-0.27610353
24	0x3e97f05d	0.2967557
25	0xbd7f1f49	-0.062285695
26	0x3e23cc23	0.1599584
27	0x3ddc47d6	0.10755889
28	0xbe0550b9	-0.13019074
29	0xbe4e24c7	-0.20131217
30	0x3e9464ee	0.28983253
31	0x3e877bad	0.26461545
32	0xbe7ace59	-0.24492778
33	0x3e844d25	0.25840107
34	0x3e287ce0	0.16453886
35	0xbd649c22	-0.055812962
36	0xbe76da3f	-0.24106692
37	0xbe2db250	-0.16962552
38	0xbe4c34c8	-0.1994201
39	0xbe96bc6f	-0.29440638
40	0xbec08eb2	-0.37608868
41	0x3e6eb598	0.2331146
42	0xbea2576b	-0.3170732
43	0xbde3bd3d	-0.11120079
44	0xbe32a2bb	-0.17444889
45	0xbe3300cf	-0.17480777
46	0xbe8e6bfb	-0.27816758
47	0x3df6aa71	0.12044228
48	0xbea1a700	-0.31572723
49	0x3e5b19d6	0.21396574
50	0xbdcfe869	-0.101517506
51	0xbe1b6032	-0.15173414
52	0xbea3e611	-0.32011464
53	0xbe4b4509	-0.19850554
54	0x3e884e47	0.2662222
55	0x3eb66b4e	0.35628742
56	0xbe450559	-0.19240321
57	0x3c0c1985	0.008551006
58	0xbe4d3413	-0.20039396
59	0x3ca33732	0.01992378
60	0x3e2dcd4b	0.16972844
61	0xbd8985d4	-0.06714979
62	0x3eb5268c	0.3538097
63	0x3dc22912	0.0948049
64	0xbd3aa0fb	-0.04556368
65	0x3ebf3bbe	0.37350267
66	0x3e31075c	0.17287964
67	0x3e7107f8	0.23538196
68	0xbe474185	-0.19458587
69	0x3ddb3ade	0.107045874
70	0x3cc40c25	0.023931572
71	0x3d83247d	0.06403444
72	0xbdd7f24c	-0.10544261
73	0xbe8a86cc	-0.27055967
74	0x3e61d9e2	0.22055772
75	0x3e8c5ead	0.27415982
76	0xbeb6efdd	-0.35729876
77	0x3e53d0e7	0.20685159
78	0x3e2da559	0.16957606
79	0xbe98912c	-0.29798257
80	0x3e9c8efd	0.3057784
81	0xbbe0c242	-0.006859095
82	0x3ea64fc2	0.32482725
83	0x3e669625	0.22518213
84	0xbddbe542	-0.10737087
85	0xbe5b3640	-0.21407413
86	0x3e03b709	0.12862791
87	0x3e8718e9	0.26386192
88	0xbe366a02	-0.17813876
89	0x3ebd05cb	0.36918482
90	0x3dbb9729	0.09159691
91	0x3e7cfbe3	0.24705462
92	0xbe65ece1	-0.22453643
93	0xbe223b40	-0.15842915
94	0x3d715f99	0.05892906
95	0xbe67120e	-0.22565481
96	0x3d9f6b09	0.07784087
97	0xbe90799a	-0.28217775
98	0x3e609d73	0.21935062
99	0x3c1cd095	0.009571214
100	0xbe2ad1cf	-0.16681598
101	0x3deed67c	0.116620034
102	0xbe0e9e79	-0.1392764
103	0x3ea24cf6	0.31699342
104	0x3d78756b	0.060658854
105	0x3eb88a13	0.36042842
106	0xbe96d3b7	-0.294584
107	0x3d661412	0.056171484
108	0xbe1557e0	-0.14584303
109	0x3ebe86f4	0.37212336
110	0xbd243c2d	-0.04009645
111	0x3dbf5762	0.09342839
112	0xbde7ccdf	-0.11318373
113	0xbea83417	-0.3285224
114	0x3e9f3799	0.31097105
115	0x3dc1d2cf	0.09464037
116	0xbc8abc8f	-0.016935615
117	0x3d1c30db	0.03813253
118	0x3e97fa91	0.29683354
119	0xbe1c5dce	-0.15270159
120	0xbea90567	-0.33011934
121	0x3ea66e3b	0.32505974
122	0xbbf3e3e9	-0.0074429405
123	0xbe7645a0	-0.24049997
124	0xbe5b1e5a	-0.21398297
125	0x3d833bd0	0.06407893
126	0xbe82b99d	-0.25532237
127	0x3e3714e8	0.17879069

layers.0.W_att.weight f4 [128, 128]
0	0xbd283583	-0.041066658
1	0x3bb6d6fd	0.005579828
2	0xbd9c186c	-0.076218456
3	0xbda2e577	-0.07953923
4	0x3d10d49a	0.035359003
5	0xbda07c00	-0.07836151
6	0x3b427192	0.0029669744
7	0xbd8c13e2	-0.0683973
8	0xbc8f615d	-0.017502481
9	0x3c33cfd3	0.010974842
10	0xbd4f425b	-0.05060039
11	0xbd2e5ccc	-0.042568967
12	0xbd76b635	-0.06023236
13	0xbd8391ba	-0.064242795
14	0xbc829d90	-0.015944272
15	0x3ce8963f	0.028391955
16	0xbd837691	-0.06419099
17	0x3cb120e0	0.021622121
18	0x3d640f4d	0.055678654
19	0x3d0cc864	0.034370795
20	0x3cdbde54	0.026839413
21	0x3cab41dd	0.02090543
22	0xbd313201	-0.043260578
23	0x3820e95e	3.8364313e-05
24	0xbd73cee7	-0.05952349
25	0xbcb5ae39	-0.022177802
26	0x3da0c871	0.07850731
27	0xbce65e3a	-0.028121103
28	0x3d0b2250	0.03396827
29	0xbdb10534	-0.086435705
30	0xbd60b9a9	-0.05486456
31	0x3d427b15	0.04748066
32	0x3dbd850b	0.092538916
33	0xbd34b6ba	-0.044119574
34	0xbd3fe9ef	-0.046853956
35	0x3b335788	0.0027365405
36	0x3d892c10	0.066978574
37	0x3d6502be	0.05591082
38	0xbd6e7acc	-0.058222577
39	0x3d08bdbe	0.033384077
40	0xbd0b4422	-0.034000523
41	0x3c8282e7	0.01593156
42	0x3d6e7121	0.058213357
43	0x3d307028	0.04307571
44	0xbd9d88bb	-0.07692095
45	0x3cdecad2	0.027196322
46	0xbc0a3910	-0.008436456
47	0xbda30b13	-0.079610966
48	0xbd95519d	-0.07290957
49	0x3d85608c	0.065125555
50	0x3ab6ebeb	0.0013955807
51	0x3cfa389f	0.030544577
52	0x3d841927	0.0645011
53	0x3d620b80	0.05518675
54	0xbb74dbaa	-0.0037362375
55	0x3c335975	0.010946621
56	0xbcfa9ddd	-0.030592853
57	0xba7f7aeb	-0.0009745794
58	0xbdd21cf8	-0.102594316
59	0xbd478e44	-0.04871966
60	0x3d29b572	0.041432805
61	0x3db15df4	0.08660498
62	0x3d82c3b4	0.06384984
63	0x3c4bb869	0.0124341035
64	0xbd25367e	-0.04033517
65	0x3ce96a76	0.028493147
66	0x3d1a25f9	0.03763387
67	0x3d0907fc	0.03345488
68	0xbd9f0364	-0.077643186
69	0xbd5406ca	-0.051764287
70	0x3dac44e5	0.08411578
71	0xbd82c217	-0.06384676
72	0x3d8e9204	0.06961444
73	0xbcf765e3	-0.03019995
74	0xbdca43e5	-0.09876231
75	0xbc81cedf	-0.015845714
76	0x3d132c3d	0.03593086
77	0xbcd9efb0	-0.02660355
78	0xbd7825e3	-0.060583007
79	0x3d4f3e48	0.050596505
80	0x3d98f858	0.07469243
81	0x3bfd5984	0.0077316184
82	0x3d00c87e	0.031441204
83	0x3cb5b97c	0.022183172
84	0x3d2b709a	0.041855432
85	0xbda1c6fe	-0.07899283
86	0x3d975b97	0.07390516
87	0xbb0434d0	-0.002017308
88	0xbd93d19c	-0.07217714
89	0xbd95f24e	-0.073216066
90	0x3c211c36	0.009833386
91	0x3c2bf1e6	0.010494685
92	0xbcb474b6	-0.022028308
93	0xbc026876	-0.007959476
94	0x3cb536d0	0.022120863
95	0x3cc280fb	0.023743143
96	0xbd5eda59	-0.05440745
97	0xbd60c388	-0.054873973
98	0x3ddffb4d	0.10936604
99	0x3d85ed11	0.065393575
100	0xbc81d68a	-0.01584937
101	0xbb9797de	-0.0046262583
102	0xbdbdc177	-0.09265416
103	0xbd00d2c0	-0.031450987
104	0xbca1f0ed	-0.019768203
105	0xbd5bf776	-0.053702794
106	0xbd9da8a7	-0.076981835
107	0x3d45b003	0.04826356
108	0x3d959f1b	0.073057376
109	0x3d08f1ea	0.033433832
110	0x3d0a3bac	0.033748314
111	0x3d03c5db	0.03217111
112	0x3d0e7a8e	0.034784846
113	0x3d35bbd7	0.04436859
114	0xbd81bcda	-0.06334849
115	0x3da4fc8a	0.080559805
116	0x3db0e1f4	0.08636847
117	0xbbde5227	-0.0067846957
118	0x3dd36aee	0.103231296
119	0x3c7103ab	0.014710347
120	0xbd9655ee	-0.073406085
121	0xbb8b2fe3	-0.004247652
122	0xbccbb04b	-0.024864336
123	0x3ce6f8b4	0.028194763
124	0x3b875b12	0.0041307295
125	0xbd5122ea	-0.051058687
126	0xbd8a12ef	-0.067418925
127	0xbc94eeb4	-0.018180229
128	0x3d5976ce	0.053091817
129	0xbdae77ed	-0.08518968
130	0xbd214cc5	-0.039379854
131	0xbcafd0af	-0.021461813
132	0x3d2b30c6	0.04179456
133	0xbd6f6675	-0.05844732
134	0x3d6a6e70	0.057234228
135	0x3ce2e7cc	0.02769842
136	0xbd1046f7	-0.035223927
137	0xbbf6e973	-0.0075351535
138	0x3a4c2155	0.0007786949
139	0x3d4fa298	0.05069217
140	0xbc1fe2c7	-0.009758658
141	0xbd1ee388	-0.03879121
142	0xbcda0460	-0.026613414
143	0xbd87fa6b	-0.0663956
144	0x3d3d5dfb	0.046232205
145	0xbd8f1bee	-0.06987749
146	0xbda04560	-0.07825732
147	0xbc1c6e6f	-0.009547814
148	0x3b9403c2	0.0045170495
149	0x3d355a16	0.044275366
150	0xbd9748f0	-0.073869586
151	0x3cc8e79c	0.024524502
152	0x3d74db5e	0.059779517
153	0xbd3504ee	-0.044194154
154	0x3d521f61	0.051299457
155	0x3d54b725	0.051932473
156	0xbd0db46e	-0.0345959
157	0xbca961e9	-0.02067657
158	0xbd7f0d80	-0.062268734
159	0xbc91c09c	-0.017792039
160	0x3d8e29a1	0.06941534
161	0x3d35d5b3	0.044393253
162	0xbca162c9	-0.019700425
163	0x3daa58f3	0.08317747
164	0x3d5601bb	0.052247744
165	0xbb8012fe	-0.003908514
166	0x3d592677	0.0530152
167	0xbd1dc6b8	-0.03851959
168	0xbc23dc2c	-0.010001224
169	0xbcf86f28	-0.03032644
170	0xbca29d10	-0.019850284
171	0x3db95a33	0.09050407
172	0x3d01b0a5	0.031662602
173	0xbc468fb0	-0.012119219
174	0x3b602759	0.003420314
175	0xbd765409	-0.060138736
176	0x3d8af9c0	0.06785917
177	0x3d981fba	0.07427926
178	0xbdad646b	-0.08466419
179	0x3d27116b	0.040788095
180	0x3d34168b	0.04396681
181	0x3d1dfd7c	0.03857182
182	0xbd61e6ca	-0.05515174
183	0x3bb0a697	0.005390953
184	0xbd3f8cb7	-0.046765056
185	0x3d2ca895	0.04215296
186	0xbdb98189	-0.0905791
187	0xbdb67a0f	-0.089099996
188	0x3d533532	0.051564403
189	0x3c663698	0.014051102
190	0x3cfad38b	0.03061845
191	0x3d92bcc1	0.07164908
192	0xbdaeac7a	-0.08528991
193	0x3dabbbab	0.08385404
194	0xbcca8b9d	-0.024724776
195	0xbd270bbd	-0.04078268
196	0x3cfe5653	0.031047022
197	0x3d3a9f88	0.045562297
198	0x3d660403	0.05615617
199	0x3d3ce7f9	0.046119664
200	0x3d9f1225	0.07767133
201	0x3d957261	0.07297207
202	0x3c207034	0.009792376
203	0xbd10d766	-0.03536167
204	0x3d04b8b4	0.03240271
205	0xbda1fddc	-0.07909748
206	0x3c1c004f	0.009521558
207	0xbd8034d5	-0.06260077
208	0x3d9d721d	0.07687781
209	0x3d4d9f81	0.050200943
210	0x3db37c56	0.087639496
211	0xbb8e3119	-0.004339349
212	0xbaea6df2	-0.001788555
213	0x3d813441	0.06308795
214	0x3c1d2f92	0.009593861
215	0x3d22455e	0.039616935
216	0x3ccc87d3	0.02496711
217	0xbd0c22c6	-0.03421285
218	0x3c863b78	0.016385779
219	0xbd9a5828	-0.07536346
220	0xbda2ec7f	-0.07955264
221	0x3d0d31c9	0.034471307
222	0xbd8e6068	-0.06951982
223	0x3cd8bd3b	0.02645742
224	0xbd2c69d8	-0.042093128
225	0x3d54c862	0.051948912
226	0x3c474517	0.012162468
227	0xbc8c9fae	-0.017165985
228	0x3d959d5f	0.07305407
229	0xbd4696af	-0.048483547
230	0xbd17dc12	-0.03707511
231	0xbd9c5d1b	-0.07634946
232	0xbd92e9fa	-0.07173534
233	0x3da9d833	0.0829319
234	0x3c24d5df	0.0100607565
235	0x3d7a3ec0	0.061095
236	0x3d334ed1	0.043776337
237	0x3ccae2ef	0.024766413
238	0xbd821973	-0.0635251
239	0xbdadd632	-0.0848812
240	0x3d2fbbb5	0.04290362
241	0xbc73ab3e	-0.01487237
242	0xbdaa95eb	-0.08329376
243	0x3d293145	0.041306753
244	0xbd6d3f83	-0.057921898
245	0x3da4c6b3	0.08045711
246	0x3dc93c02	0.09825899
247	0x3d923b9d	0.071402766
248	0x3ce328e2	0.027729455
249	0xbd7466e1	-0.059668425
250	0x3d73fb5f	0.059565898
251	0x3d697806	0.05699923
252	0x3da64d72	0.0812024
253	0xbd9c8ef5	-0.076444544
254	0x3d8e5bce	0.06951104
255	0x3c09130e	0.008366359

layers.0.phi_att.weight f4 [128, 128]
0	0x3d270d85	0.040784378
1	0x3b3af39a	0.0028526546
2	0xbd118b9c	-0.035533533
3	0x3d4cf204	0.05003549
4	0x3d85de86	0.065365836
5	0xbd7ff1c4	-0.062486425
6	0xbd2609e2	-0.04053677
7	0x3c6619d8	0.014044248
8	0xbc9f3cc8	-0.019438162
9	0xbd3716ac	-0.044699356
10	0x3cb0604a	0.02153029
11	0x3d59de17	0.053190317
12	0xbd80433b	-0.06262823
13	0x3db4cc45	0.08828024
14	0xbd38f7a5	-0.045158047
15	0xbccbe586	-0.024889719
16	0xbd92689b	-0.07148858
17	0x3d39dcbe	0.04537653
18	0xbd431dda	-0.04763589
19	0xbce310ac	-0.02771791
20	0x3b601695	0.0034193147
21	0x3c071655	0.00824507
22	0xbd2a36e9	-0.041556273
23	0xbdad8f43	-0.08474591
24	0xbcd21fb5	-0.025649885
25	0x3d1e171b	0.038596254
26	0x3d319948	0.04335907
27	0xbdc7e921	-0.09761263
28	0x3da6f049	0.081512995
29	0x3d7b83a5	0.061404843
30	0x3952cfdb	0.00020104593
31	0xbce3eba0	-0.027822316
32	0xbd7832f2	-0.06059546
33	0x3ae10cca	0.0017169949
34	0x3c523888	0.012830861
35	0xbdeb24bd	-0.11481617
36	0x3cdccfa0	0.026954472
37	0xbd6c6668	-0.05771485
38	0xbdb7529a	-0.08951302
39	0x3b2d8049	0.002647417
40	0x3db19891	0.08671678
41	0x3c89056b	0.016726216
42	0x3d8ddd6e	0.06927
43	0xbcfadee9	-0.03062387
44	0xbd4ce6b5	-0.050024707
45	0x3d53fcda	0.05175481
46	0xbdaed4b4	-0.08536664
47	0xbd8a4f6a	-0.06753428
48	0xbd167906	-0.03673651
49	0x3d4a69ce	0.04941731
50	0x3d3707a4	0.04468502
51	0x3cf213bf	0.029550431
52	0xbcfe94bb	-0.03107678
53	0xbd1ee487	-0.03879216
54	0xbd200638	-0.03906843
55	0x3d9e51f2	0.077304736
56	0xbd3b788b	-0.045769256
57	0x3d092b82	0.033488758
58	0x3c576c44	0.013148371
59	0x3d647d94	0.055783823
60	0x3d84610a	0.06463821
61	0x3d77e61e	0.06052219
62	0xbd424fa0	-0.047439218
63	0x3d939c8b	0.072075926
64	0x3cb6fe08	0.022337928
65	0xbb96fd38	-0.0046078227
66	0xbdc46959	-0.09590406
67	0xbd4c317e	-0.049851887
68	0xbdb44ff9	-0.08804316
69	0xbc27e2fe	-0.01024699
70	0xbd180d08	-0.037121803
71	0x3d5142b0	0.05108899
72	0x3d318658	0.04334101
73	0xbd3f5a3c	-0.046716914
74	0xbd507dbd	-0.050901163
75	0xbd4a8208	-0.049440414
76	0x3d311661	0.043234233
77	0x3c6378ab	0.01388375
78	0x3c688e8f	0.014194145
79	0x3d029752	0.03188259
80	0x3cd7f4a3	0.026361769
81	0x3d25c409	0.040470157
82	0xbda3be36	-0.07995264
83	0xbc31dfae	-0.010856552
84	0x3d05ae6a	0.032637037
85	0xbb832b2e	-0.00400295
86	0xbd6a076e	-0.05713599
87	0x3d1fcb5d	0.0390123
88	0xbcb95513	-0.022623574
89	0x3d17e220	0.037080884
90	0x3da2b7be	0.07945202
91	0xbcab8ebc	-0.020942084
92	0x3cb18883	0.02167154
93	0x3d76cefa	0.060255982
94	0x3ca9f830	0.020748228
95	0x3cfda15b	0.03096073
96	0xbd0739dc	-0.033014163
97	0x3d196eb1	0.03745908
98	0x3bf54126	0.007484573
99	0xbd34726f	-0.044054445
100	0xbd0d4275	-0.034487206
101	0x39949423	0.0002833913
102	0xbdbd65ee	-0.09247957
103	0xbd664f85	-0.05622818
104	0x3b2b3a9f	0.002612747
105	0xbded6426	-0.115913674
106	0x3d47a261	0.04873884
107	0xbc2d6580	-0.0105832815
108	0xbce461c9	-0.027878659
109	0x3c7764bc	0.015099701
110	0xbd68470c	-0.05670838
111	0x3d444a1b	0.047922235
112	0x3ce17275	0.027520398
113	0xbd8fd2f7	-0.0702266
114	0x3d8cbabe	0.06871556
115	0x3db958ab	0.09050115
116	0xbd415768	-0.047202498
117	0xbd782cd2	-0.06058962
118	0x3becd7fb	0.0072278953
119	0x3c46c635	0.012132217
120	0xbc882993	-0.016621387
121	0x3d205669	0.039144907
122	0xbda81e47	-0.082089
123	0xbd290ead	-0.04127376
124	0x3d8a7d40	0.06762171
125	0x3c1e3d27	0.009658135
126	0x3d08f524	0.03343691
127	0x3d9925d8	0.07477921
128	0xbd064f79	-0.032790635
129	0xbd9c6fbd	-0.076385
130	0x3a669ee5	0.0008797481
131	0x3d75268d	0.059851218
132	0xbdac44dd	-0.08411572
133	0xbb76fc7d	-0.0037687116
134	0xbaaaa94b	-0.0013020424
135	0xbc888e54	-0.01666943
136	0x3d8c1dc1	0.068416126
137	0x3b1921e7	0.0023366155
138	0x3d9f5ee8	0.07781774
139	0xbdc1765a	-0.09446402
140	0x3d126245	0.03573825
141	0x3d668df3	0.056287717
142	0xbc5be9e0	-0.013422459
143	0xbcd6bb65	-0.026212404
144	0x3cf6fe61	0.030150594
145	0xbd97da18	-0.07414645
146	0xbd79b532	-0.060963817
147	0x3d5527a7	0.05203977
148	0x3d5ab8e7	0.053398993
149	0xbcdf74ee	-0.027277436
150	0xbcabc227	-0.020966602
151	0xbd977aae	-0.07396446
152	0xbc07f77f	-0.008298754
153	0x3d7f5d57	0.062344875
154	0x3d8e59b6	0.06950705
155	0xbc82a021	-0.015945496
156	0xbda241b8	-0.07922691
157	0xbd266761	-0.040625934
158	0x3d2a3636	0.041555606
159	0xbc247aef	-0.010039075
160	0x3d79d2cd	0.06099205
161	0xbd408d5b	-0.047009807
162	0x3d8d9a65	0.06914214
163	0x3caf9c08	0.021436706
164	0xbc95a287	-0.018265976
165	0xbd819111	-0.06326497
166	0xbc930fe2	-0.01795191
167	0x3cc3d91d	0.023907239
168	0xbc9db38d	-0.019250656
169	0x3c3da5f6	0.011575213
170	0x3d67bc92	0.05657632
171	0xbd3d614e	-0.046235375
172	0x3d613e7d	0.054991234
173	0xbd096f0b	-0.033553164
174	0xbc0fcd05	-0.008776908
175	0xbdcb7e72	-0.09936227
176	0x3c1a9b3b	0.009436424
177	0x3d9bd98e	0.07609855
178	0x3d403a5e	0.046930663
179	0xbd8890b6	-0.066682264
180	0x3d8ae98c	0.06782827
181	0x3d450eee	0.04810994
182	0xbd768f96	-0.060195528
183	0xbd821b2a	-0.063528374
184	0x3d194107	0.03741553
185	0xbd9052b4	-0.07047024
186	0x3d04cf8b	0.03242449
187	0xbd35a5e4	-0.04434766
188	0xbda2bbaf	-0.07945954
189	0x3d502b4a	0.050822534
190	0xbd1085ae	-0.035283737
191	0xbd6c2538	-0.057652682
192	0x3d7653bf	0.06013846
193	0xbc8324aa	-0.016008694
194	0x3d87b806	0.066268966
195	0xbcef1ef0	-0.029189557
196	0xbd659d81	-0.05605841
197	0x3da29cb6	0.079400465
198	0xbd8d9673	-0.069134615
199	0x3d7ab60c	0.06120877
200	0x3d370e22	0.044691212
201	0x3cc0b4f2	0.023523781
202	0x3d5fd3b8	0.05464527
203	0xbd1ac34a	-0.0377839
204	0xbc0d3de9	-0.008620718
205	0x3cbc46ac	0.022982918
206	0xbda3c685	-0.07996849
207	0x3c654763	0.013994071
208	0x3d583321	0.052783135
209	0xbb7306f7	-0.0037083009
210	0x3c2c55ab	0.010518472
211	0xbdac9b48	-0.08428055
212	0x3d8832d4	0.0665032
213	0x3cde48e5	0.027134368
214	0x3cf0621d	0.029343659
215	0x3d37606b	0.044769686
216	0x3c89dc74	0.016828753
217	0xbc4bed48	-0.012446709
218	0x3c9921a3	0.018692797
219	0xbcf4e23c	-0.029893033
220	0x3d6f4a38	0.05842039
221	0xbd583fb9	-0.052795146
222	0xbd50bf69	-0.050963793
223	0x3c715777	0.014730326
224	0xbdb68de2	-0.08913781
225	0x3c74a4a4	0.0149318315
226	0xbbc077ae	-0.005873642
227	0x3d54e7e9	0.05197898
228	0x3ce7ef92	0.028312478
229	0x3c68a167	0.014198638
230	0xbbbaae7c	-0.0056970697
231	0xbc9af307	-0.018914713
232	0xbd4299a0	-0.04750979
233	0x3cf4ec42	0.029897813
234	0xbd4e5f44	-0.05038382
235	0x3d49e6be	0.04929232
236	0x3db96224	0.09051922
237	0x3d587a05	0.052850742
238	0xbca6e31c	-0.020371966
239	0x3dc8319b	0.097750865
240	0xbd20254d	-0.039098073
241	0xbd5432d4	-0.051806286
242	0x3d0186e3	0.03162278
243	0xbd849f4a	-0.064756945
244	0x3cbdf101	0.023186209
245	0x3cebe156	0.028793972
246	0xbdbc0289	-0.09180171
247	0xbc97af34	-0.01851616
248	0x3cfa6f5f	0.030570684
249	0x3d500396	0.05078467
250	0xbd9c025e	-0.07617639
251	0x3c146e0b	0.009059439
252	0xbd92d752	-0.07169975
253	0xbd83da20	-0.064380884
254	0xbd9ab5b1	-0.07554186
255	0xbc5815fa	-0.013188833

layers.0.phi_att.bias f4 [128]
0	0xbdc29f92	-0.09503092
1	0xbc83c635	-0.016085723
2	0xbbbd4536	-0.005776073
3	0x3888c5e2	6.521844e-05
4	0x3d603c26	0.054744862
5	0xbd4008e0	-0.046883464
6	0x3dad4587	0.08460527
7	0x3ccc837d	0.024965042
8	0x3d6e0fb6	0.058120452
9	0xbd93a01b	-0.07208272
10	0xbd1152cb	-0.03547935
11	0xbd9ad228	-0.075596154
12	0x3d04fd62	0.032468207
13	0x3d828242	0.06372501
14	0xbda0c892	-0.07850756
15	0x3d1868f2	0.03720946
16	0xbbd4bd66	-0.0064923046
17	0x3d00f16a	0.03148023
18	0xbda441c3	-0.080203556
19	0xbd850fb9	-0.064971395
20	0x3db0f700	0.086408615
21	0xbdbda3b9	-0.09259743
22	0x3d3c1d96	0.045926653
23	0x3d82df86	0.0639029
24	0x3c95a20b	0.018265745
25	0x3d547495	0.051868994
26	0x3d8d18ef	0.06889521
27	0x3d7e2435	0.06204625
28	0xbc9c6a5f	-0.01909369
29	0x3d2d819e	0.04235994
30	0xbd10f601	-0.035390858
31	0xbca6e3f1	-0.020372363
32	0x3b779b54	0.0037781792
33	0x3d5fa7ff	0.054603573
34	0xbc07bf4e	-0.008285357
35	0x3d87e875	0.066361345
36	0x3d699c80	0.057034016
37	0xba28a617	-0.0006433441
38	0x3c159f70	0.009132251
39	0xbd85efe3	-0.065398954
40	0xbb3ab0f5	-0.0028486822
41	0x3d7fb9f0	0.062433183
42	0xbdb02374	-0.08600512
43	0xbd562c9f	-0.052288648
44	0x3d1624e0	0.03665626
45	0xbd627d1a	-0.055295087
46	0xbc01acba	-0.007914716
47	0xbd4984b6	-0.04919883
48	0xbc13335f	-0.008984416
49	0x3d8ee57c	0.069773644
50	0x3d06fb55	0.032954533
51	0x3d3c05d8	0.04590401
52	0x3db05250	0.0860945
53	0x3c6bb093	0.01438536
54	0x3d7c58a7	0.061607983
55	0x3dc0bd26	0.09411077
56	0x3c51f8a6	0.01281563
57	0xbcd4581f	-0.025920926
58	0x3d427258	0.047472328
59	0xbd20e6db	-0.03928266
60	0xbd383898	-0.044975847
61	0xbc2d86ea	-0.010591248
62	0x3d85153a	0.06498189
63	0x3c4ab66c	0.012372594
64	0x3cf770be	0.030205127
65	0xbda38435	-0.07984201
66	0x3bd6d9c3	0.006556721
67	0xbcdce3ab	-0.02696403
68	0x3d34a4fe	0.04410266
69	0x3d0644d7	0.032780495
70	0x3db0f29d	0.08640025
71	0xbcb885ce	-0.02252474
72	0x3d857cc1	0.065179355
73	0xbd99ed52	-0.075159684
74	0x3d6ac97a	0.05732105
75	0x3dbd1977	0.09233373
76	0x3c88f7c0	0.016719699
77	0xbcdf9cde	-0.02729648
78	0x3cab2dc0	0.020895839
79	0xbd8ead90	-0.06966698
80	0x3d8cdaa6	0.068776414
81	0xbd8a4c35	-0.067528166
82	0xbda02a36	-0.07820551
83	0xbda4785d	-0.0803077
84	0x3bf5440a	0.0074849175
85	0x3d782ecf	0.060591515
86	0x3d45dee0	0.048308253
87	0x3d1aa4dc	0.03775488
88	0x3cdabd91	0.02670172
89	0x3c16f488	0.009213574
90	0x3d12e191	0.03585965
91	0x3c319c62	0.010840507
92	0xbd6ac425	-0.057315964
93	0x3b4eea68	0.0031572822
94	0x3b8f33db	0.0043701953
95	0x3c88af44	0.016685136
96	0x3d0fbd16	0.035092436
97	0xbda492d2	-0.08035816
98	0x3a8f7d23	0.0010947328
99	0x3d967c19	0.073478885
100	0x3c29e4dd	0.010369507
101	0x3d38e1b1	0.04513711
102	0xbd2b6f86	-0.041854404
103	0x3d046f14	0.032332495
104	0xbdbf3f72	-0.09338273
105	0x3c474048	0.012161322
106	0xbdb75a0f	-0.08952724
107	0x3cb46d61	0.022024812
108	0xbbc37a1a	-0.0059654834
109	0x3ce8752d	0.028376186
110	0xbda91796	-0.08256452
111	0x3d9a5e6b	0.0753754
112	0x3ccaa810	0.024738342
113	0x3d8e802b	0.0695804
114	0xbda4c61c	-0.08045599
115	0x3cb82163	0.022476858
116	0xbd5fd99e	-0.054650895
117	0xbc37c167	-0.011215544
118	0xbc2550e1	-0.010090084
119	0x3d24f278	0.0402703
120	0xbd19da98	-0.037561983
121	0x3a00af0f	0.0004908898
122	0xbdb31d0c	-0.087457746
123	0xbd8b4475	-0.068001665
124	0xbc727617	-0.014798663
125	0x3db9aaf0	0.09065807
126	0x3c92c863	0.017917817
127	0x3d486746	0.048926614

layers.0.W_p.weight f4 [128, 128]
0	0x3b8df02f	0.0043316106
1	0xbd84d733	-0.064863585
2	0xbcc3ae6d	-0.023886884
3	0xbd8b0bd8	-0.067893684
4	0x3d9d37ca	0.076766565
5	0x3d145f09	0.036223445
6	0x3d7dd6ab	0.0619723
7	0x3d90648b	0.07050427
8	0xbd92f904	-0.07176402
9	0xbb2c504f	-0.0026292985
10	0xbdab5e95	-0.083676495
11	0x3cab7f7a	0.020934809
12	0xbd1fdf2d	-0.039031196
13	0x3dafe182	0.08587934
14	0x3d7053a0	0.0586735
15	0x3d576e2e	0.05259531
16	0x3cd85b5f	0.026410757
17	0xbda8833e	-0.082281575
18	0x3ce0b2dd	0.027429039
19	0xbda440f1	-0.08020199
20	0xbd8e7457	-0.06955784
21	0x3c878e5f	0.01654738
22	0xbc044a1a	-0.008074308
23	0xbd6e87b5	-0.05823489
24	0xbc3e0dda	-0.011599982
25	0x3d81baec	0.06334481
26	0x3db1c37b	0.08679863
27	0x3da363bc	0.07978007
28	0x3cd1ca7a	0.025609244
29	0x3c197b0b	0.009367715
30	0x3ca7f347	0.020501746
31	0xbd142929	-0.036172066
32	0xbd26d7e7	-0.040733244
33	0xbd284882	-0.041084774
34	0x3c990bf1	0.018682452
35	0x3d1bee13	0.038068842
36	0x3d8fe6c3	0.07026436
37	0xbd8665f1	-0.065624125
38	0xbda5d902	-0.080980316
39	0x3d80f368	0.06296426
40	0xbd96f40a	-0.073707655
41	0xbccd1f58	-0.02503936
42	0x3d4c89db	0.049936157
43	0x3d8e6279	0.06952376
44	0x3da90a2b	0.082538925
45	0x3d85bb14	0.06529823
46	0x3d8a3168	0.06747705
47	0x3d43ece0	0.047833323
48	0xbd8fc672	-0.07020272
49	0xbbfee54d	-0.0077787996
50	0x3b7dc838	0.0038724076
51	0xbd6b9a8c	-0.057520434
52	0xbd8cd4ec	-0.06876549
53	0xbd5ab9f3	-0.05339999
54	0xbdc137e1	-0.09434486
55	0xbd0a9db5	-0.033841807
56	0xbd24e05c	-0.04025303
57	0x3d0b21d6	0.033967815
58	0x3d11215c	0.035432205
59	0xbd2f6671	-0.042822305
60	0xbbb1ec08	-0.0054297484
61	0xbc0a6c6e	-0.008448703
62	0xbc15fc5f	-0.009154408
63	0xbcbe281e	-0.023212489
64	0xbd0a4b64	-0.033763304
65	0xbcdbd65a	-0.02683561
66	0x3cbb9aa1	0.022900881
67	0x3d7280ca	0.059204854
68	0x3d8d3402	0.06894685
69	0x3d0e5ab8	0.034754485
70	0x3c7b42c0	0.015335739
71	0xbd5c4208	-0.05377391
72	0xbdae27c9	-0.08503682
73	0xbd3b64d2	-0.045750447
74	0xbd9071ec	-0.07052979
75	0xbcbc7325	-0.023004124
76	0x3dafd211	0.08584989
77	0x3c85145b	0.016245058
78	0xbbc6ea9d	-0.0060704486
79	0x3dad83a5	0.08472375
80	0x3da06321	0.07831407
81	0x3daf55f9	0.0856132
82	0x3c9509ea	0.018193204
83	0xbc7dcd97	-0.015490911
84	0x3c16c35c	0.009201851
85	0xbd32d6bf	-0.04366183
86	0x3d835330	0.06412351
87	0x3ca3fbfc	0.020017616
88	0x3c078c13	0.008273142
89	0x3ca67df3	0.02032373
90	0xbd30b186	-0.04313805
91	0x3d9e83b8	0.07739967
92	0x3d5b0b71	0.05347771
93	0x3c0b6f7e	0.0085104685
94	0x3d0bf274	0.03416677
95	0xbaa4a689	-0.0012561838
96	0xbd3376a6	-0.043814324
97	0xbb6967ff	-0.0035614965
98	0xbc9bdaf6	-0.019025307
99	0xbd9d550b	-0.07682236
100	0x3d06f964	0.03295268
101	0xbdad44b7	-0.08460372
102	0xbd20e176	-0.039277516
103	0x3b75b566	0.0037492155
104	0x3d63735e	0.055529945
105	0xbd326518	-0.04355344
106	0xbce1435f	-0.027497945
107	0xbd2ee702	-0.042700775
108	0xbd550da7	-0.052014973
109	0xbcd86928	-0.02641733
110	0xbc340b7c	-0.010989066
111	0xbda23484	-0.07920173
112	0xbc44049b	-0.011963989
113	0xbd95e061	-0.073181875
114	0xbc1eeb55	-0.009699662
115	0xbcb4fc31	-0.02209291
116	0xbd47ff6a	-0.048827566
117	0xbd265abc	-0.040613875
118	0x3d3b15c3	0.04567505
119	0xbca2740c	-0.019830726
120	0xbd8dbebf	-0.069211476
121	0xbd2f7042	-0.042831667
122	0xbd4cd835	-0.05001088
123	0x3d61ad1e	0.055096738
124	0x3d94c345	0.07263807
125	0x3d238319	0.039919946
126	0xbd9f3f48	-0.07775742
127	0xbd93b733	-0.07212677
128	0xbd677ab0	-0.05651349
129	0x3d97e847	0.0741735
130	0x3ccc9438	0.02497302
131	0x3c0ed05d	0.00871667
132	0xbca3c077	-0.019989235
133	0x3db4ee74	0.08834544
134	0x3acf883e	0.001583345
135	0xbd60dd2c	-0.054898426
136	0xbd758d8f	-0.059949454
137	0xbc0e4584	-0.008683566
138	0xbda1fe37	-0.07909816
139	0x3d9aa47e	0.07550906
140	0xbcbd78e2	-0.02312893
141	0x3cdb3148	0.026756898
142	0x3ccf2109	0.025284307
143	0xbdaa967f	-0.08329486
144	0x3cd7ca17	0.026341481
145	0x3d936cb1	0.071984656
146	0x3d03a4b2	0.032139488
147	0xbd5bf4a1	-0.053700093
148	0x3c98ea5e	0.018666442
149	0x3d561476	0.052265607
150	0xbd6d1227	-0.05787864
151	0xbd435b65	-0.047694582
152	0x3caa9d93	0.02082709
153	0x3d9612ec	0.07327828
154	0xbd3031fb	-0.043016415
155	0x3d7b8858	0.061409324
156	0x3d1727d9	0.036903236
157	0xbd43f6c2	-0.04784275
158	0xbb9ed65b	-0.0048473305
159	0xbc91cfb0	-0.017799228
160	0xbca11147	-0.019661559
161	0x3d118a49	0.03553227
162	0xbcf21366	-0.029550266
163	0x3d8a102f	0.06741368
164	0x3c8627a3	0.016376322
165	0xbd28997d	-0.041162003
166	0xbc836da5	-0.016043494
167	0x3c41e896	0.011835238
168	0x3d6c3d18	0.05767545
169	0x3d853024	0.06503323
170	0xbdba15c3	-0.09086182
171	0x3d4fb755	0.05071195
172	0xbd135d62	-0.03597773
173	0x3bef083f	0.007294684
174	0x3da614e0	0.0810945
175	0xbce0c441	-0.027437331
176	0x3da041ae	0.078250274
177	0x3d761e04	0.06008722
178	0xbce7bd25	-0.028288433
179	0x3d4a381d	0.04936992
180	0xbcdc38fc	-0.026882641
181	0xbc493025	-0.012279545
182	0x3c39e076	0.01134502
183	0xbd01e37e	-0.031711094
184	0x3d6359db	0.055505615
185	0x3d86b5a8	0.06577617
186	0x3c838b77	0.016057713
187	0xbd5fd2fc	-0.05464457
188	0x3d0cbdbc	0.034360632
189	0xbda185f4	-0.07886878
190	0xbcc1cce6	-0.023657274
191	0x3dad500d	0.08462534
192	0xbd895088	-0.06704813
193	0xbd1e38f4	-0.038628533
194	0x3d8d6576	0.06904118
195	0xbd86a6a9	-0.06574757
196	0xbcc84aa2	-0.02444965
197	0x3d0bce39	0.034132216
198	0x3cf06a81	0.02934766
199	0xbd2d31c5	-0.042283792
200	0xbd7fa2a6	-0.062410973
201	0x3d2410f2	0.040055223
202	0xbd6b8cff	-0.05750751
203	0xbd728cc2	-0.05921627
204	0x3cb54db1	0.022131773
205	0x3cd331a7	0.025780512
206	0xbd90873f	-0.07057046
207	0xbc1b6b9a	-0.009486103
208	0x3da5a6a5	0.080884255
209	0xbd7ee926	-0.062234066
210	0x3d8783ca	0.06616934
211	0x396117c4	0.00021466526
212	0x3dac85ce	0.08423959
213	0xbd28f08b	-0.041245025
214	0xbd46dbd1	-0.048549477
215	0xbd720830	-0.05908984
216	0x3b56a484	0.0032751868
217	0x3b90c806	0.004418376
218	0xbd911fea	-0.07086165
219	0x3d939e64	0.07207945
220	0xbd9a211e	-0.07525848
221	0xbd741371	-0.059588853
222	0x3d436b10	0.047709525
223	0x3d9346bd	0.07191227
224	0x3c89c37a	0.016816843
225	0x3c8b8b7d	0.017034287
226	0xbd8bf1a6	-0.068332
227	0xbcf3e378	-0.029771551
228	0x3d8d5e63	0.069027685
229	0xbcf50ec8	-0.029914275
230	0xbd807754	-0.0627276
231	0x3d288ef6	0.041151963
232	0xbcdbeac2	-0.02684534
233	0xbd06615c	-0.032807693
234	0x3d227745	0.039664526
235	0x3d9d945c	0.07694313
236	0xbcc83973	-0.024441456
237	0x3d8d9931	0.069139846
238	0x3d7bd949	0.061486516
239	0xbd3c02d8	-0.04590115
240	0xba83135f	-0.001000028
241	0xbc9520b0	-0.018204063
242	0x3da9ada2	0.08285071
243	0xbb4c53ea	-0.0031177946
244	0x3cd88a8b	0.02643325
245	0xbd99740a	-0.07492836
246	0xbd8a1fd2	-0.067443505
247	0xbda358fc	-0.07975957
248	0x3cecc27e	0.028901335
249	0xbce76041	-0.02824414
250	0x3cdcd5ff	0.02695751
251	0x3cae7090	0.021293908
252	0xbd83f169	-0.0644253
253	0xbd910535	-0.07081071
254	0xbd55afff	-0.052169796
255	0x3d6dd0b2	0.058060355

layers.0.W_p_prime.weight f4 [128, 128]
0	0x3c43ea70	0.01195775
1	0x3c209461	0.009801001
2	0x3d57b900	0.052666664
3	0x3d85d5b5	0.06534902
4	0x3d8b3203	0.06796648
5	0xbcb297b1	-0.021800848
6	0xbd4630fb	-0.048386555
7	0x3d07423a	0.033022143
8	0xbc5ca933	-0.013468075
9	0x3d5b4469	0.053532038
10	0x3cae4d75	0.021277169
11	0x3bbdf1ef	0.005796663
12	0x3d85e2a7	0.06537371
13	0xbd71ccba	-0.059033133
14	0x3cf054cb	0.029337307
15	0xbb0cee3a	-0.0021504299
16	0xbdb3b5e3	-0.087749265
17	0xbd25c038	-0.040466517
18	0xbda35414	-0.07975021
19	0x3c8c85b3	0.017153597
20	0xbd8e6f8e	-0.06954871
21	0xbd8bd11b	-0.06826993
22	0xbd18cb60	-0.03730333
23	0xbdab584e	-0.08366452
24	0xbd5fac8c	-0.054607913
25	0x3d9b861d	0.075939395
26	0xbb343b8a	-0.0027501308
27	0x3d3ee827	0.046608116
28	0x3d23ce19	0.039991472
29	0x3dab07bf	0.08351087
30	0xbdb43134	-0.08798447
31	0xbd8654f5	-0.06559173
32	0x3d2bd90b	0.041955035
33	0x3d9c3eb1	0.07629145
34	0x3d60d723	0.05489267
35	0xbd5c0c2f	-0.053722557
36	0x3d87a977	0.0662412
37	0x3d493ef0	0.049132288
38	0x3d4541e4	0.04815854
39	0x3d5234de	0.05131995
40	0x3c993355	0.018701235
41	0x3d9d7591	0.0768844
42	0xbcbcce49	-0.023047583
43	0xbd767e42	-0.060179003
44	0x3db23cb5	0.08702985
45	0xbcf7ec48	-0.030264035
46	0x3c47efa1	0.012203128
47	0x3c761034	0.015018512
48	0xbae83fda	-0.0017719225
49	0x3c840d1e	0.016119536
50	0xbbd2b889	-0.0064306897
51	0x3d555904	0.052086845
52	0xbdb1a576	-0.08674137
53	0x3d6d9a4f	0.05800849
54	0x3cdf4a78	0.02725719
55	0x3d80ac8a	0.06282909
56	0x3d9970b1	0.07492197
57	0xbd68c427	-0.05682769
58	0xbd9df533	-0.07712784
59	0x3d2b4924	0.0418178
60	0xbc6766dd	-0.014123646
61	0x3d95b4cc	0.07309875
62	0xbdc51832	-0.096237555
63	0xbd3d78e2	-0.04625786
64	0xbda2b443	-0.079445384
65	0xbc50a376	-0.012734285
66	0x3d737ac0	0.059443235
67	0xbd9f9fff	-0.07794189
68	0x3c402163	0.01172671
69	0x3d971573	0.07377138
70	0x3d2a0b7c	0.04151486
71	0xbd9b9906	-0.07597546
72	0x3d2f6c2c	0.04282777
73	0xbd9d3c95	-0.07677571
74	0x3d09cd1c	0.033642873
75	0x3c38ee4f	0.011287286
76	0xbc42170e	-0.011846317
77	0x3c82257d	0.015887016
78	0x3ca0c0f2	0.019623253
79	0xbd65107e	-0.05592393
80	0xbd2efa5d	-0.042719234
81	0xbd511d0c	-0.051053092
82	0x3d754c3c	0.059887156
83	0x3d99fd3f	0.07519006
84	0x3caf47ac	0.02139648
85	0x3cb31873	0.021862244
86	0x3d83bc6d	0.06432424
87	0x3d1bcf3b	0.038039427
88	0x3c8039b1	0.01565251
89	0xbcba1970	-0.022717208
90	0xbd8893c2	-0.066688076
91	0x3d4e07c0	0.05030036
92	0xbdaac7ab	-0.08338865
93	0xbdb6f58d	-0.08933554
94	0xbd069bbe	-0.03286337
95	0xbc1e5fa8	-0.009666361
96	0x3d7bd527	0.061482575
97	0x3c7b77cb	0.015348385
98	0xbd671c6a	-0.056423582
99	0xbd364b64	-0.04450549
100	0xbd9d3f54	-0.076780945
101	0x3cdee21e	0.02720743
102	0x3d1a1134	0.037614062
103	0x3a8b378e	0.0010621415
104	0xbd9c6eb6	-0.07638304
105	0xbd22d776	-0.03975626
106	0x3d58aa4d	0.052896786
107	0xbdb20d35	-0.08693925
108	0xbcd36c92	-0.025808606
109	0x3d989cc0	0.07451773
110	0x3a26e277	0.00063661434
111	0x3da35b83	0.07976439
112	0xbd6208ea	-0.055184282
113	0x3c0f03c3	0.008728924
114	0x3d83845c	0.0642173
115	0xbd93a04b	-0.07208308
116	0x3d16591f	0.036706086
117	0x3ce68247	0.028138293
118	0x39800eb3	0.00024425014
119	0xbaae77ae	-0.0013310814
120	0x3da94d58	0.08266705
121	0xbd9c95b6	-0.076457426
122	0x3c1a96e5	0.00943539
123	0x3d04b732	0.03240127
124	0xbd257d49	-0.040402684
125	0x3cdd5156	0.027016323
126	0x3d18fb99	0.037349317
127	0xbc2e3498	-0.0106326565
128	0xbd3a44d5	-0.0454758
129	0xbd0fed41	-0.035138372
130	0xba890504	-0.0010453765
131	0xbccc837d	-0.024965042
132	0xbcda4fee	-0.026649442
133	0x3bd90223	0.006622569
134	0x3da1759d	0.07883761
135	0x3d316aca	0.043314733
136	0xbd966c82	-0.07344915
137	0xbc3d2603	-0.011544707
138	0x3c0b232c	0.008492272
139	0x3dadee74	0.08492747
140	0x3c9da081	0.019241573
141	0xbcb7da88	-0.022443071
142	0xbdaf3159	-0.08554334
143	0x3d982256	0.07428424
144	0xbc28e46f	-0.010308369
145	0xbdb4b702	-0.088239685
146	0xbd87bc30	-0.06627691
147	0x3ce92ee4	0.028464742
148	0xbb62171b	-0.0034498635
149	0xbc40b18f	-0.011761083
150	0xbd2b96c4	-0.04189183
151	0xbd3ccadb	-0.046091896
152	0x3bb916c8	0.0056484677
153	0xbd201928	-0.03908649
154	0x3d99b5c4	0.07505372
155	0xbd09e6d4	-0.0336674
156	0xbd4958b2	-0.049156852
157	0x3c27aed1	0.010234551
158	0xbccc7064	-0.024955936
159	0x3cac3d41	0.021025302
160	0xbd854528	-0.06507331
161	0x3d90f976	0.07078831
162	0xbd81415f	-0.06311297
163	0xbbf4ad9e	-0.007466986
164	0xbc8ac7e4	-0.016941018
165	0x3d198a0b	0.037485164
166	0xbc2a20d0	-0.0103838
167	0x3d44115a	0.04786811
168	0x3c31d3de	0.010853736
169	0xbda2e4e5	-0.079538144
170	0xbc4908ec	-0.012270194
171	0x3d0cc431	0.03436679
172	0x3cf22bc7	0.02956189
173	0x3b8271c8	0.003980849
174	0xbd8bb28c	-0.068211645
175	0x3db11b1c	0.08647749
176	0x3d3029b0	0.043008506
177	0x3d8722e1	0.065984495
178	0x3d039e66	0.032133482
179	0xbc5a858a	-0.013337502
180	0x3d1efaf1	0.038813535
181	0xbcecc8eb	-0.028904399
182	0x3cbe41ca	0.02322473
183	0xbd0f87ff	-0.035041805
184	0x3c09e94c	0.008417439
185	0xbc7d706d	-0.015468699
186	0x3dc39978	0.09550756
187	0xbd9076d9	-0.070539184
188	0x3cdb7b83	0.026792293
189	0xbd3f2b1f	-0.046671983
190	0xbb2b8c17	-0.002617603
191	0x3d137d29	0.036008034
192	0x3d747bdc	0.059688434
193	0xbc89ca23	-0.01682002
194	0xbc741e6e	-0.014899833
195	0xbd748a5e	-0.05970227
196	0x3d6b3236	0.05742093
197	0x3d452eb1	0.04814023
198	0xbda86a7e	-0.08223437
199	0x3d12d506	0.035847686
200	0x3cbdd15f	0.023171125
201	0xbd0b40da	-0.033997394
202	0xbc450caf	-0.01202695
203	0x3d4ab6f4	0.049490884
204	0x3be237a4	0.0069036055
205	0xbd336ef4	-0.043806985
206	0xbd376628	-0.04477516
207	0xbcf116ec	-0.029429875
208	0x3cff84ee	0.031191316
209	0xbd0bfc54	-0.034176186
210	0xbd4249b7	-0.04743358
211	0xbd0b5689	-0.034018073
212	0xbd53d486	-0.05171635
213	0xbc9e54b7	-0.019327505
214	0xbc1aec7e	-0.009455798
215	0x3b44193e	0.0029922272
216	0x3d9f5029	0.07778961
217	0x3c086970	0.0083259195
218	0x3cdf5099	0.027260112
219	0x3d79f793	0.06102712
220	0x3d202673	0.039099168
221	0xbce347f3	-0.027744269
222	0xbca2bf9f	-0.019866763
223	0xbc560121	-0.013061793
224	0xbdb40b52	-0.08791222
225	0x3cdeb0af	0.027183859
226	0xbcfd3475	-0.030908803
227	0xbd9f1aa6	-0.07768755
228	0x3c5f4a31	0.013628528
229	0x3d96f0d4	0.07370153
230	0xbdc395b8	-0.09550041
231	0x3cddddba	0.027083267
232	0xbd15687e	-0.036476605
233	0xbd8ae7ce	-0.067824945
234	0xbd9eceb1	-0.07754267
235	0xbd44c9db	-0.048044067
236	0xbd85ccc3	-0.06533196
237	0xbc69b3a5	-0.014264022
238	0x3d68d58e	0.056844287
239	0xbcaf0f04	-0.021369465
240	0xba760691	-0.0009385134
241	0x3cf1ddf7	0.029524786
242	0xbd73509f	-0.05940306
243	0xbd3bb179	-0.045823548
244	0xbd8907d1	-0.06690944
245	0xbd90cfee	-0.070709094
246	0xbd1e75d2	-0.03868658
247	0x3d6fdc0d	0.058559466
248	0xbda76aa7	-0.08174639
249	0xbd983dc4	-0.07433656
250	0xbc1ee1a9	-0.009697356
251	0x3da3189f	0.079636805
252	0xbc891642	-0.016734246
253	0xbd56a3be	-0.05240225
254	0xbca09dcf	-0.019606499
255	0x3d125baa	0.03573195

layers.0.f_def.weight f4 [1, 128]
0	0x3e018966	0.1265007
1	0xbda66c5c	-0.08126137
2	0xbd76b055	-0.060226757
3	0xbd490f6b	-0.04908697
4	0x3e11ffd8	0.14257753
5	0xbdbc28c0	-0.0918746
6	0x3ddefac6	0.10887675
7	0x3d0c9858	0.034324974
8	0xbd7048f2	-0.058663316
9	0xbbb7d81f	-0.0056104804
10	0xbc6b0bea	-0.014346102
11	0x3e10e6e4	0.14150578
12	0x3dd4ffc6	0.104003474
13	0xbca858a5	-0.020550082
14	0xbde22822	-0.11042811
15	0xbdd007f5	-0.10157768
16	0xbd30f5ba	-0.043203093
17	0xbd6acf6c	-0.05732672
18	0xbd429bdc	-0.04751192
19	0xbd7ccb53	-0.061717343
20	0xbda3b6e0	-0.07993865
21	0x3e11849d	0.14210744
22	0xbdd17f47	-0.10229354
23	0x3c7b4c77	0.015338055
24	0xbd3babd3	-0.04581816
25	0x3b52121d	0.0032054253
26	0xbd194b95	-0.037425596
27	0xbdb5b7fb	-0.08872982
28	0xbd0b0f40	-0.03395009
29	0xbcd17a7c	-0.0255711
30	0xbd2681b0	-0.040651023
31	0x3ac174a3	0.0014759492
32	0xbcca5eb3	-0.02470336
33	0x3dcf8f92	0.10134806
34	0xbe273ddb	-0.1633219
35	0x3cd182b9	0.025575029
36	0x3d7a29e4	0.061075106
37	0xbda8a44d	-0.08234463
38	0xbdbcba96	-0.09215276
39	0xbdb5c94e	-0.088762864
40	0x3d02238b	0.031772178
41	0x3d937ef9	0.072019525
42	0x3dd84bd7	0.1056134
43	0x3cc70c70	0.024297923
44	0xbd1e995c	-0.038720474
45	0x3dafd9e2	0.0858648
46	0x3d98e571	0.074656375
47	0x3e0b98ed	0.13632555
48	0xbbe3860e	-0.006943471
49	0x3d6f9aa6	0.058497094
50	0xbc1fb124	-0.009746823
51	0xbdd1e2d4	-0.10248342
52	0xbd9ca523	-0.07648685
53	0xbc95f4ad	-0.018305147
54	0x3b8294da	0.0039850296
55	0x3dbd1824	0.0923312
56	0xbd98c665	-0.07459716
57	0x3def35c6	0.11680178
58	0xbd170f34	-0.036879733
59	0x3bad95d5	0.0052974024
60	0x3d980bc5	0.0742412
61	0xbdf8c4a5	-0.12146882
62	0xbd83f061	-0.06442333
63	0xbdaabdb8	-0.08336967
64	0xbd395a9d	-0.04525243
65	0x3d8a45dd	0.067516066
66	0xbd944ecd	-0.072415926
67	0xbd08f684	-0.03343822
68	0x3d7a7746	0.061148904
69	0x3cd48f48	0.025947228
70	0xbda76023	-0.081726335
71	0x3d82e73d	0.063917615
72	0xbc05975f	-0.008153765
73	0xbda4377c	-0.08018395
74	0x3d00a999	0.03141174
75	0xbd26e584	-0.040746227
76	0x3a977984	0.00115566
77	0x3d16ccb6	0.03681632
78	0xbb6ec469	-0.0036432988
79	0xbd2540a6	-0.040344857
80	0x3d3e9687	0.046530273
81	0xbe1e5cf4	-0.15465146
82	0xbdfe8275	-0.124272265
83	0x3d37a79e	0.044837587
84	0xbe09f0a4	-0.13470703
85	0x3d167f7b	0.03674267
86	0x3d40d212	0.04707534
87	0x3d7a3136	0.061082087
88	0xbddb6e31	-0.10714377
89	0xbd6f0400	-0.058353424
90	0xbd04d3cf	-0.03242856
91	0x3c162bde	0.009165732
92	0xbd93e3d4	-0.07221189
93	0xbc65e96f	-0.014032706
94	0xbced617d	-0.02897715
95	0xbdc1a68f	-0.09455597
96	0x3c329c41	0.010901512
97	0xbd9efb82	-0.07762815
98	0xbdd9c181	-0.10632611
99	0x3e26c44c	0.16285819
100	0xbdb55cbd	-0.08855579
101	0xbdb62ee4	-0.088956624
102	0xbd71ec6f	-0.05906337
103	0x3dcfd9db	0.101489745
104	0xbdfd67ee	-0.12373339
105	0x3c6797b2	0.014135288
106	0xbde55925	-0.111986436
107	0x3d1db64a	0.038503923
108	0xbd13625b	-0.03598247
109	0xbdc5be5f	-0.09655451
110	0xbdcdffc4	-0.10058549
111	0xbd43b8c3	-0.047783624
112	0x3daf4338	0.08557743
113	0xbd193e21	-0.037412766
114	0x3c917afe	0.017758843
115	0x3cfa8f0a	0.030585784
116	0xbd2a151d	-0.04152404
117	0x3d849bd8	0.06475037
118	0xbd5dcc2b	-0.054149788
119	0xbdb54313	-0.08850684
120	0x3da69d62	0.08135487
121	0x3e052aec	0.13004655
122	0x3dc26b76	0.09493153
123	0x3de66ae0	0.112508535
124	0x3d3852da	0.04500089
125	0xbd1e995d	-0.038720477
126	0xbb30be6c	-0.002696897
127	0xbdf8e498	-0.12152976
