refined_new01_best.pth (torch, 888578 bytes, 36 tensors)

input_norm.weight f4 [7]
000000 31 d6 7f 3f 7e 71 62 3f e3 bd 6f 3f ae f8 78 3f
       0.99936205 0.88454425 0.9364912 0.97254455
000010 02 fd 75 3f a3 2f 82 3f b6 e8 83 3f
       0.96089184 1.0170788 1.0305393

input_norm.bias f4 [7]
000000 ee 59 87 3c 1c 54 28 bd d0 ee e5 3c 3e b8 ca 3c
       0.016522374 -0.041095838 0.028067976 0.024746057
000010 ab 3c c2 3b fd 7b de bb 42 d7 12 3b
       0.0059276423 -0.006789683 0.0022406136

layers.0.embed.weight f4 [128, 7]
000000 9d bd b7 3e 42 63 84 3e 03 e9 9a 3e 2f d1 64 3e
       0.3588685 0.25856978 0.302559 0.22345422
000010 df 44 81 be 44 98 80 3e 45 9a 0a be 68 d1 88 be
       -0.25247857 0.2511617 -0.13535412 -0.26722264
000020 f4 11 66 be 8c 2b bf be eb a5 a0 be 13 5f 26 3e
       -0.22467786 -0.3733791 -0.31376585 0.16247205
000030 ab 4e b9 be 59 8a 1e be 5f eb 9d 3d 7b 14 ff bd
       -0.3619283 -0.15482463 0.07710909 -0.12455078
000040 a5 b8 2c be 5a 0e b4 bd 58 48 9d bd 84 8c 2d 3d
       -0.16867311 -0.087918 -0.07679814 0.042370334
000050 5b 5e a7 3d fc 77 a8 3d c9 12 0a bd e7 f4 a0 3e
       0.08172294 0.0822601 -0.03370932 0.31436846
000060 5a 19 b9 bd 74 b5 74 be 92 23 82 3e b6 10 7d 3e
       -0.090380386 -0.23897344 0.25417763 0.24713406
000070 28 d1 a2 3d a1 29 99 bd 8b 58 73 3e ff 7d a4 be
       0.0795005 -0.07478643 0.23764245 -0.32127377
000080 b7 78 59 3e 10 3c 89 3e 47 f5 f7 3c e9 10 86 3e
       0.21237455 0.26803637 0.030268325 0.26184776
000090 5b a1 89 be 60 94 63 3e 4e cc 38 3e 8c ba 9a 3e
       -0.26880917 0.2222457 0.18046686 0.3022045
0000a0 41 cc 8f 3e a3 d3 07 3e 56 4a 56 be 0f c7 05 3c
       0.2808552 0.13264327 -0.20926794 0.008165135
0000b0 7d c1 fb bc 01 da a3 3e 0c ac 05 3b 34 b0 76 3d
       -0.03073191 0.3200226 0.0020396737 0.060226634
0000c0 68 a9 69 3e 6a ea 60 3e 04 e4 ac be e2 b6 c7 bd
       0.2281853 0.21964422 -0.33767712 -0.09751679
0000d0 b6 2c b8 bc 47 32 5b be 90 4c 50 3e 60 a5 c2 be
       -0.022482257 -0.21405898 0.20341706 -0.38016796
0000e0 ab ab 51 3e 38 38 18 3e b3 02 cc 3d 7a ef 88 3e
       0.20475642 0.14865196 0.09961452 0.26745206
0000f0 54 dc 76 3e 8d 43 62 3d 6e ad 9e be 83 81 9b bc
       0.24107486 0.055240203 -0.3099169 -0.018982654
000100 91 8e 0f 3e 3a df 84 3e 4a 28 be 3d 68 2d b3 3e
       0.14019229 0.25951558 0.09285028 0.3499558
000110 76 d6 69 be cb 0d 81 3e 6b 99 fa bd f0 a0 1b 3d
       -0.22835717 0.25205836 -0.122362934 0.03799528
000120 17 19 b7 3d df a6 8c be ab b0 94 3e d8 ff 5e 3e
       0.089403324 -0.27471063 0.29041037 0.21777284
000130 ee 61 d5 bd 23 04 8d 3d cf 11 c1 3d 47 96 3e 3e
       -0.10419069 0.06885555 0.09427225 0.18612014
000140 f6 c5 b9 be d0 cf 88 3e 98 75 c3 3e a3 d6 f5 bd
       -0.36283845 0.26721048 0.38175654 -0.12003829
000150 7f 7c 77 be a4 7e 99 be be e3 1c 3e 83 4d 7a be
       -0.24168585 -0.29979432 0.15321252 -0.24443631
000160 e1 fc 9d 3d 60 20 ae 3e 0d 82 a0 3e 98 52 61 be
       0.077142484 0.34009075 0.3134922 -0.22004163
000170 6d 97 04 3e 99 f0 74 3e 3a 6e 97 3d a4 db 78 3e
       0.1294839 0.23919906 0.07394071 0.24302536
000180 c6 5e b2 be 23 43 be 3d 97 d2 b7 be e2 b8 de 3b
       -0.3483793 0.09290149 -0.35902855 0.006796942
000190 b2 f0 88 bd 0f 18 50 be b0 ab 57 be a9 05 84 3d
       -0.06686534 -0.20321678 -0.21061587 0.06446392
0001a0 8c 1c 04 be 24 24 23 be 3d 54 c1 3d f3 08 1e 3e
       -0.12901515 -0.15931755 0.09439895 0.15433101
0001b0 fd 5b 81 be 69 e6 02 3e 36 87 ad be 4e 8b cc 3e
       -0.25265494 0.12783207 -0.3389222 0.3995003
0001c0 ab 23 39 3e 6f 44 15 be 62 6f a6 3e 59 68 7c be
       0.18080013 -0.14576887 0.32506853 -0.2464918
0001d0 ed 87 de bd 55 db b7 be c8 7e 2f 3e 1a 9f 44 be
       -0.108657695 -0.35909525 0.17138207 -0.19201317
0001e0 af 5b bc bd 7e fd 82 3e 19 51 98 bd 2f 47 34 3e
       -0.09197175 0.25584024 -0.07437343 0.1760528
0001f0 9a de 99 be 69 c7 0e 3d c7 60 93 3e 91 22 b2 3e
       -0.30052644 0.03485814 0.28784773 0.34791997
000200 dd 56 75 3e 7e a9 ec bd e2 b7 72 ba f2 e6 3e bc
       0.23958917 -0.115557656 -0.0009258968 -0.011651741
000210 4e 3d 11 3d 4c 10 a9 3e 02 3a 1e 3e 80 a6 5b 3e
       0.035458855 0.33020246 0.15451816 0.21450233
000220 10 8d 24 3e 76 fe 3d be a5 6f c7 3d a9 2e 56 be
       0.16069436 -0.185541 0.097380914 -0.20916237
000230 4c 9a 5f 3e e6 51 93 bd 58 66 87 3e 19 e5 26 3d
       0.21836203 -0.07193355 0.2644527 0.04074583
000240 eb 86 c2 be b4 21 ab be 02 a3 a9 be 9c 76 a4 3e
       -0.3799356 -0.3342415 -0.33132178 0.32121742
000250 b1 94 52 bd 1c 51 49 be 30 70 98 3e 91 5d af bd
       -0.051411334 -0.19659847 0.29773092 -0.08562768
000260 d9 49 c5 3d 74 a7 5a 3e 6a d0 c9 bd 6e 34 83 be
       0.09633226 0.21352941 -0.09854205 -0.25625938
000270 87 dd 62 bd 69 0f 07 3d b0 2d 9c 3d eb 4c c8 be
       -0.055387046 0.03297368 0.07625902 -0.39121184
000280 c6 58 0a 3d 51 f7 8d 3e 81 17 47 3c 68 1d 99 3e
       0.033776067 0.2772775 0.0121516 0.29905248
000290 1c 80 96 be 41 34 95 3d 62 fe 87 be 92 23 3b 3e
       -0.29394615 0.07285357 -0.26561266 0.18275288
0002a0 60 aa c5 3d 6f af 6c be 80 b1 16 3c fd 32 d5 3d
       0.09651637 -0.23113798 0.009197593 0.10410116
0002b0 61 d4 b7 3e 35 5d 26 3e fd 98 b2 be 21 c3 87 be
       0.3590422 0.16246493 -0.34882346 -0.2651606
0002c0 f5 39 71 3e 74 82 1c 3e ec c5 88 b9 1c 5f 55 be
       0.23557265 0.15284139 -0.00026087405 -0.20837063
0002d0 29 59 88 3e 5f 40 de bd 80 e2 d2 bd 85 7f 3c 3e
       0.26630524 -0.108521216 -0.10297108 0.1840802
0002e0 2f f1 a0 3d a8 a1 6e be 40 ea 6a 3e 9e 20 78 be
       0.07858502 -0.23303854 0.22940922 -0.24231192
0002f0 09 c4 7b 3c 86 b4 36 3e fb 04 ae bd c5 4f c2 3d
       0.015366563 0.17842302 -0.08497044 0.09487871
000300 23 4c 84 3e 97 b0 fa 3d db 6a 78 3e 04 68 35 3e
       0.25839338 0.12240713 0.24259512 0.1771546
000310 44 c5 e9 bd 35 b3 ab bc cd ab 87 be 16 4b 17 3d
       -0.114145786 -0.020959476 -0.2649826 0.036936842
000320 e9 42 76 bd fa 8f 88 3e 1a fc a5 be a2 0f ed bd
       -0.060122404 0.26672345 -0.324189 -0.11575247
000330 95 eb 0b 3e 11 a9 7e be 57 22 3f bc ec b1 e5 3c
       0.13664086 -0.24869181 -0.011665902 0.028038941
000340 2b 5b 42 3e e8 73 4d bd f6 1a 93 3e 38 e9 2b 3e
       0.1898009 -0.050159365 0.28731507 0.16788185
000350 b2 b2 57 3e 8d 43 a9 3e c4 5e c2 3d 33 02 54 3e
       0.2106426 0.3305935 0.09490731 0.20703964
000360 fa ff 6c be 58 d1 64 3e 7b 10 48 3d c2 ae 59 be
       -0.23144522 0.22345483 0.048843842 -0.21258071
000370 2d 60 fb 3d 23 32 84 be fe d5 5b be d2 40 15 3e
       0.122742034 -0.258195 -0.2146835 0.14575508
000380 1f 2c b6 3c 6e 4c b8 3d 10 6f 81 be f3 90 0c be
       0.022237835 0.08998953 -0.25280046 -0.13727169
000390 fd bd 60 3e d3 bc 9c be 37 d3 1b 3e c3 6a ba 3d
       0.21947475 -0.3061281 0.15217291 0.091023944
0003a0 39 6a 11 be 62 61 dd bc 8a 8d 73 bd 84 31 b1 3e
       -0.14200677 -0.027023975 -0.059461154 0.3460809
0003b0 8f 3e ff 3d 53 26 5d bd 72 de 0d be 58 69 85 3e
       0.12463104 -0.053991627 -0.13854387 0.26056933
0003c0 17 82 af 3e 12 77 38 3e 10 e6 2d 3e d6 3f 89 3e
       0.34278938 0.18014172 0.16982293 0.26806515
0003d0 e0 3d 24 be 95 e7 8a be 83 43 de bc d6 1d 05 be
       -0.16039228 -0.27129808 -0.027131801 -0.12999663
0003e0 ad ab 97 be 33 60 0b 3e 3b f0 64 be 6f c0 ae bc
       -0.29623166 0.13610916 -0.22357266 -0.021331994
0003f0 c5 9c bf bd c1 5e 93 bc 4f 67 66 be 59 da 32 be
       -0.09356073 -0.017989518 -0.22500347 -0.17466106

layers.0.embed.bias f4 [128]
000000 51 ae c2 3e c7 92 43 be ed 2c 89 3c a9 29 92 3e
       0.38023618 -0.1909896 0.016745055 0.2854741
000010 30 42 3a be 1a 22 35 be 62 b5 4c be d1 d8 2f bd
       -0.18189311 -0.1768879 -0.19991067 -0.04293138
000020 e0 c6 d7 3d bb e2 38 3e 27 33 8b bd e0 5a dc bd
       0.10535979 0.18055241 -0.06796866 -0.107595205
000030 a9 49 70 3d bc 4f fb bb 4e 56 1a be b3 a9 2f 3e
       0.058663998 -0.007669417 -0.15071985 0.17154579
000040 a1 eb bf be 8d 8a 83 3e 91 e1 5d 3e 8f e8 e9 bd
       -0.37484458 0.25691643 0.21668078 -0.1142131
000050 60 1b b4 3c e4 fd 5c be 44 2a e7 3d b9 70 bc bd
       0.02198571 -0.21581227 0.112873584 -0.09201188
000060 94 f0 bd be 8c 2a c4 bd 6a 57 fe bd 4f 3b dd 3c
       -0.3709761 -0.09578428 -0.12419017 0.02700582
000070 f3 d1 9d 3e 0d e9 81 3d a1 0c e3 bd 28 35 69 bc
       0.3082424 0.06343279 -0.11086393 -0.014233865
000080 23 c4 c0 bd 87 26 9d be bc 0a 53 be 2c e4 2b bd
       -0.0941241 -0.30693457 -0.20609564 -0.04196565
000090 17 54 65 be 8a 50 fb 3d f7 eb 06 3e fe db ac be
       -0.22395359 0.12271221 0.13175951 -0.3376159
0000a0 2e c3 23 3e be 8c 63 be 37 9c b3 bb 7b 28 8a 3e
       0.15992424 -0.22221658 -0.0054812687 0.2698401
0000b0 31 ce 54 be db 7f db bc f8 1c 8e 3e d4 7d 89 be
       -0.20781781 -0.026794365 0.27756476 -0.26853812
0000c0 a3 05 97 3e 6c 29 b1 be 56 b2 65 be fe 44 fa bd
       0.29496488 -0.34601915 -0.22431311 -0.122201905
0000d0 78 78 0c be 35 64 53 3d 6f 78 37 3e d6 37 bc be
       -0.1371783 0.051609237 0.17917036 -0.3676135
0000e0 d3 1d e1 3d 6f 26 b2 bd 5e b6 a9 be 40 04 7b be
       0.10992017 -0.08698737 -0.33146948 -0.2451334
0000f0 3e 9b cf be 78 3d 83 be 77 00 db 3d 3b 4c 75 3e
       -0.40548128 -0.25632834 0.10693448 0.23954861
000100 b9 5e 6b 3e 16 19 d0 bd 0d 75 1c 3e 7f 1c b6 be
       0.22985353 -0.10161035 0.15279026 -0.35568616
000110 18 cf 63 bd c5 aa 0a bd 71 4d ab be 1b 65 0a 3e
       -0.055617422 -0.033854265 -0.3345752 0.13515131
000120 9a 37 85 be 16 2f 53 be 43 fd 33 3e d7 ce a2 be
       -0.26018983 -0.2062343 0.1757708 -0.3179843
000130 46 fd 85 3e 64 54 73 be a7 f0 5c 3e 56 54 29 3d
       0.26169795 -0.23762661 0.21576177 0.041340195
000140 9b 40 c9 3a 86 82 cd bd b1 0e 1e be c9 92 70 be
       0.0015354337 -0.10034661 -0.15435292 -0.23493494
000150 35 be 39 be cc 7b 85 be a3 59 b5 be 4d 00 4f be
       -0.18138964 -0.26071012 -0.3541995 -0.20214958
000160 0f b3 82 b9 49 e9 69 bd a3 2b 06 be 9f e6 57 3e
       -0.0002492894 -0.057107244 -0.13102584 0.21084069
000170 2c 9c 28 3e 4c a6 ac 3e d8 7f 2b 3e f3 c8 65 bb
       0.16465825 0.33720624 0.16747987 -0.0035062402
000180 6c d5 82 3e e3 f8 82 3e 36 90 86 3e e7 4b a4 be
       0.25553453 0.2558051 0.262819 -0.3208916
000190 ea e7 d0 bc 16 14 13 3e 57 d6 0d 3d b7 2c 9d 3e
       -0.02550121 0.14363131 0.03462824 0.30698177
0001a0 60 ce 11 3d 78 67 c7 3d 12 83 37 be c4 9c 96 3e
       0.035597205 0.09736532 -0.17921093 0.29416478
0001b0 62 10 54 be 55 02 96 bd 68 9b bc 3e 0a 94 3a 3e
       -0.20709375 -0.073246635 0.36837316 0.18220535
0001c0 61 04 b2 be b6 cd c2 be fe ed af bd ed 34 88 bd
       -0.34768966 -0.3804757 -0.08590315 -0.0665072
0001d0 6e 65 14 be ba d7 0a 3e 81 fc e4 bd 4a b3 8a 3e
       -0.14491817 0.13558856 -0.11180974 0.27089912
0001e0 ea c2 b2 3e 86 4e 96 be 0e 8a 55 3d 0d 03 96 bd
       0.34914333 -0.29356784 0.052133612 -0.07324801
0001f0 c9 c6 8c 3e 17 e9 c8 bd 9c 32 c6 3e 39 84 a4 3e
       0.2749541 -0.09810083 0.38710487 0.32132128

layers.0.W_att.weight f4 [128, 128]
000000 09 90 04 be 06 65 93 3c e4 30 9c 3d eb 97 9b bd
       -0.1294557 0.017992508 0.07626513 -0.075973354
000010 e8 b3 47 bd 2d 4e aa 3d 6c 7c b2 3c 5a 9f 87 bc
       -0.048755556 0.08315692 0.021787845 -0.016555477
000020 d1 58 74 3d 29 0f eb bc ef 46 8a 3b b7 cb 0d bd
       0.059655014 -0.028693752 0.0042198817 -0.034618106
000030 db 2f 3e bd d5 99 0c 3c da 30 4c 3d dd a5 5c 3c
       -0.046432357 0.008581598 0.049851276 0.013467279
000040 2c 71 ef bb 1f 31 9e 3d 6c 40 6b bd fc 62 cc bd
       -0.0073071923 0.07724213 -0.057434484 -0.09979817
000050 97 29 90 3c 41 7d 3c 3d 58 a9 ab 3d fa 3f 87 3d
       0.017597957 0.04601789 0.08381909 0.066039994
000060 87 46 b7 bd 3f 32 66 b9 b3 05 74 3d a4 6d 6d bc
       -0.08948999 -0.00021953227 0.059575748 -0.014491472
000070 1a 9f f1 bd 9f 16 18 3d ec af bf 3c 58 b6 e8 3a
       -0.11797924 0.03713095 0.023399316 0.0017754538
000080 db a1 73 3d cb 82 be bd 42 0d 8e bb 34 d0 f4 3c
       0.05948053 -0.093022905 -0.0043350765 0.029884435
000090 db fa 95 3d 2f ac 12 3d 30 6e 74 bd 45 18 be 3c
       0.073232375 0.03580874 -0.059675395 0.023204932
0000a0 5f 0f e2 3c 5a 0d 2b 3d c9 cd 82 bd 9e bc 50 bc
       0.02759522 0.04176078 -0.06386907 -0.012740282
0000b0 83 10 94 3c f8 e3 35 3d 66 e9 c7 3c fe 3f 34 3d
       0.01807428 0.04440686 0.024403285 0.04400634
0000c0 96 55 76 3b 60 30 a7 bd cb 42 44 bc 10 e4 66 3d
       0.0037587634 -0.08163524 -0.011978815 0.05636984
0000d0 4c fd 91 bc f5 fa 5e bd 53 7d cc bc 99 1b 34 bd
       -0.017820977 -0.05443855 -0.024962103 -0.04397163
0000e0 c5 e4 09 bd e9 f4 61 3c 34 9b 90 3d a8 7f 8d 3d
       -0.033665437 0.013791301 0.07060853 0.06909114
0000f0 b7 4e 90 bb 29 49 ff 3a de 75 ba 3c b8 21 8d 3d
       -0.004403915 0.001947676 0.022761282 0.06891197
000100 d1 46 da bd 8d 9d cf bc 90 00 e5 bd 08 51 ac bc
       -0.106580384 -0.02534368 -0.11181748 -0.021034732
000110 b7 b6 52 bd 51 09 f3 bd cc da 29 3d 03 7b 82 bb
       -0.05144378 -0.11867011 0.041468427 -0.0039819493
000120 f7 05 d7 bc a0 92 a4 3d 1c 5f 3b bd f6 81 7e 3d
       -0.026247961 0.08035779 -0.045745 0.06213566
000130 86 b0 bf 3a 65 3a 87 bc 5b 25 5e bd 32 ec 9a bd
       0.0014624752 -0.016507337 -0.054234844 -0.07564582
000140 c6 8b 96 3b 2c c8 15 3d f8 e7 a5 3c d2 9d d8 3b
       0.004594299 0.036567852 0.020252213 0.0066106105
000150 6b 44 5f bd 0b 77 73 3d 16 1d 68 bd d5 15 74 3d
       -0.054508608 0.0594397 -0.056668364 0.059591133
000160 00 c1 e2 bd d2 fb 4f 3d 0a c5 97 bc 83 a3 d0 3c
       -0.11071968 0.050777264 -0.018526573 0.025468593
000170 65 17 93 bd 75 12 09 3d 8c 3d c9 bd ff 15 84 bd
       -0.071821965 0.033464868 -0.09826192 -0.06449508
000180 17 d9 35 bd 9b 5a a7 bd 74 0e 47 3d 1c 92 b1 3d
       -0.044396486 -0.081715785 0.048597768 0.08670446
000190 6e 93 3f bd df 2f c6 bd 84 48 3c bd fb 88 ad 3d
       -0.04677146 -0.096770994 -0.045967594 0.084733926
0001a0 fa 5e bb 3d 90 1d 89 3d cd c2 ed bd b6 b9 c0 3d
       0.09148975 0.06695092 -0.11609421 0.094104216
0001b0 23 a2 69 3d be 51 58 3d 23 6c cf bc ed 90 86 bd
       0.05703939 0.05281233 -0.025320118 -0.06570611
0001c0 14 6c 89 bd 70 ad 98 bd c6 e9 1c bc 39 2e 21 3d
       -0.067100674 -0.074549556 -0.00957722 0.039350722
0001d0 4a 68 a9 bc ba 79 52 3d 0c ff ad 3d 54 58 69 bd
       -0.020679612 0.05138562 0.08495912 -0.056969002
0001e0 6c ca c9 bb 35 29 69 3d d5 86 5b 3d 9e 89 19 3d
       -0.006158164 0.056924064 0.053595383 0.037484758
0001f0 0c 05 08 3d 37 09 0c 3d 47 1e c2 3c 65 81 fa 3c
       0.033207938 0.034188475 0.023696078 0.030579278
000200 d1 bf 9c bc c9 2f 0c bd 96 24 e1 bb 04 5c a5 3d
       -0.019134434 -0.03422526 -0.0068708165 0.08074191
000210 5a 0c 33 3d 18 03 48 bd a9 1c 71 3b 7c 5a 3e 3d
       0.04371295 -0.048831075 0.0036790764 0.04647301
000220 12 fb 84 3d 98 d3 da ba fd 10 9d 3d f0 66 75 bc
       0.064932 -0.001669514 0.07669256 -0.0149781555
000230 c1 70 47 3b 33 cd 1e 3d 29 19 55 3d 8f 2b c6 bd
       0.0030432197 0.038769912 0.052025948 -0.09676277
000240 ab 15 5a 3b 3e 51 56 bd b6 49 2b bd 5e 28 4e bd
       0.0033277075 -0.052323572 -0.041818343 -0.050331466
000250 16 74 83 3d e5 50 60 3d 53 d7 9e bd 19 d1 bb bd
       0.06418626 0.054764647 -0.077559136 -0.091707416
000260 d2 42 66 3d b0 04 02 3c 87 fa e7 bc fe d1 93 3d
       0.05621607 0.007935688 -0.028317703 0.07217787
000270 e9 a3 08 3c 26 9e 27 3d 37 25 65 bc f6 21 13 3d
       0.0083398605 0.040922306 -0.0139859235 0.03592106
000280 1e 16 36 3d 45 ce 43 bd 75 96 cf 3d 31 c7 ef 3b
       0.044454686 -0.047804136 0.10136119 0.0073174466
000290 b9 1d a0 bd 0d 7a 8b 3d f6 23 98 3a 50 3b 06 3c
       -0.07818169 0.06810389 0.0011607397 0.008192852
0002a0 a8 60 c6 bc 0e bb 81 3d 5e 9b ab 3d 80 b8 e7 3c
       -0.024216011 0.06334506 0.08379243 0.028286219
0002b0 5d 9f 0d bd bf ae ac bd e9 be 5a bd 19 cb 10 bd
       -0.03457581 -0.08431768 -0.053404722 -0.03534994
0002c0 d2 c1 82 bd 0a af ca 3c 0f aa 7d bc 92 ec ba bd
       -0.063846245 0.024741668 -0.01548244 -0.091271535
0002d0 21 ac 1e bc b4 3a 56 3d 7b 2d 4d 3b 64 31 68 3d
       -0.009684593 0.052302077 0.0031307626 0.056687728
0002e0 2b 8b c1 bc b4 17 dc bc 5b 1d 3c 3d 1e 67 9d 3d
       -0.02362593 -0.026866771 0.045926433 0.07685684
0002f0 f4 16 1a bd 3f 91 4d 3d bd 18 4c 3d aa 0f 82 3d
       -0.037619546 0.050187346 0.04982828 0.06350644
000300 ae 80 a0 3d 71 c4 8f 3d 18 65 db 3c ce 01 88 3d
       0.07837044 0.0701989 0.026781604 0.06640969
000310 22 5f 6b 3c 5a 34 d4 3d f7 02 a5 bc 65 80 e8 3c
       0.014365943 0.10361548 -0.020143015 0.028381536
000320 06 83 70 3d ff 9b 92 3d 88 49 6d bd a0 ed 7e 3b
       0.058718704 0.0715866 -0.057931453 0.003889896
000330 63 80 f3 bc 90 b1 a5 3d 69 f3 4a bd 33 be bd bc
       -0.029724305 0.08090508 -0.04954854 -0.023161983
000340 0b 8a 5d 3d 64 57 9f bb 60 17 7b bd 4b 3e 6c bd
       0.054086726 -0.0048627127 -0.06130159 -0.057676595
000350 d4 d7 09 3d cb 17 df 3c 5f 5a a6 bd c3 0e 1c bd
       0.033653095 0.027233025 -0.08122706 -0.038100015
000360 2a b9 bf 3c 58 f5 74 3b 36 67 35 3c 9b 56 d4 3d
       0.023403723 0.0037377682 0.011071971 0.10368081
000370 6c f5 85 bc 30 68 ba 3c 16 be 8e 3d 5d d3 2b bd
       -0.016352378 0.022754759 0.0696985 -0.04194962
000380 77 9c 27 3d 8d 86 73 bd d3 db 30 3d 8a 45 fe 3b
       0.0409207 -0.05945449 0.04317839 0.0077597545
000390 a0 b9 fd 3c 0f c6 42 3c 6a 76 8d bd 6f 6e 42 bd
       0.030972302 0.011888041 -0.06907351 -0.0474686
0003a0 42 50 c0 3c b1 ef 93 3d 61 5e c7 3d ad 31 7e bc
       0.02347577 0.07223452 0.09734798 -0.015514773
0003b0 78 b8 50 3c 15 ad 8e 3d f4 74 66 3c db e5 25 bc
       0.012739293 0.069666065 0.01406597 -0.010125603
0003c0 41 74 87 3d db 7a a6 bd 14 e0 89 3c 8c ec 38 3d
       0.066139705 -0.081289016 0.016830482 0.045147464
0003d0 52 f6 11 3d a4 c1 f3 bd e9 48 5d 3c 0c f4 93 3d
       0.0356353 -0.119021684 0.013506153 0.072242826
0003e0 84 6a 79 bd bd d5 0f bd 50 ce 49 bd 9d 27 be bd
       -0.060892597 -0.035115946 -0.04926902 -0.092848994
0003f0 be 5c ac bc 82 f5 b1 bc 71 e9 f9 bb 04 43 7d 3b
       -0.021040317 -0.021723513 -0.0076267053 0.003864468

layers.0.phi_att.weight f4 [128, 128]
000000 4b be 29 bd 6e 8c 58 bd 05 34 d2 3c 5c 69 94 3d
       -0.041441243 -0.0528683 0.02565957 0.07246658
000010 e5 6a 2c 3d d1 91 a4 3d c5 13 ef 3c 94 88 36 3d
       0.04209413 0.08035625 0.029184232 0.044563845
000020 b9 0b 83 3d f5 13 52 bd dc 25 13 3c e3 2e 9a 3c
       0.0639872 -0.051288564 0.008981194 0.018821185
000030 fb 1a a4 3d 61 cd 93 bd 11 81 58 3d 3f 05 c4 bd
       0.080129586 -0.07216907 0.052857462 -0.09571313
000040 b6 2a e8 bc 12 d8 de bd 23 a3 b8 bc bf 5f 33 3d
       -0.028340679 -0.10881056 -0.022538727 0.043792482
000050 8c 39 00 bd ae 9f 97 3d 21 62 aa bd 84 86 7b bd
       -0.03130488 0.07403503 -0.08319498 -0.06140758
000060 65 05 93 3d 46 53 f4 3c 77 0f 65 bd 8e fe 9b bd
       0.07178763 0.029824864 -0.05592295 -0.07616912
000070 0e 84 99 3d 3b 50 aa bc 2d 83 99 3d bc 13 c2 3c
       0.074958906 -0.02079021 0.07495723 0.02369105
000080 2f 98 b9 3d a8 55 ff bc 31 c3 bb bc e6 03 f9 bc
       0.0906223 -0.031168774 -0.022920223 -0.030397367
000090 1c 25 e1 3a de 9e 85 bd ea 60 90 3d de bf f7 3c
       0.0017177197 -0.06524442 0.07049735 0.030242857
0000a0 a5 9b 53 3d d6 06 51 bc c1 a7 6a bd b8 17 4d 3d
       0.051662106 -0.0127579775 -0.05728889 0.050071448
0000b0 bf b2 2a 3d 24 81 fc 3b 09 68 d3 3d aa 9e 5c 3d
       0.04167437 0.0077058244 0.103225775 0.05386225
0000c0 11 9f 65 bd d1 ef 08 3d 87 a7 77 3d d5 4d 5d bd
       -0.0560599 0.03343183 0.0604625 -0.054029305
0000d0 33 34 9f bc 79 9e ac bd 29 b2 cb bc ba 1a a5 3d
       -0.01943407 -0.08428664 -0.024865227 0.08061738
0000e0 aa 04 97 3d 3d 90 87 bc 75 6a 99 3d 55 3a 9f 3d
       0.073739365 -0.01654827 0.07491008 0.07774798
0000f0 e5 55 6b 3d ed 75 87 bd ee 55 cc ba 9c 3d d9 3c
       0.057454962 -0.066142894 -0.0015589574 0.026518635
000100 30 fd b6 3d 18 48 7e 3d 93 2a 00 3c cc ab 1d bc
       0.089350104 0.062080473 0.0078226505 -0.009623479
000110 24 c0 8a 3d 0b 2b 96 3d 5d 49 5e 3d 4a e4 07 bd
       0.06774929 0.073324285 0.054269183 -0.033176698
000120 74 3a cc 3c d0 cb 91 ba 80 3e b5 3d 40 fd 2c 3d
       0.024930216 -0.0011123363 0.088498116 0.042233706
000130 d8 86 79 bd 2a ea 03 3d 45 b4 ea 3c 6f ec a2 bd
       -0.060919613 0.032205738 0.028650412 -0.079552524
000140 2c 36 b2 bc 75 8c 84 3d b7 2b ca 3d 26 41 25 3d
       -0.021754347 0.064721026 0.09871619 0.040345334
000150 3a e2 70 bd 59 68 69 3c 82 33 65 3d ef e1 ac 3d
       -0.058809496 0.01424607 0.055957325 0.08441531
000160 c8 e4 8c bd cd 8a 3e bd a3 cc ea 3b da 7a b6 3d
       -0.06879574 -0.04651909 0.007165508 0.08910151
000170 bd ab 3f bd 0a 99 45 bd 8b b2 71 3d 19 39 81 bc
       -0.04679464 -0.048241653 0.059008162 -0.015774297
000180 a1 36 58 3c f7 87 cd bc 21 10 e9 bc f2 7e 2b 3d
       0.013196618 -0.025089247 -0.028450074 0.04186911
000190 28 56 6e 3d 8e 61 e7 3c e7 c9 8f bb f3 f1 03 3d
       0.058187634 0.02824476 -0.0043880823 0.032213163
0001a0 f8 8c 8a bd e4 ff cf bc dd 90 92 bd 1e 86 99 bd
       -0.06765169 -0.025390573 -0.07156537 -0.07496284
0001b0 51 1d b0 3d c5 d8 4e bd 61 31 a2 bd 20 83 2b 3d
       0.08599342 -0.050499696 -0.079195745 0.041873097
0001c0 63 3a b7 bc 48 fe a0 3d 04 d4 13 3d d3 49 0c bd
       -0.022366708 0.07861 0.036090866 -0.03425009
0001d0 78 37 ad bc 6f ff b6 bd bf bf a5 bd 14 6f db 3c
       -0.021144614 -0.08935439 -0.08093213 0.026786365
0001e0 9a 8d 4d bd 09 2f 50 bd e6 07 de bc ee a1 82 bd
       -0.05018387 -0.050826106 -0.027103376 -0.06378542
0001f0 41 d4 31 3d 80 49 98 bc a3 0c 80 3d a0 06 a6 bd
       0.04341531 -0.018589735 0.0625241 -0.08106732
000200 a0 87 3b bd c4 44 83 bd 26 33 86 3d 38 63 a9 3d
       -0.04578364 -0.064096004 0.065527245 0.082708776
000210 20 46 9f bc f1 e7 99 bd 50 50 14 3d 74 0a a1 3d
       -0.019442618 -0.075149424 0.036209404 0.07863322
000220 9b d1 ff 3b c6 44 93 bd 76 95 17 bd 84 d4 50 3d
       0.0078069693 -0.07190852 -0.03700777 0.05098392
000230 37 2f 14 bc 1b 07 62 bd c6 fb 30 bd 2b 1e 58 3d
       -0.00904446 -0.055182558 -0.04320886 0.052763145
000240 08 2f 61 3d 61 9c 88 3d 28 54 c3 3d d2 77 de 3c
       0.054976493 0.06670452 0.09537536 0.027156744
000250 52 85 35 bd f8 6d 60 3d 5f 67 9c bc cc 63 07 3a
       -0.044316597 0.054792374 -0.01909226 0.0005164712
000260 8a 73 20 bd 20 7f 1f 3b e6 ad a4 3d d0 b1 1b 3d
       -0.039172687 0.0024337247 0.08040981 0.038011372
000270 c6 00 ab 3d b7 08 98 3d 32 30 c3 3d 87 43 3d 3d
       0.08349757 0.07423537 0.09530677 0.046206977
000280 a7 55 0a bd 0a 02 ab bc cd 55 ca 3d b1 cb 71 3d
       -0.03377309 -0.020874996 0.098796465 0.059032146
000290 24 50 b5 3c 34 15 92 bc 3b c9 bb 3d f2 d1 84 bd
       0.02213294 -0.017832376 0.09169241 -0.064853564
0002a0 8d a8 9d 3d f7 9b a0 3c f5 52 64 3d 5a 5d 10 bd
       0.07698164 0.01960562 0.055743176 -0.035245277
0002b0 e1 cc ee bc 3e 32 ae bd be 01 13 3d 6f d2 9f 3d
       -0.029150428 -0.08505677 0.035890333 0.07803809
0002c0 68 b6 bf bd ae 23 62 3d f6 ca 0c 3c ed 44 18 bd
       -0.09360963 0.055209808 0.0085933115 -0.037175108
0002d0 09 bf eb 3c 9f fe 24 bd 7b 99 35 3d c0 e3 82 bd
       0.028777616 -0.040281888 0.044335824 -0.06391096
0002e0 39 56 01 3d ca c7 36 3d 0b 38 a6 3c a3 ba f0 bc
       0.03157637 0.044624127 0.020290395 -0.02938587
0002f0 ce 89 c5 3d ab e0 61 3d 93 50 a1 bd 99 20 85 bd
       0.09645425 0.0551459 -0.078766964 -0.06500358
000300 20 6f 0e bd f8 d0 8f bd ed d0 4b bd 09 e5 ab bd
       -0.034773946 -0.070222795 -0.049759794 -0.08393294
000310 46 71 68 3d e1 f4 07 bc 8e 2c 38 bd 51 f0 ee bb
       0.05674865 -0.00829813 -0.044964366 -0.0072918315
000320 74 e3 89 bd 37 57 98 3b fc e6 90 3c 9b 26 8b bc
       -0.06732836 0.0046490687 0.017688267 -0.016986182
000330 9e f6 e7 3d 76 cd 81 bd 99 d5 30 3c 64 7b 09 bd
       0.11326335 -0.06338017 0.010793113 -0.03356494
000340 ce 82 99 3d a2 8c 0b 3d 0b 90 86 bb f6 56 9f 3d
       0.07495652 0.034069665 -0.0041065267 0.07780258
000350 e3 cb 7a bd fe 0c 6f bd fc 8f 6e 3c 7e 31 32 3c
       -0.061229598 -0.058362 0.014560696 0.010876058
000360 58 6a 94 3d 07 a9 66 3c 9b 48 b2 bd fb 2f 8c 3d
       0.07246846 0.014078385 -0.08705255 0.06845089
000370 2c 1f a4 3d a0 f3 bc bd 4d 1d de 3d 83 02 5f 3d
       0.08013758 -0.09226155 0.108454324 0.054445755
000380 78 3b 75 bd 3c 51 a2 bd 2a 37 87 bd 82 d9 5f bd
       -0.059871167 -0.079256505 -0.066023186 -0.05465079
000390 b5 d4 95 bd 6d 90 a3 3d ff 18 4c ba 21 e6 7b 3d
       -0.07315961 0.079865314 -0.0007785707 0.061498765
0003a0 57 45 51 3d 32 87 31 3d 82 69 0c bb c4 c3 7f 3d
       0.05109152 0.043341823 -0.0021425192 0.062442556
0003b0 0f db 09 3d 1d d9 9a bc 04 44 af bd a3 66 ed ba
       0.033656176 -0.018902356 -0.08557895 -0.0018112253
0003c0 4f e1 8d bd 03 36 4a 3d 84 a7 86 3d a3 38 14 bc
       -0.0692774 0.049367916 0.0657492 -0.009046706
0003d0 05 f2 5b bc e8 52 8a 3c e1 d4 09 3d 44 eb a9 3d
       -0.013424401 0.016885236 0.033650283 0.082968265
0003e0 d8 ad 8e 3d 1b 39 cd bd 51 a3 2b 3d 33 2b 89 bd
       0.06966752 -0.10020658 0.041903798 -0.06697693
0003f0 e1 e6 74 3d db 3a cb bd 69 5b 44 bd c0 c6 a6 3d
       0.059790496 -0.09923335 -0.047938738 0.08143377

layers.0.phi_att.bias f4 [128]
000000 d3 d6 d4 bc fb 1b 2b bd 57 a8 6a bd 3d 11 9a bd
       -0.025981342 -0.04177473 -0.057289448 -0.07522819
000010 1b b8 e9 3c ad 20 4f 3d 3c 15 6f bd 61 ca a5 3d
       0.028530171 0.05056827 -0.05836986 0.08095241
000020 c3 4b f8 3c 26 76 62 3d b3 2f 59 bc 55 fc 72 3d
       0.030309564 0.055288456 -0.013256001 0.059322674
000030 ed 3a 90 3d ba 1a a7 3d 5c 6c 0c 3d f5 4b 1a bc
       0.07042489 0.081593946 0.034283027 -0.009417524
000040 62 87 b4 3d 05 7c 83 bd 23 b8 8b 3c 38 1e aa 3d
       0.08814885 -0.06420139 0.017055577 0.08306545
000050 14 30 4d 3d f9 59 56 bd 1d 68 4c 3d ae 49 a2 3c
       0.05009468 -0.0523319 0.049903978 0.019810524
000060 04 e0 54 3d ac 4c 9c bd ac c9 49 bd 77 ca df bc
       0.05197145 -0.076318115 -0.049264595 -0.027318222
000070 7c 41 36 bd 5d b1 de bc 21 9b 0f 3d 40 0a 31 3d
       -0.044496045 -0.027184183 0.03506005 0.043222666
000080 d1 5c b8 bb 83 89 c5 bc fb 56 1d 3c 61 98 ba bc
       -0.005626299 -0.024113422 0.009603257 -0.022777738
000090 00 31 b1 bd 0d d1 8c bd a9 36 91 bc 84 5e 41 bd
       -0.08651924 -0.06875811 -0.01772626 -0.047209278
0000a0 f9 de 98 3c d1 4e 05 3d d3 15 fa b9 bc 26 7f 3d
       0.01866101 0.03254587 -0.00047699976 0.0622928
0000b0 72 33 9e bd bf 93 7c bd 0c 1f 70 bd 5a 67 aa bd
       -0.07724656 -0.06166434 -0.05862336 -0.08320494
0000c0 64 85 92 bc e9 89 2f 3d 90 2a 65 3d f4 b4 36 bd
       -0.017885871 0.04285613 0.055948794 -0.044606164
0000d0 ca 0d 43 bd f7 36 03 3d ef c2 a7 bd 10 26 65 bd
       -0.047620572 0.03203484 -0.081914775 -0.055944502
0000e0 9c aa 3f 3d 16 d3 9b bc 91 23 ad bd 7e 88 8a bd
       0.046793565 -0.019021552 -0.084540494 -0.06764315
0000f0 ea c8 af bc 52 64 1f bd 61 02 58 bd 75 d1 a1 3d
       -0.021458108 -0.038914032 -0.052736644 0.07901279
000100 2a 00 89 3d 1c ab eb 3a 5e 3b 2e 3b 3d d8 97 3c
       0.066894844 0.0017980072 0.0026585679 0.018535728
000110 12 ce 84 3d f8 89 a8 3d 47 fd 3b bd bc 23 a6 bc
       0.06484617 0.082294405 -0.04589584 -0.020280711
000120 5a 97 4d 3c 52 b1 87 3d 03 c3 ad bd 7d 5b 67 bd
       0.012548292 0.06625618 -0.08484461 -0.056483734
000130 06 58 a2 3d e5 68 ad 3d 3a 99 0a 3d 8e 41 58 3d
       0.079269454 0.08467273 0.033837534 0.052796893
000140 3b 97 e5 bc 2c d1 6c bd bd d6 1a bd b7 ba b4 bd
       -0.028026214 -0.05781667 -0.037802447 -0.088246755
000150 36 52 85 bd e2 2a 65 3d 2e f5 99 3d bf a4 3a 3d
       -0.06509821 0.0559491 0.075174674 0.04556727
000160 84 14 6d bd f8 e0 4a bd 74 de 07 bc 76 b9 9a 3d
       -0.057880893 -0.049530953 -0.008292783 0.07554905
000170 0f 52 b5 bc 9c 77 92 bd 93 e8 a8 bc d4 ce a3 bd
       -0.022133855 -0.0715172 -0.020618713 -0.07998434
000180 23 d9 8f 3d 6a 04 37 bc 17 4f 1d 3d e2 66 ab bd
       0.070238374 -0.011170486 0.038405504 -0.08369233
000190 fb 4f 9b 3d c1 cc 89 bd 99 e6 5c 3d 0c 1d 2e bd
       0.075836144 -0.06728507 0.053930853 -0.04250817
0001a0 9a c3 d5 3c ce 05 5c 3d e6 e0 92 bd b3 77 44 bd
       0.026094247 0.053716473 -0.07171802 -0.047965717
0001b0 4a 0f 4e bd 8c 86 36 3d d1 7a 62 3d e4 5f 8c 3d
       -0.05030755 0.044561908 0.055292908 0.06854227
0001c0 47 e8 98 bd 9c fd 7c bb 9d 7c 39 3d 8e 08 2f 3d
       -0.074661784 -0.0038603311 0.045284856 0.042732768
0001d0 70 bc 95 bd c4 1e 80 bd 06 be ed bc 37 d8 82 bd
       -0.07311332 -0.06255868 -0.029021274 -0.06388896
0001e0 a3 ba 70 3d e7 c8 4e bd d6 02 9b 3c 82 6c 02 3d
       0.05877174 -0.050484564 0.01892225 0.031841762
0001f0 41 e5 3f 3d 02 23 0d 3c a1 cd 87 3c 97 ac 6c bd
       0.046849493 0.008614304 0.016577544 -0.057781782

layers.0.W_p.weight f4 [128, 128]
000000 e0 9d 53 bd 0a 90 cf bb 30 98 f0 3c b3 70 b4 bc
       -0.051664233 -0.0063343095 0.029369444 -0.022026395
000010 a9 2f b4 bd d3 ee 82 3d e3 f7 c6 bd 4d c2 41 bd
       -0.08798153 0.06393208 -0.097152494 -0.04730444
000020 3b 51 5a 3d b7 80 86 bd f9 1a 8b bc d4 34 7e 3d
       0.053300124 -0.06567519 -0.016980635 0.0620621
000030 7d 4a 88 3d 22 5c 8b 3d 9b d3 74 3d 80 a4 2d 3d
       0.066548325 0.06804682 0.059772115 0.042393208
000040 97 b8 9d bd 3a 67 3a bc 72 ff 0e 3d f8 c0 13 3d
       -0.07701223 -0.01137715 0.03491158 0.0360727
000050 02 0d 00 bd e1 3c 9d 3d 8c 50 a6 bd f4 8d 16 3b
       -0.031262405 0.07677627 -0.08120832 0.0022972794
000060 6e 9b 37 3d 06 1d ee 3c 94 8d 25 3d a1 ba 39 3c
       0.044825964 0.029066574 0.040418223 0.011336
000070 18 f8 93 3d 55 ed 7a 3d 8a 40 8a bd b9 29 ad 3c
       0.072250545 0.061261494 -0.06750591 0.021138059
000080 60 7f 88 3d b0 46 43 bc b1 72 f4 3c 24 20 2f 3d
       0.0666492 -0.011918709 0.029839845 0.04275526
000090 37 74 9e bc 80 80 92 3d e1 2c 06 3d e5 0c 38 bd
       -0.019342525 0.07153416 0.032757644 -0.044934172
0000a0 79 e0 ed 39 4c b4 83 3d 45 70 27 3d e7 50 81 bd
       0.00045371408 0.06430873 0.040878553 -0.06314259
0000b0 09 81 29 3b e9 f8 43 3d 04 fe af 3d 8c 11 58 3d
       0.0025864264 0.0478448 0.085933715 0.05275111
0000c0 7f c3 72 bd 08 af 8e 3d c6 15 89 3d 79 5b 48 3c
       -0.05926847 0.06966978 0.06693606 0.01222884
0000d0 07 ba 43 3d 54 ac 87 bc 4e 27 0f bd 47 7c 2c bd
       0.04778483 -0.016561665 -0.034949593 -0.042110708
0000e0 dc c7 ee 3c 3b 8a ab bd 13 8b e8 bb 80 f7 86 3d
       0.029148035 -0.08375975 -0.007096657 0.06590176
0000f0 b8 51 36 3d 23 3a 51 3c 95 45 0e bd 78 43 2b 3d
       0.044511527 0.0127702085 -0.034734327 0.04181239
000100 25 b7 84 3d bb ac 97 bd 03 f4 97 bd 6c 39 b9 bd
       0.064802445 -0.074059926 -0.074195884 -0.090441555
000110 01 7f 2c 3c e1 fd be bc f6 56 fe ba 0a a2 65 bd
       0.010528327 -0.023314418 -0.0019404578 -0.056062736
000120 0e db b3 bd cd ad 18 3c 49 8d b0 bc 00 34 41 bd
       -0.08782016 0.009318781 -0.021551745 -0.04716873
000130 63 52 12 bd 65 d0 54 bb 4b a0 9d 3d 1a ef 75 3c
       -0.0357231 -0.0032472846 0.07696589 0.01501062
000140 b3 b2 a9 3d b7 21 f3 bc ba d0 6f bd 97 d4 94 3d
       0.08286037 -0.029679162 -0.058548667 0.07267111
000150 8c 2e 9f bd 49 b7 8b 3d 2e ed 76 3d cf af a7 bd
       -0.0777255 0.06822068 0.060284786 -0.0818783
000160 6a 71 0d 3d ce 9e 4b bd 2d 19 51 bd 2a 82 7d bd
       0.03453199 -0.049711995 -0.0510494 -0.061891712
000170 31 ea 78 bc 5b 5b 74 bc cd 80 76 3d 65 e0 8a 3d
       -0.015192554 -0.014914359 0.060181428 0.06781081
000180 b8 f0 62 3c 31 5a b8 3c 01 3e 25 bd 75 3d b0 bd
       0.013851337 0.022503944 -0.040342335 -0.08605472
000190 9d f8 ec bc ff ae 0e 3d 3e 7d 09 bd c7 de 53 bc
       -0.028927142 0.034834858 -0.033566706 -0.012931532
0001a0 e3 99 dc bc a1 12 68 3d 08 c8 ab bd 3c 1a b3 3c
       -0.026928848 0.05665839 -0.08387762 0.021863095
0001b0 db fd 6c 3d fe 03 f2 3c af 27 70 3b 0f b6 99 bd
       0.057859283 0.02954292 0.0036644747 -0.07505428
0001c0 b8 75 2f 3d 46 c1 0f 3d ea 03 72 bd 15 da 74 3c
       0.042836875 0.03509643 -0.059085764 0.014944573
0001d0 96 14 6c 3d df af 60 3c ce bc b9 3c 73 c4 ac 3c
       0.05763682 0.013713806 0.022673037 0.021089768
0001e0 5b 34 ba 3d e0 c3 7a 3d 8e ab 9c bc c3 97 8d 3d
       0.09092017 0.061221957 -0.019124772 0.06913712
0001f0 05 7f fa bb 04 38 58 3d 69 5e a5 3d a6 96 4b 3d
       -0.0076445364 0.052787796 0.08074648 0.049704216
000200 a6 c8 3f bd 28 fb 2b 3d b4 cb 83 3c 0e 6a 6d 3d
       -0.046822213 0.04198757 0.016088344 0.05796247
000210 a3 76 fe 3c de 41 cd bc 2d 9e e9 bc 2e 0b 89 bc
       0.03106243 -0.025055822 -0.028517807 -0.016728964
000220 ec 0e 2d 3b ad eb 6b 3d 83 eb a9 bd c0 28 0f bd
       0.00264066 0.057597805 -0.082968734 -0.03495097
000230 dc bb 2e 3d 83 d9 a9 3d f6 57 bd bd f9 77 9c bd
       0.042659625 0.0829344 -0.09245293 -0.076400705
000240 ef cd 9b 3d df 0a a1 3d 6e 8e 61 bd 8c 4f a2 bd
       0.07607638 0.078634016 -0.055067472 -0.079253286
000250 49 32 98 3d 3f 08 7f bc 18 01 0a bd 8f 5a aa 3d
       0.07431466 -0.015565931 -0.03369245 0.08318054
000260 cb 68 9e bd 5e 37 a6 3d 0c 0f 3f bd 2a f7 61 bd
       -0.077348314 0.08116029 -0.04664521 -0.055167355
000270 8b 95 13 bd a0 41 bc 3c 79 c6 d2 3c 8f 92 50 bd
       -0.036031287 0.022980511 0.025729405 -0.05092102
000280 b5 65 a0 3d 6a 41 88 bd c2 7f 82 bd 50 37 61 3c
       0.07831899 -0.06653102 -0.06372024 0.013746098
000290 85 d6 ab bd 33 ca 1b 3d 22 f2 e1 bc 26 82 a9 bc
       -0.08390526 0.03803463 -0.027581278 -0.020691942
0002a0 68 e4 86 3d 13 fb 7a bd 29 af 84 3d 4f 77 6c bc
       0.06586534 -0.0612746 0.06478722 -0.014432742
0002b0 f5 8a 23 3d 44 62 60 bd cb 3c 15 bd 13 70 45 3d
       0.03992744 -0.054781213 -0.03643493 0.048202585
0002c0 06 5d 04 3c 5c 36 41 3d 4a 81 74 bd 9e ec 0d 3d
       0.008078819 0.04717098 -0.059693612 0.034649484
0002d0 f9 18 88 bd 6e 49 a0 bd d5 96 0b bd c7 c8 86 3d
       -0.06645388 -0.078265056 -0.03407939 0.06581264
0002e0 d2 48 01 bc 25 8f 45 3d 14 3c 22 3b 1e 76 90 3d
       -0.007890897 0.048232216 0.0024755048 0.07053779
0002f0 f6 68 31 3b 6c c1 30 3c 74 90 81 bd 07 3c 85 bd
       0.0027070618 0.010788303 -0.0632638 -0.0650559
000300 74 d7 84 3d 0e a1 82 3d 32 22 66 3d 20 d7 46 bd
       0.06486407 0.06378375 0.056184955 -0.048545003
000310 89 08 83 3d 50 ac b4 bc 57 dd 58 3d 4a ab f9 3c
       0.06398112 -0.022054821 0.05294546 0.030477185
000320 94 b1 82 bd 10 bb b8 bd 20 da ad bc a4 04 8c bd
       -0.063815266 -0.09020054 -0.021222174 -0.06836823
000330 05 a4 ed 3c 3a 36 a0 bd a2 02 94 bc e4 b9 29 3d
       0.029008875 -0.07822843 -0.018067662 0.041437045
000340 20 69 39 bc db e4 0b 3d fc d6 8d 3d 92 2c 55 bb
       -0.011316568 0.0341538 0.06925771 -0.0032527787
000350 27 32 b0 bd c0 c5 75 bd 83 1e c2 3c d8 39 1f bd
       -0.08603316 -0.060003042 0.02369619 -0.038873523
000360 8f 68 4e bd 86 2b e6 ba b8 35 97 3d 71 9c a8 bc
       -0.050392684 -0.0017560578 0.07383293 -0.02058241
000370 9e c9 bc bc 9c 81 ef 3c 80 96 25 3c 26 8c f4 bc
       -0.023045357 0.029236607 0.010106683 -0.029851984
000380 1b de 6e 3d 55 57 3c 3d fb bf 3c 3d ca f9 2f bd
       0.058317285 0.045981724 0.046081524 -0.042962827
000390 c8 4d 94 3d 1b 83 73 bd 82 a8 e5 3c 04 25 9c 3b
       0.07241398 -0.059451204 0.028034452 0.004765155
0003a0 80 4e 71 bd a0 c2 2b bd c0 e6 a9 bd 83 60 5f bd
       -0.058912754 -0.041933656 -0.08295965 -0.0545354
0003b0 7a c5 99 bd 19 60 9c bd 8f d0 56 3d 64 00 79 3d
       -0.07508369 -0.07635517 0.05244499 0.06079139
0003c0 e1 51 f4 3c d3 4e fc bc b5 f5 90 3c bd 45 87 3d
       0.0298242 -0.030799305 0.017695287 0.066050984
0003d0 7f 1b 84 bd 1c 09 2a bd 8d ac 0d bd 01 a9 03 bd
       -0.06450557 -0.041512594 -0.034588385 -0.032143597
0003e0 b9 21 00 bc 10 bd 15 bd 54 3f a1 bd 8e f0 8e 3d
       -0.00782054 -0.036557257 -0.07873407 0.06979476
0003f0 ad 19 ed bc 61 77 57 bd e8 1f 54 bd 70 59 89 3d
       -0.028942907 -0.052604083 -0.05178824 0.06706512

layers.0.W_p_prime.weight f4 [128, 128]
000000 d6 29 9c bb 55 da b6 3d a1 74 b1 bc eb e9 97 3c
       -0.0047657294 0.08928362 -0.021662058 0.018544158
000010 f0 b6 85 3d 23 88 d5 3b dd 0d 96 bc 4c ec 80 3c
       0.06529033 0.006516473 -0.018317157 0.015737675
000020 20 9a 33 3d 2c d2 a1 bc da dc 45 3d 6a 16 9e 3c
       0.043848157 -0.019753538 0.048306324 0.019297797
000030 da 85 e8 3c 3b 33 6d bd 67 bb 60 bd e3 d5 9a bd
       0.028384138 -0.057910185 -0.05486622 -0.07560327
000040 86 c2 cc 3c 6f 63 a2 bd 4f 57 8f 3d 89 36 e5 bc
       0.0249951 -0.07929122 0.06999075 -0.027980106
000050 4c ba 8e bd ce 24 9b 3d bf 16 38 3d 6d 0b 07 3d
       -0.06969127 0.07575379 0.044943567 0.03296988
000060 cc c3 50 3c 13 52 1d 3c e5 37 a1 3d 83 1f 0e 3c
       0.012741994 0.009602088 0.07871989 0.008674505
000070 ed c5 4a 3d 6c 25 40 bc 35 c7 6a bd 7b 02 69 bc
       0.049505163 -0.011727672 -0.057318885 -0.014221783
000080 6f 52 bf 3b 3e ee 9b bd e1 ff 1e 3c 32 b0 9c bd
       0.0058386843 -0.076138005 0.009704561 -0.07650794
000090 eb b0 7c 3d f1 3b 98 bc d9 11 1d 3b ba e4 3c 3d
       0.06169216 -0.01858327 0.0023966937 0.04611657
0000a0 cc e8 3f bd ea 36 b6 bd f3 12 86 3d eb a0 55 bd
       -0.04685287 -0.08897193 0.06546583 -0.052155416
0000b0 a8 c8 c2 bc d6 22 51 3d c5 c6 8e bb de 49 12 bd
       -0.023777321 0.051058613 -0.0043571913 -0.035714976
0000c0 78 8f 76 3d 6d d0 c1 bc 2e 5a 38 3d 61 88 8c bd
       0.060195416 -0.023658955 0.045007877 -0.0686195
0000d0 11 6c a7 3b c8 21 2e 3d 9e 1b 01 bd 15 de 8f bd
       0.005109318 0.042512685 -0.03152048 -0.07024781
0000e0 c4 f5 8e bc 0e e0 83 3d c0 4c 16 3d 21 85 0c 3b
       -0.017451175 0.064392194 0.03669429 0.0021441656
0000f0 2d 3a 71 3c f8 14 d9 bc 1a a3 57 bd 2d e1 a2 3a
       0.014723343 -0.026499256 -0.05264578 0.0012426727
000100 d6 cf 49 3d f5 45 fe bb 31 b9 c9 3c ff 7d a0 bd
       0.049270473 -0.0077598044 0.024624439 -0.07836532
000110 56 07 3f 3d 7c a4 2b bd c7 3e a6 3d 1f 4a 51 3d
       0.046637855 -0.04190491 0.081174426 0.051096078
000120 ca 23 87 bd f0 09 90 bd 9f 0f 38 3d 68 9a 90 3d
       -0.06598623 -0.070331454 0.044936772 0.07060701
000130 11 70 98 bd fd 50 9a 3d 6e 80 0d 3d 9c d4 0c bd
       -0.0744325 0.075349785 0.03454631 -0.034382448
000140 5e 65 a8 3d 1e 84 18 3d 6b ad 81 3d ac f2 00 bc
       0.08222459 0.03723537 0.06331905 -0.0078703575
000150 27 44 6a bd f6 43 82 3d 9c e0 a1 bd a2 20 70 3d
       -0.0571939 0.06360619 -0.07904169 0.05862487
000160 c7 51 29 3d 1e 9f ef bb aa 68 24 bd 2b 8a 09 bd
       0.041337755 -0.0073126694 -0.040138878 -0.033579033
000170 3a e1 a9 3d 60 0b 79 3d 89 e4 4b bd e7 7a ae 3d
       0.08294912 0.060801864 -0.049778495 0.085195355
000180 0e 29 b5 bd a5 aa 38 bc 27 51 9f bd 6e 17 8f 3d
       -0.08845721 -0.011271154 -0.077791505 0.06986891
000190 c7 32 07 3d 8c 7c 5d 3d 16 ee 5a bd 74 f8 07 bd
       0.03300741 0.054073855 -0.053449713 -0.033195928
0001a0 f0 5b 89 3d 9d dd a2 bd b2 ab 0e bd 0e 08 29 3d
       0.06706989 -0.07952426 -0.03483171 0.041267447
0001b0 a0 34 ab bb ef 02 c6 bc d3 d8 6f 3d 2f a0 a9 3c
       -0.0052247792 -0.02417132 0.05855639 0.020706264
0001c0 2e 51 49 bc be 21 92 3d 42 89 fb bb 29 08 99 3d
       -0.012287421 0.07135342 -0.0076762745 0.074722596
0001d0 3e 58 5e 3d ef d9 9c 3d d9 04 9a bd 19 89 60 3d
       0.054283373 0.07658755 -0.07520456 0.054818247
0001e0 68 74 45 3d ad 0e 38 3d 64 91 d6 bc 9c 66 4a bd
       0.048206717 0.04493587 -0.026192375 -0.049414262
0001f0 b1 28 66 3d 06 48 6f bd 89 fc 3f 3d d7 c8 70 3d
       0.05619115 -0.058418296 0.046871696 0.058785286
000200 c9 64 a2 3c ac e2 35 bd eb d9 35 bd 38 71 92 3c
       0.019823449 -0.044405624 -0.044397276 0.017876253
000210 3e 7a d1 3d 51 25 01 bd bb 6f 28 3d 91 82 5a 3b
       0.10228394 -0.03152973 0.04112218 0.0033341984
000220 8b c9 94 bc 91 f0 2e bd 73 99 51 3d 5f 76 80 3d
       -0.01816251 -0.04270989 0.05117173 0.062725775
000230 94 4b a1 bd 07 30 c1 bc 8d 6b 9a 3c 95 8b 4f 3d
       -0.078757435 -0.023582472 0.018850112 0.050670225
000240 ec 9b 0b bd 69 32 93 bd 7f f7 15 bd 04 5e b5 bc
       -0.034084246 -0.07187349 -0.036612984 -0.022139557
000250 4a da bd 3c f8 9e ca 3b 2a fa a8 bd 4b ee 75 ba
       0.023175377 0.0061835013 -0.0825084 -0.0009381517
000260 dc 77 6b bc 26 4f 98 bc 59 bf 67 3d e5 8b a0 bb
       -0.014371838 -0.018592428 0.056578968 -0.004899489
000270 e2 7b f9 3c 79 ed 23 3d 28 70 7a 3d 8c a4 89 bd
       0.03045458 0.040021393 0.061142117 -0.06720838
000280 5a a6 be bc 55 5d a1 bc 2d 1d d6 bc ab aa 96 3b
       -0.023272682 -0.019697824 -0.026136959 0.004597982
000290 f0 50 26 bd 98 50 c6 3d 9d 4f 9f 3d a0 ec 6d 3d
       -0.04060453 0.09683341 0.07778857 0.05808699
0002a0 67 91 a9 bd d8 9a ab 3d e4 4d be ba 30 66 8f 3c
       -0.082796864 0.083791435 -0.0014519063 0.017504781
0002b0 1a d2 30 bd de 29 ae 3c 41 4c 7e 3c 78 e0 97 bd
       -0.04316912 0.021260198 0.01552111 -0.07415861
0002c0 d7 ad a3 bd 84 51 ba bc 40 fd b0 3d 12 82 21 bc
       -0.07992142 -0.022743948 0.086420536 -0.009857671
0002d0 aa 46 76 3b 7b 4a ad bd 83 e1 bf bc 48 83 76 3d
       0.003757874 -0.08461472 -0.023422962 0.060183793
0002e0 08 19 9c 3d da 2a 18 bd 64 a7 8e 3a d8 e6 2d 3d
       0.07621962 -0.03715024 0.0010883627 0.042456478
0002f0 4c a4 9a 3d be 24 a8 3d 12 29 9b 3c 50 1d 3d bc
       0.075508684 0.08210133 0.018940482 -0.011542633
000300 60 44 50 3d d9 e8 c9 3a 86 71 99 3d f8 1b 8b bd
       0.050846457 0.0015404477 0.07492356 -0.06792444
000310 fc 0e 37 3d 68 bd 42 3d f0 9d be ba 42 2b fb 3c
       0.044692025 0.047543913 -0.0014542919 0.030660275
000320 b3 ef 8b 3d 7a bc 07 bd 4b 66 9f bd f4 25 81 3d
       0.068328284 -0.03313873 -0.07783183 0.06306067
000330 97 2b 4f bd f8 00 95 bd ff 70 36 3d 7c a7 d8 bc
       -0.05057868 -0.072755754 0.044541355 -0.02644705
000340 21 5f 8d 3d 8c 60 82 3d a9 ca ae bc 3b 5e 44 3b
       0.0690291 0.06366071 -0.02133687 0.0029963392
000350 37 11 8a 3d c2 b2 72 bd ef 08 a9 3d 3d 09 1c 3d
       0.06741565 -0.059252508 0.08253657 0.038094748
000360 60 c3 d5 3c 4f 55 00 bd b3 ac 36 3d 58 57 96 bd
       0.026094139 -0.031331357 0.044598293 -0.07340878
000370 6f 05 bd 3d a9 6f 9e bd c4 70 96 bd 10 d0 7e b9
       0.09229552 -0.07736141 -0.07345727 -0.00024300837
000380 9a 3d 0d 3d 0d da 23 bb 9a a4 94 3d 98 cf 8c bd
       0.034482576 -0.0025001795 0.07257958 -0.06875533
000390 f9 5a a8 bd b3 99 6b 3d da f3 9f bd 09 91 2c 3d
       -0.08220477 0.057519626 -0.07810183 0.042130504
0003a0 66 58 99 3d 5c 4f 69 3c ac 40 a2 bd b9 39 dc bb
       0.07487564 0.014240112 -0.079224914 -0.0067207483
0003b0 24 95 2e 3d 32 30 07 3d 4b 14 01 3d 0a 8c 45 3b
       0.0426227 0.033004947 0.031513494 0.0030143284
0003c0 59 01 0b 3d 4a 7d 5a 3c 29 4b 41 3d 64 b7 1b 3d
       0.033936832 0.013335535 0.04719082 0.03801669
0003d0 20 bc 33 3d d4 22 9a 3d 2e 67 3c 3d 58 97 ae 3d
       0.04388058 0.07526174 0.045996837 0.0852496
0003e0 35 cc 26 3d 9f ed 3d 3b 13 b9 fd 3b c3 ca f6 3b
       0.04072209 0.0028980745 0.00774301 0.0075314953
0003f0 a8 1b 81 bc cf 15 61 3d c4 57 54 bd f4 a1 c6 bd
       -0.015760258 0.05495244 -0.051841512 -0.09698859

layers.0.f_def.weight f4 [1, 128]
000000 93 0f 9d bc 6c 64 d9 3c eb f6 10 3d e3 0d b4 3d
       -0.019172465 0.026537143 0.03539173 0.08791711
000010 75 fb 88 3d 02 9c ab ba 4c de b5 3d f6 8f 8e bd
       0.066885866 -0.0013092759 0.088802904 -0.06961052
000020 77 4b dd 3b 6d 31 20 bc bb fe 99 3d 81 d6 95 3d
       0.006753381 -0.009777409 0.07519289 0.07316304
000030 49 35 fd 3d 92 7f 9a bd d3 a5 db 3d 8d 79 1f bb
       0.12363679 -0.07543863 0.10724988 -0.0024333925
000040 59 8d 42 bd 82 cb 51 bd 27 95 87 3d 75 2b 5d bc
       -0.04749808 -0.05121947 0.066202454 -0.0134991305
000050 f1 be f9 bd 8e 1a 5a 3c 4f f3 a1 3a 45 19 1a bd
       -0.12194622 0.013311995 0.0012355837 -0.037621755
000060 23 ca 9d bd 5c cc c6 3d f2 09 df 3d 8d a9 fc bd
       -0.0770457 0.09706947 0.10890569 -0.12337027
000070 7b 20 e0 bc 58 74 07 3d 26 23 15 3d 95 1a ba bd
       -0.027359238 0.03306994 0.036410473 -0.09087101
000080 75 d1 d4 3c 6c bb 25 3d c4 b1 95 bc a4 af fe 3d
       0.025978783 0.040461943 -0.018273242 0.124358445
000090 33 be 66 3d ec d9 3c 3d 39 d9 3c 3d c2 6d ee bc
       0.05633373 0.046106264 0.046105597 -0.029105071
0000a0 50 46 91 bd b7 f0 0d bc 6e 6d be 3c 3f a6 a0 3d
       -0.07093489 -0.008663348 0.02324554 0.07844209
0000b0 31 f6 5a 3c 6d 6e 8e bc a7 14 a8 bc a3 05 be 3d
       0.013364361 -0.01738664 -0.02051766 0.09278419
0000c0 23 fd b2 bc 40 0e a2 bd 49 4f c3 3d 82 0b 92 bb
       -0.02184922 -0.07912874 0.09536607 -0.0044569382
0000d0 bf 66 d7 bc 2d 58 9d 3d 25 af 8f bd ac d4 8e 3d
       -0.02629411 0.07682834 -0.07015828 0.06974158
0000e0 19 20 4b 3d 0f 88 86 3c 54 e9 da 3c 94 ea 9f bc
       0.049591158 0.0164223 0.026722588 -0.019521035
0000f0 80 b2 e1 3d 13 05 f1 bc a5 52 68 bb a0 86 ef 3c
       0.11020374 -0.029421365 -0.003544965 0.029238999
000100 26 7b 17 bd 32 a1 71 bd 96 18 c1 ba 6d 47 eb bd
       -0.036982678 -0.05899162 -0.0014732059 -0.11488233
000110 41 4f 05 bd ac c0 bd 3c c7 65 d0 3d 9f 5e 07 3e
       -0.032546286 0.023163162 0.101756625 0.13219689
000120 74 2a 86 bd fb d1 3c 3d d4 14 3e 3c f3 85 08 3e
       -0.06551066 0.04609869 0.0116016455 0.13332348
000130 fb 56 56 3d cf e3 bd bd cf dc 2d bd b5 af 14 be
       0.052329045 -0.09271967 -0.042446908 -0.14520152
000140 2f 41 b4 3d d3 c3 04 3d 50 41 b4 3d e3 59 b7 bd
       0.08801495 0.032413315 0.0880152 -0.089526914
000150 a4 bc cd 3d d3 9a 10 3d 95 89 17 bd 76 a0 e8 39
       0.10045746 0.035303902 -0.036996443 0.0004437004
000160 1c 66 89 3b da 9c 7b bc 98 23 92 3c e5 50 95 3c
       0.0041930806 -0.015357221 0.017839238 0.01822705
000170 4e 8a be 3c d1 ca 00 3e de 16 80 3d fe 18 e2 bc
       0.023259308 0.12577368 0.062543616 -0.027599808
000180 de 1e 90 3b 89 c1 ce 3d b3 a9 74 bd 89 33 8a 3c
       0.004398211 0.10095508 -0.05973215 0.016870277
000190 35 01 15 3c 36 c8 89 bd 06 dc 66 bc 88 47 76 bb
       0.009094526 -0.0672764 -0.014090544 -0.0037579257
0001a0 25 98 46 3d 30 57 93 bd 71 a4 68 bd c5 a2 06 bd
       0.04848494 -0.07194364 -0.05679745 -0.032870073
0001b0 f7 9f 9f 3d 13 05 c6 3d ef dd ac 3b 1f 55 92 bd
       0.07794183 0.096689366 0.00527548 -0.07145142
0001c0 3b dd de bb 55 ee 94 3c f2 5b 64 3d ef 04 89 bd
       -0.006801275 0.018180052 0.05575175 -0.06690394
0001d0 c8 be 93 3d d7 fe 6a bc 8a 8a e9 3c d5 99 f1 bd
       0.07214123 -0.014342985 0.028508443 -0.11796919
0001e0 3a 55 01 be 82 0f d1 3d 5d 29 64 bb 41 97 09 3e
       -0.12630168 0.10208036 -0.0034814693 0.13436605
0001f0 ae c9 5a 3d 32 25 9e bd 45 a6 e0 bd d2 b9 a1 3d
       0.053414993 -0.07721938 -0.109692134 0.078967705
