refined_noRank.pth (torch, 888402 bytes, 36 tensors)

input_norm.weight f4 [7]
00000000: 2b20 7b3f b145 673f 05a0 693f 2536 813f
00000010: b7af 773f 8968 823f 0fb1 823f
0.9809596 0.90340716 0.91259795 1.0094649 0.96752495 1.0188152 1.0210284

input_norm.bias f4 [7]
00000000: 8ca4 c83c 6fd2 1fbd 1535 4c3c 1417 053d
00000010: a91e 5e3b 39ec c63a de85 b1bc
0.024492525 -0.039019044 0.012463828 0.032492712 0.0033892787 0.0015176601 -0.021670278

layers.0.embed.weight f4 [128, 7]
00000000: 373b 79bd 5cd1 b2be 4638 9b3e 9289 81be
00000010: 0093 293d 1dd7 82be d8ad 15be 5529 87be
00000020: 466d f3bd 3c84 033e d405 12bb be05 aabd
00000030: 7029 90be 06f3 47bd b509 95bd 9592 063d
00000040: 5926 6d3d 76a5 9bbc 2e84 8ebd 2ef9 b83e
00000050: 34b2 b2be ec96 b43b 4b49 3b3c 2bb6 cc3c
00000060: 40c8 2e3e 83d8 9fbe 71be 863e acac b13e
00000070: d3a0 bbbd b8fb 633e 7012 d83d 8b1c 103e
00000080: 35d9 68be 410f 373e 6105 813d ab53 8bbc
00000090: de48 95bd 32c8 893d 4e10 863e efdb 5f3e
000000a0: c5ea 8b3e c7ec 9b3e ff4d 103b 0d08 eabd
000000b0: 9bf4 8fbe 55cf 93be f84d 68bd e170 ed3b
000000c0: 4809 d7bd a6d0 89be 8bb2 84be 1b53 8abe
000000d0: 0e8e a03d 34d1 88bc 08ae b2be 569f c43b
000000e0: 95e8 cbbd 04bc 32be 43d6 a2be f740 8b3e
000000f0: 13d2 49bd 7e60 a43e 99c5 61be 4bb9 89be
00000100: 1cc4 1d3e c73a 9ebc 7977 9c3e 6a9f 03be
00000110: 1da7 aebe 267f 07be 4af6 39be 651d 1d3d
00000120: d569 03be 3b30 f73d ff79 99be 6820 61be
00000130: da04 ba3e 1568 c4bd d98e 433e d491 a83c
00000140: 07d3 a93e ed0b 25be 6020 44bd 1d13 9bbe
00000150: 0f78 bf3d b83f 61be 4c7b 653e 1f13 0bbe
00000160: 8e7f 74bd 36ac 083e 4cce 943d bbc7 90be
00000170: 204c 043e e3ed 18be de62 46bd 0cf8 b0be
00000180: 3d33 f1bd 1274 d1bd 817c 383e 6d8f 9d3e
00000190: 9193 873e 3245 c4be 8372 613e 26aa 823e
000001a0: f55b 98be 3638 77be c8cd 22be 3417 2ebe
000001b0: 698e 00be 5d10 af3e 4956 02be 994c b03e
000001c0: 8e33 293c d7cf 743e e3e6 debd 6f61 8abe
000001d0: 7fc3 50be 1031 1a3d 437f 513e ecd4 6abe
000001e0: ca8a 5f3e b703 5dbe c7b6 8b3e b7cf 4fbe
000001f0: 728a a0be 480e 353e 219c 813d 85a5 8bbe
00000200: 742a 8b3e 2d1f c0bd cfaa 3cbe b98f 753d
00000210: 645a 99be 4178 95bd 7b41 9b3e 06db 453e
00000220: f6b0 81be b9c8 063e 9737 d3be 7898 f73c
00000230: 96c9 953e ae5b 6a3e 12b5 913e 8f22 89be
00000240: 2997 9dbe d57f 4c3e e47b 4b3e 4b08 013d
00000250: 9b90 7a3c 9c71 6abd 5d39 123e 3f65 a23b
00000260: 07ec d33d ad2c 0ebd ab9f bc3e 528c 923c
00000270: 7018 94be eda8 8dbe 6b8c 963e 41e9 1b3e
00000280: 4af5 b1bd 7fdf 433e 1fd5 093e a0a1 15be
00000290: e8f6 1b3e a8eb b73d d86e 143e 759b ee3d
000002a0: 5c74 d13c abb8 97be 08c9 0e3e fad1 a53e
000002b0: af77 f2bd 4974 4abd 4f7d b33e dc51 5b3e
000002c0: aebb e33d 82b3 58be 2ac4 a0be 3344 923e
000002d0: eff0 0cbc 0564 b03e b538 a5bd 4c6f 06be
000002e0: 49f8 abbe 97ff 773e 3f61 83be 0d2d c43d
000002f0: 92fd 973e 734c 83be d4f0 683d 180e bbbe
00000300: 1170 bc3e 28f4 683e 201d b3be f5bb 7abe
00000310: 96a3 aebe 6352 853e 005e 2b3e 1af1 86bd
00000320: 5c04 d63c 56bf 69be 8b64 9d3d 6170 adbe
00000330: 3fb8 ae3e 78b0 38bd 58b8 7c3c 7800 c43e
00000340: 35e4 85be 649e 873e b6d1 71be 9425 d23c
00000350: 3711 c03e 757c a6be 4210 8cbd 64c5 83be
00000360: 9511 553e 7d9a ba3e c347 b63e d0dd 8b3e
00000370: 6ed6 6a3e 4579 d63d ead3 bbbe 16c6 bd3e
00000380: 78d7 76bb 768a 8c3e a7c1 863d 32ff 9b3e
00000390: 5854 b7be 7ff5 cabe 348b 03be 8bc9 52be
000003a0: f6f4 87be 9ce4 0dbe 762b 40bd f039 4cbe
000003b0: 2501 8abd aa36 93be 1e37 723c 3666 833d
000003c0: 9dde b0be 2ff6 8abe 1643 df3c 2ad8 e0bc
000003d0: 76ae 523e 6983 34be 602f 853e ea1d 9fbe
000003e0: 17a7 b0be 4ca2 993d bcb2 443c 31a0 91be
000003f0: b948 f3bd 7f3c 823e 86d7 973e 0760 a03e
-0.060847487 -0.34925354 0.3031637 -0.2530027 0.041399956 -0.25554743 -0.14617097 -0.2639872
-0.11886077 0.12843412 -0.0022281306 -0.083018765 -0.28156614 -0.04881575 -0.07277242 0.032854635
0.0578979 -0.018999796 -0.06958805 0.3612761 -0.34901583 0.0055111554 0.011431049 0.024989208
0.17068577 -0.31219873 0.2631717 0.3470205 -0.09161534 0.22263992 0.10550392 0.14073388
-0.22739108 0.17876913 0.06299854 -0.01700767 -0.07289289 0.06727637 0.26184314 0.21861242
0.27327552 0.30454084 0.0022019146 -0.11427317 -0.28116307 -0.2886912 -0.05671498 0.007246122
-0.10499817 -0.26917 -0.25917467 -0.2701653 0.07839595 -0.016701318 -0.348984 0.0060004396
-0.09956471 -0.17454535 -0.31804094 0.27198002 -0.049272608 0.32104868 -0.22048034 -0.2689918
0.15406841 -0.019315137 0.305599 -0.1285378 -0.34111872 -0.13232097 -0.18160358 0.03835811
-0.1283334 0.12069746 -0.29975888 -0.21985018 0.36331826 -0.095901646 0.19097461 0.020577349
0.33168814 -0.1611783 -0.047882438 -0.3028802 0.09349071 -0.21996963 0.22410315 -0.13581513
-0.059691958 0.13346943 0.072659105 -0.28277382 0.12919664 -0.14934497 -0.04843413 -0.34564245
-0.11777351 -0.10227217 0.18016244 0.30773488 0.26479772 -0.38334042 0.22016339 0.25520438
-0.29757658 -0.24142537 -0.15898812 -0.17001039 -0.12554325 0.34192172 -0.12728228 0.3443344
0.010327233 0.2390741 -0.10883882 -0.2702746 -0.20387076 0.037644446 0.20458703 -0.22932786
0.21830288 -0.21583448 0.27287886 -0.2029408 -0.31355625 0.17681229 0.06328607 -0.2727472
0.27180827 -0.09380946 -0.18424533 0.059951518 -0.29951775 -0.07298327 0.30323395 0.19321832
-0.25330323 0.13162507 -0.4125335 0.03022407 0.2925536 0.22886536 0.28458458 -0.2678418
-0.3077939 0.19970639 0.1987148 0.03150205 0.015293266 -0.057237253 0.14279695 0.004955917
0.10347753 -0.034710575 0.36840567 0.017889176 -0.28924894 -0.27667943 0.29404005 0.15225698
-0.08689363 0.19128226 0.13460205 -0.14612436 0.15230906 0.08980495 0.14495409 0.11650745
0.02556818 -0.29633078 0.13943875 0.32386762 -0.11839234 -0.049427304 0.3505654 0.21417946
0.111197814 -0.21162227 -0.3139966 0.28567657 -0.008602365 0.3445131 -0.08067457 -0.13128394
-0.33587864 0.24218594 -0.2566013 0.09578905 0.29685646 -0.25644264 0.056870297 -0.3653419
0.3680425 0.22749388 -0.34983158 -0.24485762 -0.3410918 0.2603942 0.16735077 -0.06588955
0.026125126 -0.22826895 0.07685193 -0.338748 0.34124944 -0.04509017 0.01542481 0.38281608
-0.2615067 0.2648803 -0.23615155 0.025652684 0.37513134 -0.32516828 -0.068390384 -0.25736535
0.20807488 0.3644599 0.35601625 0.27317667 0.22933361 0.10472349 -0.36685115 0.3706519
-0.003766505 0.27449387 0.06579905 0.30468136 -0.35806537 -0.39640424 -0.1284607 -0.20584695
-0.26554078 -0.13856739 -0.046916448 -0.19943976 -0.067384996 -0.28752643 0.014783649 0.064159796
-0.3454484 -0.27140948 0.027253669 -0.027446825 0.20574364 -0.17628254 0.26012707 -0.3107751
-0.3450248 0.07501659 0.012005504 -0.2844253 -0.11879105 0.2543678 0.2965662 0.31323263

layers.0.embed.bias f4 [128]
00000000: 98e4 52be 5bfa 893d a685 a7be 66e0 073e
00000010: 5e90 d6bd 29e2 7d3d d8b5 2d3e 6312 133c
00000020: 6d65 69bc 973b 22bd f418 973e f0ae 8b3e
00000030: 16fe 423d ccb4 f0bd bbaf 81bc af2f 0c3d
00000040: 2ac6 52be f01b 65be db0a 453e 276a a2be
00000050: f1a4 5abd 82a8 96be c341 a9bd 9b0f a1be
00000060: 38da 37be faab 413e f601 a0bb f71c 42be
00000070: e6b5 0bbe 64f0 043e afb6 ffbd bb8c ee3d
00000080: 99c5 7abe 0392 ba3d 3165 23bc ad78 98be
00000090: 64ed a33d 463e 523e 0d71 1d3c c477 443e
000000a0: ceb0 54be 42df 9cbe ec1d cd3d 5199 b33e
000000b0: a2d6 a3be 9c69 4bbd 2378 0f3e ba0a b4be
000000c0: 0309 99bd 0231 a83e 5dcd 4e3e 2693 87be
000000d0: 4c7a 0b3e 3b2e b7be 3536 913e e1e8 763d
000000e0: 9961 f0bd c6b6 56be 383a 473e b9bf e83b
000000f0: 5561 ad3e a037 0cbe 4158 b4be 19ec 1b3e
00000100: 4586 4dbd 8208 193e 8312 863e 31e6 aebe
00000110: d370 463d 3dc2 87be 2431 b9be 38c3 02be
00000120: be18 b53e e24f 5dbe 865c 143e c4ae 7dbe
00000130: a042 06bd e139 543e 8a0f a93e 8b3e 32be
00000140: 8033 9e3e 7226 55bc 220b e3bd 25f1 8cbe
00000150: e58e a73e dd26 93be 010f b53d 9a07 6ebe
00000160: cbad 84be 5f78 f5bc 87a0 a63e cf48 023e
00000170: e6f7 91be e118 943e 27a2 7fbd bfed 443e
00000180: 5a23 4e3e d332 8bbc 2a8d c4be 927e d9bd
00000190: 3200 0abe 9f5f 463e cc45 8e3e 57c7 7bbe
000001a0: d66c 403d 659e 87be d0d9 37be 4ba6 12be
000001b0: 25c2 293c b2b7 6f3e 2132 683e 67c3 21bd
000001c0: 75c2 5fbe da71 b6be b287 a4bd 0c19 49be
000001d0: a7ff 8a3e f280 223e 62c9 18be a8d1 c83c
000001e0: ce1f 273e ca16 babe 7c62 073e e9ca a1be
000001f0: 5873 fabd 6558 bebe 163c 55bc 014d c03e
-0.20595014 0.06737205 -0.32719153 0.13269195 -0.104767546 0.06198326 0.16963899 0.008976552
-0.014245373 -0.03960761 0.29511225 0.27281904 0.047605596 -0.11753234 -0.015830865 0.034225162
-0.20583406 -0.22373939 0.19242422 -0.31721613 -0.053379957 -0.29425436 -0.08264496 -0.3145722
-0.17954338 0.1891326 -0.0048830463 -0.18956362 -0.13643607 0.12982327 -0.12486016 0.11647936
-0.2448944 0.09109881 -0.009972856 -0.29779568 0.08004263 0.20531568 0.009609473 0.19186312
-0.2077057 -0.30639082 0.10015473 0.3507791 -0.3199969 -0.049661264 0.14010672 -0.35164434
-0.07472422 0.3284989 0.20195527 -0.26479453 0.13620871 -0.3577746 0.2836167 0.060280684
-0.11737365 -0.2096816 0.19455802 0.0071029332 0.3386332 -0.13693094 -0.35223582 0.15226783
-0.050176878 0.14944652 0.26185998 -0.34159997 0.04844744 -0.2651538 -0.36170304 -0.12769783
0.3537044 -0.21612504 0.1448842 -0.24773699 -0.032778382 0.20725204 0.33019668 -0.17406671
0.30898666 -0.013009654 -0.11086108 -0.2752773 0.32726207 -0.28740588 0.088407524 -0.23245087
-0.25913844 -0.029964624 0.32544348 0.12723087 -0.28509444 0.2892523 -0.0624105 0.19231318
0.20130673 -0.016992008 -0.3838895 -0.106198445 -0.13476637 0.19372414 0.27787626 -0.24587761
0.046978794 -0.26488033 -0.17954183 -0.14321248 0.010361229 0.23409918 0.22675373 -0.03949299
-0.21851523 -0.35633737 -0.08033694 -0.19638461 0.27148172 0.15869501 -0.14920571 0.024514034
0.16320726 -0.36345512 0.13221163 -0.3160012 -0.12229031 -0.37176815 -0.013014814 0.3755875

layers.0.W_att.weight f4 [128, 128]
00000000: 9dbe 543d afcd 12bd 5273 6abc 021f 9a3d
00000010: 820b d3bc 754c 533c 4234 b23c 1380 7abd
00000020: efee 523d 2897 1ebd 322d 99bd 4803 1bbd
00000030: 7a5c 843d b209 4c3d 854e 95bd 5787 313d
00000040: f722 96bc a62b 32bd 6d9d 92bd 7a8e 83bc
00000050: 0641 a3bc d9c1 773d 1577 78bd bdae ab3d
00000060: 6ad0 03bd 2f1b a2bc 70f7 a1bd 0625 56bd
00000070: 50f5 553d 1141 203d 582d 083d 4d99 f93c
00000080: 5943 043c 06d1 d8bc 505b 96bd a1a0 9cbd
00000090: 2099 9c3d e604 8c3d e737 a2bd 5f13 9d3d
000000a0: b83d 623d 3a53 84bd 93e8 563d 5f17 aebd
000000b0: 9083 843d 1944 32bd fedc 66bd b6a3 3f3d
000000c0: 7032 8f3d affe f83c de49 0c3d e28a 77bc
000000d0: ebe1 98bc 6ce5 81bd 9d3d bfbc 0677 273d
000000e0: 86a1 a43d e754 a1bd a3e6 463d 5b4d b03c
000000f0: 24b9 ac3c 8430 983d a180 f43b 1d57 86bd
00000100: a954 13bd 32d1 513c 3fbc 703b 55d3 373d
00000110: b7c1 553a 917b 7c3a 36d0 843d 0866 2dbd
00000120: 1b34 793d 5768 12bd 2424 3839 a24e 78bd
00000130: eabe b03d d315 813d a19e d33c 7d3d a73d
00000140: c5dd acbd b049 fcbc 1070 353d 5dbc 183d
00000150: 240a 713d 1b0f 20bd 0138 073d 7d9d 3b3d
00000160: 8f57 e8bb ca08 1c3b 9dd6 febc 775c 523d
00000170: 67d4 a2ba aaf0 763d d745 03bd 3007 233d
00000180: 70bb d03c 7e17 43bc 84b6 97bd e077 93bd
00000190: 1011 fa3c 050c 94bc a2e8 79bd 1cf1 8e3d
000001a0: 1c5d 173d 92ed c43c 7ed5 ae3d 7c85 55bd
000001b0: 3223 973d f05d 583d bf9c a83c 1bf4 63bc
000001c0: 2ae2 37bd b044 1c3d 3387 283b 4ab5 943c
000001d0: 325b 873c b82c 5abc ece4 9cbd 9d61 7d3d
000001e0: 5759 a1bd d64a 28bd 7907 81bd d937 dcbc
000001f0: 53de 3bbd 6b68 503d 77c8 94bd e3f3 ce3c
00000200: a216 8f3c 493a 10bb 2b8d 173d 9fd7 e53b
00000210: cfa4 7fbd 76eb 903d 0d33 fd3c 5bd6 c3bd
00000220: 5d30 80bc 70a1 8cbc 6b51 a33c c9a5 cdba
00000230: 1f86 7cbc 59a4 b13d d030 8ebb 75fc 1dbd
00000240: e117 413d c40c 18bc 095b 363c 10ec 063b
00000250: 4a53 00bd fc62 a9bc 5daa 8d3c 5cd9 b03b
00000260: 3230 6c3d a759 e93c 581b a73c ee1f 823d
00000270: 517b 34bd 3328 963d 4cc7 93bd 7b3d b3bd
00000280: 1b3a 823d f628 d03c 107a 073c 01e8 073d
00000290: fa12 2e3d a0a0 b33d c732 33bd 0409 ac3d
000002a0: 039c 973d a078 24bd da09 643d ee00 123d
000002b0: b2aa 1abd c36b 0abd 0bbd fc3b cd96 7a3d
000002c0: b5d1 c5bc 05e1 bfba 9753 9bbd 2023 be3c
000002d0: 2e71 97bd 9d8d b2bc a5c2 8e3c c555 acbc
000002e0: 536a 633d a506 a1bc 5dd1 8abc 571f a4bd
000002f0: a8a2 64bd 7622 253d 5098 9a3c e3b9 23bb
00000300: f7a4 f4bc a4b5 8a3d 6658 8b3a 7e7c aebc
00000310: b08b 9a3d bc82 e7bb fb55 f3bc 0553 e8bc
00000320: f9dd 5ebc 7797 0a3c 89c2 50bb 4fa7 01bd
00000330: f80e 9b3d 977e 503d 7e87 1cbc ecdd ce3b
00000340: 7496 913d f0e0 8f3d 6366 a8bd 2d25 403d
00000350: dbab 11bd 1e85 1abd 532f 663d d437 58bc
00000360: deac 353c 45c7 c13d c0b3 8b3d b3ef bebd
00000370: 4520 90bc aef9 bfbc de89 f73c 6a05 f6bc
00000380: 0a95 d7bc 524f 9bbc 891a 86bd 1381 793b
00000390: e2ce aabd bd4b 2dbd 4f75 d3bc 84c4 9d3d
000003a0: 00c1 9c3d 65a1 483c af1b 853d b4c8 db3b
000003b0: 8030 a6bd 750f 963c 518c 663c 2148 77bc
000003c0: 208e ed3c 8cc1 66bb 595d 21bc 9340 2d3d
000003d0: 55e5 abbd f9fb 0c3d f72c 4a3d 342e 44bd
000003e0: d539 e5bc f7b4 a4bd 81a1 96bc 9b95 c1bd
000003f0: b098 4ebd 405e a03d a15e 41bd c462 953d
0.051939595 -0.035840686 -0.014309721 0.075254455 -0.025762323 0.012896647 0.021753434 -0.061157297
0.051497396 -0.038718373 -0.074793234 -0.037844926 0.06462951 0.049813934 -0.07290367 0.04334196
-0.01832722 -0.043498658 -0.07158933 -0.016059149 -0.019928467 0.060487602 -0.06066044 0.08382938
-0.03218118 -0.019788353 -0.07908523 -0.052281402 0.0522359 0.039124552 0.03324637 0.030468607
0.008072698 -0.026466858 -0.07341635 -0.07647825 0.07646394 0.06836872 -0.07920819 0.0766971
0.05523464 -0.06461187 0.052467894 -0.085005514 0.06470406 -0.043521974 -0.0563631 0.046786986
0.06992042 0.03039488 0.034250133 -0.015108796 -0.018662414 -0.06342587 -0.02334481 0.040884994
0.08038621 -0.07877522 0.048559796 0.021521261 0.021084376 0.074311286 0.007461623 -0.06559584
-0.03596941 0.012806224 0.0036733297 0.044879276 0.0008154171 0.000963145 0.064850256 -0.042333633
0.060840707 -0.035744037 0.00017561071 -0.060621865 0.08630164 0.06302991 0.025832476 0.08166025
-0.08440737 -0.030796856 0.044296324 0.037289012 0.05884756 -0.039076906 0.033012394 0.04580449
-0.007090516 0.002380895 -0.031108195 0.051357713 -0.001242292 0.06028811 -0.032049026 0.039801776
0.025480002 -0.011907456 -0.07407859 -0.07200599 0.030525714 -0.018072138 -0.06101287 0.06979582
0.03695403 0.024039064 0.08536814 -0.052129254 0.0737976 0.05282396 0.020582555 -0.01391318
-0.04489342 0.038151443 0.002571535 0.018152852 0.016522978 -0.013316326 -0.07660851 0.06186067
-0.07878368 -0.041086994 -0.063002534 -0.026882099 -0.04586632 0.05088083 -0.07264798 0.025262779
0.017466847 -0.0022007397 0.036999863 0.0070142294 -0.062413033 0.070761606 0.030908132 -0.095623694
-0.015648061 -0.017166823 0.019936284 -0.0015689667 -0.015412836 0.08673925 -0.004339315 -0.03857084
0.047141913 -0.009280387 0.011130103 0.0020587482 -0.03132943 -0.020677082 0.01729315 0.005397005
0.05766315 0.028485132 0.02039878 0.06353746 -0.044062916 0.07331886 -0.07215747 -0.08751961
0.06358739 0.025410157 0.008268848 0.03318024 0.042498566 0.08770871 -0.043749597 0.08400157
0.07402804 -0.0401541 0.055673458 0.035645418 -0.037760444 -0.033794176 0.0077129654 0.06117897
-0.024147848 -0.0014639205 -0.07584303 0.023210108 -0.07394634 -0.021796042 0.017426798 -0.021036992
0.05552132 -0.019656489 -0.016945535 -0.0801379 -0.055819184 0.040316068 0.018871456 -0.0024982623
-0.029863818 0.067729264 0.0010631203 -0.021299597 0.075461745 -0.0070651453 -0.029704085 -0.0283599
-0.013602727 0.008458964 -0.0031854233 -0.0316537 0.075712144 0.050901975 -0.009553788 0.0063130762
0.07108775 0.07025325 -0.08222654 0.046910454 -0.035564285 -0.037724607 0.056197476 -0.013196904
0.011088578 0.09461836 0.06821394 -0.09323063 -0.017593512 -0.023434486 0.030217107 -0.030031879
-0.026316185 -0.018958721 -0.0654803 0.003807132 -0.08340241 -0.042308558 -0.025812773 0.07703498
0.07653999 0.012245511 0.06499421 0.0067072753 -0.081147194 0.018317917 0.01407154 -0.01509288
0.028998435 -0.0035210578 -0.009848916 0.04229791 -0.08393351 0.034419987 0.049359288 -0.047895625
-0.027981678 -0.08042329 -0.018387558 -0.09452363 -0.050438583 0.07830477 -0.047209386 0.07294229

layers.0.phi_att.weight f4 [128, 128]
00000000: f1ea e83a f719 b13d 5fc4 81bd a953 5a3d
00000010: 6b49 3b3d 6869 a93d a668 63ba a544 97bd
00000020: 91f9 263c 60b3 8bbd 06e9 a83d a17f 15bc
00000030: 32bb 28bd 8d9f 1f3d 6d6e 4c3d 146c 9e3b
00000040: 030b 6cbd 17dc adbd b604 82bd 8bfb 923d
00000050: 61e6 66bd 633b 4bbd 6373 ab3d 1caf 87bd
00000060: 2c76 853d dab3 58bd 702b adbc defa 0dbd
00000070: d300 7e3d 6dcf e5bc edda a33d d11b 94bc
00000080: 4eee afbd e660 cdbd 5c10 9c3d 9290 a33c
00000090: c820 653d 7596 a4bd aeb9 31bd 10c8 303d
000000a0: 7961 9d3d 1fdf e2bc 6cbf 883c b803 953d
000000b0: 8f22 5f3d 010b bd3d 50ec ab3d 6847 e1bc
000000c0: 29df 923d 56c2 b23d 0200 013d ef4a 8a3d
000000d0: 85bb d5bb 13db 36bd 107b 4a3d 9da5 ab3d
000000e0: 92b1 533c 40e5 70bd 7971 a23c 42c7 7abd
000000f0: b00c 8ebd 4f3c e43d dbc3 53bd 462d 8b3a
00000100: 1968 8a3d 83b3 1c3d 957e 80bd ebbb 9bbd
00000110: d1c3 a8bd d661 85bd 20d6 6b3d 23d9 683c
00000120: 8c7e 32bd 0aca 47bd 6424 473d 39ca 0f3c
00000130: d15b c9bd 8e04 7a3d 35d6 07bd 32e3 4fbd
00000140: 936d b13c 0850 993d c27e 89bd edac 71bd
00000150: d8d9 8bbd f7d2 c23d b62a 3e3d 9faf 313d
00000160: 3c69 96bd 367f 8e3d 0399 98bc 428e 79bd
00000170: d890 b83d 1b15 8ebd 4a47 6fbd f24d 83bc
00000180: 8a97 9bbd ff7b 393c b0dd b93d 7a92 813d
00000190: a962 46bd 34ef ca3c b241 50bc 7152 94bd
000001a0: 8297 103d 75d2 a6bc 9677 eb3c fe0f 0ebd
000001b0: bffe 033d e353 ccbc d34b 5abd 5dfd 203d
000001c0: 8dd1 1dbc 19ff 0cbd f432 473d d888 96bd
000001d0: 075e 9c3d 25e5 6f3c e2ce 443d c87e eebb
000001e0: a808 91bc ae31 733d f0c5 74bb d7d3 79bd
000001f0: 7318 8b3d 9c11 2cbd 9739 bf3b fc03 513c
00000200: 8b4a 8a3c 586a 553c bbf1 77bc 540c bcbb
00000210: 1511 033d be3f 7d3c 180e 73bd 7a99 30bd
00000220: 61aa 65bd 0fc1 5c3d 2cdc 43bd 9a99 e43c
00000230: 1268 343c 5fcf 80bd 2952 2abd 0eb0 64bd
00000240: 2050 8b3a 9064 a53c 6186 90bd 3beb 5f3d
00000250: 321d cb3d 277a dd3c 5e85 8dbd 8246 603d
00000260: 927f be3c 6ada a63d efe7 833c e81e 46bd
00000270: 8fef 83bd 3e80 ad3d 0269 f6bc ead6 033d
00000280: 077d 04bd a63b 0ebd 78dc 893c 716f 4fbd
00000290: cd56 9d3d 08f3 3b3d d231 adbc 68d0 113a
000002a0: 192d a53d 5927 24bd 3404 6a3d ce9e a0bc
000002b0: 6c7f 7b3d d758 3b3d 6d98 163d 6dce 80bc
000002c0: 2e5b c0bc bae9 6e3d 5f9b 35bb 2cd7 8bbd
000002d0: 1bd2 b23c b263 ac3d 46ad 6bbd 477a 523d
000002e0: 50d7 67bd 76ef a13d 8f52 383d b7f7 84bd
000002f0: e5c9 72bb 6098 173d 64f8 4b3d 5854 5e3b
00000300: 3c3e be3c 4d5f 91bd da83 ae3c c267 47bc
00000310: 30d5 98bd 283d e0bc 465f 463d 20c4 84bc
00000320: 0580 193d 06ac cb3d d1c3 113d 71f7 74bb
00000330: c71b 013c 1d84 80bc 56fe 033d 5293 ecbc
00000340: 0d94 0bbd 4537 643d 19d9 4d3d 88ff e8bc
00000350: 39aa 2a3d 5f96 9d3d 80b0 bb3c b11e 743d
00000360: 1d57 93bc 1781 54bd 69c3 9ebd 8192 113d
00000370: a8a9 103d dce6 413d 254a 9abd 02df cdbc
00000380: d000 0d3d 686a 37bc 8fad 7c3d 3888 3abc
00000390: 058b 0ebd 8795 9cbd 0475 f1bc efd9 4bbc
000003a0: 998f aa3c a3f7 9fbd d3b5 abbd 9084 c83d
000003b0: 3d6d 8e3d d8f1 8f3d bf23 fc3c 4430 16bd
000003c0: 057f 9a3d 84e4 82bd b94e 033d 1833 0cbd
000003d0: 39dc 8b3d 13bf 5ebc a1a8 d43c c518 f93b
000003e0: 533d d03c b507 823d 7103 b4bd 25b6 8c3d
000003f0: 27fc 123d 6dc5 49bd b975 333d f587 c53b
0.0017770213 0.086475305 -0.06336283 0.05330244 0.045724314 0.08272058 -0.00086749566 -0.0738614
0.010191337 -0.068213224 0.08247571 -0.009124667 -0.04119415 0.03897052 0.049909998 0.0048346613
-0.05762769 -0.084892444 -0.06348555 0.07176884 -0.05637205 -0.049617182 0.08371618 -0.06625196
0.0651668 -0.052905895 -0.021138877 -0.034663074 0.062012505 -0.02805301 0.08000741 -0.01807967
-0.08590375 -0.100282475 0.07620308 0.019966397 0.055939466 -0.0803651 -0.04338997 0.043159544
0.07684607 -0.027694283 0.01669284 0.072761 0.054476317 0.092306145 0.083946824 -0.02749987
0.07171471 0.08728473 0.031494148 0.06752574 -0.006522598 -0.04464252 0.049433768 0.083811976
0.012920754 -0.05881238 0.019829499 -0.061225183 -0.06936014 0.111443155 -0.051700454 0.0010618351
0.06758136 0.038257133 -0.062741436 -0.07604202 -0.08240474 -0.06512801 0.057577252 0.014211926
-0.043577716 -0.048776664 0.04861869 0.008776241 -0.09831966 0.0610395 -0.033163268 -0.05075378
0.021658694 0.07485968 -0.0671363 -0.059002806 -0.0682866 0.095128946 0.04642745 0.043380376
-0.073442906 0.06957857 -0.01862765 -0.060926683 0.09012002 -0.06937619 -0.058417596 -0.016028378
-0.07597263 0.011321067 0.09075487 0.06326766 -0.048433933 0.024772264 -0.0127109755 -0.07242287
0.03530074 -0.020364026 0.028743546 -0.03468322 0.032225367 -0.024942344 -0.053294968 0.039304126
-0.00963248 -0.034422968 0.048632577 -0.073503196 0.07635122 0.014642035 0.04804886 -0.007278297
-0.017704323 0.05937355 -0.0037349425 -0.06099304 0.06791773 -0.04200898 0.0058357227 0.012757298
0.016881248 0.013025843 -0.015133317 -0.0057387743 0.031998713 0.015457092 -0.059339613 -0.043115117
-0.05607069 0.053895053 -0.047817394 0.027905274 0.01101114 -0.06289553 -0.04158226 -0.05583196
0.0010628738 0.020189553 -0.07056881 0.054667693 0.09917678 0.027035786 -0.069102034 0.05475474
0.02325419 0.08147128 0.016101805 -0.04836932 -0.064421766 0.08471726 -0.030079369 0.03218738
-0.032345798 -0.034724854 0.01682876 -0.05064339 0.076825716 0.04588607 -0.02114192 0.0005562366
0.08065242 -0.040076587 0.057132915 -0.019606974 0.061400816 0.04573902 0.03676646 -0.015723431
-0.023480978 0.058328368 -0.0027711017 -0.0682815 0.021828702 0.08417453 -0.057538293 0.051386144
-0.056601822 0.07907002 0.04500061 -0.0649256 -0.0037046608 0.03701055 0.04979743 0.0033924785
0.023223035 -0.07098255 0.021303106 -0.012170734 -0.07462537 -0.027372912 0.048430704 -0.016206801
0.037475605 0.0994492 0.035587136 -0.0037378932 0.007880158 -0.015687997 0.032224976 -0.028878842
-0.03407674 0.05571677 0.05025587 -0.02844216 0.041666243 0.07694697 0.02291131 0.059599582
-0.017985875 -0.051880922 -0.07752115 0.035540108 0.035318047 0.047339305 -0.07533673 -0.025130752
0.034424603 -0.011194803 0.061688956 -0.011385016 -0.034800548 -0.076457076 -0.029474743 -0.012442096
0.020820426 -0.07810905 -0.083842896 0.09790909 0.06954429 0.0702855 0.030778764 -0.036667123
0.07543758 -0.06391242 0.032057498 -0.034228414 0.068291135 -0.01359536 0.025959315 0.0076018297
0.025419867 0.06349126 -0.08789719 0.06870679 0.035885002 -0.049260546 0.04381344 0.00602817

layers.0.phi_att.bias f4 [128]
00000000: ebb4 14bd 6983 ac3b 667e dc3c 8c07 703d
00000010: 2bce 933d 5953 32bd 020a 483d 35b0 983d
00000020: 1ecb 81bd 6c22 3cbb f161 853b aa61 39bd
00000030: 16f7 ad3c 7659 29bd 2bd4 96bd 7567 7d3c
00000040: ae15 8c3c 202b 6f3d 3166 e5bb 11cb 80bd
00000050: e7bb 4e3d a58f 693a f8c3 8ebd 85bb b13d
00000060: 6435 31bd 3b1f 243d c9fa ab3c d5ee 34bd
00000070: 10f8 863d b571 c3bd 2415 16bd 4f35 a9bd
00000080: cb83 163d 2184 ab3d 6604 de3c c75b ac3c
00000090: 6935 c53c a8bc af3c 4f72 8d3c 794a 49bd
000000a0: e87f 283d b4a8 ee3a 90bb 9aba 41d7 a73d
000000b0: fa57 483d 77ae 393d 1569 263d f533 d2bb
000000c0: 054e 1cbc d861 643d 8545 d6bc 384a d33c
000000d0: 8651 a73d 3d8d b73d ed7d bbbc 52a3 8cbd
000000e0: 6442 cbb9 b2a7 93bd e78a 85bd faa5 2f3d
000000f0: d1dd ac3d 9741 5abd c688 233d c46e a3bd
00000100: f2c1 973d cdca ee3c d206 30bd 8c03 393d
00000110: 74b5 88bd ab55 9e3c 72b4 a33d 140a 913d
00000120: 2992 5cbd f85e 57bd 3644 283d de6d c43b
00000130: ae4d 083c 0d24 c13c 72f1 8b3d 9574 393d
00000140: e7b8 82bd 46db 063c a6f1 b83c c7e5 483d
00000150: caa5 a9bd 6387 93bd b08e 05bd 1236 36ba
00000160: 561e aa3d 91ea d9bc c430 ab3c f307 8cbd
00000170: a380 d7bb 2de2 9d3d 7632 4cbd cea7 783c
00000180: 0409 0dbc e28f db3a 3358 a23c 7589 3dbd
00000190: 0f68 643d a099 1d3d c6cf d83c 9b36 e23c
000001a0: 125a 3cbd 49ba 9e3d 40df a4bc e898 173d
000001b0: 9e80 80bc a34e 083d 8cdb b13d e3ba 86bd
000001c0: 6708 adbd fa46 a2bd 561f f0bc 8012 dabc
000001d0: c6b0 99b9 5022 ff3c 3570 9ebd d990 efbc
000001e0: 7285 33bd 45a7 073d 24b6 6b3d 1438 873c
000001f0: af12 5fbd b095 38bc 380f f03c 9666 7bbd
-0.03630535 0.0052646887 0.02691574 0.058600947 0.07217058 -0.043536518 0.04883767 0.07455484
-0.0633757 -0.002870704 0.0040705134 -0.045259155 0.021235984 -0.041345082 -0.073646866 0.015466561
0.017100181 0.058390737 -0.0070007076 -0.06288732 0.050472166 0.00089096493 -0.06970972 0.08678345
-0.043263808 0.040068846 0.020993607 -0.04417308 0.06590283 -0.09543172 -0.036641255 -0.08262121
0.03674678 0.08374811 0.027101707 0.021039857 0.02407332 0.021452263 0.01726642 -0.04914329
0.041137606 0.0018208236 -0.0011805166 0.08195353 0.048912026 0.0453324 0.040627558 -0.006414885
-0.009540086 0.055757374 -0.026156196 0.025792226 0.08169846 0.08962486 -0.022887195 -0.068670884
-0.00038768642 -0.0720972 -0.06520634 0.042882897 0.084407456 -0.053285208 0.03992536 -0.07980111
0.07410039 0.029149437 -0.042975254 0.0451694 -0.066752344 0.019327959 0.079934016 0.070820004
-0.053850327 -0.052580804 0.041080676 0.0059945425 0.0083193015 0.02357676 0.068331614 0.045277197
-0.063829236 0.00823099 0.022576164 0.049047258 -0.08283575 -0.07203557 -0.03260678 -0.0006950806
0.08306567 -0.026601108 0.020897277 -0.06837454 -0.006576614 0.07709155 -0.04985281 0.0151767265
-0.0086081065 0.0016751254 0.019817447 -0.046273667 0.0557633 0.038476586 0.026466262 0.027613929
-0.045984335 0.07750375 -0.020125985 0.037011057 -0.01568633 0.03327812 0.08684453 -0.065786146
-0.08448868 -0.07923694 -0.029311817 -0.02662015 -0.0002931414 0.031144291 -0.077362455 -0.029243873
-0.043828435 0.033118505 0.05754675 0.016506232 -0.054461177 -0.011266157 0.029304132 -0.06137713

layers.0.W_p.weight f4 [128, 128]
00000000: 29d3 c7bb d091 593c f4d1 4d3d 054b 163b
00000010: 2ac0 b23d 9277 bc3d 93c6 11bc f5fc 84bc
00000020: c9a8 4ebd 7d91 39bb 2a86 c53d 1034 95bd
00000030: 5170 303d d65a 2fbd 787a a9bd 1646 023d
00000040: ea5c 5c3d f6ce 25bd 1d99 8fbd f5d7 7f3c
00000050: a61e 5cbd 6027 853a cae5 b9bd 4ecd 903d
00000060: b3fa 00bd b306 4bbd 42cd 00bd 71a5 f0bb
00000070: 459d e7bc db54 35bd 69ea 943d 4122 debc
00000080: da8d 90bd 41d4 773d 1ef4 6abd d2a2 78bd
00000090: d9dc 623d e94c 8fba ea7a 0938 de1d 2fbd
000000a0: f68c 5f3d fa34 22bb dd1f b03c 4a97 96bd
000000b0: dd74 923c 06a5 dbbc 7c3f 4e3d 93f7 80bd
000000c0: f99b dd3c 231d 0a3d 17a1 85bd e701 9c3d
000000d0: 4c9c 6ebd 5a37 ddbd b2b9 f53c 8d8c d4bc
000000e0: eb9e 8abd df69 553d b1a2 5c3d 27a6 333d
000000f0: 423b 90bd e81c 9d3d 5f78 823b b888 3fbd
00000100: 9364 673c 056c 0c3d 1e00 8e3c d105 07bd
00000110: ab5e 3fbd aa59 dfbb fb8c 5fbd 4377 783d
00000120: 5ec2 8f3d e74f 92bd 1389 96bc 38fc 95bc
00000130: 282b 023c 930e bebd fc74 f4bc 38f9 46bd
00000140: 03a7 a7bc 7abe 5cbc 36a7 793d 70a9 47bd
00000150: e477 65bd 8600 9dbd c3ae a3bc b782 7fbd
00000160: 89af b4bd e101 86bc 0f3e 883d c225 643d
00000170: eb5f 26bd 4071 86bd 93d1 2dbd bbd9 cd3c
00000180: e2e8 a13c d616 09bd d09d 8dbd 5f75 9e3d
00000190: d2b2 ba3b c98c ffbc 84c5 37bd ff89 34bd
000001a0: 39ea a6bd bc9d 663c 1a11 293d c076 2b3d
000001b0: 80c4 a03d d911 9dbc 3fb5 85bd e60b 95bd
000001c0: 663b 593d b4d2 b4bd 402c 623d ba99 503d
000001d0: 2449 953c 125d e5bc 9f62 2b3d 89bb c13d
000001e0: 8306 343d 0d03 203d 752c 683c 72ee d9b8
000001f0: 89c5 e6bd 1f84 903d affb a4bd 9944 a13d
00000200: 625a 94bd 6cf1 2abd d102 2cbb 8e80 91bd
00000210: 4b23 b33b 9513 353d 236c 7b3d 3e1c 223d
00000220: 8fcf 13bd c8b4 573d e55b a33d 14c5 8c3c
00000230: 18a8 833d 34b3 673d b1fe 16bd 7645 873d
00000240: f9df ef3a ea4b 903d 4bc2 dd3a 1c95 5cbd
00000250: 2588 b7bc 0275 95bd db70 713c a010 05bd
00000260: 3d29 f5bc 04df 0d3d 8ecd 9dbd 56d4 eabc
00000270: 7fc0 83bd 9263 443d f784 ba3d cc64 463c
00000280: 1ec4 a3bd 4c76 67bc d7d6 55bd e2b4 92bc
00000290: 6909 a93c 7415 6fbd a9d1 8c3c 2dfa b0bc
000002a0: c3ba a23d 202d 3abd 8cf0 8f3d d667 903c
000002b0: ced0 0e3c be14 8bbd 63bc 47bd 245a 3a3d
000002c0: de5c 1b3d 80a3 6c3d dc6a 09bd f01d 45bd
000002d0: 208d 383d b58e 87bc d2d8 893d 90d1 97bd
000002e0: 6fda 5cbc 80c2 d83b 7582 a93d 023f 913d
000002f0: 1808 493c 0618 4d3b 9b08 4abd 11f1 993d
00000300: 57f4 82bd 42a4 983d 3447 853d 0973 983d
00000310: 59a9 20bd be60 843d 4e84 4dbc 77d7 8abd
00000320: 5231 21bc bca2 8ebd 5d91 99bd 2cc2 9abd
00000330: d170 7abc 99fe 703d f5b0 1f3d 473e 1bbd
00000340: 4b43 143d b54f 903d 8319 a53d 618d 39bd
00000350: c311 3ebd af2a 8b3d b951 653d 5be9 e53a
00000360: 691e 2cbc e5c5 4c3d 4625 2a3d 24e1 7a3b
00000370: 55e1 8f3c 829f 2c3d 4cf7 653c b7f0 56bd
00000380: 6123 223d 7c75 80bd 265f a1bd cae7 e1bb
00000390: 8c1f eabc 5221 3fbd 510d 93bd 37bd 47bd
000003a0: 73e3 093d 9b2c 853d 27cc 9a3d 083e 96bc
000003b0: 71d2 8ebd 74bd 843d 7304 6f3d 90ed 033d
000003c0: 2378 a43d ba09 09bd 9dc8 a03d cb47 8f3c
000003d0: 5d02 46bd 79e5 67bd 1eff 66bd 1d31 ee3c
000003e0: 8234 b53d 6089 9bbd 0abd 8ebd e546 66bd
000003f0: e9a4 823d 0670 3b3d 9431 3c3d 54b7 8bbd
-0.0060981703 0.013279393 0.050249055 0.0022932899 0.08728059 0.09202494 -0.008897441 -0.0162339
-0.050453935 -0.0028315478 0.096447304 -0.07285321 0.043075863 -0.042811237 -0.08275312 0.03180512
0.053799547 -0.040480576 -0.07011626 0.015615453 -0.053740166 0.0010158829 -0.09077032 0.07070409
-0.031489085 -0.049566936 -0.03144575 -0.007343941 -0.028273234 -0.044270378 0.07271273 -0.027115943
-0.07058306 0.060505155 -0.057361715 -0.060702153 0.055386398 -0.0010932955 3.2777818e-05 -0.042753093
0.05457779 -0.0024750815 0.021499569 -0.07353075 0.01787799 -0.026812088 0.050353512 -0.06297221
0.027051913 0.033719193 -0.06524866 0.0761755 -0.058254525 -0.10801573 0.029995773 -0.025945926
-0.067685924 0.05210292 0.053866092 0.043859627 -0.070425525 0.07671529 0.0039816345 -0.046761245
0.0141231 0.034282703 0.01733404 -0.03296453 -0.04672114 -0.0068161087 -0.05457781 0.06066061
0.070194945 -0.071441464 -0.018375909 -0.018308744 0.00794486 -0.092801236 -0.029840939 -0.048577517
-0.02046538 -0.0134731475 0.06095048 -0.048745573 -0.05602254 -0.076661155 -0.019980794 -0.06238052
-0.08822543 -0.016358318 0.06652462 0.05570007 -0.04061882 -0.065645695 -0.042436194 0.025128236
0.019764367 -0.033469044 -0.06914866 0.077372305 0.0056975866 -0.031195061 -0.0448661 -0.044076916
-0.08150143 0.014075693 0.041276075 0.041861296 0.078499794 -0.01917355 -0.065287106 -0.0727766
0.053035162 -0.08829251 0.05521798 0.050927855 0.018223353 -0.027998481 0.0418421 0.094595976
0.043951523 0.03906541 0.014170756 -0.0001039178 -0.112681456 0.0705645 -0.08055817 0.07874412
-0.07243802 -0.041734144 -0.0026246796 -0.07104598 0.0054668537 0.044208128 0.061382424 0.039577715
-0.036086615 0.05266264 0.07976512 0.017183818 0.06428546 0.056567386 -0.036863986 0.066050455
0.0018301002 0.070457295 0.0016918866 -0.05385314 -0.022403786 -0.07297708 0.0147363795 -0.032486558
-0.02992689 0.034636512 -0.07705222 -0.028665703 -0.064332 0.04794652 0.09107392 0.012108993
-0.07996391 -0.014127325 -0.05220684 -0.017908517 0.02063437 -0.05837007 0.017189818 -0.021603668
0.07945778 -0.04545319 0.070283026 0.017627638 0.008716775 -0.06791066 -0.048763644 0.04549612
0.037930362 0.057773113 -0.033549175 -0.048124254 0.045056462 -0.01654754 0.06730808 -0.07413018
-0.013479813 0.006614983 0.08276836 0.07092096 0.012269996 0.0031294837 -0.049324613 0.07516683
-0.063942604 0.07453205 0.065077215 0.07443816 -0.039224003 0.064637646 -0.012543751 -0.06779378
-0.009838419 -0.06964633 -0.07498429 -0.075565666 -0.015285687 0.058836553 0.03898712 -0.03790119
0.036196988 0.07046453 0.080615066 -0.045300845 -0.046403658 0.067952506 0.05598614 0.0017540859
-0.010505297 0.049993414 0.041539453 0.0038281167 0.017563501 0.042144306 0.014036011 -0.052475657
0.03958452 -0.06272408 -0.07879476 -0.0068940865 -0.028579496 -0.046662636 -0.07180274 -0.048764434
0.033664178 0.065026484 0.0755847 -0.018340126 -0.06973732 0.06481448 0.058353852 0.03220898
0.08030727 -0.03345654 0.07850764 0.017490288 -0.048342098 -0.056615327 -0.056395642 0.029076153
0.08847906 -0.075945616 -0.0696965 -0.056219954 0.0637911 0.04576113 0.04594572 -0.068220764

layers.0.W_p_prime.weight f4 [128, 128]
00000000: 055c 90bd 16b7 fdbc cf54 8bbd 1c30 923d
00000010: 0b1f d73c 597a 643d 80da 75bc 437d 48bc
00000020: 1eb1 71bd 09f3 bbbd 95d8 133d 01d8 963b
00000030: 604e 923d 84df 343d dcd6 fabc 7366 b03c
00000040: 315d 523d 2546 ac3c b128 5ebd 770c 33bd
00000050: 0fdf 073d 7eba d6bc 5be1 a73d d59a 5f3d
00000060: 28d3 bebd 2a25 91bc 591d 69bd 205f 3dbd
00000070: d5b7 503d 53ca db3c 2603 633d 7004 7e3d
00000080: b99a 1c3d 06f7 573d 57f4 bc3c 1a23 86bd
00000090: bdb0 8dbd a957 96bd 71c9 403d ac29 c13c
000000a0: ab24 2d3b 98af 733d 809e 883b 4272 593d
000000b0: 889f b23c 935e e2bc 83f7 efbc 0159 b23d
000000c0: 3fb9 efbb de9c d1bc f93a 83bd 19e0 0dbb
000000d0: 8cec 16bd 016f c83a 73df 5a3d 7623 23bd
000000e0: 9018 843d 3941 cd3c a2e4 f0bc 6d65 f13c
000000f0: ecf2 9fbd 14e5 a4bb 7901 7bbd be99 483d
00000100: 3e61 9f3d c193 63bc 9cc3 23bc 8ae8 4dbd
00000110: 079b 593d f500 64bd ba15 0bbd 379b 2fbc
00000120: 48b6 baba 1d12 a9bb 12e9 133d a8fe b9bd
00000130: a5a6 1f3d be22 723d cd68 c0bd 4c2c 3dbd
00000140: aa16 c9bc 710e 23bd 8bbe d9bb 95cb f9bc
00000150: 7147 44bc 6827 9ebb b4c1 9d3d 1dbf 483d
00000160: 8c50 003c 1d04 a53c 8455 c7bc 6286 9fbd
00000170: cc03 48bc 3e7c 09bd 43d6 95bc 4a45 47bc
00000180: eb86 c03c 3f06 babd 62cf 35bd e092 97bb
00000190: 7de5 ab3d 6146 5f3d 6b46 e7bc 6de6 943d
000001a0: 38f4 12bd 496d 0c3d 1c2b 5fbd 75ee 94bd
000001b0: 5318 223d 53c6 55bd 9185 c23b a06a 993d
000001c0: 522a 563d 3fa6 adbc b7cf c2bc ce7c a5bb
000001d0: 661e 52bd 037d d73c 973b 803b f92d 8bbd
000001e0: e1b9 d73b 013d 483d 3821 553d c3ac 533d
000001f0: 8060 6abd ce9e d2bc 830d 9d3d f772 813d
00000200: 0aa8 38bc ee21 6bbd 809e 05bd 9e91 05bd
00000210: 6873 593d 2e41 80bc 0d8a dbbb c689 31bd
00000220: 0dee 983b 9a41 063d f709 533d 0d10 5cbd
00000230: 6c2f 853d 4767 a23d 06a3 c03d 619d 623b
00000240: c808 24bd 5874 563d f7b7 82bd 35eb 553c
00000250: f7a6 b13d 95e7 69bc d2d1 94bc 3ee8 1b3a
00000260: beb0 673c 6312 ac3d 9325 3b3d 7689 d2bc
00000270: e54d 83bd add1 82bd a127 b23d a11a f03b
00000280: 2fa9 bbbd c9e3 2bbc 4041 56bd fe17 73bc
00000290: 0d68 93bd 130e a3bd 0ef0 12bb 5d19 493d
000002a0: 7416 83bd 72b1 99bb adac 783d 9e86 463c
000002b0: 798b 31bd 3243 533d 4e93 46bd a5b8 bfbc
000002c0: a454 20bd 7d6c 233d 4271 2bbc 4ec0 363c
000002d0: dba5 8cbd 17b5 153d 492b d13b 0ba6 fdbc
000002e0: cd34 9dbd b244 9fbd 395d e63c 945d 123d
000002f0: b275 753d d77a 7b3d da7f b73c c7cf 57bb
00000300: 4449 89bd 9b5a 4ebd 2e10 a33d be2e 933d
00000310: 9d06 4b3d 4b78 91bc 5575 663c 543b 163d
00000320: b30f 503d a76c 48bd 0dc1 80bc 8ee8 8c3c
00000330: 087c 4f3c aae8 a93d 47cc bfbd 3101 4dbd
00000340: 7308 a1bc 6ebc 733d 3e57 233d 36b1 3c3d
00000350: d1e8 babc a856 043d c482 60bc c40d 88bd
00000360: d3a5 993d 679a 91bd 1563 f73c d381 afbc
00000370: a50f c43c 757c 2abd 2162 bcbc c72b 913c
00000380: f029 b63c 46eb 603c a81e 183d d79f 87bd
00000390: dc41 83bd a65c 203d 13cf bd3b f7ee 52bd
000003a0: 7957 1bbd a880 543d 0f27 92bd c6af 95bd
000003b0: 6c22 c23c 1b49 72bd e01c 3f3d f7f1 053c
000003c0: 19d5 02bd e1c6 96bd 600a 2d3a 3d6a adbc
000003d0: b551 9cbd 97b0 36bd bd3f 78bd a5ac 54bc
000003e0: f47a a2bd be97 5abd d723 0c3c 58f6 20bd
000003f0: 2179 fe39 0f8a 263d 355c 50bd 2e71 79bd
-0.07048801 -0.030971091 -0.06803285 0.071380824 0.02625992 0.055780742 -0.015005708 -0.012236896
-0.059006803 -0.09177215 0.03609522 0.0046033864 0.07143855 0.044158474 -0.030620031 0.021533227
0.051358406 0.021029541 -0.054238025 -0.04371306 0.03317171 -0.026211973 0.0819728 0.05459102
-0.093176186 -0.017717917 -0.056912754 -0.046233296 0.050956566 0.026829874 0.055422924 0.06201595
0.038233493 0.052725814 0.023065729 -0.06549664 -0.06918476 -0.073409386 0.04706711 0.023579441
0.002641956 0.05949363 0.0041692853 0.05308748 0.021804586 -0.027632987 -0.029292827 0.087083824
-0.007315784 -0.025587495 -0.064077325 -0.0021648465 -0.036846682 0.0015291871 0.053435754 -0.03982874
0.064499974 0.025055515 -0.029405896 0.029467309 -0.078100055 -0.005032191 -0.0612807 0.048974745
0.07782219 -0.013890208 -0.009995367 -0.050270595 0.05312636 -0.055664975 -0.033956267 -0.010718158
-0.0014244998 -0.00515963 0.036110945 -0.09081775 0.038977284 0.059115164 -0.09394989 -0.046184823
-0.02454694 -0.039808694 -0.006645029 -0.030492583 -0.011979924 -0.004826475 0.077029616 0.049010385
0.007831704 0.020143563 -0.02433277 -0.07789303 -0.0122079365 -0.033565752 -0.018290645 -0.012162516
0.023501834 -0.090832226 -0.04438723 -0.004625663 0.08393381 0.054510478 -0.02823182 0.07270513
-0.035877436 0.03428391 -0.05448447 -0.072720446 0.03957398 -0.05219109 0.0059363325 0.0749104
0.052286454 -0.021197436 -0.023780687 -0.0050502783 -0.05129852 0.026304727 0.0039133537 -0.06795878
0.006583438 0.048886303 0.052033633 0.05167843 -0.057220936 -0.02571049 0.07668593 0.06320756
-0.011270532 -0.057405405 -0.03262186 -0.032609574 0.053088576 -0.01565608 -0.0066998065 -0.04334428
0.0046670497 0.032777406 0.051523175 -0.053726245 0.06503186 0.07929855 0.09406094 0.0034578668
-0.040047437 0.052357048 -0.06382745 0.013056566 0.08674424 -0.014276405 -0.018166456 0.00059473875
0.01414126 0.084019445 0.04569013 -0.025700312 -0.064113416 -0.06387649 0.08698965 0.007327393
-0.091631286 -0.01049132 -0.05230832 -0.014837263 -0.071975805 -0.07961669 -0.0022420916 0.049096454
-0.06400767 -0.0046903426 0.06071155 0.012117056 -0.043345902 0.051577754 -0.048480324 -0.023403475
-0.03914322 0.039898384 -0.0104640145 0.011154247 -0.06867572 0.036549654 0.006383334 -0.030962965
-0.076760866 -0.077767745 0.028120624 0.035733774 0.059926696 0.061396446 0.022399832 -0.0032930241
-0.067034274 -0.050379377 0.079620704 0.0718665 0.049566854 -0.017757555 0.01406606 0.036677673
0.050796222 -0.048931744 -0.015717054 0.017200734 0.012663849 0.0829633 -0.09365135 -0.050049964
-0.01965735 0.059505872 0.039878123 0.04606744 -0.022816094 0.032309204 -0.013703052 -0.066432506
0.075023316 -0.07109528 0.030198613 -0.02142421 0.023933241 -0.041622598 -0.02299601 0.01772107
0.022236794 0.013727969 0.03713861 -0.06622284 -0.06409046 0.039150856 0.0057925074 -0.051497426
-0.037925217 0.05188051 -0.07136356 -0.07308917 0.023698054 -0.05915175 0.046658397 0.008175365
-0.031941507 -0.07362152 0.0006600972 -0.021168822 -0.07632772 -0.044602003 -0.06060766 -0.012980615
-0.07933608 -0.05336737 0.008553467 -0.03929743 0.00048536903 0.040659007 -0.050869185 -0.060898952

layers.0.f_def.weight f4 [1, 128]
00000000: c77a 96bc 120b 38bd 5aa4 883d b100 9dbc
00000010: 4935 7abb a5b0 52bb 77b5 11be 7936 cf3d
00000020: d2cd f33d d97d 083d 4b4d 163d 25ca a33d
00000030: 0630 2cbc 173c 073d cd05 eebc efcb aebd
00000040: c106 52bd 1b4c f6bc 6381 8fbd 964f be3d
00000050: 3995 f2bd ea1c 7d3c 1e21 b13c d4c4 563d
00000060: 71aa f1bc f93f 13bd 1dda 35bd e6a7 4abb
00000070: f019 0d3d 1cf4 033d 6ac7 28bd 3d2f 6c3d
00000080: ce3b a93d 0720 973d 42f8 b23c cff2 9a3d
00000090: ce32 6f3c 985d 853d 305f e0bd f1b6 d4bc
000000a0: bb15 32bb 6136 cfbc 83f2 04ba 4b1a 5a3c
000000b0: a6f9 36bd 3a7d af3b f987 bf3a 8ee6 32bd
000000c0: 1783 8bbc 529c eabd 42d4 b1bb 4bcf a53d
000000d0: edbc b0bc 6449 d83d 35b1 b63c 763c 95bd
000000e0: fa8c 683d 126c 653d 3704 ad3c 7cf2 033e
000000f0: 003f 973d eed5 3a3d 649a acbd 4aba 553a
00000100: 572e a9bc f86c 1cbd 4179 77bd 154f 8e3d
00000110: 1f96 123d a11d 45bd 39ee 783d c664 e63b
00000120: c1fd 7abc 1b62 85bd 8749 033d 428e 823d
00000130: 705e c7bd 38d1 81bd fef9 b1bc 4218 c2bc
00000140: c34f 173d bc67 2c3d 1fdf 19bc 7e9f 0fbd
00000150: 4666 90bc bba6 b23d ea6c ac3c 812b 0b3b
00000160: 62e6 d03d bfa7 9a3d b1aa 52bc ffd8 adbb
00000170: 34bc 90bb d240 18bd 8a81 a4bc 202c b53d
00000180: 64db 7d3d 2b92 903d dc73 dc3a 65c8 81ba
00000190: 9873 99bd 563d 6e3d f223 223d c3f9 31bd
000001a0: c942 81bc feb0 45bd a29f e53c ec43 573c
000001b0: 3afe 183d 0594 f2bb 6362 093d 17d4 e1bd
000001c0: 06bb 9d3d 3b83 adbc 0c8a 3a3d 7f06 c23d
000001d0: 988f 4abd e88a 913d 24fd 923c 6df0 c13d
000001e0: 076e e0bd 2018 0dbd 1dcf 6bbb 54f4 063d
000001f0: 5438 35bc a994 86bd 77b8 4f3c a044 4b3d
-0.018369092 -0.044932432 0.066719726 -0.019165369 -0.0038178733 -0.0032148745 -0.1422938 0.10117812
0.119044915 0.033323143 0.036694806 0.079975404 -0.010509497 0.03301629 -0.0290555 -0.08534991
-0.051275972 -0.030065587 -0.070071004 0.092925236 -0.11844868 0.015448788 0.021622237 0.052433804
-0.029500218 -0.03594968 -0.044397462 -0.003092283 0.034448564 0.032215223 -0.0412058 0.057662237
0.0826336 0.073791556 0.021846894 0.07565843 0.014599515 0.06511992 -0.109556556 -0.02596614
-0.0027173597 -0.025294485 -0.00050715375 0.013311933 -0.044671677 0.0053555043 0.0014612667 -0.043676905
-0.017030282 -0.11455597 -0.0054269144 0.080961786 -0.021574462 0.10560873 0.022301296 -0.07286923
0.05677507 0.056011267 0.021120174 0.12885469 0.07385063 0.045614175 -0.08427885 0.00081530644
-0.02065198 -0.03818986 -0.06041837 0.069486775 0.035787698 -0.04812396 0.06077406 0.007031056
-0.015319289 -0.06512853 0.032052543 0.0637479 -0.097348094 -0.063387334 -0.02172565 -0.023693208
0.0369413 0.042091116 -0.009391575 -0.035064213 -0.017626893 0.087232076 0.021048028 0.0021235647
0.10200192 0.07551526 -0.012858079 -0.005305409 -0.004416967 -0.037171192 -0.0200813 0.08846307
0.061976805 0.07059129 0.0016819197 -0.0009901641 -0.07492751 0.058163963 0.03958506 -0.043451082
-0.015778916 -0.048264496 0.02803022 0.013138752 0.037351824 -0.007402899 0.033541095 -0.11026781
0.077016875 -0.02118074 0.045541808 0.09473895 -0.049453348 0.071065724 0.017942972 0.09469686
-0.10958486 -0.034446836 -0.0035981603 0.032947853 -0.011060793 -0.065713234 0.012678257 0.049625993

layers.0.W_self.weight f4 [128, 128]
00000000: 3e2a 66bd fb8f c6bd 6ac7 be3d 68f3 863d
00000010: 903b 8bbd 0eac 37bd 0348 52bd 2224 603d
00000020: caca 8dbd 36cc 123d 83e7 573c 6650 783d
00000030: bae8 7c3c 32f7 31bd ba6a 6c3d 22cb e8bc
00000040: 1a02 dd3d 3dc5 0c3d a269 a1bd 4a3e b1bd
00000050: 6141 b33d 4213 a83d 2432 11bd c4b3 9c3d
00000060: 4730 33bd 8f9a 12bc 78ba b93d 87c7 8d3d
00000070: 8622 0cbd 363c 733d b4ad 7d3d 3f4e b23b
00000080: ef1e 50bd 8cf3 9a3c e9c3 dd3d d965 10bd
00000090: 3c83 5abd 2517 41bd 2e94 1ebd e2bd b2bc
000000a0: 8d67 1c3d 7440 443c 10f7 97bd 81c2 9abd
000000b0: 42a4 93bc 5fdc aebd e390 bb3d 0667 22bd
000000c0: 8995 66bd 1f42 b8b9 be3b 8bbd 3c62 013d
000000d0: c381 c0bd b800 283d f55d 9b3d 1e4a 1b3d
000000e0: 65ad 0dbd 9c1d c03c 78a7 76b8 3c44 1cbc
000000f0: 7cfe b4bc 3617 4f3d 75a3 5a3d 314f a23b
00000100: 51ab 8abd 81d6 583b 6a45 9dbc e81a 01bd
00000110: 1ce3 153d d597 0f3d 148d b7bd 7c07 22bd
00000120: 7c05 89bc f2a0 3bbc 87ce 1fbd e088 65bd
00000130: 5346 85bd 3a5a 0e3d 21b5 dfbd 873f a93d
00000140: 4a94 9ebd 3963 013d ffba 4fbd cf05 b73d
00000150: e783 a73d 5b1a 993d 0a3a 47bd 5bf4 f93c
00000160: c433 2f3c 17cf 5ebd b676 a73c 5247 83bd
00000170: 1afd 6cbd 9810 dbbc 13a9 58bc 5104 aa3b
00000180: 93a3 d9bd a071 bcbd b14d af3d 1412 cc3c
00000190: 06ff 08bd a004 88bd 05c2 f3bb 6ef5 973d
000001a0: 6038 9f3d 3010 103d ef63 5ebd f534 caba
000001b0: 2e9f a33c d0ed 21bd fa6b 963c aca5 873d
000001c0: 2deb 6ebd a5f2 033d 9239 51bd 8f5c 5fbd
000001d0: 8092 5dbd 919b e63c 46c6 83bd e3e4 b0bd
000001e0: 241e 9e3d 9df1 56bd b3c9 8a3d 8d55 943d
000001f0: 8f9a 983d 6017 93bd a1b2 aebc a350 263d
00000200: 7b69 9c3d e5b4 973b 9403 103b 3c9f d13d
00000210: 5bde 423d 0346 bb3c 0c4e a8bd f3a7 10bd
00000220: 2bbf c3bd cc33 15bd 0282 a13d 290f 153d
00000230: 55d6 8dbd fd1c 9abd 562c cdbd 5534 cc3d
00000240: e8a9 3f3d cadf e83d f756 debd e8c4 b73d
00000250: 8b51 5ebd fe93 573b c1de ecba 2d46 033d
00000260: bac8 a83d 6047 06bd 8886 3b3c 1b99 103d
00000270: c4ce 1b3d c84b 1d3d dcb3 8d3d e826 44bd
00000280: cc26 913d 8a3a 783d 390f 8ebd 9788 d9bd
00000290: 6cfa 0fbd c208 e03c c8b6 053e 6b38 483d
000002a0: 4544 93bd b178 0a3d da29 833b 4413 ac3a
000002b0: 2860 75bc 771d 023e 01ab 18bd fed6 943d
000002c0: 5d79 083d 5d06 b73d 13ad cf3d e15c 2fbd
000002d0: e87b 443d bd64 8ebd eb5c 8abd 9422 28bd
000002e0: a0c3 613d bef0 9abd d088 81bd c021 383d
000002f0: eb89 8dbd 143d b03d 9ae1 733b 8a0a 9d3d
00000300: 4046 b6bc 9567 c1bd 50cf 2f3d b3ed 8f3d
00000310: 0c74 5ebd fc32 cebc 3486 bf3d d2d0 1a3d
00000320: 0e2a 843d c136 10bd 0b54 5abd 8160 8839
00000330: 97cc c5bd 2742 a3bd f8f3 0e3d 7195 8fbd
00000340: 0d8e 77bb 9e6a 833d 4bb5 4d3c ffab 863d
00000350: d9fe da3c 7e79 0b3d 4cd1 edba 5134 d33d
00000360: ea01 a9bd 97d2 c4bd e311 78bc ad3b 813c
00000370: a5cc 8f3d 65a9 e03d 035a b6bc 764a e83b
00000380: c190 0cbd 1911 cbbc 405d 64bb 0b06 e83d
00000390: ee4e 9fbd d015 ab3d 71ba 8abc 4b3c 88bd
000003a0: 47bb 1bbd 419f ac3d ca29 48bc 92fa 8f3c
000003b0: 6768 1bbc d7a0 6e3d b683 0bbe b7ea 3abd
000003c0: 440e 8fbd 6872 963d 27cb 883d 3682 dfbc
000003d0: c517 3c3c 1d2a eebb 33ae 753d df75 0d3d
000003e0: 0594 64bc 5523 b9bc 9a8a a73d 4d9e 313c
000003f0: cd7e 9dbd 0416 983d 17ed 913d 151d 1ebd
-0.05619263 -0.09695431 0.09315379 0.06589395 -0.0679847 -0.04484182 -0.051338207 0.05472196
-0.069234446 0.035839282 0.013177755 0.06062355 0.015436346 -0.043448634 0.05771897 -0.028417174
0.107914165 0.03436779 -0.07881476 -0.08654459 0.087527044 0.08206798 -0.03544821 0.07651475
-0.043747213 -0.008947982 0.09068769 0.069228224 -0.03421261 0.059383593 0.061933234 0.0054414566
-0.05081075 0.01891496 0.108283825 -0.03525338 -0.05334781 -0.047141213 -0.038715534 -0.021819059
0.03818469 0.011978257 -0.0742017 -0.0755663 -0.01802266 -0.08538126 0.09158494 -0.039649032
-0.05629495 -0.0003514448 -0.06798504 0.031587824 -0.0939975 0.04101631 0.0758628 0.03791248
-0.03458919 0.023451619 -5.8806938e-05 -0.009537753 -0.022094004 0.050559245 0.05337854 0.004953288
-0.06770957 0.0033086839 -0.019198138 -0.0315198 0.03659354 0.035056908 -0.089624554 -0.03955792
-0.016726248 -0.011451947 -0.03901532 -0.056038737 -0.06507554 0.034754016 -0.109232195 0.0826407
-0.07743128 0.031588767 -0.050715443 0.08936655 0.08179455 0.0747573 -0.048639335 0.030512026
0.010693494 -0.054396715 0.020442348 -0.06410088 -0.057858564 -0.026741311 -0.013223904 0.005188503
-0.106269024 -0.0920136 0.0855974 0.024910964 -0.033446334 -0.06641507 -0.0074389004 0.07419859
0.077744246 0.035171688 -0.054294523 -0.0015427159 0.019973364 -0.039533436 0.018362034 0.06623396
-0.05832975 0.032213826 -0.051080294 -0.05453163 -0.05409479 0.028150352 -0.06434302 -0.08637407
0.077205926 -0.052476514 0.06776752 0.0724288 0.07451355 -0.07182193 -0.021325411 0.040604245
0.07637306 0.0046297186 0.002197479 0.1023545 0.047575336 0.022860533 -0.08218011 -0.03531642
-0.09557947 -0.03642635 0.07886125 0.03639141 -0.06925646 -0.0752506 -0.10018222 0.09970919
0.046792895 0.113708094 -0.10856431 0.08973104 -0.054276984 0.0032894607 -0.0018071757 0.032049347
0.082414106 -0.032782912 0.011445649 0.035302263 0.038038984 0.03840235 0.06919071 -0.047888666
0.07087478 0.060602702 -0.06936497 -0.106217556 -0.03515093 0.027347926 0.13058007 0.04888193
-0.07190756 0.033806507 0.004002792 0.00131283 -0.014976539 0.12706552 -0.037272457 0.07267569
0.033318866 0.089367606 0.10140433 -0.042813186 0.04796973 -0.06952808 -0.06756004 -0.0410486
0.055118203 -0.07565449 -0.06324923 0.04495406 -0.069110714 0.086054 0.0037213326 0.07668026
-0.022250295 -0.09443585 0.042922318 0.070277594 -0.05430989 -0.025170796 0.09351769 0.037796803
0.06453334 -0.035208467 -0.053302806 0.00026011842 -0.09658163 -0.07971602 0.034900635 -0.070109256
-0.0037773878 0.0641682 0.012555431 0.065757744 0.026732849 0.03405141 -0.001814404 0.10312713
-0.08252318 -0.09610479 -0.015140983 0.015775526 0.07021455 0.109698094 -0.022259718 0.0070889546
-0.034317736 -0.024788426 -0.003484562 0.113292776 -0.077787265 0.0835377 -0.016934605 -0.06652125
-0.0380204 0.08428813 -0.012216995 0.017575536 -0.009485341 0.058258858 -0.13624462 -0.045633998
-0.06985143 0.0734604 0.06679373 -0.02728377 0.0114802765 -0.007268204 0.059980582 0.03453624
-0.013951306 -0.022599855 0.08180733 0.0108409645 -0.07690201 0.07426074 0.071252994 -0.038601954
