refined_best.pth (torch, 887094 bytes, 35 tensors)

input_norm.weight f4 [7]
0.9670517 0.9107172 0.9206625 1.0159372 0.9794297 1.0179338 1.0321869
00000000: b390 773f c324 693f 8ab0 6b3f 3b0a 823f
00000010: e8bb 7a3f a84b 823f b31e 843f

input_norm.bias f4 [7]
0.036987294 -0.041197393 0.016915966 0.023888383 -0.022252046 -0.008687151 0.0063366694
00000000: fd7f 173d 99be 28bd 5a93 8a3c 92b1 c33c
00000010: ec49 b6bc 8d54 0ebc d6a3 cf3b

layers.0.embed.weight f4 [128, 7]
-0.13243738 0.22401547 -0.004807543 0.1656435 0.15365683 0.01957856 -0.1805466 -0.09136594
-0.11762019 -0.3285505 -0.26440945 0.23124328 0.37465099 0.18090457 0.11862051 -0.15963794
-0.335754 -0.14431925 0.037041087 0.20885031 0.08165924 0.11785131 -0.23056933 -0.24684928
-0.32096365 0.03694357 0.054486174 0.38297305 -0.016392378 -0.31450644 0.36493653 0.20168135
0.24402224 0.27607596 -0.3824993 -0.18094635 0.101544976 0.25897437 0.10303184 -0.31345347
0.2202651 -0.38452768 -0.1346335 0.2043127 0.3520296 0.040678687 -0.057260398 -0.07727888
-0.21152346 0.32828435 -0.042359553 0.1897238 -0.070721634 -0.14233696 -0.004876719 -0.034731682
0.043698356 -0.22019996 0.14526075 0.26580256 0.27924132 0.21846506 -0.22134432 0.25403997
-0.23697847 0.18033133 -0.28369984 0.22620593 0.23286049 -0.2879295 0.15697283 -0.17032258
0.03350078 0.3590605 0.32705447 0.041384008 -0.3439218 -0.055606697 -0.20924115 -0.025988553
0.11167172 0.28117493 0.22709693 0.31519303 0.28989458 -0.29961798 0.054220155 -0.38902763
0.27765477 -0.30362722 0.39639738 -0.09754373 -0.33628342 0.030564029 0.3808445 0.0951993
-0.058426134 0.36930916 -0.33886465 -0.108343475 -0.33473477 -0.030560447 0.08175446 -0.083009996
0.35345012 -0.3202516 0.03229636 -0.118467 0.13271984 0.33142537 -0.29909164 0.3430434
-0.0638485 0.035955857 -0.011929092 0.3578236 0.15473965 0.034172237 -0.078575924 0.14324652
0.18110941 -0.090244554 0.2849448 0.37147582 0.20368859 0.20111391 0.015488128 -0.14749141
0.2849286 -0.28977534 0.07936125 0.015474417 0.39227876 0.13779446 0.027926208 -0.23339143
-0.067779854 0.2442899 -0.18288289 0.32179788 -0.056759704 -0.3060332 0.10047013 -0.22768761
0.24476251 0.39853594 0.16850202 0.3023276 -0.04188508 -0.1994259 0.29351842 0.16763632
-0.14580877 0.07689154 0.041345254 -0.06877359 -0.2227683 0.20622972 0.16571221 -0.24356785
0.05273704 -0.2629806 0.32566196 -0.23042184 0.25133452 -0.04896747 0.32490775 -0.056062218
-0.16830403 0.101467095 -0.11844616 -0.252118 0.07928398 -0.008257867 0.34687442 0.07404644
0.11834957 0.27091974 0.28756386 -0.07206577 -0.021944568 0.02083427 0.07701241 -0.15397541
-0.29175517 -0.29258677 -0.34592688 -0.31943622 -0.025266763 0.21099521 0.20182915 -0.24848354
-0.28509054 0.34123638 -0.1529698 0.10631968 -0.059393134 -0.2981067 0.12563948 -0.2655805
-0.3274936 0.30645126 0.049401414 0.14270623 0.083248496 -0.03301491 -0.28405246 -0.24961407
0.26882035 0.14240645 -0.24816407 0.27662075 0.19240114 -0.22992429 -0.14064333 -0.37006384
-0.044031028 -0.14089769 0.0061631226 0.25003383 0.14972068 0.29393375 -0.19440359 -0.09388083
0.2945424 -0.015867542 -0.20149624 0.0928581 -0.3522468 0.072395295 0.014716849 -0.12322391
0.31041163 -0.08971604 -0.34650186 0.003686817 -0.23489645 0.3143112 -0.11425046 0.27829355
0.258344 0.106212325 0.116174534 0.402867 -0.006750772 -0.16262369 -0.34865484 -0.26291794
0.21372288 -0.2653498 0.18263918 0.08828143 0.21656516 -0.22159414 -0.024003295 0.030216832
00000000: aa9d 07be 5064 653e 9888 9dbb 739e 293e
00000010: 3758 1d3e 3763 a03c 35e1 38be 111e bbbd
00000020: dbe2 f0bd c537 a8be ad60 87be 0acb 6c3e
00000030: 41d2 bf3e 0c3f 393e 4fef f23d 2178 23be
00000040: f3e7 abbe 6dc8 13be 65b8 173d dbdc 553e
00000050: f63c a73d 075c f13d 5e1a 6cbe 0fc6 7cbe
00000060: 5955 a4be 2452 173d e52c 5f3d 0b15 c43e
00000070: 4f49 86bc fd06 a1be f6d8 ba3e 8e85 4e3e
00000080: f7e0 793e d459 8d3e f3d6 c3be 004a 39be
00000090: d0f6 cf3d 4a98 843e 5b02 d33d f97c a0be
000000a0: 2d8d 613e d0e0 c4be 5ddd 09be 5937 513e
000000b0: 393d b43e b29e 263d e189 6abd 6444 9ebd
000000c0: 9b99 58be e314 a83e 3681 2dbd f546 423e
000000d0: 81d6 90bd c8c0 11be e2cc 9fbb cf42 0ebd
000000e0: 0cfd 323d 197c 61be 3cbf 143e 4617 883e
000000f0: b8f8 8e3e 4eb5 5f3e 16a8 62be 8711 823e
00000100: 7caa 72be c7a8 383e 1b41 91be 87a2 673e
00000110: fb72 6e3e 7f6b 93be 7cbd 203e 0b69 2ebe
00000120: 1d38 093d c7d6 b73e af73 a73e 4782 293d
00000130: 8516 b0be d9c3 63bd 5043 56be f2e5 d4bc
00000140: 25b4 e43d 29f6 8f3e 198c 683e fb60 a13e
00000150: 106d 943e 8767 99be f415 5e3d a12e c7be
00000160: c428 8e3e 0775 9bbe 99f4 ca3e 02c5 c7bd
00000170: 572d acbe 6a61 fa3c 0dfe c23e daf7 c23d
00000180: 3e50 6fbd 1716 bd3e ab7f adbe 2fe3 ddbd
00000190: 5b62 abbe e759 fabc e26e a73d 2501 aabd
000001a0: 6af7 b43e 05f8 a3be 3049 043d d49e f2bd
000001b0: b6e7 073e 96b0 a93e 8a22 99be 62a3 af3e
000001c0: 01c3 82bd 7346 133d 3d72 43bc a834 b73e
000001d0: 1274 1e3e 30f8 0b3d 6aec a0bd 37af 123e
000001e0: bf74 393e 23d2 b8bd 49e4 913e 1432 be3e
000001f0: be93 503e cef0 4d3e ebc1 7d3c fd07 17be
00000200: 29e2 913e 6f5d 94be 2788 a23d 6988 7d3c
00000210: c3d8 c83e fe19 0d3e 81c5 e43c 2afe 6ebe
00000220: 2ad0 8abd 2227 7a3e a745 3bbe b1c2 a43e
00000230: dd7c 68bd 62b0 9cbe 49c3 cd3d f126 69be
00000240: 06a3 7a3e e70c cc3e cb8b 2c3e afca 9a3e
00000250: b18f 2bbd 4e36 4cbe 0c48 963e dba8 2b3e
00000260: e54e 15be 5079 9d3d a459 293d 2bd9 8cbd
00000270: 601d 64be e22d 533e 76b0 293e da69 79be
00000280: cb02 583d 65a5 86be 2abd a63e b4f3 6bbe
00000290: ebae 803e 1d92 48bd 4f5a a63e 7fa1 65bd
000002a0: e457 2cbe fbcd cf3d e693 f2bd 9c15 81be
000002b0: a45f a23d 014c 07bc 8699 b13e a9a5 973d
000002c0: 4261 f23d feb5 8a3e 923b 933e 3897 93bd
000002d0: 18c5 b3bc a2ac aa3c afb8 9d3d bbab 1dbe
000002e0: ef60 95be efcd 95be 541d b1be 258d a3be
000002f0: 3efc cebc 210f 583e 4dac 4e3e 7872 7ebe
00000300: 63f7 91be 89b6 ae3e 1ea4 1cbe 22be d93d
00000310: 3746 73bd 71a1 98be a3a7 003e 2bfa 87be
00000320: 3ead a7be 2ee7 9c3e 2359 4a3d 9521 123e
00000330: 307e aa3d a43a 07bd 536f 91be d59a 7fbe
00000340: d2a2 893e ffd2 113e b91e 7ebe 3ca1 8d3e
00000350: ce04 453e 4671 6bbe ce04 10be 0279 bdbe
00000360: e159 34bd 7c47 10be 05f4 c93b 6f04 803e
00000370: 6150 193e 7c7e 963e bc11 47be 9844 c0bd
00000380: 43ce 963e a6fc 81bc 0855 4ebe 632c be3d
00000390: b159 b4be fc43 943d f01e 713c d15c fcbd
000003a0: 46ee 9e3e 0bbd b7bd b168 b1be 869e 713b
000003b0: b288 70be 66ed a03e 25fc e9bd 7e7c 8e3e
000003c0: aa45 843e d985 d93d eaec ed3d 9544 ce3e
000003d0: 9435 ddbb d386 26be e382 b2be 2e9d 86be
000003e0: 2cda 5a3e eedb 87be c405 3b3e e5cc b43d
000003f0: 42c3 5d3e 93e9 62be 8fa2 c4bc 4a89 f73c

layers.0.embed.bias f4 [128]
0.29637814 0.278436 -0.07873729 0.07215026 -0.2215796 0.0016488393 -0.051522754 0.37592322
0.08970508 0.18828222 0.3556174 0.07422444 0.20053627 0.37128517 0.0076487246 -0.07917382
0.329851 -0.3514943 0.3265271 0.3651713 -0.26592493 0.36914882 -0.19418111 0.27243897
0.25819144 0.21339406 -0.22559603 -0.19016428 -0.21264619 -0.067668885 0.051289815 0.30251807
-0.10235336 -0.060450606 0.288179 0.15478253 -0.321482 -0.32407972 0.2525847 -0.329679
-0.27343982 0.26693717 0.16670309 0.05179278 0.21732849 -0.23477313 -0.27547133 -0.14960602
-0.20796224 0.10340338 0.3314116 0.047398355 -0.020500472 0.011152911 -0.077021845 -0.0778924
-0.21560644 -0.15765764 0.12366505 -0.18275121 0.28551212 -0.2775978 0.14399968 0.048189413
-0.21461914 0.07822433 -0.1441334 0.25368673 0.3810064 0.014750885 0.22264077 0.17841126
0.2487344 0.14271249 -0.15356652 -0.16402882 0.31107348 0.0038501772 0.18135962 -0.31095156
0.32443246 0.30488482 -0.33491957 -0.08847953 0.054605898 0.2931531 -0.0535517 0.022679111
-0.31823298 -0.15313543 -0.0795773 -0.36442524 -0.1258677 0.1875289 -0.12701295 0.2800688
0.11028868 0.21428588 -0.10673247 0.28524575 0.3305337 0.058045533 -0.16080062 -0.28852656
-0.0274211 0.0042397226 0.066847436 -0.013556912 -0.041830298 -0.2543637 -0.31477913 -0.21004973
0.21238421 0.28033763 -0.26014555 -0.15053031 0.10115485 0.18104325 0.15601143 0.26878077
0.30175686 0.15752631 -0.24253894 0.05952309 -0.114605784 -0.034795597 -0.29342774 -0.1991236
00000000: e0be 973e 2a8f 8e3e 0441 a1bd 84c3 933d
00000010: c3e5 62be de1d d83a 8609 53bd 0279 c03e
00000020: 4cb7 b73d 0ecd 403e 7c13 b63e fc02 983d
00000030: 6159 4d3e 1719 be3e 27a2 fa3b e225 a2bd
00000040: 3be2 a83e 10f7 b3be 8f2e a73e bcf7 ba3e
00000050: 5027 88be 1301 bd3e 6ad7 46be 1f7d 8b3e
00000060: ab31 843e f983 5a3e a502 67be 6dba 42be
00000070: ecbf 59be fc95 8abd 4515 523d a6e3 9a3e
00000080: a39e d1bd 0e9b 77bd 338c 933e 507f 1e3e
00000090: 4a99 a4be c7ed a5be c852 813e b0cb a8be
000000a0: 4e00 8cbe fdab 883e 37b4 2a3e ab24 543d
000000b0: 5c8b 5e3e 5e68 70be 940a 8dbe 5232 19be
000000c0: 0ef4 54be 27c5 d33d c8ae a93e c724 423d
000000d0: 9bf0 a7bc b3ba 363c a1bd 9dbd 0d86 9fbd
000000e0: efc7 5cbe 0171 21be 1a44 fd3d 2223 3bbe
000000f0: a52e 923e 4d21 8ebe a774 133e 4362 453d
00000100: 1fc5 5bbe 1434 a03d b597 13be 3ae3 813e
00000110: 4513 c33e b2ad 713c f1fb 633e 71b1 363e
00000120: 3bb4 7e3e 3923 123e 8b40 1dbe 2cf7 27be
00000130: 0645 9f3e 4153 7c3b 56b6 393e 0b35 9fbe
00000140: 031c a63e dd19 9c3e 947a abbe c134 b5bd
00000150: 6faa 5f3d 2a18 963e 0759 5bbd 8bc9 b93c
00000160: 6fef a2be 89cf 1cbe 6cf9 a2bd f295 babe
00000170: 76e3 00be 9307 403e af0f 02be 2e65 8f3e
00000180: 08df e13d c26d 5b3e 8e96 dabd bb0b 923e
00000190: b73b a93e 27c1 6d3d eba8 24be c1b9 93be
000001a0: 37a2 e0bc 5fed 8a3b 4fe7 883d cf1d 5ebc
000001b0: 3f56 2bbd f53b 82be bb2a a1be 4717 57be
000001c0: 3f7b 593e 6a88 8f3e cc31 85be 9e24 1abe
000001d0: 462a cf3d 6763 393e 76c1 1f3e a29d 893e
000001e0: e07f 9a3e 944e 213e 215c 78be 7cce 733d
000001f0: 70b6 eabd d485 0ebd 293c 96be 0fe7 4bbe

layers.0.W_att.weight f4 [128, 128]
0.0340115 -0.015265871 0.021311628 -0.060216304 -0.017866133 0.07173091 0.04580247 -0.04674949
-0.07743099 -0.017067932 -0.034456555 0.07355239 0.036408573 0.103247866 0.011389864 0.04414752
0.030739298 -0.025572577 0.032134116 0.068929546 0.08750202 -0.023483971 -0.079315744 0.023942351
0.059216987 0.018165464 0.058025032 -0.005470998 -0.022993963 -0.038292833 -0.089604266 0.04613516
-0.04556017 0.065013945 0.053712342 0.036685888 -0.03243621 0.09619307 -0.07835992 -0.02696854
0.01860777 -0.036628544 0.05719407 0.05554785 0.063277744 -0.0021776473 -0.02727168 -0.098818876
0.02093543 0.0545699 0.007236142 0.033315685 -0.02430664 -0.01579915 -0.03522594 -0.041452825
0.053276587 0.047370464 0.061854094 0.06504193 0.015447645 -0.05680464 -0.09483357 -0.024603618
-0.04795106 -0.015868884 -0.03515418 0.04222801 -0.0144809345 0.0018576434 0.0037486565 0.017162427
-0.027442537 0.090066716 0.00426153 -0.059996445 -0.058418393 0.07032017 0.03175692 -0.0195138
0.032275017 -0.07297261 -0.035128664 0.02323266 -0.024400972 0.03177494 -0.0842485 -0.023623388
0.080021374 -0.06962575 0.009455438 -0.06340231 -0.014651837 -0.08409975 -0.039219674 -0.05616561
0.072786324 -0.013001256 -0.10466634 0.05356861 0.005008098 -0.05312638 0.05741216 0.016813178
0.010417342 -0.07945439 0.025104398 -0.056907035 0.02740524 0.017366001 0.01159894 0.07268256
0.047987837 -0.0945175 -0.08262335 -0.017064726 0.012984337 0.035145573 0.0720264 -0.12676111
-0.017145753 -0.040899355 -0.033747498 0.008818618 0.010085714 -0.03702776 -0.06820604 -0.057218004
-0.054995313 -0.06610573 0.065217115 0.06634771 0.05868461 0.009129109 -0.06269496 0.0077077514
0.02320708 0.061748073 -0.022750795 0.077289835 0.0631539 -0.06531831 -0.01967939 0.0074113654
0.051843233 -0.02467979 0.043621413 -0.0123385005 -0.058794152 -0.026293539 -0.031544346 -0.08194502
0.023694385 -0.006172309 -0.049257085 -0.076148316 -0.05463122 0.081402585 -0.04604991 -0.06887165
-0.013512284 -0.055339538 -0.022448968 -0.027892532 0.03641699 0.09506399 0.022867814 -0.05623923
-0.04461558 -0.07858675 0.08381269 -0.05661456 -0.08781432 0.07154231 0.10220332 0.055934697
0.004513372 0.040363647 -0.031546593 0.018689726 0.084203735 0.0835216 -0.025315687 0.05991683
-0.04971757 0.0444829 -0.016700996 -0.03091794 0.05370948 -0.068385415 -0.00042850943 0.0378586
-0.073488876 -0.018259514 0.067826115 -0.050907355 -0.02888701 -0.014262599 0.07215157 -0.011036887
-0.04527089 0.0045772176 0.023178125 -0.0759756 0.069614336 -0.024629623 -0.02320245 -0.06133569
-0.0016750513 0.053196143 -0.08898162 -0.027548397 -0.0073899436 -0.0975429 -0.020912126 0.020806177
0.023019671 0.0022928566 -0.028327713 -0.01604849 -0.07478601 -0.08108472 -0.090254344 -0.0092789335
0.04797034 0.022575745 -0.0931875 -0.010027229 0.037176963 0.06024319 0.01956854 -0.06556792
0.017369747 -0.06416629 -0.030930717 -0.048411127 -0.03348944 -0.073047206 -0.058588922 0.045711458
0.029360535 -0.029919151 0.06414202 -0.050215404 0.028304612 -0.039519206 0.06318608 -0.0424879
-0.03756678 0.029636662 0.07571212 -0.05365222 -0.03342498 -0.031542968 -0.028329499 -0.03083013
00000000: a54f 0b3d b41d 7abc b995 ae3c 5fa5 76bd
00000010: ff5b 92bc a8e7 923d 5f9b 3b3d 657c 3fbd
00000020: 2494 9ebd 0cd2 8bbc 5122 0dbd a3a2 963d
00000030: 2821 153d 9e73 d33d 8d9c 3a3c 08d4 343d
00000040: fbd0 fb3c 957d d1bc 109f 033d ef2a 8d3d
00000050: 4234 b33d 7561 c0bc 4b70 a2bd c022 c43c
00000060: 838d 723d bdcf 943c a8ab 6d3d 0f46 b3bb
00000070: d65d bcbc f2d8 1cbd 7182 b7bd 39f8 3c3d
00000080: 4d9d 3abd 0826 853d 7901 5c3d f143 163d
00000090: d5db 04bd df00 c53d 2a7b a0bd 21ed dcbc
000000a0: 526f 983c d007 16bd 5444 6a3d 2486 633d
000000b0: c397 813d dcb6 0ebb dc68 dfbc 8d61 cabd
000000c0: c780 ab3c b084 5f3d 291d ed3b 0776 083d
000000d0: b81e c7bc 386d 81bc 1349 10bd 70ca 29bd
000000e0: 8d38 5a3d 8807 423d b85a 7d3d b434 853d
000000f0: 1f18 7d3c fbab 68bd 1a38 c2bd 878d c9bc
00000100: 5568 44bd 76ff 81bc d4fd 0fbd 47f7 2c3d
00000110: 7141 6dbc 2b7c f33a 05ac 753b 3898 8c3c
00000120: 2ccf e0bc e674 b83d 4ea4 8b3b d5be 75bd
00000130: 2048 6fbd 0504 903d 8b13 023d 68db 9fbc
00000140: cf32 043d aa72 95bd 13e3 0fbd 6b52 be3c
00000150: 8ce4 c7bc 7126 023d 7a8a acbd d685 c1bc
00000160: 3fe2 a33d f297 8ebd fbea 1a3c 12d9 81bd
00000170: 420e 70bc 7d3c acbd cfa4 20bd e90d 66bd
00000180: ff10 953d 3803 55bc 4e5b d6bd c26a 5b3d
00000190: f91a a43b 0c9b 59bd 0329 6b3d cabb 893c
000001a0: 80ad 2a3c fcb8 a2bd bda7 cd3c 5a17 69bd
000001b0: f480 e03c 2543 8e3c 7b09 3e3c 98da 943d
000001c0: e58e 443d 6492 c1bd 6e36 a9bd 53cb 8bbc
000001d0: 42bc 543c cef4 0f3d 9482 933d aacd 01be
000001e0: 4075 8cbc 1586 27bd d13a 0abd f77b 103c
000001f0: 8d3e 253c 6caa 17bd 9caf 8bbd 6d5d 6abd
00000200: c442 61bd 7162 87bd 8d90 853d 4fe1 873d
00000210: 465f 703d 4292 153c 3766 80bd 4e91 fc3b
00000220: c61c be3c 8ceb 7c3d e05f babc 224a 9e3d
00000230: d556 813d 9bc5 85bd ac36 a1bc 0adb f23b
00000240: 9259 543d 452d cabc 5eac 323d 6c27 4abc
00000250: 23d2 70bd 8c65 d7bc a534 01bd cad2 a7bd
00000260: ba1a c23c 1541 cabb ccc1 49bd a6f3 9bbd
00000270: fcc4 5fbd 66b6 a63d d59e 3cbd 940c 8dbd
00000280: a062 5dbc b6ab 62bd e6e6 b7bc e17e e4bc
00000290: fb29 153d e9b0 c23d 4855 bb3c 1b5b 66bd
000002a0: d4be 36bd 17f2 a0bd fda5 ab3d abe4 67bd
000002b0: ffd7 b3bd c684 923d f94f d13d c81b 653d
000002c0: e9e4 933b 5a54 253d 0037 01bd 321b 993c
000002d0: 0273 ac3d 5f0d ab3d d862 cfbc 5a6b 753d
000002e0: a7a4 4bbd b433 363d 87d0 88bc 9f47 fdbc
000002f0: 79fe 5b3d a70d 8cbd 90a9 e0b9 9f11 1b3d
00000300: 5681 96bd fa94 95bc 6be8 8a3d 3b84 50bd
00000310: 73a4 ecbc adad 69bc 34c4 933d 0fd4 34bc
00000320: f86d 39bd 7cfc 953b 0de0 bd3c 1899 9bbd
00000330: f691 8e3d 10c4 c9bc 1013 bebc 223b 7bbd
00000340: 658d dbba 33e4 593d ff3b b6bd 2dad e1bc
00000350: 5727 f2bb 92c4 c7bd e84f abbc b771 aa3c
00000360: c093 bc3c c043 163b 850f e8bc 1f78 83bc
00000370: 6829 99bd bf0f a6bd 45d7 b8bd ab06 18bc
00000380: 8c7c 443d c5f0 b83c 17d9 bebd 3f49 24bc
00000390: df46 183d 90c1 763d 344e a03c 7948 86bd
000003a0: 004b 8e3c 9e69 83bd 6a62 fdbc bf4a 46bd
000003b0: 392c 09bd c699 95bd f0fa 6fbd f03b 3b3d
000003c0: 8185 f03c 0219 f5bc e45c 833d abae 4dbd
000003d0: 13df e73c e4de 21bd b467 813d cb07 2ebd
000003e0: a0df 19bd 96c8 f23c f50e 9b3d 6ec2 5bbd
000003f0: a2e8 08bd 3333 01bd 4413 e8bc 788f fcbc

layers.0.phi_att.weight f4 [128, 128]
-0.044504937 -0.07790935 0.06321876 -0.050057203 -0.036631994 -0.058069773 0.03247222 0.036453556
-0.016844988 0.042934947 -0.098653145 0.06550607 -0.027146004 -0.012375106 -0.08660075 0.0053059203
-0.0883951 -0.080852546 0.0050306106 0.10013744 0.063924074 -0.038200792 0.023834445 0.008126683
0.055725895 -0.025902027 0.023427578 0.033238504 0.010912692 -0.004750601 0.044352967 0.07258961
-0.054016344 0.023052296 0.035104305 0.04932364 -0.097686455 -0.029038725 -0.0120102065 -0.102647156
-0.07383852 0.03476036 -0.015773995 0.060549144 0.028975608 -0.06816411 0.0644592 -0.049506627
0.02915862 -0.043298062 0.10205171 -0.0265957 -0.045092266 -0.06346605 -0.07510078 -0.0067994827
-0.013740844 0.055635657 0.098815985 -0.009799178 0.03693779 -0.08374636 0.032055885 -0.06502996
-0.005572702 0.09212495 -0.041099247 -0.006796452 -0.014406967 -0.08525256 0.061948523 0.09124712
0.06788254 -0.032766074 -0.05970142 -0.08410146 -0.032835152 0.06066239 0.092857406 0.023757609
0.034767844 -0.014701296 0.08462451 -0.0077411025 -0.08860338 0.048164655 -0.02283833 -0.060992725
-0.039557006 0.0019646557 0.07255433 0.016824977 0.08134417 0.01440881 -0.030687686 0.09385898
-0.06620366 -0.009546988 -0.06472004 0.094365425 0.050017033 0.054799087 0.015851371 0.07432827
-0.056393195 0.00884127 0.078774676 0.064257294 -0.06021898 0.014482964 -0.004227407 0.044608034
0.09587958 0.06990676 -0.021685278 -0.053670477 -0.07978951 0.042699467 -0.07556641 -0.06825113
0.01688878 0.076664925 -0.038443435 -0.07908332 -0.059040796 0.053649824 0.042368576 -0.0793534
0.061650235 -0.013093299 -0.0516266 0.07145874 0.08107893 0.105153225 -0.052427236 0.037214838
-0.054440465 0.09256048 -0.054586977 -0.022939898 -0.0124106845 0.033491887 -0.086006135 -0.058462214
-0.045940667 -0.029913604 -0.08075155 0.033739895 -0.084455736 0.07797474 0.06790278 -0.03801067
-0.08920071 0.093464315 -0.05006109 0.0114292 0.06520025 -0.03727284 -0.068055525 0.038338713
0.0483787 -0.014685772 0.06544491 0.03164169 0.029822307 -0.039675325 -0.052711107 0.06553623
0.044565573 0.020236336 -0.05526084 -0.061357096 -0.070061445 0.049256593 0.057380255 -0.03016826
0.08781776 -0.07722696 0.07722529 0.06384505 0.005446801 0.049378693 0.08246891 0.032116592
0.05562353 -0.00090884947 0.06621406 0.038721707 0.029808143 -0.04045218 -0.042307645 0.02373652
-0.003814242 -0.0005640606 -0.0622368 0.023685792 -0.016713204 0.005045837 0.06350366 -0.0792742
-0.021387924 -0.0036425102 -0.07816776 0.017993884 0.053331763 0.03073832 0.04939503 0.016167076
-0.0091647925 0.11138511 -0.04933794 0.046946783 -0.028298149 0.041379638 -0.0021196723 0.041064806
-0.06643438 -0.021097466 -0.02609814 -0.0546233 0.020942656 0.04475026 0.059565656 -0.00030369085
0.033546228 0.023859188 0.0205596 0.045009315 -0.06378864 0.029973717 -0.045110688 0.01822587
-0.03254969 0.05129746 -0.067922704 0.022121817 -0.044431288 -0.06845324 0.067917116 -0.070204295
0.04731108 0.06814847 0.052093487 -0.03755523 0.06904698 0.011336625 0.03632214 0.09602486
0.079573624 0.058710784 -0.016599793 0.04163575 0.03516924 -0.08838446 0.08964718 -0.046537418
00000000: cf4a 36bd f08e 9fbd d678 813d c808 4dbd
00000010: 6e0b 16bd 92da 6dbd 9701 053d 5350 153d
00000020: 80fe 89bc 8edc 2f3d a90a cabd 0c28 863d
00000030: 4c61 debc f5c0 4abc bc5b b1bd 49dd ad3b
00000040: 7d08 b5bd 0596 a5bd d2d7 a43b dc14 cd3d
00000050: a0ea 823d 6f78 1cbd 7440 c33c c725 053c
00000060: d640 643d 7d30 d4bc 31eb bf3c 1925 083d
00000070: 26cb 323c eeaa 9bbb 75ab 353d dda9 943d
00000080: 3e40 5dbd 2bd8 bc3c 88c9 0f3d 9607 4a3d
00000090: d60f c8bd 9fe2 edbc 75c6 44bc ac38 d2bd
000000a0: a638 97bd e160 0e3d 7738 81bc 6102 783d
000000b0: 415e ed3c a099 8bbd 2f03 843d 76c7 4abd
000000c0: 0fde ee3c 4f59 31bd 7d00 d13d 3adf d9bc
000000d0: abb2 38bd 7dfa 81bd 70ce 99bd 32ce debb
000000e0: 4721 61bc 37e2 633d 0960 ca3d bb8c 20bc
000000f0: 154c 173d 3683 abbd 084d 033d 6d2e 85bd
00000100: 369b b6bb 01ac bc3d af57 28bd c6b4 debb
00000110: 330b 6cbc e598 aebd bcbd 7d3d c5df ba3d
00000120: 0006 8b3d b835 06bd 7a89 74bd 633d acbd
00000130: 277e 06bd 2079 783d 062c be3d 519f c23c
00000140: ba68 0e3d b4dd 70bc 9d4f ad3d 13a9 fdbb
00000150: b075 b5bd 4d48 453d 7317 bbbc 82d3 79bd
00000160: 8706 22bd 74c1 003b 5d97 943d 89d4 893c
00000170: c697 a63d ee12 6c3c be64 fbbc 2339 c03d
00000180: c995 87bd f86a 1cbc f18b 84bd a942 c13d
00000190: a9de 4c3d 0275 603d bcda 813c 6c39 983d
000001a0: 8dfc 66bd f9da 103c 9e54 a13d 5499 833d
000001b0: 2da8 76bd f449 6d3c 0f86 8abb eab6 363d
000001c0: 835c c43d 462b 8f3d 53a5 b1bc 93d5 5bbd
000001d0: af68 a3bd a3e5 2e3d 90c2 9abd 40c7 8bbd
000001e0: 575a 8a3c 8002 9d3d dd76 1dbd 70f6 a1bd
000001f0: c3d4 71bd ebbf 5b3d ac8a 2d3d 0984 a2bd
00000200: f584 7c3d 4785 56bc 6a76 53bd f658 923d
00000210: b60c a63d 935a d73d f1bd 56bd 966e 183d
00000220: f7fc 5ebd 5990 bd3d 9896 5fbd 74ec bbbc
00000230: 2f56 4bbc ca2e 093d fc23 b0bd 1376 6fbd
00000240: 482c 3cbd 600d f5bc 1261 a5bd d832 0a3d
00000250: 21f7 acbd 38b1 9f3d 9d10 8b3d 14b1 1bbd
00000260: ddae b6bd 386a bf3d dc0c 4dbd 8a41 3b3c
00000270: b587 853d 68ab 18bd b260 8bbd 0e09 1d3d
00000280: be28 463d 989c 70bc fb07 863d b79a 013d
00000290: e94d f43c 9882 22bd 9ae7 57bd dc37 863d
000002a0: 648a 363d acc6 a53c 3159 62bd 9451 7bbd
000002b0: 607c 8fbd 48c1 493d 8f07 6b3d 6d23 f7bc
000002c0: ccd9 b33d 2b29 9ebd 4b28 9e3d 32c1 823d
000002d0: 147b b23b 5041 4a3d 76e5 a83d b08c 033d
000002e0: 80d5 633d db3f 6eba 3d9b 873d a79a 1e3d
000002f0: 3530 f43c 2fb1 25bd c84a 2dbd 1773 c23c
00000300: 5df8 79bb 77dd 13ba 04ec 7ebd b508 c23c
00000310: 21ea 88bc 8c57 a53b 350e 823d 835a a2bd
00000320: ba35 afbc 2eb7 6ebb 6b16 a0bd e967 933c
00000330: 6872 5a3d eece fb3c 7152 4a3d d170 843c
00000340: ed27 16bc e01d e43d 9416 4abd 454b 403d
00000350: 85d1 e7bc b27d 293d 33ea 0abb 9233 283d
00000360: c00e 88bd 98d4 acbc c4cb d5bc aebc 5fbd
00000370: ef8f ab3c 0c4c 373d 1efb 733d b238 9fb9
00000380: c567 093d 5874 c33c 9b6c a83c b05b 383d
00000390: 9ea3 82bd 718b f53c fcc5 38bd 6b4e 953c
000003a0: d352 05bd 491d 523d 0f1b 8bbd d038 b53c
000003b0: 95fd 35bd 3631 8cbd 2118 8b3d 45c7 8fbd
000003c0: 43c9 413d 6d91 8b3d fb5f 553d 83d3 19bd
000003d0: 8168 8d3d 40bd 393c 86c6 143d afa8 c43d
000003e0: 7ff7 a23d b87a 703d 4afc 87bc 408a 2a3d
000003f0: 9f0d 103d e902 b5bd f198 b73d 059e 3ebd

layers.0.phi_att.bias f4 [128]
0.07396195 -0.03358798 -0.06939631 -0.01923 0.10198129 0.059903067 -0.05980138 0.05965949
0.0781971 0.043856796 0.029553987 -0.028040867 -0.01767861 -0.05528479 0.062116235 -0.06773845
-0.053912614 -0.012781397 0.06036469 0.0014388313 0.042358816 -0.017792918 0.07602924 -0.04315275
0.0023220256 -0.07072556 0.047762536 0.086275324 0.06576651 -0.06012905 0.060408168 -0.0010178783
-0.052137103 0.0144203575 -0.03842836 -0.057943475 -0.09206808 0.015987478 -0.007538031 0.07339837
-0.058283165 0.007676517 -0.089386314 -0.08079156 0.0007671413 -0.06329965 -0.049767505 0.086923726
0.0033271033 -0.05091885 -0.042095784 0.0075142477 0.041623645 -0.053228375 0.039912663 0.021192238
-0.032144524 -0.009030067 0.0421618 0.032048054 0.07869796 -0.0053601665 0.07956118 -0.0028073161
-0.040184822 0.050848767 0.025120435 0.065666795 -0.030146584 -0.02232862 -0.038449343 -0.07425627
-0.020422712 0.028670864 -0.06073552 0.017416744 0.09178812 -0.060382877 -0.06171855 0.06738692
-0.029467002 0.013515977 -0.09532365 0.054264937 -0.008693109 -0.017877411 -0.097683854 0.066091776
-0.023425138 -0.039363004 0.009560569 0.0061201397 0.05490396 -0.016065996 0.042401776 -0.05966005
-0.073181294 0.013731233 -0.022009367 0.0236212 0.052481394 -0.0032917182 0.06977683 -0.115886405
0.05274856 0.07233323 -0.09960788 0.016243117 -0.047348194 -0.056324992 0.039854575 0.052415285
0.022045227 0.07956596 0.08192136 -0.026249476 -0.07570723 -0.035562664 0.062777996 -0.07791033
0.04759515 -0.0655659 -0.066863395 0.09398696 -0.015837872 0.07772506 -0.03164117 0.01432257
00000000: 5d79 973d 8d93 09bd a71f 8ebd 3c88 9dbc
00000010: 91db d03d eb5c 753d 4bf2 74bd 825d 743d
00000020: cd25 a03d 2fa3 333d 341b f23c f6b5 e5bc
00000030: bbd2 90bc 4e72 62bd 986d 7e3d 75ba 8abd
00000040: 79d3 5cbd 1169 51bc f740 773d 2b97 bc3a
00000050: 7080 2d3d 74c2 91bc 38b5 9b3d f0c0 30bd
00000060: 202d 183b 90d8 90bd a6a2 433d 1eb1 b03d
00000070: 98b0 863d e149 76bd 8e6e 773d 546a 85ba
00000080: b78d 55bd 5d43 6c3c 0e67 1dbd 2356 6dbd
00000090: 318e bcbd 2cf8 823c 9601 f7bb e251 963d
000000a0: 54ba 6ebd 4b8b fb3b 2c10 b7bd 0c76 a5bd
000000b0: fb19 493a 3fa3 81bd 03d9 4bbd 1105 b23d
000000c0: 880b 5a3b 4990 50bd a16c 2cbd 143a f63b
000000d0: 8e7d 2a3d ff05 5abd 767b 233d 589b ad3c
000000e0: faa9 03bd d9f2 13bc dab1 2c3d d244 033d
000000f0: 652c a13d 56a4 afbb f9f0 a23d f3fa 37bb
00000100: d798 24bd cc46 503d 5fc9 cd3c 507c 863d
00000110: f8f5 f6bc 83ea b6bc 0f7d 1dbd ac13 98bd
00000120: 884d a7bc 29df ea3c cfc5 78bd 8fad 8e3c
00000130: 69fb bb3d 0954 77bd 97cc 7cbd 2702 8a3d
00000140: c864 f1bc 1e72 5d3c 0c39 c3bd e944 5e3d
00000150: 8b6d 0ebc a673 92bc 790e c8bd 205b 873d
00000160: 13e6 bfbc 1a3b 21bd efa3 1c3c 748b c83b
00000170: fae2 603d d69c 83bc 7cad 2d3d 195e 74bd
00000180: 13e0 95bd f7f8 603c fd4c b4bc 3f81 c13c
00000190: bbf6 563d deb9 57bb 28e7 8e3d da55 edbd
000001a0: e00e 583d 7223 943d 37ff cbbd 4910 853c
000001b0: 2ef0 41bd 09b5 66bd 8d3e 233d 69b1 563d
000001c0: 3198 b43c 7af3 a23d 63c6 a73d 2409 d7bc
000001d0: 640c 9bbd 28aa 11bd c091 803d 738f 9fbd
000001e0: 22f3 423d 6a47 86bd adef 88bd 3c7c c03d
000001f0: 6dbe 81bc 512e 9f3d 2c9a 01bd 36a9 6a3c

layers.0.W_p.weight f4 [128, 128]
0.08125969 -0.07210014 -0.06941286 -0.015447032 0.020934658 0.034831434 -0.07255217 -0.077650666
0.014468337 0.067523085 -0.07979295 0.082413435 0.04577606 -0.036682118 0.057083976 -0.028462106
0.027815672 0.082337365 -0.09108364 -0.0010522662 -0.06753412 -0.027832657 -0.07197529 0.04034398
-0.011985972 -0.056967285 0.035709657 0.07819266 0.07307863 0.025276478 -0.05735203 -0.0805283
-0.080966726 -0.0453423 -0.04604408 0.081149705 0.030543111 -0.08578581 -0.08971121 0.01675118
-0.07752362 -0.05107301 -0.08634518 0.081221394 0.07603428 0.08961345 0.07147537 0.023546942
-0.017266959 0.01283506 -0.0106011275 -0.08247134 -0.09494229 0.007079283 0.037313636 -0.067547105
-0.05229886 -0.024385294 0.07831186 -0.037559826 -0.03090394 -0.01783352 -0.03049699 0.058501884
-0.0041886987 -0.05646065 0.034641873 -0.069373414 -0.0049204575 0.04546377 0.05292595 -0.06619861
-0.091952905 -0.063874066 -0.038182702 0.08652118 0.030775238 -0.044229046 0.045052156 0.063294314
-0.075791195 -0.079400755 0.056715507 0.038207963 0.033733558 0.049182996 -0.069170065 0.0062269764
0.08272201 -0.036573272 -0.057048097 0.004476929 -0.008083676 0.05778583 -0.008053346 -0.030952685
0.036459934 0.03210509 -0.047609486 -0.07905658 -0.0022104841 0.050758455 0.08249025 -0.019766375
-0.055699795 0.06379919 0.043721277 0.024027232 -0.05344446 0.022981707 -0.038106948 0.05721165
-0.03627049 0.077357195 -0.041768 -0.03386076 -0.017729785 0.044844285 0.033092465 -0.09417927
0.027912328 0.0041357432 -0.05145419 0.07744338 -0.04844775 -0.07111838 0.043440793 -0.04598901
-0.06481618 0.055605303 -0.024655856 -0.060041737 0.07712234 -0.03130267 -0.048415337 0.027605936
-0.07210019 -0.06371953 0.035861533 -0.012820713 -0.05410361 -0.06572056 -0.05976564 -0.013554875
0.034210175 0.051451176 -0.027881412 -0.027450204 0.03434142 0.040447444 0.021894528 0.0020966895
-0.01430807 0.059104953 0.011922744 -0.018918373 -0.017938742 0.07067347 -0.040328123 0.03350263
0.00028556373 0.08432278 -0.083885945 0.005311256 0.02123927 0.0053637032 0.09186097 0.08711373
0.0063296366 -0.041623525 -0.05923983 0.034156233 0.0008736273 0.065824226 -0.079805285 -0.07662728
0.07084842 0.06667896 0.021228533 0.014341492 0.077508256 -0.07811731 0.0745054 -0.0013291289
0.022721032 0.03400514 -0.035768915 0.04500323 0.07503184 0.006799087 0.018989874 0.028082684
0.018610667 -0.0047248616 -0.017316127 -0.04129218 -0.004746912 0.06640511 -0.023097763 -0.068243064
0.038550757 -0.0006346552 -0.06362883 -0.08101328 -0.030628115 -0.078425415 -0.031703923 -0.0482304
-0.061171424 -0.08099013 0.078380235 0.036637746 0.058378506 -0.057593413 -0.048468135 0.07689632
0.02524537 -0.06241863 -0.06456912 -0.0039484124 -0.063830785 0.010319855 0.0022701633 -0.0005750235
-0.040962603 -0.019343955 -0.05759014 -0.005144139 -0.064976215 0.027555885 -0.07281671 0.081839874
-0.004097437 0.057887554 0.058905683 -0.05920106 0.078865334 0.0038821334 0.043173578 0.077223614
0.06679333 0.051565707 -0.039993413 -0.071206935 0.043089893 -0.005140157 0.05773811 0.08137652
-0.015616284 0.02434371 -0.07066439 0.07743716 0.0672172 -0.013918748 0.01144666 0.014915428
00000000: 7b6b a63d 3da9 93bd 5428 8ebd 8c15 7dbc
00000010: 297f ab3c 68ab 0e3d 3b96 94bd 5007 9fbd
00000020: 9b0c 6d3c 8b49 8a3d 7c6a a3bd 60c8 a83d
00000030: ae7f 3b3d fd3f 16bd e3d0 693d 5d29 e9bc
00000040: b1dd e33c 7ea0 a83d 0f8a babd 32ec 89ba
00000050: 544f 8abd 5001 e4bc c867 93bd bb3f 253d
00000060: cf60 44bc 8756 69bd 4a44 123d 7923 a03d
00000070: 40aa 953d 9e10 cf3c f6e9 6abd 05ec a4bd
00000080: e2d1 a5bd d9b8 39bd b898 3cbd d131 a63d
00000090: 8c35 fa3c 79b0 afbd 83ba b7bd c539 893c
000000a0: b4c4 9ebd ef31 51bd bed5 b0bd 6757 a63d
000000b0: dcb7 9b3d 4287 b73d ae61 923d 84e5 c03c
000000c0: 7073 8dbc 254a 523c 5ab0 2dbc bce6 a8bd
000000d0: 1a71 c2bd 54f9 e73b 2fd6 183d 2356 8abd
000000e0: 5437 56bd abc3 c7bc f861 a03d 55d8 19bd
000000f0: 422a fdbc 9a17 92bc d3d4 f9bc ac9f 6f3d
00000100: 5a41 89bb 4843 67bd a3e4 0d3d a613 8ebd
00000110: ca3b a1bb 3838 3a3d e2c8 583d 2393 87bd
00000120: ce51 bcbd 68d0 82bd 7765 1cbd 0432 b13d
00000130: 5a1c fc3c 8429 35bd 9c88 383d 73a0 813d
00000140: 6a38 9bbd dd9c a2bd 854e 683d f47f 1c3d
00000150: 332c 0a3d 1c74 493d 09a9 8dbd aa0b cc3b
00000160: 286a a93d dbcd 15bd 44ab 69bd 34b3 923b
00000170: 6571 04bc d6b0 6c3d 2ef2 03bc 7c90 fdbc
00000180: 0357 153d a080 033d 2a02 43bd 6be8 a1bd
00000190: c5dd 10bb 19e8 4f3d a6f0 a83d 18ed a1bc
000001a0: 7825 64bd 26a9 823d 1515 333d c2d4 c43c
000001b0: 94e8 5abd 2244 bc3c 0816 1cbd c356 6a3d
000001c0: 5e90 14bd 736d 9e3d ec14 2bbd 95b1 0abd
000001d0: 0e3e 91bc a4ae 373d f78b 073d 10e1 c0bd
000001e0: 65a8 e43c 2185 873b a1c1 52bd a39a 9e3d
000001f0: 2671 46bd 83a6 91bd f9ee 313d f95e 3cbd
00000200: 58be 84bd 63c2 633d 14fb c9bc 53ee 75bd
00000210: 51f2 9d3d 3a37 00bd 294f 46bd d825 e23c
00000220: 44a9 93bd 637f 82bd 8be3 123d f80d 52bc
00000230: bf9b 5dbd 8098 86bd d1cc 74bd 4415 5ebc
00000240: f81f 0c3d 78be 523d 8f67 e4bc 40df e0bc
00000250: 97a9 0c3d 38ac 253d 275c b33c 9d68 093b
00000260: 656c 6abc 0918 723d 9d57 433c b4fa 9abc
00000270: 45f4 92bc 41bd 903d 1a2f 25bd 0e3a 093d
00000280: b7b7 9539 6cb1 ac3d 65cc abbd 0b0a ae3b
00000290: fafd ad3c 01c2 af3b 9b21 bc3d af68 b23d
000002a0: d768 cf3b 6e7d 2abd 77a5 72bd 68e7 0b3d
000002b0: 2304 653a dace 863d f470 a3bd c3ee 9cbd
000002c0: fa18 913d fb8e 883d 76e7 ad3c 94f8 6a3c
000002d0: a6bc 9e3d f8fb 9fbd 4a96 983d 2a36 aeba
000002e0: 7521 ba3c f948 0b3d 6d82 12bd 4f55 383d
000002f0: 4baa 993d e0ca de3b a790 9b3c a80d e63c
00000300: 6675 983c 03d3 9abb 8dda 8dbc fd21 29bd
00000310: fc8b 9bbb 67ff 873d 8537 bdbc 05c3 8bbd
00000320: 66e7 1d3d fd5e 26ba d54f 82bd 4aea a5bd
00000330: d0e7 fabc 819d a0bd f9db 01bd 3d8d 45bd
00000340: e38e 7abd 27de a5bd d185 a03d 7611 163d
00000350: 4d1e 6f3d 12e7 6bbd 8686 46bd d17b 9d3d
00000360: 61cf ce3c adaa 7fbd d13c 84bd af61 81bb
00000370: b7b9 82bd 9c14 293c 05c7 143b 2dbd 16ba
00000380: 67c8 27bd 3777 9ebc a3e3 6bbd 2a90 a8bb
00000390: 4012 85bd e1bc e13c ed20 95bd aa9b a73d
000003a0: cb43 86bb 801b 6d3d 1647 713d d07c 72bd
000003b0: 2684 a13d 646b 7e3b c7d6 303d 6a27 9e3d
000003c0: f1ca 883d 9036 533d 22d0 23bd f1d4 91bd
000003d0: 077f 303d c36e a8bb cc7e 6c3d bca8 a63d
000003e0: 71db 7fbc 766c c73c 7eb8 90bd 6097 9e3d
000003f0: 2ca9 893d 760b 64bc c68a 3b3c d75f 743c

layers.0.W_p_prime.weight f4 [128, 128]
0.00034901683 0.05550875 -0.0012342936 -0.023237087 0.046126157 0.0030917549 0.051841985 -0.019564109
0.039407253 0.017940424 -0.050220832 0.042233318 0.0001314449 0.025768952 8.290327e-05 -0.039423127
-0.013990951 0.073544696 -0.04370995 -0.030303624 -0.0048328233 0.030844843 0.041137937 0.072412476
-0.04811831 0.03463481 -0.0848605 0.022386136 0.0243862 -0.08930381 0.03573102 0.011454138
-0.0824162 0.06483868 -0.009390608 0.043497253 0.042021766 -0.072053336 -0.069546744 0.08531157
-0.0022531815 0.06632026 0.046954736 0.074453846 -0.052526325 -0.055542033 0.047042944 0.04328924
-0.033978153 -0.0721251 -0.05208145 0.030509535 -0.031880837 0.04170368 -0.041043133 -0.06930638
0.015788358 -0.03469295 0.059159182 0.034290563 0.03008428 0.071035124 -0.024299731 -0.062233403
-0.06021891 0.045789268 -0.062091563 -0.08266495 -0.009726867 -0.04989854 0.07727174 0.08510853
-0.047206093 -0.06175964 0.013716495 -0.060978457 -0.016920105 0.01839807 -0.071942225 0.06504264
-0.025219316 0.028864613 -0.011486603 -0.07458616 0.05431133 -0.06117715 -0.005266544 0.0033567848
-0.0037573606 -0.06444916 -0.02530823 -0.028087184 -0.05501223 0.08535049 -0.0028272253 -0.0946198
0.07629534 -0.06901015 -0.008774173 -0.07413424 0.030195925 0.048940156 -0.03944383 0.080059685
0.01955552 0.056374285 -0.063409664 -0.059635613 0.05004106 -0.061871175 0.050062254 -0.026491497
0.020016951 -0.07337967 -0.010544263 -0.07703796 -0.041970134 -0.0735802 0.056049947 0.035998553
0.02013937 -0.08911656 -0.00071092625 0.0032652388 0.049626864 0.08158118 0.07183484 -0.0144075425
-0.019423626 0.06252704 -0.02828329 -0.064856246 0.029395543 0.0024491488 -0.02607163 0.01000399
0.025485104 -0.07973382 0.043513384 -0.08200929 -0.07460854 0.007877003 0.010283552 -0.03277206
-0.040055476 0.040450633 -0.027557066 0.07632653 0.041235246 -0.03012349 -0.07150677 -0.049586643
-0.019266756 -0.047420204 -0.006967989 -0.058765557 0.005166423 0.041599926 -0.08261826 0.04248275
0.053226173 -0.016139464 -0.009894086 -0.081690155 -0.079481065 0.07449477 0.053025667 0.02125193
-0.07992416 0.04685291 0.031498548 0.049078822 -0.055266175 -0.031137887 0.016704626 -0.065449506
0.051790193 -0.0656837 -0.079663135 0.026034515 -0.073946126 -0.008832229 -0.036659475 0.008617662
-0.060835566 0.034478113 -0.02143582 -0.027800601 -0.0086733615 -0.012096747 -0.007780145 0.003918648
-0.012914185 -0.043664582 -0.01688914 -0.08820687 0.0089676 -0.020674776 -0.055878054 -0.06101377
-0.044895735 -0.03983016 0.07388501 -0.035700586 0.092521966 0.06085725 0.084626466 0.017082987
-0.015657827 -0.059859466 -0.06389469 0.032803573 0.054552574 0.021136152 0.07455798 -0.019095594
-0.033333775 -0.065476865 0.031582262 0.06814448 0.028485512 0.0660772 0.021168748 0.024958609
-0.07557454 0.08012392 0.048277866 -0.082234755 -0.03874975 0.0017466105 -0.069944195 0.085054785
0.014838089 0.03354293 0.06624533 -0.028069807 0.02109347 -0.0050175483 -0.041770447 -0.06998329
0.014517612 -0.01858133 -0.038986225 -0.03396763 0.061601836 0.07459975 0.02849649 -0.0680301
0.040119465 -0.04682522 -0.07528389 0.076203644 -0.07483249 0.020484988 0.05423605 0.07509684
00000000: 3ffc b639 255d 633d 05c8 a1ba b45b bebc
00000010: c8ee 3c3d 0a9f 4a3b 4358 543d e944 a0bc
00000020: 8069 213d ccf7 923c 5cb4 4dbd d8fc 2c3d
00000030: 79d4 0939 6919 d33c 5bdc ad38 257a 21bd
00000040: 4d3a 65bc 9a9e 963d 3409 33bd 4e3f f8bc
00000050: a95c 9ebb 53ae fc3c 4180 283d fe4c 943d
00000060: b417 45bd 3bdd 0d3d 58cb adbd 2163 b73c
00000070: 91c5 c73c eae4 b6bd b15a 123d 23aa 3b3c
00000080: d3c9 a8bd 24ca 843d 11db 19bc 2d2a 323d
00000090: 041f 2c3d b390 93bd 866e 8ebd d5b7 ae3d
000000a0: 1daa 13bb ebd2 873d 9c53 403d 427b 983d
000000b0: d825 57bd 0b80 63bd 1ab0 403d 0f50 313d
000000c0: ad2c 0bbd 53b6 93bd 5c53 55bd 22ef f93c
000000d0: 7b95 02bd 7ad1 2a3d d81c 28bd 81f0 8dbd
000000e0: 9656 813c 321a 0ebd e650 723d 4374 0c3d
000000f0: 4f73 f63c dd7a 913d 3b10 c7bc 74e8 7ebd
00000100: 1ba8 76bd 878d 3b3d b953 7ebd 3e4c a9bd
00000110: 705d 1fbc 6962 4cbd a540 9e3d 624d ae3d
00000120: 2d5b 41bd adf7 7cbd 26bb 603c 8cc4 79bd
00000130: 089c 8abc 8db7 963c 7256 93bd 1335 853d
00000140: bd98 cebc 7b75 ec3c 4e32 3cbc a1c0 98bd
00000150: 8f75 5e3d e494 7abd f992 acbb 81fd 5b3b
00000160: 0d3e 76bb ecfd 83bd 3553 cfbc 1817 e6bc
00000170: 8154 61bd 3dcc ae3d f848 39bb 07c8 c1bd
00000180: bb40 9c3d 3255 8dbd 8dc1 0fbc b1d3 97bd
00000190: 725d f73c 7975 483d da8f 21bd 55f6 a33d
000001a0: e632 a03c b9e8 663d eddc 81bd 7944 74bd
000001b0: dbf7 4c3d a16c 7dbd 140e 4d3d b204 d9bc
000001c0: 97fa a33c 1548 96bd d8c1 2cbc 14c6 9dbd
000001d0: e0e8 2bbd 37b1 96bd a194 653d 3873 133d
000001e0: 52fb a43c be82 b6bd 745d 3aba 9efd 553b
000001f0: 8a45 4b3d 0914 a73d 251e 933d 9d0d 6cbc
00000200: 4c1e 9fbc 2d0e 803d 5cb2 e7bc 5ad3 84bd
00000210: ecce f03c e681 203b 2c94 d5bc c6e7 233c
00000220: 23c6 d03c 7c4b a3bd 173b 323d 7df4 a7bd
00000230: 5dcc 98bd 8c0e 013c 587c 283c ff3b 06bd
00000240: 3611 24bd 90af 253d 5bbf e1bc 1551 9c3d
00000250: 4ae6 283d 8ac5 f6bc 2472 92bd 5d1b 4bbd
00000260: 51d5 9dbc b03b 42bd ba53 e4bb 27b4 70bd
00000270: 194b a93b af64 2a3d c333 a9bd 6402 2e3d
00000280: b003 5a3d e936 84bc ce1a 22bc 2b4d a7bd
00000290: f8c6 a2bd b790 983d 7131 593d 8718 ae3c
000002a0: 47af a3bd d6e8 3f3d 9f04 013d e006 493d
000002b0: c95e 62bd e214 ffbc 24d8 883c 640a 86bd
000002c0: f421 543d 2d85 86bd 6d26 a3bd 5646 d53c
000002d0: 1171 97bd 0eb5 10bc 3f28 16bd 1831 0d3c
000002e0: b72e 79bd ec38 0d3d 2c9a afbc 16be e3bc
000002f0: b71a 0ebc 6f31 46bc 96f0 febb 0168 803b
00000300: 0596 53bc a2d9 32bd 185b 8abc cea5 b4bd
00000310: d7ec 123c 265e a9bc 63e0 64bd 93e9 79bd
00000320: 97e4 37bd f324 23bd 0651 973d c73a 12bd
00000330: 287c bd3d 7445 793d a450 ad3d 9ff1 8b3c
00000340: d844 80bc 332f 75bd 38db 82bd 0a5d 063d
00000350: 8572 5f3d b925 ad3c dbb1 983d 5d6e 9cbc
00000360: ff88 08bd bc18 86bd 675c 013d 558f 8b3d
00000370: 735a e93c 7c53 873d 156a ad3c ff75 cc3c
00000380: d3c6 9abd 0318 a43d 03bf 453d b26a a8bd
00000390: 0fb8 1ebd 86ee e43a e73e 8fbd 3431 ae3d
000003a0: 751b 733c 5064 093d a2ab 873d a7f2 e5bc
000003b0: 36cc ac3c 3f6a a4bb 7d17 2bbd 6653 8fbd
000003c0: 47db 6d3c e037 98bc 05b0 1fbd a421 0bbd
000003d0: 3552 7c3d c1c7 983d 7971 e93c 5d53 8bbd
000003e0: 4f54 243d cdcb 3fbd 712e 9abd a810 9c3d
000003f0: c741 99bd 22d0 a73c 9f26 5e3d 5fcc 993d

layers.0.f_def.weight f4 [1, 128]
0.12719946 -0.15420328 -0.013176053 -0.07601432 0.12976362 -0.04840441 0.019918703 0.0950708
0.01576909 -0.0015894 0.02673745 0.025928417 -0.04012859 0.08555326 -0.09980275 0.086206585
0.01790729 -0.0021762399 -0.019787828 -0.081929125 -0.15431812 0.08307998 0.108874775 -0.0046803635
-0.13479991 0.10135892 -0.10494072 -0.036497444 -0.10179187 -0.035081044 -0.036814034 -0.023985812
-0.058112778 -0.10832629 -0.11672177 0.020033954 -0.070451565 0.08341766 0.068030104 0.066174746
-0.017196896 -0.1191879 0.025462847 0.06698109 -0.0060523814 0.051801726 0.036153264 -0.11730529
0.13845043 0.041250233 0.030773386 0.09457038 -0.07707545 -0.012729713 0.08738836 -0.08020513
-0.07429632 0.04875763 0.062366277 0.011874333 0.04344547 0.084228076 0.035109635 -0.07971268
-0.061639983 0.093796976 -0.007283261 0.11860844 0.041256208 0.053223375 0.049896426 -0.100663126
-0.09770201 -0.022298021 0.14002253 -0.019724226 0.11868737 -0.0029429672 -0.1170203 0.049464937
-0.080193765 0.07755141 0.048936743 0.017361103 0.016046615 -0.08196664 0.10493178 0.027553875
0.06166843 -0.05163876 -0.12221552 -0.0064352704 -0.019246716 -0.08272575 -0.014331357 -0.09613931
0.045897942 0.045255505 -0.09762938 0.03404705 0.030380294 -0.04305772 0.02499962 -0.027187949
-0.028733607 -0.020494182 0.0049143317 0.037251115 -0.059625838 0.100338385 0.09823728 0.010156895
-0.010544962 0.030837573 0.041964795 -0.105592474 -0.08511025 0.0204968 -0.04835575 -0.055807356
0.07430008 0.048022788 -0.07963673 -0.05954724 0.036365677 -0.12077642 -0.0935835 0.09210894
00000000: 9340 023e 77e7 1dbe 5fe0 57bc 65ad 9bbd
00000010: c1e0 043e b443 46bd 8c2c a33c 7bb4 c23d
00000020: 2e2e 813c 6a53 d0ba 7f08 db3c d567 d43c
00000030: e05d 24bd 8c36 af3d 6265 ccbd 148d b03d
00000040: 4fb2 923c 3f9f 0ebb 151a a2bc 75ca a7bd
00000050: 9205 1ebe d625 aa3d bdf9 de3d bc5d 99bb
00000060: fd08 0abe 4495 cf3d 29eb d6bd 587e 15bd
00000070: 4278 d0bd 24b1 0fbd 50ca 16bd e57d c4bc
00000080: aa07 6ebd 2dda ddbd d30b efbd 3f1e a43c
00000090: e948 90bd e1d6 aa3d 5e53 8b3d a086 873d
000000a0: 81e0 8cbc c918 f4bd 7697 d03c 622d 893d
000000b0: 0e53 c6bb 0c2e 543d 7215 143d c23d f0bd
000000c0: f3c5 0d3e 01f6 283d 7818 fc3c 1eae c13d
000000d0: bcd9 9dbd 4990 50bc abf8 b23d 9642 a4bd
000000e0: ab28 98bd 15b6 473d c873 7f3d 908c 423c
000000f0: e1f3 313d c57f ac3d 1fcf 0f3d 6740 a3bd
00000100: 357a 7cbd a118 c03d 6ca8 eebb fbe8 f23d
00000110: 45fc 283d c100 5a3d 3260 4c3d 7828 cebd
00000120: fe17 c8bd 57aa b6bc 1162 0f3e b394 a1bc
00000130: 5d12 f33d ccde 40bb 57a8 efbd bf9b 4a3d
00000140: a13c a4bd 46d3 9e3d e571 483d df38 8e3c
00000150: 3174 833c 20de a7bd 79e6 d63d aab8 e13c
00000160: 0998 7c3d 2a83 53bd 214c fabd f6de d2bb
00000170: 4aab 9dbc 1e6c a9bd 11ce 6abc b0e4 c4bd
00000180: 7bff 3b3d d65d 393d eaf1 c7bd eb74 0b3d
00000190: 18e0 f83c 4b5d 30bd 01cc cc3c 43b9 debc
000001a0: be62 ebbc 6ae3 a7bc 6708 a13b a094 183d
000001b0: 393a 74bd 367e cd3d a130 c93d 1b69 263c
000001c0: c7c4 2cbc 149f fc3c 47e3 2b3d de40 d8bd
000001d0: 484e aebd e8e8 a73c ae10 46bd 4196 64bd
000001e0: a42a 983d 8bb3 443d 9518 a3bd cfe7 73bd
000001f0: 2df4 143d a159 f7bd b5a8 bfbd 9da3 bc3d

layers.0.W_self.weight f4 [128, 128]
0.052431844 -0.011745605 0.055810023 0.002045521 0.024846883 -0.08441518 -0.095838696 -0.03698532
-0.01143365 -0.035896834 -0.04884719 -0.06301258 0.09104951 0.06463836 -0.00332789 -0.03946982
-0.0130567225 -0.07168112 -0.055588458 -0.057622086 0.09947639 0.069795586 -0.042874984 0.026969949
0.024752669 -0.046655703 0.07278898 -0.049567446 -0.006460333 0.023692824 0.0027476018 -0.09434051
0.03591112 0.0200382 -0.0594875 -0.023841199 0.053923 -0.010303174 -0.066692434 -0.014357208
0.06091829 -0.06701825 -0.06795568 0.0057977657 -0.022966655 0.07399679 0.010647871 -0.08511874
-0.08676178 -0.0365022 -0.007642667 0.06482562 -0.032161266 0.0004825766 -0.054835178 0.032017495
-0.001960416 -0.088493 0.09449147 0.048096046 0.023629185 -0.028982792 -0.041547433 -0.038845066
-0.020538727 0.025849355 0.034287382 0.06085303 0.08077715 -0.06555993 -0.0634972 -0.020134056
0.06651654 -0.020392345 0.027071618 -0.03078769 0.022642242 0.042804923 0.0032053597 0.07121813
0.020940466 -0.0903928 -0.09485036 0.04627692 -0.072746135 0.0656086 -0.01673086 0.047343478
-0.06922762 -0.01668565 0.04392402 -0.02499162 0.010514623 0.0550428 -0.02283596 0.016208688
0.055144407 0.01976122 -0.026298052 0.07096716 0.063298404 0.058672506 -0.02220579 0.013562677
0.00998916 -0.034117337 0.066196725 -0.04267671 0.07290034 0.0064472947 -0.0860461 -0.06492417
-0.07285238 -0.07418328 -0.033641927 -0.038868457 0.0027751096 -0.0005624637 0.0849143 -0.03870877
-0.09044983 0.018803056 0.081442215 0.095307805 0.024356995 -0.00098963 0.050403524 0.033744957
-0.03652952 -0.020920701 -0.019648857 -0.06604486 0.10463692 0.043013625 -0.015683018 0.016707055
0.07531776 0.024479216 0.056415845 0.073249534 0.00095198146 0.020381898 -0.09070126 -0.010189963
0.057222757 0.0696646 -0.08205046 0.007856264 -0.03239995 -0.05189686 0.015331787 0.009982289
0.028969469 -0.057984915 0.014780088 0.033502467 0.017791562 -0.006575367 0.054546114 0.05285163
-0.03636026 -0.07610786 -0.024804007 -0.08096282 0.042454563 -0.047985278 -0.089118645 -0.02763089
0.10157714 0.029898085 0.04093997 -0.06711936 -0.034457643 -0.06430159 0.0420083 -0.013371769
0.08963506 0.032626733 0.053504825 0.055316158 -0.018654212 0.02507022 -0.020442583 -0.003810616
-0.072412826 -0.039036106 -0.025281355 0.097677596 -0.05786315 0.061464753 0.018016001 -0.06937952
-0.046744972 -0.040460892 0.051157255 0.069646664 -0.024290439 0.085501485 -0.10820909 -0.06823229
0.057808954 0.0625884 -0.0008838448 0.08380883 -0.010806421 0.01734658 0.023905551 -0.02204568
0.022831166 -0.019972853 0.09567025 -0.023652827 0.046496224 -0.035390742 0.04941001 -0.078563854
0.07099581 0.038113326 0.03812309 -0.0072213216 -0.065171674 -0.0040711397 -0.07363455 0.04742293
-0.01828507 0.042955115 -0.057074178 -0.0844919 0.013982404 -0.013039303 -0.0068702586 -0.08766748
0.054135147 -0.009358764 -0.01101742 0.109136775 0.047593758 -0.003072527 0.021224385 -0.078099705
0.0032488531 0.05797834 -0.03559314 0.07475618 0.030855857 -0.05054345 0.07483298 0.062460076
-0.063109666 0.059256837 0.00524217 -0.05483391 0.03665421 0.040923364 0.015124652 0.09032659
00000000: c6c2 563d a370 40bc 0d99 643d 260e 063b
00000010: b18b cb3c dee1 acbd 1447 c4bd eb7d 17bd
00000020: 3454 3bbc 8f08 13bd fe13 48bd bd0c 81bd
00000030: 2a78 ba3d 1e61 843d bb18 5abb 1bab 21bd
00000040: ddeb 55bc 8dcd 92bd b9b0 63bd 2305 6cbd
00000050: 47ba cb3d fdf0 8e3d ae9d 2fbd 15f0 dc3c
00000060: 1cc6 ca3c 0d1a 3fbd 6412 953d 3c07 4bbd
00000070: 33b1 d3bb 7417 c23c 1c11 343b 9935 c1bd
00000080: 8a17 133d 2727 a43c 2aa9 73bd 9e4e c3bc
00000090: 5dde 5c3d a5ce 28bc 0b96 88bd 7f3a 6bbc
000000a0: 7585 793d dd40 89bd 592c 8bbd 2ffb bd3b
000000b0: 9124 bcbc a18b 973d 6874 2e3c bc52 aebd
000000c0: 29b0 b1bd 5583 15bd 566f fabb 4bc3 843d
000000d0: 88bb 03bd 5602 fd39 da9a 60bd c724 033d
000000e0: 537a 00bb d13b b5bd be84 c13d 5c00 453d
000000f0: fe91 c13c 526d edbc a42d 2abd 011c 1fbd
00000100: d540 a8bc 07c2 d33c ed70 0c3d 0741 793d
00000110: 7e6e a53d 4944 86bd d20a 82bd 2df0 a4bc
00000120: d339 883d d90d a7bc 4cc5 dd3c 7736 fcbc
00000130: 397c b93c 3754 2f3d 0311 523b d0da 913d
00000140: 578b ab3c dc1f b9bd e840 c2bd de8c 3d3d
00000150: edfb 94bd cd5d 863d 280f 89bc 3ceb 413d
00000160: 36c7 8dbd 58b0 88bc ace9 333d 3abb ccbc
00000170: 8645 2c3c 8f74 613d 7b12 bbbc 15c8 843c
00000180: 1adf 613d 48e2 a13c 036f d7bc 3b57 913d
00000190: 98a2 813d 9552 703d ebe8 b5bc fe35 5e3c
000001a0: 93a9 233c 9fbe 0bbd 2692 873d c6cd 2ebd
000001b0: c64c 953d d443 d33b f038 b0bd f7f6 84bd
000001c0: a133 95bd 67ed 97bd 1ecc 09bd 8834 1fbd
000001d0: 9dde 353b 4d72 13ba 8ce7 ad3d 168d 1ebd
000001e0: c33d b9bd de08 9a3c 2dcb a63d bd30 c33d
000001f0: 5288 c73c 79b6 81ba ed73 4e3d 2738 0a3d
00000200: fa9f 15bd e461 abbc a4f6 a0bc 8742 87bd
00000210: e24b d63d 0e2f 303d ac79 80bc 3cdd 883c
00000220: 3340 9a3d a388 c83c 4d14 673d da03 963d
00000230: 658e 793a f0f7 a63c 95c1 b9bd cdf3 26bc
00000240: 6962 6a3d 50ac 8e3d 120a a8bd 8fb7 003c
00000250: cfb5 04bd cd91 54bd 2d32 7b3c c18c 233c
00000260: 6151 ed3c 9781 6dbd 2f28 723c e239 093d
00000270: 9cbf 913c 2d76 d7bb bf6b 5f3d f37a 583d
00000280: 7fee 14bd 70de 9bbd c631 cbbc d6cf a5bd
00000290: d6e4 2d3d 368c 44bd d683 b6bd 2d5a e2bc
000002a0: ad07 d03d d4ec f43c acb0 273d e075 89bd
000002b0: 7523 0dbd 8db0 83bd e510 2c3d 4415 5bbc
000002c0: 9692 b73d 9ca3 053d e027 5b3d 3293 623d
000002d0: b8d0 98bc 1060 cd3c 3477 a7bc 87bb 79bb
000002e0: 2d4d 94bd 53e4 1fbd d81a cfbc 310b c83d
000002f0: e901 6dbd 77c2 7b3d 4b96 933c da16 8ebd
00000300: a877 3fbd 52ba 25bd 458a 513d e9a2 8e3d
00000310: befc c6bc 671b af3d ba9c ddbd 5fbd 8bbd
00000320: 15c9 6c3d 592e 803d d2b1 67ba f7a3 ab3d
00000330: 6a0d 31bc 6a1a 8e3c 93d5 c33c 2499 b4bc
00000340: 6d08 bb3c 1c9e a3bc c4ee c33d 93c3 c1bc
00000350: d372 3e3d e2f5 10bd 2762 4a3d 16e6 a0bd
00000360: 4066 913d b81c 1c3d f526 1c3d d6a0 ecbb
00000370: ba78 85bd 3267 85bb b6cd 96bd 8c3e 423d
00000380: 92ca 95bc b4f1 2f3d 9dc6 69bd 170a adbd
00000390: 7416 653c cda2 55bc e81f e1bb 028b b3bd
000003a0: d1bc 5d3d 8055 19bc 6982 34bc 1a83 df3d
000003b0: acf1 423d 735c 49bb c3de ad3c bdf2 9fbd
000003c0: b6ea 543b b27a 6d3d 1dca 11bd c519 993d
000003d0: 6cc5 fc3c a606 4fbd 0942 993d 23d6 7f3d
000003e0: a43f 81bd 4cb7 723d 82c6 ab3b 8699 60bd
000003f0: ba22 163d 429f 273d 63cd 773c 26fd b83d
