refined_07new.pth (torch, 888358 bytes, 36 tensors)

input_norm.weight f4 [7]
0	0x3f67c0d2	0.90528595
1	0x3f3f6d19	0.74775845
2	0x3f657453	0.8963062
3	0x3f629096	0.8850187
4	0x3f79bf0f	0.9755716
5	0x3f84809f	1.0351752
6	0x3f846f89	1.0346538

input_norm.bias f4 [7]
0	0x3da953d9	0.08267946
1	0xbd93981f	-0.07206749
2	0x3d7bdea9	0.061491642
3	0x3c25216a	0.010078767
4	0xbc85b8ab	-0.016323408
5	0x3be4d5d5	0.0069834986
6	0xbcfa15fb	-0.03052806

layers.0.embed.weight f4 [128, 7]
0	0x3ea60e24	0.32432663
1	0xbe77e013	-0.24206571
2	0xbdbdd755	-0.09269587
3	0x3e36ae88	0.17840016
4	0xbeb8b8fd	-0.36078635
5	0xbc93fbcf	-0.018064408
6	0xbe18f09d	-0.14935537
7	0xbe5d10de	-0.21588466
8	0xbde6461f	-0.11243843
9	0xbe839c4f	-0.25705191
10	0xbd403545	-0.0469258
11	0xbc6f260b	-0.0145964725
12	0xbe2e27b3	-0.17007332
13	0x3ddf72b5	0.109105505
14	0xbe06626c	-0.13123482
15	0x3d84cf95	0.06484906
16	0xbda6457c	-0.08118722
17	0xbe12d2a6	-0.14338169
18	0x3e5537eb	0.20822112
19	0x3ec13d6b	0.3774217
20	0xbeb677a8	-0.35638165
21	0x3d874cbe	0.06606434
22	0x3d883d10	0.06652272
23	0xbd5de544	-0.054173723
24	0xbe83c7de	-0.25738424
25	0xbe9340a0	-0.28760242
26	0xbd37e70d	-0.04489808
27	0x3e347d89	0.17626013
28	0xbdf6245a	-0.12018652
29	0xbdd1a573	-0.10236635
30	0xbd96fbfd	-0.07372282
31	0x3e9c8573	0.30570564
32	0x3c2be7ba	0.01049226
33	0x3e81bc4f	0.2533898
34	0xbaff9fdb	-0.0019502597
35	0x3e13036f	0.14356779
36	0xbdab8b23	-0.083761476
37	0x3e8916cf	0.26775214
38	0xbe1aeea0	-0.1513009
39	0xbe4eb939	-0.20187844
40	0xbdd5dd8c	-0.10442647
41	0x3e29598d	0.16538067
42	0xbe9b79bf	-0.30366322
43	0xbe97930d	-0.29604378
44	0xbdea57ff	-0.11442565
45	0x3e1d21a5	0.15344866
46	0x3dfb0c8a	0.12258251
47	0xbe679479	-0.22615232
48	0x3db1ae8a	0.08675869
49	0xbeb1d1d7	-0.34730408
50	0xbeabdfc6	-0.33569163
51	0x3e3cd0d1	0.18439032
52	0xbe2cbf06	-0.16869745
53	0xbe53949f	-0.20662163
54	0xbe7ac757	-0.24490105
55	0xbdc0eeba	-0.094205335
56	0xbc5cc4b9	-0.013474637
57	0x3e39c709	0.18142332
58	0xbe4b048c	-0.19825953
59	0xbe6614e5	-0.22468908
60	0x3dc30386	0.095221564
61	0x3e63ec87	0.22258197
62	0xbe0f4574	-0.13991338
63	0xbe2f18ff	-0.17099379
64	0x3de64d3a	0.112451985
65	0xbe0416da	-0.12899342
66	0x3e9222ec	0.28542268
67	0xbe51b994	-0.20480949
68	0xbe03d771	-0.12875153
69	0xbb9abe3d	-0.004722385
70	0xbeb31ba2	-0.3498202
71	0xbe5f374e	-0.21798441
72	0xbdeb09a2	-0.11476447
73	0xbc9d7745	-0.019221911
74	0xbdfe84de	-0.12427686
75	0xbe4cd73f	-0.20003985
76	0xbe8254ae	-0.2545523
77	0x3ea026de	0.31279653
78	0x3cb9b409	0.022668855
79	0xbe8b9e38	-0.2726915
80	0xbdde9083	-0.10867407
81	0x3e12cf47	0.14336883
82	0x3dba224f	0.09088575
83	0x3e391cb7	0.1807736
84	0x3e620a64	0.22074276
85	0x3e651985	0.22373016
86	0x3e1b1811	0.151459
87	0x3e148105	0.14502342
88	0x3ddd61de	0.10809682
89	0xbe460a8b	-0.1933996
90	0x3e1c3336	0.1525391
91	0xbe09b5b7	-0.13448225
92	0x3e378b42	0.17924216
93	0xbe1f58a3	-0.15561156
94	0x3e659776	0.22421059
95	0xbe861d87	-0.26194403
96	0xbe33991a	-0.17538872
97	0xbdfa4f88	-0.12222201
98	0xbe910c33	-0.2832962
99	0x3e8acf74	0.271114
100	0x3eaa3f5e	0.3325147
101	0x3df2d869	0.11857683
102	0xbe236dc6	-0.15959844
103	0x3c93e1b9	0.018051969
104	0x3e04b292	0.12958744
105	0x3eb31911	0.34980062
106	0x3e05452c	0.13014668
107	0xbe0268ba	-0.12735263
108	0xbdeb617f	-0.11493205
109	0xbe9f9bba	-0.31173497
110	0xbebe5ed2	-0.37181717
111	0x3e11fffa	0.14257804
112	0x3d88e3bd	0.06684063
113	0x3e84fd0f	0.25974318
114	0x3ea48d78	0.32139182
115	0xbe61faf5	-0.22068389
116	0x3eab55ab	0.33463797
117	0xbe6edb0f	-0.23325752
118	0x3e9275a4	0.28605378
119	0xbe672738	-0.22573555
120	0x3dffd7c7	0.12492328
121	0x3de496e6	0.11161594
122	0x3d723f9f	0.059142705
123	0x3e8c2daa	0.2737859
124	0x3e87cc44	0.2652303
125	0xbc9a134c	-0.01880803
126	0x3e9bef97	0.3045623
127	0xbd3fbccc	-0.04681091
128	0x3d9fb733	0.07798614
129	0x3e63039f	0.2216935
130	0xbe31ca7e	-0.17362401
131	0x3e91dcd4	0.2848879
132	0xbe090e78	-0.13384426
133	0x3e240c2d	0.1602027
134	0xbe3a87ff	-0.18215941
135	0xbecd1f50	-0.40062952
136	0x3ccb457b	0.024813404
137	0x3d31b7a4	0.043388024
138	0xbe582d7e	-0.21111104
139	0xbe7a9c78	-0.2447375
140	0x3ca3583b	0.019939533
141	0x3e8c0d46	0.27353877
142	0x3e208d13	0.15678816
143	0xbea8ee3d	-0.3299426
144	0x3eb360bb	0.35034737
145	0x3e6fea81	0.234293
146	0x3e942c98	0.28940272
147	0xbe2ffd3b	-0.17186444
148	0x3d521e7b	0.0512986
149	0xbc78a67a	-0.01517641
150	0x3cc71291	0.024300845
151	0x3d7b5c76	0.061367474
152	0x3eb97f77	0.3623006
153	0xbe7b53b4	-0.24543649
154	0xbdf63d1d	-0.12023375
155	0xbe56925d	-0.2095427
156	0xbeb365b2	-0.35038525
157	0xbe267995	-0.16257317
158	0x3e8c6ac1	0.27425197
159	0x3e68e5f8	0.22743976
160	0xbeaa34ec	-0.332435
161	0x3ba98836	0.0051737083
162	0xbe193011	-0.14959742
163	0x3dac788e	0.084214315
164	0x3de5dba0	0.11223531
165	0x3dbc2b3a	0.09187932
166	0xbdb22889	-0.08699138
167	0xbdef01e3	-0.11670282
168	0x3d14f9e9	0.036371145
169	0x3cc2bdaa	0.02377208
170	0x3e14e348	0.14539826
171	0xbea06140	-0.31324196
172	0x3ec6dace	0.3883881
173	0x3eb466c2	0.35234648
174	0x3e38516e	0.17999813
175	0xbea65d10	-0.32492876
176	0xbcb76bcb	-0.022390267
177	0xbd35e433	-0.04440708
178	0xbe9568cb	-0.29181513
179	0xbbccee58	-0.0062539987
180	0xbe13491c	-0.14383358
181	0x3e08484e	0.13308832
182	0xbe67e4ab	-0.22645824
183	0xbc568ce2	-0.0130951125
184	0x3e2a8193	0.16650991
185	0x3d2e9c28	0.04262939
186	0x3daaee48	0.0834623
187	0xbe2b5d38	-0.16734779
188	0x3ddd13ce	0.10794793
189	0x3e3f5aac	0.18686932
190	0xbd9d216d	-0.07672391
191	0xbcd784e2	-0.02630848
192	0x3d9a49e9	0.075336285
193	0xbe5ba0b7	-0.21448027
194	0x3cf11ba1	0.02943212
195	0xbea535eb	-0.322677
196	0x3e8ed77e	0.27898782
197	0x3d9b52db	0.07584163
198	0x3e81902c	0.25305307
199	0xbea65521	-0.32486823
200	0xbe7a015b	-0.2441458
201	0x3ece2164	0.4025985
202	0xbe8b055e	-0.27152532
203	0xbe8110fb	-0.25208268
204	0x3c16fe91	0.009215967
205	0x3eb034cc	0.3441528
206	0xbe5f1482	-0.21785167
207	0x3e96d5e5	0.29460064
208	0x3e09fb56	0.13474783
209	0x3e9dfc08	0.30856347
210	0x3e075327	0.13215314
211	0x3eaa3bbc	0.332487
212	0x3e8eb607	0.2787325
213	0x3dc2912f	0.09500348
214	0x3cb22413	0.021745717
215	0x3db6c5ee	0.08924471
216	0x3e986947	0.2976782
217	0xbe597c93	-0.21238928
218	0x3e2c3a1a	0.16819039
219	0xbd32a1bc	-0.043611273
220	0x3e13fedc	0.1445269
221	0x3ea9e70d	0.3318409
222	0x3d39af00	0.04533291
223	0x3e9815f3	0.29704246
224	0xbe244d7e	-0.16045186
225	0x3e02a33d	0.12757583
226	0x3d1b3bce	0.03789883
227	0x3e878ce1	0.2647467
228	0xbd5edcd7	-0.054409828
229	0xbe46a96a	-0.19400564
230	0x3ece9b4e	0.40352863
231	0xbe7d4e6d	-0.24736948
232	0xbdf4220a	-0.11920555
233	0xbe9fcefc	-0.31212604
234	0xbe86c78d	-0.2632412
235	0x3e15eaad	0.14640303
236	0x3da1ed8c	0.079066366
237	0x3ea74abb	0.32674202
238	0xbd9c9440	-0.07645464
239	0xb7c41ecd	-2.3379363e-05
240	0xbe485a94	-0.19565803
241	0x3ea7cc65	0.32773128
242	0xbd537670	-0.051626623
243	0xbe8a32f8	-0.2699201
244	0xbe86f6e8	-0.2636025
245	0x3e9853b5	0.29751363
246	0x3e13f3b5	0.14448436
247	0x3e99581d	0.29950038
248	0xbdf42412	-0.11920942
249	0x3e0c3da1	0.13695385
250	0xbdedcb54	-0.116110474
251	0x3ebfcebd	0.37462416
252	0xbc5c80cd	-0.013458443
253	0xbd054670	-0.032537878
254	0x3e379b67	0.17930375
255	0xbe9b0729	-0.302789

layers.0.embed.bias f4 [128]
0	0xbc0caff4	-0.008586872
1	0xbe0810f2	-0.13287714
2	0x3e9f1ad7	0.31075165
3	0xbeb6ee5e	-0.35728735
4	0x3e31c4b9	0.173602
5	0xbe11369c	-0.14180988
6	0xbe801d2f	-0.25022265
7	0x3e6cd750	0.2312901
8	0xbe2657a3	-0.16244368
9	0x3e6a0d96	0.22856745
10	0x3e77435a	0.24146786
11	0x3e80e2dc	0.2517308
12	0x3d866080	0.06561375
13	0x3d0df629	0.034658585
14	0xbd235eae	-0.039885215
15	0xbe6ddccf	-0.23228763
16	0xbe81cbb8	-0.25350738
17	0xbe512275	-0.204233
18	0x3e78089d	0.24222036
19	0x3e423786	0.18966493
20	0xbea24bd9	-0.31698492
21	0x3e40da5d	0.18833299
22	0x3dd0e547	0.10199981
23	0x3b0756f1	0.0020651186
24	0xbdae4731	-0.085096724
25	0xbebb01c9	-0.365248
26	0x3d9e5146	0.077303454
27	0x3e790fd9	0.24322452
28	0xbe839d25	-0.2570583
29	0x3e918cea	0.2842782
30	0xbeb484d1	-0.3525758
31	0x3e1b4dd2	0.15166405
32	0xbea9a8f9	-0.33136728
33	0xbe437649	-0.19088091
34	0xbe45bd7a	-0.19310561
35	0x3ea311fd	0.3184966
36	0x3eafb1a3	0.34315214
37	0xbdf2e135	-0.11859361
38	0x3e751a6c	0.2393586
39	0xbd9a0ee7	-0.07522374
40	0x3e13f6a0	0.14449549
41	0x3e1e24df	0.15443753
42	0xbe9ee202	-0.31031805
43	0xbebabe48	-0.36473298
44	0xbca618a7	-0.020275427
45	0xbe526643	-0.20546822
46	0x3e06ac9b	0.13151781
47	0xbc23f4bc	-0.01000708
48	0x3daacd68	0.083399594
49	0xbda8ece5	-0.08248309
50	0x3e0cb6af	0.13741563
51	0x3df95445	0.12174276
52	0xbe30bda6	-0.17259845
53	0x3cdb5315	0.026773015
54	0x3eafcb3b	0.3433474
55	0x3e078aa2	0.13236478
56	0xbdaf8725	-0.08570699
57	0xbe3b1c17	-0.18272434
58	0xbda28105	-0.07934765
59	0x3eaef3c2	0.34170347
60	0xbea6dcec	-0.32590425
61	0x3deadf6e	0.11468397
62	0x3e43ce5c	0.19121689
63	0x3e9cc74d	0.30620804
64	0x3e0d6582	0.13808253
65	0x3ddf1942	0.108934894
66	0x3df4c176	0.11950962
67	0x3e396ccd	0.1810791
68	0x3ca2d38a	0.01987626
69	0x3e7c8d19	0.246632
70	0xbea6123c	-0.32435787
71	0x3ea216d9	0.31658056
72	0xbe940dac	-0.2891668
73	0x3e87e4a7	0.26541635
74	0x3e823fbb	0.25439247
75	0x3e319012	0.17340115
76	0xbe60a676	-0.219385
77	0xbea02d82	-0.3128472
78	0xbe897611	-0.2684789
79	0x3e83297e	0.25617594
80	0x3eb7705d	0.35827914
81	0xbe824dfc	-0.25450122
82	0x3e1d824d	0.15381737
83	0xbdf98462	-0.12183453
84	0x3d27633d	0.040866125
85	0x3e7d56e5	0.24740179
86	0x3ecdc0d1	0.4018617
87	0xbdecb7ad	-0.11558471
88	0x3ea75f63	0.32689962
89	0x3ead14bb	0.3380488
90	0xbdfe8044	-0.124268085
91	0xbe70875d	-0.23489137
92	0xbe87ed6a	-0.2654832
93	0xbd5eb955	-0.054375965
94	0xbdd436bf	-0.103620045
95	0x3e6ed829	0.23324646
96	0x3e20abf0	0.15690589
97	0xbe2db577	-0.16963755
98	0xbd092770	-0.033484876
99	0x3d7fb440	0.06242776
100	0xbd19ab9d	-0.03751718
101	0x3d1a7f4f	0.037719067
102	0x3ea88225	0.32911792
103	0x3c98a931	0.018635364
104	0x3e1e3dc1	0.15453245
105	0x3e2244dd	0.15846582
106	0x3e4c0c20	0.199265
107	0x3bc86611	0.006115683
108	0x3e3fc8b4	0.18728906
109	0x3c7348ed	0.01484893
110	0x3e823ce6	0.25437087
111	0x3e9c5373	0.30532417
112	0xbcd1f175	-0.025627831
113	0x3db8986d	0.09013448
114	0xbe92812c	-0.28614175
115	0xbeaec25c	-0.3413266
116	0x3e99919e	0.2999391
117	0xbea99a34	-0.3312546
118	0x3e7c894f	0.24661754
119	0x3e725172	0.23663881
120	0x3e8339ed	0.2563013
121	0xbeaed32f	-0.34145495
122	0x3e11fcfb	0.1425666
123	0xbd8c5169	-0.06851465
124	0x3e6fe316	0.2342647
125	0x3ebffefb	0.37499222
126	0x3e416e46	0.18889722
127	0x3cff645e	0.031175788

layers.0.W_att.weight f4 [128, 128]
0	0x3ccf11e2	0.025277082
1	0xbd67b668	-0.05657044
2	0x3d2b64bf	0.041844126
3	0xbd360494	-0.04443796
4	0x3d7e281c	0.06204997
5	0x3d82c22b	0.06384691
6	0x3d4cc21c	0.049989805
7	0xbd871da4	-0.065974504
8	0x3d9fb739	0.07798619
9	0xbda77895	-0.08177296
10	0xbc2f6908	-0.010706194
11	0xbd80c9ee	-0.06288515
12	0x3db51ec0	0.08843756
13	0xbdb86007	-0.09002691
14	0x3b3271e2	0.0027228524
15	0xbcc338c7	-0.023830784
16	0x3d210164	0.039307967
17	0xbd309f51	-0.043120686
18	0xbd736641	-0.05942369
19	0x3d12f2b8	0.035876006
20	0xbd4c7c35	-0.04992314
21	0xbd942d74	-0.07235232
22	0x3ced8278	0.028992876
23	0x3d2e0cdc	0.042492732
24	0xbc2cb8f9	-0.010542148
25	0xbb89eacf	-0.0042088996
26	0xbd6a115f	-0.057145473
27	0x3d4f274a	0.05057458
28	0xbc3d3661	-0.0115486095
29	0xbd558906	-0.05213263
30	0xbd615246	-0.055010103
31	0xbd068f05	-0.032851238
32	0xbd943423	-0.07236507
33	0x3db4a658	0.0882079
34	0xbd67eb64	-0.05662097
35	0xbccd87ad	-0.02508911
36	0xbcd0d699	-0.025492953
37	0x3db60db0	0.088893294
38	0xbc1d0cb4	-0.009585548
39	0x3c8ee8bd	0.017444963
40	0x3c01f491	0.007931844
41	0xbc12d3e6	-0.008961653
42	0xbd25849a	-0.04040966
43	0x3ccd83e0	0.025087297
44	0xbd6a71f2	-0.057237573
45	0xbd98c93d	-0.07460258
46	0x3d45bc96	0.048275553
47	0x3b3a1021	0.0028390961
48	0xbc025ef9	-0.007957214
49	0xbd91d16c	-0.07120022
50	0x3ca3e0d4	0.020004667
51	0xbda38dae	-0.07986008
52	0x3c884c89	0.016638057
53	0x3daf4c71	0.08559502
54	0x3d7f4807	0.06232455
55	0xbd46584d	-0.048424054
56	0x3c3d64ee	0.011559708
57	0xbd960058	-0.07324284
58	0xbcc6d6e7	-0.024272395
59	0x3d6a76b0	0.057242095
60	0xbd44df72	-0.048064657
61	0x3b2a77ca	0.0026011341
62	0x3d7a29d2	0.06107504
63	0xbcc5a97d	-0.02412867
64	0x3db064b7	0.0861296
65	0xbcc953c7	-0.024576081
66	0xbd536557	-0.051610317
67	0xbd537dc6	-0.05163362
68	0xbd2d0710	-0.042243063
69	0xbc9f697b	-0.019459477
70	0x3d09b5fa	0.033620812
71	0xbcaaa92c	-0.02083262
72	0x3d97c714	0.07411018
73	0x3db2148a	0.08695324
74	0xbc628de1	-0.013827772
75	0x3da6d84e	0.081467256
76	0x3bd3ac9c	0.0064597856
77	0x3d364b5a	0.044505455
78	0x3d4822d6	0.048861347
79	0xbd092297	-0.033480253
80	0xbd12623a	-0.035738207
81	0xbdb86827	-0.090042405
82	0x3cd6375f	0.02614945
83	0xbd803cbd	-0.06261585
84	0x3d7a3da6	0.06109395
85	0xbd08fdd2	-0.033445187
86	0x3d832eb9	0.06405396
87	0xbd243cdb	-0.0400971
88	0x3cd83a08	0.026394859
89	0x3cbd4d5d	0.023108179
90	0xbc3a34fa	-0.01136517
91	0xbd67a847	-0.056556966
92	0xbd2f09ae	-0.04273384
93	0x3d561642	0.05226732
94	0x3d11b90d	0.03557687
95	0xbc5f0761	-0.013612599
96	0x3d08d3c5	0.033405084
97	0xbdb53983	-0.0884886
98	0x3d87db1e	0.0663359
99	0x3c7a87b1	0.01529114
100	0x3d90edb4	0.07076588
101	0xbdb91fd8	-0.09039277
102	0x3c4206fe	0.011842487
103	0x3c4ae8d6	0.012384614
104	0x3d182b13	0.037150454
105	0x3c5310d2	0.012882428
106	0x3d653825	0.055961747
107	0xbd64e9ce	-0.055887036
108	0xbd88d17a	-0.066805795
109	0x3c2d0c19	0.010561966
110	0xbd905247	-0.07046943
111	0xbcd242de	-0.02566665
112	0x3d2fee34	0.042951778
113	0x3d490b6d	0.049083162
114	0xbc3c79ea	-0.011503676
115	0x3a84d683	0.001013473
116	0x3daa0a86	0.083027884
117	0x3d69736d	0.056994844
118	0x3d4f6e2c	0.050642177
119	0x3d7803a6	0.060550354
120	0x3d2dce19	0.04243288
121	0x3d65ead9	0.05613217
122	0x3d86542a	0.06559022
123	0xbd99fda8	-0.07519084
124	0x3d3c2f4d	0.045943547
125	0xbd867cc2	-0.065667644
126	0x3afb61d2	0.0019178933
127	0x3d9d5e1c	0.076839656
128	0x3d704b46	0.058665536
129	0x3d5c4396	0.053775392
130	0xbd6bf098	-0.057602495
131	0xbc94294f	-0.018086104
132	0x3cf73419	0.03017621
133	0xbc1c2e2c	-0.009532493
134	0x3d044515	0.032292444
135	0xbbb3d6df	-0.005488261
136	0xbd029b59	-0.031886432
137	0x3d4ebc97	0.050472822
138	0xbdb97726	-0.09055929
139	0x3d1b515b	0.037919383
140	0xbd888a12	-0.0666696
141	0x3c9842b4	0.018586494
142	0xbdb43bea	-0.0880049
143	0xbd868934	-0.06569138
144	0x3cb111b3	0.021614885
145	0xbcf1e6b2	-0.02952895
146	0xbd834cfa	-0.064111665
147	0xbd718f5a	-0.0589746
148	0x3c8b36a8	0.016993836
149	0xbd50d750	-0.050986588
150	0xbcdf4cb2	-0.02725825
151	0x3d1a8d11	0.037732188
152	0x3918b728	0.0001456408
153	0xbd9ec72f	-0.07752835
154	0xbd837b0b	-0.06419953
155	0x3d5cc665	0.05390014
156	0x3db176f0	0.08665264
157	0xbd1e5980	-0.038659573
158	0xbd7d99a6	-0.06191411
159	0xbcd89dd5	-0.026442448
160	0x3c994818	0.018711135
161	0x3d6dbed0	0.0580433
162	0xbd20745e	-0.039173476
163	0x3c4e8596	0.012605092
164	0x3d9a5853	0.07536378
165	0xbd689ccd	-0.056790162
166	0x3da344f1	0.07972134
167	0xbd14de31	-0.03634471
168	0x3cb4dd05	0.022078047
169	0x3c26d153	0.010181743
170	0x3d7584af	0.05994099
171	0x3c211423	0.009831461
172	0x3dcbe1f2	0.09955205
173	0xbd588229	-0.052858505
174	0x3c58950b	0.013219128
175	0xbca9bf87	-0.02072121
176	0x3d4f89fa	0.050668694
177	0xbd90fff4	-0.07080069
178	0xbd30792f	-0.04308432
179	0xbd254e71	-0.04035801
180	0x3da2505d	0.07925484
181	0x3c978a3e	0.018498536
182	0x3ce2871c	0.027652316
183	0x3d62c38f	0.05536228
184	0x3d283e45	0.04107501
185	0x3d34bfb4	0.044128135
186	0x3d9f7e15	0.0778772
187	0x3d96af83	0.07357695
188	0x3da0c5a8	0.078502
189	0x3d177811	0.03697974
190	0x3db42817	0.08796709
191	0xbcd4ae4c	-0.025962017
192	0xbcfe1c09	-0.031019228
193	0x3d60202a	0.054718174
194	0xba53d06f	-0.000808007
195	0x3d908873	0.070572756
196	0x3d31b0fe	0.043381684
197	0x3ca60a00	0.02026844
198	0x3d0b7fa9	0.034057293
199	0x3d885966	0.066576764
200	0xbd6c39cf	-0.057672318
201	0xbd8e5487	-0.06949716
202	0x3d1f715d	0.03892647
203	0xbd531f35	-0.051543433
204	0x3d955dca	0.072932795
205	0x3c80f438	0.015741453
206	0x3d5fc5b9	0.054631922
207	0x3d6f548f	0.05843025
208	0x39ee6d0b	0.0004547614
209	0x3d7c3a2d	0.06157892
210	0xbd2b3d6b	-0.04180662
211	0xbd0533d3	-0.032520127
212	0x3c02c2cd	0.007981014
213	0x3cc051a5	0.023476431
214	0x3ae3c8cf	0.0017378571
215	0x3bec9a73	0.00722056
216	0xbc9a3e12	-0.018828426
217	0xbd9f7a71	-0.07787026
218	0xbd6c280a	-0.05765537
219	0x3a46b907	0.0007580672
220	0x3d772313	0.060336184
221	0xbd3a8ae9	-0.04554263
222	0x3ce42206	0.027848255
223	0xbdce9ff7	-0.100891046
224	0x3ca0c4dd	0.019625122
225	0xbcc0fdaa	-0.023558456
226	0xba716e00	-0.00092098117
227	0x3d81769e	0.063214526
228	0x3d780efc	0.060561165
229	0x3bd7916c	0.006578615
230	0xbd200b0b	-0.03907303
231	0xbcc4d6a1	-0.024028124
232	0x3d9762b3	0.07391872
233	0x3d69cce2	0.057080157
234	0x3cf82e7a	0.0302956
235	0x3cdba804	0.026813515
236	0x3d06a270	0.032869756
237	0x3cbbcce4	0.022924848
238	0xbd9cdb95	-0.076590694
239	0x3d36058b	0.04443888
240	0xbc2ebc26	-0.010664975
241	0xbd72204c	-0.059112832
242	0x3d539296	0.051653467
243	0x3dae4424	0.085090905
244	0xbc5bf82d	-0.013425869
245	0xbd0aa8a9	-0.033852253
246	0xbbd20916	-0.0064097745
247	0x3ad34569	0.0016118708
248	0x3d350ea0	0.0442034
249	0xbcdb92d2	-0.026803408
250	0x3d9baf64	0.076018125
251	0x3da9b4b6	0.08286421
252	0x3c769aec	0.015051585
253	0xbcc14462	-0.023592178
254	0xbd5c5222	-0.053789265
255	0xbd68f302	-0.056872375

layers.0.phi_att.weight f4 [128, 128]
0	0x3ca35083	0.019935852
1	0xbd547cb8	-0.051876754
2	0xbd193ea3	-0.03741325
3	0xbcdee74d	-0.027209902
4	0x3b6aaccd	0.0035808564
5	0x3c01e3d4	0.007927854
6	0x3cba843f	0.022768138
7	0x3da367d1	0.07978786
8	0x39598692	0.00020744864
9	0xbdacb99a	-0.08433838
10	0xbc8821c3	-0.016617661
11	0x3ceeb846	0.029140603
12	0xbc3ebcb5	-0.011641671
13	0xbc80a359	-0.01570289
14	0x3d81a1c2	0.06329681
15	0x3a5d1eaa	0.000843505
16	0x3e0aa3a7	0.13538991
17	0xbd5116fe	-0.051047318
18	0xbe247903	-0.16061787
19	0xbc318c3a	-0.010836655
20	0x3d4b8555	0.049687702
21	0x3d88a65f	0.06672358
22	0xbdb2d3d0	-0.08731806
23	0xbdc40b6b	-0.0957249
24	0xbd457d7a	-0.048215367
25	0xbd009a65	-0.031397242
26	0x3d7a2e75	0.06107946
27	0xbdf50fb4	-0.11965886
28	0x3d574822	0.052559026
29	0x3d483dd4	0.04888709
30	0x3d4fd9af	0.05074471
31	0xbd00d823	-0.031456124
32	0xbd0026e9	-0.031287108
33	0x3c8a3069	0.016868787
34	0xbd5ac309	-0.053408656
35	0x3dc8aade	0.09798215
36	0xbc9ec66c	-0.019381724
37	0xbd37eb70	-0.044902265
38	0xbd937cd9	-0.07201547
39	0xbdd46052	-0.10369934
40	0xbd083b91	-0.033259932
41	0xbcc794d5	-0.02436296
42	0xbdb02524	-0.08600834
43	0xbd9ff891	-0.07811082
44	0xbda28f35	-0.07937471
45	0xbd76394b	-0.060113233
46	0x3d9bf9b7	0.07615989
47	0xbcd6c65d	-0.026217634
48	0x3cf98fc5	0.030464062
49	0xbda17fd3	-0.07885709
50	0x3d8aee8f	0.06783783
51	0xba4b24d4	-0.0007749323
52	0xbd66c63f	-0.056341406
53	0xbd8c21f4	-0.068424135
54	0x3c90ae5a	0.017661262
55	0xbd708690	-0.05872208
56	0x3db9e3c4	0.09076646
57	0xbda48594	-0.080332905
58	0xbd5bbf7b	-0.053649407
59	0xbda9fc42	-0.083000675
60	0x3d3c3016	0.045944296
61	0x3d3d4c5a	0.046215393
62	0xbdaf42c6	-0.08557658
63	0xbc893a0d	-0.016751314
64	0x3d96809c	0.07348749
65	0xbdba7f27	-0.09106284
66	0x3d8e3aea	0.06944831
67	0x3b7886a9	0.003792206
68	0xbd263268	-0.040575415
69	0xbdb4a6f6	-0.08820908
70	0xbd445452	-0.047931977
71	0x3cfbefa7	0.030753924
72	0xbd18df17	-0.03732213
73	0x3d32cff1	0.04365534
74	0xbd5c8178	-0.05383441
75	0xbda1c237	-0.07898372
76	0x3dafbb11	0.08580602
77	0x3cd95c7c	0.026533358
78	0xbd7ea2b6	-0.062166892
79	0x3d80d553	0.06290688
80	0x3daba266	0.083805844
81	0xbb43ec54	-0.0029895501
82	0x3d2e4ba0	0.04255259
83	0x3ba65d23	0.0050770207
84	0xbc8968f8	-0.016773686
85	0xbd36de1b	-0.04464541
86	0xbd3caa2d	-0.04606073
87	0xbd284177	-0.041078057
88	0xbdd26781	-0.10273648
89	0x3d94a18a	0.07257374
90	0x3c6c6fc5	0.014430945
91	0xbd2baa44	-0.041910425
92	0x3d170f9c	0.03688012
93	0x3c1c6649	0.009545871
94	0xbd61b28b	-0.055101912
95	0x3d223d0e	0.039609008
96	0x3dd56ce8	0.10421163
97	0xbd9db69b	-0.07700845
98	0x3da34d10	0.07973683
99	0xbd59f412	-0.05321128
100	0xbdb4b742	-0.08824016
101	0x3d986033	0.074402235
102	0xbda6345e	-0.08115457
103	0x3ddff9fb	0.10936352
104	0xbc8cf223	-0.017205304
105	0xbd9d5e78	-0.07684034
106	0x3da61dbf	0.08111142
107	0xbd04e1dc	-0.03244196
108	0x3d11d4b3	0.035603236
109	0xbc37b291	-0.011212007
110	0xbde90e33	-0.113796614
111	0x3c75cf81	0.015003086
112	0x3c254b0d	0.010088694
113	0xbd2c7f44	-0.042113557
114	0x3d179fee	0.037017755
115	0x3cf127fb	0.02943801
116	0xbc9f330f	-0.019433526
117	0xbd76eef0	-0.060286462
118	0xbd232987	-0.039834525
119	0xbd67182f	-0.056419548
120	0x3d930906	0.071794555
121	0x3d4c2f93	0.049850058
122	0xbdc745dc	-0.097301215
123	0x3c3c668a	0.011499057
124	0x3d2cbfc1	0.04217506
125	0x3d1c2b55	0.038127262
126	0x3d0512e8	0.032488734
127	0x3d0e59d8	0.03475365
128	0x3b2140dc	0.002460531
129	0x3c834566	0.016024303
130	0x3cfccbd5	0.030858913
131	0xbe04096c	-0.12894219
132	0x3dc8b151	0.097994454
133	0x3cf7b4d0	0.030237585
134	0xbc89d983	-0.01682735
135	0x3d8d8823	0.06910732
136	0xbd9a5493	-0.075356625
137	0xbc93b022	-0.018028323
138	0xbc96ed84	-0.018423803
139	0x3ceb8c59	0.028753446
140	0xbd9b42d4	-0.07581106
141	0x3db3ab23	0.08772876
142	0xbc587a34	-0.013212729
143	0xbdd51aef	-0.10405528
144	0xbd6eb88d	-0.05828147
145	0xbc80a9cb	-0.015705964
146	0x3dc6c9e8	0.09706479
147	0x3de4815a	0.11157484
148	0x3cf11570	0.029429168
149	0x3dd858ab	0.10563787
150	0x3dc15339	0.094397016
151	0x3da61d1e	0.081110224
152	0xbdb9f779	-0.09080405
153	0xbd707905	-0.058709163
154	0xbda0884a	-0.07838495
155	0xbd082048	-0.03323391
156	0xbd8a733f	-0.06760263
157	0xbdad7a8e	-0.08470641
158	0xbb64b7df	-0.0034899635
159	0xbd76c3da	-0.060245372
160	0xbdf6dd42	-0.1205392
161	0xbd165f41	-0.036711935
162	0x3d0a3360	0.0337404
163	0xbd5cd861	-0.053917293
164	0xbc47b94c	-0.012190174
165	0xbde3ba71	-0.11119545
166	0xbcedf43e	-0.029047128
167	0xbd469fb7	-0.04849216
168	0xbd9781e3	-0.07397821
169	0x3d8b6935	0.06807176
170	0xbcc877d6	-0.024471205
171	0xbdb0e3e6	-0.08637218
172	0x3dbed320	0.09317613
173	0xbcd83efb	-0.026397219
174	0xbb8ab03a	-0.0042324336
175	0x3cf89747	0.030345572
176	0x37e77f22	2.7596547e-05
177	0x3db9b1d7	0.090671234
178	0xbd652a33	-0.055948447
179	0xba7e36c8	-0.0009697494
180	0xbde91f30	-0.11382902
181	0xbd14a06e	-0.03628581
182	0xbc9d25fc	-0.019183151
183	0xbc2f6710	-0.010705724
184	0x3cf13928	0.0294462
185	0x3d9e3fd0	0.07727015
186	0xbd21325d	-0.03935467
187	0x3cc0893b	0.023502937
188	0xbc026e1a	-0.007960821
189	0x3d804b2d	0.06264339
190	0x3c8c79de	0.017147955
191	0x3aafead2	0.0013421422
192	0xbda9be45	-0.08288244
193	0x3db386dc	0.08765957
194	0xbd35692b	-0.04428975
195	0x3c7eca25	0.015551125
196	0x3ca1f81f	0.019771634
197	0xbcbf043c	-0.023317449
198	0x3b741a37	0.003724707
199	0xbcf433ee	-0.029809918
200	0xbdfc4db0	-0.12319505
201	0x3d739cfe	0.05947589
202	0x3df7defc	0.12103078
203	0xbd907465	-0.070534505
204	0x3b95b76a	0.004568984
205	0xbd7bdd8f	-0.06149059
206	0xbd6dc01a	-0.05804453
207	0x3d1dd76b	0.038535517
208	0xbc95be60	-0.018279254
209	0xbd9dafa5	-0.07699517
210	0xbd9ca39c	-0.076483935
211	0xbd32e3d0	-0.04367429
212	0x3b1136d3	0.0022157922
213	0xbcadbb53	-0.021207487
214	0x3e26ea00	0.16300201
215	0x3d3214d3	0.04347689
216	0x3d0987f8	0.033576936
217	0xbb8ed5a0	-0.004358962
218	0x3d18b420	0.037281156
219	0x3cc27523	0.023737496
220	0xbd804da9	-0.062648125
221	0xbd78f5ac	-0.060781166
222	0xbcda336d	-0.02663585
223	0x3d0097d7	0.031394806
224	0x3d4e9eef	0.05044454
225	0x3cc7447e	0.024324652
226	0xbd6fb720	-0.05852425
227	0x3d7a1c5c	0.0610622
228	0x3e05ded5	0.13073285
229	0xbd5c9212	-0.05385024
230	0x3d05c61a	0.032659627
231	0x3db87142	0.09005977
232	0x3cb86837	0.022510631
233	0xb9276fdf	-0.00015968036
234	0xbc0bd6f6	-0.008535137
235	0x3d90dad2	0.07072987
236	0x3d1f794f	0.03893405
237	0x3df6a762	0.120436445
238	0x3dbd1233	0.09231987
239	0xbd691a10	-0.05690962
240	0x3d277e5c	0.04089199
241	0x3d9cab20	0.07649827
242	0xbcb0d59b	-0.02158623
243	0xbc4b87c1	-0.012422503
244	0xbce4fb6c	-0.027951919
245	0x3d4c947b	0.04994629
246	0xbd7d5032	-0.06184406
247	0xbab156c1	-0.0013529883
248	0x3d647718	0.05577764
249	0x3d4b9e5b	0.049711566
250	0x3d5634fc	0.052296624
251	0x3dbe9c71	0.093071826
252	0x3dddc5f2	0.10828771
253	0xbb9dc09a	-0.0048142197
254	0xbd2eb60d	-0.042654086
255	0xbd2e51e0	-0.04255855

layers.0.phi_att.bias f4 [128]
0	0x3c1b8b28	0.009493627
1	0x3d444b07	0.047923114
2	0xbd50fe73	-0.05102391
3	0x3c5b5dcb	0.013389061
4	0x3d275114	0.040848807
5	0x3d792078	0.06082198
6	0xbd9771fc	-0.07394788
7	0xbb3ccca3	-0.0028808496
8	0x3ca815fa	0.020518292
9	0x3d4454a5	0.047932286
10	0xbcc65381	-0.02420974
11	0xbdc5066c	-0.096203655
12	0xbd726f9e	-0.059188478
13	0xbdd682ee	-0.104741916
14	0xbd233d26	-0.039853238
15	0x3dac49e8	0.08412534
16	0xbdb0de52	-0.08636154
17	0x3d4dcf13	0.05024631
18	0xbc3500de	-0.01104757
19	0x3b9630c2	0.004583449
20	0xbba8df3b	-0.0051535643
21	0xbd55ee59	-0.05222926
22	0x3c8ab106	0.016930114
23	0xbc20e264	-0.009819601
24	0x3d2be099	0.04196224
25	0x3c4dbae6	0.012556767
26	0x3caf0ff0	0.021369904
27	0xbd96aa1d	-0.07356665
28	0xbd8759c2	-0.06608917
29	0x3d19e118	0.03756818
30	0x3cf5bbb8	0.029996738
31	0xbafd5b0b	-0.0019329501
32	0x3d9795fc	0.07401654
33	0xbcd4286a	-0.025898177
34	0xbd007bbd	-0.031368006
35	0xbd8fb5ad	-0.07017074
36	0xbdcbe248	-0.09955269
37	0xbdca5f8a	-0.09881504
38	0xbcc11914	-0.023571528
39	0xbd36bfff	-0.044616695
40	0xbc85f44e	-0.016351845
41	0x3ca7a47a	0.02046417
42	0xbcf9c44b	-0.030489108
43	0xbcb2c802	-0.021823887
44	0x3da270bd	0.07931659
45	0xbd065a26	-0.032800816
46	0x3ce0a30e	0.0274215
47	0x3d81c7ca	0.06336935
48	0x3d2d5617	0.04231843
49	0x3d55da47	0.05221012
50	0x3d87b6a4	0.06626633
51	0x3d4a2bd0	0.04935819
52	0xbc4ab350	-0.012371853
53	0xbc5184fc	-0.012788054
54	0x3db4af91	0.08822549
55	0xbce96c60	-0.02849406
56	0x3daed81d	0.08537314
57	0xbd1429f9	-0.03617284
58	0x3d3f48eb	0.0467004
59	0x3d81c369	0.063361
60	0x3d9c623f	0.076359265
61	0xbc8ca147	-0.017166747
62	0x3d01c596	0.031682573
63	0x3d5d20fa	0.053986527
64	0x3d1d8c56	0.038463913
65	0x3dab47a5	0.083632745
66	0xbd9a3fad	-0.075316764
67	0xbd997a31	-0.07494009
68	0xbd7641a8	-0.06012121
69	0xbd023c6c	-0.031795904
70	0xbd50a728	-0.050940663
71	0xbc9c0530	-0.019045442
72	0x3c47a344	0.012184922
73	0x3dcc0ce9	0.099634
74	0xbd720820	-0.05908978
75	0x3d580226	0.052736424
76	0x3dd2a165	0.1028469
77	0xbd0a56aa	-0.033774056
78	0x3dfbd7fc	0.12297055
79	0xbdd424c8	-0.10358578
80	0x3b47b3dc	0.0030472195
81	0x3d37030d	0.044680644
82	0x3c860865	0.016361425
83	0xbdb19c9d	-0.0867245
84	0xb9e2fb99	-0.00043293534
85	0x3dba50cc	0.09097442
86	0xbd1d22f1	-0.0383634
87	0xbd811935	-0.06303636
88	0x3d6cf196	0.05784758
89	0x3dc2572a	0.094892815
90	0xbd190e30	-0.037367046
91	0x3c9bf9a7	0.019039942
92	0xbd1ad340	-0.03779912
93	0x3d1ad678	0.03780219
94	0xbd0bd7f9	-0.034141514
95	0x3c2f69ac	0.0107063465
96	0xba9bc198	-0.0011883257
97	0xbd1d5541	-0.038411383
98	0x3d0e2580	0.03470373
99	0xbbf158dc	-0.007365329
100	0x3d7b5769	0.061362658
101	0xbd4058c7	-0.046959665
102	0xbd34509a	-0.04402218
103	0xbcd6e815	-0.026233712
104	0xbcc87f5d	-0.024474794
105	0xbdaa4214	-0.08313385
106	0xbb8edc58	-0.004359763
107	0xbd2ff739	-0.04296038
108	0x3db0b5b8	0.0862841
109	0xbd74a833	-0.05973072
110	0xbd8a2b93	-0.067465924
111	0xbdb60890	-0.08888352
112	0x3daf7a85	0.085682906
113	0x3d49ab77	0.049235787
114	0x3d7feaf3	0.062479924
115	0xbc598e7b	-0.013278599
116	0x3d030417	0.031986322
117	0xbd8bffab	-0.06835874
118	0xbc84f845	-0.016231665
119	0x3d639b61	0.055568103
120	0x3d48e796	0.049048983
121	0x3d1606c6	0.036627553
122	0x3dd2df04	0.10296443
123	0xbdc6cd60	-0.09707141
124	0xbd2c89ee	-0.042123728
125	0x3b806851	0.0039186855
126	0xbca24ed2	-0.019812975
127	0xbd9518b6	-0.07280104

layers.0.W_p.weight f4 [128, 128]
0	0xbdbaf3ad	-0.09128509
1	0x3cae1d52	0.021254215
2	0xbd8dc319	-0.069219775
3	0x3dbd844e	0.09253751
4	0xbc2bd26b	-0.010487179
5	0x3da3b2d1	0.07993091
6	0xbd5bec34	-0.053692058
7	0xbdd14b19	-0.10219402
8	0xbc655e4a	-0.013999531
9	0xbc971d13	-0.01844648
10	0xbd3cae1f	-0.046064492
11	0x3c1bf28d	0.009518278
12	0xbda6005e	-0.08105539
13	0xbbcd5ffe	-0.0062675467
14	0x3d1c76c5	0.038199205
15	0x3cddea44	0.027089246
16	0x3d7838a3	0.060600888
17	0xbb496098	-0.003072774
18	0xbd87294e	-0.06599675
19	0xbde2a951	-0.11067451
20	0x3dc7904f	0.097443216
21	0x3c1a654b	0.009423564
22	0xbddf783a	-0.10911603
23	0xbd51ede0	-0.051252246
24	0x3d34d725	0.04415049
25	0x3de89380	0.113562584
26	0x3c1fb75c	0.009748306
27	0xbe02d163	-0.12775187
28	0x3e07b52d	0.13252707
29	0xbd8b54cb	-0.06803282
30	0x3e436dbd	0.1908483
31	0xbd45f4ba	-0.048329093
32	0x3cfe7cc0	0.031065345
33	0x3dbb3204	0.09140399
34	0x3d7cb1d2	0.06169302
35	0x3daa9955	0.08330027
36	0x3cf177b9	0.029476034
37	0x3de0d8b5	0.109788336
38	0xbc7b1b50	-0.015326336
39	0xbd6db11b	-0.05803023
40	0x3cb4a805	0.022052774
41	0xbc8bab83	-0.017049557
42	0x3dd0ce17	0.101955585
43	0xbd26079e	-0.040534608
44	0xbde7a83a	-0.113113835
45	0x3c0736de	0.008252827
46	0x3cab6fdf	0.020927368
47	0xbd8ca078	-0.068665445
48	0x3da7341f	0.08164238
49	0xbd9bb5ad	-0.07603011
50	0xbda91d8a	-0.08257587
51	0x3d51e6ea	0.051245607
52	0x3dc674a6	0.09690218
53	0xbccb1e99	-0.024794864
54	0xbdadb81e	-0.08482383
55	0x3d2ca3e8	0.0421485
56	0x3dc42b0b	0.09578522
57	0x3dadfc9b	0.08495446
58	0xbd2e9a7a	-0.04262779
59	0x3ac2f081	0.0014872701
60	0x3d7844b6	0.060612403
61	0x3daec75d	0.08534119
62	0x3d5cc314	0.05389698
63	0xbda82f3c	-0.08212134
64	0xbbc31522	-0.005953447
65	0x3c3a09f1	0.011354909
66	0x3d26dfcb	0.04074077
67	0xbd5319de	-0.05153834
68	0x3d8950c1	0.06704856
69	0xbd4f771c	-0.0506507
70	0xbd6732a0	-0.056444764
71	0xbe18346b	-0.14863746
72	0xbc87d0e1	-0.016579093
73	0xbd993459	-0.07480688
74	0xbd48a511	-0.048985545
75	0x3d8dfcac	0.06932959
76	0x3dd1a043	0.102356456
77	0x3dae3495	0.08506123
78	0xbd55d105	-0.05220129
79	0xbd99de19	-0.07513065
80	0xbd81cea1	-0.063382395
81	0xbcae7f66	-0.021300983
82	0xbd6841f6	-0.05670353
83	0xbd948470	-0.07251823
84	0x3d8b0dcb	0.0678974
85	0xbd6cfd62	-0.057858832
86	0xbe2754e4	-0.16340977
87	0x3d1504cb	0.036381524
88	0xbd438db2	-0.047742553
89	0xbdb6a110	-0.08917439
90	0xbd224fec	-0.039627
91	0x3d28bb08	0.041193992
92	0xbd04e2b4	-0.032442763
93	0x3c03af2b	0.008037369
94	0xbdc79bd9	-0.097465225
95	0xbb0d710c	-0.0021582274
96	0xbdd5cb6d	-0.10439191
97	0xbd1caf63	-0.0382532
98	0x3d6d4972	0.05793137
99	0xbdc0ef40	-0.09420633
100	0xbd926c00	-0.071495056
101	0x3d628a5a	0.055307724
102	0xbd6bb584	-0.057546154
103	0xbcb2d11f	-0.021828232
104	0x3d34b93f	0.044121977
105	0xbdf0af2e	-0.11752163
106	0xbd80ad97	-0.0628311
107	0xbd4fcdc1	-0.05073333
108	0x3d5c2f6e	0.05375617
109	0x3cd240c1	0.025665643
110	0xbc4222fa	-0.011849159
111	0x3d1bfab7	0.038080897
112	0x3d88bcf6	0.066766664
113	0xbcfac9f7	-0.030613882
114	0x3d324f0f	0.043532427
115	0x3dee023c	0.1162152
116	0x3cb6d963	0.022320455
117	0x3da022f2	0.07819165
118	0xbd9d1eca	-0.07671888
119	0xbda044dd	-0.07825635
120	0xbdffcee9	-0.12490637
121	0x3dc58bdc	0.09645817
122	0xbd8e1a5c	-0.069386214
123	0xbddd37d4	-0.10801664
124	0xbc52e7b0	-0.012872621
125	0xbdc382b2	-0.095464125
126	0x3d68a1d5	0.05679496
127	0x3d37f168	0.044907957
128	0x3dcb5ed1	0.09930194
129	0xbd835f9b	-0.0641472
130	0x3d3ecf46	0.04658439
131	0xbd0487d7	-0.03235611
132	0xbd71767b	-0.058950882
133	0x3d80f391	0.062964566
134	0xbcd36860	-0.025806606
135	0x3d64665c	0.05576168
136	0xbd333939	-0.043755744
137	0xbd2b98bf	-0.041893717
138	0xbb4a47c0	-0.003086552
139	0xbd586c87	-0.052837875
140	0x3d8ddbfd	0.06926725
141	0xbd3459d2	-0.04403097
142	0x3d324fdc	0.04353319
143	0xbd948e90	-0.07253754
144	0xbd32287d	-0.043495644
145	0xbd3743a8	-0.044742256
146	0x3d52dd32	0.05148048
147	0x3d671684	0.056417957
148	0x3caf6853	0.02141205
149	0xbca88082	-0.02056909
150	0xbd3f5170	-0.046708524
151	0xbcfaaafd	-0.030599112
152	0x3c36bfd4	0.011154134
153	0x3d191dad	0.037381817
154	0xbd8d5465	-0.069008626
155	0xbc2ccda6	-0.010547077
156	0xbd766683	-0.060156357
157	0x3b8e6627	0.0043456736
158	0x3d934d55	0.07192484
159	0xbd926aa6	-0.07149248
160	0x3d197b30	0.037470996
161	0xbccb36f1	-0.024806472
162	0xbc4645d3	-0.012101608
163	0x3d0ee81a	0.034889318
164	0x3dcca7c5	0.09992937
165	0xbdaa21e8	-0.08307248
166	0xbb21e9b4	-0.0024705948
167	0xbbefea98	-0.007321667
168	0x3c647ed3	0.013946253
169	0x3d9e7757	0.07737606
170	0xbba5af9e	-0.0050563356
171	0xbd3cc427	-0.046085503
172	0xbd9fc3a5	-0.07800988
173	0xbdb5da47	-0.08879524
174	0xbbbbeeda	-0.0057352604
175	0xbcac2987	-0.021015896
176	0x3d2fc374	0.042911008
177	0x3d8a70e2	0.06759812
178	0x3d82db18	0.06389445
179	0xbd1515f2	-0.03639788
180	0xbbc37fc1	-0.005966157
181	0x3d9b2a40	0.07576418
182	0xbcdc4033	-0.026886081
183	0xbc269a41	-0.010168613
184	0xbc669851	-0.014074401
185	0x3d5cfb75	0.053950746
186	0x3d437dcd	0.047727395
187	0x3d8dc132	0.06921615
188	0xbc6b2ab0	-0.014353439
189	0x3cb02b85	0.021505127
190	0x3c3d75cf	0.011563732
191	0xbc6c54f1	-0.0144245485
192	0xbd4cc6fe	-0.04999446
193	0x3c83345c	0.016016178
194	0x3b28ecd1	0.002577592
195	0x3d6aeb98	0.057353586
196	0xbd1b525c	-0.03792034
197	0x3b9fac21	0.0048728143
198	0xbd5e4e3f	-0.05427384
199	0x3ce1d7db	0.027568748
200	0x3d854e0d	0.06509028
201	0x3d49a72c	0.049231693
202	0x3d19d02d	0.037552048
203	0x3cc60dce	0.024176504
204	0x3cab50b8	0.020912513
205	0x3d480855	0.04883607
206	0x3d7adecc	0.061247632
207	0x3da228d5	0.07917944
208	0x3ce6a082	0.028152708
209	0x3cd11ee9	0.025527434
210	0xbd3dafc8	-0.046310216
211	0xbddef76a	-0.10887034
212	0xbba6d295	-0.0050910213
213	0x3cc47907	0.023983492
214	0x3de7eeeb	0.11324867
215	0xbb96eb27	-0.004605669
216	0x3d831916	0.06401269
217	0x3d6d2e11	0.05790526
218	0x3ccf0e9f	0.025275527
219	0xbd0caa4e	-0.034342103
220	0xbd9abe45	-0.07555822
221	0x3c68a283	0.014198902
222	0xbd704625	-0.058660645
223	0x3d65fae1	0.05614746
224	0x3d9dcc9d	0.077050425
225	0x3c89ea59	0.016835378
226	0x3c8d6e6a	0.017264564
227	0x3d2e3825	0.042534012
228	0x3c701deb	0.0146555705
229	0x3d2569b4	0.04038401
230	0xbd818d8f	-0.06325828
231	0xbc67f7df	-0.014158218
232	0x3c82dec3	0.015975362
233	0x3d2f2f30	0.04276961
234	0x3d26c1c6	0.04071214
235	0xbd1746b5	-0.036932666
236	0x3c143b52	0.009047346
237	0xbba54608	-0.0050437488
238	0x3c96c2ef	0.018403498
239	0x3d647b9d	0.05578195
240	0x3c178ab0	0.009249374
241	0xbd85ce08	-0.06533438
242	0x3d4b2d4f	0.049603757
243	0x3d51112c	0.051041767
244	0xbd7ed9ba	-0.06221936
245	0x3d332215	0.043733675
246	0xbd611a0b	-0.054956477
247	0x3da99978	0.08281225
248	0x3b9ab73b	0.00472155
249	0x3d0d2b85	0.03446533
250	0x3dafe0c1	0.0858779
251	0xbb54a0bd	-0.003244444
252	0x3ca53d86	0.020170938
253	0xbcbcf2b4	-0.023064949
254	0x3dd2f5a0	0.103007555
255	0xbd6034a3	-0.0547377

layers.0.W_p_prime.weight f4 [128, 128]
0	0x3d8f4351	0.069952615
1	0x3c2130d2	0.0098383
2	0x3c5a1930	0.013311669
3	0xbe07da11	-0.1326678
4	0x3d7e983e	0.06215691
5	0xbd2a76a3	-0.041617047
6	0x3d670eb4	0.056410506
7	0x3e08a35b	0.13343565
8	0x3bc26178	0.0059320293
9	0x3be70024	0.0070495773
10	0x3e229af0	0.15879416
11	0xbd614e13	-0.055006098
12	0x3cc83234	0.024438001
13	0xbd1cb8cd	-0.038262177
14	0x3d2130b2	0.03935308
15	0xbdafbd70	-0.08581054
16	0xbdbefd5f	-0.093256705
17	0xbd43b670	-0.047781408
18	0xbbb94c5b	-0.0056548542
19	0x3d9f481d	0.077774264
20	0xbd80d9b2	-0.06291522
21	0x3d021dd0	0.031766713
22	0xbcd56a82	-0.026051763
23	0x3d30ba8d	0.04314666
24	0xbda0089a	-0.078141406
25	0x3c2d3bf5	0.010573377
26	0x3d8bf335	0.068334974
27	0x3d109a12	0.035303183
28	0x3cfbf9b0	0.030758709
29	0x3cdb3f8c	0.0267637
30	0xbc6d0a55	-0.014467795
31	0xbd6fa6e8	-0.058508784
32	0xbad1e2b0	-0.0016012993
33	0xbd8f5e85	-0.0700045
34	0x3d946f9c	0.0724785
35	0xbcbdee22	-0.02318484
36	0xbd4c5a1c	-0.049890622
37	0xbd3f0092	-0.046631403
38	0x3d52fd3a	0.051511027
39	0xbc0b5eb7	-0.0085064685
40	0xbdc9fd22	-0.098627344
41	0x3dd894b2	0.105752364
42	0x3bf3372b	0.007422348
43	0x3d188578	0.03723666
44	0x3d2cdf73	0.042205285
45	0xbd06d4cf	-0.032917794
46	0xbc85c94e	-0.016331341
47	0xbd123799	-0.035697553
48	0x3c48dc26	0.012259519
49	0x3dc13a32	0.09434928
50	0x3d5841b0	0.05279702
51	0x3db274de	0.08713697
52	0xbe0e49c2	-0.13895324
53	0xbdf388d1	-0.1189133
54	0x3e01f221	0.12690021
55	0x3d66fee0	0.05639541
56	0xbe048531	-0.12941433
57	0xbd2189ee	-0.03943818
58	0x3d17d459	0.037067745
59	0xbd1b0db5	-0.03785487
60	0x3d440a5e	0.04786145
61	0x3d024f05	0.03181364
62	0x3db4d47d	0.088295914
63	0x3dcefcaa	0.101067856
64	0x3ce90abf	0.028447507
65	0xbd225205	-0.039629
66	0xbd888490	-0.06665909
67	0xbcb00ed7	-0.021491451
68	0x3d036f5d	0.032088626
69	0xbc32d596	-0.010915181
70	0xbc8803b9	-0.016603338
71	0x3dd3cddd	0.10342
72	0xbbfcf66f	-0.007719807
73	0x3dcb7174	0.09933749
74	0xbc5b428e	-0.013382567
75	0x3d2521ca	0.040315427
76	0xbc554ae5	-0.0130183445
77	0xbd1a33cc	-0.037647054
78	0x3d5fdca1	0.054653767
79	0x3d41514c	0.04719667
80	0xbdc8377f	-0.0977621
81	0x3d00cbb4	0.031444266
82	0x3d39c973	0.045358133
83	0x3d649728	0.055808216
84	0x3dcda9f8	0.100421846
85	0x3ddd7a32	0.108143225
86	0xbd894644	-0.06702855
87	0x3da37bfe	0.07982634
88	0xbda8c20b	-0.08240136
89	0x3c58e040	0.013237059
90	0xbdf04aaf	-0.11732995
91	0xbd141387	-0.036151435
92	0xbd617f88	-0.055053264
93	0xbd92f539	-0.07175679
94	0x3db254af	0.08707558
95	0xbbcde56f	-0.006283454
96	0x3d6954fb	0.05696581
97	0xbb43845a	-0.0029833526
98	0x3c72d707	0.014821774
99	0x3d5704ee	0.052494936
100	0xbd3744f8	-0.044743508
101	0x3d8ac723	0.067762636
102	0xbc7f3fc9	-0.015579172
103	0x3c1512cb	0.009098719
104	0x3dbb4bc7	0.09145313
105	0x3deaea90	0.114705205
106	0xbd5da6b1	-0.054114047
107	0xbccb35d0	-0.024805933
108	0x3d62d4ac	0.0553786
109	0x3dd55a6e	0.10417639
110	0x3da01199	0.078158565
111	0xbdb5f12c	-0.088838905
112	0x3c88f480	0.01671815
113	0xbcc9be5c	-0.024626903
114	0xbc9f1a75	-0.019421795
115	0xbd4b9211	-0.049699847
116	0x3d4538b5	0.048149783
117	0xbc947a90	-0.018124849
118	0x3d9b81dd	0.07593129
119	0xbd8fb323	-0.070165895
120	0xbd116db9	-0.03550503
121	0xbc43d142	-0.011951746
122	0x3e0cc7aa	0.13748041
123	0x3d6fe468	0.058567435
124	0x3d1247ae	0.03571289
125	0x3df9a349	0.12189347
126	0x3bc2c307	0.005943659
127	0xbd101e49	-0.035185132
128	0xbd11f834	-0.035637096
129	0xbce9862a	-0.028506357
130	0xbda3ef62	-0.08004643
131	0xbdbdb5d3	-0.09263196
132	0x3abeeda7	0.0014566676
133	0xbd19be10	-0.037534773
134	0x3d19778c	0.037467524
135	0xbd98c075	-0.07458583
136	0xbda436ac	-0.0801824
137	0x3d9ef45b	0.07761451
138	0xbd845267	-0.064610295
139	0x3d981cff	0.074274056
140	0x3d81394e	0.06309758
141	0xbc8a75aa	-0.01690181
142	0xbd066279	-0.032808755
143	0x3c13babe	0.009016691
144	0x3d28d919	0.041222665
145	0x3be9ed7d	0.0071389065
146	0xbd026a9b	-0.03183995
147	0xbd99d6d0	-0.07511675
148	0x3dabb660	0.08384395
149	0x3c6bd3a1	0.014393718
150	0x3d5fbf0b	0.054625552
151	0xbd735ae0	-0.059412837
152	0xbca57e2c	-0.020201765
153	0x3ce1b48b	0.02755191
154	0x3cfe2854	0.03102509
155	0xbba916af	-0.005160175
156	0xbc3ce0fb	-0.011528249
157	0xbcf347a4	-0.029697247
158	0xbda437b3	-0.08018436
159	0xbc02eb82	-0.00799072
160	0x3d50adbe	0.050946943
161	0x3dad9ba5	0.084769525
162	0x3c8f6dfe	0.017508503
163	0xbdc6b8f6	-0.09703247
164	0x3cc89cfa	0.024488915
165	0x3d9a5279	0.07535262
166	0x3cd8a2b8	0.026444778
167	0x3da62c9d	0.08113978
168	0x3b6c5fd6	0.0036067865
169	0x3d2c61ab	0.04208533
170	0xbd461fc9	-0.048370156
171	0x3d6ee3b7	0.058322635
172	0xbd103d98	-0.03521499
173	0xbcd9a927	-0.026569916
174	0x3ca5b6f4	0.02022884
175	0xbc42e70a	-0.011895904
176	0xbdb99753	-0.09062066
177	0x3d5393b6	0.05165454
178	0x3da330f5	0.07968322
179	0xbc903c2d	-0.017606819
180	0xbcb50f3d	-0.022101993
181	0x3d4d349b	0.050098997
182	0x3da5c1e3	0.080936216
183	0x3d24ca81	0.040232185
184	0xbd09954f	-0.033589657
185	0xbd9ce0a7	-0.076600365
186	0xbdb68a9e	-0.08913158
187	0xbdcd0993	-0.10011592
188	0x3ce96383	0.028489834
189	0xbdc77a43	-0.097401164
190	0xbd97c10b	-0.07409867
191	0xbd8c0719	-0.06837291
192	0xbdb68ebc	-0.08913943
193	0xbca6f7de	-0.020381864
194	0xbdc55e3b	-0.09637114
195	0xbd4a5191	-0.049394194
196	0xbc8b5921	-0.017010273
197	0x3b80225f	0.0039103474
198	0xbd390370	-0.045169294
199	0xbd02bf87	-0.031920936
200	0xbdc2a548	-0.09504181
201	0x3cb8560d	0.02250197
202	0xbc8552ef	-0.016274897
203	0x3aa6e9f2	0.0012734516
204	0xbce19b79	-0.027539955
205	0xbc9083d5	-0.017640987
206	0x3d05fb10	0.032710135
207	0xbd47b1d2	-0.048753567
208	0x3d822663	0.06354978
209	0xbd69d986	-0.057092212
210	0xbcb52d32	-0.022116277
211	0xbd86cfad	-0.0658258
212	0x3d409422	0.04701627
213	0x3da33542	0.079691425
214	0x3aff015c	0.0019455361
215	0xbda6b11a	-0.08139248
216	0xbd9c8c70	-0.07643974
217	0xbd7c5053	-0.06160004
218	0x3c79f3d1	0.015255884
219	0x3d8ee66a	0.06977542
220	0x3d4cd242	0.050005205
221	0x3d1363f7	0.035984006
222	0xbafebee6	-0.0019435554
223	0xbc2c381a	-0.0105114225
224	0xbd2f49e2	-0.04279507
225	0xbdc51d06	-0.096246764
226	0x3c836d89	0.016043441
227	0x3c88a137	0.016678436
228	0xbd6ef0bd	-0.058335055
229	0x3cb8b6b4	0.022548057
230	0x3d35488f	0.04425865
231	0x3cd27677	0.025691254
232	0xbd62d444	-0.055378214
233	0x3da487fd	0.0803375
234	0xbd03b7f2	-0.032157846
235	0xbd996a14	-0.07490936
236	0xbd968745	-0.07350019
237	0x3c56efa6	0.01311866
238	0x3cbf4d8d	0.023352409
239	0xbcdcd160	-0.026955307
240	0x3c9469a6	0.018116783
241	0x3d39088e	0.045174174
242	0xbb006eec	-0.0019597365
243	0xbcac7f56	-0.021056812
244	0xbd72d085	-0.05928089
245	0x3da44bcd	0.0802227
246	0x3c65453c	0.013993558
247	0xbd32049e	-0.043461435
248	0xbcafcb37	-0.021459205
249	0x3d492040	0.04910302
250	0xbcc5843d	-0.024110908
251	0xbc9857a1	-0.018596472
252	0x3c0e37f4	0.008680332
253	0x3da5b5df	0.0809133
254	0x3d35b407	0.04436114
255	0x3cb9a514	0.022661723

layers.0.f_def.weight f4 [1, 128]
0	0xbe22629b	-0.15857928
1	0x3cdaf2ca	0.026727099
2	0x3dda3141	0.10653926
3	0xbd5dd33e	-0.054156534
4	0xbd521c63	-0.051296603
5	0x3d3938a4	0.045220032
6	0xbe2bb391	-0.16767718
7	0xbdd256e2	-0.10270478
8	0x3e3ba8c5	0.18326099
9	0xbdf00df3	-0.117214106
10	0xbdd0dd42	-0.101984516
11	0x3dcf33b5	0.10117284
12	0xbc978608	-0.018496528
13	0x3d0f588e	0.03499656
14	0x3d9d09e9	0.07667906
15	0xbda4a307	-0.080389075
16	0x3d822fff	0.06356811
17	0x3d952cf1	0.072839625
18	0xbd95319b	-0.07284852
19	0xbd667954	-0.05626805
20	0x3da818f9	0.08207888
21	0x3df6a4dc	0.12043163
22	0x3e17048e	0.14747831
23	0x3c5e18df	0.013555734
24	0x3e20ba16	0.15695986
25	0x3db214a9	0.08695347
26	0xbc50b59a	-0.01273861
27	0x3d6282a4	0.05530037
28	0x3e430bbc	0.19047445
29	0xbcc46ef8	-0.023978695
30	0x3b75915b	0.0037470672
31	0xbd9671a1	-0.07345892
32	0xbe03778c	-0.12838572
33	0x3df0bd7e	0.11754893
34	0xbdf9ee54	-0.122036606
35	0x3d0ee00a	0.03488163
36	0x3df19ae0	0.11797118
37	0x397a8bd0	0.00023893942
38	0xbd26d07e	-0.040726177
39	0x3d0a895a	0.033822395
40	0xb5df1174	-1.6619874e-06
41	0x3d7af7c5	0.061271448
42	0x3d095cb7	0.033535685
43	0xbda8bc8b	-0.08239087
44	0x3be8ba19	0.0071022627
45	0xbc1c5d4e	-0.00954373
46	0xbbc15252	-0.005899706
47	0x3e0a3217	0.1349567
48	0xbe176704	-0.14785391
49	0xbd1a7f52	-0.03771908
50	0xbe1937cf	-0.14962696
51	0x3da886af	0.08228814
52	0x3e005c1e	0.1253514
53	0x3dedcb90	0.11611092
54	0xbda95ce3	-0.0826967
55	0xbd2cb247	-0.042162206
56	0x3deed644	0.11661962
57	0xbb1f7785	-0.0024332714
58	0xbcb72806	-0.022357952
59	0x3da8089e	0.082047686
60	0x3dcf0918	0.10109156
61	0x3de8fd22	0.11376406
62	0xbb544545	-0.003238992
63	0xbce2d1d8	-0.027687952
64	0xbe163ee7	-0.14672433
65	0xbe33394f	-0.1750233
66	0x3d41dcf5	0.04732986
67	0x3ba16844	0.0049257595
68	0x3c6b9d33	0.014380741
69	0xbd9f9996	-0.07792966
70	0xbacbac7b	-0.0015539074
71	0xbe0b4cf8	-0.1360358
72	0xbe15c34f	-0.14625286
73	0xbe27c31f	-0.16383027
74	0xbd3c2f57	-0.045943584
75	0xbccc1ce4	-0.02491612
76	0x3cdce5c5	0.026965031
77	0xbc0e4135	-0.008682539
78	0x3d79f974	0.061028913
79	0xbd47bcc9	-0.048764024
80	0x3e2ed577	0.17073618
81	0x3e0de150	0.13855481
82	0xbd96b7af	-0.073592536
83	0xbdc86884	-0.0978556
84	0xbe09884d	-0.13430901
85	0xbe09fcb0	-0.13475299
86	0xbd48ac8a	-0.04899267
87	0x3b953407	0.0045533213
88	0x3e0de78e	0.13857862
89	0xbd8f0cc6	-0.06984858
90	0x3bf515c6	0.0074794022
91	0x3de4bb12	0.11168493
92	0xbd686038	-0.056732386
93	0x3dcb9553	0.09940591
94	0x3caf9bf7	0.021436675
95	0x3c378b1d	0.011202601
96	0xbd8503cf	-0.06494867
97	0x3e1e84bf	0.15480326
98	0x3ca31c72	0.019911025
99	0xbd6afeef	-0.05737203
100	0x3e11a977	0.14224802
101	0x3cf9c93d	0.030491466
102	0xbde77de8	-0.113033116
103	0xbcd7f380	-0.026361227
104	0xbd9c2f55	-0.07626215
105	0xbd9c6e38	-0.0763821
106	0x3e3ae664	0.1825195
107	0x3e1f104c	0.1553356
108	0x3d4ea918	0.05045423
109	0x3cd8bb72	0.026456568
110	0xbdca352a	-0.098734215
111	0x3d0c5f3c	0.03427051
112	0x3d8a4797	0.06751936
113	0x3e741b00	0.23838425
114	0xbc3a25dd	-0.011361566
115	0x3dd6d745	0.10490278
116	0xbb823b28	-0.003974337
117	0xbd96655c	-0.073435515
118	0xbd7e5c15	-0.062099535
119	0x3e33f6cc	0.17574614
120	0x3d0c64f6	0.03427597
121	0xbdc5fec8	-0.09667736
122	0xbdb1794b	-0.08665713
123	0xbc9e39a4	-0.019314595
124	0x3b0b8242	0.0021287357
125	0xbe29c8ce	-0.16580507
126	0xbdeac0d3	-0.114625596
127	0xbbd2ef13	-0.0064371913
