refined_100new.pth (torch, 888402 bytes, 36 tensors)

input_norm.weight f4 [7]
0	0x3f82c855	1.0217386
1	0x3f723613	0.9461376
2	0x3f729fff	0.94775385
3	0x3f7f5725	0.99742347
4	0x3f7c45f3	0.98544234
5	0x3f80e8ee	1.0071084
6	0x3f83c288	1.0293741

input_norm.bias f4 [7]
0	0x3c1ee086	0.009697085
1	0xbcc3e13c	-0.023911111
2	0x3c998b3d	0.018743152
3	0x3bc8ceea	0.0061281817
4	0xbaf6db16	-0.0018833603
5	0xbb793f55	-0.0038032134
6	0x3b89e7ac	0.0042085256

layers.0.embed.weight f4 [128, 7]
0	0x3e95114b	0.29114756
1	0xbd90ddc3	-0.07073548
2	0x3e607b15	0.21921952
3	0xbeb848ea	-0.3599313
4	0xbbf2ceb5	-0.0074098953
5	0x3e1ca2b5	0.15296443
6	0xbe009f53	-0.12560777
7	0xbe6558b2	-0.22397116
8	0xbeab65f7	-0.3347623
9	0x3c7d1da2	0.01544896
10	0x3d124513	0.035710406
11	0xbe27d8a3	-0.16391234
12	0xbdd548ed	-0.104143
13	0x3ebd7863	0.3700591
14	0x3ea8c601	0.32963565
15	0x3e7c27c6	0.24624547
16	0x3d0527bc	0.032508597
17	0x3d4eef73	0.050521325
18	0xbe94f1a7	-0.29090616
19	0xbdf8018b	-0.12109669
20	0xbe0e655c	-0.13905853
21	0x3e98a253	0.29811344
22	0xbb56301b	-0.0032682482
23	0xbebe65c2	-0.3718701
24	0x3c8155f8	0.015788063
25	0x3eb649cc	0.35603178
26	0xbd312ba8	-0.043254524
27	0x3dbf3b8b	0.09337529
28	0x3e9a9e1b	0.3019875
29	0x3eb41917	0.35175392
30	0xbdd77922	-0.10521151
31	0x3e3cbaa4	0.18430573
32	0xbe298910	-0.16556191
33	0xbe6e65de	-0.23281047
34	0xbd793085	-0.060837287
35	0x3e6cbcbb	0.2311887
36	0xbe9fc7bd	-0.31207076
37	0x3e7285a7	0.23683797
38	0xbdb8c7fd	-0.0902252
39	0x3cc926c5	0.02455462
40	0x3e0bdd9e	0.13658759
41	0xbeb58660	-0.35454082
42	0xbe318c56	-0.1733869
43	0x3e2d5dbe	0.16930291
44	0xbe873cd4	-0.26413596
45	0x3dba4b22	0.09096362
46	0x3dfa9ef4	0.12237349
47	0x3e30c9d8	0.17264497
48	0xbece6acc	-0.40315855
49	0xbe701425	-0.23445185
50	0xbe17ad03	-0.14812092
51	0xbe9dda8d	-0.30830804
52	0xbe30974a	-0.17245212
53	0x3ddd3709	0.10801513
54	0xbec7ddab	-0.39036307
55	0x3e858916	0.2608115
56	0x3e24b2fd	0.16083904
57	0x3e97f8ab	0.29681906
58	0xbcd6267d	-0.0261414
59	0x3e10bb4f	0.14133953
60	0xbe0717f3	-0.1319273
61	0xbeaba971	-0.3352771
62	0x3e947b8c	0.2900051
63	0x3ec64a1f	0.38728425
64	0xbe9ba90e	-0.30402416
65	0xbe0f3bd3	-0.13987665
66	0xbe89c029	-0.2690442
67	0xbea3f941	-0.32026103
68	0xbdb5bf8e	-0.08874427
69	0xbea9b634	-0.33146822
70	0xbe5a8ac0	-0.21341991
71	0x3e0dbafc	0.1384086
72	0x3e888c07	0.26669332
73	0x3ea18c96	0.3155257
74	0xbe4f6313	-0.20252638
75	0x3c905125	0.017616818
76	0xbe4ebcb5	-0.20189174
77	0x3e981245	0.2970144
78	0x3e8077d5	0.25091425
79	0x3d6d4cf2	0.05793471
80	0x3ab7cb29	0.0014022338
81	0xbdb0bc8b	-0.08629712
82	0x3e8f70ca	0.2801574
83	0xbd7932dc	-0.06083952
84	0xbea43fe7	-0.32080004
85	0xbe3c5c6f	-0.18394636
86	0xbe8f6750	-0.2800851
87	0x3e834fe5	0.25646892
88	0x3e11c93c	0.14236921
89	0x3ebb6feb	0.36608824
90	0x3cfc9cb8	0.030836448
91	0xbeb7100c	-0.3575443
92	0xbe72edcb	-0.23723523
93	0x3d9dc45b	0.077034675
94	0xbe34a563	-0.17641215
95	0xbd18208b	-0.03714041
96	0xbeabbdad	-0.3354315
97	0x3e1b4f2b	0.15166919
98	0xbe2d5ecf	-0.16930698
99	0x3dd57209	0.10422141
100	0xbec40c16	-0.3829047
101	0xbe2c50ce	-0.168277
102	0x3e84e3a7	0.25954935
103	0xbd6b684b	-0.05747251
104	0xbe2b4e0a	-0.16728988
105	0x3e1edb83	0.15513425
106	0x3e20fc0c	0.15721148
107	0xbe9b9ffe	-0.30395502
108	0xbe05c9d7	-0.13065277
109	0x3eb4de46	0.3532583
110	0xbe97b3fd	-0.29629508
111	0x3e948293	0.2900587
112	0x3ce45ecf	0.02787724
113	0xbddf24df	-0.108957045
114	0xbe80f594	-0.2518736
115	0x3e730c65	0.23735197
116	0x3c8ba3e8	0.01704593
117	0x3ea8d128	0.32972074
118	0x3e6d3107	0.23163234
119	0xbd899054	-0.067169815
120	0x3dfd9346	0.12381606
121	0x3dbfb011	0.09359754
122	0x3e36cb87	0.17851077
123	0xbe5c1f4a	-0.21496311
124	0x3dfcc1a0	0.123416185
125	0xbdd74f64	-0.105131894
126	0x3d347e5f	0.04406583
127	0x3de28068	0.11059648
128	0xbde504f1	-0.11182583
129	0x3e34c954	0.17654926
130	0xbeb529d5	-0.35383478
131	0x3e52a0c7	0.20569144
132	0xbd6ebae3	-0.058283698
133	0x3c29f493	0.010373252
134	0xbe80ac97	-0.25131676
135	0x3eb49025	0.35266224
136	0x3e8b993d	0.2726535
137	0xbe18907f	-0.14898871
138	0xbeb63598	-0.35587764
139	0x3e07d75c	0.13265747
140	0xbe88e4aa	-0.26736957
141	0xbe676f2d	-0.22601004
142	0xbe651324	-0.22370583
143	0x3e6e6ce9	0.23283733
144	0xbe0a7493	-0.13521032
145	0x3e9664a1	0.2937365
146	0x3e104169	0.14087452
147	0x3e2a379d	0.16622777
148	0xbeafea0d	-0.34358254
149	0x3e7255c3	0.23665528
150	0xbea40777	-0.32036945
151	0xbc2d7324	-0.010586534
152	0x3e6687ed	0.22512789
153	0x3c73bc8f	0.014876499
154	0x3e52c60b	0.2058336
155	0x3eaaa4e2	0.3332892
156	0xbe5b6fe2	-0.21429399
157	0x3eb97aaf	0.36226413
158	0x3e747e12	0.23876217
159	0x3d075b56	0.03304609
160	0x3dc9a7cc	0.09846458
161	0xbe5c33bd	-0.21504112
162	0xbe5240f2	-0.20532587
163	0x3e0ad8a7	0.13559209
164	0x3db14b83	0.08656981
165	0xbeb3869c	-0.35063636
166	0xbea8fea0	-0.33006763
167	0xbdbf7a8e	-0.09349547
168	0x3e86f577	0.2635915
169	0xbcbff65d	-0.023432905
170	0xbbb980c3	-0.0056611015
171	0x3cda4951	0.026646288
172	0xbd3a2ccf	-0.04545289
173	0xbe8580e7	-0.26074907
174	0x3da91dfa	0.08257671
175	0xbc7dee28	-0.015498675
176	0xbd85f9aa	-0.0654176
177	0xbeb499f2	-0.352737
178	0xbe392a66	-0.1808258
179	0x3dc5cf2a	0.09658654
180	0xbe2468e2	-0.16055635
181	0x3ea564c3	0.32303438
182	0x3ea09bcb	0.3136886
183	0x3e7b502d	0.24542303
184	0x3eb9314e	0.3617043
185	0x3ea27548	0.31730103
186	0x3d6a3846	0.057182573
187	0xbeaab55f	-0.333415
188	0x3e8c856e	0.2744555
189	0xbe49252f	-0.1964309
190	0xbe34fa29	-0.17673554
191	0x3e977c3f	0.2958698
192	0x3e77994f	0.24179576
193	0x3e611e57	0.2198423
194	0x3d40073a	0.04688189
195	0xbe4c5696	-0.19954905
196	0xbe855140	-0.2603855
197	0xbe825c75	-0.25461164
198	0x3eb1a229	0.3469403
199	0x3e4659c6	0.19370183
200	0x3c32ecfd	0.01092076
201	0x3e603bea	0.21897855
202	0x3de6449f	0.11243557
203	0x3e468907	0.1938821
204	0xbe87730d	-0.26454964
205	0x3e2b21e7	0.16712151
206	0x3d496845	0.049171705
207	0x3e44bdeb	0.19213073
208	0xbe4bc4b0	-0.19899249
209	0x3e9455ae	0.28971618
210	0xbe7d489f	-0.24734734
211	0x3dc29b82	0.09502317
212	0x3c8ca3ca	0.017167944
213	0x3d4fe3ed	0.050754476
214	0xbdc93cb5	-0.09826032
215	0xbebc8f89	-0.3682826
216	0xbe0939b5	-0.1340092
217	0x3e3df62a	0.18550935
218	0xbe69bac8	-0.22825158
219	0x3e8d64e0	0.27616024
220	0x3e66d8b6	0.22543606
221	0xbe2b2e06	-0.16716775
222	0x3d75e423	0.06003202
223	0x3e7e4965	0.24832685
224	0xbe1e908c	-0.15484828
225	0xbe7bd6bf	-0.24593638
226	0x3e576bff	0.21037291
227	0xbdd53927	-0.104112916
228	0x3d8fbbb1	0.07018221
229	0x3e3ef493	0.18647985
230	0x3dea2826	0.11433439
231	0x3d82e1e2	0.0639074
232	0x3caddce8	0.0212235
233	0x3e15ceb7	0.14629637
234	0x3e66b39d	0.22529455
235	0x3dfb39ae	0.12266861
236	0xbebc6b13	-0.3680044
237	0x3e6133fe	0.2199249
238	0xbdb1ef35	-0.08688203
239	0x3e935af8	0.2878034
240	0x3eba62f0	0.36403608
241	0x3c9da74b	0.01924481
242	0xbe8c7dd6	-0.27439755
243	0xbe9a24dd	-0.3010625
244	0xbd54499f	-0.051828023
245	0x3e103b49	0.14085115
246	0x3e1a8193	0.15088491
247	0xbda008e4	-0.07814196
248	0xbd290066	-0.041260146
249	0xbde9d656	-0.114178345
250	0x3eaf5436	0.34243935
251	0x3d92dcc2	0.071710125
252	0xbe4bd5c5	-0.19905765
253	0x3d5d97a4	0.054099694
254	0xbea01ca6	-0.31271857
255	0xbea4d559	-0.3219402

layers.0.embed.bias f4 [128]
0	0xbe3279bb	-0.17429249
1	0xbe019a2f	-0.12656473
2	0x3e0036c1	0.12520887
3	0x3e514942	0.20438102
4	0x3e1ddd23	0.15416388
5	0x3e8ccafc	0.27498615
6	0xbce0b1b5	-0.027428487
7	0x3d944b8c	0.07240972
8	0xbe9284af	-0.28616855
9	0x3e8a056f	0.2695727
10	0xbe30a40a	-0.17250076
11	0x3dc013e2	0.09378792
12	0x3e5ac110	0.2136271
13	0x3eb6430c	0.35598028
14	0xbe3320dd	-0.17493005
15	0x3eb0f92a	0.34565097
16	0x3e8862f0	0.26637983
17	0x3e3bf6dd	0.1835589
18	0x3e86ea2a	0.26350528
19	0xbded0a1f	-0.11574196
20	0x3eb75481	0.3580666
21	0xbe725768	-0.23666155
22	0xbeb2db8d	-0.3493313
23	0xbe039060	-0.12848043
24	0xbd639954	-0.055566147
25	0xbd2e0a66	-0.042490385
26	0x3eb16685	0.3464853
27	0xbe8fae70	-0.28062773
28	0x3e8908cb	0.2676452
29	0xbe425fd9	-0.18981875
30	0xbebe55af	-0.37174746
31	0xbe3452ec	-0.17609757
32	0x3e82f607	0.2557833
33	0x3e24ff5f	0.16113041
34	0xbe087406	-0.1332551
35	0xbd207166	-0.039170645
36	0x3e8c0514	0.27347624
37	0xbe350124	-0.17676216
38	0xbeb87cff	-0.36032864
39	0x3e207bd1	0.15672232
40	0x3da16623	0.07880809
41	0xbe5b188f	-0.21396087
42	0x3ebd98d3	0.37030658
43	0x3d0545a6	0.032537125
44	0x3ea10f66	0.3145706
45	0xbe10b2bb	-0.1413068
46	0xbd7fd689	-0.062460456
47	0xbe8dda53	-0.2770563
48	0x3e376068	0.1790787
49	0xbdc54809	-0.0963288
50	0xbe20ae43	-0.15691476
51	0x3e8848d0	0.26618052
52	0xbe26900d	-0.16265889
53	0xbe9cf016	-0.3065192
54	0x3e1f359d	0.15547796
55	0xbe2f75c6	-0.17134771
56	0x3e27c636	0.16384205
57	0x3e72ba09	0.2370378
58	0xbeba7f0e	-0.3642506
59	0x3e2243df	0.15846203
60	0x3e81a008	0.25317407
61	0x3eba116e	0.36341423
62	0x3e0b6002	0.13610843
63	0x3e8e3c8e	0.27780575
64	0x3e872282	0.26393515
65	0xbeb0014e	-0.34375995
66	0x3d42c148	0.04754761
67	0xbd89cb66	-0.06728248
68	0xbeb6ddff	-0.35716245
69	0x3e5880e9	0.21142925
70	0xbe75adb4	-0.23992044
71	0x3df508a9	0.119645424
72	0xbbbd52ba	-0.005777684
73	0xbde066fa	-0.10957141
74	0x3e959001	0.2921143
75	0xbc3f871b	-0.0116899265
76	0x3e83b5ca	0.25724632
77	0xbdcac38a	-0.09900577
78	0x3dc57342	0.09641124
79	0xbeb3bc39	-0.3510454
80	0xbe2e9c9b	-0.17051928
81	0x3d4d391f	0.050103303
82	0xbd7e654c	-0.062108323
83	0xbdcb45f9	-0.099254556
84	0x3c8b5ec9	0.01701297
85	0x3e0ed224	0.1394735
86	0xbdbf9be3	-0.09355905
87	0xbe3e3600	-0.18575287
88	0x3d04c87a	0.03241775
89	0x3d9089d5	0.070575394
90	0xbd9e30d7	-0.07724159
91	0xbd3ec4ce	-0.046574406
92	0x3e8c59d1	0.27412274
93	0xbeabbc7f	-0.3354225
94	0x3e27ecc1	0.16398908
95	0x3dec2869	0.11531145
96	0xbe4584ec	-0.19288987
97	0x3b0f9c7b	0.0021913338
98	0xbda6880a	-0.08131416
99	0x3e5efeb2	0.21776846
100	0xbeb501c0	-0.35352898
101	0x3e06c44e	0.13160822
102	0x3e8fb402	0.28067023
103	0x3e2f1cef	0.17100881
104	0xbe1d1977	-0.15341745
105	0xbe975406	-0.29556292
106	0xbe082ce6	-0.13298377
107	0xbd86bf3f	-0.06579446
108	0xbd5d4e19	-0.054029558
109	0x3e91908e	0.284306
110	0x3e34cc6e	0.17656109
111	0xbe21b082	-0.15789989
112	0xbded28ed	-0.115800716
113	0x3e6e7ffd	0.23291011
114	0xbe4f4592	-0.20241383
115	0x3e863714	0.26213896
116	0x3e756a92	0.23966435
117	0x3e923367	0.28554842
118	0x3e06062f	0.13088296
119	0x3e8c249a	0.27371675
120	0xbd5cf3c8	-0.053943425
121	0xbe357d60	-0.17723608
122	0x3d52d385	0.051471252
123	0xbc774c28	-0.015093841
124	0xbd259cd8	-0.04043278
125	0x3e3aaced	0.18230028
126	0xbe1556c7	-0.14583884
127	0x3e64bd0c	0.2233774

layers.0.W_att.weight f4 [128, 128]
0	0x3d34b8b7	0.04412147
1	0x3c663c8b	0.0140525205
2	0x3c908b75	0.017644623
3	0xbcba1476	-0.022714835
4	0xbd73c3f1	-0.059513036
5	0x3bd7d2b4	0.006586397
6	0xbdb0161e	-0.085979685
7	0xbca555eb	-0.02018257
8	0xbcfc0e7b	-0.030768624
9	0x3cf9d34e	0.030496266
10	0x3d000b36	0.03126069
11	0xbd8adc72	-0.06780328
12	0xbd09efb3	-0.03367586
13	0xbc8f6325	-0.01750333
14	0xbc1740b0	-0.009231731
15	0x3d95805b	0.072998725
16	0xbc7defb5	-0.015499045
17	0xbd228107	-0.03967383
18	0xbd12493c	-0.035714373
19	0x3cb636f0	0.022242993
20	0x3d8eb25e	0.069676146
21	0xbc502da2	-0.012706192
22	0xbc1294c6	-0.008946603
23	0xbbac7e97	-0.005264114
24	0x3d4ba10b	0.04971413
25	0xbc84aed1	-0.01619664
26	0xbdb1ed5c	-0.08687851
27	0xbd1e97f6	-0.03871914
28	0x3d43429c	0.047670946
29	0xbd52ccd0	-0.051464856
30	0xbcf30a93	-0.029668128
31	0x3c63b12e	0.013897223
32	0xbc70ac51	-0.014689521
33	0x3d05e775	0.032691438
34	0x3d5a74ad	0.053333927
35	0x3db9a676	0.09064953
36	0x3d309e3f	0.043119665
37	0xbd815f97	-0.063170604
38	0x3dae51ac	0.085116714
39	0xbc109a93	-0.008825916
40	0x3ceee08e	0.02915981
41	0xbd96aff8	-0.07357782
42	0xbd33e251	-0.043917004
43	0x3d2a569c	0.041586503
44	0x3d808e87	0.06277185
45	0xbd90c2f7	-0.070684366
46	0x3d9c932c	0.07645258
47	0x3c1b2e76	0.009471526
48	0xbc026f8a	-0.007961163
49	0x3c8ec017	0.01742558
50	0x3ce06023	0.027389592
51	0x3d99756e	0.07493101
52	0x3b5e0aef	0.0033881029
53	0x3c3c00fe	0.011474846
54	0x3d273299	0.040819738
55	0xbd8c6157	-0.068545036
56	0xbb5696bf	-0.003274366
57	0x3ccfcd53	0.02536646
58	0x3d7ce8bc	0.06174539
59	0x3d570aea	0.052500643
60	0x3cf92fb1	0.030418249
61	0x3c82f9ae	0.015988197
62	0xbc81a3a6	-0.015825104
63	0x3c00a40d	0.007851613
64	0x3da0286e	0.07820211
65	0xbd99578e	-0.07487403
66	0x3db91901	0.09037972
67	0xbd9772f1	-0.0739497
68	0xbc7da4ab	-0.015481154
69	0xbd5bd7b3	-0.053672504
70	0x3d0e4097	0.034729566
71	0xbd956700	-0.07295036
72	0x3ce1cebe	0.027564403
73	0x3da761b9	0.08172936
74	0x3dae4dfa	0.085109666
75	0x3dafb749	0.08579881
76	0xbd234ac7	-0.039866235
77	0xbd59a183	-0.053132545
78	0x3d92dded	0.07171235
79	0xbd63ca69	-0.055612955
80	0x3c1de5f9	0.009637349
81	0xbc0dbf71	-0.0086516
82	0x3d3b1022	0.045669682
83	0xbda54732	-0.0807022
84	0x3d3a805e	0.045532577
85	0x3c8181c1	0.015808942
86	0x3d9a47c3	0.07533219
87	0xbc53e927	-0.012934006
88	0xbdaeba4e	-0.085316285
89	0x3d68fa04	0.05687906
90	0xbd920d1d	-0.071314074
91	0xbd4d09de	-0.05005824
92	0xbc8e2f47	-0.017356528
93	0xbcff9aa7	-0.031201674
94	0xbd16f396	-0.036853395
95	0xbdaf8e2d	-0.0857204
96	0xbcfa50bf	-0.03055608
97	0xbd311a60	-0.043238044
98	0xbd49e609	-0.049291644
99	0xbcda32a8	-0.026635483
100	0x3c777e98	0.015105866
101	0x3d99f585	0.07517532
102	0x3afd3d75	0.0019320684
103	0xbd9586c7	-0.07301097
104	0xbcbdab18	-0.023152873
105	0x3cd59907	0.026073946
106	0x3a3051f6	0.00067260803
107	0xbd9ef98e	-0.077624425
108	0x3c98f822	0.018673006
109	0xbc9431cb	-0.01809015
110	0x3d28130c	0.04103379
111	0xbd97d896	-0.07414357
112	0xbd0d7e56	-0.03454431
113	0xbd80016e	-0.06250273
114	0xbd9a4e6c	-0.07534489
115	0xbbfd5d56	-0.007732074
116	0x3dbb2487	0.091378264
117	0x3bb8c580	0.005638778
118	0x3db2462e	0.08704792
119	0xbca132a0	-0.01967746
120	0xbd9d66f1	-0.0768565
121	0xbc22226f	-0.009895905
122	0xbbfdd340	-0.00774613
123	0x3d23ad00	0.039959908
124	0x3bdec781	0.006798685
125	0xbcee3590	-0.029078275
126	0x3d272859	0.040809963
127	0xbd96e121	-0.07367159
128	0x3cfd388c	0.030910753
129	0xbd9f9bb5	-0.07793371
130	0x3d2150d6	0.03938373
131	0x3d03a559	0.03214011
132	0x3d7509c3	0.059823763
133	0xbcee6284	-0.02909971
134	0x3d2b496b	0.041818064
135	0xbb13441f	-0.0022471023
136	0x3d32cd46	0.043652795
137	0x3d959791	0.073042996
138	0xbd9aa98e	-0.07551871
139	0x3d7eb8fb	0.06218813
140	0xbaa39317	-0.0012479749
141	0x3c9c0857	0.019046945
142	0xbcfef2ff	-0.031121729
143	0x3d1c3c50	0.038143456
144	0xbd278539	-0.040898535
145	0xbd8ac0be	-0.06775044
146	0xbdc2797f	-0.0949583
147	0x3d8b6a3b	0.06807371
148	0x3d7e0962	0.062020667
149	0xbcf38885	-0.029728184
150	0xbd9f51b7	-0.07779258
151	0xbbfc1de3	-0.0076939925
152	0x3d25ca48	0.040476114
153	0x3d9fdab3	0.078053854
154	0xbd2612c1	-0.04054523
155	0x3b170d8f	0.0023048853
156	0xbd8f1a13	-0.06987395
157	0x3d8d6dd2	0.06905712
158	0xbd3c0f3e	-0.045912974
159	0xbc817312	-0.01580194
160	0xbd307f94	-0.043090418
161	0x3d862165	0.06549338
162	0xbd4b3c68	-0.049618155
163	0xbc41509f	-0.011799007
164	0xbd92088d	-0.07130537
165	0x3d24f602	0.040273674
166	0xbd977207	-0.07394796
167	0xbcf2e350	-0.029649407
168	0x3cf8daba	0.030377734
169	0xbd6e9a44	-0.058252588
170	0x3d365ac8	0.04452017
171	0x3cf72d6a	0.030173022
172	0xbc415c0a	-0.011801729
173	0xbda53110	-0.080659986
174	0x3d838def	0.06423556
175	0x3d815fd7	0.06317108
176	0xbd0896ca	-0.03334693
177	0x3cb0c0bb	0.021576276
178	0xbd9398ac	-0.07206854
179	0x3d708af0	0.05872625
180	0xb931c11f	-0.00016951979
181	0x3c1908b3	0.009340453
182	0x3d906324	0.070501596
183	0x3d600a9e	0.054697625
184	0xbccdea13	-0.02513603
185	0x3d64ecaf	0.05588978
186	0xbd865033	-0.065582655
187	0xbc121e6e	-0.008918388
188	0x3d228ec9	0.03968695
189	0xbd7dddc1	-0.06197906
190	0x3d8050f3	0.0626544
191	0xbd4998d0	-0.049218
192	0xbd3c0efe	-0.045912735
193	0x3da11c8f	0.07866775
194	0xbd623166	-0.05522289
195	0xbd4f2548	-0.050572664
196	0x3d12b028	0.035812527
197	0x3da30d5d	0.07961533
198	0x3da5623b	0.080753766
199	0xbc99ee52	-0.018790398
200	0xbd5fca07	-0.054636028
201	0x3d54d6f1	0.051962797
202	0x3ceb18b3	0.028698301
203	0x3d41f3a7	0.047351506
204	0xbd834e15	-0.06411377
205	0x3d353e6a	0.044248976
206	0x3d17236c	0.036899015
207	0x3cbdc95e	0.023167308
208	0x3d3a1613	0.045431208
209	0xbd97cde3	-0.07412317
210	0x3d1414ed	0.03615277
211	0xbd0c5a7b	-0.034265976
212	0xbdc06ec5	-0.093961276
213	0x3c6daa6c	0.014505964
214	0xbd8e515d	-0.069491126
215	0xbc307db1	-0.010772155
216	0x3baec676	0.005333717
217	0x3bfadec1	0.007655949
218	0xbd96a950	-0.073565125
219	0xbd1192ee	-0.035540514
220	0xbd0db451	-0.03459579
221	0x3db7ea81	0.08980275
222	0x3d2fd4e2	0.04292763
223	0xbda66bd7	-0.081260376
224	0xbd1c7c0a	-0.03820423
225	0x3d1b0d8b	0.037854712
226	0x3b9ed8d1	0.004847624
227	0x3ca19059	0.01972215
228	0x3b83501c	0.0040073525
229	0xbd627658	-0.055288643
230	0x3dadf004	0.08493045
231	0xbdaf408e	-0.08557235
232	0x3abe1cb9	0.001450441
233	0x3d538d40	0.05164838
234	0xbc319cef	-0.010840639
235	0x3c9a395d	0.018826181
236	0xbc9971d4	-0.018731035
237	0xbd4aa383	-0.049472343
238	0xbbf6c4ac	-0.0075307693
239	0xbcd3d2d0	-0.02585736
240	0xbcf44b6f	-0.029821126
241	0x3d98d113	0.07461753
242	0xbdaaba73	-0.083363436
243	0x3d40c521	0.047062997
244	0xbd15602e	-0.036468677
245	0x3dada2e1	0.08478332
246	0xbd1caaa9	-0.03824869
247	0xbb429250	-0.002968926
248	0xbd1ed77e	-0.038779728
249	0x3d4362e7	0.047701743
250	0xbba59fb1	-0.005054437
251	0xbd29bf9e	-0.041442506
252	0x3c4a30d3	0.012340742
253	0xbd982c08	-0.07430273
254	0x3d721b27	0.059107926
255	0xbd813edc	-0.063108176

layers.0.phi_att.weight f4 [128, 128]
0	0x3da1a694	0.078931004
1	0xbd0bf962	-0.034173377
2	0xbd3e56e8	-0.0464696
3	0x3c1172bd	0.008877453
4	0xbd2ac0da	-0.041687824
5	0x3d61b638	0.055105418
6	0x3d0a0f0a	0.03370575
7	0x3d16a0a6	0.0367743
8	0xbdc62b38	-0.09676212
9	0x3d6d9c96	0.05801066
10	0x3dcbbce6	0.09948139
11	0x3d887eef	0.06664836
12	0x3db80e21	0.0898707
13	0xbd9bf60b	-0.07615288
14	0xbd8e91d2	-0.06961407
15	0x3d84fe0b	0.06493767
16	0xbd9e3a92	-0.07726015
17	0xbd8911db	-0.06692859
18	0x3b509e19	0.0031832515
19	0x3db1db38	0.08684391
20	0xbd89da7e	-0.06731127
21	0xbd4ab4e9	-0.049488936
22	0x3a218192	0.000616097
23	0x3d6deb3d	0.05808567
24	0xbcec5006	-0.028846752
25	0xbc8e888e	-0.017399099
26	0x3d8bd52b	0.06827768
27	0x3db87725	0.090071
28	0xbccd1eb2	-0.02503905
29	0x3d97ca9f	0.07411694
30	0x3d09379d	0.033500303
31	0xbcd617dd	-0.026134426
32	0x3d4eac9a	0.050457574
33	0xbd6ce86d	-0.057838846
34	0xbd62443c	-0.055240855
35	0xbc9d55ec	-0.01920601
36	0xbd94cc86	-0.07265572
37	0x3d77f769	0.060538683
38	0xbcf05266	-0.029336166
39	0x3c8fdcc9	0.017561333
40	0xbd9d4f45	-0.07681135
41	0xbd2e131e	-0.0424987
42	0x3d0e29c2	0.034707792
43	0xbde305e8	-0.11085111
44	0xbd4e9979	-0.05043933
45	0x3d908f81	0.07058621
46	0xbd3e162a	-0.046407856
47	0xbdcb6d7b	-0.09932991
48	0xbc16a75d	-0.009195176
49	0xbd02b2ba	-0.03190873
50	0x3d8fd78a	0.07023533
51	0x3d9754d7	0.07389229
52	0x3ce13361	0.02749032
53	0xbd62e515	-0.05539425
54	0xbd4173ac	-0.047229454
55	0xbbe8a083	-0.0070992126
56	0x3db5c688	0.088757575
57	0x3dc6caa0	0.097066164
58	0x3babe992	0.0052463496
59	0x3d9977f7	0.074935846
60	0xbd918af5	-0.07106582
61	0x3a0d2860	0.00053847395
62	0x3d838d7a	0.06423469
63	0x3d897591	0.06711877
64	0xbcd25454	-0.025674976
65	0xbb9d7096	-0.004804681
66	0xbd30ea4f	-0.043192204
67	0x3da8a3d2	0.08234371
68	0x3d13c605	0.036077518
69	0x3d8bc1e8	0.06824094
70	0xbd1ee0bb	-0.03878854
71	0x3d21a00b	0.03945927
72	0x3d16019a	0.03662262
73	0x3d711df9	0.058866475
74	0x3dc8148e	0.097695455
75	0x3d909808	0.07060248
76	0xbc862fbf	-0.016380189
77	0x3d026ab5	0.031840045
78	0x3d0cc773	0.034369897
79	0xbc2bec4e	-0.010493351
80	0x3c3af8bf	0.011411845
81	0xbd36641e	-0.044529073
82	0xbd1fbef3	-0.039000463
83	0x3d540b12	0.05176837
84	0xbd28e536	-0.041234218
85	0x3d5a11b2	0.05323953
86	0x3d9e2f00	0.07723808
87	0xbd98b688	-0.0745669
88	0x3d12108b	0.035660308
89	0x3daeaed0	0.085294366
90	0x3d7c0d8c	0.061536357
91	0x3d8c285d	0.06843636
92	0x3d76df18	0.060271353
93	0xbc37c176	-0.011215558
94	0xbd115c1f	-0.035488244
95	0x3da15018	0.07876605
96	0xbda6935b	-0.081335746
97	0xbcbaa778	-0.022784933
98	0xbd51bc26	-0.051204823
99	0xbdb97186	-0.09054856
100	0xbd4b7557	-0.04967245
101	0x3d7eed12	0.062237807
102	0x3a66a60f	0.00087985484
103	0x3bbfa3a2	0.005848364
104	0x3d98624f	0.07440626
105	0x3bda5d57	0.006663959
106	0xbd004042	-0.03131128
107	0x3c9fe949	0.019520419
108	0x3d9ac724	0.07557514
109	0xbcc9ca49	-0.02463259
110	0x3d81811e	0.06323455
111	0x3c5092b4	0.012730289
112	0xbc8ede2d	-0.017439926
113	0x3dbd02cf	0.09229051
114	0xbc5fdcd9	-0.013663494
115	0xbd53c840	-0.051704645
116	0x3d2edf0f	0.042693194
117	0xbd520d1a	-0.051282026
118	0x3c867cd4	0.016416945
119	0x3cdb88e2	0.02679867
120	0xbd35cf2e	-0.044387035
121	0xbd6746c2	-0.056463964
122	0x3d80b560	0.062845945
123	0xbd5255f9	-0.05135152
124	0x3d05a253	0.032625508
125	0xbcc65d2d	-0.024214352
126	0x3d84ec78	0.06490415
127	0x3d0eb994	0.03484495
128	0x3ce6e678	0.028186068
129	0x3d0d461d	0.034490693
130	0xbcabd880	-0.020977259
131	0x3d1857b2	0.037193008
132	0x3da3771f	0.07981705
133	0x3db5adb9	0.088710256
134	0x3c1b1160	0.009464592
135	0xbdc66d2d	-0.096887924
136	0x3d820834	0.06349221
137	0xbcdd1c21	-0.026990952
138	0x3cc7631b	0.02433925
139	0x3d413ea0	0.047178864
140	0xba7901bb	-0.0009498854
141	0xbc7f9876	-0.015600314
142	0x3d32edee	0.04368394
143	0xba8843a6	-0.0010396137
144	0x3c97b844	0.018520482
145	0xbcd21e1c	-0.025649123
146	0xbc65c3ab	-0.014023702
147	0x3d250805	0.04029085
148	0x3b344694	0.0027507888
149	0xbcd2387d	-0.025661701
150	0xbdb9066f	-0.0903443
151	0xbcf7a55f	-0.030230222
152	0x3d13f167	0.03611889
153	0x3a4baa7c	0.00077692396
154	0xbd8dc65b	-0.06922599
155	0xbdb54270	-0.088505626
156	0xbae30593	-0.0017320387
157	0x3c0bfab6	0.008543661
158	0xbd93e4b9	-0.0722136
159	0xbd4131d5	-0.047166664
160	0xbcdc142e	-0.026865091
161	0x3d17e2ac	0.037081406
162	0x3cfd87b6	0.030948501
163	0xbc9cd64d	-0.019145155
164	0x3d3db98d	0.046319533
165	0xbdebc779	-0.11512656
166	0xbb6b1c43	-0.0035875
167	0x3caebbd5	0.0213298
168	0x3d95b01f	0.07308983
169	0x3d505a36	0.05086728
170	0xbcc7bfc0	-0.024383426
171	0xbc26c809	-0.010179528
172	0x3db54cc7	0.08852535
173	0xbd3c39fe	-0.045953743
174	0x3d886f70	0.0666188
175	0x3d283918	0.041070074
176	0x3da26fdf	0.07931494
177	0x3d5f0a40	0.054453135
178	0xbca7a38a	-0.020463724
179	0xbce407c0	-0.027835727
180	0x3dd6ed04	0.10494426
181	0x3d643b80	0.055720806
182	0x3b1db9fa	0.002406715
183	0xbd9c776a	-0.07639964
184	0x3c3fdb4d	0.01171
185	0x3d009a60	0.031397223
186	0xbd99f7c9	-0.075179644
187	0xbccd7fc8	-0.025085345
188	0xbd9ebde5	-0.07751063
189	0x3d9c3366	0.07626991
190	0xbd9090d1	-0.070588715
191	0x3d947668	0.07249147
192	0x3d8bf47b	0.0683374
193	0x3cfcc49f	0.030855475
194	0x3d8ca40d	0.06867228
195	0x3c0bb46f	0.008526905
196	0xbc3f236e	-0.011666162
197	0x3d4c5ab1	0.049891178
198	0xbc636bd7	-0.0138806915
199	0x3d6c4e37	0.05769178
200	0xbd3c0b6b	-0.045909327
201	0xbcb1eae4	-0.02171845
202	0xbc159961	-0.009130807
203	0xbbd734ea	-0.006567587
204	0x3dac6adb	0.084188186
205	0x3b004c72	0.0019576815
206	0x3d8f4103	0.06994822
207	0x3ce21b31	0.027600856
208	0x3d2ea6fd	0.04263972
209	0xbd94f268	-0.07272798
210	0xbdf02aed	-0.117269374
211	0x3992f843	0.0002803226
212	0xbd63a2e8	-0.05557528
213	0xbd63b794	-0.055594996
214	0xbcd4d148	-0.0259787
215	0xbd978a41	-0.07399417
216	0x3d9a422c	0.075321525
217	0x3d6ca064	0.057770148
218	0xbd3537e0	-0.04424274
219	0x3c93f264	0.018059917
220	0xbd9dab3d	-0.07698677
221	0x3dbdc7e6	0.09266643
222	0xbd81a1f3	-0.063297175
223	0x3d2e3275	0.04252859
224	0x3d3e3aa9	0.04644266
225	0x3d60a97f	0.054849144
226	0xbd785d9b	-0.060636144
227	0x3d0036e0	0.031302333
228	0x3b62d828	0.0034613702
229	0x3d7fe46b	0.062473696
230	0xbd50b212	-0.05095107
231	0xbdb08902	-0.08619882
232	0xbc5fe99d	-0.013666538
233	0x3d60f61a	0.0549222
234	0x3dcf3344	0.101172
235	0x3daa6c67	0.08321457
236	0x3d9201d0	0.07129252
237	0x3cc09f6b	0.023513516
238	0xbc0b1181	-0.00848806
239	0x3cc547ed	0.024082148
240	0x3da37f15	0.07983223
241	0x3d959055	0.0730292
242	0x3d9c3b98	0.07628554
243	0x3b20f770	0.0024561547
244	0x3bd9bbc1	0.0066446965
245	0xbd24df46	-0.040251993
246	0xbcf8acb6	-0.030355792
247	0x3db0fcc5	0.08641962
248	0xbcb26a84	-0.021779306
249	0x3d0fdf92	0.035125323
250	0xbd0dca58	-0.0346168
251	0x3d2b6bfc	0.04185103
252	0x3c8c0373	0.017091488
253	0xbb78e9ba	-0.0037981109
254	0x3ce9f451	0.028558882
255	0x3d1fe479	0.039036248

layers.0.phi_att.bias f4 [128]
0	0xbda17a8c	-0.07884702
1	0x3c994f69	0.018714624
2	0x3b2bfc3c	0.0026242873
3	0xbd66fadf	-0.056391593
4	0xbd1dcf3a	-0.038527705
5	0x3d7ae01e	0.06124889
6	0xbd48f0a9	-0.049057636
7	0xbccc8f7d	-0.024970764
8	0xbc7a969f	-0.0152947
9	0xbd1a41db	-0.03766046
10	0x3db70ed7	0.08938377
11	0xbd608f22	-0.054824002
12	0xbd940b3a	-0.07228704
13	0x3dad1716	0.08451669
14	0xbd61f325	-0.05516352
15	0x3d81419c	0.06311342
16	0xbca09c33	-0.019605732
17	0xbd1d2a25	-0.03837027
18	0xbda4db93	-0.08049693
19	0x3c5e13c4	0.013554517
20	0x3d5ecfd3	0.054397415
21	0x3c88a350	0.016679436
22	0xbcbf4a37	-0.023350818
23	0xbcba31b1	-0.022728773
24	0x3caa93de	0.020822462
25	0xbcd19129	-0.025581913
26	0x3b9b78b6	0.0047446145
27	0x3d942976	0.072344705
28	0xbd279a2f	-0.040918525
29	0xbdade708	-0.08491331
30	0x3a086dcd	0.000520435
31	0xbd5f55d9	-0.05452523
32	0x3d25d5d8	0.04048714
33	0x3c2f79cb	0.01071019
34	0x3d4b5298	0.049639314
35	0xbbe033c6	-0.0068421094
36	0x3d1bf3cc	0.0380743
37	0xbd1c93f8	-0.03822705
38	0xbd218f16	-0.039443098
39	0xbc063a12	-0.008192556
40	0xbd0f0013	-0.03491218
41	0xbd4c1eb3	-0.049833965
42	0xbd3b340c	-0.045703933
43	0x3c1f8d15	0.009738226
44	0x3cb52f72	0.02211735
45	0xbd2c6159	-0.042085025
46	0xbd85a6d0	-0.065259576
47	0x3b75632e	0.003744315
48	0xbd83a616	-0.06428163
49	0x3bd382ea	0.006454815
50	0x3d7fc2bd	0.062441576
51	0xbd3a4962	-0.04548014
52	0xbcf99bb4	-0.030469753
53	0xbd6c90be	-0.057755224
54	0xbd0fb265	-0.03508224
55	0x3c9f2b47	0.019429816
56	0xbd78bcc5	-0.0607269
57	0xbdafb21c	-0.085788935
58	0x3d99c6dc	0.075086325
59	0x3c028f08	0.007968672
60	0x3d4b0079	0.049560998
61	0x3b32681a	0.0027222694
62	0xbcbbb564	-0.022913642
63	0x3d80621d	0.062687136
64	0x3d14ca2b	0.036325615
65	0x3d94f560	0.07273364
66	0x3d541d99	0.05178604
67	0xbd4ab256	-0.04948648
68	0x3bf070b2	0.007337653
69	0xbc5b2d6c	-0.013377529
70	0xbd812cad	-0.06307349
71	0xbcfc9718	-0.030833766
72	0x3cd06ed7	0.025443478
73	0xbd7f1011	-0.06227118
74	0x3d975690	0.07389557
75	0xbd04e754	-0.032447174
76	0x3d8da06c	0.06915364
77	0xbd603515	-0.054738123
78	0x3d88e650	0.066845536
79	0x3ce60fbb	0.028083673
80	0xbcdee9cf	-0.027211098
81	0xbca881d0	-0.020569712
82	0xbd41011e	-0.047120206
83	0xbd89ebff	-0.06734466
84	0xbda3bbf6	-0.07994835
85	0x3d88a42d	0.06671939
86	0xbd64926c	-0.0558037
87	0xbcfd7c13	-0.030942952
88	0xbda92911	-0.08259786
89	0xbdb5f157	-0.088839225
90	0xbda66427	-0.08124571
91	0x3d46eea2	0.04856742
92	0xbd80c204	-0.062870055
93	0xbd76c62f	-0.060247596
94	0x3cc6e68b	0.024279853
95	0x3ca5fd04	0.020262249
96	0x3d17521a	0.036943533
97	0xbcddc09b	-0.02706938
98	0x3d790e2c	0.06080453
99	0x3d627bfc	0.055294022
100	0xbcfa3b06	-0.030545723
101	0xbd932c76	-0.071862146
102	0x3c48e52b	0.012261669
103	0x3bbaafa9	0.00569721
104	0x3d237df5	0.039915044
105	0x3bcfa34c	0.006336605
106	0x3d937b88	0.07201296
107	0xbd4ab404	-0.049488083
108	0x3cc531ce	0.0240716
109	0xbda340ad	-0.0797132
110	0x3d673edd	0.056456435
111	0x3d8935ab	0.066996895
112	0x3d88bc91	0.06676591
113	0x3c44c65f	0.012010186
114	0xbcd0d93f	-0.025494216
115	0xbce59552	-0.028025303
116	0xbd9eb90d	-0.077501394
117	0x3d9f17f4	0.077682406
118	0xbd77d8cb	-0.060509484
119	0xbcf135b2	-0.02944455
120	0x3d77a739	0.06046221
121	0x3d997874	0.07493678
122	0xbc79c377	-0.015244356
123	0x3d96696c	0.073443264
124	0xbd46abec	-0.0485038
125	0xbc3574f8	-0.011075251
126	0x3d8f4dcb	0.0699726
127	0x3c1251a0	0.008930594

layers.0.W_p.weight f4 [128, 128]
0	0xbd1e90de	-0.038712375
1	0xbd174f0c	-0.03694062
2	0xbc8b5e7b	-0.017012825
3	0x3d5a2745	0.053260107
4	0x3c80c2d1	0.015717896
5	0xbcc3d744	-0.023906358
6	0x3c8d3897	0.017238898
7	0xbd94cb4a	-0.07265337
8	0xbd95e1db	-0.07318469
9	0xbd8720f0	-0.06598079
10	0x3c7a7840	0.015287459
11	0x3d508e65	0.050917048
12	0xbd8fe607	-0.07026296
13	0xbcf45864	-0.029827304
14	0x3c928d71	0.01788971
15	0x3d0ee617	0.0348874
16	0x3db0826a	0.086186245
17	0xbd825423	-0.06363704
18	0xbd8414ff	-0.06449317
19	0xbd43c118	-0.04779157
20	0x3bcf35fa	0.006323573
21	0x3c2652b7	0.010151557
22	0x3b403cc6	0.0029333099
23	0x3d932101	0.07184029
24	0x3d101b0b	0.03518204
25	0xbd8dbd3f	-0.069208615
26	0xbd478dc8	-0.048719198
27	0x3d663c5a	0.0562099
28	0xbd8b02cb	-0.06787642
29	0x3d522573	0.051305246
30	0x3d01d168	0.031693846
31	0x3c6727e7	0.014108635
32	0x3d18f589	0.037343536
33	0xbd467774	-0.048453763
34	0xbd026d55	-0.03184255
35	0x3d9af36b	0.075659595
36	0x3b986a4a	0.0046513425
37	0x3d24484d	0.040108014
38	0xbdb041d5	-0.086063065
39	0x3d88d56d	0.06681333
40	0xbd86d694	-0.06583896
41	0xbda29fba	-0.07940622
42	0xbd9e74ef	-0.07737147
43	0x3ce54c1a	0.02799039
44	0xbc1b0e82	-0.009463908
45	0xbd7ece2b	-0.062208336
46	0x3d04fc72	0.032467313
47	0x3d52ca50	0.05146247
48	0xbd96989e	-0.07353328
49	0xbccf3d36	-0.025297742
50	0x3ce51ba5	0.027967284
51	0x3d6f6608	0.058446914
52	0xbda44cc2	-0.08022453
53	0x3d95ea08	0.073200285
54	0xbd1d60dd	-0.038422454
55	0x3db4e27c	0.08832261
56	0xbdab8fda	-0.08377047
57	0x3c9ede3e	0.019393083
58	0x3db8f6ad	0.09031425
59	0x3d349810	0.04409033
60	0xbd79bbf8	-0.060970277
61	0xbbb64d07	-0.0055633816
62	0xbd2ab42e	-0.04167574
63	0x3d80106d	0.06253133
64	0xbd4eb23d	-0.05046295
65	0x3c414097	0.011795185
66	0xbd1a915c	-0.03773628
67	0xbca31d7a	-0.019911516
68	0x3cba6c08	0.022756591
69	0x3c9bb089	0.019005077
70	0x3c76c5bb	0.015061791
71	0x3c11e182	0.008903863
72	0xbd318724	-0.04334177
73	0xbd6ef2c9	-0.058337007
74	0xbd8ab84b	-0.06773432
75	0x3d782476	0.060581647
76	0xbd616cc3	-0.055035364
77	0xbd45e0dd	-0.04831015
78	0xbd3c28ac	-0.045937225
79	0xbd6e8fc7	-0.058242586
80	0xbd07e73e	-0.033179514
81	0xbd7a3e65	-0.06109466
82	0x3d342f89	0.043990646
83	0xbd906397	-0.07050245
84	0xbd6c255b	-0.057652812
85	0xbd2753b5	-0.040851314
86	0x3d57bd1e	0.05267059
87	0x3d4614ae	0.048359565
88	0x3d7cb241	0.061693434
89	0xbcd1e42e	-0.0256215
90	0x3d6f0a8d	0.05835967
91	0xba78e75b	-0.0009494924
92	0xbd4d2af4	-0.05008979
93	0xbdb0e763	-0.086378835
94	0xbd95a7d3	-0.073074006
95	0xbccf37e7	-0.025295211
96	0xbcef6de8	-0.029227212
97	0xbd013cdd	-0.031552184
98	0xbd9480a3	-0.07251098
99	0xbc1a6fc4	-0.009426061
100	0xbc06c44d	-0.008225513
101	0x3bdc85f6	0.0067298366
102	0xbd69022c	-0.056886837
103	0x3cce8a75	0.025212506
104	0xbd984504	-0.07435039
105	0xbd0ead49	-0.034833226
106	0x3d92ff3b	0.071775876
107	0xbd16a7d1	-0.036781136
108	0xbda65c85	-0.081231155
109	0xbc037d53	-0.008025485
110	0x3da6cc9c	0.08144495
111	0x3d9d8dd4	0.07693067
112	0x3c1cb2b9	0.009564095
113	0x3da6d7c9	0.081466265
114	0x3cd0f649	0.025508063
115	0xbb33cda3	-0.0027435801
116	0xbca87979	-0.020565735
117	0x3d95aac6	0.07307963
118	0x3d8d1a6a	0.06889804
119	0x3d85b1cb	0.06528052
120	0x3db9c90d	0.090715505
121	0xbcfc43d5	-0.030794064
122	0xbd6c4e89	-0.057692084
123	0x3d4bfdd0	0.0498026
124	0xbdc002ea	-0.09375556
125	0x3881f556	6.196897e-05
126	0x3d5e77d5	0.0543135
127	0xbd9ee851	-0.077591546
128	0x3da934f9	0.08262057
129	0x3d0c2d25	0.03422274
130	0xbd72b63b	-0.05925582
131	0x3d9f995c	0.07792923
132	0xbd38ad37	-0.045087066
133	0x3db8cde0	0.090236425
134	0xbd2b441e	-0.04181301
135	0x3d1eba88	0.03875211
136	0x3d3de90e	0.046364836
137	0x3d555b84	0.05208923
138	0xbdb4835e	-0.08814119
139	0xbd23eaa9	-0.04001871
140	0x3c60beb6	0.013717344
141	0x3d9f5ce6	0.07781391
142	0xbd278f58	-0.040908188
143	0x3cebbabb	0.028775563
144	0x3da1ebc2	0.07906295
145	0xbcabec15	-0.020986596
146	0xbc51e355	-0.012810548
147	0xbd6b8fa9	-0.057510052
148	0x3d482a08	0.04886821
149	0x3da93f08	0.082639754
150	0xbdd65ebe	-0.104672894
151	0xbd259120	-0.040421605
152	0x3d117df1	0.035520498
153	0xbd7ac20e	-0.06122022
154	0x3d06fc69	0.03295556
155	0x3d885fbc	0.06658885
156	0xbbb61a12	-0.005557307
157	0xbd8dc2a4	-0.069218904
158	0x3be531c5	0.0069944584
159	0xbd550ec4	-0.052016035
160	0x3d055bb0	0.032558143
161	0x3da38e89	0.07986171
162	0xbdc4907f	-0.09597873
163	0x3daeafee	0.0852965
164	0xbd2f1923	-0.04274858
165	0xbd4fec63	-0.050762545
166	0xbd9b5871	-0.07585228
167	0x3b402ba6	0.0029322891
168	0x3ca40526	0.020021986
169	0x3d411dda	0.04714761
170	0x3d00cba1	0.031444196
171	0x3da4eef1	0.08053387
172	0x3d43a24f	0.04776221
173	0x3d1e7ba1	0.03869212
174	0x3dc1bd95	0.09459988
175	0x3a06d508	0.00051434385
176	0x3c20626a	0.009789089
177	0xbd609e7b	-0.05483864
178	0xbd935940	-0.071947575
179	0x3d990994	0.0747253
180	0xbcf3b01c	-0.029747061
181	0xbd18d81a	-0.037315466
182	0xbd6f73cb	-0.05846004
183	0x3d6a8310	0.057253897
184	0xbd9e9e43	-0.0774503
185	0xbbbaf594	-0.0057055447
186	0xbd8cc6bb	-0.06873842
187	0x3d4f39fc	0.050592408
188	0xbc8ca219	-0.017167138
189	0xbaf2c7c6	-0.0018522672
190	0xbc418cf8	-0.011813395
191	0x3d366f69	0.044539843
192	0xbd294a97	-0.0413309
193	0x3d8268a1	0.06367613
194	0xbca0215d	-0.019547159
195	0xbd53fbd6	-0.05175384
196	0xbdcba82c	-0.099441856
197	0xbd9f5be1	-0.077811964
198	0xbd5c1a50	-0.05373603
199	0x3cf10dea	0.02942558
200	0x3cf8d89f	0.03037673
201	0xbdc9ff37	-0.098631315
202	0xbd286c9a	-0.041119196
203	0xbcdeab81	-0.027181389
204	0xbc10f217	-0.008846781
205	0xbd1b9053	-0.037979435
206	0xbd632c12	-0.05546195
207	0xbdb68890	-0.08912766
208	0x3c1d5db3	0.009604859
209	0x3d0d8efa	0.03456018
210	0x3da1ec73	0.07906427
211	0xb9733948	-0.00023195625
212	0xbce1fd7a	-0.027586687
213	0xbce59a99	-0.02802782
214	0xbc1efe15	-0.009704133
215	0x3bcd5911	0.006266721
216	0x3da417d6	0.08012359
217	0xbbc622ce	-0.0060466295
218	0xbd599845	-0.05312373
219	0xbd104ad5	-0.035227615
220	0x3d84433f	0.06458139
221	0x3cefe302	0.02928305
222	0x3cb9e66d	0.022692883
223	0xbd6022f6	-0.05472084
224	0xbd030310	-0.031985343
225	0x3c4eed06	0.012629753
226	0xbceb0d28	-0.028692797
227	0x3c2c6855	0.010522922
228	0x3b373df0	0.0027960502
229	0x3db136bc	0.08653018
230	0xbd2c929a	-0.042131998
231	0x3d85b237	0.065281324
232	0x3b27a6c2	0.0025581573
233	0x3d4accf9	0.049511883
234	0xbcd465fd	-0.025927538
235	0x3d6b9547	0.05751541
236	0xbd50b697	-0.05095538
237	0x3cef6855	0.029224554
238	0x3d8195a0	0.06327367
239	0x3d364a67	0.04450455
240	0xbc9a0278	-0.018800005
241	0xbcfacf3d	-0.030616397
242	0x3b50878b	0.003181907
243	0xbda7fa5f	-0.08202051
244	0xbd8313c3	-0.064002536
245	0x3aee70a5	0.001819153
246	0xbd40e76f	-0.047095712
247	0x3d8686b4	0.06568661
248	0x3cee9aff	0.029126642
249	0x3c8b11c8	0.016976252
250	0x3c9acf49	0.01889767
251	0xbd9316c9	-0.0718208
252	0xbcc81c3a	-0.024427522
253	0xbb486fe1	-0.0030584263
254	0xbd151403	-0.036396038
255	0x3bd83e5d	0.006599231

layers.0.W_p_prime.weight f4 [128, 128]
0	0xbc958eee	-0.01825663
1	0x3db68a66	0.08913116
2	0x3cd4d1bc	0.025978915
3	0x3cea971c	0.028636508
4	0x3dae74a4	0.08518341
5	0xbd24e20b	-0.040254634
6	0x3c80c159	0.015717195
7	0x3d81fa1a	0.06346531
8	0xbcab428d	-0.020905757
9	0xbc039376	-0.008030763
10	0x3cc76e07	0.024344457
11	0xbd496a96	-0.049173914
12	0xbcee5791	-0.02909449
13	0x3c963967	0.018337918
14	0xbda72a9e	-0.081624255
15	0x3ba22b93	0.004949042
16	0xbd4339eb	-0.047662657
17	0x3c34f37a	0.011044377
18	0xbd993c15	-0.07482163
19	0xbcfa22cd	-0.030534172
20	0x3d5a4b0f	0.053294238
21	0xbd471e8c	-0.048613116
22	0x3cd49afa	0.025952805
23	0x3dc8dbe5	0.098075666
24	0x3c7ccb7f	0.015429377
25	0x3d8595f8	0.06522745
26	0xbda1f17b	-0.07907387
27	0x3dbd6411	0.09247602
28	0x3c2dd7e1	0.010610552
29	0xbd621975	-0.05520006
30	0x3d576588	0.052587062
31	0xbd4926b4	-0.049109176
32	0xbd81bd0d	-0.06334887
33	0x3c132b76	0.00898253
34	0x3dc6b29a	0.09702034
35	0x3ac37e86	0.0014915026
36	0xbd2836fc	-0.041068062
37	0xbc49b82c	-0.012311976
38	0xbd5fecd0	-0.0546692
39	0xbd36c519	-0.04462156
40	0xbd4d99a0	-0.050195336
41	0xbd1685f8	-0.036748856
42	0xbce9ef54	-0.028556503
43	0x3d926a08	0.0714913
44	0xbc523101	-0.012829066
45	0x3dbfabd2	0.09358944
46	0xbb7ab61d	-0.003825552
47	0x3d8be33f	0.06830453
48	0x3d647156	0.055772148
49	0x3c9567d0	0.018237978
50	0x3bc20d67	0.005922008
51	0x3d95516a	0.07290919
52	0xbda7e99d	-0.08198855
53	0xbd99153e	-0.07474755
54	0xbd7ccb63	-0.061717402
55	0xbc08aaea	-0.00834153
56	0x3c67de3a	0.014152104
57	0xbc87ecdc	-0.016592436
58	0x3ce383cb	0.027772805
59	0xbcc1086a	-0.023563582
60	0x3da64eab	0.081204735
61	0xbcc8f906	-0.024532806
62	0xbce50a1a	-0.027958918
63	0xbcc6010a	-0.024170417
64	0xbda1d70f	-0.07902347
65	0xbdacd672	-0.0843934
66	0x3db50f25	0.08840779
67	0xbcb71afe	-0.022351738
68	0xbc4aec05	-0.012385373
69	0xbd596257	-0.0530723
70	0xbd54622f	-0.051851448
71	0x3d2f17e9	0.042747412
72	0xbd42c084	-0.04754688
73	0xbd3d5934	-0.04622765
74	0x3db6d8b2	0.0892805
75	0x3d71e2f2	0.059054323
76	0xbd9beb54	-0.07613245
77	0x3daf7fb5	0.0856928
78	0x3d263ea4	0.040587083
79	0xbd20e5ed	-0.039281774
80	0xbd7e17b9	-0.062034342
81	0xbd4aebfa	-0.04954145
82	0xbd46b398	-0.048511118
83	0xbd0d9ceb	-0.034573477
84	0x3d61ea52	0.055155106
85	0x3d3543ef	0.04425424
86	0x3d8ba1d2	0.06817974
87	0x3d63ece2	0.05564583
88	0x3d9039b8	0.07042259
89	0x3d36ce3f	0.044630285
90	0xbd98e32c	-0.074652046
91	0x3d8ddeab	0.06927236
92	0xbd84535a	-0.064612105
93	0x3d99e28c	0.075139135
94	0xbbf54045	-0.007484468
95	0xbd085415	-0.033283312
96	0xbcf6f693	-0.030146873
97	0xbd8829c5	-0.06648592
98	0x3da0f7e9	0.07859785
99	0xbc8d2fd7	-0.017234726
100	0x3d0899cc	0.033349797
101	0x3d996099	0.07489128
102	0x3d5becbd	0.053692568
103	0xbd874889	-0.06605632
104	0xbd20a59a	-0.03922043
105	0xbd173117	-0.03691205
106	0xbd457f85	-0.048217315
107	0x3d75bc2c	0.059993908
108	0x3d9d72ce	0.07687913
109	0xbcb75651	-0.022380026
110	0xbcf191bc	-0.029488437
111	0xbcaf2d45	-0.02138389
112	0x3981f0fd	0.00024784348
113	0xbd4b31d1	-0.049608056
114	0xbd96d466	-0.073647305
115	0x3d8057a6	0.062667176
116	0xbc8f60fb	-0.017502299
117	0x3d832938	0.06404346
118	0x3bb37231	0.005476259
119	0xbcc748a8	-0.024326637
120	0x3c58d6e5	0.013234829
121	0xbcd610a0	-0.026130974
122	0xbb2ba7df	-0.0026192588
123	0x3d74a1b9	0.059724543
124	0x3d929e79	0.071591325
125	0x3cb3b5f9	0.021937357
126	0x3cacc4ad	0.021089876
127	0x3c8df3bc	0.017328136
128	0xbc35f6fd	-0.01110625
129	0x3d60bbbc	0.054866537
130	0x3d589f9a	0.052886583
131	0x3c3a4e2c	0.011371177
132	0x3d278a26	0.040903233
133	0xbd322949	-0.043496404
134	0x3db068ca	0.08613737
135	0xbd375f02	-0.04476834
136	0x3c776ee1	0.015102119
137	0xbce6272c	-0.02809485
138	0x3d5a66eb	0.053320806
139	0x3d7f739e	0.06236612
140	0xbc063fef	-0.008193954
141	0x3d74d952	0.059777565
142	0x3d191831	0.037376586
143	0x3d94dfc3	0.07269242
144	0x3d958ea5	0.07302598
145	0x3d1c9a2d	0.03823297
146	0x3c8188ba	0.015812267
147	0x3d0d3aa0	0.034479737
148	0x3da578e2	0.08079697
149	0xbcacda0b	-0.021100065
150	0x3c8014f6	0.015634995
151	0xbc8e1452	-0.017343674
152	0x3da87ff6	0.082275316
153	0x3daeae0c	0.085292906
154	0xbdb39a74	-0.08769694
155	0x3ced1bdf	0.028943954
156	0xbc60b941	-0.013716043
157	0xbd4aad19	-0.049481485
158	0x3ac362ec	0.00149068
159	0x3d0d977e	0.034568302
160	0xbd96d6d9	-0.07365198
161	0xbdc5081d	-0.09620688
162	0x3d64d196	0.05586394
163	0x3db2e18b	0.08734425
164	0xbcc56fe3	-0.024101203
165	0x3bd4ea66	0.006497669
166	0x3d4fecec	0.050763056
167	0xbd13925a	-0.036028244
168	0xbd3845d5	-0.044988472
169	0x3d49873c	0.049201235
170	0x3d60b6eb	0.054861944
171	0x3d8f7adc	0.070058554
172	0x3db8e4e2	0.09028031
173	0x3d91af37	0.07113498
174	0xbdac0040	-0.08398485
175	0xbd5f2194	-0.054475382
176	0x3d4a9bb5	0.0494649
177	0x3cf42ca4	0.029806443
178	0x3d6cf161	0.057847384
179	0xbdb57225	-0.08859662
180	0x3be15116	0.0068761213
181	0xbd958c5d	-0.07302163
182	0x3d8a017b	0.067385636
183	0x3d517abb	0.051142436
184	0x3cdb7646	0.026789796
185	0xbcc3b17c	-0.023888342
186	0x3da96129	0.08270485
187	0xbd542185	-0.05178978
188	0xbd5c529f	-0.05378973
189	0x3bf6bfd9	0.0075301942
190	0xbd64da86	-0.055872463
191	0xbcff4e18	-0.031165168
192	0xbc84f62e	-0.016230669
193	0x3d13e1b6	0.036103927
194	0xbb085460	-0.0020802245
195	0xbca94e75	-0.020667294
196	0x3d90f935	0.070787825
197	0xbd595533	-0.053059768
198	0x3d08fae9	0.03344241
199	0xbd78cded	-0.06074326
200	0xbcde3dda	-0.027129102
201	0x3da8a5fc	0.08234784
202	0x3b9cae5a	0.0047815265
203	0x3c1d3417	0.009594939
204	0x3c017ddf	0.007903545
205	0x3d05c327	0.032656815
206	0x3d6f694c	0.05845003
207	0x3d3e36bb	0.046438914
208	0x3cffac35	0.031210044
209	0xbc3f6819	-0.011682534
210	0xbd3c1b7a	-0.04592464
211	0x3d602467	0.054722216
212	0x3c2831bd	0.010265765
213	0x3d353ad6	0.044245563
214	0x3c4a5323	0.012348923
215	0xbc161655	-0.009160598
216	0x3da02f8b	0.07821568
217	0x3c84fb44	0.016233094
218	0xbd1f7add	-0.03893553
219	0xbb2d38d5	-0.002643158
220	0x3b9d0096	0.0047913296
221	0xbd963c27	-0.07335692
222	0xbc181b20	-0.009283811
223	0x3cee943e	0.029123422
224	0x3d16aca2	0.03678573
225	0x3cc1eca0	0.023672402
226	0xbcb5cbca	-0.0221919
227	0xbdc1fe55	-0.09472338
228	0xbd592d29	-0.053021584
229	0x3d87a1dd	0.0662267
230	0xbd9215ec	-0.071330875
231	0xbce8a71b	-0.028399995
232	0xbcaf2d42	-0.021383885
233	0xbc8410b3	-0.016121244
234	0xbd62cd37	-0.05537149
235	0x3cba1575	0.02271531
236	0xbd8e1ef0	-0.069394946
237	0xbc816b9a	-0.015798379
238	0x3daa8302	0.08325769
239	0x3d1e0daf	0.03858727
240	0xbd0aec52	-0.03391678
241	0x3caa26ea	0.020770509
242	0xbc414dae	-0.011798305
243	0x3da35f89	0.07977206
244	0x3d93c2e8	0.0721491
245	0x3cae5590	0.021281034
246	0x3d46052a	0.04834477
247	0x3d98e8c7	0.07466274
248	0xbba21671	-0.004946523
249	0x3b653913	0.0034976646
250	0xbd854fd7	-0.06509369
251	0xbdbd7f1b	-0.09252759
252	0xbdaf411c	-0.085573405
253	0xbd3d92aa	-0.046282448
254	0xbd341e47	-0.043974187
255	0xb90d2b72	-0.00013462993

layers.0.f_def.weight f4 [1, 128]
0	0xbd9ccdc5	-0.07656435
1	0xbda3df2a	-0.080015495
2	0xbd572c2b	-0.052532356
3	0xbd6da3b6	-0.058017455
4	0x3dbd97fd	0.09257505
5	0x3a825cc0	0.0009945855
6	0x3d98a869	0.07453997
7	0x3cea7a1f	0.028622685
8	0xbcdec8fc	-0.027195446
9	0xbd84899a	-0.06471558
10	0xbc756556	-0.014977774
11	0x3bf420fe	0.007450222
12	0x3d007d07	0.031369235
13	0xbdba74d0	-0.091043115
14	0xbd86340f	-0.06552898
15	0xbd488361	-0.048953418
16	0x3d7a51f9	0.06111333
17	0x3d6e4314	0.05816944
18	0x3d44155c	0.047871932
19	0x3dbb8a66	0.09157257
20	0xbd611c13	-0.054958414
21	0x3c8e078a	0.01733758
22	0x3d568301	0.05237103
23	0xbc9cf665	-0.019160459
24	0x3dcb8a7f	0.099385254
25	0x3c83d578	0.016093
26	0x3dac6484	0.08417609
27	0x3e01fc5e	0.12693927
28	0xbda597a5	-0.080855645
29	0x3de7ff1c	0.11327955
30	0xbb5bdc98	-0.0033548232
31	0xbcf65272	-0.03006861
32	0xbd8ad5e1	-0.067790754
33	0x3dcedb0c	0.101003736
34	0x3c39ab17	0.011332295
35	0x3ca7946b	0.020456513
36	0x3c1c47af	0.009538575
37	0x3c486a17	0.012232325
38	0xbd363eef	-0.044493612
39	0xbd237f39	-0.03991625
40	0x3baee092	0.0053368295
41	0x3da77103	0.08175852
42	0xbce57fd0	-0.028015047
43	0x3d7f8c0c	0.06238942
44	0xbde6a98c	-0.11262807
45	0x3d19d65d	0.03755795
46	0xbe13a7f1	-0.14419533
47	0x3d284b7d	0.041087616
48	0xbde0e8cd	-0.10981903
49	0xbd130d30	-0.03590125
50	0x3dda0e7a	0.106472924
51	0xbc8299ea	-0.015942533
52	0xbd93b638	-0.0721249
53	0xbd98a6a1	-0.07453657
54	0xbddbb5c0	-0.107280254
55	0xbd1d00be	-0.038330786
56	0xbc3803db	-0.011231388
57	0x3d128645	0.03577258
58	0xbc8ad821	-0.016948761
59	0xbddb4dda	-0.107082084
60	0x3d157cfd	0.03649615
61	0xbd3eac37	-0.046550956
62	0x3b79fd15	0.0038145233
63	0xbd27ca19	-0.04096422
64	0x3d9380a3	0.0720227
65	0xbcebebf0	-0.028799027
66	0x3e1999c1	0.15000059
67	0xbd697825	-0.056999344
68	0xbd55f352	-0.052234
69	0xbda1b124	-0.07895115
70	0x3da697ab	0.08134397
71	0x3d60d396	0.054889284
72	0x3c88d030	0.016700834
73	0xbcdb66e2	-0.026782457
74	0xbcbe1069	-0.023201184
75	0xbd48f839	-0.04906485
76	0x3c07f1a6	0.00829736
77	0x3dcd441d	0.10022757
78	0xbd0dfa9f	-0.03466284
79	0x3d705388	0.05867341
80	0x3d5725b7	0.052526202
81	0xbd80c8c6	-0.062882945
82	0x3da7276f	0.08161818
83	0x3d538afb	0.051646214
84	0xbdc9a611	-0.09846128
85	0xbd9d2e68	-0.07674867
86	0x3d0f89ae	0.03504341
87	0x3b955734	0.0045575146
88	0x3cf536a3	0.02993328
89	0xbe070cf8	-0.13188541
90	0x3ccf5d47	0.025313033
91	0x3cfe841f	0.03106886
92	0x3dc7ae61	0.09750057
93	0xbc8d93e7	-0.01728244
94	0x3c84c1a2	0.016205613
95	0xbcb46dd4	-0.022025026
96	0x3c9694d4	0.018381514
97	0x3d00129f	0.03126776
98	0x3cb8c1f5	0.022553423
99	0xbdee88f4	-0.116472155
100	0x3d3dbefb	0.04632471
101	0x3d1e4923	0.038643967
102	0xbe0779d5	-0.13230069
103	0xbd594cde	-0.053051822
104	0x3c127af0	0.008940443
105	0x3d5a0414	0.053226545
106	0xbc03e462	-0.008050056
107	0xbd731a82	-0.05935145
108	0xbdb92198	-0.090396106
109	0xbdc7610a	-0.097353056
110	0x3db4f284	0.08835319
111	0xbc7382d7	-0.014862738
112	0x3d906f87	0.07052522
113	0x3de43256	0.11142413
114	0x3caa14d0	0.020761877
115	0x3d30eb16	0.043192945
116	0x3d5f5e52	0.05453331
117	0x3d318542	0.043339975
118	0x3dc93da5	0.09826211
119	0x3d7c98cc	0.061669156
120	0xbc82844e	-0.015932228
121	0xbcbe258b	-0.023211261
122	0xbbf89486	-0.0075860647
123	0xbda647e5	-0.081191815
124	0x3d68ec55	0.05686601
125	0x3dbc2c49	0.09188134
126	0xbd8aa741	-0.067701824
127	0xbdc6c16b	-0.0970486
