checkpoints/ablations/refined_ablation_no_struct.pth (torch, 889429 bytes, 36 tensors)

input_norm.weight f4 [7]
0.9835235 0.8552641 0.92468333 1.0124562 0.9712769 1.029158 1.0196408
00000000: 32c8 7b3f 97f2 5a3f 0cb8 6c3f 2a98 813f
00000010: 9aa5 783f 73bb 833f 9783 823f

input_norm.bias f4 [7]
0.023137515 -0.065085605 0.020014232 0.013543999 -0.0007348272 -0.0013904714 -0.005750654
00000000: e38a bd3c 9a4b 85bd e3f4 a33c a6e7 5d3c
00000010: 6ba1 40ba 7a40 b6ba fb6f bcbb

layers.0.embed.weight f4 [128, 7]
0.23013711 -0.020545868 -0.012932671 0.07488068 -0.27784 0.14084995 0.3640671 0.26887065
0.13801491 -0.2838896 0.15078558 -0.2106513 -0.3126628 0.1382621 0.3143152 0.19681786
-0.1710693 -0.040408365 -0.022728058 0.3446376 0.108663745 0.3632589 0.18608071 -0.16267657
-0.011876511 0.31996012 -0.016478185 0.112444244 0.15774569 -0.22149612 -0.15471001 -0.27879727
-0.04390267 0.23387448 -0.15123874 -0.2701977 -0.22533557 0.30404434 0.35119864 0.327265
0.101032555 0.010230328 0.045434088 -0.1466975 -0.0028386253 0.121043555 0.13805942 0.20441188
0.34329104 -0.19960456 -0.31946108 -0.12085346 -0.071728334 -0.1229414 -0.32893398 -0.006869216
0.20881534 -0.2851901 -0.36448646 -0.2069235 0.39073274 0.31070682 0.23186883 0.05650761
-0.13371438 -0.1293864 0.09372012 0.0144614875 -0.28694743 0.14450447 -0.12856135 0.0851901
-0.26174602 0.008828546 0.35634097 0.11423289 -0.3254724 -0.1163791 -0.2513438 -0.13064563
0.26832843 0.13890252 -0.07945418 0.2254641 0.22276 0.28866497 -0.18368979 0.29349914
0.08977572 -0.060919683 0.27603266 -0.025051413 -0.20048352 -0.25739938 -0.2535729 -0.10298435
-0.2706098 0.1623985 0.2704771 0.11392534 -0.20358916 0.2795556 -0.22727399 0.26948678
-0.2653104 0.33148646 -0.28962353 -0.30410588 -0.073371425 0.07411997 0.25061753 0.15412238
0.32785276 0.07283347 -0.2996163 0.07013343 -0.3309571 0.34720975 0.11154998 0.34481636
0.15922777 -0.16622461 0.3973838 -0.38498032 -0.2687704 0.08480289 -0.13291322 0.36665517
0.31814972 0.37909493 0.254884 0.097257696 0.376989 -0.20551373 -0.33686563 0.3147561
0.1411504 0.18124399 -0.00067034084 0.2622605 0.24803826 -0.18227513 0.087270774 0.08307371
-0.20894998 -0.37954742 -0.10467727 0.22738013 0.14208603 0.31736967 0.21636559 0.29329827
-0.050048668 -0.3302196 0.3021239 -0.06981635 0.12232883 0.054999355 -0.2758259 0.38106868
-0.10667207 -0.19724557 0.08148049 0.22958393 -0.29524913 0.310088 -0.23558788 0.13028511
-0.089988805 0.016476028 0.24295636 -0.29150662 0.24924517 -0.2974851 0.22335844 0.02922447
-0.18598178 0.04231082 -0.15317273 0.0935909 0.13583663 0.32840225 0.079074785 0.13193412
0.07189148 0.18380761 -0.11834223 0.36294982 0.08962456 0.3496173 -0.10359248 0.21518563
-0.18576595 0.12651695 0.4025802 0.18445659 -0.17133039 0.19032152 0.228204 0.33204037
-0.22998604 -0.11152141 0.020924272 -0.31395787 -0.14510502 0.17051318 0.043191068 -0.047452148
0.15337509 -0.062234323 0.070951834 0.23558167 0.029960325 0.23357569 -0.18484299 0.35564283
-0.2944464 0.3770824 0.20201613 -0.1851585 0.16146618 0.049646705 -0.26429474 0.02376202
-0.05190256 -0.32567993 -0.005170145 0.083476424 -0.26691097 0.16395834 -0.12825215 -0.11346072
-0.20799544 0.22944772 -0.046503633 -0.07116982 -0.090282075 0.21213515 0.1058674 -0.21311755
-0.19277897 -0.147555 0.25579813 -0.26926726 0.35976645 -0.31712097 0.14619619 -0.031349756
0.19811845 -0.30387834 -0.10310579 -0.2711024 0.195543 0.16648881 0.11224364 -0.17378916
00000000: 10a9 6b3e cf4f a8bc 8ee3 53bc 0b5b 993d
00000010: 0b41 8ebe f83a 103e 0167 ba3e 6aa9 893e
00000020: c853 0d3e fa59 91be 8967 1a3e f9b4 57be
00000030: 5715 a0be 9494 0d3e eced a03e 9f8a 493e
00000040: ca2c 2fbe 3e83 25bd 3130 babc 5774 b03e
00000050: 198b de3d 12fd b93e f18b 3e3e b094 26be
00000060: b395 42bc d0d1 a33e 42fd 86bc 2b49 e63d
00000070: 1688 213e e1cf 62be 4d6c 1ebe 84be 8ebe
00000080: 49d3 33bd cb7c 6f3e 54de 1abe 5a57 8abe
00000090: 5ebe 66be b3ab 9b3e 4fd0 b33e 478f a73e
000000a0: 28ea ce3d 1b9d 273c 1819 3a3d df37 16be
000000b0: 3b08 3abb afe5 f73d 735f 0d3e 5951 513e
000000c0: d8c3 af3e 2365 4cbe 6790 a3be 0582 f7bd
000000d0: 4ee6 92bd b3c8 fbbd 096a a8be 2917 e1bb
000000e0: b0d3 553e 7004 92be f89d babe c1e3 53be
000000f0: 1f0e c83e f714 9f3e 066f 6d3e 8674 673d
00000100: 6cec 08be de7d 04be 56f0 bf3d e0ef 6c3c
00000110: c6ea 92be fbf8 133e 96a5 03be 2678 ae3d
00000120: 9303 86be 9ba5 103c 5372 b63e eff2 e93d
00000130: 52a4 a6be 2a58 eebd 22b0 80be f8c7 05be
00000140: 5862 893e 763c 0e3e e0b8 a2bd 10e0 663e
00000150: 331b 643e e5cb 933e 2d19 3cbe 8545 963e
00000160: 55dc b73d eb86 79bd 2754 8d3e 9f38 cdbc
00000170: 8d4b 4dbe dac9 83be 4fd4 81be 75e9 d2bd
00000180: 5e8d 8abe cb4b 263e f97b 8a3e b051 e93d
00000190: ad79 50be e921 8f3e 83ba 68be 2cfa 893e
000001a0: c4d6 87be 98b8 a93e 8949 94be c4b3 9bbe
000001b0: c243 96bd 36cc 973d f150 803e 42d2 1d3e
000001c0: 51dc a73e b729 953d 4f67 99be 1ea2 8f3d
000001d0: 3673 a9be 7ac5 b13e 5174 e43d c58b b03e
000001e0: 9b0c 233e c936 2abe e475 cb3e 241c c5be
000001f0: 469c 89be 23ad ad3d 671a 08be 3aba bb3e
00000200: 85e4 a23e bb18 c23e 2880 823e 0b2f c73d
00000210: b404 c13e 3172 52be a779 acbe b627 a13e
00000220: bb89 103e 0698 393e d0b9 2fba 0247 863e
00000230: befd 7d3e 55a6 3abe 05bb b23d 8d22 aa3d
00000240: fcf6 55be 0a54 c2be 0961 d6bd 56d6 683e
00000250: 007f 113e 477e a23e f18e 5d3e 312b 963e
00000260: d5ff 4cbd 8b12 a9be fcaf 9a3e e0fb 8ebd
00000270: 8a87 fa3d 0147 613d 0d39 8dbe 6f1b c33e
00000280: e376 dabd befa 49be 3edf a63d 0d18 6b3e
00000290: e52a 97be dbc3 9e3e f33d 71be 7669 053e
000002a0: 0d4c b8bd bcf8 863c 8dc9 783e 5b40 95be
000002b0: 203a 7f3e f84f 98be 13b8 643e 2868 ef3c
000002c0: 0272 3ebe 1c4e 2d3d 50d9 1cbe 96ac bf3d
000002d0: c218 0b3e 5724 a83e f6f1 a13d bd19 073e
000002e0: d73b 933d 1038 3c3e 695d f2bd 8fd4 b93e
000002f0: 158d b73d 0a01 b33e 4b28 d4bd 9f59 5c3e
00000300: 6e39 3ebe a98d 013e fe1e ce3e 30e2 3c3e
00000310: 3c71 2fbe a5e3 423e 4fae 693e 3201 aa3e
00000320: 7681 6bbe 5665 e4bd 6169 ab3c 16bf a0be
00000330: 6996 14be 029b 2e3e 1ee9 303d 2f5d 42bd
00000340: 5c0e 1d3e 6be9 7ebd 324f 913d 523c 713e
00000350: 5b6f f53c 772e 6f3e 7b47 3dbe d116 b63e
00000360: aec1 96be f210 c13e 51dd 4e3e 319a 3dbe
00000370: 6457 253e 585a 4b3d a451 87be 91a8 c23c
00000380: c797 54bd 85bf a6be 526a a9bb b0f5 aa3d
00000390: 8ea8 88be b2e4 273e 8854 03be 185e e8bd
000003a0: c2fc 54be 58f4 6a3e 987a 3ebd 7cc1 91bd
000003b0: cfe5 b8bd f539 593e 02d1 d83d 7d3b 5abe
000003c0: da67 45be a818 17be f9f7 823e 66dd 89be
000003d0: 4f33 b83e ae5d a2be 74b4 153e 9a68 00bd
000003e0: 90df 4a3e f195 9bbe 2129 d3bd efcd 8abe
000003f0: 6d3c 483e 0b7c 2a3e fedf e53d c9f5 31be

layers.0.embed.bias f4 [128]
0.3485283 -0.043088045 0.10996634 -0.19747901 0.14801376 -0.27019054 0.18997465 -0.14801496
0.16499989 -0.115201645 0.28571558 0.27145535 -0.032600343 0.06530603 -0.20395398 0.28458127
-0.13547592 -0.14964776 0.09577581 0.20947081 0.18070656 0.32912257 0.031984664 -0.061169017
-0.018257156 -0.018140992 0.011341386 0.14157344 -0.27312797 -0.25557563 0.08093524 0.3262796
-0.28670382 0.09002656 0.33279723 0.26879147 -0.20493388 0.18538249 -0.20756379 -0.29595473
-0.33783966 -0.059275024 -0.15764308 0.1313723 -0.119021736 0.3328952 0.23001523 0.0052172597
-0.33080363 -0.050451018 0.097002506 -0.26942402 -0.103950664 0.11149034 0.18516682 0.08099247
-0.16326177 0.097535156 0.21960004 0.02801118 -0.15553513 0.14338726 -0.15901695 -0.057943195
-0.044794418 -0.15850918 0.066445045 -0.15388656 0.01262787 0.15775134 0.10809839 0.04734481
0.034565777 0.26064372 0.17953144 0.21663302 -0.30477998 0.073299736 0.27896792 0.11988725
-0.21274517 -0.13251849 0.27518755 -0.09691524 0.102245495 0.27390096 -0.06737172 0.24704987
-0.13180077 0.025423143 0.28820962 0.042721197 0.038763378 -0.14652072 0.34347495 0.13597268
0.36479995 -0.16070342 -0.018269397 -0.052303948 -0.12160839 0.03932635 -0.21714215 -0.0032967252
-0.07396485 0.285003 0.11404297 0.0276912 -0.34677204 -0.000839579 0.10475107 -0.28724375
0.36299047 -0.14807335 0.15461537 0.24006441 -0.105951644 0.2049231 -0.045675155 -0.017942509
-0.008583618 -0.103367984 0.30381924 -0.052813128 0.18233296 -0.33599108 0.20709834 0.22126177
00000000: 4d72 b23e 177d 30bd 0836 e13d f037 4abe
00000010: eb90 173e 6a56 8abe b788 423e 3c91 17be
00000020: bbf5 283e d7ee ebbd 5049 923e 32fc 8a3e
00000030: f087 05bd 2bbf 853d 50d9 50be a3b4 913e
00000040: 33ba 0abe 433d 19be 1c26 c43d 847f 563e
00000050: 240b 393e c182 a83e 5a02 033d 5d8c 7abd
00000060: 0890 95bc 6b9c 94bc 38d1 393c a1f8 103e
00000070: 6ed7 8bbe cfda 82be 60c1 a53d 1f0e a73e
00000080: d8ca 92be d85f b83d 6664 aa3e 099f 893e
00000090: 30da 51be e8d4 3d3e 9a8b 54be 6187 97be
000000a0: 52f9 acbe 5eca 72bd 306d 21be 7686 063e
000000b0: abc1 f3bd 3d71 aa3e 1d89 6b3e 8cf5 aa3b
000000c0: 185f a9be baa5 4ebd 40a9 c63d f2f1 89be
000000d0: 16e4 d4bd 0c55 e43d 5f9c 3d3e 61df a53d
000000e0: 182e 27be 83c0 c73d d5de 603e b477 e53c
000000f0: 9a44 1fbe 1cd4 123e 57d5 22be d855 6dbd
00000100: 5a7a 37bd 3b50 22be 5714 883d 7094 1dbe
00000110: 20e5 4e3c 9189 213e b062 dd3d a2ec 413d
00000120: d894 0d3d 1873 853e 17d7 373e 0cd5 5d3e
00000130: 1f0c 9cbe 2c1e 963d e2d4 8e3e 7287 f53d
00000140: dfd9 59be edb2 07be 62e5 8c3e 7f7b c6bd
00000150: 1666 d13d bf3c 8c3e 2ffa 89bd a4fa 7c3e
00000160: c8f6 06be 3244 d03c 3690 933e 6cfc 2e3d
00000170: 59c6 1e3d 8709 16be f3db af3e 6c3c 0b3e
00000180: 0fc7 ba3e 708f 24be b4a9 95bc aa3c 56bd
00000190: d20d f9bd ab14 213d 835a 5ebe df0d 58bb
000001a0: e27a 97bd eaeb 913e 5c8f e93d a8d8 e23c
000001b0: 1b8c b1be 3117 5cba bb87 d63d 9d11 93be
000001c0: e3d9 b93e 8aa0 17be 7e53 1e3e 72d3 753e
000001d0: 2dfd d8bd 5cd7 513e df15 3bbd 2bfc 92bc
000001e0: 4ea2 0cbc 98b2 d3bd 328e 9b3e 9452 58bd
000001f0: 7eb5 3a3e 0607 acbe 9611 543e 7292 623e

layers.0.W_att.weight f4 [128, 128]
0.0013594456 -0.05750845 -0.02920361 0.03883387 0.075441845 0.0061981953 0.031205878 0.07054088
-0.05572866 0.089478806 -0.011635465 0.077788696 -0.023217576 0.023209479 -0.089150384 0.045545615
-0.04815167 0.079095155 0.012667969 -0.062067717 -0.026561495 -0.07476705 0.062425606 0.055230655
0.013648029 -0.04595701 0.0153895905 0.06688689 -0.052682254 0.037064787 -0.07990922 0.009873504
0.087684475 -0.026888061 -0.038027033 0.062447384 0.039035365 0.057313662 -0.04697809 0.0653488
0.087651186 0.06719873 0.07436706 0.014268333 -0.010266894 -0.07022888 -0.058836974 0.025956625
-0.042945724 0.046341892 0.043059412 0.034964923 0.0068264166 -0.013936657 0.08572675 -0.017024841
-0.05094344 0.07958101 0.060519118 -0.0016268094 -0.0423628 -0.0754458 -0.023598097 -0.014749014
-0.024421906 0.08814371 -0.046830308 -0.04667435 0.068928294 -0.06716372 0.04610274 0.013759845
-0.047779422 0.030468402 -0.10582273 -0.04315333 -0.02572881 0.0031595405 -0.09154972 0.024084544
-0.047525816 -0.07333693 0.08391617 0.09522836 -0.031352513 0.0072099264 -0.011918022 -0.002175646
0.024343992 0.082206234 0.037679125 0.022790937 -0.009121837 -0.008613556 -0.05128131 0.061563604
0.06995475 0.011672609 0.083795436 -0.061698537 0.02579656 -0.07869504 -0.028337073 0.021546056
-0.03449278 -0.015763229 0.05903283 -0.006415917 0.040477015 0.061600577 -0.08497399 -0.046311315
0.049315274 -0.05220088 0.007341689 0.0716735 -0.030349247 0.05890792 0.044457763 0.0665527
0.0046237153 -0.08318087 0.06744225 0.08142586 -0.058495305 -0.012646121 0.07199209 0.074856766
0.049909346 -0.04166596 -0.031008588 0.055735912 0.055857964 0.032894474 -0.01988856 0.07972391
-0.056292113 0.0031418006 0.018147226 0.0281027 0.044760324 -0.04096326 -0.020264637 -0.03136173
0.100101605 -0.063294135 0.045116223 -0.025225697 -0.05051299 0.014879949 0.02376305 0.030254235
-0.054339666 -0.007626783 0.09701484 0.03825291 0.073434785 0.08516985 0.084007375 0.014641863
-0.04392995 -0.0444276 0.07802419 -0.07788984 -0.10258408 -0.083206914 0.014072592 0.0027337607
0.0057329754 0.061035894 0.0426358 0.017764704 -0.084940076 -0.045245364 -0.08149357 -0.047508765
0.057437405 -0.06513807 -0.081049174 -0.010543997 -0.06422263 0.044943083 0.043685455 -0.029943079
-0.010982607 0.0787329 -0.044326458 -0.04917791 -0.040787406 -0.001971187 -0.038787592 -0.0308088
-0.10192026 0.0042850035 -0.04507924 -0.015904218 0.063846335 -0.028157057 0.07938528 8.47718e-05
0.06467756 0.021869343 -0.02042853 0.052628655 0.059418987 0.035540182 0.05275421 0.069768116
-0.08204351 0.028602574 -0.071464226 -0.05233717 0.03781715 0.0262426 -0.041843254 0.00021727158
0.036380287 0.09264172 0.055868745 -0.0010235627 -0.044001095 0.07848218 -0.095901825 -0.03938518
-0.001325328 -0.053850066 -0.077010475 -0.028903034 -0.06240033 0.08031989 0.01174534 0.090922475
-0.029584233 0.039705936 -0.014785411 -0.0059861336 -0.08088963 -0.00020946683 0.01693456 -0.06591732
0.013441063 0.053800803 0.022136737 -0.058307767 -0.04729721 -0.06337091 0.060382977 0.0045447866
-0.05290704 0.05223642 -0.048570596 -0.04562095 -0.069224514 0.082305886 0.069059715 -0.051743638
00000000: 6d2f b23a fb8d 6bbd 693c efbc 4410 1f3d
00000010: 4181 9a3d 3b1a cb3b 78a3 ff3c bd77 903d
00000020: bc43 64bd aa40 b73d ada2 3ebc ae4f 9f3d
00000030: c932 bebc ce21 be3c 7a94 b6bd 0a8e 3a3d
00000040: af3a 45bd a4fc a13d 508d 4f3c b83a 7ebd
00000050: 7e97 d9bc 781f 99bd feb1 7f3d 8a39 623d
00000060: fc9b 5f3c 6b3d 3cbd 9f24 7c3c fefb 883d
00000070: 59c9 57bd 3fd1 173d 72a7 a3bd 7ac4 213c
00000080: eb93 b33d 5a44 dcbc 3cc2 1bbd d4c8 7f3d
00000090: 8ce3 1f3d bbc1 6a3d 196c 40bd 97d5 853d
000000a0: 7782 b33d 7d9f 893d c24d 983d bac5 693c
000000b0: 7936 28bc 29d4 8fbd 0aff 70bd fda2 d43c
000000c0: dbe7 2fbd ffd0 3d3d 115f 303d 6137 0f3d
000000d0: 22b0 df3b 9456 64bc 8291 af3d ae77 8bbc
000000e0: 12aa 50bd 5efb a23d e5e2 773d aa3a d5ba
000000f0: 9e84 2dbd 5483 9abd cc50 c1bc d9a5 71bc
00000100: 7310 c8bc b084 b43d 23d1 3fbd 9a2d 3fbd
00000110: 472a 8d3d 228d 89bd 3ad6 3c3d f970 613c
00000120: 5bb4 43bd df98 f93c 96b9 d8bd 8cc1 30bd
00000130: 3ac5 d2bc 4b10 4f3b 6b7e bbbd f34c c53c
00000140: 6eaa 42bd ac31 96bd 3edc ab3d 1607 c33d
00000150: 7e6b 00bd 3f41 ec3b cf43 43bc 4895 0ebb
00000160: 0d6d c73c be5b a83d 6d55 1a3d 0fb4 ba3c
00000170: c273 15bc df1f 0dbc 5a0c 52bd 1e2a 7c3d
00000180: 7044 8f3d 783e 3f3c f19c ab3d 9bb7 7cbd
00000190: 4f53 d33c dd2a a1bd 2623 e8bc 5b81 b03c
000001a0: 4d48 0dbd e321 81bc 69cc 713d 9d3c d2bb
000001b0: 3acb 253d e350 7c3d d806 aebd efb0 3dbd
000001c0: d0fe 493d 97d0 55bd 8d92 f03b 8ec9 923d
000001d0: fc9e f8bc 6e49 713d 5819 363d c84c 883d
000001e0: 8982 973b bb5a aabd 2a1f 8a3d 9ac2 a63d
000001f0: c698 6fbd ad31 4fbc 9770 933d 814e 993d
00000200: be6d 4c3d eda9 2abd b905 febc 574b 643d
00000210: 52cb 643d 5bbc 063d 55ed a2bc 4a46 a33d
00000220: 8f92 66bd abe6 4d3b 7ea9 943c a237 e63c
00000230: 9a56 373d 17c9 27bd 0602 a6bc 2875 00bd
00000240: 1202 cd3d 5ba0 81bd cacb 383d 1fa6 cebc
00000250: b6e6 4ebd 08cb 733c baaa c23c bbd7 f73c
00000260: 4593 5ebd 18ea f9bb b7af c63d 15af 1c3d
00000270: fa64 963d 886d ae3d 0f0c ac3d 6de4 6f3c
00000280: e4ef 33bd b7f9 35bd 26cb 9f3d b584 9fbd
00000290: 9a17 d2bd 6368 aabd bb90 663c e528 333b
000002a0: afdb bb3b c600 7a3d e0a2 2e3d 4987 913c
000002b0: 10f5 adbd 3453 39bd 1ae6 a6bd 8d98 42bd
000002c0: 7c43 6b3d 1c67 85bd 1cfd a5bd bbc0 2cbc
000002d0: 2787 83bd 3d16 383d 85ef 323d 304b f5bc
000002e0: 64f0 33bc b73e a13d a98f 35bd c76e 49bd
000002f0: b210 27bd 082f 01bb bddf 1ebd bd62 fcbc
00000300: 92bb d0bd 3769 8c3b 02a5 38bd 9049 82bc
00000310: dec1 823d a1a9 e6bc c094 a23d 83c7 b138
00000320: ab75 843d 5627 b33c bc59 a7bc 2591 573d
00000330: 5361 733d 9592 113d cc14 583d 96e2 8e3d
00000340: 6e06 a8bd f24f ea3c d65b 92bd 805f 56bd
00000350: 28e6 1a3d b9fa d63c d563 2bbd 65d3 6339
00000360: 7f03 153d f1ba bd3d a0d6 643d 1129 86ba
00000370: 7e3a 34bd 44bb a03d 2d68 c4bd 5b52 21bd
00000380: a1b6 adba e391 5cbd abb7 9dbd 0ec6 ecbc
00000390: 7d97 7fbd c17e a43d 876f 403c 9035 ba3d
000003a0: a25a f2bc b1a2 223d 823e 72bc 5427 c4bb
000003b0: 76a9 a5bd 53a4 5bb9 59ba 8a3c a9ff 86bd
000003c0: e837 5c3c 3b5e 5c3d 1a58 b53c 20d4 6ebd
000003d0: b8ba 41bd 9cc8 81bd 2454 773d 6fec 943b
000003e0: 0db5 58bd dbf5 553d f6f1 46bd 09dd 3abd
000003f0: 95c5 8dbd fd8f a83d 2e6f 8d3d 23f1 53bd

layers.0.phi_att.weight f4 [128, 128]
-0.027823357 0.08824978 0.020101327 -0.080506034 0.048402477 -0.07838493 -0.010759348 0.05299795
-0.060733248 -0.056766864 -0.006188813 -0.017722247 0.06727214 -0.0328561 -0.10712698 -0.042670812
0.020866567 0.04301552 -0.0034056501 0.07540638 -0.04090334 -0.08783224 -0.08672161 -0.053724937
0.039614405 0.032697074 -0.06940895 -0.0847583 -0.05646204 0.038873028 0.03486789 -0.05564771
0.014228867 -0.0019291341 0.09638884 -0.05490114 0.0113162985 0.04681635 0.032131612 0.048353836
0.061551817 -0.024209121 -0.06335506 -0.052769408 0.05067273 0.052485734 0.07806778 0.01959912
0.069877826 0.007719199 -0.10534188 -0.059022162 0.030910276 0.075511985 -0.015594028 0.006464637
0.04957584 0.0055325166 -0.07898807 0.075939596 0.06542916 -0.044626318 0.08082688 0.01469182
-0.027648462 0.05971313 0.07550077 -0.012732507 -0.06498337 -0.055749286 -0.05459575 0.014152785
0.085304685 0.025650593 0.039519213 -0.0143697215 0.011558866 -0.06748322 0.07349496 -0.09982414
-0.099112436 -0.05706808 0.038643666 0.040673554 -0.007844243 0.050085012 -0.06124573 -0.006773494
0.10243271 0.083140805 0.07334745 -0.06343647 -0.027121205 0.03224395 -0.119923 -0.06817017
0.031920396 0.011671706 -0.02581048 0.004946003 0.085475564 0.02123611 0.020730993 0.010664127
-0.0480577 0.08284491 -0.038678803 -0.05651792 0.030780312 -0.020203799 -0.06231735 0.033312462
-0.0036959841 0.08926283 4.3331594e-05 0.039244354 0.04634835 0.09485871 0.052676167 -0.0012204776
0.1109659 0.020457825 0.009727529 0.06434829 -0.063271575 0.03248308 0.06492316 -0.019707438
-0.046839982 -0.07251996 -0.050403118 0.08826014 -0.027879406 0.042617086 0.065798774 0.036577273
-0.047407717 -0.03448184 0.114642896 -0.00074800797 -0.09705141 -0.049058266 0.029391127 -0.07479817
-0.032411993 -0.06037433 -0.0171793 0.017071877 0.026241776 -0.027801214 0.03605164 0.06775166
-0.07576774 -0.06432875 0.041090857 0.02738242 -0.0038133962 -0.07571412 -0.0585943 -0.021691829
-0.07913715 -0.0023673864 0.071851544 -0.035203498 -0.009068095 0.06480666 -0.07158542 0.091382176
-0.020473704 -0.0884198 0.0925811 -0.060778596 -0.082153596 -0.05169233 0.04430981 -0.027812041
-0.03680363 -0.084398404 -0.029798623 0.057599664 0.033745147 -0.014212971 -0.009311272 -0.04230384
0.06526944 -0.036825243 -0.030011997 -0.03484437 0.111305796 0.019773902 -0.060344446 0.070424415
0.028520456 0.0006750362 0.011099131 0.05278913 0.072281435 0.007772438 -0.03392463 -0.06709025
0.08050983 -0.036676988 0.053012688 -0.058804538 0.04266801 -0.05557601 -0.06971315 0.061442133
-0.0754131 0.046293147 -0.029817093 -0.086326666 0.051805243 -0.034950264 0.062131867 -0.061302394
-0.025889535 -0.06224423 0.025009755 -0.06078677 -0.019529916 -0.07153319 -0.018256163 0.08679541
-0.0045830063 0.064292215 0.07743827 0.07948434 -0.015382486 -0.0055235294 -0.09495084 0.06862987
0.03366483 0.034894403 0.062442694 -0.025176346 -0.028679715 -0.009044516 0.07591592 0.05037048
-0.018507037 0.061961863 0.010098722 0.0045455727 0.07695033 0.047546297 0.033894785 -0.053830624
-0.014701482 -0.041476708 -0.07426619 0.06931155 0.022482375 0.025996398 -0.052444264 -0.014111185
00000000: cfed e3bc 4dbc b43d 8aab a43c 59e0 a4bd
00000010: ad41 463d 4788 a0bd fa47 30bc 6114 593d
00000020: 6dc3 78bd 5f84 68bd 87cb cabb 3f2e 91bc
00000030: fac5 893d 1e94 06bd 6465 dbbd 97c7 2ebd
00000040: 5df0 aa3c 0b31 303d 5431 5fbb a96e 9a3d
00000050: 438a 27bd 64e1 b3bd 199b b1bd ae0e 5cbd
00000060: b742 223d 5eed 053d 4826 8ebd c295 adbd
00000070: bd44 67bd 5339 1f3d a2d1 0e3d daee 63bd
00000080: 3220 693c 00db fcba 8367 c53d 05e0 60bd
00000090: ff67 393c 80c2 3f3d 709c 033d ac0e 463d
000000a0: c21d 7c3d 3552 c6bc 4cc0 81bd bc24 58bd
000000b0: 358e 4f3d 48fb 563d 00e2 9f3d 558e a03c
000000c0: 1b1c 8f3d 56f1 fc3b 7cbd d7bd 39c1 71bd
000000d0: 8c37 fd3c 07a6 9a3d 187e 7fbc 4ed5 d33b
000000e0: 0910 4b3d 1d4a b53b 7fc4 a1bd 3886 9b3d
000000f0: b9ff 853d 16ca 36bd 9088 a53d f6b5 703c
00000100: 077f e2bc c195 743d 26a0 9a3d 019c 50bc
00000110: 0016 85bd 5d59 64bd cb9f 5fbd 15e1 673c
00000120: 39b4 ae3d 3121 d23c e6de 213d fb6e 6bbc
00000130: 6661 3d3c a434 8abd 8784 963d 9970 ccbd
00000140: 76fb cabd 38c0 69bd d248 1e3d 5099 263d
00000150: 2485 00bc f125 4d3d cddc 7abd 30f4 ddbb
00000160: 3ec8 d13d ba45 aa3d 3037 963d fbea 81bd
00000170: 4a2d debc 3b12 043d 319a f5bd cd9c 8bbd
00000180: f6be 023d af3a 3f3c 8070 d3bc 1512 a23b
00000190: d00d af3d 5af7 ad3c 0bd4 a93c 97b8 2e3c
000001a0: 27d8 44bd 98aa a93d aa6d 1ebd 567f 67bd
000001b0: fe26 fc3c 7082 a5bc 7a40 7fbd a672 083d
000001c0: 5338 72bb 6ecf b63d f2be 3538 b0be 203d
000001d0: c4d7 3d3d 4945 c23d f7c2 573d 6ff8 9fba
000001e0: 1742 e33d 2b97 a73c 3760 1f3c 09c9 833d
000001f0: 8794 81bd fa0c 053d 6ff6 843d 7e71 a1bc
00000200: 48db 3fbd 5885 94bd 8073 4ebd bbc1 b43d
00000210: 5a63 e4bc 418f 2e3d 82c1 863d 0dd2 153d
00000220: 982e 42bd d43c 0dbd e5c9 ea3d f715 44ba
00000230: e4c2 c6bd 52f1 48bd a9c5 f03c c82f 99bd
00000240: 70c2 04bd 134b 77bd 9abb 8cbc 52da 8b3c
00000250: fef8 d63c 5fbf e3bc e2aa 133d 62c1 8a3d
00000260: 1e2c 9bbd cbbe 83bd e34e 283d 1951 e03c
00000270: 2cea 79bb 0110 9bbd 9400 70bd 10b3 b1bc
00000280: a812 a2bd 2726 1bbb e726 933d 8b31 10bd
00000290: 5992 14bc 5bb9 843d 609b 92bd 9426 bb3d
000002a0: 78b8 a7bc 7115 b5bd 299b bd3d faf2 78bd
000002b0: 2540 a8bd 56bb 53bd 347e 353d 14d6 e3bc
000002c0: 67bf 16bd 12d9 acbd 3e1c f4bc a0ed 6b3d
000002d0: 5a38 0a3d 85dd 68bc 4e8e 18bc cb46 2dbd
000002e0: fcab 853d 11d6 16bd b8db f5bc f8b8 0ebd
000002f0: 4bf4 e33d e1fc a13c bd2b 77bd ad3a 903d
00000300: bba3 e93c eaf4 303a 21d9 353c 6a39 583d
00000310: 4a08 943d f0af fe3b 8ef4 0abd 9d66 89bd
00000320: 56e2 a43d 9c3a 16bd d523 593d 07dd 70bd
00000330: a7c4 2e3d aca3 63bd c5c5 8ebd bfaa 7b3d
00000340: 2f72 9abd e29d 3d3d fa42 f4bc 09cc b0bd
00000350: bc31 543d 0228 0fbd fc7d 7e3d 3818 7bbd
00000360: 4a16 d4bc cef3 7ebd 42e1 cc3c 8cfb 78bd
00000370: 34fd 9fbc fe7f 92bd f38d 95bc cbc1 b13d
00000380: 0b2d 96bb a3ab 833d f597 9e3d b0c8 a23d
00000390: d306 7cbc b9fe b4bb 9675 c2bd d18d 8c3d
000003a0: 22e4 093d 6fed 0e3d e9c3 7f3d a03e cebc
000003b0: b9f1 eabc 732f 14bc ce79 9b3d 4751 4e3d
000003c0: 129c 97bc b9cb 7d3d 1c75 253c 07f3 943b
000003d0: 2298 9d3d e8bf 423d 42d5 0a3d 807d 5cbd
000003e0: 7cde 70bc 7be3 29bd df18 98bd 37f3 8d3d
000003f0: f52c b83c 66f6 d43c cccf 56bd 9a32 67bc

layers.0.phi_att.bias f4 [128]
0.049630437 -0.01117609 0.07151799 -0.014894638 -0.022774491 0.0611776 0.048599485 -0.09508016
-0.022767285 0.068875566 0.049322885 -0.008798742 -0.084401436 0.047801215 0.08287686 0.05156358
-0.0395706 0.008096436 -0.025793038 -0.02785361 0.09844001 0.07037859 -0.03777427 0.07383841
-0.004790756 -0.06991164 -0.06852425 0.07460064 -0.0119953845 0.0061140903 0.08951161 0.062165152
-0.027293354 -0.02481728 -0.075139 -0.040493302 -0.055312037 -0.052478794 0.082739994 0.07510452
0.024129735 0.071595505 0.06305311 -0.059361484 -0.05605981 0.009122393 0.031209137 -0.088894576
-0.018444806 -0.033539534 -0.08831606 -0.005111289 -0.067302786 -0.0038721848 0.042275306 0.03712706
-0.027396193 0.013672644 -0.043924656 0.028006405 -0.04175526 -0.008537311 -0.084065035 0.065168954
0.01387033 -0.06942022 0.060668744 0.011827332 0.085094094 -0.09023399 0.012292842 0.04802423
0.040762216 -0.028154576 -0.034814037 -0.0827423 0.030650685 -0.0028829952 0.010818005 0.066465795
0.034685954 -0.049380627 -0.08681074 0.060081568 -0.050869007 0.0030420637 0.024284126 -0.07744935
0.090130955 -0.07961453 -0.043153286 0.030739209 -0.066464074 -0.08102846 -0.104535006 0.02003174
-0.070499055 0.04895756 -0.06490825 0.09553522 0.034039196 0.05778204 -0.042249538 -0.039695974
0.049554367 0.08346008 0.06434536 0.011564987 0.014194534 0.0043701874 0.08300974 0.0051441956
-0.049404394 0.08509317 -0.0954493 0.032918666 0.01265831 0.01348933 -0.010919665 -0.04140686
0.03626306 0.09030497 0.08274795 0.076661974 -0.072526544 0.057653863 0.024109855 -0.044812378
00000000: 4949 4b3d eb1b 37bc 0678 923d a408 74bc
00000010: 9291 babc 5d95 7a3d 4110 473d 63b9 c2bd
00000020: 7582 babc a20e 8d3d cb06 4a3d 9928 10bc
00000030: a9da acbd 35cb 433d 58bb a93d 5534 533d
00000040: c814 22bd eaa6 043c ec4b d3bc 412d e4bc
00000050: ea9a c93d a622 903d 31b9 1abd 9838 973d
00000060: c6fb 9cbb d52d 8fbd 7156 8cbd 38c8 983d
00000070: 4a88 44bc b558 c83b dd51 b73d e3a0 7e3d
00000080: 5096 dfbc 9c4d cbbc 7ae2 99bd 4edc 25bd
00000090: e08e 62bd 01f4 56bd 9673 a93d 66d0 993d
000000a0: b9ab c53c aaa0 923d fd21 813d 0725 73bd
000000b0: f99e 65bd 1776 153c 4eaa ff3c 5c0e b6bd
000000c0: 9019 97bc c060 09bd 0ddf b4bd 9a7c a7bb
000000d0: 0bd6 89bd 7bc4 7dbb df28 2d3d 8b12 183d
000000e0: fb6d e0bc 3a03 603c 57ea 33bd b06d e53c
000000f0: 9007 2bbd 14e0 0bbc 4a2a acbd 4d77 853d
00000100: 6140 633c 302c 8ebd ca7f 783d 6dc7 413c
00000110: d045 ae3d 99cc b8bd eb67 493c 0eb5 443d
00000120: 48f6 263d 6da4 e6bc 2a99 0ebd cc74 a9bd
00000130: 2517 fb3c a2f0 3cbb 003e 313c 381f 883d
00000140: dc12 0e3d 5743 4abd d4c9 b1bd 1718 763d
00000150: 055c 50bd 5c5d 473b 81ef c63c c49d 9ebd
00000160: 9496 b83d f10c a3bd 80c1 30bd cbd0 fb3c
00000170: 511e 88bd 40f2 a5bd 7316 d6bd 9b19 a43c
00000180: cf61 90bd b987 483d 9eee 84bd f8a7 c33d
00000190: af6c 0b3d dcac 6c3d da0d 2dbd 3f98 22bd
000001a0: 85f9 4a3d 1eed aa3d 80c7 833d 127b 3d3c
000001b0: 3190 683c ca33 8f3b 0301 aa3d a490 a83b
000001c0: 435c 4abd 5445 ae3d ec7a c3bd b9d5 063d
000001d0: cd64 4f3c 5a02 5d3c 65e8 32bc 3d9a 29bd
000001e0: 9388 143d d0f1 b83d c277 a93d f400 9d3d
000001f0: cc88 94bd 7526 6c3d 0882 c53c 2f8d 37bd

layers.0.W_p.weight f4 [128, 128]
0.072243705 0.07690072 0.031068133 0.017759988 -0.077064775 0.06200041 0.06797262 0.0059248605
0.060781334 0.08962057 0.023235813 0.023496563 -0.014903237 0.05122951 0.09521861 0.052608915
-0.042458043 0.09858833 -0.051557966 -0.05491974 0.08400593 0.0018018016 0.090701886 -0.05851152
0.007508837 0.06799001 0.025040543 0.05104531 -0.07419796 -0.061919853 -0.05648878 -0.026879784
0.04193441 -0.05496574 -0.01813155 -0.010375079 -0.07251287 0.00028069687 -0.023926329 -0.0612432
-0.031194428 0.063857585 -0.03765875 0.00077243574 0.07738028 0.062119327 0.031713072 0.04750466
0.003091945 0.006235956 -0.04819755 0.004752303 0.006122995 0.008348667 0.024405794 -0.061842613
0.06289098 -0.047216993 0.017751506 0.020372838 0.019251252 0.022545043 0.06799539 -0.057224244
0.044352934 0.00071101 -0.08728689 -0.044511218 0.055911288 -0.00915216 -0.07015087 -0.009836661
-0.055506732 0.08493554 -0.011268383 0.08554503 -0.047079004 -0.04251301 -0.06937808 0.022591282
0.018087532 0.0754938 0.07223593 0.04552516 -0.037509643 -0.048024785 0.067533664 0.015150304
0.059050348 0.06568659 0.032190636 0.0011370538 0.033764802 -0.00091747585 0.06810832 0.03688099
0.010872241 0.035547268 0.022985274 0.04496366 0.0739954 0.0111826435 0.049637046 0.0023225034
0.013177328 0.015906844 -0.047187082 -0.017629018 0.051819816 -0.090135805 -0.08328104 0.022868155
0.07668714 -0.047598377 -0.08734411 0.047915567 0.045272414 0.019105596 0.033739097 0.03648261
-0.03711664 0.065079495 0.061739255 -0.027601633 -0.012949385 0.073842786 0.016055409 -0.07407676
-0.047763392 -0.075658575 0.056813635 0.032021366 -0.014148269 0.04144876 -0.057607215 -0.046608247
0.0083156815 -0.003052002 0.009884947 -0.03247869 0.070504904 -0.050227392 0.103498764 -0.05291483
0.06443076 -0.038626958 -0.07002517 0.037229214 -0.088219985 -0.04617394 0.00022458551 0.016797855
0.0009782191 -0.020428076 0.015137068 0.02634657 -0.014282591 0.040927615 0.04688916 -0.004499747
0.013143094 -0.021145057 0.017238822 0.09563605 -0.013979314 0.059762675 0.107420616 0.009788383
0.040747505 0.021041818 -0.058433086 -0.04214687 -0.006995186 -0.024074906 0.07483702 0.091399506
0.04911518 -0.003885589 0.043962393 0.086505264 0.015753996 -0.05513634 0.0333327 0.05597321
-0.06440195 -0.08057235 -0.009578616 -0.00828819 0.024327947 0.072384186 -0.024850443 0.0326639
-0.025739077 -0.064584106 -0.036882088 -0.101162285 0.0437475 0.02856523 -0.030971719 -0.07427957
-0.02934598 0.07368858 -0.034661487 -0.101862036 -0.078109205 0.051824108 0.07119196 -0.06775039
-0.015714668 0.006427734 0.009353569 0.08084351 0.024744868 0.025796212 0.099656455 -0.063307345
0.031649705 -0.046683546 -0.03228348 -0.05068461 -0.029744765 -0.031306185 0.06210429 0.07702207
0.028237237 -0.026822044 -0.003813241 0.036788978 -0.04656749 0.047407094 0.05680637 -0.017285673
0.023868889 0.04930802 0.08908458 -0.054183822 -0.026554096 0.07337153 -0.021523457 -0.04566428
0.05864962 -0.03908496 -0.051800616 0.022604931 -0.02252514 0.06485824 0.0051050507 -0.085451685
-0.02023524 0.08989042 0.03402207 -0.043944202 0.027731938 0.025406362 0.022646155 -0.043048423
00000000: 82f4 933d 207e 9d3d 9982 fe3c 657d 913c
00000010: 23d4 9dbd 24f4 7d3d 3b35 8b3d 5525 c23b
00000020: d9f5 783d fd8a b73d 0859 be3c dd7b c03c
00000030: b52c 74bc 09d6 513d f901 c33d 727c 573d
00000040: 7ce8 2dbd aee8 c93d 722e 53bd 85f3 60bd
00000050: 4d0b ac3d 6e2a ec3a e9c1 b93d c7a9 6fbd
00000060: b10c f63b 593e 8b3d d321 cd3c e314 513d
00000070: 1af5 97bd ac9f 7dbd c760 67bd fe32 dcbc
00000080: 6ac3 2b3d c123 61bd 9e88 94bc 3cfc 29bc
00000090: a181 94bd 7f2a 9339 2601 c4bc 26da 7abd
000000a0: 758b ffbc c4c7 823d 1040 1abd 497d 4a3a
000000b0: 8d79 9e3d d670 7e3d 91e5 013d 3f94 423d
000000c0: 3ba2 4a3b fe56 cc3b cb6a 45bd 35b9 9b3b
000000d0: 68a3 c83b d9c8 083c a9ee c73c ae4e 7dbd
000000e0: fccc 803d 9b66 41bd 9b6b 913c f0e4 a63c
000000f0: cdb4 9d3c 62b0 b83c 2b41 8b3d f863 6abd
00000100: 6cab 353d 1363 3a3a 78c3 b2bd 6551 36bd
00000110: 3c03 653d f1f2 15bc 42ab 8fbd f229 21bc
00000120: 075b 63bd aff2 ad3d 069f 38bc 3c32 af3d
00000130: ead5 40bd 1f22 2ebd 1816 8ebd 5a11 b93c
00000140: 4e2c 943c 7e9c 9a3d 6ef0 933d 9778 3a3d
00000150: b6a3 19bd a3b5 44bd 174f 8a3d fb38 783c
00000160: c7de 713d b186 863d 54da 033d 3209 953a
00000170: f64c 0a3d c382 70ba 607c 8b3d 8510 173d
00000180: 7c21 323c 039a 113d 9d4b bc3c d12b 383d
00000190: e68a 973d 6837 373c 3750 4b3d 2435 183b
000001a0: b8e5 573c 124f 823c 3e47 41bd bb6a 90bc
000001b0: 0441 543d 1f99 b8bd 408f aabd ff55 bb3c
000001c0: 260e 9d3d 84f6 42bd 78e1 b2bd 1d43 443d
000001d0: 916f 393d 5783 9c3c 0232 0a3d ca6e 153d
000001e0: 9e07 18bd 6648 853d 4de2 7c3d d21c e2bc
000001f0: a829 54bc e33a 973d a286 833c 8eb5 97bd
00000200: 8ca3 43bd e2f2 9abd 6ab5 683d d628 033d
00000210: 24ce 67bc 2dc6 293d 8bf5 6bbd 4ae8 3ebd
00000220: 7f3e 083c 1904 48bb 79f4 213c 6008 05bd
00000230: e064 903d 3dbb 4dbd 29f7 d33d 39bd 58bd
00000240: 46f4 833d 4d37 1ebd 5b69 8fbd a97d 183d
00000250: aeac b4bd e320 3dbd b77e 6b39 a89b 893c
00000260: 9637 803a c858 a7bc 7701 783c c3d4 d73c
00000270: 8701 6abc b7a3 273d d90e 403d 9d72 93bb
00000280: 2256 573c 6638 adbc 6e38 8d3c d5dc c33d
00000290: 7e09 65bc b5c9 743d 57ff db3d 745f 203c
000002a0: dbe6 263d e45f ac3c 8857 6fbd 32a2 2cbd
000002b0: e037 e5bb bd38 c5bc 2744 993d aa2f bb3d
000002c0: 002d 493d 5ea5 7ebb e911 343d ac29 b13d
000002d0: 860e 813c a5d6 61bd df87 083d 2a44 653d
000002e0: 2be5 83bd 1e03 a5bd a1ef 1cbc 30cb 07bc
000002f0: 674b c73c 293e 943d 2893 cbbc 95ca 053d
00000300: c2da d2bc ac44 84bd ac11 17bd 2c2e cfbd
00000310: 9430 333d a101 ea3c 67b8 fdbc e31f 98bd
00000320: fb66 f0bc 0aea 963d 34f9 0dbd 0b9d d0bd
00000330: b8f7 9fbd 8445 543d 17cd 913d b7c0 8abd
00000340: 0cbc 80bc be9f d23b b63f 193c 4891 a53d
00000350: c0b5 ca3c 9452 d33c af18 cc3d 48a7 81bd
00000360: 1fa3 013d 3f37 3fbd af3b 04bd aa9a 4fbd
00000370: 4bab f3bc ea3a 00bd 1161 7e3d bfbd 9d3d
00000380: c751 e73c e7b9 dbbc 91e7 79bb 0ab0 163d
00000390: 8dbd 3ebd f12d 423d ccad 683d af9a 8dbc
000003a0: b088 c33c 35f7 493d fa71 b63d dbef 5dbd
000003b0: fa87 d9bc d043 963d f651 b0bc 780a 3bbd
000003c0: 953a 703d 8d17 20bd e22c 54bd fa2d b93c
000003d0: a486 b8bc 66d4 843d 4548 a73b 4b01 afbd
000003e0: 60c4 a5bc 7818 b83d ba5a 0b3d d6fe 33bd
000003f0: 172e e33c 0121 d03c 6e84 b93c 8b53 30bd

layers.0.W_p_prime.weight f4 [128, 128]
-0.07416483 -0.07978409 0.008428875 0.04924472 -0.04419937 -0.009220802 0.08630472 0.0978665
-0.029093517 0.045107387 -0.03721242 -0.06731046 0.075039394 -0.036782626 -0.061157923 0.082048975
-0.034606352 0.034665752 0.084005944 0.0814212 -0.0035047687 -0.04206526 -0.08933007 -0.06384856
0.058577247 0.04763505 0.043716498 0.023151878 0.036701858 -0.037417494 -0.050360885 -0.0102224685
-0.060313832 0.08739777 0.038052224 0.0022630082 0.030348325 0.053631082 -0.059336275 0.020399293
-0.07047779 -0.038390182 0.0057176175 -0.047295127 -0.06363761 -0.01266705 0.005760027 -0.03339173
0.0802 0.07915448 0.04263528 0.08021849 -0.07256909 -0.018844755 0.03398727 0.01333029
-0.057228558 0.040541608 -0.0050973557 -0.042785484 -0.080538265 -0.096203834 -0.025461843 -0.016197646
0.027259104 -0.043695882 -0.008444928 -0.007347039 0.08179808 -0.072585166 0.047992975 -0.076382875
-0.07440253 -0.013145342 0.03772119 -0.0114499545 -0.047353044 0.06998956 0.07587633 -0.026593806
0.05162934 0.06405709 0.041919317 0.054815516 -0.02518785 0.056976754 0.060255934 0.08243074
-0.04770156 -0.0116191935 0.087678224 -0.0028430314 -0.029606242 0.04609575 0.025790773 0.0688423
-0.026037246 -0.09515198 -0.014524827 -0.08322142 0.101870626 -0.038435526 0.08184503 -0.007910548
0.017456174 0.06421068 0.06541984 -0.025101962 -0.033436563 0.07444639 -0.014209799 -0.030827802
0.079944 -0.08514987 0.07003375 0.036786407 0.09461468 -0.059562992 0.020121835 -0.035662346
-0.079614915 -0.09567276 -0.091026194 0.025300415 -0.039447285 -0.06482327 -0.027674869 0.07943197
0.053324506 -0.044856228 0.07795377 0.056413442 0.0150272995 -0.012405091 -0.020187214 -0.048086893
-0.021691056 -0.10025797 0.0115491515 0.00023872025 0.064105466 0.025307056 -0.04773778 0.0889812
-0.045800313 -0.03926907 -0.10242654 -0.051313523 -0.012207182 0.004007155 0.07851224 -0.028928755
-0.09696676 0.0356485 0.07652226 0.038445085 -0.06867511 0.06427036 0.08545989 0.026027668
0.055782795 0.06536201 -0.0124378335 0.042207107 -0.05443464 -0.010345968 0.086736 -0.04102803
-0.082483776 0.024015699 0.03225645 0.061546803 0.058253814 -0.034596365 -0.05122649 -0.07920628
0.026930107 -0.078925446 0.065660276 -0.052315217 -0.06883714 -0.06922547 -0.06567819 0.05858226
-0.0772053 0.005321789 -0.057030115 0.055541597 -0.025722101 0.06556978 0.023210337 0.042638216
-0.08606301 0.05620767 -0.08385207 0.005818148 -0.017692536 -0.032983914 0.03674218 -0.0072654593
0.008046765 0.025827946 0.07736294 -0.028469918 -0.04299532 0.0007885266 0.021637402 0.003726254
-0.033186596 0.07851478 -0.015768535 -0.052597024 0.10830577 -0.07857227 -0.05178651 0.05666837
0.0040861466 0.04836258 0.008903865 -0.025672143 -0.0748472 0.05599673 0.09796815 -0.053837363
-0.026633034 -9.7852835e-06 -0.07954929 0.032786608 -0.03796285 -0.021068102 0.005799657 0.07448037
0.07522844 -0.026911907 -0.03276245 -0.00025993507 7.186211e-05 0.06542433 -0.011540828 0.02313045
0.030660134 -0.10332897 -0.04675739 0.066399604 -0.03762987 -0.053893104 -0.012363347 -0.00622471
-0.0715653 0.009486078 -0.0629153 -0.00484042 -0.00514078 -0.084465146 -0.05427002 0.09042995
00000000: bbe3 97bd d765 a3bd 4419 0a3c d5b4 493d
00000010: 660a 35bd d912 17bc 87c0 b03d 3b6e c83d
00000020: 8755 eebc 86c2 383d 0d6c 18bd 11da 89bd
00000030: 41ae 993d 61a9 16bd bb80 7abd 4b09 a83d
00000040: 64bf 0dbd adfd 0d3d 4f0b ac3d 28c0 a63d
00000050: 43b0 65bb 9f4c 2cbd aff2 b6bd 09c3 82bd
00000060: b2ee 6f3d f81c 433d 1210 333d 02a9 bd3c
00000070: b054 163d 1643 19bd 3747 4ebd 247c 27bc
00000080: a30b 77bd 9afd b23d a6dc 1b3d fa4e 143b
00000090: 0d9d f83c 44ac 5b3d 980a 73bd 6b1c a73c
000000a0: a956 90bd 063f 1dbd da5a bb3b 89b8 41bd
000000b0: 6f54 82bd 7589 4fbc 9cbe bc3b c4c5 08bd
000000c0: e63f a43d be1b a23d 55a2 2e3d 9749 a43d
000000d0: 1a9f 94bd 5160 9abc 3c36 0b3d 4a67 5a3c
000000e0: 7e68 6abd f50e 263d b807 a7bb d53f 2fbd
000000f0: 3ff1 a4bd 8406 c5bd 5b95 d0bc edb0 84bc
00000100: 7c4e df3c 74fa 32bd 985c 0abc 6ebf f0bb
00000110: c085 a73d 88a7 94bd 4894 443d a06e 9cbd
00000120: 5b60 98bd 8f5f 57bc 8981 1a3d 9798 3bbc
00000130: 44f5 41bd b056 8f3d 0d65 9b3d 41db d9bc
00000140: 4979 533d 5d30 833d 97b3 2b3d 3c86 603d
00000150: c056 cebc 7560 693d edce 763d 73d1 a83d
00000160: b662 43bd 6e5e 3ebc a490 b33d 2752 3abb
00000170: ca88 f2bc e6ce 3c3d 2c47 d33c 31fd 8c3d
00000180: 104c d5bc 0bdf c2bd 8af9 6dbc fe6f aabd
00000190: 8ca1 d03d 926e 1dbd 5e9e a73d 3e9b 01bc
000001a0: 4000 8f3c e480 833d d6fa 853d a1a2 cdbc
000001b0: c7f4 08bd 5977 983d 37d0 68bc 968a fcbc
000001c0: aeb9 a33d 0e63 aebd db6d 8f3d 58ad 163d
000001d0: 57c5 c13d 53f8 73bd 8cd6 a43c ae12 12bd
000001e0: 250d a3bd 14f0 c3bd f16b babd d142 cf3c
000001f0: 7a93 21bd 10c2 84bd 68b6 e2bc 3bad a23d
00000200: cc6a 5a3d 2abb 37bd 3aa6 9f3d c811 673d
00000210: 1035 763c b93e 4bbc a85f a5bc c3f6 44bd
00000220: 71b1 b1bc 0d54 cdbd a738 3d3c fb50 7a39
00000230: ba49 833d be50 cf3c b188 43bd c63b b63d
00000240: 1c99 3bbd 9bd8 20bd 01c5 d1bd 212e 52bd
00000250: a200 48bc 744e 833b 06cb a03d fffb ecbc
00000260: 8296 c6bd 2904 123d b4b7 9c3d 9878 1d3d
00000270: 89a5 8cbd 2ea0 833d 9805 af3d fa37 d53c
00000280: 807c 643d 84dc 853d 0ec8 4bbc 5ce1 2c3d
00000290: dbf6 5ebd 2382 29bc a5a2 b13d 020d 28bd
000002a0: 41ed a8bd 92bc c43c 571f 043d 8018 7c3d
000002b0: 8d9b 6e3d ebb4 0dbd ded2 51bd e736 a2bd
000002c0: 879c dc3c aaa3 a1bd e578 863d 7b48 56bd
000002d0: 7dfa 8cbd 15c6 8dbd 4982 86bd f4f3 6f3d
000002e0: d01d 9ebd 6762 ae3b 6998 69bd 967f 633d
000002f0: 28b7 d2bc 7349 863d 9b23 be3c 69a5 2e3d
00000300: ce41 b0bd 043a 663d a2ba abbd 2aa6 be3b
00000310: f0ef 90bc 241a 07bd f87e 163d 1713 eebb
00000320: 94d6 033c 2195 d33c 7670 9e3d bf39 e9bc
00000330: dc1b 30bd 20b5 4e3a ec40 b13c 2b34 743b
00000340: abee 07bd 5bcc a03d 042d 81bc fa6f 57bd
00000350: 6acf dd3d 80ea a0bd 171e 54bd 181d 683d
00000360: 15e5 853b d717 463d 84e1 113c 634e d2bc
00000370: 7d49 99bd d45c 653d 87a3 c83d 9184 5cbd
00000380: 852d dabc 792b 24b7 bdea a2bd 404b 063d
00000390: ef7e 1bbd 0397 acbc 0d0b be3b 2a89 983d
000003a0: 5e11 9a3d 5c76 dcbc eb31 06bd e547 88b9
000003b0: adb4 9638 31fd 853d be15 3dbc 127c bd3c
000003c0: f62a fb3c 249e d3bd ad84 3fbd 84fc 873d
000003d0: c721 1abd 04bf 5cbd a38f 4abc a7f8 cbbb
000003e0: d490 92bd 7f6b 1b3c bdd9 80bd 639c 9ebb
000003f0: fd73 a8bb 10fc acbd 3e4a 5ebd 5633 b93d

layers.0.f_def.weight f4 [1, 128]
0.08597029 -0.063436225 0.119625434 -0.008425586 0.057427805 -0.06207304 -0.010281227 -0.10318544
0.113396436 -0.026051229 0.020370772 -0.08542516 -0.13409795 -0.07671093 0.061576415 0.09391125
0.02164231 -0.08319039 -0.06823519 -0.034574796 -0.06935514 -0.083747186 0.12722935 0.009406302
-0.083875015 -0.016847836 -0.0134636825 0.11352395 -0.09972565 -0.0070820283 -0.023781063 -0.02501614
0.030483529 0.0034121461 -0.0011176452 -0.029619979 -0.029557012 0.050085086 0.039162293 -0.040616773
0.045583975 0.0044088433 -0.0059752306 -0.09989689 0.100605115 -0.01951711 -0.0498845 -0.064610325
0.07131871 0.08132705 -0.030975748 0.0061751446 0.11488563 0.09994473 -0.017897986 0.019977914
0.041256376 0.05012518 0.018686594 0.055731304 0.11150915 0.085371934 0.05424718 -0.085881054
-0.16306771 -0.021953912 0.0975007 0.038792334 0.023518186 0.025419509 -0.02434502 0.08640692
0.051916596 -0.124955855 0.040850196 0.03198848 0.06714967 0.11082597 -0.055613365 0.0034280112
-0.07649244 0.039984006 -0.058625612 -0.06265516 0.14477028 -0.09939686 0.012614319 -0.035911415
0.0053203106 0.028511098 -0.034369927 -0.07929786 0.057115287 0.09577547 0.0506348 -0.05448416
-0.044881295 0.13732985 0.007088069 0.10896374 -0.039379887 -0.05796617 -0.07626637 0.13635135
0.07350695 -0.081587635 -0.08488757 -0.036009103 -0.036270782 0.009975219 0.03994195 -0.023777746
-0.10266308 -0.073651865 0.089176066 -0.07156144 -0.026015 0.016713569 0.049546737 -0.11933165
0.011218542 -0.037301578 0.074357435 0.0030750504 -0.0014680113 -0.013180439 -0.081634216 0.00890905
00000000: 3111 b03d daea 81bd 2efe f43d 780b 0abc
00000010: 6b39 6b3d 4d40 7ebd 9772 28bc e352 d3bd
00000020: 643c e83d 6369 d5bc 9be0 a63c 63f3 aebd
00000030: f950 09be 9f1a 9dbd 8d37 7c3d 8b54 c03d
00000040: 374b b13c b95f aabd e4be 8bbd 4d9e 0dbd
00000050: 110a 8ebd a583 abbd 6948 023e e41c 1a3c
00000060: aac6 abbd 7904 8abc c796 5cbc 3f7f e83d
00000070: f63c ccbd 5c10 e8bb 81d0 c2bc a6ee ccbc
00000080: 98b8 f93c 509e 5f3b f37d 92ba 99a5 f2bc
00000090: 8c21 f2bc 0526 4d3d a468 203d c65d 26bd
000000a0: 43b6 3a3d 0f78 903b decb c3bb be96 ccbd
000000b0: 0e0a ce3d 59e2 9fbc b153 4cbd 6b52 84bd
000000c0: 8b0f 923d cc8e a63d dac0 fdbc de58 ca3b
000000d0: 2849 eb3d d3af cc3d cc9e 92bc b9a8 a33c
000000e0: 72fc 283d 1050 4d3d a114 993c 8246 643d
000000f0: e95e e43d 7bd7 ae3d 4b32 5e3d 68e2 afbd
00000100: 39fb 26be b1d8 b3bc 72ae c73d b6e4 1e3d
00000110: 36a9 c03c 933c d03c 356f c7bc 1cf6 b03d
00000120: 7fa6 543d dbe8 ffbd 8952 273d 5a06 033d
00000130: c485 893d baf8 e23d d7ca 63bd 7ca8 603b
00000140: 12a8 9cbd 45c6 233d 6921 70bd 5951 80bd
00000150: a93e 143e 9590 cbbd 4aac 4e3c d917 13bd
00000160: 0056 ae3b 1b90 e93c 7bc7 0cbd eb66 a2bd
00000170: b8f1 693d ee25 c43d 7066 4f3d c82a 5fbd
00000180: 73d5 37bd 32a0 0c3e 0843 e83b 6228 df3d
00000190: ce4c 21bd ef6d 6dbd 8b31 9cbd b09f 0b3e
000001a0: d08a 963d 6b17 a7bd 89d9 adbd 487e 13bd
000001b0: ac90 14bd 1a6f 233c 2c9a 233d 8cc9 c2bc
000001c0: 0541 d2bd cad6 96bd f1a1 b63d ce8e 92bd
000001d0: 691d d5bc e5ea 883c 85f1 4a3d 2764 f4bd
000001e0: facd 373c 8ac9 18bd b648 983d c986 493b
000001f0: 496a c0ba c5f2 57bc d72f a7bd 44f7 113c

layers.0.W_self.weight f4 [128, 128]
-0.057611722 0.0042398353 0.0055564744 0.06964875 -0.057341613 -0.043200072 0.029534116 0.0027713752
0.0044198115 -0.020783996 0.08014614 0.076935954 0.0027487818 -0.0082090655 -0.017969368 -0.0019470655
0.053092208 0.042378865 -0.045844316 -0.087510385 0.067057125 0.096908174 -0.066982485 0.03407023
0.044168085 -0.001643234 -0.005151177 -0.048853844 0.02512953 -0.08221086 0.026717843 0.08787749
-0.040112562 -0.04101332 -0.07160135 -0.06439257 0.058718227 0.05443492 -0.08254843 0.003493039
-0.09425082 -0.034648906 -0.10158135 0.058335926 0.06447039 -0.030415809 -0.047438174 -0.011486616
-0.0126206875 -0.02688175 -0.054819677 0.048690733 -0.054830983 -0.06562941 0.016647117 0.054209705
-0.014355863 -0.03540024 0.0843373 0.059450533 -0.04851338 0.055878073 0.0154779535 0.052940477
0.016435144 -0.032849763 -0.10127353 0.06515281 -0.012627749 0.02518282 0.032780547 0.044863567
-0.04581051 -0.055013273 0.056447178 -0.06690928 0.011590345 0.01190999 -0.0864098 -0.0702304
-0.036551077 -0.0695337 -0.07436863 0.035659533 -0.033589188 0.07841178 -0.08989998 0.0535704
0.007936092 0.0055489377 -0.022683695 -0.05395188 -0.038602564 0.055127494 0.06191447 0.0251439
-0.0011816357 -0.0638025 -0.06464825 0.03209016 0.0034434635 -0.051272344 0.0032485342 0.04957725
-0.056071974 0.036897693 -0.037858404 0.077634975 0.017649354 -0.031836674 -0.023338107 0.02387328
-0.08962062 0.0112217795 -0.06386509 0.06951658 0.021561177 -0.08472512 0.08260419 -0.05454615
-0.02194304 -0.060964357 0.018164404 0.0565578 0.018372014 -0.00038072193 -0.072394006 0.095682204
-0.026339153 0.023201423 0.04301386 0.040948275 -0.08152237 -0.023246646 0.044799525 0.09858703
0.08463765 -0.0024722423 -0.01887808 -0.00612598 -0.07811735 -0.03225254 0.08212335 -0.02205488
-0.098803446 0.08786132 0.06751146 -0.011822461 0.046082232 0.039843444 -0.060751148 -0.02091747
0.04615418 6.2019004e-05 -0.06811303 -0.025174933 -0.0101747215 -0.08415268 -0.025392605 -0.052921474
0.03356823 -0.04608074 0.01862768 -0.011529283 0.07521761 -0.054178137 0.1076148 -0.053485133
0.010818195 -0.055583097 0.060139894 0.03439167 0.004356767 -0.02425999 0.010664869 -0.02673231
0.08751677 -0.02762086 -0.059369154 0.06540986 -0.05842714 -0.007852501 -0.101806276 0.09425803
-0.052840877 0.05149153 0.024101935 0.08164574 -0.02234109 0.02643867 0.03833222 0.036569543
0.079908 0.106552236 -0.030712971 0.028649682 0.044440128 -0.019336252 -0.049519457 -0.024472412
-0.028408606 0.024603946 -0.044356234 -0.043235533 -0.024076872 0.028504841 -0.08304062 0.014660788
0.11190312 -0.078086674 -0.029976143 0.026734143 -0.010310958 0.08224497 -0.080547586 -0.032721646
0.011567993 -0.058366742 0.050019413 -0.08363381 -0.013592463 -0.056691807 -0.06701294 -0.03882004
0.01870796 0.04232047 0.09958641 0.058578175 -0.0559296 -0.084081575 -0.004341111 -0.06534361
0.0780992 0.0057013663 0.019687857 0.03214919 0.022009801 0.01431823 0.008387965 -0.055699803
-0.07756498 0.10042973 -0.07516632 0.011829955 0.0026057423 0.018305713 0.08388057 -0.073791884
-0.09642568 0.04431787 -0.0979174 -0.065362245 -0.017211992 -0.08789555 -0.011129966 -0.06775156
00000000: 45fa 6bbd 51ee 8a3b 1613 b63b 01a4 8e3d
00000010: 0adf 6abd 8ff2 30bd 88f1 f13c f69f 353b
00000020: 11d4 903b 3343 aabc a923 a43d 9990 9d3d
00000030: e824 343b 517f 06bc 7f34 93bc ad34 ffba
00000040: 3777 593d 7695 2d3d 40c7 3bbd a538 b3bd
00000050: 3f55 893d cb77 c63d 1d2e 89bd 3a8d 0b3d
00000060: 98e9 343d c961 d7ba 34cb a8bb f81a 48bd
00000070: 72dc cd3c 2b5e a8bd 61df da3c 1df9 b33d
00000080: 124d 24bd 95fd 27bd bba3 92bd 40e0 83bd
00000090: 8682 703d 27f7 5e3d 270f a9bd 78eb 643b
000000a0: 9306 c1bd 03ec 0dbd e209 d0bd a7f1 6e3d
000000b0: 0d09 843d 932a f9bc 884e 42bd 5c32 3cbc
000000c0: 00c7 4ebc 1e37 dcbc 998a 60bd ef6f 473d
000000d0: 7496 60bd b668 86bd 895f 883c ff0a 5e3d
000000e0: db34 6bbc d8ff 10bd 09b9 ac3d 6782 733d
000000f0: f7b5 46bd 68e0 643d 3e97 7d3c 1dd8 583d
00000100: ffa2 863c 798d 06bd 7f68 cfbd d66e 853d
00000110: 9ee4 4ebc 344c ce3c e544 063d dcc2 373d
00000120: cda3 3bbd 9955 61bd 2835 673d bc07 89bd
00000130: 6ee5 3d3c 1e22 433c 9ff7 b0bd f5d4 8fbd
00000140: 95b6 15bd af67 8ebd 954e 98bd bb0f 123d
00000150: d194 09bd 5b96 a03d 7b1d b8bd a36c 5b3d
00000160: 6206 023c ddd3 b53b 28d3 b9bc a6fc 5cbd
00000170: b91d 1ebd 5ecd 613d 079a 7d3d 95fa cd3c
00000180: 1de1 9aba e3aa 82bd 4d66 84bd f970 033d
00000190: bbab 613b f302 52bd 5ce5 543b 8411 4b3d
000001a0: baab 65bd 0922 173d 6a11 1bbd 16ff 9e3d
000001b0: 6195 903c 2c67 02bd 8f2f bfbc e691 c33c
000001c0: 048b b7bd 8edb 373c b3cb 82bd b55e 8e3d
000001d0: 11a1 b03c 5d84 adbd 632c a93d c96b 5fbd
000001e0: e4c1 b3bc c3b5 79bd 84cd 943c 27a9 673d
000001f0: e880 963c a29b c7b9 4f43 94bd 08f5 c33d
00000200: 35c5 d7bc e910 be3c 4d2f 303d 61b9 273d
00000210: 33f5 a6bd c06f bebc b57f 373d ffe7 c93d
00000220: 8156 ad3d 5805 22bb 34a6 9abc 72bc c8bb
00000230: fdfb 9fbd 3d1b 04bd 4930 a83d 70ac b4bc
00000240: 7659 cabd a3f0 b33d 7343 8a3d ffb2 41bc
00000250: b9c0 3c3d e132 233d 32d6 78bd 1d5b abbc
00000260: 2a0c 3d3d 3310 8238 d87e 8bbd a93b cebc
00000270: e0b3 26bc 3e58 acbd 2704 d0bc 30c4 58bd
00000280: d77e 093d 28bf 3cbd 1499 983c 51e5 3cbc
00000290: b10b 9a3d e5e9 5dbd 2665 dc3d 3a13 5bbd
000002a0: cc3e 313c 1aab 63bd 4055 763d 48de 0c3d
000002b0: 36c3 8e3b e3bc c6bc b4bb 2e3c b8fd dabc
000002c0: fe3b b33d 2445 e2bc 122d 73bd 9bf5 853d
000002d0: 4c51 6fbd c7a7 00bc cf7f d0bd 5b0a c13d
000002e0: ad6f 58bd c8e8 523d 6c71 c53c e235 a73d
000002f0: a904 b7bc e995 d83c 3f02 1d3d f2c9 153d
00000300: cea6 a33d 0f38 da3d c599 fbbc bdb2 ea3c
00000310: da06 363d 0f67 9ebc ead4 4abd 5e7a c8bc
00000320: 2ab9 e8bc 378e c93c e2ae 35bd be17 31bd
00000330: dc3c c5bc fc82 e93c 3311 aabd cd33 703c
00000340: 772d e53d e8eb 9fbd 8790 f5bc 9001 db3c
00000350: 4bef 28bc 0d70 a83d 22f6 a4bd 2207 06bd
00000360: ae87 3d3c f711 6fbd 28e1 4c3d 3448 abbd
00000370: ecb2 5ebc ab35 68bd 153e 89bd c301 1fbd
00000380: 7041 993c 3b58 2d3d f6f3 cb3d abef 6f3d
00000390: 7016 65bd f632 acbd e13f 8ebb dfd2 85bd
000003a0: 79f2 9f3d 87d2 ba3b 6e48 a13c deae 033d
000003b0: e64d b43c 0297 6a3c ad6d 093c 7a25 64bd
000003c0: 63da 9ebd 1aae cd3d cdf0 99bd 6dd2 413c
000003d0: 1ac5 2a3b ddf5 953c 94c9 ab3d 3320 97bd
000003e0: d47a c5bd a886 353d eb88 c8bd a4dc 85bd
000003f0: 2a00 8dbc 9502 b4bd 765a 36bc 54c1 8abd
