checkpoints/ablations/refined_ablation_no_ln.pth (torch, 885869 bytes, 32 tensors)

input_norm.weight f4 [7]
000000 fa c4 7e 3f 33 f3 6d 3f f7 6e 73 3f e2 0f 80 3f
       0.9951931 0.9294922 0.95091194 1.0004847
000010 5e e5 7b 3f 48 b5 86 3f cb d7 85 3f
       0.9839686 1.0524073 1.045648

input_norm.bias f4 [7]
000000 a1 94 1e 3d fd 44 03 3b 3f e2 ab 3c c8 d7 1b 3d
       0.038715962 0.0020030134 0.020981906 0.038047582
000010 60 74 c9 bc b7 bf f7 3a b7 f2 0d bc
       -0.024591625 0.001890174 -0.008663825

layers.0.embed.weight f4 [128, 7]
000000 b7 ac 8c 3e 53 38 b0 be c9 0f 0b bc 1d 5e ce bd
       0.2747552 -0.34417972 -0.00848765 -0.100765444
000010 a4 95 b5 3e 92 65 8d be ae 66 37 3e 96 1f f6 bc
       0.3546573 -0.27616554 0.17910263 -0.030044358
000020 3e fc ad 3d c6 6c 86 3d 51 61 2f bc ac 2b 4c bd
       0.08495377 0.06563716 -0.010704354 -0.049846336
000030 41 83 2f 3e 2e 41 6a be c4 46 ba 3e 2f 59 68 bd
       0.17139913 -0.22876427 0.36382115 -0.056725677
000040 6b 66 2f bb 4e bc 44 be 2e 24 b2 bd be ff 64 3e
       -0.0026763927 -0.19212458 -0.08698307 0.22363183
000050 32 91 4f be 69 e2 4c 3e 46 1f ba be 46 51 f4 bd
       -0.20270231 0.20008244 -0.36351985 -0.11929564
000060 4a 5e 67 be a9 f4 57 be 81 a4 cd 3d 0e d9 a2 3e
       -0.22594562 -0.21089424 0.10041142 0.31806225
000070 ad cf 43 be 8c b1 d9 3d 6c 7b 5b 3e b4 c7 2c be
       -0.19122191 0.106295675 0.214338 -0.16873056
000080 10 bc b6 3d f2 94 2b be d1 fc 85 3e 06 82 5a be
       0.08922589 -0.16756037 0.26169446 -0.21338663
000090 5a ae 51 3e 18 b8 bd be 9d 2a a0 3e f9 91 a6 3e
       0.20476666 -0.37054515 0.3128251 0.32533243
0000a0 ce aa 85 3e f9 a6 d1 be f5 45 9e be 7b d5 03 3e
       0.26106876 -0.40947703 -0.30912748 0.12874405
0000b0 28 98 b7 be df 4f 45 3e 98 ee 17 3e a9 3f a9 be
       -0.35858274 0.1926875 0.1483711 -0.3305638
0000c0 a0 ef a9 3e 14 84 21 be 28 7a b0 bd 4e e8 a4 3e
       0.33190632 -0.1577304 -0.086170495 0.32208484
0000d0 cb 54 83 be e0 a0 5d be 2d 4a ef 3d d2 ed 00 3d
       -0.2565063 -0.216434 0.1168407 0.031476803
0000e0 d3 46 96 3e fc a9 6b 3e 2b 4a a5 3e af 10 c3 be
       0.2935091 0.23014063 0.32283148 -0.38098666
0000f0 c8 e6 19 3e 2a d1 bb 3e 04 c8 7f be 2e 87 2f 3e
       0.15029442 0.36683017 -0.24978644 0.1714141
000100 24 66 7e 3e ed fc c2 be 8b 42 85 be 43 ec 3f 3d
       0.24843651 -0.38083592 -0.2602733 0.046856176
000110 fb 66 aa bc bb 84 8c be 95 f7 9c 3e 70 98 53 3e
       -0.020801058 -0.27445015 0.3065764 0.20663619
000120 33 31 90 3e 42 34 a8 bd 41 d0 b7 be bc e5 63 3d
       0.28162536 -0.082130924 -0.35901073 0.055639014
000130 3a eb 59 3e 28 0e c9 3d 07 89 4c be ab 8c 71 3e
       0.21281138 0.09817153 -0.19974147 0.23588817
000140 46 28 47 bb 0f b2 12 be fa ad dd 3e c8 26 82 be
       -0.0030388995 -0.14325736 0.43296796 -0.25420213
000150 23 52 bf 3e 2b 76 77 3e 10 18 96 3e 21 5f a9 be
       0.37367353 0.24166171 0.29315233 -0.3308039
000160 dd e0 14 3d 86 25 28 be 4b 8c f7 bc f3 2a eb 3d
       0.03634726 -0.16420564 -0.030218264 0.11482801
000170 6b 98 86 3e 5d 61 35 bd 92 75 33 3e 2e e9 46 be
       0.2628816 -0.044282306 0.17525318 -0.19424888
000180 23 4f b6 bd a3 87 72 be e0 a4 9e bd aa 13 4d be
       -0.08901813 -0.23684554 -0.07746291 -0.20027032
000190 0f 1b 57 be e9 10 ab 3d 08 bc 15 bd cc 37 d3 be
       -0.21006416 0.08352835 -0.036556274 -0.41253507
0001a0 32 ac 33 3e 5b 5f 76 3e 7c 8f b2 3e 37 1a 2e be
       0.17546156 0.24059813 0.34875095 -0.17002188
0001b0 35 1a 23 be 43 2a 6f 3d 19 f5 ab be 42 fb 51 be
       -0.15927966 0.058389913 -0.33585432 -0.20506003
0001c0 77 5b 41 3d 6e 65 40 bd de e3 96 be 0d 86 a3 bd
       0.04720637 -0.04697173 -0.29470724 -0.079845525
0001d0 cb 69 22 3e 83 73 16 be e7 f1 5d 3d d3 e4 f0 bd
       0.1586067 -0.14692502 0.054185774 -0.11762395
0001e0 38 40 57 3e 29 23 fa 3d 97 53 43 3d 98 d4 a2 3e
       0.21020591 0.122137375 0.04768714 0.3180282
0001f0 a7 30 9b 3d cb dd 8e 3e 43 0a 23 3e 48 f9 06 3d
       0.07577639 0.2790359 0.15921883 0.032952577
000200 e1 e1 c2 bd c8 30 46 3d 66 40 97 3e aa 67 bf 3e
       -0.09515739 0.048386365 0.2954132 0.37383777
000210 0c 26 a5 3d 83 53 09 be 28 b2 3d 3e 72 5b b7 be
       0.080638975 -0.13410763 0.18524992 -0.35811955
000220 cd a2 99 3e 0e 5d 8e be dc 8c 78 be 64 51 2b 3c
       0.3000702 -0.2780537 -0.24272484 0.010456417
000230 f2 f7 5a 3e 39 31 d4 3d bd 00 99 be 1b 38 37 be
       0.21383646 0.10360951 -0.29883376 -0.17892496
000240 da 9d 89 be 5e e1 57 3d 72 77 4a 3e 7a 28 ad 3d
       -0.26878244 0.05270516 0.19772127 0.08454986
000250 2a 9f 8f 3d 98 a9 e1 bd 65 ef 17 3e 93 b5 21 bc
       0.0701278 -0.110186756 0.14837416 -0.009869951
000260 93 6e 1c be 82 27 bd 3e 1b 33 32 3b 23 5e 88 be
       -0.15276556 0.36944205 0.0027191106 -0.2663432
000270 bc e9 5e bd 37 e1 76 3e 24 04 d8 3d ac 97 18 3d
       -0.054422125 0.2410935 0.10547665 0.03725402
000280 36 80 26 be 2b bb 5e be 90 d9 97 3e a1 f9 47 be
       -0.16259846 -0.21751086 0.29658175 -0.1952882
000290 0f fe b7 3e 46 67 3c 3e bc 74 92 3e ec c0 82 3e
       0.3593602 0.1839877 0.28604686 0.25537813
0002a0 bb db 4e be e1 d5 5b be f0 93 d8 bb b0 37 35 3d
       -0.20201008 -0.21468307 -0.0066094324 0.04424256
0002b0 a1 11 a6 3d 0b f4 aa be 5e db 62 3d 56 dc a0 be
       0.08108831 -0.33389315 0.055384986 -0.31418103
0002c0 55 d0 bb be 36 95 9d 3d 91 5e 36 3e df 67 ff bd
       -0.36682382 0.07694475 0.17809512 -0.12470984
0002d0 2f 71 8c be 6e b7 f9 3b 6a 3c a1 be ac a9 01 3e
       -0.27430102 0.0076207435 -0.31491405 0.12662381
0002e0 36 b2 89 be 9b 2f c2 3e d9 e6 81 3e a1 f7 b2 3d
       -0.26893777 0.37926945 0.25371435 0.08738638
0002f0 4e 49 89 bd c5 c9 82 3d 73 61 57 3e 9c 13 bf be
       -0.06703435 0.06386141 0.21033268 -0.37319648
000300 f4 cf b0 be 9b c5 01 be 06 25 f2 3d 54 ad 9a be
       -0.34533656 -0.12673037 0.11823468 -0.30210364
000310 57 f3 79 3b 64 d6 63 be 34 cf bf be e6 52 a6 3e
       0.0038139427 -0.22249752 -0.3746277 0.3248512
000320 ea 55 91 3e 3d b7 8a be 1e 16 e2 3b 43 42 ab be
       0.2838586 -0.27092925 0.006899609 -0.3344899
000330 fc fb 7e 3e 14 70 38 be 26 04 a7 3e 6d 27 51 be
       0.24900812 -0.18011504 0.32620353 -0.20425196
000340 40 85 04 be 63 78 42 be 67 52 83 be 52 98 76 be
       -0.12941456 -0.18991236 -0.25648805 -0.24081543
000350 ab 43 82 3e 5c 99 2d be fb ef 46 be 89 f6 ab 3d
       0.25442252 -0.16953033 -0.19427483 0.08396632
000360 08 62 7d be 15 4f 87 be 48 bd a0 3d 1e 99 8c be
       -0.24744427 -0.26427522 0.078486025 -0.2746057
000370 89 32 3d be 4f 3b 93 be 60 40 99 be 6e 25 3c be
       -0.18476309 -0.28756186 -0.29931927 -0.18373653
000380 af 6e bf be 2e 7b ab 3c f0 78 78 be b8 85 a0 be
       -0.37389132 0.02093276 -0.24264884 -0.3135202
000390 db 16 d3 bc 70 2b 41 bd e4 58 73 bd 7d 41 67 3d
       -0.025767734 -0.047160566 -0.059410945 0.05645894
0003a0 51 71 6b 3e 49 c1 7a 3e 54 14 3f be 53 ff 13 be
       0.22992446 0.24487795 -0.18660098 -0.14452867
0003b0 06 2d d7 3c 3e 4d b9 3e 9e 5c 86 be b8 fe 22 3e
       0.026266586 0.36191744 -0.26242536 0.1591748
0003c0 d1 25 8b be 49 af f8 bc d0 ae 12 3b cf e8 15 be
       -0.2717729 -0.03035702 0.0022382028 -0.1463959
0003d0 64 65 c1 be 38 6a 3e bd ca 3d ac be 91 e6 95 b9
       -0.37772667 -0.046488017 -0.3364089 -0.0002859128
0003e0 a4 02 c1 be eb be 77 3e f2 68 a4 3e 05 a8 ba bd
       -0.37697327 0.24193923 0.32111317 -0.091140784
0003f0 ef d1 f0 3d 1d cf 5f 3e 45 94 bf bd 0f 66 ae be
       0.11758792 0.21856351 -0.09354452 -0.3406224

layers.0.embed.bias f4 [128]
000000 c2 0b 34 3e b2 3b cd 3d e6 3d 9b 3c d0 06 0a be
       0.1758261 0.100211516 0.018950414 -0.13479161
000010 78 74 fc bd 2f 31 2b 3e 3e c7 92 3e b0 35 89 3d
       -0.12326902 0.16717981 0.28667635 0.06699693
000020 f0 fe 6f 3e e9 63 c0 be b5 b9 ba be 64 c0 cc 3e
       0.23437095 -0.37576225 -0.36469808 0.39990532
000030 32 24 82 3d e3 77 2b 3e a2 c3 66 be 8c 24 7d bd
       0.0635456 0.16744952 -0.22535565 -0.061802432
000040 9f 16 df bd 59 07 c3 be 9c 71 3e 3e 3d 50 7c bb
       -0.108929865 -0.38091543 0.18598026 -0.0038499974
000050 a2 f3 65 be 71 c7 eb 3d 25 00 03 3e 68 ae 0e 3e
       -0.2245622 0.1151265 0.12793024 0.13933718
000060 41 f7 11 3e ae 2d be 3e ca 7f a5 be a8 5e 96 be
       0.14254476 0.37144226 -0.32324058 -0.29369092
000070 28 80 a6 be 7c 01 2a be 89 73 2d be 3e 68 b3 3e
       -0.3251965 -0.16602129 -0.16938604 0.35040468
000080 cb f2 3b 3e bb 2e b0 3e 9c 80 a4 3d f7 15 ab 3e
       0.18354337 0.34410653 0.08032343 0.33415195
000090 12 1c df 3d 1a 77 87 3c 9f 2d 5d 3d db 3e 9d 3d
       0.10894026 0.016536284 0.053998586 0.07678004
0000a0 81 9f f4 3c 4c 8a 29 bd ef 20 3a bc 7d c3 02 be
       0.029861214 -0.041391656 -0.011360391 -0.12769885
0000b0 6e 7a 9a 3e 62 b1 94 bd c1 de 79 be 53 7f b4 3d
       0.3017153 -0.072603956 -0.2440138 0.08813348
0000c0 52 51 76 3e a0 7a 3f 3e a0 96 b2 3e 4a bd 92 be
       0.24054459 0.18699121 0.34880543 -0.2866004
0000d0 4f a8 94 be c2 17 d8 bd 57 f4 b2 bd 92 ad 8d 3e
       -0.2903466 -0.105514064 -0.087380104 0.27671486
0000e0 b8 22 3e be 58 80 99 be e0 44 66 3e 7f f6 b6 bc
       -0.18567932 -0.2998073 0.22487211 -0.022334335
0000f0 9f f3 c3 be 7a 20 59 3d b0 88 aa 3e 1c 03 3b 3d
       -0.38271806 0.053009488 0.3330741 0.045657262
000100 2d 86 55 be 26 6d 7b be 30 13 aa 3e e3 e1 a5 bd
       -0.20851965 -0.24553356 0.33217764 -0.08099725
000110 70 d2 15 be 13 ea 93 be 74 5c 34 be 7e af 35 3e
       -0.14631057 -0.28889522 -0.17613393 0.17742726
000120 de f5 f9 bd 96 e2 04 be db 1e 7a be 0c e2 0b 3e
       -0.122050986 -0.1297706 -0.24425833 0.13660449
000130 38 4e d8 3c 01 0b 4e bd e9 d6 94 3e b8 1b bc 3c
       0.026404485 -0.050303463 0.29070213 0.022962436
000140 58 ee 1c 3e 05 d5 d7 3d 94 8a 8d be 9e a3 92 be
       0.15325296 0.10538677 -0.2764479 -0.28640455
000150 d1 3f ae 3e 72 91 db 3d 6d 66 67 be cf 84 95 bd
       0.34033063 0.10721101 -0.22597666 -0.07300722
000160 bf 71 8d be 4f c6 3c 3e f7 5e dd 3d 89 2a 0c be
       -0.27625844 0.18435024 0.10809129 -0.13688101
000170 cc 32 2f 3e 66 91 8b be 63 53 a9 be 1d 40 26 3c
       0.17109221 -0.27259368 -0.33071432 0.010147122
000180 ab 9a e0 3d 26 01 41 be 1d b8 aa 3e 88 91 b6 bc
       0.109670006 -0.18848094 0.33343592 -0.022286192
000190 8b 37 90 3e 4a 64 b9 bd 00 cf 8d 3e a1 bd c8 bb
       0.28167376 -0.09052332 0.2769699 -0.006126121
0001a0 3d 7f ac be bb dd fb 3d 84 7f f5 3d 05 8e 87 3e
       -0.33690825 0.12298151 0.11987212 0.2647554
0001b0 2e c8 90 3d a9 c1 f6 3c c0 2b a5 3e b5 19 10 bd
       0.07069431 0.030121641 0.3225994 -0.035180766
0001c0 f8 bd 78 3e 3c bc af be bb 8b 46 3e ec 7c c7 be
       0.24291217 -0.343233 0.1938924 -0.38962495
0001d0 4b a2 50 3d 6b 25 bb bd f5 7d b0 3e 0c 39 55 3e
       0.050936025 -0.09137996 0.34471098 0.20822543
0001e0 58 01 3f be 65 27 aa be e5 69 90 3d f8 eb 8a be
       -0.18652856 -0.3323318 0.07051448 -0.27133155
0001f0 4c 26 6b be e1 80 8e 3d 9e 6e bd 3e 51 39 1b bd
       -0.22963828 0.069581755 0.36998457 -0.037896458

layers.0.W_att.weight f4 [128, 128]
000000 b7 85 08 bd ce 79 8a 3c 4a a2 64 bc 4a 95 a0 bd
       -0.033330645 0.016903784 -0.013954708 -0.07840975
000010 7b 35 1f bc 84 17 98 bd cc 30 a8 bd 52 15 35 3d
       -0.009717341 -0.0742636 -0.08212432 0.044209786
000020 c9 02 86 3c e5 fb 8f bd 8a c3 b2 bc 4c 7f 57 3c
       0.01635875 -0.07030467 -0.021821756 0.0131529085
000030 2e 4c ba bb 8d 0e aa bd 92 0e 74 3d d9 fc 63 3d
       -0.005685351 -0.083035566 0.059584208 0.055661056
000040 b4 fe 94 3d fe 0d 92 3d bb 10 ab bd 28 02 9e bd
       0.07275143 0.07131575 -0.083528005 -0.07715255
000050 b5 a3 9e 3d a4 86 a6 3d bd ba a4 3d 38 1b 36 bd
       0.077460684 0.081311494 0.0804343 -0.04445955
000060 30 68 4f 3d e7 86 03 bd c8 60 4f bd cd 93 20 bd
       0.05063647 -0.032111075 -0.050629407 -0.039203454
000070 b1 f9 a9 bd 77 57 7b bc c7 37 9a 3d 61 30 b4 bc
       -0.08299578 -0.015340677 0.0753017 -0.021995725
000080 9d d7 36 3d 82 b9 0e 3d 77 33 3b 3d f8 98 0e bc
       0.04463922 0.034844883 0.045703378 -0.008703463
000090 10 37 71 3b 52 c9 44 3d 76 d1 6c bd 98 34 9c bd
       0.0036806501 0.048043557 -0.057816945 -0.07627219
0000a0 79 57 e4 bc dd e7 8e bd 7d c2 a7 3c 7a 23 6b ba
       -0.027873741 -0.06977818 0.020478481 -0.0008969825
0000b0 a6 02 f7 bc 25 68 1d 3d f4 4b 0a bd d6 0a 17 bd
       -0.03015263 0.038429398 -0.03376384 -0.03687557
0000c0 87 24 2a bd 16 fe 55 bd 3d f7 9a bc 05 00 7b bd
       -0.04153874 -0.05224427 -0.01891672 -0.061279316
0000d0 cc 92 f0 3c 7d 3d e1 bc e4 71 1d 3d b8 ca 50 bd
       0.029366873 -0.02749514 0.038438693 -0.050974578
0000e0 57 e9 7d bd 1c 8b 89 3d a4 3a 17 bd 86 26 cb 3c
       -0.06199011 0.06715986 -0.03692116 0.024798643
0000f0 de 70 ac bc 99 e3 b6 bc 93 e1 26 3c 62 72 ea 3a
       -0.021049913 -0.022325324 0.010185617 0.0017886872
000100 22 ce 92 bc 05 4b 6e 3d 53 75 22 bd 61 e7 a1 3d
       -0.017920557 0.058177013 -0.03966267 0.0790546
000110 6b 1f b0 3d 6a 10 b3 3d 27 01 31 3d 9c 59 97 3d
       0.085997425 0.08743365 0.04321399 0.073901385
000120 f7 09 95 bc 51 a6 69 3d 24 47 76 3d 52 4a 16 3d
       -0.018193228 0.057043377 0.06012644 0.03669197
000130 7a 93 2d 3d 1d d8 98 bd 18 53 e8 3c fa ce 38 3d
       0.042376973 -0.07463095 0.028359935 0.045119263
000140 08 42 41 bd 4d d0 a8 b9 07 97 ac 3c da fb 0e bc
       -0.047182113 -0.00032198653 0.02106811 -0.008727038
000150 4f 0d d7 bc a1 9f 9a 3d e5 cc b0 3c 6d ad 28 bc
       -0.026251463 0.07549978 0.021582076 -0.010295254
000160 af 0b a5 3d 96 78 4d 3d 68 a2 91 bc 95 d1 61 3d
       0.08058869 0.050163828 -0.017777637 0.055131514
000170 d9 e2 4d bd 24 6d 4b 3d 83 2a 86 bd aa dd 5f 3d
       -0.050265167 0.04966463 -0.06551077 0.054654755
000180 de 86 b3 bc 34 1f 65 bc 2e 30 af bd d3 7f 8d 3d
       -0.021914896 -0.01398449 -0.085541114 0.06909146
000190 00 62 ab 3d c4 11 7d 3d 7f 59 5e 3c ef f5 b2 3d
       0.083683014 0.06178452 0.013571142 0.08738314
0001a0 57 2e 92 bc d4 6b 09 bd 6c 99 66 3d 2e 83 7d 3d
       -0.017844362 -0.0335501 0.05629866 0.06189268
0001b0 19 19 68 bd c1 b0 a9 bc 81 ac 12 3d ea 9d 95 bc
       -0.05666456 -0.020714166 0.035809044 -0.018263776
0001c0 f1 63 ec 3c d5 b1 eb bb 59 c7 b0 3d a9 c2 45 bc
       0.02885625 -0.00719283 0.086317725 -0.012070336
0001d0 58 25 81 3d 57 d3 8b 3c 6e c1 60 bc 16 c9 aa 3c
       0.06305951 0.017068548 -0.013717992 0.020847838
0001e0 f0 bb 69 3d 30 10 00 bd d2 21 ab 3d b8 e2 a3 3c
       0.057063997 -0.031265438 0.0835606 0.020005569
0001f0 9d ac 96 3d 27 f7 52 3d 2c d5 5d 3d 67 80 0b 3d
       0.07357142 0.051505234 0.054158375 0.034058
000200 a7 ac b6 3d fa b7 8d 3b 85 0f 83 bd 82 27 4f bd
       0.089196496 0.00432491 -0.063994445 -0.050574787
000210 86 ee 1f bd 8c f0 de bc 9c 77 75 bd 75 21 e6 bc
       -0.039045833 -0.027214311 -0.05992852 -0.028092125
000220 98 46 8a 3d 3a ab ae bd ad 50 20 bc d0 0b 2f 3d
       0.06751746 -0.085287526 -0.00978486 0.042735875
000230 37 12 5d 3d bf 17 2c bc 7b b0 aa 3d 1f 55 78 bd
       0.05397245 -0.010503708 0.08334442 -0.060628053
000240 89 d9 8b 3d 24 6e 62 bc e6 18 4f bd 58 4e 0c bd
       0.06828601 -0.013820205 -0.050560854 -0.034254402
000250 87 f1 77 bd fc e0 c2 3d d1 13 2b 3a 38 3c 52 3d
       -0.060533073 0.095155686 0.0006526085 0.05132696
000260 28 1e 88 3c c0 9e f7 ba 5d e4 02 bd a1 92 b1 bc
       0.016615942 -0.0018891916 -0.031956065 -0.021676363
000270 7a 85 b7 3d 00 bb 99 bd c5 cf 58 3d a9 72 8f bd
       0.089610055 -0.075063705 0.05293252 -0.070042916
000280 8e b6 f8 bc e2 77 31 3d b3 1b 43 3d 58 ab ff bb
       -0.030360486 0.04332722 0.047633838 -0.007802408
000290 55 7c 10 bd c9 a8 04 3d 06 cf 51 bd f4 1d 39 3d
       -0.035274822 0.03238753 -0.051222824 0.04519458
0002a0 5a 48 31 bb 47 4c a3 3d 45 62 c0 3c 88 ec 26 bd
       -0.0027051182 0.07973533 0.023484359 -0.040752918
0002b0 62 74 a3 3d cd 27 d5 bb 81 98 59 bd e3 df 07 3d
       0.07981183 -0.0065049888 -0.053123955 0.0331725
0002c0 12 32 8c 3c ff f8 bf 3d 2e a4 ae 3c 38 71 af 3c
       0.01711372 0.09373664 0.021318521 0.021416292
0002d0 80 b0 93 bd 29 fd 88 3d b7 67 85 bd 99 f1 23 3c
       -0.07211399 0.066889115 -0.06513923 0.010006332
0002e0 5f 0f 8d 3d 65 17 43 3d d6 c4 48 bd 57 96 90 3d
       0.068876974 0.047629733 -0.049015842 0.07059925
0002f0 b7 d1 30 bd 6c e0 34 bd 28 43 93 bb a6 85 11 3d
       -0.04316875 -0.044159338 -0.0044940896 0.035527848
000300 ab 0f 95 bc c9 e6 8c 3d 9e cb bf 3b 3d a4 f9 bc
       -0.018195948 0.06879956 0.0058531305 -0.030473823
000310 f7 69 3d bd f9 98 16 bd 20 6f af b9 b6 13 a6 bc
       -0.046243634 -0.03676698 -0.00033461396 -0.02027307
000320 e3 a1 51 3d 70 ce 39 3d d5 ae 1f 3d a6 5e 7d 3d
       0.051179778 0.04536289 0.038985092 0.061857842
000330 75 67 b1 bc 03 dc 8a 3d 81 e8 cb 3d ff 69 a8 bd
       -0.021655777 0.06780245 0.09956456 -0.08223342
000340 06 71 0e 3c ec 99 c6 3d f6 5d 0e 3c e8 a4 03 bd
       0.008693939 0.09697327 0.008689394 -0.03213969
000350 39 2b 9a 3d 41 90 5c 3c ba a8 31 bd 8d fb 80 bd
       0.07527775 0.013462127 -0.0433738 -0.062979795
000360 77 21 82 3d 60 c9 04 3d 94 65 c6 3c 34 cf 65 3d
       0.06354039 0.03241861 0.024218358 0.056105807
000370 08 06 ae 3d 4a 8c 35 3d 19 46 6b bd a9 8e 9f 3c
       0.08497244 0.044323243 -0.057439897 0.019477205
000380 e1 71 1f 3d 31 2e b2 bd e2 9e c6 3d a2 5f cf bb
       0.038926963 -0.087002166 0.09698273 -0.006328539
000390 9a aa 94 3d df 56 4f bd c9 b1 74 3d f0 66 a2 3b
       0.07259102 -0.050619956 0.05973986 0.0049561188
0003a0 c9 49 9a bd 63 be 5a 3d 50 5c 92 3d 9f 95 96 3c
       -0.07533605 0.053404223 0.071465135 0.018381892
0003b0 0c 28 1f bc 8e d2 73 bd 19 95 4e bc 0a 6c 95 3d
       -0.009714138 -0.059526972 -0.01260879 0.072959974
0003c0 b8 07 32 3d cd 48 e4 3c 8d 6f 41 3d df 0f 11 3d
       0.043464392 0.027866745 0.047225524 0.035415526
0003d0 2d 5b 06 3d 1f 28 c7 bd ff 1c 86 bd d3 04 74 3d
       0.032801796 -0.09724449 -0.06548499 0.059574913
0003e0 f6 2a d6 3c d8 f9 9f 3d 77 1e 1c bc e2 29 33 bd
       0.026143532 0.07811326 -0.009528748 -0.043741114
0003f0 65 89 23 3d c3 e7 93 3c 93 2d 7b 3b 4e e6 64 bd
       0.03992595 0.018054849 0.0038326725 -0.0558837

layers.0.phi_att.weight f4 [128, 128]
000000 d6 b0 34 bd 84 93 18 3c 64 ad 71 bd ad 74 87 3c
       -0.044113956 0.009312514 -0.05900325 0.016535128
000010 d3 4b 35 bd 95 28 e8 3b a3 b5 93 3d a4 fb 11 3d
       -0.044261765 0.007084916 0.07212379 0.035640374
000020 b4 d5 28 bc 8c 69 a6 3d 42 c6 28 3d a5 97 ba ba
       -0.010304857 0.081256 0.0412047 -0.0014235867
000030 71 c7 52 3d e0 b8 9f bd e7 07 04 3d 53 ef b4 3d
       0.051459733 -0.07798934 0.0322341 0.0883471
000040 b6 59 3a 3b 03 71 5e bd 2e 5e 3a bd b8 9f ea bc
       0.002843482 -0.054306995 -0.045499973 -0.028640613
000050 14 27 30 bd 1f 32 5b bd e7 74 9b 3c 68 09 8f 3d
       -0.043006018 -0.053514596 0.018976642 0.06984216
000060 bc d0 ac 3d 90 2b bf 39 38 a6 c4 3c 95 af 15 3c
       0.084382504 0.00036462815 0.02400504 0.0091361
000070 e0 9e 16 3d a6 e7 93 3d 16 3d e1 bd d8 40 bf bd
       0.03677261 0.07221918 -0.10997979 -0.0933854
000080 eb 27 35 3b 75 74 2e bd 03 96 cd 3c de fd 82 bd
       0.0027642201 -0.04259153 0.025095945 -0.063960776
000090 dd d1 8e bd d3 f2 79 bb 40 19 67 3b 6c 99 39 bd
       -0.06973622 -0.003813912 0.0035262853 -0.04531233
0000a0 4c 8b b6 3b e5 1a 7d bc 0a 92 09 3d 6a 33 ad 3b
       0.0055708047 -0.015448307 0.03358654 0.00528567
0000b0 66 e1 6c 3d 9d 94 44 3d 4b ea 5a bd a7 2d 3a bc
       0.057832144 0.04799329 -0.053446095 -0.011363423
0000c0 43 2f 2d 3d df 68 f1 3d eb 37 b2 bb 28 03 71 3d
       0.0422814 0.11787581 -0.005438795 0.0588409
0000d0 df b9 f6 bc a0 59 23 3c 81 bb 0d 3d c6 86 ab 3d
       -0.030117927 0.009970099 0.034602646 0.08375315
0000e0 a7 4d 04 bd d7 e9 0c bd ef 41 c5 ba bd 94 2d bd
       -0.032300618 -0.034402695 -0.0015049557 -0.042378176
0000f0 68 e1 b4 3b d9 97 36 bb 5f 12 8a 3c 27 64 55 3d
       0.0055200346 -0.0027861504 0.016854463 0.052097466
000100 72 82 44 3d 80 91 66 b9 d2 10 9e ba b3 e7 99 3d
       0.047975965 -0.00021988712 -0.0012059456 0.07514896
000110 b7 ba ac ba ed 04 ce bc 9a 30 d2 3c 52 6c a4 bd
       -0.0013178204 -0.025148833 0.02565794 -0.08028473
000120 b9 71 f8 bb 90 4a 3e bd 0a f1 54 3d b8 a3 51 3d
       -0.007581916 -0.046457827 0.051987685 0.051181525
000130 aa 82 27 3c 87 4a 05 bd d8 b7 34 bd 77 e1 66 3d
       0.010224024 -0.032541778 -0.04412064 0.056367364
000140 e7 f8 1f 3d b8 33 8b bd 0d 00 3b bd 07 e8 a1 3d
       0.03905573 -0.06796974 -0.045654345 0.07905584
000150 9a a9 9e 3d fd 9b 93 bd 2f 30 aa bb 82 cd 88 bc
       0.07747193 -0.07207487 -0.005193732 -0.016699556
000160 d9 60 a5 3d dd 31 df 3d 58 b6 c2 3d 8b 52 d5 bd
       0.08075113 0.108981825 0.095074356 -0.104161344
000170 35 af 6a 3d 47 83 8a bd 80 cd 84 bc 2c 22 5d ba
       0.057295997 -0.067633204 -0.016211271 -0.0008435573
000180 65 1c 78 3d f0 42 da 3a 13 61 9b 3c 8f 20 9b 3c
       0.060573954 0.0016652029 0.018967187 0.018936424
000190 6e 95 1d 3d 4f 69 25 bd ba 10 53 3d 2e 9a 94 bd
       0.038472585 -0.040383633 0.051529624 -0.0725597
0001a0 ee fb 96 3d be 93 ca 3c ce a4 c0 bd ba f5 ab 3c
       0.073722705 0.024728652 -0.09406434 0.020991195
0001b0 a9 07 6d 3d 68 ef 05 bd 4e 77 12 bd 7a 4d 39 3d
       0.057868633 -0.03269902 -0.03575831 0.045239903
0001c0 50 30 24 3d 13 54 9e 3b 31 16 18 bd e4 0f c1 bc
       0.040085137 0.0048318 -0.03713054 -0.023567148
0001d0 9d a7 0c 3d 2b 2f df bc fb 3b 3c bc d7 01 ae 3d
       0.034339536 -0.027244171 -0.01148891 0.08496445
0001e0 a7 72 c4 bc 51 84 05 bd 1a fc 92 3d 31 34 8b bc
       -0.023980452 -0.03259689 0.07176991 -0.01699266
0001f0 09 46 e1 3d a8 a1 8e 3d 30 0f e8 bc c3 dd 2e bd
       0.10999686 0.06964427 -0.028327554 -0.042691957
000200 0c 35 1c 3d b7 17 5f 3d d0 cb 4e 3d 42 ad 6b bd
       0.038136527 0.054465976 0.05048734 -0.05753828
000210 1e a8 80 3d 41 88 3e bc 97 f9 eb 3b 32 f9 d8 3d
       0.06282066 -0.011629165 0.0072013843 0.10594405
000220 36 d9 e4 bc 1b c0 72 bc b7 59 c4 bc 61 c5 dd 3c
       -0.027935605 -0.014816309 -0.02396856 0.027071657
000230 85 b4 c0 3d d4 c7 af bd 16 0e 8a 38 ef 29 37 3d
       0.09409431 -0.08583036 6.5829765e-05 0.044717725
000240 f9 80 b9 3d 72 7c b5 3d 87 fb 56 bd 26 89 c3 ba
       0.09057803 0.08861627 -0.05248597 -0.0014918193
000250 eb d6 2a bd 75 cd a6 3c 1c c4 85 3c fd a4 03 bd
       -0.041708868 0.020361641 0.016328864 -0.032139767
000260 08 ab 2b bd 35 f6 bf bb 69 26 b1 bc 6b 40 ae 3d
       -0.041911155 -0.0058582076 -0.02162476 0.085083805
000270 60 c4 de 3c d5 0e 40 3d 89 76 79 bc 69 96 4b bc
       0.027193248 0.046889145 -0.015226015 -0.012425997
000280 ae 00 b0 3d f4 98 8d 3d ae b0 2b bd 91 c5 c6 3c
       0.0859388 0.06913939 -0.04191654 0.024264129
000290 cc c1 05 3d 9f 61 2b 3d f4 d7 3c bd 78 5f bb 3c
       0.032655522 0.041841146 -0.046104386 0.022872671
0002a0 e9 2f ea 3c 1a c5 07 3d 09 d6 cb bd 2c 1b ca 3d
       0.028587298 0.033146955 -0.09952933 0.09868464
0002b0 c7 46 ac 3d 31 5b a2 3d 16 2f 49 3d 9d 0f 01 3d
       0.08411937 0.0792755 0.04911717 0.03150903
0002c0 53 29 fb 3c 42 df 71 3d dd 29 ab bd de 6a ff bc
       0.030659353 0.059050806 -0.08357594 -0.031178888
0002d0 6b c1 a5 3d 97 9e a4 bd e2 2c 9d bd 17 f9 e8 3b
       0.08093532 -0.08038061 -0.07674576 0.007109772
0002e0 b0 9c fe 3c 0c cb 8c bd 7f 58 de bc 17 20 8c 3d
       0.031080574 -0.068746656 -0.027141808 0.06842058
0002f0 8c 8a 2c bc 9e 17 c3 3b f8 c8 a7 3c 0a 20 b0 3d
       -0.010531079 0.005953743 0.020481572 0.08599861
000300 14 d3 8d 3c 66 19 62 bd 24 3c 37 bd 4d 71 a7 3d
       0.017312564 -0.055200003 -0.04473509 0.08175907
000310 ce 8e c4 3c 3a ce 68 bd 51 bc b3 3c 3b 4e 04 bd
       0.023993876 -0.056837298 0.021940382 -0.03230117
000320 9e d0 5f bd 55 5f 1d bc b4 43 97 bd 28 33 e4 3d
       -0.054642312 -0.009605248 -0.0738596 0.1114257
000330 42 0b b5 bd 3e b0 48 3d ae a9 17 3d c1 5a 68 3d
       -0.08840038 0.048996203 0.037027054 0.056727175
000340 17 e4 8d 3d f2 4c 3a 3c 47 99 9a 3c bc 22 cc 3d
       0.0692827 0.011370884 0.018871916 0.099675626
000350 49 3c 7e 3c c1 70 c9 3b 25 a9 75 ba 70 4b 7d 3d
       0.015517303 0.0061474745 -0.0009371213 0.06183952
000360 9d bc a0 bd cf ce 8a 3b be 9a 99 bc e7 db d8 3d
       -0.07848475 0.0042360793 -0.018750545 0.10588818
000370 99 33 f1 bb 09 cf 90 bd 72 93 ea 3d ac 8a 5e bd
       -0.0073608872 -0.07070739 0.11453904 -0.054331467
000380 52 df 2e bd 8e 41 9a bd 03 7f 70 3d 90 d1 a6 3d
       -0.042693444 -0.07532035 0.058714878 0.081454396
000390 ef 27 10 bd 37 8d 83 bd 58 7a 48 3c 32 05 69 bd
       -0.035194334 -0.06423419 0.0122362 -0.05688972
0003a0 32 54 7e bd 37 31 ab 3c 87 ad 82 bb d2 63 68 bd
       -0.062092014 0.02089749 -0.003987971 -0.05673582
0003b0 49 eb 7d bd 24 24 12 bd c3 55 50 3d 0c 13 95 bd
       -0.061991964 -0.035678998 0.05086304 -0.072790235
0003c0 77 cc 96 bc 24 18 65 bd 82 3b 8e bd 50 f1 af bd
       -0.018408043 -0.055931225 -0.06944944 -0.085909486
0003d0 41 25 00 3d 8a f0 4b 3d 35 33 b3 bc 98 b9 10 bd
       0.031285528 0.049789943 -0.021875003 -0.035333246
0003e0 26 18 ac 3d df a6 50 3d 8c 2a 96 3d 45 50 e0 bd
       0.084030434 0.05094039 0.07332334 -0.1095281
0003f0 4b 21 94 3c d8 ca dd 3c 56 82 b7 bd 51 04 8f 3d
       0.018082282 0.027074262 -0.089604065 0.06983245

layers.0.phi_att.bias f4 [128]
000000 6b a9 a0 bd ad 8c ac 3d 05 f5 95 3d 0e 1d eb bc
       -0.07844814 0.08425269 0.073221244 -0.028700378
000010 c9 ce b4 bb df eb 94 bd bd 82 04 bc 79 88 87 bd
       -0.005517815 -0.07271551 -0.008087811 -0.06617827
000020 16 84 7b 3d 50 dd 51 bd 0e 41 09 3d 91 2e 17 bc
       0.061405264 -0.05123645 0.033509307 -0.009227411
000030 08 5d a6 bd 55 bd 60 3d 1e 7a 7a 3d d3 b6 35 bc
       -0.08123213 0.05486806 0.061151616 -0.011090952
000040 1c c0 ac 3d 94 a7 9e 3d 0b 0b c8 bd f3 ba d9 3a
       0.084350795 0.07746807 -0.09767731 0.0016611501
000050 f5 b1 5a bc ad 82 8c bc cb c7 ac bd b1 85 ab 3c
       -0.013348092 -0.017152155 -0.08436545 0.020937772
000060 7c 11 2a bd 38 4e 1f bd 1a 1c 6a 3d 03 a7 b8 3c
       -0.04152058 -0.038892955 0.057155706 0.022540575
000070 71 58 1d 3d 96 1d fc bc 71 de 91 3d 88 04 07 bd
       0.038414422 -0.030775826 0.071225055 -0.032963306
000080 8c 46 6a bd fa 1e 8c 3a 21 70 04 3c da 50 9e 3d
       -0.057196185 0.0010690384 0.008083374 0.07730265
000090 3e 21 6a bd 8a a9 06 bd e8 07 82 bd db 84 b4 bc
       -0.05716061 -0.03287653 -0.06349164 -0.022036007
0000a0 bf 9a 90 3c 10 43 87 3d 69 fd b8 bc 04 c2 2c 3d
       0.017651914 0.06604588 -0.022581773 0.042177215
0000b0 1f 79 ff 3b 20 de 0a bd 51 66 c1 3c 1c eb a8 3b
       0.007796421 -0.03390324 0.023608359 0.0051549803
0000c0 d4 1e a6 3d 2f 76 a4 bc 31 61 c1 bc 46 bd 79 3d
       0.08111349 -0.020075886 -0.023605915 0.06097152
0000d0 38 66 59 3c a6 19 a0 3d 57 7f 23 3c b0 5a 30 3c
       0.013269 0.07817392 0.009979091 0.010763809
0000e0 94 b8 17 bc b6 a4 ab bb 07 da 92 bd ee ac b1 bd
       -0.009260315 -0.005238141 -0.07170492 -0.08675562
0000f0 68 79 58 bb 6f 22 c3 3d 5a 4c 7c 3d f6 db 35 3c
       -0.0033031348 0.09528052 0.061596252 0.011099806
000100 a8 b0 1a bc d9 29 8f bc 10 c6 1a bd 16 cf 9f bc
       -0.009441532 -0.01747601 -0.037786543 -0.019507926
000110 b2 84 62 3d c3 e9 b6 bd 34 dd 80 3d 90 63 05 3d
       0.05530233 -0.08931305 0.06292191 0.032565653
000120 b3 57 a0 bc aa 97 33 bd 35 08 b4 bd f9 db e3 bc
       -0.019573068 -0.04384581 -0.08790628 -0.027814852
000130 40 8e 79 b9 5c 00 10 bd 63 26 a8 bc 20 90 80 bd
       -0.00023799483 -0.035156593 -0.020526117 -0.0627749
000140 c9 1b ab 3b 15 93 0d bc c2 af e6 bb 89 f9 5a bb
       0.005221818 -0.008641024 -0.007039995 -0.0033412895
000150 9b 10 75 3d 5d 17 84 3d 22 1d 82 bd e8 73 a3 bd
       0.05983029 0.06449769 -0.06353213 -0.07981092
000160 5a 42 7d bd 24 91 9a 3d 3b fd 9a bd e8 27 58 bd
       -0.061830856 0.075472146 -0.07567831 -0.052772433
000170 71 59 3d bc 3c d5 20 bd 3b b1 8b bd 1e bd c9 3c
       -0.011556969 -0.039265856 -0.068209134 0.02462631
000180 72 f5 15 3c 5b b5 43 3d fc b0 c3 bd 80 e5 bc 3d
       0.009152757 0.047780376 -0.095552415 0.09223461
000190 02 3e b7 3d 52 18 17 bc 50 ae 4e 3c 67 73 8b bc
       0.08947374 -0.009222107 0.0126148015 -0.017022802
0001a0 14 33 b0 3b 34 a1 0c 3d c5 50 b8 3d 4e 6a 20 bd
       0.0053771827 0.034333423 0.089997806 -0.03916388
0001b0 74 9e 37 3d 7d 71 2a bd c1 3e 3e bc 96 7f 51 3d
       0.044828847 -0.041612137 -0.011611641 0.051147066
0001c0 5c 5f 82 bd 25 fb b1 bd 88 3b 4a bd 43 18 a6 3d
       -0.063658446 -0.0869048 -0.04937318 0.08110096
0001d0 f9 f9 a1 3a ee 38 80 3d 42 2a 09 3d 7e ca ad 3d
       0.0012357823 0.062608585 0.033487566 0.08485888
0001e0 32 ee 08 bd 4b d5 55 3c c6 91 c5 bb 65 e9 bc 3d
       -0.033430286 0.013051341 -0.0060293404 0.09224204
0001f0 f8 73 73 bd e5 f5 bb 3d 0a 21 83 3d d8 f9 66 3d
       -0.05943677 0.0917776 0.06402786 0.056390613

layers.0.W_p.weight f4 [128, 128]
000000 e1 52 62 3d b4 c8 a3 bd 26 fc 2a 3d c7 1f 7c 3c
       0.05525482 -0.079972655 0.041744374 0.015388436
000010 10 f1 51 bd 5c ea 7f bd 3a 46 04 bd 4d 49 62 3d
       -0.051255286 -0.062479362 -0.032293536 0.055245686
000020 72 e4 c2 bd f2 20 ad bc 39 9b f3 3c 2c 34 64 bd
       -0.09516229 -0.021133874 0.029737102 -0.055713817
000030 c9 c4 7c bd a7 cd 90 3d c1 7f c9 3d 35 71 c8 bd
       -0.061711106 0.07070475 0.0983882 -0.097872175
000040 11 b1 6a bd fc 37 fe 3c 13 ab 57 bc f0 9d 99 3c
       -0.05729777 0.031032555 -0.013163346 0.018752068
000050 72 71 06 3d 65 00 59 3d 34 52 4c ba 2f 96 a2 3b
       0.032823034 0.052978892 -0.00077942316 0.004961751
000060 37 5b 78 bd 83 7e c0 3d c4 63 b7 bd c5 33 48 3c
       -0.060633864 0.0939913 -0.08954576 0.012219374
000070 ea 19 1e bd 14 1f 02 3d 16 fa 1d bd f2 9f 21 3c
       -0.038598932 0.03176792 -0.03856858 0.009864794
000080 d8 c9 6c 3b 1a f3 a1 3d 22 a3 a4 bc 80 26 4a bc
       0.003613105 0.07907696 -0.020097319 -0.012338281
000090 c7 ee a3 3d 23 8d c9 3d f1 66 2e bd a3 c4 55 3d
       0.080045275 0.09841373 -0.04257864 0.05218948
0000a0 5a a9 93 bd 8a 5b 8f bd 27 a4 a8 3d 66 6a f8 3c
       -0.072100356 -0.069998816 0.082344346 0.030324172
0000b0 a7 a6 f6 bc c0 d2 d0 3d 83 92 44 39 95 e3 6c bc
       -0.030108763 0.10196447 0.00018746596 -0.014458557
0000c0 98 ad 33 3d 52 12 a9 bd 1d 15 ac 3d 65 c5 a1 bd
       0.043866724 -0.082554474 0.084024645 -0.07898978
0000d0 49 f9 64 bd 0a 80 36 3d 2a 0a 5e 3d 53 75 72 bd
       -0.0559018 0.0445557 0.054208912 -0.05919392
0000e0 03 13 8f 3a 5e 9c 5e 39 ca 0f f3 bc 8e ac 3e bc
       0.00109157 0.00021229821 -0.029670615 -0.01163782
0000f0 ac 3d 85 bd 6f 6f 21 bd b2 38 a2 3c f7 5d 9a bc
       -0.065059036 -0.039412912 0.019802425 -0.018843634
000100 44 43 98 bd 80 9c 22 3d 0a 65 ae bc 39 41 75 bc
       -0.07434705 0.03970003 -0.021288414 -0.014969164
000110 5f 1c 7b bd 71 52 86 bd c5 95 96 3d 3d 8e ba 3c
       -0.061306354 -0.06558693 0.07352785 0.022772903
000120 9e 40 e9 bc 26 06 e2 bb 15 7f 86 3c bc 92 c4 3d
       -0.028473195 -0.0068977056 0.01641802 0.095983
000130 8d 5a 3e 3d 72 4a 31 3c c5 30 8f 3c f6 7a d6 3c
       0.046473075 0.010820972 0.01747931 0.02618168
000140 cd 24 e0 bb be 3e a0 bc 18 04 1e 3d 7d 4b 6c 3d
       -0.0068403245 -0.019561168 0.038578123 0.05768918
000150 8b ba dc bd bd cd 08 3d 8e 47 17 bd a9 c5 09 bd
       -0.10777768 0.033399332 -0.036933474 -0.03363577
000160 31 96 b1 3c be fe a0 3d f2 c8 57 bd a9 5b 6e bd
       0.021678062 0.07861088 -0.05268187 -0.058192883
000170 9a 96 64 bd 38 e6 8d bd d6 f0 ef bc f3 5b 66 bd
       -0.055807687 -0.06928676 -0.029289644 -0.056240033
000180 6c d5 c5 3c 24 57 15 bd a9 dd a5 bd 04 4c ce bc
       0.024149619 -0.036460057 -0.08098919 -0.025182731
000190 45 17 5b bc 26 f6 9e bd 98 77 36 bd 37 a3 ad bd
       -0.013372247 -0.07761793 -0.044547647 -0.084783964
0001a0 ce 80 ca 3c cf 1c 14 bd 0e 47 cd 3a 61 af 1b bd
       0.024719622 -0.036160287 0.0015661435 -0.03800905
0001b0 b8 b0 90 bc e9 25 32 3d f6 d0 7c 3c 53 02 e1 bc
       -0.017662391 0.043493185 0.01543068 -0.027466929
0001c0 c6 85 15 3d e1 25 e1 3d e2 fb 9a 3d 5b 83 58 bd
       0.03650453 0.10993553 0.07567574 -0.052859645
0001d0 c3 01 94 3d 31 10 8a 3d 01 a0 41 bc 96 b1 19 bb
       0.072268985 0.067413695 -0.011817933 -0.0023451797
0001e0 06 3b 19 3d ec e3 5b 3a 26 be 0a 3d f5 52 b8 bd
       0.037409805 0.000838815 0.033872746 -0.09000198
0001f0 23 2b 33 3b 19 92 60 bd 55 94 95 3d 2d 28 97 3c
       0.0027338944 -0.05482683 0.07303683 0.018451774
000200 37 95 97 3d f5 8d 4a ba 02 11 8d bd d3 e2 ac 3d
       0.07401507 -0.0007726842 -0.068880096 0.08441701
000210 34 e4 e0 ba ec 31 db 3b 67 32 8a 3c d8 a9 df bc
       -0.0017157854 0.0066893008 0.016869737 -0.027302667
000220 8c f3 03 bd 45 d7 32 bc 6a 57 fe 3c 0a e7 b2 bd
       -0.032214686 -0.010915582 0.031047542 -0.087354735
000230 ed 99 04 3d 24 1d 41 bc da 0e 11 bd ad 58 34 3d
       0.032373358 -0.011786733 -0.035414554 0.04402988
000240 03 a9 ad 3c 62 99 88 3d 9a a9 27 bd 4e fa b1 3d
       0.021198755 0.066698804 -0.04093323 0.0869032
000250 1b 92 14 3d 5d 37 1b bd a7 1d 84 bd 28 fc 9e bd
       0.03627215 -0.037894595 -0.06450968 -0.07762939
000260 47 d4 2b 3d eb fa a4 bd b6 2e 31 bd 93 c4 05 3d
       0.04195049 -0.08055671 -0.043257438 0.03265817
000270 e7 6e bb bb d4 62 5a 3d 7d ed 79 bd 1c f3 7d 3d
       -0.0057200077 0.053316906 -0.061017502 0.061999425
000280 06 df 98 bd ee ca 73 3c 8d 8c a8 bd 37 cf c4 3c
       -0.07464413 0.014879925 -0.08229933 0.024024589
000290 7f eb 2f 3d 50 8b 88 3d 11 fb af bc 9d 1f 55 3c
       0.042949196 0.06667197 -0.021482022 0.0130080255
0002a0 96 d4 43 3d c3 84 67 bd 0e 7c 96 bd c7 80 b0 bd
       0.04781016 -0.056523096 -0.0734788 -0.08618312
0002b0 9b 4c 73 bc dc 3b 07 3c 9b df ac bb b4 e7 36 3d
       -0.014849807 0.008254018 -0.0052756793 0.044654563
0002c0 5e 53 6c 3d c2 cc 9e 3b f6 43 96 3d b8 0c 6b bd
       0.057696693 0.0048461864 0.07337181 -0.057385176
0002d0 35 2a fa b8 cb 3d c9 bd b0 52 4f 3d ad 1b 80 3c
       -0.000119287906 -0.09826239 0.050615966 0.015638197
0002e0 93 47 71 3d 9a cd 08 bd c2 17 3a 3c 34 74 f0 3c
       0.05890615 -0.033399202 0.011358203 0.029352285
0002f0 e1 4b 68 3c 81 25 aa bd c1 f1 bb 3c 8c b8 8d 3d
       0.014178247 -0.083079346 0.022942426 0.06919965
000300 1b ce f3 3b c5 e9 22 3d f9 30 21 3d 51 8f 9a bc
       0.007440341 0.03977372 0.039353345 -0.018867167
000310 ca 04 a1 3d d5 ca 91 bd 91 c2 63 bc 34 ff 96 bb
       0.078622416 -0.07118765 -0.013901369 -0.0046080593
000320 f7 d9 f6 bc 5d 92 47 bc 83 89 ed b8 d3 84 bc bd
       -0.03013323 -0.012180892 -0.00011326654 -0.09205022
000330 6d 50 71 bd 5f 23 9d bd f1 4c 21 bc 05 10 f0 bc
       -0.05891459 -0.07672762 -0.009845004 -0.029304514
000340 3f 2a 9f 3d 77 82 d7 3d e7 2f 98 3d e9 bd 8c 3d
       0.0777173 0.10522931 0.07431012 0.0687216
000350 bd ca a4 3c 0b e0 94 bd f2 f2 31 bd 8a 22 1f 3d
       0.020116204 -0.07269295 -0.04344458 0.0388513
000360 6d 45 a2 3d fa 1a ff bc 71 6a df 3c 8c 82 3a bc
       0.07923398 -0.031140793 0.027272435 -0.011383664
000370 18 45 e0 bb 01 30 50 3d df 3f d3 3c 91 ce af bc
       -0.006844174 0.05082703 0.025787292 -0.021460803
000380 c7 51 0c 3d 53 7d 92 bd de 8c 32 3d 48 5a 70 3d
       0.034257676 -0.0715281 0.043591373 0.05867985
000390 b6 d0 54 b9 ac 16 5b bd 4f 90 e3 bc 70 b4 28 3d
       -0.00020295646 -0.05348842 -0.027778773 0.041187704
0003a0 88 48 9b 3c a5 4d 2d bd 3d c7 91 bd 24 f9 3f b9
       0.018955484 -0.042310376 -0.0711808 -0.00018307992
0003b0 50 a8 a1 bc 23 9e 97 bc cd e4 ab bc 2d f9 37 bc
       -0.019733578 -0.018508023 -0.020983124 -0.011228842
0003c0 b9 25 b0 bd cd 9a e0 3d 78 ab ea 3b e2 a8 69 39
       -0.08600945 0.10967026 0.007161554 0.00022283525
0003d0 fb 8d 16 bd 55 d6 9d bd 3a 85 cc 3a cb 1c ca bc
       -0.036756497 -0.07706896 0.001560367 -0.024671933
0003e0 a7 59 8e 3c 59 ae 6b bd 2f 15 e7 bc 71 f4 fb bc
       0.017376734 -0.057539318 -0.028208343 -0.030756207
0003f0 6a 41 b5 3d af f0 99 3d 7d 50 2f 3d 5e 93 dd bc
       0.08850367 0.0751661 0.04280137 -0.02704781

layers.0.W_p_prime.weight f4 [128, 128]
000000 5d 64 a9 3c 93 2b 03 3d 3b c7 bf bd dc 54 fc 3c
       0.02067774 0.032023977 -0.09364172 0.030802183
000010 f9 c6 02 bc 8f 74 70 39 d0 70 84 3d d7 e8 a3 bc
       -0.007982009 0.00022931605 0.0646683 -0.020008488
000020 fd 25 dc bd fe 47 b9 bc 08 c1 8c bd 62 e4 ac bd
       -0.10749433 -0.022617336 -0.06872755 -0.08441998
000030 81 a9 76 bd 1c dc 2e bd 78 c1 54 3d 0b 75 19 3d
       -0.060220245 -0.04269038 0.05194232 0.037465136
000040 2a 40 99 3c 3a b1 ac 3d 02 3b ba bc 08 87 3d 3b
       0.018707354 0.08432241 -0.022733215 0.0028919596
000050 a8 4a 51 3c 17 e5 d5 3c 58 55 1b bd a5 c4 34 bd
       0.012774147 0.026110215 -0.037923187 -0.044132847
000060 47 ca 63 3b c8 92 1b 3d 27 0a 5a 3b ef 1a 83 3d
       0.0034758018 0.03798178 0.0033270211 0.064016216
000070 26 0f 65 3d ef 16 95 bd ca 5d 02 bd 22 11 be 3c
       0.05592265 -0.07279765 -0.031827725 0.023201529
000080 c7 9c dd b7 98 99 a1 3d 54 7f 3d bd 73 d1 8a 3b
       -2.6418258e-05 0.07890624 -0.046264008 0.004236394
000090 c2 b2 a1 bd a1 c8 86 3d 85 e9 5f 3c ef e7 b1 bc
       -0.078954235 0.06581236 0.013666515 -0.02171704
0000a0 a1 37 88 bd 3a 1d 55 3d c3 ff 99 3d 64 ef be bd
       -0.06651235 0.052029826 0.07519486 -0.09323004
0000b0 11 4a 11 bd 27 b7 31 3d f1 fa 8f bb 45 c9 12 bd
       -0.035471026 0.04338756 -0.004393928 -0.035836477
0000c0 be 6f c1 bd ed fe 95 3d 55 20 e0 3b 18 f1 0e bd
       -0.09445141 0.07324014 0.006839792 -0.034897894
0000d0 b0 aa a8 3b ae 9b 92 3d dd 01 0a 3d 7b 95 97 3d
       0.0051473007 0.071586 0.033693183 0.07401558
0000e0 8d 4a ad 3c 99 30 b6 3c 0c 9a 21 3d da cf ec 3c
       0.021153713 0.02223997 0.03945355 0.028907705
0000f0 88 22 75 3c 64 bf 06 3d 06 53 c7 3d 55 fe 57 3d
       0.014961846 0.032897368 0.09732632 0.052732784
000100 9d 43 6d bd 6a 91 8b bd 46 ea 5d bd 7b e0 a0 3d
       -0.05792581 -0.06814845 -0.0541785 0.07855316
000110 46 69 75 3c 15 63 45 bd 81 0c 73 bd 2e 76 9b bd
       0.014978712 -0.048190195 -0.059338097 -0.075909
000120 e6 7e 55 bd 0b e4 ab 3d e0 b1 5a 3d 69 22 0b 3c
       -0.052122973 0.08393105 0.05339229 0.008492091
000130 ac 3c cc 3b 10 e7 b4 3c 78 aa 9d 3d e8 5e a1 bd
       0.0062328186 0.022082835 0.0769853 -0.0787943
000140 89 12 1c 3c f1 81 28 bd 45 bf 87 3d 90 c5 7c 3b
       0.0095259035 -0.041139547 0.06628279 0.0038569905
000150 e7 e5 f0 3c b4 86 3e bc 54 6f 97 bd b3 79 9a bd
       0.029406501 -0.011628795 -0.07394281 -0.075427435
000160 43 d7 bb bd 21 3e 7a 3d 7b 79 1a bc e3 75 5f 3b
       -0.09171917 0.061094407 -0.009428377 0.0034097366
000170 9a a1 01 3d 66 66 a1 3c 44 a7 38 bd df 1a 44 3d
       0.031648256 0.019702148 -0.045081392 0.04787719
000180 51 0a 96 bd 2e 7e 04 3d 85 4c b0 3d 04 89 24 3c
       -0.073261864 0.032346897 0.08608345 0.010042433
000190 3e 70 95 bd 51 3f 33 3d 2a a3 87 3d a8 8c 68 bd
       -0.07296799 0.043761555 0.06622918 -0.056774765
0001a0 24 a9 86 bd dc 96 2d 3d 2b 2c 55 38 2d e6 81 3d
       -0.0657523 0.0423802 5.0824292e-05 0.06342731
0001b0 36 38 93 3d 1e ae c0 3b e2 9a c4 3c c0 f0 32 3b
       0.07188456 0.0058801314 0.023999635 0.0027304143
0001c0 cb 7b 3b bd 49 f7 b9 ba 21 42 17 3d aa ed ec 3c
       -0.045772355 -0.0014188077 0.0369283 0.02892192
0001d0 a2 d2 25 bd 3c 06 89 3d 80 dd b8 bc df 10 50 bd
       -0.04048408 0.06690642 -0.022566557 -0.05079734
0001e0 5c 7b 92 3d 23 4f 73 3c 3a c0 c5 bd 7f c8 75 3d
       0.07152435 0.014850411 -0.09655805 0.06000566
0001f0 ba 03 83 3d 48 bd 76 bc 67 ba 03 3d 24 94 6d bd
       0.06397195 -0.015059777 0.03216019 -0.058002606
000200 46 2f 84 bd 6b 35 54 bd 59 aa a6 3b 49 e6 48 3d
       -0.06454329 -0.051808756 0.005086225 0.049047742
000210 a5 34 10 3d 0d 52 fb bc d2 71 83 3d e3 6b 27 bd
       0.035206456 -0.030678773 0.06418194 -0.040874373
000220 68 a5 ae bd 2b db 30 3d 28 66 13 bd b4 b1 b8 3d
       -0.085276425 0.043177765 -0.035986096 0.09018269
000230 14 ba dc 3c 26 4a 8b bd bd 6f af 3d f2 68 2e 3d
       0.026944198 -0.06801252 0.08566234 0.042580552
000240 dd 84 9a bd 36 ce e0 bc c5 cb 71 3c d3 62 4e 3d
       -0.07544873 -0.027442079 0.014758055 0.050387215
000250 62 16 2e bd 09 ab b1 3c c6 98 de bc c3 c6 b0 3d
       -0.042501815 0.021688001 -0.027172457 0.08631661
000260 6e 62 3b bc 7c ab ab bc 94 ef 86 bd 7a 5b 81 3c
       -0.011437042 -0.020955794 -0.06588665 0.01579069
000270 c5 5d 4a 3d 2d 97 43 3d ad a0 53 3d 84 e1 32 3c
       0.04940583 0.047751594 0.051666904 0.010918025
000280 5d d5 9c bd 60 cd 95 bd 81 c1 d1 3c 84 20 4b 3d
       -0.07657883 -0.07314563 0.025604965 0.049591556
000290 18 53 4a 3d a0 3d 87 bd 77 2e 58 3d 4c 93 9f 3c
       0.04939565 -0.06603551 0.052778687 0.019479416
0002a0 dc 5c 51 3c 54 ff 29 3c b5 3e 7f bd f6 c0 96 bd
       0.012778487 0.010375816 -0.06231566 -0.07361023
0002b0 7c 33 28 bd 65 c5 00 3d 1c 86 23 3d f7 58 e4 bc
       -0.041064724 0.03143825 0.03992282 -0.027874453
0002c0 c5 13 64 3d cd bc f8 3c 6b 30 62 3d cb f9 82 3c
       0.055682916 0.030363465 0.055221956 0.015988251
0002d0 9e 36 19 3d 6d 66 54 3d d1 8a 1b 3d f5 05 ec 3c
       0.037405603 0.051855493 0.037974183 0.028811434
0002e0 90 10 c2 3d 4a 98 a4 bd 34 23 15 bc 53 e4 42 bd
       0.09475815 -0.08036859 -0.009102631 -0.04758103
0002f0 2f cc aa bd 03 6d 0c 3b c1 3a 72 bd 0f 46 40 ba
       -0.08339726 0.002142728 -0.059138063 -0.00073346583
000300 4d 7a 86 3d 66 86 bd 3c 3b 82 78 bd 33 03 6b 3d
       0.06566296 0.023135375 -0.060671072 0.057376098
000310 49 0b d8 bd 92 14 48 3d ab 6a a2 bd 29 c1 22 bd
       -0.105490275 0.048847742 -0.079305016 -0.039734993
000320 59 40 fe bc e9 ec 6c bd 75 c7 cb 3d 53 47 84 bc
       -0.031036543 -0.057843123 0.09950153 -0.016147291
000330 0c f8 ad 3d 99 2a ab bd aa b1 88 3d cd b8 a2 bc
       0.08494577 -0.08357734 0.06674512 -0.01986351
000340 a1 85 1b bb 97 0b 32 bc 4f ec 1c 3d 6e f1 8f 3d
       -0.0023730772 -0.010867021 0.0383113 0.07028471
000350 4f 70 65 bd e2 17 e5 bc 9b 83 8c 3c 00 85 c2 bc
       -0.05601531 -0.02796549 0.017152598 -0.02374506
000360 26 f5 ab bd ec f0 52 bd 21 bf 4f 3d d5 6a 27 bd
       -0.08396368 -0.051499292 0.050719384 -0.040873367
000370 32 ab 58 3d 00 02 8f bd 5c aa a1 3c 61 22 59 3d
       0.05289764 -0.06982803 0.019734554 0.053011302
000380 da 16 44 3d ef 07 23 3b 2b 55 4c bd 1e 76 68 bd
       0.047873355 0.0024876555 -0.04988591 -0.05675327
000390 c9 b6 c0 3b 10 31 04 3d 47 c3 1b 3c d5 e3 88 3d
       0.0058811647 0.032273352 0.009507007 0.066840805
0003a0 84 d8 1f bc a8 16 b0 3d 28 42 58 3d bb fb c6 3a
       -0.009756211 0.08598071 0.052797467 0.0015181223
0003b0 2f b2 95 bd 80 da 8d 3d 34 61 e2 3d 6a 6a ab 3d
       -0.073093764 0.06926441 0.11053696 0.08369906
0003c0 71 64 80 3b 98 05 8f 3d d6 7a bf 3d fe 74 06 3c
       0.0039182235 0.06983489 0.09349601 0.008206604
0003d0 2b 6a 3f 3d 9d 01 4f bd 90 b7 8e bd cc b6 92 3d
       0.04673211 -0.050538648 -0.069686055 0.07163772
0003e0 94 7a ad bd 19 0d 4e bd ad 2e 14 3d 08 18 ad bd
       -0.084706455 -0.05030546 0.036177326 -0.08451849
0003f0 4e 69 5a 3d a0 b0 27 3d 54 88 2b 3d 28 4d 39 bc
       0.053323083 0.040939927 0.04187806 -0.011309899

layers.0.f_def.weight f4 [1, 128]
000000 a2 5c 8b bd e2 cd 82 3d 66 eb 03 be cb 43 ec bc
       -0.06804778 0.06386925 -0.12882766 -0.02884092
000010 f4 43 2e bc 56 37 c0 3d 18 89 4f bd 81 81 fa 3c
       -0.0106363185 0.093855545 -0.050667852 0.03057933
000020 46 d4 96 bb 58 c2 63 3d d2 2d 96 3d 92 f9 36 be
       -0.0046029417 0.055605263 0.07332958 -0.17868641
000030 4e 71 df 3c 61 c0 24 3c 8d f6 57 3d b8 5f 89 3d
       0.027275708 0.010055632 0.052725364 0.0670771
000040 da f8 14 3d e9 77 1d 3e af b4 a1 bd d7 37 32 bd
       0.036370136 0.15377773 -0.07895791 -0.043510284
000050 6e 78 7b 3d ba 8b 81 3b 3f a4 1e bc fc cf e4 3d
       0.061394148 0.0039534243 -0.009682714 0.11172482
000060 67 07 e3 bd ef 22 3e bd 4d 6a 60 3d 26 2d 81 3d
       -0.11085396 -0.046420034 0.054788876 0.063074395
000070 fc 99 d2 3d 90 34 4a 3d 55 27 3b bd 7a f4 b3 3b
       0.102832764 0.049366534 -0.045691807 0.0054917904
000080 ea 3f 7a 3d 16 86 b5 bd e3 c5 fc 3d 9a bf 31 bc
       0.06109611 -0.088634655 0.123424314 -0.010848904
000090 82 85 d1 bc 09 1b e6 3c 31 59 85 bd 1e 23 8e 3d
       -0.025576357 0.028089063 -0.065111525 0.06940292
0000a0 6c 54 1b 3c 08 a7 72 bd 2e 1a 87 3d 69 e5 d5 3d
       0.009480577 -0.059241325 0.0659679 0.10444147
0000b0 2e b2 c0 bd a5 d2 eb 3c aa 3f 81 3d ee ca 37 bc
       -0.09408985 0.028786967 0.06310971 -0.011217816
0000c0 fd c7 f5 3c 00 1b 2a 3c 1a 1d ca bc 52 a3 13 ba
       0.030002588 0.010382414 -0.02467208 -0.00056319416
0000d0 f0 b6 77 bd c7 c6 76 3d 1a b3 82 3d 9a c7 d2 bb
       -0.060477197 0.060248163 0.06381817 -0.0064324858
0000e0 79 89 20 3b 8b 64 3d 3d 69 bd 86 bd 71 af 08 3d
       0.0024496003 0.046238463 -0.06579096 0.03337044
0000f0 89 2a cb 3d b3 a6 c4 3c cf 42 05 be 88 e2 5c bc
       0.09920222 0.02400527 -0.13013767 -0.013481744
000100 52 15 a7 3d d7 b2 ea 3c cf fa 43 3d 8f e3 aa 3d
       0.081583634 0.02864973 0.04784661 0.083441846
000110 67 0c be bc 41 22 b0 3c 89 cb ce bb 5b ad c1 3b
       -0.023199273 0.021500709 -0.0063108844 0.005910558
000120 c0 a1 d2 3d 0b 53 23 3d 53 20 9f 3d 76 79 f5 3b
       0.102847576 0.039874118 0.07769837 0.007491286
000130 26 09 12 3d 0e 58 24 bc 28 81 37 bd 1e 5b eb 3d
       0.035653256 -0.0100307595 -0.044800907 0.114919886
000140 ea e7 ef 3b e3 91 c1 3b 16 79 a7 3d 6d 4c 84 3d
       0.0073213475 0.0059072836 0.08177392 0.064598896
000150 f8 64 c5 3d b5 e6 b1 3d 3b 42 5f 3c cd 92 be 3c
       0.09638399 0.08686582 0.01362663 0.02326336
000160 67 fe cd bd 2f 93 89 bd c6 fd 89 bc 34 1c b1 3d
       -0.10058289 -0.06717526 -0.016844641 0.086479574
000170 8d fd b5 bd ef 94 82 bd aa c4 78 bd 93 8d 83 3d
       -0.088862516 -0.06376063 -0.06073443 0.064234875
000180 a3 e4 75 bc f8 d7 a8 3d 53 aa c6 ba cf d0 24 3c
       -0.0150081245 0.08244318 -0.0015156962 0.0100595495
000190 31 45 5e 3c 1e c1 a1 3d f5 19 f6 ba 52 d2 75 3d
       0.013566301 0.07898162 -0.0018776046 0.06001503
0001a0 3b a4 ba 3d a7 b6 ca bc 3b b5 87 3c 5c 73 ff bd
       0.09113356 -0.024745299 0.01656591 -0.12473175
0001b0 00 2a 34 3d 12 e0 af 3c 6c 91 42 3d a4 11 98 bd
       0.043985367 0.02146915 0.047501966 -0.0742524
0001c0 79 16 08 bd 9f 95 8a 3d b4 1d 91 bd f6 52 43 bd
       -0.033224557 0.06766819 -0.070857435 -0.04768654
0001d0 08 38 0b be b5 81 02 bd 08 1d 72 3d c8 bd 21 bc
       -0.13595593 -0.03186198 0.059109718 -0.0098719075
0001e0 aa 62 c0 3d c2 6f 8e 3b c1 95 18 bd df 1e a1 bc
       0.09393819 0.0043468187 -0.03725219 -0.01966804
0001f0 a7 ae 45 bc 1f 8a 94 bd ee dd 35 3c db a3 de 3a
       -0.012065566 -0.07252907 0.011100275 0.0016986089
