checkpoints/ablations/refined_ablation_no_residual.pth (torch, 889521 bytes, 36 tensors)

input_norm.weight f4 [7]
000000 d9 61 72 3f 1c 9b 52 3f 90 e9 6a 3f 2d 20 76 3f
       0.94680554 0.8226793 0.9176264 0.96142846
000010 e0 38 77 3f 54 44 84 3f e6 cc 86 3f
       0.9657116 1.0333352 1.053128

input_norm.bias f4 [7]
000000 64 dc 14 3d 47 94 89 bc 51 12 8d 3a 98 69 0a 3b
       0.036342993 -0.016794337 0.0010762905 0.0021120068
000010 57 bf 73 bc ab e8 3d bb b1 da 1a bd
       -0.014877162 -0.0028977792 -0.037806217

layers.0.embed.weight f4 [128, 7]
000000 32 16 2d bd ea 8d 47 be 8f 6e ab be 08 dd 40 3d
       -0.042257495 -0.1948773 -0.33482787 0.04708579
000010 e5 e5 86 3b 8c 3a d1 3e a4 df a1 be 9f 6a 14 3d
       0.004116761 0.4086498 -0.31615937 0.036234494
000020 43 eb 84 be b9 d2 12 be 7e b0 be 3d 2e cb 9d 3e
       -0.2596074 -0.14338197 0.09311007 0.30819076
000030 39 a5 89 3e 9e 4a bf be 5e 61 b4 be ea 02 36 be
       0.26883867 -0.37361616 -0.35230535 -0.17774549
000040 e6 55 01 be f1 0c 8e bc 9f 64 85 3e 7b b3 54 be
       -0.12630424 -0.017340155 0.2605333 -0.20771591
000050 de 20 06 3e 33 0c 79 3e a7 67 82 3e ed 97 53 3e
       0.13098475 0.2432106 0.25469705 0.20663424
000060 60 40 13 3e 71 8c 50 3e c8 25 32 be 4a 64 96 bd
       0.14380026 0.20366074 -0.17397225 -0.07343347
000070 c0 99 a2 be 47 75 a6 3d 03 94 82 be 6c e6 82 3e
       -0.31757927 0.08127838 -0.2550355 0.25566423
000080 60 46 97 be f8 8c af bb 68 8e 85 3b 7a 47 95 3e
       -0.2954588 -0.005357381 0.004075814 0.29156095
000090 7b 03 01 3e 4b a5 96 bd 58 31 85 be 62 93 89 3e
       0.12598984 -0.07355746 -0.2601421 0.26870257
0000a0 1d 40 33 be 6b 51 b6 3e 83 0e a7 3d 21 fb 23 be
       -0.17504926 0.35608992 0.08157065 -0.16013767
0000b0 a4 14 99 be 9a a7 9b 3e ef e4 ad 3e 60 80 16 3c
       -0.2989856 0.30401307 0.33963725 0.00918588
0000c0 6e f4 b0 be e9 a5 de 3c 21 bf 3a 3e 5b 69 35 bd
       -0.34561485 0.027178722 0.18236972 -0.044289928
0000d0 fc 18 90 3e ea e4 82 be 39 5b 46 3e d2 fe cb 3e
       0.28144062 -0.25565273 0.19370736 0.3984285
0000e0 88 ee 6c bd cf 44 aa be 79 00 3e 3e e1 e5 0f 3e
       -0.05784467 -0.33255622 0.18554868 0.14052536
0000f0 fd 42 78 be 49 2f a4 3e dd e8 10 bd 32 f7 b4 be
       -0.24244304 0.32067326 -0.035378326 -0.35344845
000100 d3 6e 1f be 50 a0 ac 3e 2c bb ad bd 47 b1 81 be
       -0.1556962 0.3371606 -0.08482966 -0.25330564
000110 84 41 7b be 26 8a b1 bd b2 8d 82 be 4a c8 a0 3e
       -0.24536711 -0.08668928 -0.2549873 0.31402808
000120 51 12 39 bc e1 ac 65 3e a4 30 7d be 78 22 86 be
       -0.011295871 0.2242923 -0.24725586 -0.26198173
000130 f8 ad cc bc 95 da 36 3d 98 2f 90 3d d9 18 ad 3c
       -0.024985299 0.04464205 0.07040328 0.021130012
000140 8a fc 92 3d 9b 4b 65 3e e7 66 87 3e c0 7a fb 3d
       0.07177074 0.22392122 0.26445696 0.12279272
000150 7b f3 af 3d 2c 8e c8 3d cf 08 88 be 6a d7 ec bc
       0.08591362 0.09792742 -0.2656922 -0.028911311
000160 c1 45 cf 3d 0b 6a 8f 3d c8 7f 84 3e e9 2e 3e 3e
       0.101207264 0.07002648 0.2587874 0.18572582
000170 ca 90 34 3e 5f 15 c2 bd 39 ce b3 3d b3 8d 55 bd
       0.17633358 -0.094767325 0.08779568 -0.052137088
000180 58 08 4b be 91 fa ca bd 90 f0 96 3e 69 fe 7f bd
       -0.19827402 -0.09911073 0.2948041 -0.062498484
000190 16 ac 53 3d 35 84 56 be 8a d9 a8 3e 3f cd 19 3e
       0.051677786 -0.2094887 0.3297847 0.15019701
0001a0 c0 ab 10 3e 1a ca a2 3e c9 c7 50 be ea 57 d1 3d
       0.14128017 0.31794816 -0.20388712 0.102218464
0001b0 a2 f4 b2 bd 5d 74 03 3e 63 38 c4 bd 89 6b a0 3e
       -0.08738066 0.12837358 -0.095810674 0.31332043
0001c0 49 43 fc 3d fd 34 69 3e 7d 07 9f 3e 24 af 49 bd
       0.12317521 0.2277412 0.310604 -0.049239293
0001d0 27 11 96 bd b2 ba 8c 3e ee 8a af 3e cc bf b4 be
       -0.0732749 0.27486187 0.34285682 -0.3530258
0001e0 7a 9b 15 3e 36 da b6 3e 61 93 5f 3d 4a e5 9d 3d
       0.14610091 0.35713357 0.05458391 0.07709749
0001f0 96 db 8e 3e 41 52 0f be 51 bb f0 bd 85 f8 97 3c
       0.27901906 -0.13996221 -0.11754478 0.01855112
000200 03 80 f2 bd ad 50 8c 3d 69 d3 1d be 24 96 d2 be
       -0.118408225 0.06851325 -0.15412678 -0.41130173
000210 c0 b5 48 3d bd ea 22 bc 6f 3b 0b 3d 95 55 50 be
       0.049001455 -0.009943661 0.033992227 -0.20345147
000220 e0 41 8a 3e 06 14 ee 3d ea 4a 63 3e 8a e4 08 3e
       0.27003384 0.11624913 0.22196546 0.1336843
000230 f1 47 ba be 38 49 3f 3e b8 3c 58 3e fd 4b bf 3d
       -0.36383012 0.18680274 0.21116912 0.093406655
000240 8e 38 b9 be e9 2c 09 3e 63 d3 c4 be cd f2 c6 bd
       -0.3617596 0.13396038 -0.38442525 -0.09714279
000250 f8 af 13 3e 74 b8 42 be 0f 0e b9 3e c7 d3 ad bd
       0.14422596 -0.19015676 0.36143538 -0.08487659
000260 17 65 c2 3d 04 b4 8a 3e 83 10 d8 3d 4a d8 96 3e
       0.094919376 0.27090466 0.10550024 0.2946189
000270 d9 54 1b bd 57 d4 9f 3e f9 44 9d bd a1 36 7c bd
       -0.037922714 0.3121669 -0.07679171 -0.061575536
000280 f5 88 63 3e 65 b2 47 3e ad e1 fa bd 9b 11 7a 3e
       0.22220214 0.19501646 -0.122500755 0.24420778
000290 87 f2 8f 3e de eb bb be ed 27 60 3e eb 9d 80 be
       0.2811472 -0.3670339 0.2189023 -0.25120482
0002a0 f9 05 76 3e 81 d1 38 3e 4b 51 4a 3e dd c1 9f be
       0.24025716 0.1804867 0.19757573 -0.31202593
0002b0 86 bb 52 3e 91 2b b5 3e 79 c8 8a be 17 93 08 bd
       0.20579347 0.353848 -0.27106073 -0.0333434
0002c0 ce 86 55 3e e2 9d 7d 3d 92 be 95 3d e3 9f 5d be
       0.20852205 0.061918147 0.07311739 -0.21643023
0002d0 7f 70 3f bc b8 d4 93 be f9 4b 75 3e 77 f2 72 bd
       -0.011684536 -0.2887323 0.23954763 -0.059313264
0002e0 65 bc b1 be 29 4b b9 3e 6f 0e 66 bd f5 20 1e be
       -0.34714046 0.36190155 -0.05616611 -0.1544226
0002f0 52 e4 9d 3e f5 ea 09 be 9a 92 10 be 4c ae 1f be
       0.30838257 -0.13468535 -0.14118424 -0.15593833
000300 9f b9 3c 3e 69 d7 58 3e 1d f7 00 be 5c ee 84 3d
       0.18430184 0.21175922 -0.12594266 0.06490776
000310 55 70 5f 3e 07 0c 36 be ba 40 50 3d ee f1 b4 be
       0.21820195 -0.17778026 0.050842978 -0.35340828
000320 01 bc 63 3e 30 bc 10 be f7 7e 02 bd fc a5 2c 3e
       0.22239687 -0.14134288 -0.031859364 0.16860193
000330 2d 42 81 be 3c 00 00 be 0c df 36 be 89 ca 65 be
       -0.252458 -0.1250009 -0.17858523 -0.22440542
000340 ff 03 8e 3e e8 d9 ac 3b d1 08 b0 be a5 2b 2c 3e
       0.27737424 0.005275 -0.34381726 0.16813524
000350 1c fb 87 be 9c 5c fd 3d 28 c4 9c 3e 89 8a 79 be
       -0.2655877 0.123711795 0.30618405 -0.24369253
000360 87 cc 9c 3e a0 3f ac 3e 66 e7 97 be 81 95 0c 3d
       0.30624792 0.33642292 -0.2966873 0.034322266
000370 54 9e 6a 3e 2e da b4 be ed d2 8b 3e 10 05 89 bd
       0.2291196 -0.35322708 0.2730936 -0.06690419
000380 e1 6a 3a 3e 37 fd 95 be 20 69 70 3e e3 6b a6 be
       0.18204834 -0.2929475 0.23477602 -0.32504186
000390 fa d4 77 3e cf b9 57 be 18 72 af 3d 6a f9 2c bd
       0.24202338 -0.21066974 0.085666835 -0.042230047
0003a0 ba 91 33 3d b2 47 3f bd 54 e2 b2 3d 66 d6 bb 3c
       0.043840148 -0.046699233 0.08734575 0.022929382
0003b0 99 bc 89 bd 80 e5 a8 3e 4c 46 59 3e 26 bc c1 3d
       -0.06725425 0.32987595 0.21218222 0.094597146
0003c0 23 68 b0 be b5 ca 40 bd bb 3f 75 bc a1 2d ab 3e
       -0.3445445 -0.047068316 -0.014968808 0.3343325
0003d0 5b ea ba be 95 79 b9 3e a0 be d0 3d 25 ab bb be
       -0.36506924 0.36225572 0.10192609 -0.3665401
0003e0 67 ee 3a be cb a3 84 be 59 b8 8c 3d c7 4f 62 3e
       -0.18255006 -0.25906214 0.06871099 0.22100745
0003f0 e8 14 26 bd 15 4b 6d 3e 11 a7 0d be ef c2 52 be
       -0.04054728 0.23173173 -0.13833262 -0.20582174

layers.0.embed.bias f4 [128]
000000 8e ea 54 be 04 1a 2a bc f4 85 4d 3e 6d 58 94 be
       -0.207926 -0.010382179 0.2007063 -0.28973714
000010 7b 22 56 be 62 20 29 3e 0d 30 57 3e f3 1b 47 3e
       -0.20911591 0.1651626 0.21014424 0.19444256
000020 83 e7 81 3c 31 43 9f be 68 46 54 3e 96 bf b4 be
       0.015857464 -0.3110595 0.20729983 -0.35302418
000030 65 38 a9 3e 49 46 07 be 57 8f 46 3e ba 2b 81 be
       0.33050838 -0.13210405 0.19390617 -0.25228673
000040 28 1f 20 3c e2 7c ed 3d ba 74 af 3e 78 31 2a be
       0.009773053 0.11596085 0.34268743 -0.16620433
000050 46 b7 c0 bd 3e 6c 16 3e 00 eb 68 3e ee 5e a6 3e
       -0.09409957 0.14689729 0.22745895 0.324943
000060 b5 c8 c6 bc 42 79 a5 3e a0 b9 bc 3e e4 49 7d 3e
       -0.024265626 0.32319075 0.3686037 0.24735218
000070 b1 b3 df bd 8f 39 98 be d8 87 1b be 51 ac 62 be
       -0.10922945 -0.29731414 -0.15188539 -0.22136046
000080 33 ac 21 3e 06 58 4b be af 0e 1b be b7 c6 20 bd
       0.15788345 -0.19857797 -0.1514232 -0.03925201
000090 19 fa ee 3c b2 cd e9 bc f6 38 11 bd 16 5d 2a 3c
       0.02917199 -0.028540466 -0.035454713 0.01039817
0000a0 43 29 b2 be ed 91 c1 be 74 68 d6 3d 36 2c 28 3e
       -0.34797105 -0.37806645 0.104691416 0.16423115
0000b0 64 9a a2 3e 8f 23 b7 be 55 93 17 be 53 e7 9a bd
       0.31758416 -0.35769317 -0.14802296 -0.07563653
0000c0 8f 4d 16 be 55 6e 41 3e c1 f7 33 3e ff 28 9d 3e
       -0.14678024 0.18889745 0.1757498 0.3069534
0000d0 f3 d8 89 3e e0 e6 9a be 74 97 85 be a7 9a 12 be
       0.26923332 -0.3025427 -0.26092112 -0.14316808
0000e0 57 5b 35 be a4 87 ae 3e 2e 46 86 3d f8 48 ce 3d
       -0.17710625 0.3408786 0.065563545 0.100725114
0000f0 f8 28 6c 3e f0 4e 17 be 5e 3d 56 3d f9 e8 0d be
       0.23062503 -0.14776206 0.052304618 -0.13858403
000100 6b f2 39 be 81 87 8a 3e d6 53 96 3e f6 1f a3 3e
       -0.18158881 0.27056506 0.29360837 0.31860322
000110 5b a5 77 3e 3c 06 5d be 48 47 9e be bc 44 1b 3d
       0.24184172 -0.2158441 -0.30913758 0.037907347
000120 25 bc 05 be 8f 71 e0 3b fa a3 82 bd e9 eb d2 3d
       -0.13060053 0.0068494747 -0.06378932 0.102989025
000130 5a 4d 0b bd 61 61 ae be fa fc ee 3c 8b 46 83 3e
       -0.034009315 -0.3405867 0.029173363 0.25639758
000140 4f 99 0e be b9 6d 00 be f6 b5 98 be 34 6a 8e bd
       -0.1392567 -0.12541856 -0.29826325 -0.069538504
000150 1d d8 33 3e e1 11 71 3e 2c d2 a2 be 77 1f 2a 3e
       0.1756291 0.23541977 -0.31800973 0.16613565
000160 61 10 4d be a0 2f 5e be 18 40 99 3e df 85 a7 be
       -0.2002578 -0.21697855 0.29931712 -0.32719323
000170 42 11 51 3e 94 18 54 be 00 21 be 3e c5 9d de bd
       0.2041674 -0.20712501 0.37134552 -0.10869936
000180 af 75 84 be a2 73 d7 3d 19 7f 82 3e f5 00 97 3e
       -0.25871035 0.10520102 0.25487593 0.29492918
000190 86 38 a2 3e 92 c7 ad be 3b d2 eb 3b 0e 6b e2 3c
       0.3168375 -0.33941323 0.0071966923 0.027638938
0001a0 4c 78 7b 3d 13 d5 4a be f7 9f 21 3e 41 95 fa 3d
       0.06139402 -0.19807844 0.15783678 0.12235499
0001b0 e4 26 a6 3d d5 39 ef bd 9c 71 ec 3d bc bb 05 3e
       0.081128865 -0.116809525 0.11545107 0.13059896
0001c0 07 28 18 bd 16 a5 02 3e e1 b3 0c be 57 ac c3 be
       -0.037147548 0.12758288 -0.13740493 -0.38217422
0001d0 1b 64 c5 be 82 bf b1 be a2 9c 62 be a5 fe 62 be
       -0.38552937 -0.3471642 -0.22130063 -0.22167452
0001e0 f7 76 e4 bd c2 76 95 bd 65 af e4 3c 05 03 7e be
       -0.11155503 -0.07298042 0.027915666 -0.2480584
0001f0 fc 0c 1a 3e 43 70 ca be 67 92 80 be 77 b9 ae 3e
       0.15044016 -0.39538774 -0.25111696 0.34125873

layers.0.W_att.weight f4 [128, 128]
000000 54 9f 9e 3d c6 22 0a 3d af 75 79 bd 43 3d 53 bd
       0.07745233 0.03372457 -0.060903247 -0.051572096
000010 2b 48 ac 3d 5c 73 ba bd 63 32 b7 3a 90 e3 1f 3d
       0.084122024 -0.09104034 0.0013976808 0.03903538
000020 33 71 4e bc 70 b8 e2 3c 8b 70 32 3c 98 a2 ed bc
       -0.012600231 0.027675837 0.01089109 -0.029008195
000030 79 18 9e bc f3 13 80 bd de cb f4 bb 25 75 97 3c
       -0.019298779 -0.06253805 -0.007470592 0.018488476
000040 fb 8f 11 bc 77 15 b6 3c ba 17 af 3c 41 7f 68 3d
       -0.008884425 0.022227032 0.021373618 0.056761984
000050 c2 4a 06 3d a8 ac dc bb ac 97 14 3a ac 98 01 bd
       0.03278614 -0.0067344494 0.0005668353 -0.03163974
000060 50 ba 4b 3d ce 89 5e 3d 95 38 2f bd 9b b4 34 bc
       0.04973823 0.05433064 -0.04277857 -0.011029388
000070 62 2d 88 bd 71 ba b4 3c 5d ea a1 3c 14 74 16 bc
       -0.06649281 0.022061558 0.019765073 -0.009182949
000080 a5 8e 53 bd c8 5b fa 3c 15 0a 7e bb 51 d1 04 bd
       -0.05164971 0.030561343 -0.0038763334 -0.032426182
000090 3f 62 91 bd 0c 4e 92 3d a5 87 69 bd 73 7c 9c 3d
       -0.07098817 0.071437925 -0.057014126 0.07640924
0000a0 ec 2b 5f 3d 3d 51 80 bc 39 d4 de 3c 0d 13 bc 3d
       0.054485247 -0.015663737 0.027200805 0.09183321
0000b0 04 f3 2c 3d da 9e b7 bc 29 01 87 3d 04 ab e0 3c
       0.042223945 -0.022414614 0.06592018 0.027425297
0000c0 27 3b be bd 50 4f 9c 3d 9e ee 55 3d 8d 98 8e bd
       -0.09288626 0.07632315 0.052229516 -0.069626905
0000d0 83 79 03 3d c9 ed 28 bd 25 c8 b1 bd ca cf f7 bc
       0.032098304 -0.041242395 -0.08680753 -0.030250449
0000e0 10 70 ad bc d2 27 12 bd 79 c2 48 bd 52 6d ae 3c
       -0.0211716 -0.035682507 -0.04901359 0.021292362
0000f0 f2 f2 7f 3d 66 f2 82 3d d9 7b 75 3d de 13 bb 3d
       0.06248755 0.0639389 0.059932563 0.09134649
000100 43 e2 61 3d a4 80 18 bd c4 62 5f bd 60 c5 3b 3c
       0.05514742 -0.037232056 -0.05453755 0.011460632
000110 b1 e6 9b bc 3d 04 7b bd 91 d4 0f 3c 01 ca 95 bd
       -0.0190309 -0.06128334 0.008778707 -0.0731392
000120 6c 1e f6 bc 77 89 80 3d 71 84 3c 3d 60 02 c4 bd
       -0.030043803 0.06276219 0.046024743 -0.095707655
000130 f3 31 78 bd 9b c6 d8 bd c8 3d 42 bd a4 33 1e 3d
       -0.06059451 -0.10584756 -0.0474222 0.038623467
000140 0c c7 7b 3d 4c 71 3a 3d 48 b2 ad 3c 65 66 7c 3d
       0.061469123 0.045518205 0.021203175 0.06162109
000150 35 6a ef 3c 96 3a 36 3d 6d 95 6c 3d 72 ef 45 3d
       0.029225448 0.044489466 0.05775969 0.048324056
000160 61 c8 9e 3d 67 b6 bb bd 68 9e 32 bc 19 0b cd 3c
       0.07753063 -0.0916565 -0.010902025 0.025029706
000170 e2 47 9f bd 18 03 87 bd 31 0a b2 bd 63 4b 0a bd
       -0.077773824 -0.06592387 -0.0869335 -0.0337633
000180 0a c2 ae 3b c8 a0 83 bd 05 38 ef bc c2 5f a2 3d
       0.00533319 -0.06427151 -0.029201517 0.079284206
000190 79 8b 55 3d 84 d7 9c bd 63 61 88 3d 75 d8 0d 3c
       0.052134965 -0.07658294 0.066592 0.008657564
0001a0 49 f7 39 3b a2 5c ca 3d 4c 46 60 3d 18 ae 71 bd
       0.0028376153 0.098809496 0.05475454 -0.05900392
0001b0 22 5c 8c 3c 96 65 9b 3d 92 5d 8e bd f2 cc 67 3c
       0.017133776 0.07587735 -0.06951441 0.014147984
0001c0 e3 64 5b bc 6c ee 9d bc 57 9b 5c 3d 2c 08 8b 3d
       -0.0133907525 -0.019278727 0.05385908 0.06788668
0001d0 78 5a ad bd e4 67 69 3c df a9 07 bd 70 fa ec 3c
       -0.08464521 0.014245961 -0.033120986 0.028928012
0001e0 dc b7 76 bc 2a b2 41 bb 9b 64 a2 3d be 3e 3e 3d
       -0.015058484 -0.0029555657 0.07929345 0.046446554
0001f0 31 da c4 3d b7 1d 85 bc c4 a7 89 bd c6 bb 79 bc
       0.09611929 -0.01624952 -0.06721452 -0.015242523
000200 9c 50 56 3d c7 10 cb 3c 3a 00 47 3d 02 cb bc bd
       0.05232297 0.024788273 0.0485842 -0.09218408
000210 37 60 94 3d 9a 7b 82 bd 27 d5 a1 3d 05 1e 62 3d
       0.07244914 -0.063712314 0.07901984 0.05520441
000220 8b 70 9f bd cc 5f 92 bd 8b 9b 6a 3d 2c 57 b9 bd
       -0.07785138 -0.07147178 0.057277244 -0.0904983
000230 bb 21 98 bd 6d e8 23 3c 7c a0 c6 3c c0 e4 51 3d
       -0.074283086 0.010004145 0.024246447 0.051243544
000240 22 32 75 3d 1b ee 95 bd c5 ee dd bb c0 b9 64 bd
       0.059862264 -0.07320806 -0.0067728483 -0.055841208
000250 6a c7 67 3d f8 5a b3 3d df 2d dc 3c de 78 83 3d
       0.05658666 0.08757585 0.026877342 0.06419538
000260 d7 be 4e 3d df fa 09 bd 9e 87 9f 3c 77 c6 e4 3c
       0.050474968 -0.033686515 0.019473847 0.027926667
000270 7e 1c 0c 3c 33 bc 73 3d 3f fd b1 3b 8b 2d 80 3d
       0.008551715 0.059505653 0.0054318006 0.06258687
000280 f6 c8 72 bd d5 c9 95 3c 62 be 8a 3c 5c e4 c0 3d
       -0.059273683 0.018284718 0.016936485 0.09418556
000290 c2 b7 d5 3c 2b 47 a4 3d 6e 01 67 bd 38 76 03 3c
       0.0260886 0.08021387 -0.056397848 0.008023791
0002a0 f6 ed 82 3d 74 52 ab bd 33 a7 87 3c 93 85 1c 3a
       0.06393044 -0.08365336 0.016559219 0.0005970832
0002b0 5a b6 5e bd 4f c3 50 3d 75 c6 53 3d 1c 0e ad bd
       -0.054373123 0.05096751 0.051702935 -0.08449957
0002c0 4e f2 52 3d 9b 3a ce 3c 22 60 58 bd 18 91 35 3d
       0.05150061 0.02517443 -0.052826054 0.044327825
0002d0 b8 92 98 bd c6 8e 60 bd 71 ee 45 3d ce b9 93 bd
       -0.074498594 -0.05482366 0.0483231 -0.07213174
0002e0 84 04 c5 3d b4 92 86 bd 85 d5 6e 3d 60 fd a4 bd
       0.09620002 -0.0657095 0.058309097 -0.0805614
0002f0 4c e0 75 bd 6f e7 66 3c 0a bb 94 bd 30 92 37 bd
       -0.06002836 0.014093264 -0.07262237 -0.04481715
000300 68 2c 0d 3d 03 70 23 bd 8a c1 98 bd a3 8d b3 bb
       0.034466177 -0.039901745 -0.0745879 -0.005479531
000310 06 d0 07 3d 35 b6 3d 3d bc ba 8b 3d 0d 87 54 3d
       0.03315737 0.046316344 0.06822726 0.051886607
000320 5c d9 af bd 0b bd 75 bd 8e 05 10 bc c5 7c 66 3d
       -0.0858638 -0.05999474 -0.008790387 0.056271333
000330 29 b0 91 ba 25 c7 0e 3d f6 96 fd bc 08 23 b7 bc
       -0.0011115122 0.034857888 -0.030955773 -0.022355571
000340 06 9c 9c bd 3f 07 8f bd eb 57 48 bd 70 ee 41 3d
       -0.076469466 -0.06983804 -0.04891197 0.047346532
000350 21 78 52 bd 7d 09 89 3d 44 0a 88 3d 82 fc 1b 3d
       -0.051384095 0.06691263 0.06642583 0.038082607
000360 1a 24 38 3d 43 fa c0 bb bd ee 04 3b 4b 68 8c 3c
       0.044956304 -0.0058892085 0.00202839 0.017139575
000370 e0 72 61 3d 38 2f 3c 3d 40 4c 64 3d 06 ea 82 bd
       0.055041194 0.04594347 0.05573678 -0.06392293
000380 c6 ba 8f bd 3e 90 9c 3d 41 4d 60 3d d0 16 24 3d
       -0.07018046 0.076446995 0.054761175 0.04006082
000390 27 36 43 bd 39 e5 bb bd ca 81 94 3d 0e de 73 bd
       -0.047659066 -0.0917458 0.07251318 -0.05953794
0003a0 50 6a a8 bd 0f 30 bb bd f6 70 8f bb 1b 21 cc 3a
       -0.082234025 -0.09140026 -0.0043774797 0.0015573831
0003b0 5d f1 8e 3d dd f8 82 bd f8 bd 48 bd 4e 27 5e 3d
       0.0697963 -0.06395123 -0.049009293 0.054236703
0003c0 c0 b1 9f bd 30 ce f8 bc b3 31 55 bd 60 71 85 bb
       -0.07797575 -0.030371755 -0.05204935 -0.0040723532
0003d0 17 72 ee bc 42 5a 0d 3d 5d 52 9a bb 20 f9 d7 bc
       -0.029107137 0.034509905 -0.0047095255 -0.02636391
0003e0 b7 12 4e bd e7 95 f2 38 cc 14 82 bc 3e 08 88 bd
       -0.050310817 0.00011567381 -0.015879057 -0.06642197
0003f0 e4 f4 bc 3d 11 6b 9a bc 1a da b2 3c 6b 19 43 bd
       0.09226397 -0.018849881 0.021832515 -0.047631662

layers.0.phi_att.weight f4 [128, 128]
000000 8d fa 8c bd 8e 82 e1 bc b8 04 a8 3d 33 8d 20 bd
       -0.06883726 -0.027528074 0.08204025 -0.039197158
000010 d8 3c 98 3d 5e 2a 47 bc e8 7b 23 bd 41 01 68 3d
       0.0743348 -0.012156097 -0.039913088 0.05664182
000020 da 9d 84 3d 03 73 aa 3d 07 25 05 3d 58 a5 e3 bc
       0.0647542 0.08322718 0.032506015 -0.027788803
000030 0e 28 54 bd ff ff 92 3d d9 8b 95 bd 63 02 93 bd
       -0.05179601 0.07177734 -0.073020644 -0.071781896
000040 ab 9c a9 bd f6 be d0 bc cd 28 16 3d 42 57 ad 3d
       -0.08281835 -0.025481682 0.036660004 0.08463909
000050 03 dd 43 bd cd e1 06 bd 19 2d 8d bd 99 07 99 bc
       -0.047818195 -0.032930184 -0.06893367 -0.01868038
000060 09 f5 6b bd 83 7a 0f bd c3 2c df 3d dc 26 f1 3d
       -0.05760673 -0.035028946 0.108972095 0.1177499
000070 b1 bc 49 bd b9 92 3d 3d 55 87 e0 3d db f8 42 3c
       -0.049252216 0.046282504 0.109633125 0.011900152
000080 f4 3b 33 bd 01 18 06 3e 92 44 07 be fb 86 16 3d
       -0.043758348 0.13095094 -0.13209751 0.03674982
000090 65 54 a6 bd 4c 70 81 3d 19 3f 05 bd bc 42 ac 3d
       -0.08121566 0.06320247 -0.032530878 0.08411166
0000a0 29 fe 1a 3d 15 23 52 3d d7 ba ac bc eb 28 fd bb
       0.037840042 0.051302988 -0.021085186 -0.007725825
0000b0 4b 0b e6 bd 1f 45 b3 bd e3 58 e6 3c 6c be 57 bd
       -0.11232623 -0.08753418 0.028118556 -0.052671835
0000c0 c7 c8 1e bd 14 96 a7 3c 2b a6 91 3d b5 67 eb 3c
       -0.038765695 0.020457305 0.07111772 0.028735975
0000d0 8c 9d 33 3d 1b 28 33 bd 0e 8f 82 3d f1 a0 8c 3d
       0.04385142 -0.04373942 0.06374942 0.06866635
0000e0 bc b3 57 3c 86 a2 7e 3d 9e 92 44 bd ef e5 6e 3c
       0.013165411 0.062166713 -0.047991388 0.014581188
0000f0 49 aa 64 3d 7a 93 f7 3c f7 18 67 3d d8 5e 5f 3d
       0.05582646 0.03022169 0.056420293 0.05453381
000100 d6 a5 9b 3d 93 a8 3d 3d 8b 4e e3 3c 04 b9 37 bd
       0.0759999 0.046303343 0.027747413 -0.04485418
000110 fc c4 9d 3d 44 3b d0 bd 8f 22 60 bc a5 b3 d1 3d
       0.077035874 -0.10167554 -0.013680114 0.102393426
000120 69 3a 9c 3c d0 5a 23 3d b3 27 73 3d 2a e1 c9 bc
       0.01907082 0.039881527 0.059364032 -0.0246435
000130 8d b2 a3 3d ec c8 71 bc 61 7d 5f bd 7d a2 4f bb
       0.0799304 -0.014757376 -0.05456293 -0.0031682544
000140 1a 97 d2 bb b2 09 0d 3d 16 c8 87 3d 89 b1 0f 3d
       -0.006426704 0.034433074 0.0662996 0.03508142
000150 12 b3 0a be c7 75 8d 3c 87 6e b9 3c df 64 7c 3b
       -0.13544872 0.017268075 0.022635711 0.0038512272
000160 df 10 b2 bc fb 7a 78 bb 38 34 44 bd a7 a2 f5 3d
       -0.02173656 -0.00379151 -0.047901362 0.11993914
000170 a1 8d b0 3d 72 61 c0 bc 0f ec e2 bc ac 75 6d bd
       0.086207636 -0.023483966 -0.027700452 -0.05797355
000180 70 9e 9f b9 64 62 8e 3c 81 bf 8d 3d c2 13 97 3c
       -0.00030444888 0.0173809 0.06921292 0.018442038
000190 b4 aa 2d bd 3c 88 85 3d 9c 54 d5 3d 21 0e db 3d
       -0.042399123 0.06520125 0.104165286 0.10696054
0001a0 83 a8 09 bd d9 0d 14 bd 7a 60 8c bd 2e ea 28 3d
       -0.03360797 -0.03614602 -0.06854339 0.041238956
0001b0 ab 88 6f bc 80 c5 08 bd 9e 38 c7 3d 09 7b 63 ba
       -0.0146199865 -0.033391476 0.09727596 -0.00086776965
0001c0 52 8d 86 bd 7d 5d 6a bd 68 0d 22 3d 88 7c 7e 3d
       -0.065699235 -0.057218064 0.039563566 0.06213048
0001d0 52 c6 96 3d 29 5e b7 3d 56 77 5f 3d 73 ed 84 bd
       0.07362045 0.089535065 0.054557167 -0.06490602
0001e0 ff 1c 8b bd e7 d5 89 3d fb f5 97 3d 28 33 50 3d
       -0.0679264 0.06730252 0.07419964 0.050830036
0001f0 a3 7f c6 bd 48 63 b2 3c 3a 42 70 bd 6a ab 23 bd
       -0.096923135 0.021775857 -0.05865691 -0.039958395
000200 f6 9b 77 bd 7b 2a 00 3b bd 81 a5 bc a7 7b aa 3d
       -0.06045147 0.001955657 -0.020203466 0.08324366
000210 bd ab 3c 3b 53 31 f4 3d 8f a5 1c bd 93 2c 4b bd
       0.0028788887 0.1192347 -0.038243826 -0.049603056
000220 71 1f c1 bd 0f d6 3e 3d 98 3e 84 3d 94 42 89 bd
       -0.09429825 0.04659086 0.06457251 -0.06702152
000230 c2 54 94 3c 66 f2 78 bd a2 4d 50 3d 15 32 a0 3d
       0.018106822 -0.060778044 0.050855286 0.078220524
000240 ad d3 83 bc e9 be 9a bd 81 73 e8 3d 60 d3 eb bd
       -0.016092146 -0.075559445 0.113501556 -0.11514926
000250 3d 50 32 bd 6a 31 47 bd 6d a0 9d 3d 3e ed 6e 3d
       -0.043533552 -0.04863111 0.076966144 0.05833172
000260 d0 d0 42 bd 15 3a c8 3b 06 1e 03 3d 13 c2 a2 bd
       -0.04756242 0.0061104395 0.032011054 -0.07947173
000270 57 4c e7 3c 1c 42 83 3d 88 17 80 3d 1f a8 4a bd
       0.028234644 0.06409094 0.06254488 -0.04947674
000280 67 e5 0f bc 2a 06 2d 3d 0d ac 87 bd f7 0f 7c 3c
       -0.008782721 0.042242207 -0.06624613 0.015384666
000290 64 d9 41 bd ef f0 99 3d 0a e8 84 3d 3a f0 88 3d
       -0.04732646 0.075166576 0.064895704 0.066864446
0002a0 16 c7 bc bd 7c 3e 13 3c 39 34 5e 3c dc 7e d9 bd
       -0.0921766 0.008987065 0.013562256 -0.106199
0002b0 3e 35 26 3d 4b fd d8 3d e8 fb bf bc 8e d8 36 3c
       0.04057812 0.10595187 -0.023435548 0.011160029
0002c0 a0 59 30 bd 65 84 dc bc 75 09 3f bd dc f6 ab bd
       -0.043054223 -0.0269186 -0.04663988 -0.08396694
0002d0 02 7f 0b bd 85 a7 3c bd 7a 16 d8 3c 08 11 3c bd
       -0.03405667 -0.046058197 0.026377905 -0.04591468
0002e0 10 30 e3 3c b6 45 af 3d 4c 0b 28 be 10 e7 42 bd
       0.027732879 0.08558218 -0.1641056 -0.04758364
0002f0 66 17 73 bd 52 c6 c1 bc 36 62 cb 3c eb c7 7c bd
       -0.059348486 -0.023654137 0.024827104 -0.061714094
000300 7f 47 8e 3b f7 21 6d bd e0 56 dd 3c 07 4c e1 bc
       0.004342019 -0.05789372 0.027018964 -0.027502073
000310 51 6f 76 bd d4 14 38 bd d8 ba 0a bb 20 e5 87 bd
       -0.060164753 -0.04494174 -0.0021168496 -0.06635499
000320 08 e8 a6 3d 97 39 63 bc 41 61 b7 3c 08 30 8c bb
       0.08149725 -0.013868711 0.022385241 -0.0042781867
000330 52 95 64 bd 59 8b d0 3d 45 e4 e3 bb 2b 88 3f 3d
       -0.055806465 0.101828285 -0.006954702 0.04676072
000340 50 03 2e bb c9 f9 a5 bb 96 a6 a9 3d 00 38 69 3d
       -0.0026552267 -0.005065177 0.08283727 0.05693817
000350 93 9c 6c bd 94 36 4b bd c2 35 c6 3c 31 56 b7 3b
       -0.05776651 -0.049612597 0.024195556 0.0055949916
000360 0c a6 20 bd 61 0d 03 3d 9a 76 d2 bc 00 5a 67 bd
       -0.039220855 0.03199518 -0.02569132 -0.056482315
000370 88 30 9a bb d8 af 14 3e 5f f1 fc 3d 92 82 08 bc
       -0.0047054924 0.14520204 0.123507254 -0.008331912
000380 1f 15 4c bd dd 07 3a bd bd 43 20 bd 8f d2 29 bc
       -0.04982483 -0.045417655 -0.0391271 -0.0103651425
000390 6a bd f3 3c 2f 82 f6 bd f0 32 50 bd 80 6c 02 ba
       0.029753406 -0.12036549 -0.050829828 -0.0004975274
0003a0 a6 9a 41 bd 73 d5 12 3c ec 83 f2 3c 18 36 9a bd
       -0.047266625 0.008962023 0.02960392 -0.07529849
0003b0 8c 4d 8a 3b d4 ca 7e bd 42 73 a9 3c b8 e4 46 3d
       0.00422067 -0.06220515 0.020684842 0.048557967
0003c0 d1 ad b8 bb 6b c0 40 bd c9 dd 3f 3d c0 3f b3 3d
       -0.005635955 -0.047058504 0.04684237 0.08752394
0003d0 fa 12 80 bc ff 37 07 3d 07 68 27 3d 71 f4 2e be
       -0.015634049 0.033012386 0.040870693 -0.17085434
0003e0 75 e1 a0 bd 37 82 20 3d 0e 83 8d bd f5 b1 ce 3d
       -0.078555025 0.039186683 -0.06909762 0.10092536
0003f0 5a 22 1a 3d 6c ee 26 3c aa 2b 8a 3c a6 c8 48 3d
       0.037630416 0.01018868 0.016866524 0.04901948

layers.0.phi_att.bias f4 [128]
000000 37 b2 5e bd 5f 9a 50 bc b7 db 63 3d e2 92 87 3d
       -0.054369178 -0.012732117 0.05562946 0.066198125
000010 91 b4 00 3d 16 cd 00 3d 26 66 c4 bd 2b ea 89 3c
       0.0314222 0.031445585 -0.09589796 0.016835293
000020 a1 65 fc bc 07 1d ce 3c c5 b4 69 3d 0d 2b b9 3c
       -0.03081018 0.025160326 0.05705716 0.022603536
000030 cb 88 11 bd 24 de 40 bc aa ca 20 3c e2 f3 e6 3b
       -0.035530847 -0.011771712 0.009813944 0.007048116
000040 ca bb 58 bc 7a 79 8f bc b5 ae e3 bc cd 9d 92 bd
       -0.013228366 -0.01751398 -0.027793268 -0.07159004
000050 2c 6f 19 3c 6b fc 90 bd 9d 48 55 3d 47 79 66 bd
       0.009364884 -0.07079395 0.052071203 -0.056268003
000060 53 70 43 bd 31 a1 b6 3b 37 73 8a 3c 05 c5 1a 3d
       -0.047714543 0.0055734147 0.016900642 0.03778555
000070 a8 18 ae 3d b7 e0 c1 3c ab e4 88 bd 55 c1 2b 3d
       0.085007966 0.023666723 -0.0668424 0.041932423
000080 52 b2 9c bd 64 bc 5b 3d 5d 67 91 bc d0 09 2c bd
       -0.076511994 0.05364646 -0.017749483 -0.042001545
000090 a8 86 33 3a bb 53 4b bd ac 8a 6c 3d dd 24 94 3d
       0.00068483735 -0.0496404 0.057749435 0.072335936
0000a0 df 18 9f bd 2d df 06 3d 73 92 e2 3c c3 35 ea 3c
       -0.07768416 0.03292768 0.027657723 0.028590089
0000b0 f1 22 02 bd bc 20 6d bc 34 fa e9 bc a3 18 9d 3c
       -0.031771604 -0.0144731365 -0.028561689 0.019176787
0000c0 9a 8c 28 bd 7f 95 52 bc b8 a2 6a bb c2 d5 40 bd
       -0.041149713 -0.012853025 -0.0035802554 -0.047078855
0000d0 23 7d 9c bc bb 87 83 3d 1e b7 f4 bb 66 09 ea bb
       -0.019102639 0.06422373 -0.0074681183 -0.0071422337
0000e0 5d cd 6e bd e9 ea 77 3d 41 3a 7e 3c 30 cd 6e 3c
       -0.05830132 0.060526762 0.0155168185 0.014575288
0000f0 82 77 2d 3c 7b e2 b1 bc 38 29 a5 3d 65 40 eb 3c
       0.010587575 -0.02171444 0.080645025 0.02871723
000100 9e 5f 8e bc 93 ef 55 3c 68 6c 53 3d 3b 1e 9d bd
       -0.017379578 0.013057607 0.051617056 -0.07671782
000110 53 59 c8 bc 04 98 70 3d 9b c8 39 bc 8b 00 13 bd
       -0.024456656 0.058738723 -0.011339332 -0.03588919
000120 63 04 91 bc 6b df 9d 3d 21 82 7c 3d ce 6d 19 bd
       -0.017702287 0.07708629 0.061647538 -0.037458234
000130 39 00 47 bc 60 b8 9e bd a7 7c eb 3c 8e 25 ac 3d
       -0.012146049 -0.077500105 0.028745962 0.084056005
000140 05 ec ac bc 42 41 a8 bc 23 47 b9 3d f1 06 98 bb
       -0.021108637 -0.02053893 0.090467714 -0.0046394994
000150 b9 47 68 bc 13 b5 8d 3d db 4f 71 3d b6 c9 d8 bc
       -0.014177256 0.06919303 0.058914047 -0.02646337
000160 c5 c7 8b bc 1b 8e 25 3d 69 4e 9e bc f6 b4 5f 3d
       -0.017063031 0.040418725 -0.019324498 0.054615937
000170 00 f5 9c bd 51 ea f8 bc 9e ae 96 bd d7 4a 42 3d
       -0.076639175 -0.030385168 -0.07357524 0.047434654
000180 51 0e 8e bd 95 24 22 bc ef 33 27 bc 72 85 bd bd
       -0.069363244 -0.009896417 -0.010205253 -0.09253968
000190 a2 34 5d 3b 5c 15 b2 bc ff 40 9c 3d 68 ca ee bc
       0.0033753295 -0.0217387 0.076295845 -0.02914925
0001a0 23 f6 83 3b f8 ee 8d bd 79 5a 28 3d b6 bb 68 3d
       0.0040271445 -0.06930345 0.041101906 0.05681964
0001b0 75 53 ab bc 0b 08 79 bd 94 ba cc 3c a6 d1 84 3d
       -0.020913819 -0.060798686 0.024991311 0.064853
0001c0 cb 9d 83 ba ef b4 a3 3d ff 5e 42 bd 8a 0f 7b 3a
       -0.0010041533 0.07993495 -0.047453877 0.00095772056
0001d0 29 b9 1e 3c f7 d0 ed bc 93 6b ea bc dc 86 53 bd
       0.0096877 -0.029030306 -0.028615749 -0.051642284
0001e0 cf 8c 21 3d 75 fb 87 bc 05 5c 38 3d dd ec 6c 3d
       0.039440926 -0.016599396 0.04500963 0.057843078
0001f0 c2 10 15 bd 7b 9c 49 3d 15 56 72 bb 45 cc f8 bc
       -0.036392935 0.049221497 -0.0036977578 -0.03037084

layers.0.W_p.weight f4 [128, 128]
000000 77 5d 82 bd ac 3f 90 bd eb cc 82 3d 08 fa 90 bd
       -0.06365483 -0.070433944 0.06386741 -0.0707894
000010 e9 66 c8 3c 53 ff a5 bd 5f 40 91 bd ef 61 1c 3d
       0.024463134 -0.0810534 -0.07092356 0.038179334
000020 bb f1 9c bd dc 46 a2 3c d7 2b 8e bc da da 87 3d
       -0.07663294 0.019809179 -0.017354889 0.066335395
000030 f1 88 91 3d 09 49 54 3d f1 8a 94 ba 64 4d 1a 3d
       0.071061976 0.051827464 -0.0011332912 0.03767146
000040 a3 e7 68 3d fc 59 18 3c 8c 77 d9 bc 3c 97 41 3b
       0.05686153 0.009298798 -0.026546262 0.0029539606
000050 9e d8 a7 b9 97 37 a9 3d e0 8a 27 bd 91 01 36 3d
       -0.00032014115 0.08262556 -0.040903926 0.044435088
000060 c4 22 73 3c 05 e6 35 bd c1 9e 15 3a 3e c3 14 3d
       0.014839832 -0.044408817 0.0005707555 0.03631901
000070 67 9e 01 3d 91 bc 8b 3c b9 43 7d bd a1 12 7c 3d
       0.031645205 0.017057689 -0.061832163 0.061541203
000080 17 05 80 3d bf 7b d3 3d 5b 5c e5 bd 37 1e 90 3d
       0.06250971 0.10326337 -0.11199256 0.07037013
000090 e3 77 df 3c 99 69 81 3d f5 d2 87 bd 98 9f 58 3c
       0.027278846 0.06318969 -0.06632034 0.013221644
0000a0 0a 6d 0a bd fe 13 c9 bc 21 01 11 3d f2 eb e4 bd
       -0.033795394 -0.024545666 0.035401467 -0.111778155
0000b0 23 38 25 bd ad 4a 0d 3d 31 0f 37 3c 78 7d b3 3c
       -0.04033674 0.034495044 0.0111730555 0.021910414
0000c0 ef 48 8f 3d 8e b3 e5 bd 52 61 bd 3d 8f 52 86 bc
       0.06996333 -0.11215888 0.09247078 -0.016396789
0000d0 25 a5 7c 3b f3 b8 b6 bc e4 90 8d 3d 52 18 ee 3d
       0.0038550582 -0.022304988 0.06912401 0.116257325
0000e0 17 8f d9 bd f9 37 5c 3d 49 a0 62 bc 86 c2 b9 bd
       -0.10622995 0.053764317 -0.01383216 -0.090703055
0000f0 b0 dc b2 3d be 47 96 3d 40 bf 84 bc ed 44 9b bd
       0.08733499 0.073379025 -0.016204476 -0.07581506
000100 59 0b 77 3b d8 8c ae 3c 91 92 84 3c d2 b0 3e bb
       0.0037695973 0.021307394 0.01618317 -0.0029097092
000110 1f 3f 87 bd 73 20 9d bd 41 a4 89 3d 8c 8a b8 3b
       -0.06603836 -0.07672205 0.06720782 0.0056317504
000120 4a 51 97 bd fe cc 82 3d 43 6b 84 bd 7c d1 68 bd
       -0.073885515 0.063867554 -0.06465771 -0.056840405
000130 88 69 99 3d 34 0a 3b 3d 87 2a 36 bd 19 cf cf bd
       0.074908316 0.045664027 -0.04447415 -0.101469226
000140 8b d7 67 3d 52 c7 e8 bb 64 30 d4 3d af 5c 16 3b
       0.056602042 -0.007103839 0.10360792 0.0022943427
000150 41 4a b3 bd 41 e6 8a 3d 43 9b f7 ba 29 63 43 bd
       -0.08754397 0.06782199 -0.0018890876 -0.04770199
000160 ff 42 64 3d b3 d2 15 3c c0 3d ea 3c 3e e8 d7 3c
       0.055727955 0.009144473 0.028593898 0.026355859
000170 00 5d f3 bb 91 b4 c6 3d be 76 ee bc 56 94 1b bd
       -0.007426858 0.09702409 -0.029109355 -0.03798326
000180 ad bc 4f 3d a9 ff 95 3c 87 92 0a bc 1f 91 af 3c
       0.050717045 0.018310385 -0.008457786 0.021431504
000190 9a 3a 09 bc 83 69 c6 3d 77 2e 84 3b 99 0d 27 bc
       -0.008375788 0.096880935 0.0040338594 -0.010196113
0001a0 d2 ea d8 3c 16 49 a8 bd 0c fe ae bd 19 ac 77 bd
       0.026479159 -0.08217065 -0.08544549 -0.06046686
0001b0 2e b1 32 3d d7 f1 c6 bb cd 28 3d bc f5 84 76 3b
       0.043626003 -0.00607131 -0.011545372 0.003761587
0001c0 56 c5 2e 3d 73 e2 a3 bd 6b 06 64 bd 52 b0 11 3d
       0.042668663 -0.08002176 -0.055670183 0.035568543
0001d0 5c c6 c6 3d ad 15 70 3d b1 46 cb 3d a7 e8 80 bd
       0.09705803 0.05861442 0.09925593 -0.06294375
0001e0 7f 0a 99 3d 9e 56 84 3d f4 19 f4 3b 8c d0 29 bd
       0.07472705 0.064618334 0.007449383 -0.04145865
0001f0 d4 34 c3 bd c1 7a d4 3d 3b 08 7e bd b5 06 ac bc
       -0.095315605 0.10374976 -0.062019568 -0.020999292
000200 4a 7f ab 3a 43 0b 8e 3d 34 ef 15 3c de 03 7c bd
       0.00130842 0.06935742 0.009151269 -0.061527126
000210 c7 be 3e 3d 4f 4f 00 3c d0 49 77 3d 42 77 2e bd
       0.04656866 0.007831409 0.060373127 -0.042594202
000220 0b 46 01 3c be c2 a3 3d 5a 54 4a bd d3 76 a2 bc
       0.007890235 0.079961285 -0.04939685 -0.01983205
000230 15 63 88 3c db 33 6f bd 9b fa 58 bc b3 fc 67 3d
       0.016648808 -0.058399063 -0.013243343 0.056637477
000240 5b 02 89 bd 5c 5d c0 bd 1f 77 80 3b 68 b9 80 bd
       -0.066899024 -0.09392807 0.0039204503 -0.062853634
000250 bf ac 71 bd 12 2d 85 3d 4d 73 23 bd 3d 90 b3 bc
       -0.059002634 0.06502737 -0.03990488 -0.021919364
000260 db b7 ec bd 78 0f 8a bd 8a 6d 92 bc 32 6e c3 3d
       -0.11558505 -0.06741232 -0.017874498 0.095425025
000270 b2 a7 00 3d ca 99 4f bd 1f 2b cf 3d 39 4a 42 3d
       0.031409927 -0.050683774 0.101156466 0.047434065
000280 2b 05 5d 3d 52 e7 26 3d 46 b3 9c bd 56 56 3a 3d
       0.053960007 0.040747948 -0.07651381 0.045492493
000290 88 76 7d 3c 20 68 3e 3d 04 4f 95 bd 94 cc 32 bd
       0.015470155 0.04648602 -0.07290462 -0.043652132
0002a0 dc c3 5d bd f2 67 18 3d 2c 00 a0 bc 5c 79 1e bd
       -0.054141864 0.037208505 -0.019531332 -0.038689956
0002b0 0b 79 53 bc 7d c1 f3 3b f8 a3 e4 3c f2 bd b9 bb
       -0.012907277 0.007438837 0.027910218 -0.005668395
0002c0 14 f2 68 3d 00 77 e0 bd ee 5a ba 3d 35 e8 f7 bc
       0.05687149 -0.109601974 0.09099375 -0.030262092
0002d0 1d 6c 44 3d 5c f9 57 bd 3d 2b 8a 3d 0c 44 26 bd
       0.047954667 -0.052728042 0.06746528 -0.04059224
0002e0 7e 11 b9 bd 5f 82 17 bd a9 0c 99 3d 37 c0 0d 3d
       -0.090365395 -0.036989566 0.07473118 0.03460714
0002f0 e2 a7 79 bd d3 93 fd 3b 91 7e fc bc 82 4d 4f bc
       -0.06095112 0.0077385693 -0.03082207 -0.012652757
000300 76 b4 0b 3d 51 ed 1b 3c 0f fd 96 bd c7 cf f8 bd
       0.034107648 0.00951703 -0.07372486 -0.121490054
000310 85 8e 87 bd bd c5 98 3d 57 db 52 3b d1 5f 4d bd
       -0.0661898 0.074595906 0.0032174194 -0.050140206
000320 5e 1b 0a 3d c0 87 29 bd 72 40 a1 3b dd 9b 8c 3d
       0.033717506 -0.041389227 0.0049210126 0.06865666
000330 b2 b6 f4 3b 7f 89 05 3d c1 b7 47 3d 8d 27 81 3c
       0.007468068 0.03260183 0.048759226 0.01576593
000340 02 f1 95 3c fc 22 43 3d 6f f0 ad bc 22 a4 a8 bc
       0.018303398 0.047640786 -0.021232812 -0.020586077
000350 0b 6e 24 bd 3a 3d 90 bd e8 cb 6c 3d 63 13 c3 3d
       -0.040144008 -0.07042928 0.057811648 0.09525182
000360 4c 8f 69 3d 49 da c4 3d db cf 86 3d c9 1a 29 3d
       0.057021424 0.09611947 0.06582614 0.04128531
000370 c9 61 80 3d ba 4d 52 3d b5 76 5b bb 9b b9 0b bb
       0.06268651 0.051343657 -0.0033487503 -0.0021320346
000380 fe f4 13 bc 6b 40 12 3d 0c 24 8e bd c5 43 74 3d
       -0.009030579 0.035705965 -0.06940469 0.059634943
000390 5f 4a c2 3d b0 1a 63 3c 58 7b ec 3c 14 d3 40 3b
       0.094868414 0.013861343 0.028867409 0.0029422687
0003a0 40 b4 08 3b e7 aa 91 bd 9e 4a 56 3c 5f ea 71 bd
       0.002085939 -0.07112675 0.013079314 -0.059061404
0003b0 a3 7b 8f 3d 60 21 78 bd be a3 bc 3c b1 9d cc bd
       0.07006004 -0.060578704 0.023027297 -0.09991015
0003c0 1c 31 22 bc f3 2b 3d bd cc a0 86 3d d4 a8 84 bd
       -0.009899404 -0.04618449 0.06573638 -0.06477514
0003d0 85 78 88 bd b5 c0 92 3d 70 2e f5 bc b6 c9 cf 3c
       -0.06663612 0.07165662 -0.02992937 0.025364738
0003e0 75 1e e5 bb 53 82 da 3c cc 0f 43 bd 88 7e 8f 3d
       -0.006992156 0.026673472 -0.047622487 0.07006556
0003f0 c1 ff c2 bd 3c 6a 5f 3d 41 02 a1 3d 8c 8a a3 3d
       -0.095214374 0.054544672 0.07861758 0.0798541

layers.0.W_p_prime.weight f4 [128, 128]
000000 2e ff 80 bd e9 e9 a4 3c b3 d4 15 3d e3 c4 56 bc
       -0.06298672 0.020131068 0.0365798 -0.013108465
000010 00 8b 6b bd 88 f6 82 bd d6 a4 c8 bd 39 77 9f 3d
       -0.057505608 -0.06394678 -0.09797065 0.07786412
000020 28 39 94 3d c5 93 02 bd 9b f3 dd 3c 23 f3 94 bd
       0.07237464 -0.031879205 0.0270937 -0.07272937
000030 ab 9d 83 bd 81 d3 66 3d cc ec 7e bd c4 b9 54 bd
       -0.06426557 0.05635405 -0.062237546 -0.051934972
000040 01 ad f5 bb fa f1 81 bd ad f6 fa 3c eb 8b 29 3d
       -0.0074974303 -0.063449815 0.030635202 0.0413932
000050 cb df ef bc da e5 59 bb 20 6d b9 3a d7 bd d8 bc
       -0.029281517 -0.0033248574 0.0014146902 -0.02645771
000060 36 8f 2b 3c 5b 2b 09 3d 74 33 82 bd 29 10 fb 3a
       0.010471156 0.033488613 -0.0635747 0.0019154596
000070 56 47 e4 3c 64 83 a8 3c 42 73 8a bd 0a da 11 3c
       0.027866047 0.020570464 -0.06760265 0.008902082
000080 b7 c6 4b bd d9 4e b7 39 09 39 75 3b 4e 29 b6 3b
       -0.049750056 0.00034963226 0.0037418029 0.005559123
000090 41 4d 46 3d 90 85 ce 3c 5a ee 01 bd 5c f0 88 3d
       0.04841352 0.025210172 -0.03172145 0.0668647
0000a0 85 3b 53 3d 51 72 ab bd 89 00 d0 bd de 70 43 bd
       0.051570434 -0.083714135 -0.10156352 -0.04771506
0000b0 89 25 1f bd 41 63 33 bc 0b da 98 bd 43 3e 24 bd
       -0.038854156 -0.010948957 -0.074634634 -0.04009844
0000c0 e4 a2 8a bc e8 b0 51 bd b5 34 89 bd 8a a4 bb 3c
       -0.016923375 -0.0511941 -0.06699506 0.022905607
0000d0 df 34 dd 3c a1 56 89 bd 08 9c 7c 3d b7 cf 3e bd
       0.02700275 -0.06705976 0.06167224 -0.04658481
0000e0 99 db 2a bd e1 a6 2d 3d 3a 2a c1 3c 2a cc 7e bc
       -0.04171333 0.042395476 0.023579706 -0.015551606
0000f0 cb 19 ff 3c d4 47 89 bc cb d8 85 3c 6a 6f 27 bd
       0.031140229 -0.016757883 0.016338727 -0.040877737
000100 34 4a 7f 3d 5d 7d 5e 3c 1a f8 a0 3c f7 02 ac bd
       0.062326625 0.013579694 0.019649554 -0.08399003
000110 4d 1e bf bd 03 1a 91 bd 56 7d a1 3c 0c da 8f bc
       -0.09331951 -0.070850395 0.019713085 -0.017560028
000120 2a ee 10 3c 8f 39 b4 bc 88 35 4a bd 1b 28 77 bd
       0.008845845 -0.022000102 -0.049367458 -0.060340982
000130 53 ab ef bc e5 45 ca 3c b7 2a aa bd 98 a4 17 bc
       -0.029256498 0.024691531 -0.083089285 -0.009255551
000140 a9 0d 73 bd f6 4b 8a bc 8a a6 ca 3b 6b 51 2f 3d
       -0.0593392 -0.016881924 0.006184404 0.042802256
000150 f8 8e 33 3c 76 8a a6 bd 11 8a ab 3d 37 7a e3 bc
       0.010959379 -0.08131878 0.083759435 -0.027768238
000160 a2 a4 9f bd 1c 1f a4 3d 7e 96 91 bb 92 03 91 bb
       -0.07795073 0.08013746 -0.004442989 -0.0044254744
000170 19 af a3 3d dc 6a 2f 3d 90 7c e3 3c d6 59 c5 bd
       0.079923816 0.04282652 0.027769357 -0.096362755
000180 6c 14 21 bd 54 fa 9a 3d 8e 3a a8 3d 32 fe a1 bd
       -0.039326116 0.075672776 0.082142934 -0.07909812
000190 db 35 e1 bb c1 4b b4 bd 70 55 14 3d b2 6d 32 3d
       -0.006872875 -0.088035114 0.036214292 0.043561645
0001a0 02 19 43 bd bc 7a 28 3c c9 75 13 3d 12 ef 76 bd
       -0.04763127 0.010283168 0.036001 -0.06028659
0001b0 84 47 60 bd ed 94 ba bd fe 77 66 bd a1 3d d1 bd
       -0.054755703 -0.091104366 -0.056266777 -0.10216833
0001c0 8b f4 1c 3c 78 b4 1d 3d b7 8a 5f bd 93 8c 35 bc
       0.009579788 0.038502187 -0.05457565 -0.011080879
0001d0 fd b4 4f 3d 26 72 a9 bd 75 76 76 bd 02 63 af 3d
       0.050709713 -0.08273725 -0.060171563 0.08563806
0001e0 3f ca 75 3d 1a c7 7e 3c f2 6a bb bd 7c 7f f1 3c
       0.06000733 0.015550399 -0.091512576 0.029479735
0001f0 c6 49 4c bd 72 ee 95 3d e5 11 a5 bd 26 75 91 bd
       -0.049875043 0.073208705 -0.08060054 -0.071024224
000200 5d ec 9a bd 7c 9c 56 3d 2e 9c 69 3b ec 54 8d bd
       -0.07564614 0.05239533 0.003564607 -0.06900963
000210 c8 d3 7f 3d 27 06 c2 bd 8d d8 d6 bd 7b c6 36 bd
       0.06245783 -0.0947383 -0.104905225 -0.04462288
000220 a9 23 5e bd 79 a1 f8 bc e0 b9 11 bd 39 0d be 3d
       -0.054233227 -0.030350434 -0.035577655 0.09279866
000230 dc 50 44 bc 63 6e cc bc 86 79 9a 3b 49 66 81 bd
       -0.011982169 -0.02495498 0.0047141938 -0.063183375
000240 e4 e5 95 3c 28 77 25 3d 3c d3 b5 bd 6e 05 fa bc
       0.018298097 0.04039684 -0.088781804 -0.030520167
000250 dd 0c a7 3d 8d 43 15 3d 8d e3 2c bd b9 45 96 3d
       0.0815675 0.036441375 -0.042209197 0.07337517
000260 34 07 00 bd 0c 78 9c bd db 55 51 bd df 27 cb bd
       -0.03125687 -0.076400846 -0.05110727 -0.09919714
000270 9e 6d a0 bd 2c 73 4f 3d e1 c7 0b bc 52 a1 84 3d
       -0.07833408 0.050646946 -0.008531542 0.06476082
000280 b2 7d 2f bd 74 00 1e 3d b7 6d 55 bd a3 e5 ff 3b
       -0.04284448 0.03857465 -0.052106585 0.0078093573
000290 ed 56 d8 bc f5 66 7c bd e2 0e 7c bd 74 8a 92 3d
       -0.026408637 -0.061621625 -0.06153763 0.07155314
0002a0 b9 0f 7c 3d e1 a4 e3 bb a5 82 a0 bc 67 41 10 bd
       0.06153843 -0.0069471453 -0.019593546 -0.035218623
0002b0 82 db 45 bd 1d 3a 42 3d 3b 59 96 3d 4e c9 18 bd
       -0.048305042 0.047418702 0.07341238 -0.037301354
0002c0 46 2e 8e 3c 7c cb bd bb f0 19 af bd 0a 56 66 bd
       0.01735605 -0.0057920795 -0.08549869 -0.056234397
0002d0 e9 f6 30 bd 81 cf 40 bc c8 c4 27 bd 7e 9b b6 3d
       -0.043204222 -0.011768223 -0.04095915 0.089163765
0002e0 be 76 4e bd 2c 5b a0 3b 1f 16 a0 bd e1 72 09 bd
       -0.05040621 0.004893681 -0.07816719 -0.033556823
0002f0 84 71 68 3d e8 46 d8 3c 99 66 33 3d 83 da 5e 3d
       0.056748882 0.026400998 0.043799017 0.054407608
000300 63 2c 28 bd 4f 11 8c bd 4d 1b ac 3d a8 60 01 3c
       -0.041057955 -0.06839239 0.08403645 0.00789658
000310 d5 94 5b bd 61 0f 73 3c 6b e9 a7 3d 56 9b b0 3d
       -0.053608734 0.01483521 0.08198818 0.08623378
000320 d7 d9 3d bd cb 96 96 3d 2e 1a 48 bd 7f 6f e5 3c
       -0.046350326 0.0735298 -0.048853092 0.028007267
000330 ff 19 54 bd 10 9c e9 bc 72 7b a9 3c 35 e5 47 3d
       -0.051782604 -0.0285168 0.020688746 0.048802573
000340 d7 48 ef bc 2a 87 b4 bc f7 3e cf 3d 43 fb a7 3c
       -0.029209537 -0.022037107 0.101194315 0.020505553
000350 4f 23 01 3d 81 46 7d 3d a2 21 ca 3d d1 c6 57 bc
       0.031527814 0.061834816 0.09869696 -0.01316996
000360 26 1f b1 3d 1e f6 c7 3c e8 20 a3 bd 46 dd 72 bd
       0.08648519 0.02440935 -0.07965261 -0.059293054
000370 c4 22 b5 3d 52 f5 a2 3d 42 ae f4 bb ed 17 60 3c
       0.08844522 0.079569474 -0.007467062 0.013677579
000380 d7 c0 a1 3c 48 67 fa bc 6b 0a 19 bc e9 81 06 bc
       0.019745274 -0.030566826 -0.009340863 -0.008209684
000390 ae 79 30 bd a7 5d 53 3d 71 e8 24 3d ae d6 4c bc
       -0.043084793 0.051602986 0.040260736 -0.0125023555
0003a0 78 ec 70 bd 0c 04 b7 3d 9d 03 1b 3d 86 46 7e 3a
       -0.058819264 0.08936319 0.037845243 0.000969984
0003b0 95 60 55 3d 05 13 98 bd 38 c2 d8 bc 4f 16 8e bd
       0.05209406 -0.07425503 -0.026459798 -0.06937849
0003c0 81 78 43 3d 22 51 11 3d b8 0b 40 3d 9c 72 bc bb
       0.047722343 0.035477765 0.046886176 -0.005750967
0003d0 6c 6e ec 3c 7a 92 aa bc a4 6d 3a bc d7 0a 96 bc
       0.028861247 -0.020821799 -0.011378679 -0.018315716
0003e0 09 51 71 3d 55 33 87 bd 90 c0 28 bd 46 63 64 3d
       0.05891517 -0.06601588 -0.041199267 0.055758737
0003f0 72 b5 cc bc c8 b3 66 3c 8c 10 48 3d 32 47 66 3d
       -0.024988864 0.014080949 0.048843905 0.05622024

layers.0.f_def.weight f4 [1, 128]
000000 46 fa b5 bd f8 0e a8 3c 04 63 e8 bd 9c 62 ff bc
       -0.088856265 0.02051495 -0.11347011 -0.03117495
000010 96 73 ab 3c b3 f7 ec 3c 97 35 71 3b 83 16 c7 3c
       0.02092914 0.028926706 0.0036805624 0.024302727
000020 10 99 c8 bd db 35 b1 bc 9c 62 c6 3c 3c 44 cf bd
       -0.09794819 -0.021632126 0.024216942 -0.101204365
000030 d3 51 c7 bd 2a 23 10 3d e4 d6 cc bd 7e c6 ee bc
       -0.097324036 0.035189785 -0.10001925 -0.029147383
000040 d5 2c 9d 3d 2c 32 c3 bb 04 e5 02 bd d5 86 45 3c
       0.07674567 -0.0059569087 -0.031956688 0.012056072
000050 7b 76 37 3d 7d 09 8b 3d 5a d0 a5 3c 98 49 36 bc
       0.044790726 0.06788919 0.020240951 -0.011125945
000060 ae 0b b6 3b 2c 69 ca 3d 59 8b ef bc fc 66 a9 bb
       0.0055555915 0.09883341 -0.02924125 -0.0051697474
000070 c6 94 b8 3c 4f 95 6a 3d 6b c8 38 3d a5 92 26 3d
       0.022531878 0.057271298 0.04511301 0.040667195
000080 17 3e af bc 24 79 a3 3d 4c f5 c5 3d 08 d7 9c bc
       -0.021391911 0.0798209 0.09665927 -0.019145504
000090 b9 5d d9 3d e6 ce f4 bd 47 db bd 3c 78 f5 ae bd
       0.10613579 -0.11953525 0.023175849 -0.08542913
0000a0 de 0e 7c bd d1 dd 7f bd 47 86 af 3d 4e eb 1a bd
       -0.061537616 -0.0624674 0.08570533 -0.03782206
0000b0 a5 32 a5 3d 81 d6 0f bd 82 6d 38 3d 4e 73 88 3c
       0.080663 -0.035116676 0.04502631 0.016656544
0000c0 45 cc 49 3d a7 a7 61 3d ff 19 4a 3d 8e e6 cd bd
       0.049267072 0.055091526 0.049341198 -0.100537404
0000d0 68 fa f6 bd 31 37 8c bd 1b 54 95 3d 69 8a cb 3c
       -0.1205948 -0.068464644 0.072914325 0.024846273
0000e0 93 3e 0b 3e f3 8a d0 3d 81 ac 58 bd 4f 54 a8 bd
       0.13598089 0.101827525 -0.052898888 -0.082192056
0000f0 a4 a7 4a bc 4f eb 1f 39 d6 46 4d 3d 9e 2b 49 3d
       -0.01236907 0.00015251081 0.050116383 0.049113862
000100 0c b8 97 3d e5 c1 38 bc e9 ba e7 bc 07 6b 2c bd
       0.07408151 -0.011276697 -0.028287368 -0.042094257
000110 ef 00 bc bd f8 f7 d0 3c 00 a0 66 bd 52 69 99 3d
       -0.091798656 0.025508866 -0.05630493 0.074907914
000120 df 44 f0 3a 0a fb a6 bd f8 18 04 3e 27 d2 f8 3b
       0.0018331072 -0.08153351 0.1290015 0.0075934115
000130 4f a7 ca bd 9f 6f d3 bd 4d 09 08 3e fd 52 8e bd
       -0.09895193 -0.103240244 0.13284798 -0.069494225
000140 8b b7 00 3d 4e 06 8a 3d 32 59 b3 3d 1e 03 df bd
       0.03142504 0.06739484 0.08757247 -0.108892664
000150 50 73 90 bd bb a1 41 bc c6 b1 f0 3c 99 ff b4 3d
       -0.07053244 -0.011818345 0.029381644 0.08837814
000160 56 ad 05 bd f8 c3 ad bd 52 d1 64 3d 23 27 77 3d
       -0.03263601 -0.08484644 0.055863686 0.060340058
000170 a5 4c 86 3d 60 48 3e bc db c2 b4 bc 11 d0 0b 3d
       0.065575875 -0.011613935 -0.02206557 0.034133974
000180 80 b7 c2 bc c9 0c c6 bd f0 e6 8d 3d a3 67 7e bd
       -0.02376914 -0.09670407 0.069288135 -0.062110554
000190 46 eb 92 3c 70 62 68 bd d1 81 26 3d 7a 05 1d 3d
       0.017934453 -0.056734502 0.040651146 0.0383353
0001a0 aa e4 60 bd f7 9f 8c bd 77 4e 53 bd 81 d6 73 bd
       -0.05490557 -0.068664484 -0.0515885 -0.05953074
0001b0 00 f8 8a bd f8 26 46 3d b5 17 cd bc 1a 74 fb bc
       -0.067855835 0.048377007 -0.025035718 -0.03069501
0001c0 0f 9b c0 bb 33 b4 96 bd 3e f1 90 3d f5 22 5c 3d
       -0.0058778594 -0.07358589 0.07077263 0.053744275
0001d0 7a 2a 81 3c ff d7 bd bc 54 ba 93 3d bb d1 f7 bc
       0.015767325 -0.023174284 0.07213274 -0.030251374
0001e0 ea 3d 71 3d 94 0c cb bd f0 3b 00 3e db 34 15 be
       0.058896936 -0.099145085 0.12522864 -0.14570944
0001f0 c1 82 19 bd 7e 09 28 bc 67 f6 7a bc 87 cd b4 bd
       -0.037478212 -0.010256169 -0.015317536 -0.08828264
