checkpoints/afgcn_best.pth (torch, 267639 bytes, 7 tensors)

convs.0.lin_rel.weight f4 [128, 128]
00000000: dcc5 a5bc c8f8 dfbb 6b1e 833b d67a 4a3c
00000010: 9b3a df3b 93b6 88bd 0400 863e b5e6 2e3a
00000020: 6ebc 803d b038 aa3d 6801 9d3c d229 78bd
00000030: fe8a 15bd f0fe 86bd 2d4c afbd 167e 24bd
00000040: 120b f0bc f546 1bbd 4e41 163d 8353 e63a
00000050: 3d67 8bbb 3d0d 6b3c 056d 0ebd ac45 26bd
00000060: 1d78 a63d c07c 69bd 1565 76bd a5ce 3f3d
00000070: ed39 c8bc a1bd 93bd 151b 873d bae5 e2bb
00000080: ef9e 22bd 25ca 24bd 584a ae3d 35c7 74bd
00000090: 9c3b 52bd e448 5c3d 89bd 963c 0eaa 95bd
000000a0: 394e 1abd 0df4 afbd 172f b43d 9e76 74bd
000000b0: 871e 223d f335 a1bd c242 653d aea6 4a3d
000000c0: 4b2f 25bd 0abb 82bd a3d1 953d 9081 993d
000000d0: f59f 943d 6c6f 16bd cc89 0b3c d6ec 13bc
000000e0: ee49 9a3d 9118 773d 867a 943b 649a a03c
000000f0: 547b 103d 14a8 01bd f9d7 ad3c 248e 91bb
00000100: 3663 ba3a e183 7c3d ef5c 36bd 0809 063d
00000110: 2fa2 80bc e924 2d3d 11a2 163c fb13 eb3c
00000120: 52ef 16bc 53e3 923d f577 3fbd 6f1d e33c
00000130: d5c7 ae3d 9f71 d7bc f85e 71bd 5dd8 783d
00000140: 316b a43c 4a7c aebd 0c55 29bc f15c 3d3b
00000150: bb09 f73c 0026 bfbb a961 a63c c05d e53c
00000160: c166 52bd 0de8 1a3d 873c 32bd 5a91 983c
00000170: d18f b3bc df9e 69bc ebfb a23d ab5f 8d3b
00000180: 9fde 9dbd b840 07bc f0b4 ac3d b248 4fbc
00000190: aed6 a33c 8820 ad3d 0716 533d ae84 a1bd
000001a0: a1ee 3b3d a507 b2bd 6c7b 2f3c 6ff8 a9bd
000001b0: 8048 e33c 77ef 9c3d 64f4 fd3c be36 933d
000001c0: f6c5 733d 78fe 8fbc 237a 3cbb 14e4 ad3d
000001d0: 47bf dabc d395 abbd b1a8 f83c e9eb 90bd
000001e0: a5aa 9e3c 3040 18bd 4969 4bbc 33de 61bd
000001f0: fd1a 9bbd 87f2 aabc 7c21 ab3d 9391 903d
00000200: bcde 153c 7189 8cbb 838d 843c 903a 8fbc
00000210: e77e 6ebc 73b3 ad3c 700e 8ebd b7d5 153c
00000220: 84fa 693d d771 a23d ca62 433b ac7e fabc
00000230: 9cb7 493d 23d6 38bd 6f61 3c3d 995d a03d
00000240: cb44 b03c eb90 303d c0dd a3bd 0b61 2abd
00000250: 43ca 14bd 5733 663d e62c 03bd 50cc 43bd
00000260: 5199 a8bd a986 92bd c23a 243d 0463 0bbd
00000270: 1622 20bd 1967 a33d 6607 8fbd 9869 15bd
00000280: 64db d03c e5ce 4a3d 76ae 8abc a04c 58bd
00000290: 0242 34bd c916 85bd 919e fd3c 71fc 8e3d
000002a0: 299b b03d f83c acbc da3d 173c 6a1a 84bd
000002b0: 2597 20bd e506 67bd be78 8ebd f600 13bd
000002c0: f719 70bd 5baa 42bd 259d 7e3c acd5 5cbc
000002d0: 8325 543d 789d 4d3c 943c a4bd 6725 47bd
000002e0: 54b9 e33c 1215 723d b492 9fbd 6034 86bb
000002f0: c38b 94bc fee3 a1bd 0a72 93bd e384 8cbd
00000300: 2258 6a3d fc27 00bd ef7e 9a3d 420d 6e3d
00000310: e5e1 f53c 7e54 5c3a 2d78 2cbd 8f9f 34bd
00000320: e4d6 79bd e248 f73c 6e07 6fbd 33f2 9c3d
00000330: 1e5e 5ebd cc43 083d 83b6 ccba 467c 07bd
00000340: 3715 3b3d b133 9f3d 6a14 51bd 7767 8e3c
00000350: 7634 973c 34c2 dc3c 6008 353d 2783 60bd
00000360: cddd aa3b 2117 a13d b690 9f3d 30a6 493d
00000370: 9371 713c f74f 103d bb89 a3bd 9359 36bd
00000380: 9195 303d 751c ac3d a2e2 8ebd 85c2 393c
00000390: ac4b 3fbd 7033 993d ed8b a53d 5d95 afb8
000003a0: 6f4d 873d be80 25bd 7dc1 0ebc 94fd 933d
000003b0: 7d96 62bc fc83 59bd a3d8 b0bd fc87 6e3d
000003c0: 0150 19bd 3c90 213d 9b7b 87bd aaa0 973d
000003d0: 88af 693c 6064 6a3b cdbb adbc 6cf4 4bbd
000003e0: 2466 80bd 70c3 11bc 5b47 d63c 34ab cbbc
000003f0: 79be 233d d2aa a23d d3a8 19bd 0e32 f7bc
-0.020235948 -0.006835077 0.004001429 0.012358388 0.0068124062 -0.06675448 0.26171887 0.0006671951
0.0628594 0.083115935 0.01916571 -0.060586758 -0.036509506 -0.06591594 -0.08559451 -0.040159307
-0.029302154 -0.037909467 0.036683373 0.0017572496 -0.0042542503 0.014346418 -0.034771938 -0.040593788
0.081283785 -0.057003736 -0.060154993 0.04682793 -0.024441684 -0.07213903 0.06596962 -0.006924358
-0.039702352 -0.040231843 0.08510274 -0.05976029 -0.05132638 0.05378045 0.018400924 -0.07307826
-0.037672255 -0.08591471 0.08798044 -0.059683435 0.039579894 -0.07871618 0.05597187 0.049475364
-0.040328305 -0.06383331 0.07315376 0.07495415 0.07257072 -0.036727354 0.00851674 -0.009028634
0.07533632 0.060326163 0.0045312075 0.01960487 0.035273865 -0.031654432 0.021221148 -0.0044419933
0.0014220241 0.061649207 -0.044522222 0.032723457 -0.015702335 0.04227153 0.009193913 0.02869605
-0.009212332 0.07172265 -0.04674526 0.027723996 0.08534209 -0.026299296 -0.05892846 0.060753215
0.020070644 -0.085198 -0.010335218 0.0028894509 0.030156007 -0.0058333874 0.02031024 0.027998805
-0.051367525 0.037818957 -0.043514755 0.018623997 -0.021919163 -0.014259069 0.07958206 0.004314383
-0.07708477 -0.008255176 0.084329486 -0.012651609 0.019999828 0.084534705 0.05153468 -0.07886635
0.04588187 -0.08692864 0.010710578 -0.08299338 0.027744532 0.07662862 0.031000324 0.071881756
0.059514962 -0.017577395 -0.0028759323 0.08490768 -0.026702536 -0.08378186 0.030353876 -0.07076246
0.019368479 -0.03717059 -0.012415239 -0.055143546 -0.07573507 -0.0208676 0.08355996 0.07059016
0.009147342 -0.004288845 0.01618076 -0.01748398 -0.014556623 0.021203732 -0.069363475 0.009145192
0.057123676 0.079318695 0.0029813522 -0.03057798 0.04924737 -0.04512609 0.045991357 0.07830352
0.021517178 0.043106955 -0.0800128 -0.041596454 -0.036325704 0.056201305 -0.03202524 -0.04780227
-0.08232368 -0.07154591 0.0400951 -0.034029976 -0.039095007 0.07978649 -0.06983833 -0.036477655
0.025495239 0.049513716 -0.016928893 -0.05280745 -0.044008262 -0.064984865 0.0309594 0.06981743
0.086233445 -0.021025166 0.009231055 -0.064503506 -0.039206643 -0.05640306 -0.069566235 -0.03588959
-0.058618512 -0.047525745 0.015540396 -0.013478678 0.051793586 0.0125497505 -0.08019367 -0.048619654
0.027798332 0.059102125 -0.07791653 -0.004095599 -0.01813305 -0.07904814 -0.071994856 -0.06861284
0.057212956 -0.031288132 0.07543742 0.058118112 0.030014941 0.00084049243 -0.042106796 -0.04409748
-0.06099595 0.03018612 -0.058356695 0.07663383 -0.054288976 0.03326778 -0.0015618358 -0.0330775
0.04567453 0.07773531 -0.05104486 0.01738332 0.018457633 0.026948072 0.04419744 -0.054812577
0.005214429 0.078657396 0.07791273 0.049230754 0.014736551 0.03523251 -0.079852544 -0.04451902
0.043111388 0.08403865 -0.069768205 0.011337881 -0.046703026 0.07480514 0.08083329 -8.372471e-05
0.06606566 -0.04040598 -0.008713123 0.072261006 -0.0138298245 -0.053104386 -0.0863507 0.058235154
-0.037429813 0.039444193 -0.06615373 0.07403691 0.014263041 0.0035765395 -0.021207714 -0.049793646
-0.06269482 -0.008896694 0.026157072 -0.02486191 0.03997657 0.07942738 -0.03751452 -0.030175235

convs.0.lin_rel.bias f4 [128]
00000000: f11f 713b 0f22 2c3d f10b 92bd 434f 82bd
00000010: 4288 06bd 7c85 afbd d9e7 2d3d 36ae 683d
00000020: 37c9 3f3e 7333 5c3d d67c 98bb 939a 363e
00000030: 7e0c 29bd bb0c 1d3e 04ed 343e c481 813d
00000040: 1fda cabd 265a 983d a39d ff3d 7f67 b43c
00000050: f49b 3a3e 9523 8d3d fb3d 7dbd 1649 54bd
00000060: 0c9a 363e 4cf0 a03d 3f4f 02be 150e 2c3e
00000070: 248c 0dbc 86a8 ca3d 63f2 173e 3dac 783d
00000080: ae63 253e cc42 843d 80c4 2f3e c78d 8dbe
00000090: 1586 1fbd 23af 0d3e e8a4 eabc db62 163a
000000a0: 8665 7fbd ef31 cabd 467f f33d 8b29 7e3d
000000b0: 8f35 e93d e0c1 c6bd ab50 d93d 9aa5 09bd
000000c0: b661 88bd db8f 253d a8b1 323e fea5 093d
000000d0: 79d5 103e dba4 1f3e 2a00 113d 2699 443a
000000e0: 563d 9dba b963 e93d c4f7 c5bd dc8b a03d
000000f0: f702 1abe a9af d03d 02ef 263c 0dfc 403d
00000100: 4ee2 1a38 6def 28be 797f d93d 3637 483e
00000110: 90c3 1bbe 699c 043e 1b10 133e 4e43 dabc
00000120: 3334 75bd 8373 2c3d b697 60bd a658 5ebd
00000130: e648 ffbd 7e6a 993d a610 dabd e4d3 6cbd
00000140: 07c4 073e 1246 733c 49ba 1c3e 981c a7bd
00000150: 37ba 113e f199 353c fcc7 fb3d 9def 07bd
00000160: 3c42 b7bd e1cc 3b3d 679c b0bc 6cba bc3d
00000170: 0073 573d f227 173e 047c 7f3c 68e8 213e
00000180: 4ec5 cf3d 7445 13bd ecf6 7b3d d6b6 0e3e
00000190: b28a b6bd cea0 0e3e d6a1 583d 35f6 d33d
000001a0: ece1 a63a 2e4e fd3d 37c5 8ebd b151 6ebb
000001b0: 86c7 843d 42bd ee3d ff2b 08be 585d 173e
000001c0: ab7d 83bd 37eb c23c 42a7 d0bd 6881 87bd
000001d0: fbfc 753d edfb e63d 7ae5 203e 60e3 53bd
000001e0: 86ad 3f3b 0fcc 03bd 676e 9b3c 2680 88bd
000001f0: 6b59 db3d f824 8b3d df43 463d ac03 67bd
0.003679272 0.04202467 -0.07131184 -0.06362774 -0.03284479 -0.08570382 0.042457435 0.056806765
0.18729101 0.053760003 -0.0046535535 0.17832403 -0.04127168 0.15336888 0.1766854 0.06323579
-0.099048845 0.074390694 0.12481239 0.022022007 0.18223554 0.06891552 -0.061826687 -0.051827513
0.17832202 0.07858333 -0.12725542 0.16802247 -0.008639369 0.098954245 0.14838557 0.060711134
0.16151306 0.06458053 0.17164803 -0.2764723 -0.03894623 0.1383634 -0.028643087 0.00057367765
-0.06235268 -0.09872805 0.1188951 0.062051337 0.113871686 -0.097049475 0.10611089 -0.033605196
-0.06659262 0.040420394 0.17450583 0.033605568 0.14143933 0.15590231 0.035400547 0.00074996275
-0.0011996429 0.11395974 -0.09666398 0.07839176 -0.15040193 0.101897545 0.01018882 0.047115374
3.6927224e-05 -0.16497584 0.106200166 0.19552311 -0.1521132 0.1295029 0.14361612 -0.026643422
-0.059864234 0.042102348 -0.054832183 -0.05428376 -0.12465076 0.07491015 -0.10647707 -0.057819262
0.13258372 0.014848249 0.15305437 -0.08159751 0.14231192 0.011084066 0.12294003 -0.033187497
-0.0894818 0.045849685 -0.021558953 0.09215245 0.052599907 0.14761332 0.0155935325 0.15811312
0.10145055 -0.035954908 0.06151478 0.13936934 -0.08913173 0.1392853 0.052888714 0.10349695
0.0012732125 0.12368427 -0.069712095 -0.003636461 0.064833686 0.11657192 -0.13298033 0.14781702
-0.06420454 0.0237938 -0.10188152 -0.06616479 0.060055714 0.1127852 0.15712538 -0.051730514
0.0029247715 -0.032177027 0.018973542 -0.066650674 0.107104145 0.067941606 0.04840457 -0.056399986

convs.0.lin_root.weight f4 [128, 128]
00000000: 71d7 7cbc 55fb b1bc d5b2 84bc bf0f c23c
00000010: 3163 29bd 7a95 973d 248f 8ebe fae3 e3bc
00000020: d41d 793d 62c7 00bd 2202 c8bc 1d12 0a3d
00000030: 3ff2 36bc 2f21 afbd 201c 64bd bb5a 35bc
00000040: 44d6 823d e9f2 463d 339a 4d3c b9c8 e9bb
00000050: 3361 e4bc 75c0 3f3d f0ec c3bb 9db1 b0bd
00000060: 84af 6abd 27cf 023d a8d0 8fbd 5525 70bd
00000070: 66d7 f53c 399e 953d 0bf5 9d3d c9f0 a23d
00000080: 651b 773d 8fb5 c0bc 313d 1bbd 1cb1 78bd
00000090: 5eab 9b3c 1e64 3e3c bc52 1bbc 584b 8abd
000000a0: b908 603b 8b83 a43b 8437 59bd c329 8b3c
000000b0: 6b2a 9a3d a9b3 a43d 762c 4a3d 5da5 70bd
000000c0: 02e8 46bd 9563 653c f6a1 5fbd b90f 953b
000000d0: 22b7 7ebd 6d17 3fbd fa5c 5abd e894 9fbd
000000e0: 8c3e 50bc be37 aabd f66e 503d a1eb 7d3d
000000f0: a7f5 31bc 8540 f93c 5f02 b8bc 8e5c 8d3c
00000100: 9281 8abd d24d b03d 1cbe 933d c6b6 3c3b
00000110: 5897 a1bd 5a97 893d ce03 363d 997f ac3d
00000120: 43b3 b33d 8473 ae3d 3ce0 dcbb 2ae4 aabb
00000130: 1d4f b2bd 6b5f afbd 5397 883d 95e0 483d
00000140: 572a a8bb eccd 0f3b 4871 52bd 4047 223d
00000150: 98a9 873d 3d84 85bd c521 c5bb eb55 9b3b
00000160: c876 9e3c ad71 96bd d12b 2f3d 9ad9 0d3d
00000170: 5939 80bd 2bfa a2bd 1ba7 99bd 7935 ecbc
00000180: 7b0e 833d eb06 413d 7024 483d 5fbe a3bc
00000190: 81c4 a83d 7db8 13bd 86d7 76bd 74a9 563d
000001a0: a5ed 783d 1dc5 14bd 96df 2bbd 7ad1 a9bd
000001b0: 4068 a53d db7b 943d 1b74 c4bc 4b5e 56bc
000001c0: 0325 57bd e428 113c 2f24 0dbd 3616 7c3d
000001d0: 889a 5ebc 2269 82bd fe56 403d ed2e adbd
000001e0: 0083 513d 47b4 8bbd ab2a 99bd ae42 a93d
000001f0: 30ef 5d3d daa0 4f3d d6cc 573d 4e85 88bd
00000200: 553b 3ebd f803 cebd c0cf a2bb d88c 5d3d
00000210: 7545 11bd 40a8 843d 7387 1f3e e603 f23c
00000220: 425b 2bbd d853 2bbc 1d8c 603c f4f1 15bd
00000230: f704 8bbd 9405 05bd 9b09 2cbd 4963 06bd
00000240: e73b 1abd 64d0 86bd 0240 9d3c b0f2 64bd
00000250: a99c 803a 7959 ac3c db37 86bd f1c4 8f3d
00000260: d955 203d 4549 a53c 558f b3bd f04d 193d
00000270: d764 a1bd 09c3 a93d d95a 3c3c dcf4 a73d
00000280: d720 973c 8339 99bc 5fbb d9bc 8451 24bd
00000290: acaf a9bd a1fb abbc d78f 893d f625 d7b9
000002a0: d661 563d 397b 333d b991 6fbd 0415 613d
000002b0: 1c37 8a3d 234b 4dbd 017d 97bc 9ac3 8bb9
000002c0: fcfb 8a3d b561 363d 147c 583d 3486 14bd
000002d0: aae6 1dbd 2bab ad3d bafb 9c3d bfa2 f8bb
000002e0: 498a 5f3d 138b 4bbd 6733 1b3c c1fe 313c
000002f0: e421 a0bd 2735 44bc 8e75 57bc bb51 adbd
00000300: 863a a03d 0f20 403d 9f85 91bd 6427 2e3c
00000310: a96d 953c 20a1 f1bc 7077 5c3d 5646 8bbc
00000320: 87bc ba3c 7f98 9b3c d2cb 05bd e33e 4a3b
00000330: 4cdb 93bd 74ef 35bd 4e0e aebd 23d0 a33d
00000340: 7751 c33b 4dd8 9d3c 5848 98bd acae 803d
00000350: 50ba e13c 2daa 34bd d5be a93d e4a4 e73b
00000360: a794 5e3c 2fe3 3d3d 1f49 2a3d a302 513d
00000370: 9f6f 593c 593b 163d 3653 b4bd 654d 2fbd
00000380: ee7e 383d 02a5 72bd 20c0 0fbd 4052 de3c
00000390: 9edf a83d bf0a a2bd 67d1 d9bc df88 28bd
000003a0: 8060 7a3d afd9 1fba 3f63 443d cce2 693b
000003b0: 243d 1e3d d827 2e3d af65 edbc ebad 88bd
000003c0: 4a83 42bd 9bd0 ff3c b86a 8c3d 9398 e03c
000003d0: 0be6 2ebd d8ff 453d 6197 953d 150a 89bd
000003e0: c2e6 35bd 3af4 9d3d 3350 40bd 1965 2abd
000003f0: 1456 723d bb5b 8b3d 5526 47bd 44cb 29b8
-0.015432225 -0.02172629 -0.016198555 0.023689149 -0.041354362 0.07401557 -0.27843583 -0.027818669
0.060819462 -0.031440146 -0.02441508 0.03370868 -0.011166154 -0.08551251 -0.055690885 -0.011068995
0.06388524 0.0485715 0.012548971 -0.0071345237 -0.02787838 0.0468144 -0.005979173 -0.08627627
-0.05729629 0.031935837 -0.0702222 -0.058629353 0.030009937 0.07305569 0.07712754 0.079560824
0.06032886 -0.023524074 -0.037900154 -0.06071578 0.019002613 0.0116205495 -0.009480175 -0.06752652
0.0034184887 0.005020564 -0.05303146 0.016987687 0.07527622 0.0804208 0.049358808 -0.058751453
-0.048561104 0.014000793 -0.054597817 0.0045489934 -0.062186368 -0.0466532 -0.053311326 -0.077920735
-0.012710225 -0.08311413 0.05088707 0.06199229 -0.010861791 0.030426273 -0.022462068 0.017256048
-0.06762995 0.08608593 0.07213995 0.0028795465 -0.07890195 0.06718321 0.044437222 0.08422775
0.08774426 0.085181266 -0.006740598 -0.0052151876 -0.08706496 -0.085631214 0.06669488 0.049042303
-0.0051320004 0.0021942807 -0.051377565 0.03961873 0.06624144 -0.06519363 -0.0060159885 0.004740467
0.019343749 -0.07345901 0.042766396 0.03463135 -0.06260938 -0.07957872 -0.07502576 -0.028834091
0.06399246 0.047125738 0.048862875 -0.019988237 0.08240605 -0.036064614 -0.060264133 0.052407697
0.06077351 -0.036320794 -0.041961275 -0.082919076 0.08076525 0.07250186 -0.023981145 -0.013084005
-0.05252553 0.008859847 -0.034458335 0.06154462 -0.013586648 -0.06367709 0.046957962 -0.08456216
0.051150322 -0.068214945 -0.074788414 0.08264671 0.054183185 0.05069051 0.05268558 -0.06666051
-0.046443302 -0.10059351 -0.0049686134 0.054089397 -0.03546663 0.06477404 0.15579014 0.029542875
-0.041835077 -0.010457002 0.013705281 -0.036607698 -0.06788056 -0.032476023 -0.042001348 -0.03280953
-0.037654784 -0.06582716 0.01919556 -0.055895507 0.0009812313 0.021038758 -0.06553622 0.070199855
0.03914437 0.02017654 -0.08767573 0.037427843 -0.07880562 0.08289153 0.011496269 0.08201
0.018448276 -0.018704182 -0.026578603 -0.0401168 -0.0828546 -0.02099401 0.067168884 -0.0004103628
0.052339397 0.043818686 -0.05848858 0.054951683 0.067487925 -0.050120484 -0.018492224 -0.0002665788
0.067863435 0.044526774 0.052852705 -0.0362608 -0.038550057 0.08479913 0.076652005 -0.00758776
0.05457524 -0.04969318 0.0094727045 0.010863961 -0.07818964 -0.011975563 -0.013150586 -0.084628545
0.078236625 0.046905573 -0.07105564 0.010629509 0.018240767 -0.029495776 0.053824842 -0.017001312
0.022794975 0.018993614 -0.03266508 0.0030860237 -0.07219562 -0.044417813 -0.08498822 0.07998683
0.005960639 0.01926818 -0.074356735 0.06283316 0.027554661 -0.044107605 0.082883514 0.007069217
0.013585246 0.046359237 0.04157364 0.051027905 0.013271241 0.036677692 -0.08804934 -0.04279842
0.045042925 -0.059239395 -0.035095334 0.02713883 0.082457766 -0.07912206 -0.026589109 -0.041146155
0.061127186 -0.0006097806 0.04794621 0.003568816 0.038632527 0.042518467 -0.02897915 -0.06673797
-0.04748849 0.0312274 0.068562925 0.027416503 -0.042699855 0.048339695 0.07304264 -0.06691376
-0.04440952 0.07712598 -0.046951484 -0.04160032 0.05916412 0.068046056 -0.04862054 -4.0482046e-05

convs.1.lin_rel.weight f4 [128, 128]
00000000: 5d3f cbbb a4c5 4bbd 972d 20bd 8e01 d9bd
00000010: 4483 493c 72a6 943d 1dbb b33d 590e a93d
00000020: 9f23 e43c 9598 99bd add7 a63d 36b9 2c3c
00000030: f9bb 833c 83e6 15bc 37ac 6ebc 6133 14bc
00000040: 6f8d 583e fccb d63c d308 8e3d b7fa 613d
00000050: c1ca 6dbd 2780 7fbd 1898 803a 4b5a 14be
00000060: 6fe8 2e3b 3249 00bd d4cd d9bd a4f7 3e3d
00000070: febf 6f3b 7725 023d 9d56 12bd 5b9b 833c
00000080: d895 b43d 575b 4fbd 22d7 e9bc c5c2 02be
00000090: b837 55be 9f4c bb3d a78f f4bc 494d 95ba
000000a0: 7bd6 13bd 1f8a 74bd 72c8 373d 9bc2 763d
000000b0: 9258 0c3e 1834 d33e a6ea 033d 0c83 fe3d
000000c0: efd6 4e3d 5c59 353d 7380 ac3d a711 c03b
000000d0: 4d7c ca3d 0992 05bc 480b 0ebe 2f1b c8bc
000000e0: 973e b03b be25 a33c 86c2 213c 7975 813d
000000f0: bcd6 95bd 4ce4 b7bd 08c1 0b3d 04d1 59bc
00000100: 1e58 b13d 3e27 e53c 5278 b3bc 7c8e bb3d
00000110: d7c4 673e a6af fcbc 1dd9 28bb e7bd 1f3d
00000120: 023e f2bd fe55 bc3d a69a 14be 1669 d13c
00000130: 816d db3c aaa4 833c bb14 1abd dc71 9bbd
00000140: f0bd 9a3d 04be 9e3c f48f 553d 2b4a 703c
00000150: 803e 983b e565 62bd aaf7 8fbd c000 26bd
00000160: a021 ae3c 4122 ac3d 6623 883d 84e6 ddbc
00000170: b664 5a3d 7643 af3b b435 2e3c 72fe 703d
00000180: 434e 5cbb 1056 dfbc 5621 ab3d ec13 153d
00000190: 60b0 1bbd b010 57bd 8374 c63c 6ad7 1a3d
000001a0: f693 923d fa01 2e3d ef2a 23bd 57ef ac3d
000001b0: 0b62 93bd ac32 673c 5b49 b93d 8c9b 163d
000001c0: c420 ac3d 845d dc3b 6914 053d 01ca 6e3d
000001d0: fabf 233c 9cb6 643d 8fd3 433d 8c34 92bd
000001e0: b2f3 fcbd 3e3c 1bbe 6fa2 c03d e9af 713d
000001f0: 25cc 46bc 17bd b73c 848a 813c 0463 96be
00000200: 69e5 dfbb 4e07 2ebc fbc9 7d3c dc4d 9bbc
00000210: a32f 8ebc b27f 82bc 4e41 953e db7c a5bd
00000220: 8a98 ccbd e62d a3bb bdb6 283e c2db 5abd
00000230: 8177 853d af2e 38bd 0ef5 88bd 85a6 9c3d
00000240: 78ad c4bd 6653 f93d 5d27 eebc 8a6d 533d
00000250: 5385 6fbd 75bb 503d 7420 3c3d 71c6 37bd
00000260: 17d4 79bc c743 ab3c 1520 13bd b097 d9bc
00000270: 08a1 763d 1cfa 0bbd 1b36 27bd 4c74 1a3c
00000280: 3883 c2b9 b54d 8ebb 7e8d d2bd cc6d c6bb
00000290: e8fc 083d 19e4 6dbd 2741 d83c 5e24 173e
000002a0: e71b 10bc 070b babc f12d 38bd f706 48bd
000002b0: 5cde e73d 0c98 6e3d 7774 26bd db6c 34bd
000002c0: 4ebe c1bc 22f2 27bd f356 803d 45b2 fe3c
000002d0: 1e64 a93d f66e 97bd fb02 273d 639d d7bb
000002e0: 5ad7 1a3c 08da 3f3d 91d1 a33c ba12 8f3c
000002f0: fd1b 6d3d b36a e03b 33fa c4bc 28f8 a23d
00000300: 944f 923d 6e27 633d d411 59bd c837 a93c
00000310: 080f d3ba 1106 bebb 4637 573c fa5f f93c
00000320: 0c68 d03b 80ef 2b3e 4944 15bd 5e60 62bd
00000330: 5153 96bd 7a18 4fbc 58ab ffbb 803f 41bc
00000340: 3775 7abc cbfa 043d 483d 8bbc a5aa 763b
00000350: 13a6 b2bc 94fb 343b b88f 8a3d babc dfbc
00000360: c828 d43c 7148 353e 1229 993c 681e 1b3c
00000370: dc45 c8bc 3f39 bd3d f63a 1a3d 61c8 153d
00000380: 6428 e23c 95bf 053d 51d3 91bc f342 8ebd
00000390: c2ab 1b3d be16 db3c 2ebe b7bc c7a9 cb3c
000003a0: 85ef a73c 7388 003d 7cb0 16bc 8df0 7b3d
000003b0: fc62 32bd 438f 66ba b265 853d 40d9 b1bd
000003c0: 9a41 083d 35fe 59bd 76e5 5c3d 82d7 35bc
000003d0: d261 cf3c 3597 0dbd aac6 5cbd 894c 26bd
000003e0: b5ae 033d cdc7 793b 7c67 6fbd be35 b6ba
000003f0: 0557 96bd 66f7 ed3c 4e01 a53c 9682 ee3c
-0.006202622 -0.04974903 -0.039105978 -0.10596 0.012299363 0.072583094 0.087759234 0.0825469
0.027849017 -0.07499806 0.08146606 0.010542205 0.016080843 -0.009149197 -0.014567426 -0.009045453
0.21147703 0.026220314 0.06935277 0.05517074 -0.05805469 -0.062378075 0.0009810952 -0.14487569
0.0026688834 -0.031319804 -0.10634962 0.046622887 0.0036582942 0.03177401 -0.035727132 0.01606529
0.08817643 -0.050624218 -0.028544966 -0.12769611 -0.20822036 0.09145474 -0.029853655 -0.0011390831
-0.036093216 -0.059702035 0.044868894 0.060244184 0.13705662 0.41250682 0.0322062 0.12427339
0.050497945 0.044274673 0.08422937 0.0058614793 0.0988699 -0.008152493 -0.13871491 -0.024427025
0.005378555 0.019915458 0.009873038 0.06321234 -0.07316348 -0.08979091 0.034119636 -0.013294462
0.08659385 0.027972814 -0.02190796 0.09158036 0.22633682 -0.030845474 -0.0025764175 0.038999464
-0.11828233 0.09196089 -0.14512119 0.025562804 0.026785614 0.016069729 -0.037617426 -0.07590076
0.07555759 0.019377716 0.052139238 0.0146661205 0.0046461225 -0.055272955 -0.0702966 -0.04052806
0.021256268 0.08404971 0.06647377 -0.027087457 0.0533187 0.005348618 0.010632921 0.058836408
-0.0033615984 -0.027262717 0.08355968 0.036395952 -0.03801 -0.05250615 0.024225479 0.03780309
0.071571276 0.042482354 -0.039835867 0.08444088 -0.071964346 0.014111202 0.090471946 0.036769435
0.08404687 0.006725015 0.032490168 0.058298115 0.009994501 0.055838212 0.04780918 -0.07138929
-0.12351169 -0.151597 0.09405982 0.05900565 -0.012133633 0.022429032 0.01581312 -0.29372418
-0.0068327677 -0.010621859 0.01549005 -0.018958025 -0.0173567 -0.01593003 0.29151386 -0.08080455
-0.09990032 -0.0049798368 0.16475959 -0.053432234 0.06516934 -0.044966396 -0.066873655 0.076489486
-0.09603399 0.1217411 -0.029071504 0.051618136 -0.058476757 0.050960023 0.045929387 -0.044866983
-0.01524832 0.020906342 -0.035919268 -0.026561588 0.060212165 -0.03417407 -0.040823083 0.009427141
-0.0003710033 -0.0043427595 -0.10280894 -0.0060555693 0.033444315 -0.05807886 0.026398255 0.14759967
-0.008795715 -0.022710336 -0.04496569 -0.048834767 0.113217086 0.058250472 -0.040638413 -0.044049125
-0.023650315 -0.0410024 0.06266584 0.031090865 0.08271049 -0.07394211 0.040774327 -0.0065800413
0.009450758 0.04683879 0.01999739 0.017464984 0.05788802 0.006848657 -0.024045086 0.07957488
0.071440846 0.055457525 -0.052995518 0.020656481 -0.0016102502 -0.005799063 0.013135737 0.030441273
0.0063600596 0.16790581 -0.036442075 -0.055267684 -0.0734011 -0.012640113 -0.007802408 -0.011794925
-0.015286735 0.032465737 -0.016996995 0.0037638333 -0.021807706 0.0027615773 0.067656934 -0.027311672
0.025898352 0.17703415 0.018696342 0.009467699 -0.024447374 0.092394345 0.037653886 0.03656805
0.02760715 0.03265341 -0.017800959 -0.06946363 0.038005598 0.026744243 -0.022429552 0.02486123
0.020499954 0.031380128 -0.009197351 0.061508704 -0.04355143 -0.00087951514 0.065135375 -0.08684015
0.033265688 -0.053220946 0.05392977 -0.011098744 0.025315199 -0.03456803 -0.0539004 -0.040600333
0.032149035 0.0038113475 -0.0584483 -0.0013901514 -0.073408164 0.029048633 0.020142224 0.029115003

convs.1.lin_rel.bias f4 [128]
00000000: e6f1 1ebe dc9b bdbd c627 11be 1acb 5e3e
00000010: 37da 3e3e 2739 273e 4229 733e aca3 15be
00000020: ffd9 5f3e 76ec f2bd 934f c7bd cb60 2c3e
00000030: 6498 cb3b 1a06 4dbe 92d4 5a3e 0839 993e
00000040: 7e25 acbd a6b5 623d aa70 1c3e 657d 5a3e
00000050: 9549 f33d 07d8 2f3e 1dc1 673e 521e 473e
00000060: 5b0c 25be 9af4 51be b8ce e4bd 1cd1 afbd
00000070: d27b 043e 04f2 e8bc e1de 3fbe 7d55 873e
00000080: c8bc 9b3e 159e 833e 212d 683e 8506 923e
00000090: 0815 17be a355 d9bd ebcc 6c3e 5f15 04be
000000a0: ac05 2dbe 5235 483e faee bdbd c71a 7d3e
000000b0: dad3 743e 6bd6 873e b133 943d 8fef 31be
000000c0: 0862 e2bd cd5d f0bc 72dd 69bd 9a61 903e
000000d0: 3fb9 76bb 58b7 d4bd fa6f 4d3d 0ba5 4b3e
000000e0: 0883 85bd 7e36 333e 4c38 673e 9dff 3dbe
000000f0: 0a2b a7bd 3c9f a4bc 0986 4f3e a0b7 4a3e
00000100: 8b29 183e c91a 28be b1b5 7d3e 8304 37bd
00000110: 2b0d 643e fedb e5bb f6c5 dcbd b718 43bd
00000120: 6b96 2b3e 2192 43be ccd4 843e aad6 4b3b
00000130: 0401 15be 65cb 483e 91c3 5b3e 2759 24be
00000140: 1223 c23b 3111 7f3e f864 803e 51dc d6bd
00000150: 7922 84bd 7ac0 14be d97b c4bd 733f 343e
00000160: a4b5 4e3e b0e8 b7bd b34f cd3d b533 a7bd
00000170: 15c2 823e ec7b 8d3e 6295 133e 2584 223e
00000180: 921c a43c cea9 8fbd 1d54 7f3e 11c6 d63d
00000190: b86e 6f3e 655b 563e 7567 4f3e 40ef 1b3e
000001a0: 444c 623d 7b1e a1bd 6b69 00be fd77 473e
000001b0: c28e 1e3e 94c5 5e3e 2f87 6cbc 3c5b d6bc
000001c0: 3b6a 0abe f16a c93b fd08 62bd 9e47 6c3e
000001d0: 66e4 353e d609 3c3e cac8 1f3e d45a 0bbe
000001e0: 0eac 813e ceaf d1bd c436 7d3e 1780 a9bd
000001f0: 578a 663e 0b71 d6bd fdb4 303e bfcc 2cbe
-0.15521964 -0.092582434 -0.14175329 0.21757165 0.1863793 0.16330396 0.23746207 -0.14613217
0.21860503 -0.118615076 -0.097319745 0.16833799 0.0062132347 -0.20021859 0.21370152 0.29926324
-0.084055886 0.055349015 0.15277353 0.21336897 0.11879269 0.17172252 0.2263226 0.1944516
-0.16117994 -0.20503464 -0.11172241 -0.08584806 0.12937859 -0.028435715 -0.18737365 0.2643241
0.30417466 0.25706545 0.22673465 0.285206 -0.14754117 -0.10612037 0.23125045 -0.12898777
-0.16896695 0.1955159 -0.09274097 0.24717246 0.2390894 0.26530775 0.07236422 -0.1737654
-0.11053854 -0.029341603 -0.057095952 0.28199464 -0.0037647036 -0.103865325 0.050155617 0.19887178
-0.06519133 0.17501256 0.2258007 -0.1855454 -0.08162506 -0.02009546 0.20265974 0.1979661
0.14859597 -0.16416468 0.24776341 -0.044682037 0.22270648 -0.0070147505 -0.107799456 -0.04763099
0.16756599 -0.19098713 0.259436 0.0031103292 -0.14551169 0.19608839 0.21461321 -0.16049634
0.005924591 0.24908902 0.25077033 -0.10491241 -0.06451888 -0.14526549 -0.095939346 0.17602329
0.20186478 -0.089799285 0.10024967 -0.08164159 0.25538698 0.27633607 0.14412454 0.15870722
0.020033155 -0.070148095 0.2493443 0.10486997 0.2338208 0.20933302 0.2025431 0.15227985
0.055248514 -0.07867142 -0.12540214 0.19479366 0.15484145 0.21755058 -0.014436527 -0.02616655
-0.13517086 0.0061467816 -0.055184353 0.23074195 0.17762908 0.18363127 0.15603939 -0.13608867
0.2532658 -0.1023861 0.24727923 -0.08276384 0.2251371 -0.1047078 0.17256542 -0.1687498

convs.1.lin_root.weight f4 [128, 128]
00000000: 4010 0dbc a9f7 3d3d fbf7 a6bd 2d5c 95bd
00000010: 45e7 cdbb ee11 34bd 037b 11be d0d5 cbbd
00000020: aef3 7bbd b274 eb3c 3402 533a 504f 0dbe
00000030: 56b0 573b ec3f cebd f6c2 00be 59e7 653d
00000040: 6cc6 a1bd 7cae 93bb 47cd 03be faa8 48bd
00000050: 2974 ecbd 5aca 9fbc 165f c3bc c682 3a3d
00000060: e699 c7bc 75d9 a0bc 913e 743c 8388 a6bd
00000070: cff4 9dbd 5f8c 11be b484 14bd 29bc ccbd
00000080: 5026 aebd bc5c 5ebd 8e5b e5bd 767c 3a3c
00000090: 0acf 3b3d de79 a5bd b39f 483d ccf0 cebd
000000a0: abba d3bc c466 04be 9df3 b6bb 6fe3 37bd
000000b0: df10 c0bd f4ea 923d 7613 42bd e694 afbd
000000c0: 936d adbd 7f53 39bd b69e f1bd 13da 4fbd
000000d0: 01d8 76bd 6678 25be 2dad a23c 77ce f13d
000000e0: 022e 8a3b 7df3 5cbd 2ce7 88bb 217a c4bc
000000f0: 84fb 283d 141b 253e 049d 59bd 64f3 8f3c
00000100: 534e 53bd b097 09be 66ad 2fbd dd5b a5bd
00000110: e935 2f3d 770c 04be cf78 81bd 727c 70bd
00000120: 6514 833c 6078 2cbd 4bbe 953e fe0b 22bb
00000130: bf9b 7fbd 3858 5f3c 4c41 533d f86b e23d
00000140: 28f3 59bd e615 8dbc c107 cebd 05d1 59bd
00000150: a571 cebd f14d 953d f1e8 86bd 8a70 bcbd
00000160: ede7 503b a4b0 40bd 8662 0abe 0d2f 05be
00000170: d1f5 19bc 509a 19be 8660 f2bd 1fd2 9ebd
00000180: 2a8f b0bd cdc0 f03b fed8 a6bd 23d8 3bbe
00000190: e13d 99bd 80c9 1abe 69d0 7dbd ecec 27bd
000001a0: fd4e bebd 2c25 6ebc 08a0 cc3c 7756 583c
000001b0: b180 22bd 31a0 48be 7703 13be f764 a3bc
000001c0: 69e6 84bd 0f0a a7bd e206 2abd bb47 f73b
000001d0: a56f b9bd 1f28 6dbd b2ca d8bd a34c 8b3d
000001e0: 7ba7 9cbb 815f 1e3d d7b7 90bd ed57 e8bd
000001f0: 613e abbd 8e54 01bc 88b7 ac3c 595c c1bd
00000200: 01d8 513e 872a c0ba 97d6 9dbb 201a 783d
00000210: 9de8 f23d 7483 943d 796d 9dbe be1f 6ebd
00000220: 15e2 1bbe ca4b d0bc b2b5 44bd 167c 88be
00000230: bbef 13be 7b79 943c 8543 d8bd e997 98bd
00000240: 59dc 48be 8e9c 9dbd 6f8e 47be 3a0d 66bc
00000250: d613 56be 0b17 9b3d a4d8 aebd cf9c 9f3e
00000260: 24e8 47be db6a 34be 9117 0f3e decf ccbd
00000270: 71c2 ccbd 3348 23be 9d11 e3bb abd1 11be
00000280: ede0 e3bd 5ad0 33bd 5890 07be da39 893e
00000290: c470 8d3e a2b8 b7bd e4b3 7f3e e57b 7ebe
000002a0: 06df 223d fb0c 953b ccc8 a73c 4447 e4bd
000002b0: 1b94 0fbe dcec d8bd 9718 0ebe cb92 93bd
000002c0: e41c b43d 112e 9e3d 05a9 833d 9c43 e0bd
000002d0: 57cc 24be 11c0 0abe fea7 733d a277 013e
000002e0: d581 e1bd 2820 e0bc 66ef 00bd 03f7 04be
000002f0: 35c3 2abc 2b2f 4d3e 927e debc f84d 533c
00000300: 0988 66be 5cfa 80bd 5609 2b3d c832 56be
00000310: 63e4 46bc c65e b5bc 078f 76be fbc9 7fbc
00000320: dcd3 d73e c82a 1bbe a9fe 003f 22cf 393c
00000330: 5514 673d 031d 23be 4e4f e9bd 56fe 5d3e
00000340: 5a7c b0bd c668 98bd 9730 97be 51a6 c33d
00000350: 0045 eabd b969 1f3e 9d91 9fbd 3b17 b03d
00000360: d4be 4dbc fa7f ecbd 4782 18be ec48 5fbd
00000370: d31c 37bd 2c84 10be fe73 dd3d f78b 20be
00000380: 93ca 213d 1543 283c 3598 a5bd 9dc2 41be
00000390: b47a fdbc c8d2 803d c158 e43d 4815 b9bd
000003a0: f7de 523d 142f 6ebe d53e 853e b2ad 84bc
000003b0: 5024 01be 0bfa 55be ca8d 15bc d4b7 25be
000003c0: ed67 b4bd eab5 8d3c c1d7 0d3c e4b0 79bd
000003d0: 4866 df3c 9af0 91bc 4fb6 9cbe ab89 1c3e
000003e0: a38f 8d3e ea36 f03e 7cf2 b4bd 8cf1 07be
000003f0: 0b8f 0fbe 21b5 5bbe 0d8a 333d 2c9e 873e
-0.008609831 0.046378765 -0.08152767 -0.07292972 -0.006283673 -0.04396241 -0.14207081 -0.09952891
-0.061511688 0.028742168 0.00080493395 -0.13799787 0.00329115 -0.10070786 -0.12574372 0.056128833
-0.07899174 -0.004506884 -0.12871276 -0.048989274 -0.11545593 -0.019505668 -0.023849051 0.04553487
-0.024365377 -0.019634942 0.014907495 -0.08131506 -0.07712709 -0.14213704 -0.036259368 -0.09996826
-0.08503401 -0.054287657 -0.11199103 0.011382213 0.045851745 -0.08079885 0.048980426 -0.10104522
-0.025845846 -0.12929827 -0.00558324 -0.044894632 -0.09378218 0.0717372 -0.04738184 -0.08573322
-0.08468165 -0.045245644 -0.1179785 -0.05074508 -0.06026459 -0.1615921 0.019857967 0.11806958
0.0042169103 -0.053943146 -0.0041779485 -0.023984017 0.04125549 0.1612361 -0.053128257 0.017572112
-0.051588368 -0.1343677 -0.042889975 -0.08074162 0.042776022 -0.1289538 -0.063218705 -0.05871243
0.016000936 -0.042106986 0.29246745 -0.0024726386 -0.06240439 0.013631873 0.051575944 0.1105575
-0.053210407 -0.017222356 -0.10060073 -0.053177852 -0.1008027 0.07290257 -0.06587399 -0.092011526
0.003187652 -0.047043458 -0.13514146 -0.1300623 -0.009396986 -0.15000272 -0.11834817 -0.07754921
-0.086210564 0.0073472024 -0.08146857 -0.18344168 -0.074825056 -0.15115929 -0.061966334 -0.04099743
-0.092924096 -0.01453523 0.024978653 0.013204209 -0.03967351 -0.19592358 -0.1435679 -0.019945605
-0.0648926 -0.081562154 -0.04151047 0.0075463927 -0.09054498 -0.05789959 -0.10585536 0.06801727
-0.0047807074 0.0386653 -0.07066315 -0.113448955 -0.08361507 -0.007893695 0.021083608 -0.09441442
0.20492555 -0.0014661112 -0.004816841 0.06057179 0.11860774 0.07251635 -0.30747584 -0.05813574
-0.15222962 -0.025426764 -0.04802484 -0.2665717 -0.14446919 0.018124333 -0.10559753 -0.074508496
-0.19615306 -0.07695876 -0.19487928 -0.014041239 -0.20906004 0.075727545 -0.08537415 0.31174323
-0.19522148 -0.17618887 0.13973834 -0.10000585 -0.09998024 -0.1594551 -0.00692959 -0.14240138
-0.111268856 -0.04389987 -0.13238657 0.2680195 0.27625096 -0.08970763 0.24970967 -0.2485195
0.039763473 0.0045486665 0.02048149 -0.11146405 -0.14021342 -0.10592052 -0.13876568 -0.07205733
0.08794573 0.0772363 0.06428722 -0.109503955 -0.16093574 -0.1354983 0.05948638 0.12643293
-0.110110916 -0.027359083 -0.03147831 -0.12984852 -0.010422518 0.20037524 -0.027159963 0.012897007
-0.22512831 -0.06297752 0.04175695 -0.20917809 -0.012139413 -0.022139918 -0.24077998 -0.015612121
0.42153823 -0.15153039 0.5038858 0.011340888 0.056415875 -0.15929036 -0.11392079 0.21679053
-0.08617468 -0.07441859 -0.2952926 0.09553207 -0.11438942 0.15567674 -0.077914454 0.08598181
-0.012557704 -0.11547847 -0.14893447 -0.054512903 -0.044705223 -0.1411292 0.108131394 -0.15678392
0.03949983 0.0102699 -0.08085672 -0.18921895 -0.030942298 0.06290203 0.11149741 -0.09037262
0.051482167 -0.23260146 0.260245 -0.016196106 -0.12611508 -0.20896165 -0.009128043 -0.16183406
-0.08808885 0.017298657 0.008657397 -0.06095971 0.027270451 -0.017814923 -0.3060784 0.15286891
0.2764865 0.46916896 -0.08835313 -0.13275737 -0.1401941 -0.21455814 0.043832827 0.26487863

fc.weight f4 [1, 128]
00000000: 2d76 97be 73a6 1bbe 27df 3fbe 409f 183e
00000010: c22a c53d bfac 193e b2f1 913e 2019 88be
00000020: 95a7 073e d108 79be 0b34 05be 3c82 043e
00000030: f078 20be e200 9abe 11d6 513e 858f 9c3d
00000040: e19e 61be 279d 91be cf2b d63d 6cd9 cd3d
00000050: d0ed 2f3e eeed 8c3e 4870 823d 2f4c 5b3e
00000060: b1ab 46be 31e1 79be b2a5 4dbe 96f8 a8be
00000070: 3086 0b3e e9d7 c8be 3942 87be 24ee 0e3e
00000080: b524 043e d787 2b3e c41a ca3d 5b6a 1b3e
00000090: 4408 52be 157d 29be 9fe2 463e 9c54 2ebe
000000a0: 89f9 0dbe 6cf0 313e f4d5 40be fa72 193e
000000b0: 7579 4c3e 9a92 273e 03d6 8cbe 214e 00be
000000c0: ef66 3abe 38db 1dbe 7c5d e8bd d1ae c53d
000000d0: e342 85be 62a3 99be 70f8 943d 67d1 123e
000000e0: a5ab 9bbe c9ef c33d 3639 653e 914b 49be
000000f0: 5a5f e9bd 3706 a2be e496 a43d 4e4a 243e
00000100: 081a 403e b996 35be 90d4 863e 2821 05bf
00000110: 6407 363e 45e4 2fbe 0c44 7bbe 3368 d3be
00000120: b957 da3d ad22 21be dd92 6f3e 628a 1fbe
00000130: fc0b 84be 36ce 843e cbc2 993d 49da 18be
00000140: 8c31 e6bd 1d66 163e 9469 273e 9058 10be
00000150: ca78 e23c 0297 69be 09f7 06bc 8e30 b53d
00000160: 62b3 473e 850a 46be 877f 193e a06e d7bd
00000170: 51be 103e 9059 e93d 2803 8f3d a443 903d
00000180: 6e26 00bf 632f 77be fd5b 5e3e 1c98 723e
00000190: 6e5d 863d 25d9 953e ebe0 db3d adbc 4a3e
000001a0: f53e 243d 36bf 33be 7f86 9abe 37c9 303e
000001b0: 1d7a 553e b0be 383e 04f3 99be 8896 a0be
000001c0: b7b7 26be 2633 57be 3755 5dbe d141 663e
000001d0: df0e e93d ed6d 813e 53f1 cb3d 05a6 cdbe
000001e0: ec94 4a3e 21b6 35bc e3c3 ee3d 5ef0 aebe
000001f0: d5d7 1a3e 3891 8fbe 7e62 323e de30 22be
-0.29582348 -0.15200214 -0.1873747 0.14904499 0.09627296 0.15007304 0.2850471 -0.2658167
0.13247521 -0.2431977 -0.13008134 0.12940305 -0.15671134 -0.300788 0.20491816 0.07644562
-0.22033264 -0.2844021 0.104575746 0.100512356 0.17180562 0.27525276 0.06369072 0.2141578
-0.19401433 -0.2440231 -0.20082739 -0.33002156 0.13625407 -0.39227226 -0.2641771 0.13958031
0.12904628 0.16751038 0.098683864 0.1517729 -0.20510966 -0.16551621 0.19422387 -0.17024463
-0.13864721 0.1737687 -0.18831617 0.14985266 0.19968207 0.16364518 -0.27507028 -0.12529804
-0.18203329 -0.15415657 -0.11345956 0.09652484 -0.26027593 -0.30007464 0.07273948 0.14337693
-0.30404392 0.0956722 0.22385105 -0.19657733 -0.1139514 -0.31645367 0.080365926 0.1604397
0.1875993 -0.17733277 0.26334047 -0.5200372 0.17776257 -0.17176922 -0.24537677 -0.41290435
0.10661263 -0.15735884 0.23395868 -0.15580133 -0.25790393 0.25938576 0.07507857 -0.14927019
-0.11239919 0.1468739 0.16348869 -0.14096284 0.027645487 -0.22811511 -0.008237609 0.08847152
0.19502023 -0.1933995 0.14990054 -0.10519147 0.141351 0.11394036 0.06983024 0.070441514
-0.5005864 -0.2413917 0.21714778 0.23690838 0.06560789 0.2926723 0.10736259 0.19798537
0.040099103 -0.1755341 -0.30180737 0.17264257 0.20847364 0.18041492 -0.3006822 -0.31364846
-0.16281019 -0.21015605 -0.21614538 0.22486044 0.113797896 0.2527918 0.09958138 -0.40165725
0.19783372 -0.011090786 0.11658456 -0.3416776 0.15121396 -0.2804048 0.17420384 -0.15838954
