checkpoints/gat_best.pth (torch, 409933 bytes, 13 tensors)

l1.att_src f4 [1, 4, 64]
-0.25389564 0.30457133 -0.0021196762 -0.09700307 0.14984965 -0.014373012 -0.2368756 -0.010636635
-0.019324662 0.07477246 -0.010053263 0.11479258 -0.26953828 -0.23089562 -0.038185127 0.05649967
-0.07328106 0.11227339 0.07951214 0.15005398 0.31236646 -0.2784335 0.07824663 0.11543319
-0.16186391 0.29828417 0.3326256 -0.12507823 -0.07403217 -0.19413792 -0.22810113 0.023343874
-0.16780849 0.18739754 0.1678535 -0.051689964 0.14700274 0.029510746 0.089573406 -0.11508912
0.11603857 -0.2303457 0.26577365 -0.2955677 -0.19925365 -0.22246483 -0.29928008 -0.030574365
-0.23601106 -0.20141369 -0.03601873 -0.25833386 -0.12466637 0.30148277 0.12749065 -0.13152231
-0.09477468 -0.068088 -0.2738503 -0.13137405 -0.23115768 0.20980287 -0.14377439 -0.31322142
0.007630013 0.07832085 -0.15483978 -0.060533635 -0.28213602 0.29019496 -0.031037668 -0.19879274
-0.25706986 -0.19407436 -0.164482 -0.16020525 0.24670652 -0.028568694 0.14438324 0.23979299
0.26977766 0.14989838 0.008475626 -0.0030044839 -0.020003768 -0.017574258 -0.18766026 -0.030644715
-0.2808117 0.13877025 0.25032163 -0.29084805 -0.071849376 0.048504494 0.17462376 -0.070530675
-0.29623276 0.020401256 -0.19482128 0.08949905 0.079109475 0.27559498 0.19612452 -0.17483526
0.14279993 -0.00977986 0.095159896 -0.2259939 -0.03997563 -0.055817638 -0.1800582 0.071228385
0.058195394 0.23844862 -0.2764504 -0.056442026 0.23352642 -0.08181117 0.05481909 0.09866909
0.20812924 -0.10136036 -0.059910245 -0.027451677 -0.15274565 0.26361272 -0.10084959 -0.03702269
0.00332655 -0.18354404 -0.05875947 0.14205441 0.024730232 0.25545093 -0.25937685 -0.2658575
0.27510107 -0.08291506 0.05778915 0.08231479 0.29745418 -0.06732278 0.01602958 -0.25234872
0.21293326 -0.013048884 -0.07398063 0.05490554 -0.05354981 0.07602763 -0.12565409 -0.22044443
0.28220588 -0.11437794 -0.15890372 0.027770264 -0.22889909 -0.020862011 0.10497148 -0.22654572
-0.04998425 0.21171007 0.17452507 0.25876114 0.1724945 -0.24329317 0.23847927 0.04117833
0.25067264 0.17098516 0.102080435 -0.23747693 -0.0777355 -0.0070444625 -0.18417634 -0.20319511
0.097613476 -0.0623179 -0.13270779 -0.29649863 0.035073966 -0.09020903 -0.14372386 -0.081157975
0.17293265 -0.011721306 -0.16260159 0.18823391 0.04511495 -0.24470665 -0.25329962 -0.025529815
0.11032301 0.3011651 0.24642138 -0.012761931 -0.22341138 0.1816721 -0.25415608 0.14997539
-0.24861 0.20293403 -0.09713525 0.047579188 -0.1493249 -0.25726128 0.10465085 0.067943536
-0.30135047 0.19746174 0.10179124 0.20263869 0.11758756 0.0133511685 0.027672606 0.14662637
-0.15645456 0.0015277636 -0.25684327 0.29000124 0.30446985 -0.12093469 0.02262845 0.25381255
0.25218394 0.15784799 -0.09492594 0.020456625 0.30957898 0.19364661 -0.2538474 0.28967658
-0.045259424 0.17307836 0.14752723 -0.07870762 0.16965574 0.007831689 -0.050901964 -0.10485744
0.20667507 0.100174285 0.0059671495 0.2996131 -0.083581574 -0.14930327 -0.21956988 -0.2134815
0.034539714 0.276355 -0.16126095 -0.22239129 0.2193204 -0.28581977 0.18522318 -0.007069446
00000000: 9cfe 81be c6f0 9b3e 44ea 0abb 8ca9 c6bd
00000010: 3072 193e c87c 6bbc 848f 72be 4845 2ebc
00000020: c14e 9ebc 4e22 993d 71b6 24bc 5f18 eb3d
00000030: ec00 8abe e76f 6cbe 0268 1cbd 336c 673d
00000040: 6114 96bd 97ef e53d 43d7 a23d c0a7 193e
00000050: 7fee 9f3e d68e 8ebe c53f a03d 3c68 ec3d
00000060: a7bf 25be b4b8 983e e74d aa3e 8214 00be
00000070: 2e9e 97bd 17cc 46be 5893 69be a73b bf3c
00000080: fdd5 2bbe 24e5 3f3e cae1 2b3e dbb8 53bd
00000090: e387 163e 85c0 f13c 4372 b73d d8b3 ebbd
000000a0: a1a5 ed3d bedf 6bbe 7c13 883e a654 97be
000000b0: 2609 4cbe d2cd 63be 3d3b 99be 1777 fabc
000000c0: e2ac 71be 643f 4ebe 6088 13bd 5644 84be
000000d0: 1551 ffbd f35b 9a3e e98c 023e c9ad 06be
000000e0: 3a19 c2bd b971 8bbd 1b36 8cbe eb86 06be
000000f0: 99b4 6cbe 90d6 563e 9839 13be 8f5e a0be
00000100: 3005 fa3b af66 a03d 528e 1ebe 1ef2 77bd
00000110: 2274 90be 6f94 943e b542 febc 5390 4bbe
00000120: a99e 83be 6ebb 46be f86d 28be d80c 24be
00000130: a2a0 7c3e e508 eabc 33d9 133e 4b8c 753e
00000140: 4c20 8a3e f67e 193e 5add 0a3c e0e6 44bb
00000150: f1de a3bc e4f7 8fbc 032a 40be a00a fbbc
00000160: 8dc6 8fbe ca19 0e3e 282a 803e 09ea 94be
00000170: c425 93bd a6ac 463d 92d0 323e 6372 90bd
00000180: d2ab 97be 8920 a73c 3b7f 47be 474b b73d
00000190: 2604 a23d c91a 8d3e ded4 483e 0408 33be
000001a0: 253a 123e b53b 20bc 31e3 c23d f26a 67be
000001b0: 7cbd 23bd 09a1 64bd 2d61 38be 30e0 913d
000001c0: 4b5e 6e3d e02b 743e e88a 8dbe c12f 67bd
000001d0: 8d21 6f3e 9d8c a7bd fb89 603d 0513 ca3d
000001e0: d51f 553e 0596 cfbd 7264 75bd 57e2 e0bc
000001f0: 5b69 1cbe 3ff8 863e 3b8a cebd 1ba5 17bd
00000200: 3f02 5a3b f8f2 3bbe c5ad 70bd b676 113e
00000210: 0e97 ca3c 77ca 823e 0bcd 84be 791e 88be
00000220: 0cda 8c3e 5fcf a9bd 51b4 6c3d a894 a83d
00000230: ea4b 983e 87e0 89bd 7750 833c da33 81be
00000240: 2d0b 5a3e fdca 55bc 2883 97bd a2e4 603d
00000250: 0c57 5bbd 60b4 9b3d 77ab 00be 2fbc 61be
00000260: 4a7d 903e fb3e eabd a8b7 22be 777e e33c
00000270: 8664 6abe cfe6 aabc 4afb d63d 9afb 67be
00000280: 49bc 4cbd 86ca 583e b3b6 323e 577c 843e
00000290: 66a2 303e d821 79be e933 743e 9caa 283d
000002a0: 2a58 803e bc16 2f3e 8c0f d13d 272d 73be
000002b0: ca33 9fbd 3cd5 e6bb b998 3cbe 6112 50be
000002c0: 93e9 c73d 0e41 7fbd 8de4 07be abce 97be
000002d0: b8a9 0f3d 83bf b8bd 592c 13be 2736 a6bd
000002e0: 4215 313e b80a 40bc 0881 26be 64c0 403e
000002f0: 74ca 383d 6194 7abe 7db0 81be e723 d1bc
00000300: 08f1 e13d 5032 9a3e e355 7c3e 6b17 51bc
00000310: f4c5 64be 4008 3a3e bf20 82be 2693 193e
00000320: 9f93 7ebe f0cd 4f3e d9ee c6bd 65e2 423d
00000330: a0e8 18be c0b7 83be 2f53 d63d fb25 8b3d
00000340: 9c4a 9abe 6933 4a3e ed77 d03d 8480 4f3e
00000350: bfd1 f03d dcbe 5a3c a9b1 e23c 3925 163e
00000360: a035 20be 3d3f c83a f680 83be 0b7b 943e
00000370: 79e3 9b3e 9bac f7bd 4d5f b93c b8f3 813e
00000380: 411e 813e e7a2 213e 8868 c2bd a794 a73c
00000390: 2381 9e3e 4c4b 463e 49f8 81be 7d50 943e
000003a0: f261 39bd 743b 313e 6111 173e 7631 a1bd
000003b0: 3cba 2d3e 7c50 003c 947e 50bd 7fbf d6bd
000003c0: a1a2 533e 2d28 cd3d 1488 c33b e366 993e
000003d0: d12c abbd f5e2 18be edd6 60be e59a 5abe
000003e0: 8479 0d3d 677e 8d3e 9721 25be 8bba 63be
000003f0: 8795 603e f856 92be 25ab 3d3e d0a6 e7bb

l1.att_dst f4 [1, 4, 64]
0.23947464 -0.23515113 -0.15648063 -0.01301553 0.11096763 0.045003954 0.087835565 0.28888398
0.12866694 -0.037556797 -0.2787084 0.04018051 0.076466456 0.07980918 -0.13325466 -0.16647501
0.19465242 -0.11676263 0.01941534 0.20388943 -0.13922423 -0.19808981 0.103427604 -0.18863538
-0.18969084 -0.0733537 -0.23325789 -0.2100662 -0.33130324 -0.16930006 0.1943802 0.09323147
-0.25574532 -0.17986174 -0.1681013 0.090845324 0.015528052 0.067907535 0.2280739 0.04100546
-0.1755751 0.14101504 0.16496909 -0.1900816 -0.05195889 -0.16789347 -0.10159163 0.2534405
0.05273905 -0.2602295 0.22932822 0.058910668 -0.14334047 0.11277039 -0.3161074 0.06508137
0.13935558 0.2389169 0.27390787 0.27108833 -0.1280595 0.25635657 -0.12605684 0.04477231
0.18764545 -0.16483094 0.27499393 -0.051099326 -0.03677516 -0.118238226 -0.19430207 0.12132006
0.20828167 -0.20604867 0.058351044 -0.07093001 -0.17509618 0.11339844 0.0025625366 -0.03140082
0.14955701 0.1141954 0.16116273 -0.22795002 -0.037742298 -0.17478573 0.22369647 -0.04146202
-0.22278786 0.22072679 -0.09593843 -0.06927923 -0.031467486 0.1284349 0.14677694 0.14486489
-0.269215 0.26756397 0.17140889 0.18339369 -0.069372356 -0.0654914 0.0029756252 0.30748916
0.07812021 -0.062998846 -0.1331008 -0.28545314 0.15783982 -0.12233046 0.03977248 -0.11872583
0.20503055 0.042204116 -0.278401 0.0092311995 0.20148185 0.23635675 0.26635286 0.021454312
0.17760567 0.14637311 -0.15176947 -0.038250547 -0.25547466 0.115281805 0.21418881 0.26620743
-0.18526676 0.11290348 -0.28005698 0.051552325 -0.058875874 -0.020177675 -0.25976855 -0.083067685
-0.18239647 -0.31614438 -0.021278432 0.24896784 -0.09311082 -0.24672475 -0.07246679 -0.31850252
0.22331102 0.07028311 0.012640867 -0.2868306 -0.2726147 0.25787053 -0.30657762 0.09152716
0.19718525 -0.27920938 0.07228173 0.012171907 -0.16625407 -0.20005512 -0.24974063 -0.18928783
0.20276736 -0.22717802 -0.13593124 0.13482557 0.0047418047 -0.05978378 -0.25362247 0.16814892
0.16310383 0.27651885 0.17792344 -0.05845538 0.008829214 0.20423375 -0.0063152644 -0.18185537
0.06729034 0.041735783 0.1608658 0.079745375 -0.0447329 -0.15497395 0.055908393 -0.1192889
-0.216453 0.056315973 0.21159437 0.027439518 -0.20596425 -0.09676054 0.2887788 0.09311646
-0.2397883 -0.14533477 -0.089254774 -0.17740518 0.27320254 -0.15301348 0.091099195 0.12420138
-0.0792419 -0.023128828 -0.12265069 -0.058794454 -0.08225285 -0.08577389 0.21967557 0.12834339
0.29462263 0.04053713 0.15626942 -0.00983168 -0.28569022 0.27265954 0.08534675 -0.1283635
0.12435167 0.28158775 -0.12612826 -0.31239638 0.054323707 0.1384707 -0.021839982 -0.14881638
0.06091553 0.22795323 0.12177804 -0.22691606 -0.2775806 0.27521235 -0.07819123 -0.1534376
0.13848218 -0.17460193 0.06825494 0.14159179 -0.00064202014 -0.27296945 -0.1685957 -0.08808794
-0.08333648 -0.049108792 0.083389394 0.14322732 -0.28050068 0.22320227 0.026250051 0.17669642
0.042688478 -0.27864134 -0.0541243 0.14078863 -0.018613791 -0.14013888 -0.2058254 -0.25439414
00000000: d738 753e 75cb 70be 753c 20be 173f 55bc
00000010: ff42 e33d 1156 383d 22e3 b33d 9ae8 933e
00000020: 44c1 033e 28d5 19bd deb2 8ebe 5294 243d
00000030: 729a 9c3d ff72 a33d e973 08be 6d78 2abe
00000040: f752 473e 3f21 efbd eb0c 9f3c 64c8 503e
00000050: cc90 0ebe 0ed8 4abe dad1 d33d a229 41be
00000060: 513e 42be 773a 96bd 28db 6ebe 981b 57be
00000070: 94a0 a9be ff5c 2dbe 9a0b 473e 24f0 be3d
00000080: 0df1 82be ad2d 38be bf22 2cbe 1d0d ba3d
00000090: 5f69 7e3c 1b13 8b3d 348c 693e 57f5 273d
000000a0: f6c9 33be 3f66 103e a8ed 283e c0a4 42be
000000b0: d8d2 54bd 44ec 2bbe 460f d0bd f4c2 813e
000000c0: e704 583d cd3c 85be 04d5 6a3e 504c 713d
000000d0: d8c7 12be 2af4 e63d d4d8 a1be 6249 853d
000000e0: 3bb3 0e3e a2a6 743e a73d 8c3e 17cc 8a3e
000000f0: 0822 03be 2b41 833e 0b15 01be 2b63 373d
00000100: 2126 403e 71c9 28be 01cc 8c3e 874d 51bd
00000110: 8da1 16bd e226 f2bd 1ff7 46be a776 f83d
00000120: ca47 553e 6cfe 52be 8101 6f3d c143 91bd
00000130: 6a4c 33be 713d e83d 3bf0 273b 259e 00bd
00000140: 7925 193e 47df e93d d807 253e bb6b 69be
00000150: ab97 1abd 08fb 32be b010 653e 14d4 29bd
00000160: 8022 64be 3406 623e 5e7b c4bd 45e2 8dbd
00000170: 0de4 00bd 7084 033e b24c 163e 7657 143e
00000180: 8cd6 89be 25fe 883e d085 2f3e 8ecb 3b3e
00000190: 1813 8ebd 5b20 86bd b502 433b 386f 9d3e
000001a0: 7dfd 9f3d 8a05 81bd 934b 08be ea26 92be
000001b0: c3a0 213e 6488 fabd 78e8 223d 8726 f3bd
000001c0: 87f3 513e 39de 2c3d 938a 8ebe 753e 173c
000001d0: 4251 4e3e 8107 723e 675f 883e f4c0 af3c
000001e0: 43de 353e d5e2 153e 7569 1bbe 9bac 1cbd
000001f0: 93cd 82be de18 ec3d 5054 5b3e 574c 883e
00000200: 92b6 3dbe f139 e73d a163 8fbe 8828 533d
00000210: d427 71bd a74b a5bc 6200 85be 641f aabd
00000220: 24c6 3abe addd a1be 1b50 aebc 6df1 7e3e
00000230: e3b0 bebd 6aa5 7cbe 7869 94bd c312 a3be
00000240: a5ab 643e 97f0 8f3d a41b 4f3c 76db 92be
00000250: 2794 8bbe 9b07 843e bef7 9cbe 9772 bb3d
00000260: eeea 493e 88f4 8ebe 7208 943d ae6c 473c
00000270: 823e 2abe 40db 4cbe 02bc 7fbe abd4 41be
00000280: 3fa2 4f3e 5ba1 68be 8f31 0bbe b70f 0a3e
00000290: 2461 9b3b d6df 74bd ceda 81be 3b2f 2c3e
000002a0: b104 273e e193 8d3e 9031 363e e96e 6fbd
000002b0: 68a8 103c a722 513e 47f0 cebb 4b38 3abe
000002c0: 85cf 893d 24f3 2a3d 01ba 243e 8b51 a33d
000002d0: d839 37bd 7eb1 1ebe 3300 653d bd4d f4bd
000002e0: dba5 5dbe 94ab 663d 32ac 583e d7c8 e03c
000002f0: 4be8 52be 642a c6bd d1da 933e d8b3 be3d
00000300: 108b 75be a3d2 14be 35cb b6bd b4a9 35be
00000310: 34e1 8b3e 91af 1cbe 3792 ba3d 4b5d fe3d
00000320: 9449 a2bd ab78 bdbc 4930 fbbd 74d2 70bd
00000330: 2f74 a8bd 39aa afbd a2f2 603e 736c 033e
00000340: c7d8 963e 430a 263d 1705 203e 0e15 21bc
00000350: fd45 92be 089a 8b3e 47ca ae3d b971 03be
00000360: 17ac fe3d 452c 903e c427 01be 6bf2 9fbe
00000370: 8982 5e3d 43cb 0d3e c3e9 b2bc 5263 18be
00000380: 9082 793d 926c 693e c466 f93d af5c 68be
00000390: 0b1f 8ebe a2e8 8c3e b922 a0bd bf1e 1dbe
000003a0: 46ce 0d3e d9ca 32be 3fc9 8b3d 70fd 103e
000003b0: 3e4d 28ba a7c2 8bbe 5aa4 2cbe 7367 b4bd
000003c0: 51ac aabd 4d26 49bd 0fc8 aa3d 2faa 123e
000003d0: c99d 8fbe 238f 643e 590a d73c e8ef 343e
000003e0: 1dda 2e3d 14aa 8ebe 71b1 5dbd e52a 103e
000003f0: f37b 98bc 9180 0fbe e5c3 52be f33f 82be

l1.bias f4 [256]
0.024506647 -0.021386743 -0.0016868516 -0.016026864 0.04029226 -0.0029530372 0.003339142 -0.017793009
0.0013801106 0.0074130218 0.012996449 -0.013633354 -0.009544015 -0.02092454 0.00015052797 -0.021673197
0.010687383 -0.05022521 -0.015971834 -0.017103026 -0.028472833 0.030804405 -0.008581578 0.022703534
-0.051815543 -0.02421807 -0.0204788 -0.010235036 -0.0032349958 0.035598084 -0.037372474 -0.010553701
-0.001059589 0.06547096 -0.038003318 0.0117025385 -0.03158391 0.04474562 -0.013967131 -0.046187334
-0.026789742 -0.036903005 0.021676566 -0.010963567 -0.02646156 -0.0046561486 -0.011207825 -0.015385136
-0.03325141 -0.010437273 -0.014145122 -0.0022857084 -0.03740196 -0.031388152 -0.008583157 0.011426574
0.028694822 -0.0063543636 -0.027105648 -0.026843209 -0.009949153 0.020905515 -0.032691628 -0.01142039
-0.039913666 -0.012994888 0.016944729 -0.007561155 -0.00782956 0.045211326 -0.00038175346 0.040960092
-0.00088474405 -0.0019329462 0.008464393 -0.013203509 0.0057481444 0.029023869 0.01997502 -0.012483171
0.010938989 -0.031986866 -0.018149674 0.0042556445 0.0117349 -0.016045744 -0.0049910545 0.024569904
0.0023949349 0.03146206 0.0006122265 0.010547197 0.0035413052 -0.008035232 0.008998388 -0.03606135
-0.016161663 -0.034124594 -0.014400698 0.031438027 -0.021188933 0.01471809 0.004674199 0.015908223
-0.0008349308 -0.01069525 -0.02246899 -0.0012391569 -0.045768674 0.021608006 -0.017146124 -0.03805853
0.024157327 -0.040707182 0.027694654 -0.008705832 0.010899545 -0.056438293 0.036782157 0.019779442
0.018368226 -0.008022463 -0.030634679 0.011447676 -0.023456935 -0.00899694 0.00136441 -0.0026446711
-0.016680643 0.021252235 -0.015753422 0.0317865 0.011579205 -0.0041770027 -0.021946795 -0.010379635
-0.046928965 0.005739597 0.0015051765 0.011476419 -0.013499706 0.013120458 -0.00029068947 0.018087035
0.01368016 -0.02945054 -0.013655038 0.033888724 -0.0018953584 -0.0073901983 -0.02324398 0.0025050568
-0.0092597585 0.033104997 0.024965592 0.038504764 0.031215077 0.012797794 -0.04432865 0.042534497
0.008591424 -0.0122340685 0.011617123 -0.034152243 0.041628435 -0.005161847 0.046228223 -0.029414427
0.017753635 0.010950386 -0.016027628 -0.0012229499 0.019267652 0.02707236 0.0035116363 0.02736187
0.009809139 0.017786592 0.041642934 0.016488483 0.019924857 -0.01790665 -0.03903615 -0.046189107
-0.042886216 0.025284441 0.0044065337 -0.019634804 0.002435672 0.019558372 -0.001450881 0.009154665
-0.016675318 -0.014418663 0.008243118 0.017300608 0.0029031697 -0.042680155 -0.02352499 0.013413647
-0.0016684686 0.02601335 0.02136722 -0.009254002 0.040208504 -0.009517698 -0.031544235 0.018486587
0.006545997 -0.0034639463 -0.039398283 -0.022062873 -0.039430033 0.022362337 -0.032266364 0.035622187
0.033864193 0.032715976 0.0133902775 -0.030047748 0.02757283 0.0038266534 0.029840017 0.009368137
-0.035412185 0.036195762 -0.012825414 -0.010071547 0.012280396 0.022950796 0.006834647 -0.00266565
0.024628349 -0.0033245299 -0.022041662 0.035996716 0.027261302 0.014547349 0.0009512999 -0.008123041
-0.0029496062 -0.031147227 0.0018339794 0.0054690233 0.014903933 0.040595613 0.020476576 -0.019870501
0.0024644875 -0.03430563 0.011903391 0.012373215 0.013597633 0.0020209313 -0.0023283584 0.020527342
00000000: 2ac2 c83c 4033 afbc 5919 ddba c54a 83bc
00000010: 7f09 253d be87 41bb 82d5 5a3b a5c2 91bc
00000020: d4e4 b43a efe8 f23b 0fef 543c 6e5e 5fbc
00000030: 805e 1cbc f169 abbc 0bd7 1d39 fd8b b1bc
00000040: 221a 2f3c f3b8 4dbd 5dd7 82bc a51b 8cbc
00000050: dc3f e9bc 8559 fc3c bf99 0cbc c3fc b93c
00000060: 893c 54bd f964 c6bc 28c3 a7bc dab0 27bc
00000070: 3902 54bb 4ccf 113d e113 19bd 6ee9 2cbc
00000080: e8e1 8aba a415 863d 5ea9 1bbd 01bc 3f3c
00000090: 215e 01bd 2f47 373d 65d6 64bc ee2e 3dbd
000000a0: 2976 dbbc 9b27 17bd 0e93 b13c 88a0 33bc
000000b0: eac5 d8bc 9b92 98bb 06a1 37bc f011 7cbc
000000c0: a132 08bd 1901 2bbc f1c0 67bc d3cb 15bb
000000d0: cc32 19bd dd90 00bd 5fa0 0cbc 8636 3b3c
000000e0: 6711 eb3c 4438 d0bb aa0c debc 4ae6 dbbc
000000f0: c601 23bc 0b42 ab3c a8e7 05bd 961c 3bbc
00000100: 837c 23bd 83e8 54bc accf 8a3c 91c3 f7bb
00000110: 8e47 00bc 832f 393d 1526 c8b9 c5c5 273d
00000120: 2bee 67ba e95a fdba 3dae 0a3c 8853 58bc
00000130: ee5a bc3b 77c3 ed3c a7a2 a33c 3786 4cbc
00000140: 7239 333c a904 03bd a0ae 94bc ef72 8b3b
00000150: bd43 403c 5d72 83bc 008c a3bb d346 c93c
00000160: 57f4 1c3b 5cde 003d d37d 203a 27ce 2c3c
00000170: 3e15 683b 35a6 03bc fa6d 133c 11b5 13bd
00000180: 7765 84bc 3bc6 0bbd e8f0 6bbc 29c5 003d
00000190: 6a94 adbc 2524 713c 062a 993b f651 823c
000001a0: 42df 5aba 213b 2fbc e310 b8bc 356b a2ba
000001b0: ef77 3bbd 4603 b13c 0776 8cbc 43e3 1bbd
000001c0: 96e5 c53c 93bc 26bd e6df e23c e8a2 0ebc
000001d0: 0194 323c d72b 67bd e3a8 163d 7f08 a23c
000001e0: f678 963c a670 03bc 94f5 fabc 098f 3b3c
000001f0: c228 c0bc e767 13bc 01d6 b23a 3852 2dbb
00000200: d8a5 88bc 2b19 ae3c 520d 81bc 9032 023d
00000210: b5b6 3d3c 3ddf 88bb c4c9 b3bc 580f 2abc
00000220: 9638 40bd 3b13 bc3b 5849 c53a 9707 3c3c
00000230: df2d 5dbc 31f7 563c ae67 98b9 432b 943c
00000240: c022 603c 4242 f1bc 61b9 5fbc e7ce 0a3d
00000250: ad6d f8ba 7a29 f2bb 296a bebc e12b 243b
00000260: 3eb6 17bc 1b99 073d a484 cc3c 2cb7 1d3d
00000270: c3b6 ff3c d7ad 513c f591 35bd a738 2e3d
00000280: 0bc3 0c3c 6771 48bc bf55 3e3c 39e3 0bbd
00000290: 9482 2a3d b624 a9bb ce59 3d3d 86f6 f0bc
000002a0: 1270 913c 3f69 333c 5f4c 83bc 644b a0ba
000002b0: 32d7 9d3c dbc6 dd3c 7b23 663b 0026 e03c
000002c0: 83b6 203c 30b5 913c c891 2a3d db12 873c
000002d0: 7439 a33c f8b0 92bc 5fe4 1fbd ca30 3dbd
000002e0: 75a9 2fbd 5121 cf3c af64 903b 2bd9 a0bc
000002f0: cc9f 1f3b e138 a03c 7d2b beba 73fd 153c
00000300: ad9a 88bc 423c 6cbc 250e 073c 01ba 8d3c
00000310: 1b43 3e3b 63d1 2ebd 7bb7 c0bc eac4 5b3c
00000320: 84b0 daba f319 d53c 4f0a af3c 199e 17bc
00000330: acb1 243d 1ef0 1bbc 8734 01bd 2f71 973c
00000340: ce7f d63b 6003 63bb 1860 21bd 33bd b4bc
00000350: 6381 21bd 3831 b73c bc29 04bd 92e8 113d
00000360: 2eb5 0a3d 3001 063d e562 5b3c b226 f6bc
00000370: 6ae0 e13c 97c8 7a3b 0d73 f43c d17c 193c
00000380: 5e0c 11bd 0242 143d af21 52bc 2103 25bc
00000390: b733 493c 4f03 bc3c 2df5 df3b 30b2 2ebb
000003a0: 64c1 c93c 5be0 59bb b790 b4bc 4b71 133d
000003b0: 1853 df3c 0158 6e3c a860 793a 8116 05bc
000003c0: 2e4e 41bb 7828 ffbc 2362 f03a 7e35 b33b
000003d0: a02f 743c 9647 263d 7ebe a73c 76c7 a2bc
000003e0: 3d83 213b 0f84 0cbd 7106 433c 06b9 4a3c
000003f0: 9bc8 5e3c 9a71 043b 5f97 18bb f528 a83c

l1.lin.weight f4 [256, 128]
-0.051320318 -0.093300425 -0.0024432691 0.008022685 -0.08688703 -0.027175069 -0.11754918 -0.10818334
0.053679824 -0.055768132 -0.11191939 -0.087426886 -0.07352726 0.12298159 0.058827907 0.054486185
0.10178134 0.05861409 -0.08218829 0.066353574 -0.025679678 0.0724888 0.03168869 -0.018584505
-0.023683414 -0.021010712 -0.117253006 -0.06489481 0.058533967 -0.061675116 -0.04560089 0.04480666
0.022370145 0.09001759 0.116046995 -0.043285757 -0.119304925 0.06432696 0.054937243 -0.06804234
0.05969909 0.004090041 -0.01252079 -0.12447922 0.01714395 -0.04966469 -0.00853233 0.013210863
0.07978439 -0.010020688 0.08995651 0.013087481 0.12088616 -0.0037691891 -0.11615142 -0.08957112
-0.112261534 0.07475853 0.06939848 -0.02871871 0.0678346 0.089643136 0.03801641 0.028876603
-0.109243885 -0.031568483 -0.008961767 -0.060832396 0.029877141 0.06908128 -0.11312887 0.047968715
0.08861524 -0.018899173 -0.050052315 0.015386537 0.049211666 -0.052479997 -0.10330856 -0.05124016
-0.102352604 -0.07528776 0.051928252 -0.04506159 0.034988806 -0.100920856 0.022776574 -0.028314874
0.1140068 0.04817398 0.08307387 0.09319511 -0.06493285 -0.08872788 0.03432551 -0.04228662
-0.06349771 -0.0069925487 -0.011598602 -0.010451287 0.0372957 -0.046457097 -0.049601078 0.05699469
0.052997723 0.025464863 -0.037062988 0.064284846 0.0911804 0.10130498 -0.06644726 0.1015795
-0.021820724 -0.020621225 -0.1008876 0.08683835 0.08421579 -0.07560857 0.11734116 0.0645161
-0.091713905 0.06644915 -0.05032076 -0.019804746 -0.03897004 0.04491125 0.04651685 -0.046855062
0.082370356 -0.010354745 0.03226108 -0.07513969 0.011318687 -0.05569087 0.08431185 0.114371344
-0.058272555 -0.11409417 -0.0013772845 -0.1036907 -0.10718058 -0.11265074 -0.10576695 0.07548231
-0.06998432 0.07980631 -0.0073530674 -0.084563375 0.092932135 0.0065930486 -0.10707381 0.078998804
0.08732091 -0.12246387 -0.09687841 0.020764649 0.02105172 -0.014733851 0.09155044 -0.030146554
-0.06695323 0.088681504 -0.05935216 -0.09851436 -0.028697789 -0.00086322427 0.09990847 -0.09659143
-0.07627754 0.08147201 0.07303774 0.10113779 0.06149918 -0.0082743615 -0.051101714 -0.08542642
-0.0460511 0.004839048 -0.0680408 -0.11940649 0.073782295 -0.08346161 -0.0012414753 -0.0045098215
0.096522614 0.010630101 0.10507071 -0.061383158 -0.09261213 -0.018343344 0.031523004 -0.09387714
0.10118373 0.0022798479 -0.04410106 -0.123438165 -0.07904877 -0.08619632 -0.054859087 -0.08983697
0.05407089 0.10590643 -0.09395966 -0.03977479 0.008886039 -0.12047763 0.054317147 0.008724257
-0.043266192 0.051157683 0.08647826 -0.11009885 -0.062066227 0.09544842 -0.11809093 -0.082834974
0.11539136 0.007197514 0.08030218 0.11194052 0.11299418 -0.004709691 0.04993169 -0.044206366
0.08607139 0.059452355 0.0029689819 0.03167166 -0.00010484457 -0.112317234 0.05109051 -0.05608256
-0.059170336 -0.11504947 -0.114661634 -0.107498094 0.092752874 -0.0855346 -0.03988214 -0.07933
0.0521425 0.021043599 0.116648525 -0.034457296 -0.07768747 -0.09656222 -0.08836396 -0.039009705
-0.051275626 0.11997269 0.024048463 0.060494095 -0.062025577 -0.04535626 0.0952515 -0.013485879
00000000: 4135 52bd 4b14 bfbd 411f 20bb 9471 033c
00000010: d4f1 b1bd 409e debc a0bd f0bd 3a8f ddbd
00000020: 60df 5b3d 206d 64bd fe35 e5bd de0c b3bd
00000030: 7695 96bd c6dd fb3d 88f5 703d e82c 5f3d
00000040: bc72 d03d 5415 703d 5652 a8bd 62e4 873d
00000050: 305e d2bc 0275 943d 00cc 013d 883e 98bc
00000060: b803 c2bc a81e acbc 5822 f0bd 92e7 84bd
00000070: 50c1 6f3d 0c9f 7cbd 00c8 3abd 3087 373d
00000080: 9841 b73c 245b b83d 0caa ed3d 684c 31bd
00000090: 2456 f4bd dabd 833d e005 613d c859 8bbd
000000a0: 0887 743d c005 863b 0024 4dbc f6ee febd
000000b0: 7871 8c3c 346d 4bbd 30cb 0bbc 6072 583c
000000c0: 0066 a33d d02d 24bc 1e3b b83d e06c 563c
000000d0: 2a93 f73d 8004 77bb cce0 edbd 1071 b7bd
000000e0: 60e9 e5bd 001b 993d ca20 8e3d 8043 ebbc
000000f0: deec 8a3d d296 b73d 18b7 1b3d a08e ec3c
00000100: 42bb dfbd f44d 01bd 60d4 12bc 642b 79bd
00000110: e8c0 f43c 7c7a 8d3d 1cb0 e7bd d87a 443d
00000120: e87b b53d 70d2 9abc a803 4dbd d017 7c3c
00000130: 2c92 493d 44f5 56bd 7093 d3bd 34e1 51bd
00000140: 3e9e d1bd 7830 9abd b8b2 543d 8092 38bd
00000150: 6c50 0f3d 98af cebd f095 ba3c 98f4 e7bc
00000160: 667c e93d 1452 453d a222 aa3d 14dd be3d
00000170: 84fb 84bd f6b6 b5bd e898 0c3d bc34 2dbd
00000180: 160b 82bd c021 e5bb 1008 3ebc e03b 2bbc
00000190: 60c3 183d cc49 3ebd 802a 4bbd 4473 693d
000001a0: 2414 593d b09b d03c 5ccf 17bd c6a7 833d
000001b0: cabc ba3d fc78 cf3d 8015 88bd ea08 d03d
000001c0: 60c1 b2bc d8ed a8bc 289e cebd 4ed8 b13d
000001d0: 5479 ac3d aad8 9abd 9050 f03d 0421 843d
000001e0: 80d4 bbbd 7e16 883d 241d 4ebd 903d a2bc
000001f0: 0c9f 1fbd dcf4 373d 7488 3e3d 18eb 3fbd
00000200: cab1 a83d f3a6 29bc 3224 043d d6e2 99bd
00000210: 0472 393c 1c1c 64bd b1ab ac3d 863b ea3d
00000220: 34af 6ebd 34aa e9bd 0086 b4ba ca5b d4bd
00000230: 7e81 dbbd 6eb5 e6bd 589c d8bd 7896 9a3d
00000240: f053 8fbd 7e71 a33d 00f2 f0bb 902f adbd
00000250: 3453 be3d 800a d83b 8449 dbbd 20ca a13d
00000260: 4ed5 b23d 56ce fabd 3068 c6bd a01a aa3c
00000270: a874 ac3c 4066 71bc cc7e bb3d e8f5 f6bc
00000280: c61e 89bd a69e b53d 401b 73bd e6c1 c9bd
00000290: a017 ebbc 004a 62ba d09c cc3d bad1 c5bd
000002a0: 6637 9cbd ccda a63d d094 953d 5421 cf3d
000002b0: 90e6 7b3d 3091 07bc 0850 51bd 0cf4 aebd
000002c0: 14a0 3cbd e090 9e3b fa58 8bbd 648b f4bd
000002d0: 2c1b 973d eced aabd 00b9 a2ba 20c7 93bb
000002e0: a6ad c53d e029 2e3c 502f d73d e86c 7bbd
000002f0: 6eab bdbd c844 96bc 441e 013d a842 c0bd
00000300: 6a39 cf3d 8069 153b 50a3 34bd 26cd fcbd
00000310: 52e4 a1bd b287 b0bd ecb3 60bd 72fc b7bd
00000320: 7079 5d3d 78e5 d83d ec6d c0bd e4ea 22bd
00000330: c096 113c fabc f6bd a87b 5e3d 30f0 0e3c
00000340: e437 31bd b88a 513d 841b b13d 827b e1bd
00000350: 2839 7ebd 767a c33d a8d9 f1bd 62a5 a9bd
00000360: 4e52 ec3d 20d9 eb3b 7875 a43d 1241 e53d
00000370: 7e69 e73d c053 9abb 2c85 4c3d bc11 35bd
00000380: 3246 b03d 5084 733d 4093 423b 24ba 013d
00000390: 00e0 dbb8 9406 e6bd 4844 513d d4b6 65bd
000003a0: 985c 72bd 0e9f ebbd b8d3 eabd f627 dcbd
000003b0: 38f5 bd3d c42c afbd 745b 23bd c477 a2bd
000003c0: 6093 553d a063 ac3c 6ce5 ee3d 1823 0dbd
000003d0: 9c1a 9fbd 6ac2 c5bd 2af8 b4bd a4c8 1fbd
000003e0: 6406 52bd 3eb4 f53d 4801 c53c a8c8 773d
000003f0: 880e 7ebd 7cc7 39bd 3813 c33d e0f3 5cbc

l2.att_src f4 [1, 4, 64]
0.036700178 0.053209413 0.08276928 -0.026607363 -0.23663138 -0.15088886 -0.0023162086 0.112912826
0.17926234 -0.03339565 -0.20422654 -0.1559775 0.26137033 -0.04430551 0.04859147 0.2901963
0.14410342 -0.28513578 0.10686229 -0.12815821 -0.2755831 -0.14899929 0.2353017 -0.20780921
0.25837773 0.118149325 -0.10357832 0.11022882 0.07388711 0.0011249738 -0.049267508 0.069487005
-0.27843764 0.00057764346 -0.19925219 0.15735854 -0.18448198 -0.036176648 0.09188272 -0.26101395
0.23569517 0.24490212 0.116883315 -0.057548326 0.00809971 -0.18338162 -0.2538633 -0.13346626
0.07331305 -0.21841513 0.2611071 0.19745488 0.0003422837 -0.014906974 -0.23621461 0.07840663
-0.0854193 0.25202268 -0.020607596 0.10490831 0.11369399 -0.21082549 0.08324046 0.21647145
0.16592972 -0.08829542 0.10560315 0.12629972 -0.08638471 -0.11401217 -0.17465234 0.09864749
-0.011159633 0.1632961 -0.22626063 -0.27770022 0.20818964 -0.18104394 -0.13208212 0.12943304
0.18673965 0.30349323 0.082713336 0.10943053 0.27758935 0.24122763 -0.03003229 0.2611839
-0.11570984 0.084546655 -0.039297312 0.26737916 -0.050719686 0.05528996 -0.10115711 -0.018410642
0.16365235 0.15896219 0.11112397 -0.001640032 -0.07108221 0.19310711 -0.0030269672 0.036433287
-0.13153829 -0.107076004 -0.0018606632 -0.04173865 -0.19886127 0.16135326 0.17606856 0.038766872
-0.1659555 0.21688177 0.13204587 0.1615522 -0.009647794 0.17012492 -0.08751267 -0.095227376
0.19223142 0.23933169 0.048123866 0.23427236 -0.26309 0.00084978424 0.23738606 0.21800269
0.07704163 0.3015938 0.062865764 0.09653363 0.1396269 -0.015836162 0.18845354 0.16104594
-0.049707223 -0.2315099 0.19077253 0.088187926 -0.28616825 0.04962936 -0.19462092 0.047546785
-0.23255312 -0.13310802 -0.07393216 -0.24307807 -0.008436202 0.2602284 0.01873132 0.15293077
-0.035615925 0.06600253 0.1405187 -0.18741602 -0.024259944 -0.12956865 0.13476408 -0.18137383
-0.29628098 -0.034969896 -0.045679346 0.11961719 -0.048525337 -0.21106622 0.11160928 0.15307747
0.07577254 -0.267519 -0.121601716 -0.13678926 -0.16377974 -0.06157681 0.099982396 0.04788356
-0.24298066 -0.30707875 -0.22278936 0.00043217724 -0.06690581 -0.11314488 0.19595346 -0.17061767
0.082056135 -0.28436536 -0.26976722 0.28208694 0.2662144 -0.10725734 -0.29761848 -0.29701898
-0.1552973 -0.03160897 0.24917205 -0.2564468 -0.13658853 -0.047775824 -0.16428667 -0.230948
0.019715255 0.27547866 0.28886226 0.0553919 -0.19765607 -0.26890323 -0.14474557 0.18077192
-0.20325485 -0.049397495 0.2801591 0.27032995 -0.10890574 0.19861466 -0.21628843 0.12802884
-0.035682473 -0.1436424 -0.057221264 0.21472572 0.21773662 0.21185403 -0.16539861 -0.16066349
-0.2341673 0.012388424 0.23701528 0.27006721 -0.14563878 -0.23990627 -0.20312771 0.27890578
0.054543052 -0.22741506 -0.22528507 0.09514074 -0.19137919 -0.19370157 0.16417107 -0.22277342
0.004656014 -0.014966918 0.15674518 0.2878475 -0.2232941 -0.22061796 0.27027538 -0.18979546
0.18193112 0.036600124 0.16418625 0.13962266 -0.2700198 -0.13342506 0.049659867 -0.0729926
00000000: ed52 163d 1df2 593d f182 a93d aff7 d9bc
00000010: 7f4f 72be 9c82 1abe 88cb 17bb d73e e73d
00000020: 8c90 373e e1c9 08bd c320 51be 91b8 1fbe
00000030: 55d2 853e b279 35bd d907 473d 9c94 943e
00000040: d98f 133e 51fd 91be 9eda da3d e83b 03be
00000050: 3a19 8dbe 4593 18be eef2 703e f0cb 54be
00000060: 164a 843e 46f8 f13d df20 d4bd a6bf e13d
00000070: 2052 973d db73 933a bacc 49bd 344f 8e3d
00000080: 618f 8ebe ff6c 173a c408 4cbe 9922 213e
00000090: d8e8 3cbe f72d 14bd 022d bc3d 9fa3 85be
000000a0: 135a 713e 9fc7 7a3e 8560 ef3d cbb7 6bbd
000000b0: a5b4 043c 64c8 3bbe 5ffa 81be 61ab 08be
000000c0: 2725 963d 37a8 5fbe d4af 853e 9d31 4a3e
000000d0: 8a74 b339 613c 74bc 3ee2 71be a893 a03d
000000e0: 50f0 aebd 1e09 813e 43d1 a8bc 2bda d63d
000000f0: 65d8 e83d a3e2 57be f979 aa3d b1aa 5d3e
00000100: 7be9 293e 3bd4 b4bd 7746 d83d b754 013e
00000110: 78ea b0bd 367f e9bd 10d8 32be b207 ca3d
00000120: e5d6 36bc 1837 273e deb0 67be b92e 8ebe
00000130: aa2f 553e 9563 39be 8940 07be 188a 043e
00000140: ae38 3f3e 7763 9b3e 9c65 a93d 1d1d e03d
00000150: 3120 8e3e 6004 773e 4706 f6bc e5b9 853e
00000160: 48f9 ecbd cc26 ad3d 38f6 20bd ece5 883e
00000170: 72bf 4fbd ba77 623d 752b cfbd ead1 96bc
00000180: 7b94 273e fcc6 223e f794 e33d 58f6 d6ba
00000190: 8d93 91bd dfbd 453e 1560 46bb 123b 153d
000001a0: f9b1 06be aa4a dbbd 7fe1 f3ba 26f6 2abd
000001b0: 4aa2 4bbe ca39 253e 514b 343e 03ca 1e3d
000001c0: 3df0 29be 4116 5e3e 0837 073e f16d 253e
000001d0: c811 1ebc 3a35 2e3e d839 b3bd 9206 c3bd
000001e0: 50d8 443e 5e13 753e 881d 453d 18e5 6f3e
000001f0: bcb3 86be 0ec4 5e3a 5515 733e 193c 5f3e
00000200: 01c8 9d3d 816a 9a3e c4bf 803d 6cb3 c53d
00000210: 5bfa 0e3e d7ba 81bc f7f9 403e 3ae9 243e
00000220: cd99 4bbd ee10 6dbe e059 433e df9b b43d
00000230: a584 92be 2848 4b3d b54a 47be 6bc0 423d
00000240: 6822 6ebe 784d 08be bf69 97bd 75e9 78be
00000250: ff37 0abc a83c 853e 6d72 993c e299 1c3e
00000260: 01e2 11bd 562c 873d 22e4 0f3e fce9 3fbe
00000270: cabc c6bc a5ad 04be 98ff 093e 10ba 39be
00000280: 24b2 97be 983c 0fbd 441a 3bbd dbf9 f43d
00000290: 81c2 46bd be21 58be 6893 e43d 57c0 1c3e
000002a0: a22e 9b3d 40f8 88be 520a f9bd 7c12 0cbe
000002b0: e0b5 27be f737 7cbd 92c3 cc3d 8d21 443d
000002c0: eccf 78be 6d39 9dbe e522 64be d995 e239
000002d0: ea05 89bd 81b8 e7bd 06a8 483e 66b6 2ebe
000002e0: 0c0d a83d 5698 91be ee1e 8abe b36d 903e
000002f0: 414d 883e bca9 dbbd 7361 98be df12 98be
00000300: 4106 1fbe 6878 01bd f526 7f3e ff4c 83be
00000310: dddd 0bbe 95b0 43bd c43a 28be a27d 6cbe
00000320: e381 a13c 8a0b 8d3e c1e5 933e 9ee2 623d
00000330: 5a66 4abe afad 89be 2f38 14be 461c 393e
00000340: 0a22 50be 0755 4abd 0371 8f3e b068 8a3e
00000350: f909 dfbd a461 4b3e b77a 5dbe fe19 033e
00000360: c927 12bd fe16 13be d860 6abd 0fe1 5b3e
00000370: 59f6 5e3e 43f0 583e 415e 29be f884 24be
00000380: 8dc9 6fbe d1f8 4a3c 22b4 723e 4046 8a3e
00000390: 5522 15be fda9 75be b600 50be bdcc 8e3e
000003a0: 8968 5f3d 7edf 68be 21b1 66be 26d9 c23d
000003b0: e8f8 43be b459 46be 761c 283e b71e 64be
000003c0: 7a91 983b ce37 75bc cf81 203e bf60 933e
000003d0: 35a7 64be ade9 61be 8961 8a3e be59 42be
000003e0: 274c 3a3e 03ea 153d 7120 283e 3ef9 0e3e
000003f0: 0940 8abe 94a0 08be 2568 4b3d 257d 95bd

l2.att_dst f4 [1, 4, 64]
0.104155235 0.25168958 0.15115418 -0.20979035 -0.12172481 -0.26564395 -0.23767743 0.13534291
-0.06274617 0.28850338 0.23004247 0.24532577 0.106026016 -0.03816519 0.11435059 -0.18892393
0.13240357 0.11951523 0.16538034 -0.28205752 -0.00048516606 0.07600541 -0.33663866 0.053107783
-0.28425738 0.20015559 0.2796533 0.2742509 -0.05833583 0.05755631 -0.17341197 -0.12815389
-0.010112377 -0.18430543 -0.29294112 0.004538836 -0.21703383 0.19703314 -0.06087761 0.02981713
0.07098428 -0.09263921 -0.17474248 -0.22782898 0.036736634 0.14369193 0.2545332 -0.37629434
-0.2549669 0.14888042 -0.29052374 -0.21364973 0.15818352 -0.093673095 0.22400907 -0.039174084
0.22044982 -0.15587167 -0.24784248 -0.07579314 -0.18691522 0.16288245 0.17991257 0.0502032
0.08512954 0.25768408 -0.24637473 0.31519032 -0.09613887 0.26377198 0.1994467 0.2838917
-0.29069746 -0.27954277 0.18284735 -0.120750435 -0.25661996 0.09127559 0.2559722 -0.030726139
0.17710263 -0.23912618 -0.052726753 0.13246621 0.143174 -0.06616121 -0.30347085 0.08779025
0.25343767 0.25071952 0.07239259 -0.27258292 0.21912754 -0.055486042 -0.15703328 0.03517011
0.2301027 0.20549795 0.017958483 -0.009824419 -0.24186668 0.23073047 0.28838402 -0.09089973
0.01325619 -0.028650358 0.11934826 0.22981447 -0.2701792 -0.25265548 -0.13658679 -0.116171
0.011006408 0.1052374 0.054211967 0.19776747 -0.039595585 -0.031957302 0.1634318 0.2785468
0.04696868 0.24805601 -0.18711609 -0.25559404 0.0067929733 0.23570031 0.2943602 0.06562332
-0.1769753 -0.24246132 -0.047010016 0.061154954 0.16607086 0.20273755 0.050167106 0.04900606
0.19601424 -0.30049613 0.059420243 0.17598456 -0.17035612 0.1825659 0.14427167 -0.17095464
0.15424797 -0.11545917 0.26347765 -0.0573622 -0.05472488 0.13729765 0.27262974 0.19667983
0.011856551 0.058830757 -0.21229404 0.16526188 -0.26913458 0.23581555 0.062797666 0.087667204
0.23565526 -0.1434747 0.1189295 -0.17001559 -0.1463929 0.16942215 0.2338334 -0.14694759
-0.3585391 0.30831358 0.021697136 -0.11343386 -0.09747446 -0.16229722 -0.29270542 -0.0452958
-0.027464129 -0.19673972 -0.16077785 -0.24318215 -0.21450578 -0.20670025 -0.04746705 -0.15872417
-0.33484834 -0.15000866 -0.052249774 0.1822667 -0.2385175 -0.05127486 0.105890796 -0.27854902
-0.11744489 -0.0021259943 0.22765055 -0.26624873 -0.11338277 0.04125804 -0.13081339 0.06537078
0.03323228 0.1773086 0.025596563 -0.22091311 -0.0798145 -0.07455738 0.119335756 0.184825
0.14964789 -0.056525655 -0.18556869 0.116831146 -0.07943499 -0.22386841 -0.12901375 0.06800059
-0.2561532 0.056206528 -0.13165079 -0.021723757 0.014535541 0.118102916 0.15345883 -0.122437455
-0.2711947 0.06894371 -0.265618 0.2081834 0.030174656 0.02760488 0.18980722 -0.056919027
0.1371889 -0.11770982 0.18029892 -0.005285221 0.05176609 0.27964413 -0.22216663 0.040023815
0.2518931 0.21884121 -0.24889877 -0.07265943 -0.3056599 -0.26236796 0.22962436 -0.03224434
-0.12875114 -0.12427061 -0.1888358 0.18514957 0.14818905 0.26956528 -0.11067668 -0.15036313
00000000: 574f d53d 75dd 803e 29c8 1a3e 48d3 56be
00000010: db4a f9bd 7c02 88be b661 73be 5597 0a3e
00000020: 1081 80bd b7b6 933e 4190 6b3e ae36 7b3e
00000030: 2b24 d93d 1a53 1cbd a430 ea3d 4675 41be
00000040: cd94 073e 67c4 f43d 7759 293e d869 90be
00000050: e35d feb9 b9a8 9b3d e75b acbe 8c87 593d
00000060: 2f8a 91be 96f5 4c3e b82e 8f3e 9d6a 8c3e
00000070: 8df1 6ebd 2ac0 6b3d e892 31be c63a 03be
00000080: 62ae 25bc 90ba 3cbe 61fc 95be 84ba 943b
00000090: 1e3e 5ebe 0ec3 493e cd5a 79bd 0e43 f43c
000000a0: 3560 913d a0b9 bdbd b1ef 32be 004c 69be
000000b0: 2779 163d fa23 133e 2d52 823e a7a9 c0be
000000c0: 068b 82be 1c74 183e 87bf 94be ffc6 5abe
000000d0: dcfa 213e aed7 bfbd a262 653e 0175 20bd
000000e0: 99bd 613e d39c 1fbe 6bca 7dbe 6f39 9bbd
000000f0: b466 3fbe a8ca 263e 003b 383e dfa1 4d3d
00000100: 6558 ae3d 2bef 833e a849 7cbe a060 a13e
00000110: 75e4 c4bd 1f0d 873e c13b 4c3e 415a 913e
00000120: 4cd6 94be 3b20 8fbe 563c 3b3e 014c f7bd
00000130: b163 83be b2ee ba3d ca0e 833e 62b5 fbbc
00000140: 645a 353e 7edd 74be 02f8 57bd 39a5 073e
00000150: 349c 123e 877f 87bd 8860 9bbe 60cb b33d
00000160: 95c2 813e 4f5e 803e 9142 943d fd8f 8bbe
00000170: f862 603e 5545 63bd 55cd 20be 890e 103d
00000180: 0ba0 6b3e 0e6e 523e ab1d 933c 9af6 20bc
00000190: e6ab 77be 9c44 6c3e 12a7 933e a329 babd
000001a0: 7e30 593c 28b4 eabc dc6c f43d 7c54 6b3e
000001b0: ee54 8abe 0f5c 81be 68dd 0bbe 10eb edbd
000001c0: 3954 343c b586 d73d 5e0d 5e3d 8e83 4a3e
000001d0: fb2e 22bd a9e5 02bd aa5a 273e b09d 8e3e
000001e0: 3b62 403d 6502 7e3e 5c9b 3fbe 39dd 82be
000001f0: 9797 de3b 6c5b 713e 61b6 963e 8565 863d
00000200: 0339 35be c847 78be 938d 40bd 9e7d 7a3d
00000210: 7b0e 2a3e 6f9a 4f3e 067c 4d3d 94ba 483d
00000220: f5b7 483e a1da 99be a462 733d 4c35 343e
00000230: d671 2ebe 8ef2 3a3e f4bb 133e bc0e 2fbe
00000240: 2ef3 1d3e db75 ecbd 8be6 863e a0f4 6abd
00000250: 3227 60bd c197 0c3e 2096 8b3e 7066 493e
00000260: fb41 423c 85f8 703d 9c63 59be 693a 293e
00000270: 02cc 89be a279 713e 109c 803d dd8a b33d
00000280: 9d4f 713e 08eb 12be 4f91 f33d 9118 2ebe
00000290: 05e8 15be 007d 2d3e 0672 6f3e 6e79 16be
000002a0: 7092 b7be 47db 9d3e 31be b13c 0350 e8bd
000002b0: b1a0 c7bd 3e31 26be 7cdd 95be 1788 39bd
000002c0: 74fc e0bc 2376 49be f3a2 24be be04 79be
000002d0: 67a7 5bbe 3ba9 53be cf6c 42bd 9788 22be
000002e0: 3e71 abbe df9b 19be dc03 56bd 1fa4 3a3e
000002f0: ee3d 74be 9605 52bd 46dd d83d fa9d 8ebe
00000300: f286 f0bd 4454 0bbb 3a1d 693e c151 88be
00000310: 3a35 e8bd 31fe 283d f2f3 05be 1ee1 853d
00000320: 921e 083d 6390 353e e2af d13c 0c37 62be
00000330: c975 a3bd 8ab1 98bd 4e66 f43d c442 3d3e
00000340: 4c3d 193e 7287 67bd b805 3ebe 2b45 ef3d
00000350: d0ae a2bd c33d 65be 2e1c 04be e543 8b3d
00000360: 8326 83be d138 663d 77cf 06be 05f6 b1bc
00000370: 7a26 6e3c f1df f13d 5024 1d3e 7dc0 fabd
00000380: 08da 8abe 5c32 8d3d 15ff 87be 072e 553e
00000390: d730 f73c a123 e23c d35c 423e ed23 69bd
000003a0: 3f7b 0c3e d911 f1bd 48a0 383e a62f adbb
000003b0: ae08 543d 842d 8f3e a67f 63be 03f0 233d
000003c0: 22f8 803e e917 603e 52df 7ebe 78ce 94bd
000003d0: 747f 9cbe 1855 86be a622 6b3e a412 04bd
000003e0: 57d7 03be 9781 febd 2c5e 41be d997 3d3e
000003f0: dfbe 173e 7604 8a3e 75aa e2bd cbf8 19be

l2.bias f4 [256]
0.010624226 -0.020412195 -0.024777811 0.007931059 -0.008398795 -0.012040876 0.016688026 0.005533115
-0.008964149 -0.013798154 -0.00023395233 -0.008913956 -0.020132635 -0.01216742 -0.020343013 0.00089002965
-0.007721249 0.014308265 -0.0026330128 0.02725392 -0.00032715796 -0.03605076 0.025186693 0.014408413
-0.008919421 0.013177613 -0.038222317 0.008244638 -0.0062509896 0.006384524 0.019186756 -0.018366784
0.010159166 0.012278898 0.02680839 0.0060446095 0.03271119 -0.026552344 -0.016315151 -0.01693893
-0.03172337 -0.01201906 0.027730199 -0.010064691 -0.0314757 0.005641593 -0.018406698 0.0072923806
0.04311679 -0.01731214 0.030563356 -0.012946299 -0.023193363 0.02783551 0.010139769 0.0058167432
0.0077026626 -0.010717861 -0.00015302727 0.0024927661 0.034694742 -0.005480212 0.0001540226 -0.014250821
-0.019535162 0.02841859 -0.013963646 -0.016038882 0.019592414 0.014137421 -0.012914856 -0.012313648
-0.0069084647 0.027665 -0.009592111 0.033837136 0.0058299624 -0.015303147 -0.026349274 -0.025153827
-0.026312679 0.0031356723 0.017317845 -0.01848493 -0.04414328 0.020986175 0.00778592 -0.0130671095
0.008635426 -0.022505583 -0.013625908 0.058774177 0.03815396 -0.016879354 -0.014335085 0.0064236172
-0.017308252 -0.0101457825 -0.027753366 -0.013527444 -0.006000524 -0.038090385 -0.012763117 0.013909803
0.021388173 0.019858722 0.0045074373 -0.0043471702 -0.015697975 0.01850409 -0.017907716 -0.015694652
0.008943549 0.013057695 0.019832138 -0.047662463 -0.014314247 -0.007285424 -0.006619543 0.017997975
-0.01568036 -0.008605356 0.0051717046 -0.021558383 -0.01136014 -0.013776133 -0.010472429 0.022429919
0.019249447 0.05504242 -0.027077412 -0.02069296 0.014358658 -0.032681346 0.022612723 0.009629752
0.0068161907 0.032016344 0.023905711 -0.019244924 0.013137023 0.029025303 0.010028325 -0.020473808
-0.019641846 0.016011484 -0.0425142 0.015196659 0.026921265 0.02015992 -0.005079127 0.0032968326
0.008254903 -0.0006236013 0.029918047 0.016886089 -0.018975073 0.01837032 0.014750032 0.013691677
0.023907429 -0.02779987 -0.012166111 0.015561162 0.021847934 -0.049845535 0.01891637 0.015874472
-0.017004933 -0.033572316 0.0079684155 -0.018783288 0.006317346 0.02190003 0.0019964585 -0.016694032
-0.023013381 0.01415218 -0.010291518 0.035137154 0.014127043 0.018558702 -0.019163316 0.009015095
0.027920557 -0.019942751 -0.035741895 -0.01488373 0.0077483067 -0.02102656 0.014108657 -0.00915244
0.0037559299 0.01489431 0.025000706 0.01979936 0.042765774 0.026216466 0.030049311 0.011918978
0.0021036707 -0.00027485107 -0.0069558565 0.027224392 0.032748785 -0.02189129 -0.017496128 0.020404758
-0.036818583 -0.0062755905 -0.017492086 -0.009985125 0.02533147 -0.010016447 0.004009843 0.019178268
0.042144693 0.010637913 0.016583048 -0.016871754 -0.015995704 -0.012068476 -0.019117622 0.018810786
0.034388755 -0.010481058 0.008479826 -0.017406281 -0.010860135 0.009817963 0.017259525 0.04690227
-0.020393398 0.022540236 0.03592533 0.033908468 -0.02293998 0.010976531 0.013678783 -0.0195018
0.0121771665 -0.011865823 0.04073134 0.025163382 -0.013915791 0.011001879 -0.010978995 0.029076777
0.034160584 0.033899352 0.016998786 0.028890664 0.026512764 0.030241165 -0.020977775 0.02860497
00000000: 3c11 2e3c 7a37 a7bc d6fa cabc 46f1 013c
00000010: 199b 09bc 1847 45bc 54b5 883c 224f b53b
00000020: 5ede 12bc a711 62bc 1a51 75b9 d70b 12bc
00000030: 32ed a4bc dc59 47bc 64a6 a6bc e150 693a
00000040: 8802 fdbb 376d 6a3c a08e 2cbb 9d43 df3c
00000050: 6686 abb9 f6a9 13bd 5354 ce3c 4411 6c3c
00000060: c322 12bc eae6 573c 018f 1cbd 8514 073c
00000070: 1ad5 ccbb 4535 d13b 8b2d 9d3c f075 96bc
00000080: a172 263c 6e2d 493c 459d db3c dc11 c63b
00000090: 2bfc 053d 4d84 d9bc 5aa7 85bc 83c3 8abc
000000a0: 5df0 01bd 97eb 44bc 712a e33c 60e6 24bc
000000b0: aaec 00bd 1ddd b83b a5c9 96bc ecf4 ee3b
000000c0: 3b9b 303d 30d2 8dbc 0160 fa3c b71c 54bc
000000d0: 0200 bebc 4c07 e43c 4621 263c 619a be3b
000000e0: 9e66 fc3b f899 2fbc f275 20b9 ad5d 233b
000000f0: 131c 0e3d 5a93 b3bb 2081 2139 477c 69bc
00000100: 3408 a0bc 1ace e83c c7c7 64bc f963 83bc
00000110: 4580 a03c a4a0 673c d598 53bc 2fbf 49bc
00000120: 6760 e2bb b6a1 e23c 3b28 1dbc cf98 0a3d
00000130: 4509 bf3b 0dba 7abc 6fda d7bc 660f cebc
00000140: b08d d7bc da7f 4d3b 27de 8d3c b56d 97bc
00000150: 95cf 34bd 33eb ab3c 0821 ff3b 6e17 56bc
00000160: 9a7b 0d3c a15d b8bc 333f 5fbc 31bd 703d
00000170: 5447 1c3d 9246 8abc b4dd 6abc 357d d23b
00000180: 09ca 8dbc 7f3a 26bc 075b e3bc 36a2 5dbc
00000190: 0ba0 c4bb aa04 1cbd 651c 51bc f1e5 633c
000001a0: 4036 af3c c2ae a23c 20b3 933b b572 8ebb
000001b0: 0a99 80bc e495 973c 34b3 92bc 1292 80bc
000001c0: f787 123c f1ef 553c 0277 a23c b739 43bd
000001d0: 4e86 6abc 91ba eebb c0e8 d8bb 7d70 933c
000001e0: 1974 80bc 7bfd 0cbc 6777 a93b 359b b0bc
000001f0: e11f 3abc 4ab5 61bc 8d94 2bbc f3be b73c
00000200: 04b1 9d3c 2974 613d 73d1 ddbc 4884 a9bc
00000210: 9440 6b3c e0dc 05bd 513e b93c 1bc6 1d3c
00000220: 5a5a df3b 9223 033d e9d5 c33c 88a7 9dbc
00000230: ab3c 573c 79c6 ed3c d84d 243c b0b8 a7bc
00000240: f0e7 a0bc 842a 833c 5f23 2ebd 68fb 783c
00000250: fc89 dc3c 6b26 a53c ce6e a6bb ac0f 583b
00000260: 933f 073c 2d79 23ba b116 f53c b254 8a3c
00000270: 9d71 9bbc 5a7d 963c 1eaa 713c 0e53 603c
00000280: 83d9 c33c 8ebc e3bc 5e54 47bc 3ef4 7e3c
00000290: 70fa b23c d52a 4cbd 81f6 9a3c 2e0b 823c
000002a0: ee4d 8bbc 2083 09bd f58d 023c 69df 99bc
000002b0: bd01 cf3b b167 b33c 04d7 023b ecc1 88bc
000002c0: 8f86 bcbc 8cde 673c c19d 28bc faeb 0f3d
000002d0: 1d75 673c 6b08 983c 63fc 9cbc 0db4 133c
000002e0: a7b9 e43c fb5e a3bc 1866 12bd e3da 73bc
000002f0: 82e5 fd3b e43f acbc ff27 673c 1ef4 15bc
00000300: 0c26 763b 4407 743c 48ce cc3c 4432 a23c
00000310: 2a2b 2f3d eac3 d63c f929 f63c d147 433c
00000320: bddd 093b e319 90b9 f4ed e3bb b005 df3c
00000330: 9723 063d 5d55 b3bc 0a54 8fbc e127 a73c
00000340: 15cf 16bd 78a3 cdbb 904b 8fbc a698 23bc
00000350: f183 cf3c 061c 24bc 0065 833b be1b 9d3c
00000360: ea9f 2c3d a44a 2e3c 2cd9 873c a236 8abc
00000370: 6c09 83bc dbba 45bc 8f9c 9cbc 1419 9a3c
00000380: 39db 0c3d beb8 2bbc f8ee 0a3c 9e97 8ebc
00000390: b5ee 31bc 85db 203c d963 8d3c 981c 403d
000003a0: 0e10 a7bc 4da6 b83c 7026 133d 9be3 0a3d
000003b0: a0ec bbbc e8d6 333c f91c 603c 3dc2 9fbc
000003c0: bd82 473c de68 42bc e8d5 263d 7023 ce3c
000003d0: 0fff 63bc 3a41 343c 3ee1 33bc 6c32 ee3c
000003e0: f8eb 0b3d 0cda 0a3d 0a41 8b3c 1dac ec3c
000003f0: 4c31 d93c 52bc f73c 95d9 abbc f854 ea3c
