checkpoints/gcn_best.pth (torch, 207373 bytes, 13 tensors)

convs.0.bias f4 [128]
00000000: c09d 263d c8d6 90bd 81f3 5bbd 4ee3 143d
00000010: 757c c4bc a920 10bd 6c2d dabc 617e 84bd
00000020: 6c72 d83b 80d5 62bc a97c dabc 49cf 27bc
00000030: f88c 9c3b 20b7 b83c 4446 383d d47b 583d
00000040: 3017 123d 2564 efbc 74db 4e3d d3f6 7f3c
00000050: baea 273c 6288 8739 557b c0bb 83d1 4b3d
00000060: d4da f83c 6ac5 bcbc 50ee 933c 97bb 0abd
00000070: 58f5 11bc c3a7 07bc 7ec4 093d b244 db3c
00000080: 31b1 3fbd 59f7 9d3c 07b6 6c3a 7a3f f2bc
00000090: 9190 c33c f215 1fbc debe 81bb c054 f23a
000000a0: e37e 57bd d937 50bc 67bf 14bd 77ba 7b3d
000000b0: 6e22 0f3b e142 273d 94a0 78bd 61c2 043c
000000c0: b815 843d d795 2dbd 180f afbc f5f5 383d
000000d0: b883 d23c 7e46 0abc 5755 51ba ff8c 673d
000000e0: 5eb9 0e3c 0bea cfbc a6d0 953c 0447 25bc
000000f0: c36b b73c 39d1 3cbb 4ba9 023c 6ef2 663c
00000100: 2a3a e13c 59c4 453d 7310 643c 2be4 953c
00000110: 8ec5 20bc 2622 46bd 58f1 44bd 876d 343d
00000120: 6b42 c5bc a069 9d3c e06b 86bd de40 dd3b
00000130: ab29 813d a784 07bd 385c 61bd c6e2 4b3a
00000140: 97c5 3fbd 6902 04bd 125a 8cbd 76c3 f53a
00000150: f6f0 63bd f0ad 4cbd 2618 193c 2f9f 803c
00000160: acf5 ae3c 7912 32bc d944 78bd 528c 093d
00000170: 43b4 bd3c 2f17 6e3c 8ad9 c83c 722e 84bd
00000180: 2d72 5c3d ee4b 0abc 7aa6 1f3b d7ec 64bb
00000190: 1dc0 5c3d b63c d23b 4c68 0bbd 42a8 2d3c
000001a0: 257a 29bd 9005 dcbb 0e02 e3bc 5b22 2f3d
000001b0: 268c 483d 9056 42bc 5f19 073c 9770 36bd
000001c0: 7686 43bd 1519 fa3c e7fa 53bd 2105 2ebd
000001d0: 446c a03b e422 343d 8431 6fbd e9a0 d8bc
000001e0: b784 623d 8c9a 623d 3469 c43c c6e2 ac3c
000001f0: e20e 103d b5df 1fbd dd13 13bd fefa 3fbc
0.040677786 -0.07072216 -0.05369902 0.036349587 -0.023985127 -0.035187397 -0.026632987 -0.06469417
0.006605437 -0.013844848 -0.02667077 -0.010242292 0.004777547 0.022548258 0.044988886 0.052852467
0.035666645 -0.029222557 0.050502256 0.015622812 0.010248834 0.0002585082 -0.0058740773 0.049760353
0.030377783 -0.023043353 0.018057972 -0.033870306 -0.008908592 -0.008279744 0.033634655 0.026766155
-0.046799842 0.019282984 0.000902981 -0.029571284 0.023872646 -0.009709822 -0.0039595207 0.0018488392
-0.052611243 -0.012708628 -0.036315348 0.061457124 0.002184059 0.040835265 -0.060700014 0.008102984
0.06449455 -0.042379227 -0.021369502 0.045156438 0.025697574 -0.008439658 -0.0007985434 0.05653095
0.008711187 -0.025380155 0.018287968 -0.010087732 0.022390252 -0.002881123 0.007974933 0.014095886
0.027493555 0.048282955 0.013919937 0.018297276 -0.009812726 -0.04837241 -0.048081726 0.044049766
-0.024079522 0.019215405 -0.06563544 0.0067521175 0.06306776 -0.03308549 -0.055019587 0.00077776273
-0.046819296 -0.03222886 -0.06853117 0.0018750269 -0.05564972 -0.049970567 0.009344136 0.015700905
0.02135738 -0.010868662 -0.060612533 0.033581086 0.023157245 0.014531895 0.024517793 -0.06454171
0.053819824 -0.008440955 0.0024360702 -0.0034931207 0.05389415 0.0064159287 -0.034035012 0.010599198
-0.04137625 -0.0067145303 -0.02771094 0.042757373 0.04896178 -0.011861458 0.008245795 -0.044540968
-0.047735654 0.030529538 -0.05175295 -0.04248536 0.004895719 0.043978587 -0.05839683 -0.026443915
0.055302348 0.05532317 0.023975946 0.021104228 0.035170443 -0.039031703 -0.035907615 -0.011717556

convs.0.lin.weight f4 [128, 128]
00000000: 1244 b63d edf7 28be 8ef9 6d3d 5f37 5bbd
00000010: 9823 ba3d 4d78 6fbd aa1f eabc 3843 b2bb
00000020: 091a 5a3d 4fdb f63b ea85 073e d31a b8bc
00000030: af29 893d 39e8 103e a1c8 5f3d d727 be3d
00000040: d0f2 3dbc 6db0 05bd f32c d5bd 3288 afbc
00000050: 5599 1a3e b78d 8ebd 2a48 123e 7988 0a3e
00000060: adb6 f0bd 1fd9 863d a196 ffbd c69f 33bd
00000070: b504 d6bd e7c3 a83d ec5d 07be 8797 653d
00000080: 2eab 1c3c 45d8 543d ec83 7dbd da1b 193e
00000090: 0243 2a3d 7041 c5bd e571 8239 04d9 d6bd
000000a0: 0c30 fb3c 77f9 07be dee6 c8bd 4952 173e
000000b0: 2bd3 063d d05b 8a3c 7c01 0abe e354 88bd
000000c0: 911f 413d b12f 833d 0ca1 02bc a9d5 76bd
000000d0: 85d9 ce3d 0217 e8bd d648 76bd 2c0e 753d
000000e0: ec6d ae3d d536 3739 d121 103e 2f85 93bd
000000f0: a949 10be ce20 05be 372e 46bc d77c e0bd
00000100: 406a 63bd 8eda b43d 5028 e2bd a182 0ebe
00000110: d323 053e b79a e43d d70e 0c3e 7dac 5a3c
00000120: 343a edb9 1bb2 143d 03ff 8e3b 2288 213c
00000130: da65 3fbd 2b29 e53d 5580 96bd c998 0a3e
00000140: 0fcc 123e 139a d1bd 158c b4bd 45a2 f03d
00000150: 0f5e 163e d570 653d 5961 07be 9900 7c3c
00000160: 525e 03be 3799 c13d 3a16 f1bd 7c23 69bd
00000170: 35f2 fb3d c098 17be 6a1b 793d 2fdb e53d
00000180: 10fe bbbd 78d8 ec3d 8285 12be 4972 ddbd
00000190: 7ccc f2bd 2b9a ae3d 3f00 3abb 5bd7 c43d
000001a0: b1c5 15bd d0b4 aabc 3724 dcbd e955 893d
000001b0: 42c9 d33d 61e3 f23b c409 b73d d86b f53c
000001c0: f819 f03c d935 a7bd 6b3c e93c 9494 95bd
000001d0: 2fac 2c3c 8e67 bd3d 6c9f 9f3d 3aee 3abc
000001e0: 1a22 09be 5524 aabc 604a 13bd 6aeb b83d
000001f0: 079f 1bbe e45b 883d 6357 06be aacc 17be
00000200: f9c3 02be 3621 2dbd 3641 17bc aa1d 74bd
00000210: 8cb4 783b 7a4b 0b3e d382 353e d763 fc3d
00000220: d3ba 793d e696 a4bb 4851 0d3c c344 01be
00000230: 9ff2 a73d d452 fe3c aef0 f03d 8699 433d
00000240: cb4b f73d 84c5 52bc 1aa8 20bd 8b08 d3bd
00000250: 61da 5abd fb64 8c3d 2049 ce3c 66dc cabc
00000260: 6bf5 d83d 2f93 ffbd ae38 c03c 0f72 e4bd
00000270: 6ab7 45bd fd20 4f3d 96dd 0cbe 2073 76bc
00000280: b19f 0abd becf ccbd 1bc0 9abd 14b3 be3d
00000290: fc3d dbbd b8a7 3bbd b936 b1bd 218e b23d
000002a0: ea26 bf3c f8cd 0bbe 3ade c83d e711 0a3e
000002b0: 6030 ec3d ba30 fbbd 1b73 f1bd 3a8f c03d
000002c0: 219a 943d 3115 d6bb 40ba 7f3d 7257 473a
000002d0: bc46 873c 2e63 4f3d 7f32 a03d 5052 0a3e
000002e0: 6633 40bd a21f dcbd 6d0f 80bd aaf3 533d
000002f0: daab 7c3d ecdf 013e a48c 073d bd88 71bd
00000300: ded9 b63d 5d45 11be 4b59 12be ef3c 97bd
00000310: 0bd6 c23d a9b6 813c 420d b63c ab53 b4bd
00000320: d38f b3bd e8c9 0abe 899a 00be 55dd 293c
00000330: 52ac 3a3d 656f 44bd 0b22 8cbd 4b27 ee3d
00000340: 61de e43c de92 62bd 8f9a ae3d 33a9 e2bc
00000350: e09e b5bc b27d ffbd e7a4 1a3e 5d33 f63b
00000360: d601 ddbd 63bb 903d 9df3 9b3d d090 6b3d
00000370: 8c7f b03d 9742 9f3d bf61 363d 0e69 1cbe
00000380: 7ddb ac3c 8a2f e6bd ad63 e0bc b220 df3d
00000390: 94cb c53d 67d6 4b3c 221c c43c 3f10 193e
000003a0: 1742 093e d499 c13c 67f8 73bd dd8e abbd
000003b0: dbf3 00be df44 bebb b759 1bbe 7f02 54bd
000003c0: 0e2b 0a3e 3c09 c13d ea2f ecbd ea9c 023c
000003d0: cb70 c53d 6064 e8bd ec18 9eb9 ad05 163e
000003e0: 574d c23d 6a4f cf3b 368d b23d 857a b7bd
000003f0: ac47 39bd 28c2 25bd d64f a1bd f6f9 ebbd
0.08899702 -0.16500826 0.058099322 -0.053519603 0.0908882 -0.058464337 -0.028579552 -0.005440142
0.053247485 0.007533468 0.13234678 -0.022473728 0.06697404 0.14151086 0.054634694 0.092849426
-0.011593536 -0.032638956 -0.10408964 -0.021427248 0.15097554 -0.06960624 0.14285341 0.13528623
-0.11753593 0.06584381 -0.12479902 -0.043853544 -0.104501165 0.082404904 -0.13219422 0.05605271
0.009562297 0.051964063 -0.06189339 0.14952031 0.04156781 -0.09631622 0.0002488039 -0.10490611
0.030662559 -0.13278757 -0.098096594 0.14777483 0.03291623 0.016889483 -0.13477129 -0.06656816
0.047149245 0.06405581 -0.007972967 -0.060262356 0.10100082 -0.113325134 -0.060128056 0.05982797
0.0851706 0.00017472667 0.140754 -0.07203137 -0.14090599 -0.13000795 -0.012095979 -0.10961311
-0.05552125 0.088307485 -0.11042845 -0.13917018 0.13001947 0.11162322 0.13677536 0.0133467885
-0.00045247527 0.036302667 0.004363896 0.009859117 -0.046727993 0.11189493 -0.07348696 0.13534845
0.14335655 -0.102344655 -0.08815781 0.117497005 0.14684318 0.056015808 -0.13220729 0.015381002
-0.12828949 0.094530515 -0.117718175 -0.056918606 0.12302057 -0.14804363 0.06081716 0.112234466
-0.09179318 0.11564726 -0.14308742 -0.10812814 -0.118554085 0.08525499 -0.0028381494 0.09611388
-0.036565486 -0.020838171 -0.10749095 0.06705839 0.10341121 0.0074123596 0.089374095 0.02995865
0.029309258 -0.081645675 0.028471192 -0.0730373 0.010539099 0.09248267 0.07794079 -0.011409337
-0.13391915 -0.020769278 -0.0359596 0.09029277 -0.15197383 0.06658152 -0.13119273 -0.14824167
-0.1277007 -0.042268 -0.009231856 -0.059598602 0.0037949411 0.13603011 0.17725687 0.123237304
0.060969185 -0.0050228713 0.008625336 -0.12623887 0.08200573 0.031045355 0.11764656 0.047753833
0.12075003 -0.012864474 -0.039222814 -0.10304364 -0.05343092 0.06855198 0.025181353 -0.024763297
0.10593685 -0.12479245 0.023464527 -0.111545675 -0.04827062 0.05056857 -0.13756403 -0.015042096
-0.0338437 -0.10000561 -0.075561725 0.093115 -0.10705182 -0.045814246 -0.08653016 0.08718515
0.023333985 -0.1365279 0.09808011 0.13483392 0.11532664 -0.12265153 -0.11789533 0.09402318
0.0725596 -0.006533288 0.06243348 0.0007604278 0.016513221 0.050631694 0.07822131 0.13507962
-0.046924017 -0.10748221 -0.06252942 0.051746048 0.061687328 0.12683076 0.03309311 -0.058968294
0.089282736 -0.14186616 -0.14291875 -0.07384669 0.09513482 0.01583417 0.022223119 -0.08805021
-0.08767667 -0.13553584 -0.1255895 0.010367711 0.045574494 -0.047957797 -0.06842431 0.11628588
0.02793807 -0.055315845 0.085255735 -0.027668571 -0.022170484 -0.12475146 0.15101968 0.007513447
-0.10791366 0.07066991 0.07614825 0.05751115 0.08618078 0.07776373 0.04452681 -0.1527445
0.021100754 -0.11239536 -0.02739128 0.10894908 0.0965797 0.012441254 0.023939196 0.14947604
0.13404118 0.023632921 -0.059563067 -0.083768584 -0.12593023 -0.00580655 -0.15170942 -0.051760193
0.13492987 0.094255894 -0.115325764 0.007971982 0.09640654 -0.1134727 -0.00030154677 0.14650603
0.09487408 0.0063266056 0.0871834 -0.089589156 -0.045234367 -0.040468365 -0.078765556 -0.11522286

convs.1.bias f4 [128]
00000000: 1621 883c 4f1b 88bc 032c 523c e51a 41bd
00000010: cc8b 27bd f6d8 6abc 3c81 753c 0289 71bc
00000020: 544a 8a3c fa0b df3c 2556 b23c 92de 19bd
00000030: da3e de3b f1d7 8f3c c6fd 23bb 70aa e4bb
00000040: 5d11 e23c e5c0 2dbc 7832 d73c 2b0b 96bb
00000050: 7dc5 8bbc 0ca5 763c 6263 b93b 2026 4e3c
00000060: 7e2b 413d a3f6 dfbb 2b78 2c3d c17c 783c
00000070: 2093 4e3b 64f0 8539 dde0 c33c 5c1f 0bbc
00000080: 80e3 cc3c 0181 14bb 336f 0fbd 2062 d83c
00000090: a1b1 00bd 63be df3c 5bb2 17bd 71b9 4abc
000000a0: 6044 343b 85ab 1ebc e174 edba 5956 bc3c
000000b0: e362 12bc cef6 d5bc e380 efbc a9ee 2abd
000000c0: f63a edbb f314 2cbb d625 693c e959 88bc
000000d0: 0190 f33c 6ec8 943b 4575 cab9 a5ed a5bc
000000e0: 271d 5f3c 7447 55bb ee97 7fbc d56e 283c
000000f0: 2193 b83c 4bbd d43a d4a7 473d 479e ae3b
00000100: 539e 063d 6667 253d 2073 1a3d 20fa 973c
00000110: cd5a 5e3c c626 493d 9896 32bd e81b 12bc
00000120: caa6 a53b 91f5 283d ecb5 863c 49ea 29bb
00000130: 7f61 83bc 4a57 a5bc df92 37bd 17d9 e1ba
00000140: 8534 3f3c ae2f 063b c276 d7bb 3d79 013c
00000150: 2afa 923b a027 61bc 4377 1cbd f019 c93c
00000160: 0f75 a0bc bfaa 96bc f352 f6bb 92db b63c
00000170: 8ba3 60bc f6c3 863b b516 abba e765 3ebc
00000180: 0d9d ac3c e488 b5bc 13e8 2a3c c1d0 73bd
00000190: 34ea a0bc 877b 74bb f6f8 fabc 3111 4ebc
000001a0: c3f4 47bd 8e5b ea3c 5325 34bc 2346 0c3c
000001b0: dbb8 473c cc40 11bd 4921 1dbc 9f64 023b
000001c0: c97f a53b 4636 483c bfe8 8f3a 71c3 71bc
000001d0: 5731 823c 1ddc 733c 14c6 d43b 989b d8bb
000001e0: 29a1 b739 a935 d83c 5aa6 0d3d 5f43 8e3c
000001f0: e9a9 3bbd 8aea 3e3c a163 c73c c7fa 503c
0.01661734 -0.016614584 0.012827876 -0.04714479 -0.040904805 -0.014333954 0.014984425 -0.014742138
0.016881146 0.02722739 0.021769593 -0.037565775 0.006782395 0.017559024 -0.0025023087 -0.0069783255
0.02759617 -0.010605072 0.026269183 -0.004578968 -0.017061943 0.015053999 0.0056575993 0.012582332
0.047160618 -0.0068348213 0.04210679 0.015166462 0.0031520799 0.00025546842 0.023910934 -0.008491363
0.025010824 -0.00226599 -0.035018157 0.026413977 -0.0314194 0.027312463 -0.037035327 -0.012373314
0.0027506575 -0.009684448 -0.0018116498 0.022990393 -0.008934709 -0.026118662 -0.029236263 -0.04173151
-0.0072396947 -0.0026257604 0.014230212 -0.016644435 0.029731752 0.0045404946 -0.00038615815 -0.02025492
0.01361779 -0.003254381 -0.015600188 0.010280331 0.022531094 0.001623073 0.048744038 0.0053289267
0.032865833 0.04038181 0.037707448 0.018551886 0.013571453 0.049109243 -0.04360065 -0.008917786
0.005055283 0.041249815 0.016444169 -0.0025926998 -0.0160377 -0.020183224 -0.0448178 -0.0017230836
0.0116702365 0.0020475197 -0.0065754363 0.007902441 0.0044853883 -0.0137423575 -0.038199674 0.0245485
-0.019587068 -0.018391965 -0.0075172125 0.022321496 -0.013710867 0.004112716 -0.0013053032 -0.011620975
0.021070981 -0.022160001 0.010431307 -0.059525255 -0.019642927 -0.0037305073 -0.030636292 -0.012577341
-0.048817407 0.02860811 -0.010995227 0.008561644 0.012190069 -0.035462186 -0.009590455 0.00198964
0.0050506336 0.012219971 0.0010979398 -0.0147560695 0.015892668 0.014884022 0.0064933393 -0.006610345
0.00035024554 0.026392775 0.034582473 0.01736611 -0.045816336 0.011652598 0.024339499 0.0127551025

convs.1.lin.weight f4 [128, 128]
00000000: df76 843c 7fb2 d0bd bca9 b13d 7b8b 3cbd
00000010: eb21 3f3d 3c6b 27be 21ad e23d af09 e7bd
00000020: a172 bb3d 734a e43d 74e3 063e c100 a13d
00000030: 9d0f 083e 17ca 5c3d f1f1 403d c243 663d
00000040: e0e5 fe3d efc1 85bd 8cf5 b03d 3d56 28bb
00000050: ffe7 59bc fa5c 523d 88ce c53d 3041 dc3d
00000060: 8c47 5bbd c24c 733d cba4 07be d73d 233e
00000070: cf16 6abd 8e96 203d e7db c53d 6e3b f53d
00000080: 3186 05bd 3236 af3d a26e 08bd fdcc 383d
00000090: a4ed 933d 2d5a a23d bba1 f03d 5516 f9bd
000000a0: f17c bdbd 81bf 9abc 9dd6 6ebc 6c2b bfbc
000000b0: 7540 a03d e5ac 14bc aa45 bfbd 0bef 413d
000000c0: 26b5 833d 8adc b83d 5671 99bd e2d1 65bd
000000d0: aa90 0cbe 8903 9fbd ecb4 473d a5aa 19be
000000e0: 6330 acbd 1f30 cabc 5efe 8cbd b457 033d
000000f0: 93ab f1bd 8e66 40ba 3398 91bd c34d 20bc
00000100: 0cf5 88bd 772d 233d 3a1d 96bd a855 77bd
00000110: 15cd 86bd cac5 573d 4f4f e4bc 1897 c4bd
00000120: a37b c1bd c8d6 15be 638b 8cbd 290c c2bd
00000130: 5f62 c6bd ba00 1abc bec8 01be 6e9a a53d
00000140: 4f03 05be 039a 89bd 0512 cd3c b082 073d
00000150: a0a4 babd 3810 1ebd 9115 1ebe c7a5 673c
00000160: 7f54 c63c 03d5 b5bd dd14 29be 4391 053e
00000170: 6b4a b0bd 4d70 67bd d4bb 16be c5e9 71bd
00000180: 1b78 0bbe 6acf 21bd 1c69 2c3d 9ee6 0a3e
00000190: 9c2c e0bd 22f1 a7bd 94b4 f63d 39b8 113e
000001a0: 1c9b ae3d bb1e bf3d 601f 87bd 570e c63c
000001b0: 208a 28be a32a f53d b051 023e 850f a7bd
000001c0: 7c85 56bb 94ee 26bd 705b 82bd ac3f 1e3c
000001d0: 8040 963d 6f3b d93b ea7d 11bb 9b62 46bd
000001e0: 5926 e0bc e5da b7bd f187 f7bd 5f1f 96bd
000001f0: 6a8f 38be 7fbb 9e3d bdc2 e03d fe06 093d
00000200: b8be fe3d 2027 d8bd 9efd 80bb 38df 0fbe
00000210: 7065 0abd 5956 5dbc 29a0 2f3d e105 0f3e
00000220: 57c4 ddbd 5026 e7bd c63a c53d a4c9 ac3d
00000230: 744b 643d dacc 153e a7c3 263e e2bd b33d
00000240: 1d86 c4bd e2be 003c 1d38 893d dffb 953d
00000250: 9d70 c2bd 7b1d 72bd 3c31 fd3d 2a64 94bc
00000260: 8cc6 11bc ce00 1cbe cb55 c5bd 2723 bcbc
00000270: fc64 983c acc6 d13d e90a edbd 77a4 0bbe
00000280: 0dd0 cf3d 451a d2bd ea35 713d f740 60bd
00000290: 549d 52bd 66f7 edbd a3cd 1bbd 794c 17bd
000002a0: 39e0 e7bc b840 953c ea05 83bd 8897 753d
000002b0: d48f c2bd 74a8 18be a69b b43c c3be fc3d
000002c0: 9fd7 f73d bd67 06be 5349 04be f801 493d
000002d0: 06ce d9bd a975 e9bb 0e43 1f3e b61f 0ebe
000002e0: f498 133e 7c01 03bd b90f d53d 0063 b7bd
000002f0: 739e db3d 216e 11bd b8c5 7b3c ed0f 033e
00000300: 8ef4 0a3d a029 863c f16b c6bc 4948 fe3d
00000310: e38f 1fbe 5cf4 5e3d 09ee f9bd 2c4d ee3d
00000320: 132e 64bc d1c4 a33d b9b6 06be b654 ff3d
00000330: 48aa 8ebd e714 6b3d d30a 843d dcd2 72bd
00000340: da08 183e 097a 66bd 7544 29bc e758 353d
00000350: eca7 ebbd 8e43 56bd c279 c83d d80c 1abe
00000360: e3bd 3dbd 7274 b53c f21f ad3c 18bd 32bc
00000370: f92e 833d 2974 4f3d be02 6bbd d5c4 cb3d
00000380: a173 613d 23cf d2bd 6ee8 323d 9a7e afbc
00000390: 709e b6bc b805 06be 84d2 f7bd 0056 7abd
000003a0: fb51 13bb 9330 833c 25d3 0cbe 392b fd3d
000003b0: 2e47 103e 47f7 2f3d a39e 4dbd 1f7c fdbd
000003c0: d6a8 85bd 2e23 003d 90b6 ac3d f6ba 0bbe
000003d0: 10e0 c2bd 925c 813d 17cd 0fbe 0348 4f3c
000003e0: 880c 14be 2ea9 1d3d 85a5 9a3d 327e cd3b
000003f0: a0a8 b53d 415a d2bd daad 5c3d 1b70 6f3d
0.016169963 -0.101902954 0.086749524 -0.046031456 0.046663206 -0.163495 0.11068178 -0.11281144
0.09152723 0.111470126 0.13172704 0.07861472 0.13287206 0.053903665 0.047105733 0.056216963
0.12446189 -0.065311305 0.08640584 -0.0025686168 -0.013299941 0.0513582 0.09658533 0.10754621
-0.05353503 0.059399374 -0.13246457 0.15941559 -0.05715066 0.03920608 0.09661084 0.11974226
-0.032598678 0.08555259 -0.033308633 0.045117367 0.07223061 0.07927356 0.11749598 -0.121624626
-0.09252346 -0.018890144 -0.014577535 -0.023336135 0.07824794 -0.009074424 -0.09339459 0.04734711
0.06431036 0.090264395 -0.0749232 -0.056108363 -0.1372706 -0.07764346 0.048756525 -0.15006502
-0.084076665 -0.024681149 -0.06884454 0.032066062 -0.11800303 -0.00073395006 -0.07109108 -0.009784165
-0.06687364 0.03983828 -0.07329793 -0.060384423 -0.06582085 0.05267886 -0.027869849 -0.09599131
-0.0944741 -0.14632714 -0.068625234 -0.094749756 -0.096867315 -0.009399587 -0.12674233 0.08086096
-0.12989543 -0.067188285 0.025033006 0.033083618 -0.09113431 -0.038589686 -0.15437914 0.0141386455
0.024210213 -0.088785194 -0.16511865 0.13043694 -0.08607944 -0.056503583 -0.14720088 -0.05906083
-0.13620035 -0.039504446 0.042092428 0.13564536 -0.109460086 -0.08200289 0.12046161 0.14230432
0.085256785 0.09332033 -0.06597781 0.02417676 -0.1645894 0.11971023 0.12726474 -0.08157257
-0.0032733371 -0.04075487 -0.063650966 0.009658735 0.07336521 0.0066293995 -0.0022200295 -0.04843388
-0.027362036 -0.08977298 -0.12086476 -0.07330202 -0.18023458 0.07750606 0.109746434 0.033453934
0.124387205 -0.105543375 -0.0039364835 -0.14049995 -0.033788145 -0.013509356 0.04287735 0.13967086
-0.108284645 -0.112866044 0.09630351 0.084368974 0.05573602 0.14628926 0.16285573 0.08776452
-0.095958926 0.00785801 0.06700156 0.07323431 -0.094941355 -0.059110146 0.12362906 -0.018114168
-0.008897435 -0.15234682 -0.09635504 -0.02296598 0.01860284 0.10242972 -0.115743466 -0.13636957
0.101471044 -0.10258917 0.058889307 -0.054749455 -0.05141957 -0.11619453 -0.038037907 -0.036938164
-0.02830516 0.018219337 -0.063976124 0.059958965 -0.09500089 -0.1490801 0.022046875 0.123410724
0.12101673 -0.1312551 -0.12918596 0.049074143 -0.10634999 -0.007124622 0.15552923 -0.13879284
0.14413816 -0.031983837 0.104033895 -0.089544296 0.10723581 -0.035505418 0.015366964 0.12799044
0.03392463 0.01637727 -0.024221392 0.12416131 -0.15582232 0.054432258 -0.12203605 0.11635813
-0.013927001 0.07996524 -0.1315564 0.12467329 -0.06966072 0.05739298 0.06447377 -0.059283122
0.14847127 -0.056268726 -0.010331263 0.044274237 -0.11506638 -0.05231052 0.097888485 -0.15043962
-0.04632367 0.022150252 0.021133397 -0.010909341 0.06405444 0.05064789 -0.057375662 0.09949652
0.055041913 -0.102934144 0.043678693 -0.021422673 -0.022292346 -0.13088119 -0.121006995 -0.061117172
-0.0022479284 0.016014373 -0.1375242 0.1236176 0.14089653 0.04296043 -0.050200116 -0.1237719
-0.065263435 0.03128355 0.084332585 -0.13645539 -0.09515393 0.063164845 -0.1404308 0.012651446
-0.14457905 0.03849142 0.075511016 0.006271147 0.08870053 -0.10271121 0.053876735 0.05845652

convs.2.bias f4 [128]
00000000: 0fcd 853d a334 04bd 9d97 153d 9bb4 ab3d
00000010: bcb2 823d e545 023d 5c8d ccbd c389 623d
00000020: 6c62 d1bc 8cd3 87bd 8f70 9fbd 9763 66bd
00000030: 4080 89bd 2dfc 913d 4d7c 1e3d c800 833d
00000040: 1ede fd3c 10b0 2b3d b805 e43b 6cf8 3b3d
00000050: 4aef 0d3d 1003 7abc 9f75 60bc ddc0 f2bc
00000060: 44cd 8a3d e861 5a3d a824 793d 9255 9e3d
00000070: 3da8 253d 9a75 463d e397 7c3d fe1d 1f3c
00000080: 75d8 6c3d 8692 743d b564 803d 1a24 483d
00000090: cde9 b73b 6405 883d 7cba 543d 5c42 b3bd
000000a0: bcc6 8a3d e941 b53c c93a 9ebd ad28 d03d
000000b0: bc7d 4e3d 51e7 c33c 85dc 163d d739 173d
000000c0: c8c8 493d 5b3b 60bd a5ee 283d f579 7f3d
000000d0: 7978 8e3d bbf0 563c 5b33 8ebd e631 2cbd
000000e0: c04c 9c3d 20e1 173d 61ba 833d cda5 363d
000000f0: 5a9e 473d a7e5 a1bd 64c2 243d 2025 d43c
00000100: 45af 90bd 7426 f03b e43e 833d 1e88 753d
00000110: ba8c 903d 52a9 94bd 6516 8fbd bfce 6f3d
00000120: 840d 8b3d c2b9 773d ca69 5bbd 0711 85bd
00000130: df84 b23d e15e 853d e56b be3c 8b10 7d3d
00000140: 07d7 3cbb 9fa5 7dbd ac9f 673d 6c16 913d
00000150: f996 563d 5fa2 493d bc1b 893d 98ea a5bb
00000160: 4111 cf3c 6c1b d7bd 9d75 083d 930c 0e3d
00000170: 876d 8bbd ad86 1a3d 6da3 013d cd7d a63c
00000180: 7131 263d 9754 3e3d 09d3 8439 e132 97bd
00000190: 7452 4f3d 3d41 863d 9674 9abd 99af 70bc
000001a0: 1685 b4bd d2c0 743d 6386 253d b668 f73c
000001b0: c103 453d 4b8f 653d 3b0e 89bd ca3b f6bb
000001c0: aa5f 0a3d 71b5 8bbd 8348 823d 0c01 d4bd
000001d0: d701 663d 3b11 8dbd b911 b3bd f4d6 94bd
000001e0: 4652 9fbd de8d 163d 59c4 923c 26be 343d
000001f0: 0472 8abd 3033 9b3d e56f 1b3d 9e25 a1bc
0.065332524 -0.03227676 0.036521543 0.08384057 0.06381747 0.031804938 -0.099879 0.05530716
-0.025559627 -0.06632146 -0.07785141 -0.05624732 -0.06713915 0.07128177 0.03869276 0.063966334
0.030989703 0.041915953 0.0069586895 0.04589121 0.034652032 -0.015259519 -0.013699918 -0.02963298
0.067774326 0.053316027 0.060825974 0.07731165 0.040443648 0.048451997 0.061668288 0.009711741
0.057823617 0.05971005 0.06269208 0.048862554 0.005612588 0.06641653 0.051935658 -0.087528914
0.06776187 0.022126155 -0.07726056 0.10164008 0.05041288 0.023914011 0.036831398 0.036920395
0.049263746 -0.054744106 0.041243214 0.062372167 0.06956572 0.013118918 -0.06943389 -0.042039774
0.076318264 0.03707993 0.06432033 0.044591714 0.048735 -0.07905131 0.040224448 0.025896609
-0.0706468 0.0073288027 0.0640848 0.059944265 0.070580915 -0.07258858 -0.06986693 0.058546778
0.06789687 0.060479887 -0.053567685 -0.06497388 0.087167494 0.06512237 0.023244807 0.061783355
-0.002881469 -0.061925527 0.05654876 0.07084355 0.052390072 0.049227115 0.06694743 -0.005063366
0.025276782 -0.10503277 0.03331529 0.03467996 -0.06808 0.037726093 0.031649996 0.020323658
0.040574495 0.04646739 0.00025334235 -0.07382751 0.050615743 0.06555412 -0.07541768 -0.014690303
-0.08814447 0.0597542 0.040411364 0.030201297 0.048099283 0.056044858 -0.06692167 -0.0075144516
0.03378264 -0.068217166 0.06361487 -0.10351762 0.0561541 -0.06888052 -0.08743615 -0.072675616
-0.07779364 0.03675639 0.017915891 0.044126652 -0.06760028 0.075781226 0.037948508 -0.019671258

convs.2.lin.weight f4 [128, 128]
00000000: 79f5 a2bd 45ce 20be 0c35 febb e0b8 6f3d
00000010: e497 1e3d c817 b33d cfe3 433d bc43 9cbd
00000020: 5252 44be 5f35 99bd 46c5 d33d 5d7e 553c
00000030: 3069 b1bc e55f 983d c79f 0ebc 0a67 5bbd
00000040: 4e74 483d ffea acbc 0dd7 3b3c 3054 dfbd
00000050: d6ae 85bd 2f13 dd3d 96a3 f23c baf9 2e3b
00000060: 8555 eabc 43a6 e53d 53e8 e63c 190c 29be
00000070: 1607 44bd 64dd b8bd be2c 57bc fc01 553d
00000080: 1b2d f1bd 35d3 d0bc e34e 983d 3e44 0fbc
00000090: 1f1e be3b 20a4 0dbe 9a7a e33d 3c0f c5bd
000000a0: 0a26 973d bde5 fabd 89df afbd c9c5 8e3a
000000b0: 143f 12bd 66e5 1c3c e63d af3d 53a8 af3c
000000c0: e1cc 09bc 0c50 86bd 1d1a 233d c127 d63d
000000d0: 42bf 003e 3d60 ddbd 7fdb 473d be38 94bd
000000e0: 9bd5 fb3d 2ee2 c63c 4d7c bb3d 6953 16be
000000f0: 1f36 bbbd abae e6bd 9a8a 2ebd a79a e3bd
00000100: df72 8ebd b392 04be 9536 63bd babe 813b
00000110: a200 c0bd 3c86 67bd 30e0 843d 8d20 713d
00000120: 8f2c 27bd 3d99 b73d 2927 adbd 9127 fd3d
00000130: d408 91bb 7375 aebd baa3 1dbd 77ef 0bbe
00000140: 68c6 a7bc 4881 36bc 5d3c dfbd cee5 593d
00000150: 4d2c a6bd 3d33 423d 0592 19bc 95ec c93d
00000160: 4a62 053d 6efc 3abd 5c50 08be 4e2d 46bd
00000170: 4c53 32bd ef50 feba 7c23 023e f655 0dbe
00000180: f427 cc3c 1e79 ffbd 4973 d73c d14b 0bbe
00000190: 39b3 90bc 9ab2 c8bc 270e 67bc 8ac9 8fbd
000001a0: 251c 06be d19c 21be 4e77 20be 0a29 e3bc
000001b0: 1225 8c3b baaf d4bd 0a3a c33d e600 fb3d
000001c0: 632c d0bd 42ed 04be 936d 91bd 945b 8d3d
000001d0: 5272 d8bd e24c 8aba 16b5 f5bd 8d6d 033e
000001e0: ebf1 18bd ab6b 9a3d 5e7d 15bd d95e 41be
000001f0: de8b d03d 80a6 cbbc e062 f73c 1442 debd
00000200: ddeb 80bd a2d7 303c 27ff 2dbe d813 0cbe
00000210: a14a 1cbe 877f 07bc 93cd f53d 29d2 0ebe
00000220: 5731 01be 274c 98bc 91c4 77bd 27c4 713d
00000230: 1f50 c23d 79bb ff3d 3ed5 f7bc 05f3 09be
00000240: 6500 80bd 1596 96bd a909 0fbd efec dd3d
00000250: dfa7 ca3d c77e f1bd 1b76 7d3d 706c cfbd
00000260: 2a6e 57be 896b b13b c784 9cbd 347f 24be
00000270: a6bc 653d 0ddf abbd 18cb 943d dbac edbd
00000280: 338f 033d 9fcc 853d 579b 9c3c c998 32be
00000290: 65aa 6ebd b69a ee3d ea46 bc3d c2da 29be
000002a0: 586a cebc 1753 bc3d 62c1 043e dbc1 1bbe
000002b0: 24df 98bd 3d35 813d a1fb 0f3c 92c5 b43c
000002c0: 6abe 053c 51d2 023e 12f8 4abd a502 10be
000002d0: 37e7 103c 56f5 813c 25ff 2dbe d4b1 0abd
000002e0: cf76 83bc ef7f 06be 253b cfbd bda0 823d
000002f0: 0436 c8bc 8cc0 bf3d 17be 4f3d c963 593d
00000300: 7078 13be 26b0 e53c e19e 32be 81c6 47bd
00000310: f10a e73d 5167 e23d bb58 a93b 8fb2 b23d
00000320: 0115 09be a934 bdbd 87f9 e3bc 2830 4dbd
00000330: e56c d33d c483 ed3d 213c fabc 462d 17be
00000340: 09a4 17be 0eed 25bd 8102 d1bd b4e0 34bd
00000350: 661f e63c e683 e8bc 0111 ac3d c205 043e
00000360: 6aa2 1c3e 0093 bbbc e212 7bbd 393b 3ebd
00000370: b20a 1abe 42e8 923d 90a8 f2bd b7aa d43c
00000380: 82c8 db3d 70c7 e4bd 6038 a83d ddac a63d
00000390: 1e4d c23d fcc4 2fbd eec7 7d3d 2dbe 33bc
000003a0: 2088 6a3b 3bdb de3d 8a41 9d3c 865f 0dbe
000003b0: f241 28be 1f2a fbbd 99c4 7d3d 54cf d53d
000003c0: 92bf 0f3e bb70 2abe 9b6a b13d 7b07 f1bc
000003d0: bcfe 29bb 6408 a23d ed0a 873c 1b0a b5bd
000003e0: 6cf8 c4bd a22f 473d 09fb 9abd 2aad 823d
000003f0: 0df9 bebd 15bf 303c 7628 f8bd 9bbf 49be
-0.079569764 -0.15703686 -0.0077577885 0.05852592 0.038719073 0.0874477 0.047824677 -0.07630107
-0.19172028 -0.07480883 0.10340361 0.013030616 -0.021656603 0.074401654 -0.008705086 -0.053565063
0.04893904 -0.021108149 0.011464846 -0.10904729 -0.06527488 0.107946746 0.02961902 0.0026699142
-0.028605232 0.112133525 0.028186953 -0.16508521 -0.04785832 -0.09026602 -0.013133226 0.052003846
-0.11776181 -0.025491336 0.074369214 -0.008744298 0.0058019306 -0.1383214 0.11107369 -0.09622046
0.07380302 -0.1225085 -0.08587558 0.0010892685 -0.035704687 0.009576177 0.08556728 0.021442568
-0.008410663 -0.065582365 0.039819825 0.10456801 0.12572959 -0.108093716 0.048793312 -0.07237385
0.122966014 0.024277773 0.09154568 -0.14680256 -0.09141182 -0.11263784 -0.04261265 -0.11113482
-0.06955504 -0.12946586 -0.055471975 0.003959504 -0.09375121 -0.0565245 0.06488073 0.058868933
-0.04081398 0.08964775 -0.08454735 0.12361062 -0.004426101 -0.085184954 -0.03848622 -0.13665567
-0.02048035 -0.0111392215 -0.10900185 0.053197674 -0.081139185 0.047412146 -0.009373193 0.098595776
0.03256444 -0.045650892 -0.13311905 -0.04838305 -0.04353647 -0.0019402782 0.12708849 -0.13802323
0.024921395 -0.12474273 0.02630009 -0.1360314 -0.017663585 -0.024499226 -0.014102495 -0.070208624
-0.13096674 -0.15782477 -0.15670511 -0.02772953 0.00427688 -0.1038508 0.095325544 0.12256031
-0.10164716 -0.12981132 -0.07100978 0.06902233 -0.1056868 -0.0010551477 -0.1199743 0.12834759
-0.037340086 0.07540067 -0.036496513 -0.18883838 0.101829275 -0.024859667 0.030198514 -0.10852447
-0.06294987 0.010793598 -0.16991864 -0.13679445 -0.15262844 -0.008270151 0.12002101 -0.13947357
-0.12616478 -0.018591 -0.060490195 0.059024956 0.09487938 0.124869294 -0.030253049 -0.13471611
-0.06250075 -0.073528446 -0.034921322 0.10836207 0.098953 -0.11791759 0.061880212 -0.10128105
-0.21038118 0.0054144305 -0.07642513 -0.16064149 0.056088112 -0.08392153 0.072652996 -0.11605235
0.032118987 0.06533169 0.01911704 -0.17441095 -0.05826797 0.116506025 0.09193213 -0.16587356
-0.025197193 0.09195536 0.12964395 -0.15210669 -0.07464436 0.063089825 0.00878802 0.022066865
0.008163074 0.12775542 -0.049552985 -0.14063509 0.008844188 0.015864056 -0.16991861 -0.033860996
-0.016047863 -0.1313474 -0.10118703 0.06378315 -0.02443982 0.09362897 0.050718393 0.05307368
-0.14401412 0.028038096 -0.1744342 -0.048773292 0.11281384 0.11054862 0.005168048 0.087254636
-0.13386919 -0.0923856 -0.027828945 -0.050094754 0.10323504 0.11597398 -0.03054625 -0.14763364
-0.14808668 -0.040509276 -0.10205556 -0.044159606 0.028091144 -0.028383207 0.08401681 0.12892821
0.15296331 -0.022897243 -0.061297305 -0.046443198 -0.15043142 0.07173206 -0.11848557 0.02596031
0.10731603 -0.11170852 0.08213878 0.0813844 0.09487365 -0.04291247 0.061958246 -0.010970634
0.0035786703 0.10881659 0.01919629 -0.1380597 -0.16431406 -0.12263893 0.06195507 0.10439935
0.14037922 -0.16644566 0.086629115 -0.029422512 -0.0025939187 0.07911757 0.016484702 -0.08839818
-0.09617695 0.04862941 -0.075674124 0.06380685 -0.093248464 0.010787745 -0.12117092 -0.19701998

norms.0.weight f4 [128]
00000000: a54a 7f3f 74c8 813f 9643 783f 7fba 793f
00000010: 3d44 823f 2038 873f d101 7d3f ca4e 7e3f
00000020: 1e75 7e3f 24e4 753f f9e7 893f ea84 823f
00000030: b774 783f 3fe4 7d3f ba42 853f b518 813f
00000040: 173b 773f 0fc2 7f3f 84c7 863f 0155 803f
00000050: f762 7c3f 3361 813f 48f7 7e3f 8d87 823f
00000060: c31a 7c3f a507 843f 2cb4 7c3f 17b3 853f
00000070: 7dce 7f3f 2ea7 7f3f b94d 7a3f 45db 7a3f
00000080: e579 7d3f b65b 813f c02b 813f ac75 793f
00000090: a874 7d3f 199e 793f 4db7 7d3f 7aeb 873f
000000a0: fa19 823f 7f3d 823f 5eb0 803f 92c3 883f
000000b0: 353b 793f 52f6 7e3f 1a15 7e3f 33ea 813f
000000c0: e6a2 7f3f e5ef 803f ff27 823f 3a9e 813f
000000d0: e3a3 813f e405 823f 3da0 753f 4a0a 813f
000000e0: 1cdc 773f 99ef 743f d4a7 7b3f e35a 853f
000000f0: e855 833f 1daa 7a3f a714 843f 4975 803f
00000100: b224 7e3f db7e 823f b728 803f c863 7d3f
00000110: 7c51 783f eac3 7f3f 18ae 7d3f 77ed 813f
00000120: 440e 803f da95 763f 3835 813f da3d 843f
00000130: e203 833f 7087 813f 1076 813f ac7b 7e3f
00000140: 89c5 7e3f be60 813f 0236 7d3f e247 763f
00000150: 5d31 823f 55ed 7f3f 2536 843f 006d 7b3f
00000160: 9c74 843f 1c52 833f c591 7d3f 29bc 793f
00000170: bb6f 843f 6ad8 773f a77a 7d3f a564 813f
00000180: 8953 823f 14a2 823f e6b4 7e3f 1115 7d3f
00000190: 911a 883f e308 813f dc29 803f b1f1 7a3f
000001a0: 5238 803f 905a 7e3f 50f3 843f 4d90 823f
000001b0: 05aa 843f 410f 823f f0cc 7e3f 7d90 793f
000001c0: 3d19 853f 142d 793f d892 813f 0673 803f
000001d0: 801e 833f 649b 803f 2ddf 813f 428e 803f
000001e0: 4f36 833f 0f9e 873f 7f48 803f ec2e 823f
000001f0: efad 7c3f a6b0 813f c2b0 803f 16f7 7b3f
0.99723274 1.0139298 0.9697813 0.97550195 1.0177075 1.0564003 0.98830897 0.9933897
0.99397457 0.9605124 1.0773917 1.0196812 0.9705309 0.991764 1.0410988 1.0085665
0.9657454 0.99905485 1.0529637 1.0025941 0.9858851 1.0107788 0.9959607 1.0197617
0.98478335 1.0314833 0.9871242 1.0445279 0.9992445 0.9986447 0.97774845 0.9799083
0.9901412 1.0106113 1.0091476 0.9744518 0.9900613 0.9750686 0.9910782 1.0618737
1.0164177 1.0175017 1.0053823 1.0684683 0.9735597 0.99594605 0.9925095 1.0149597
0.9985794 1.007321 1.0168456 1.0126412 1.0128139 1.0158048 0.9594763 1.0081265
0.96820235 0.95678097 0.9830296 1.0418361 1.0260592 0.9791582 1.0318803 1.0035793
0.9927474 1.0194963 1.0012425 0.9898038 0.96999335 0.99908316 0.9909377 1.0150594
1.0004354 0.96322405 1.0094366 1.0331376 1.023556 1.0119457 1.0114155 0.9940746
0.99520165 1.0107648 0.98910534 0.96203434 1.0171314 0.99971515 1.0329024 0.98213196
1.0348086 1.0259433 0.9905055 0.97552735 1.0346597 0.96814597 0.9901528 1.0108839
1.0181743 1.0205712 0.9949478 0.9886027 1.0633107 1.0080837 1.0012774 0.9802504
1.0017188 0.9935694 1.0386753 1.0200287 1.0364386 1.0160905 0.9953146 0.97486097
1.0398327 0.9733441 1.0122938 1.0035102 1.0243683 1.0047421 1.0146233 1.0043414
1.0250949 1.0595111 1.0022124 1.017057 0.987029 1.0132034 1.0053942 0.984239

norms.0.bias f4 [128]
00000000: 8eef fbbc d50b 32bc 7ba4 45bd c8b7 8bbc
00000010: 1762 253d 3ac9 323c 75ac 133c 465b d8bb
00000020: 32af 43bc 2e98 0dbd d52a cf3c 5f33 6c3b
00000030: cc08 a1bc 0f8d 90bc d659 86bc 9e2f b1bc
00000040: 7bec 04bd b388 6c3c 8f04 9b3c 3a9b 9fbc
00000050: f485 f9bc 1069 d93b c390 7bbc 3a6b e4bc
00000060: b39f 2bbc 2798 383d 987f 2ebd 9173 0d3d
00000070: bd90 263c 451a cabb 54b8 02bb 8c38 1bbd
00000080: 1e15 ffbc 49b7 063c e427 123c e6ae 2fbd
00000090: 1d07 4cbd 4512 713c 2a7f 1abb bfc4 393d
000000a0: a74d f438 159f 293d 6da9 6b3c 6b77 adbc
000000b0: 3bc0 59bd 72c6 03bd dadc b1bc 1dea 8f3c
000000c0: f4ed 2fbd db1e 3e3c 50d3 cd3c 2de1 7bbc
000000d0: c1c1 26bd 6902 1b3d 1804 a0bc 098f b9bc
000000e0: 6ce9 63bd 3d3f c8bc dd76 0cbd a5ce c43c
000000f0: 5dea 453c d564 48bd ae9e cebc f468 95bc
00000100: c951 0dbd e6c4 09bc e394 363c dc3e abbc
00000110: 2f11 57bd 3daf 08bc 5b71 86bc 87c5 83bc
00000120: 44c0 023d f00e 7abd 6b1d fb3b 5551 e63c
00000130: 6434 43bc b190 ae3c 644a 1abc a79f 833c
00000140: b753 13bc 8a99 db3c 7796 0bbd 3a94 f7bc
00000150: 2f49 66bb 6924 7cb9 fbc0 f7bc f339 02bd
00000160: f060 3c3d 8376 f23b 1b75 59bc 5a9c babc
00000170: 057a 95bc d966 41bd e870 fbbc 0e5b afbc
00000180: 8e62 95b9 036b 003d 5fe3 3abb 836f 113b
00000190: 4b90 6ebc f03c e6bc 66e1 d03c d06e 5dbd
000001a0: 22e4 7a3b 4cb1 8d3c 8b07 e93c 294c f7bc
000001b0: fb93 2abc ca14 ea3a 5fc5 9fbc 1dc6 dcbc
000001c0: 3d5b 663c d8fb a5bc ee9b b9bc e360 9c3c
000001d0: 6696 2f3d c794 a3bb 0db3 4ebc 1929 edbb
000001e0: 1123 28bd c41e 933b df8d e0bc ae3a b2bc
000001f0: 2556 99bc a93c bdba 1fc7 1abd 951d 98bc
-0.030753877 -0.010867079 -0.048252564 -0.017055407 0.04037675 0.010912234 0.009013285 -0.0066026775
-0.011943625 -0.034568958 0.025288979 0.0036041362 -0.019657515 -0.017645387 -0.016400259 -0.021629151
-0.032452088 0.0144368885 0.018923072 -0.019483197 -0.030459382 0.006634839 -0.015354338 -0.02788316
-0.010475087 0.04506698 -0.04260215 0.03453404 0.010166344 -0.0061676824 -0.0019946294 -0.037895724
-0.031138 0.0082224095 0.0089206435 -0.042891406 -0.04981147 0.014713828 -0.002357433 0.045353647
0.000116492905 0.041411478 0.014383656 -0.021175107 -0.05316184 -0.032171674 -0.021711756 0.017567689
-0.04295154 0.011604036 0.025125176 -0.01537351 -0.040712122 0.037844095 -0.019533202 -0.022651212
-0.05564253 -0.024444217 -0.034293044 0.024024317 0.012079802 -0.048924286 -0.025222149 -0.018238522
-0.034501825 -0.008408761 0.011143896 -0.020903997 -0.052506622 -0.008342561 -0.016411474 -0.0160854
0.03192164 -0.0610494 0.007663419 0.028114954 -0.011914346 0.021309229 -0.00941715 0.01606734
-0.008992127 0.026806612 -0.03407904 -0.030222047 -0.0035138836 -0.00024046157 -0.030243387 -0.031793546
0.045990884 0.0073993816 -0.013272549 -0.022779632 -0.01824666 -0.047217224 -0.030693486 -0.021405723
-0.00028492924 0.031352054 -0.0028516871 0.002219171 -0.014560769 -0.02810523 0.025498103 -0.054060757
0.003828295 0.017296456 0.02844598 -0.030187683 -0.010411258 0.0017858979 -0.019503294 -0.026949937
0.014059839 -0.02026169 -0.02265736 0.019089168 0.04286804 -0.004992101 -0.012615931 -0.0072375652
-0.041049067 0.0044897515 -0.0274114 -0.021756496 -0.018717835 -0.0014437634 -0.037787553 -0.018568793

norms.1.weight f4 [128]
00000000: 3bfb 823f 79cc 753f 1714 843f a987 743f
00000010: f5a5 6e3f f80f 823f 9d9e 833f e682 7a3f
00000020: 35fd 823f e708 843f fbe3 803f 1c40 7b3f
00000030: 9ddb 7f3f b4c7 843f fb72 793f 63f5 7b3f
00000040: a09e 843f 279f 7e3f 6c7d 833f 8c7d 7a3f
00000050: 9fd3 763f 835c 873f eec1 803f cb5d 813f
00000060: e59d 853f 5528 793f f336 823f 6404 843f
00000070: 4d55 7b3f 176f 7c3f 6677 833f 2ef2 7d3f
00000080: ea07 773f 851f 833f 9c64 743f 95b0 843f
00000090: 7d6c 803f c173 813f fe5d 7b3f c55b 793f
000000a0: f4f0 7e3f aecc 7b3f a417 7e3f c2d4 833f
000000b0: 7b75 793f 636b 793f fab1 7c3f 05f2 753f
000000c0: 4fa4 7b3f cf40 813f 2bbd 823f d1db 7a3f
000000d0: c907 853f 974c 823f c4a7 753f 96df 763f
000000e0: a206 823f 6277 7c3f 6e56 7a3f dccb 7b3f
000000f0: a606 863f 6a53 7e3f 0c89 883f d99b 7d3f
00000100: f481 803f fb14 813f 664c 833f 5f9e 813f
00000110: 9150 853f a201 833f 3f4d 753f 2eed 7a3f
00000120: 0891 813f b700 843f e188 813f fab2 813f
00000130: 0a78 7a3f 7b55 733f 9705 7b3f 175c 7c3f
00000140: 51d6 7c3f b05e 7f3f 0dd8 7c3f d1d0 873f
00000150: 904a 793f 700b 7e3f 1ae5 7b3f b41a 813f
00000160: 95f6 7d3f f134 793f 094a 753f f8ba 823f
00000170: c4ad 753f 2145 813f 9e2f 823f 999f 7d3f
00000180: 142c 7c3f 51d1 793f f12b 7c3f 31de 753f
00000190: 726e 7b3f d06f 7a3f 44b3 733f 0feb 7e3f
000001a0: da31 7a3f 62e9 843f 9f81 7a3f b4d3 823f
000001b0: c417 7f3f 6f90 7e3f f2b2 773f 5390 7a3f
000001c0: 946f 803f e60c 833f 807b 813f e7fb 7d3f
000001d0: 3846 873f 1911 873f 8748 7f3f bcb4 833f
000001e0: 40c3 753f 39b9 823f 658f 873f f2cd 863f
000001f0: 0be4 6f3f 5211 773f 4edb 843f 2fb1 803f
1.023292 0.96015126 1.0318631 0.955195 0.9322198 1.0161123 1.028278 0.97855985
1.0233523 1.0315217 1.0069574 0.981447 0.9994448 1.0373445 0.9744107 0.98421305
1.0360909 0.994616 1.0272651 0.9784782 0.9641666 1.0575107 1.0059183 1.0106748
1.043881 0.97327167 1.0173019 1.031384 0.98177034 0.9860701 1.0270813 0.9919766
0.9649645 1.0243994 0.9546602 1.0366389 1.0033108 1.011345 0.98190296 0.97405654
0.99586415 0.9835919 0.9925482 1.0299304 0.97444886 0.97429484 0.9870907 0.9607242
0.9829759 1.0097903 1.021398 0.97991663 1.0393001 1.0179623 0.95959115 0.96434915
1.0158274 0.98619664 0.9778813 0.9835794 1.0470779 0.9934603 1.0666823 0.9906593
1.0039659 1.0084528 1.025769 1.0126456 1.0415212 1.0234873 0.95820993 0.9801816
1.0122385 1.0312718 1.0119897 1.0132744 0.97839415 0.9505231 0.98055404 0.9857802
0.9876452 0.99753857 0.9876717 1.0610601 0.973794 0.992362 0.98396456 1.0086274
0.9920438 0.9734641 0.95816094 1.0213308 0.9596827 1.0099221 1.0170782 0.9907165
0.9850476 0.97585016 0.9850455 0.9604216 0.982154 0.9782686 0.9519541 0.9957742
0.9773232 1.0383723 0.97854036 1.0220857 0.9964564 0.9943914 0.96757424 0.9787647
1.0034051 1.0238311 1.0115814 0.992125 1.0568304 1.0552093 0.9972004 1.0289531
0.9600105 1.0212775 1.0590636 1.05316 0.9370734 0.96510804 1.0379426 1.0054072

norms.1.bias f4 [128]
00000000: d80a 533d 275a 14bd f0f3 803d 9fc4 27bd
00000010: f86f adbd cf12 b43c 9058 7a3d 6b93 bc3b
00000020: 4fd1 8d3d abec 943d 45cb 3a3d 3cba 09bd
00000030: de9f 1a3d 923c 1a3d a898 0cbd 9e63 c43b
00000040: 0cba 973d aeb7 773c 65ef 7e3d d5d5 e6bc
00000050: dadd 42bd 0f40 2c3d 0c42 363d d1f5 143d
00000060: 5d18 ad3d 4de9 93ba b3aa 843d 7b8a 603d
00000070: 2bd2 0fb8 f5a9 243c 78fc 533d fadf 73bc
00000080: 9855 803c 5f36 2f3d 712e 65bd cea7 5a3d
00000090: 6962 d8bc bec1 663d 2321 c3bc 9516 5abd
000000a0: 54cf 943c 4b32 6f3c 0996 ab3c c372 9c3d
000000b0: e31b 163c 2c8f 89bd 515f 69bc 61b2 26bd
000000c0: 59e9 33bd 8fde 4c3d 5621 383d ceb4 7dbd
000000d0: b5d6 8f3d 1075 443c 4dd3 98bb ea94 58bd
000000e0: 25b2 493d 9c45 3ebd f896 35bc 6d2a 893c
000000f0: 3b4c 8e3d 599e e83c 8750 b23d 3607 733b
00000100: b4a3 953d e87b 8d3d b03c 843d 3321 6d3d
00000110: b80f ab3d 3921 a73d b2ed 3dbd b229 0b3c
00000120: 580e 1a3d 4a3a 943d 484a 553d 15fb e13c
00000130: 3920 59bd 911e 37bd c9a0 17bd 66f7 503c
00000140: 8aa5 033d 2391 1cbd 8531 03bd 639b 3f3d
00000150: 8b94 00bd 6c42 963c b201 07bd b9ec 553d
00000160: 8001 b63b 1c87 8cbc 61d7 2abd 8c53 383d
00000170: df77 51bc 8ee0 293d 97a5 d03c 488e 653b
00000180: 3185 123d 29da 55bd a87e 503d 7f1a 88bd
00000190: 9219 7fbd e75e 31bd f234 62bd 6b00 323c
000001a0: ce42 f3bc d09b 8c3d 2d1d 4abb d175 383d
000001b0: c43c 5a3d bd6c 95bc 1a2b e9bc 6adf 89bc
000001c0: 0fc0 2c3d 0de2 463d b900 163d f3c1 253d
000001d0: c877 613d 84ea 5e3d 12a3 b23b b482 5b3d
000001e0: 53b7 4abc 4f60 3e3d 2788 ad3d 012e 553d
000001f0: ddaf 39bd 482e 17bc b7c7 343d 69ba fe3c
0.051524013 -0.03621879 0.062965274 -0.040958997 -0.08468622 0.021981625 0.061119616 0.0057548783
0.06924688 0.07271703 0.04560401 -0.033624873 0.037750117 0.03765542 -0.03432527 0.0059933206
0.074085325 0.015119476 0.062240023 -0.028178135 -0.047574855 0.04205328 0.04449658 0.03636724
0.084519126 -0.0011284739 0.06477871 0.054819565 -3.428959e-05 0.010050287 0.051754445 -0.014884943
0.015665814 0.04277646 -0.055952493 0.053382687 -0.026414113 0.05633711 -0.023819512 -0.053244192
0.018165268 0.014599393 0.020945566 0.076390766 0.009161922 -0.06716761 -0.014243917 -0.04069746
-0.04392371 0.050016936 0.044953667 -0.061940007 0.07023374 0.0119908005 -0.004663861 -0.05287639
0.049242157 -0.046453103 -0.011083357 0.016743863 0.069481336 0.028395819 0.087067656 0.0037083155
0.073066145 0.06908399 0.06456888 0.05789299 0.083526075 0.081606336 -0.046369262 0.008493828
0.037611336 0.0723768 0.052072793 0.027585546 -0.053009246 -0.044706885 -0.03701857 0.012754297
0.032140292 -0.03822435 -0.032029647 0.046779048 -0.03139166 0.01834222 -0.0329606 0.05222771
0.005554378 -0.017154269 -0.041709308 0.04500155 -0.012784927 0.041473918 0.025469584 0.0035027433
0.035771552 -0.052210007 0.05090204 -0.06645679 -0.062280245 -0.043303397 -0.055226274 0.010864357
-0.02969494 0.068656564 -0.0030840144 0.045034233 0.053280607 -0.018240327 -0.028462935 -0.016830165
0.04217535 0.048555423 0.036621783 0.040468168 0.055045873 0.05442287 0.0054515684 0.053591445
-0.012372809 0.046478566 0.084732346 0.052045826 -0.045333732 -0.009227343 0.044135775 0.031094747

norms.2.weight f4 [128]
00000000: 0575 8e3f 711f 8d3f 0333 8c3f d6b6 8f3f
00000010: d524 8e3f 687f 883f 1988 8f3f 6a8f 8a3f
00000020: 4c5d 863f f353 9c3f cf25 843f 858c 9a3f
00000030: 9bbf 9a3f cccb 923f 043d 893f 6250 903f
00000040: 2f37 8e3f 6e5c 8d3f 2389 8f3f ea90 853f
00000050: 4906 8b3f 64ae 7f3f abf9 8e3f 5136 843f
00000060: 1756 8f3f 8f80 893f df87 8d3f 81b5 8e3f
00000070: 7a40 873f a168 893f 71a6 8a3f f2dc 7d3f
00000080: 7dba 883f 59b0 8f3f 60d1 853f fe67 893f
00000090: 1126 823f 6ba7 8d3f 595d 913f ca4f 893f
000000a0: 2ac5 8d3f 05cd 8b3f 5a38 973f 8b31 8d3f
000000b0: f259 8b3f 1809 843f 59d3 8d3f ad60 8e3f
000000c0: a8db 893f 50b5 9c3f f8c6 883f 7420 8d3f
000000d0: 7bfa 8c3f 88b9 8b3f 67c1 983f 8476 773f
000000e0: 560a 8d3f dca3 873f 3ee8 913f fea7 893f
000000f0: b66b 893f 1210 953f c4e3 883f c340 8e3f
00000100: ad71 983f ce48 863f bb66 8c3f 9271 8a3f
00000110: 23e0 8d3f 1326 9a3f f75c 9a3f f930 8b3f
00000120: c4e2 8c3f 0b9c 8c3f e6b2 843f dd8a 973f
00000130: 6ec1 8f3f ace4 933f 8e09 8f3f 4df5 8b3f
00000140: e500 893f 324c 9a3f 72ca 8d3f fb4f 923f
00000150: 9bbb 8a3f 8f65 923f a81c 8c3f 8ebc 7e3f
00000160: 8493 893f dcc3 8a3f 325a 8b3f 69f5 893f
00000170: c36c 993f 6046 8a3f 0053 8d3f 7b95 8f3f
00000180: b094 8f3f 0995 883f 6666 853f ae52 993f
00000190: 342c 8e3f d273 8d3f 151a 923f 76f9 803f
000001a0: 9e18 963f 8c85 8c3f 6d04 843f 13e3 913f
000001b0: 1856 8c3f f9a2 883f 2a81 963f 0917 853f
000001c0: d6d7 8a3f d5f1 983f d017 8d3f 6c40 893f
000001d0: d019 923f 8e0b 9b3f bf17 8f3f cf64 943f
000001e0: fe78 963f 9713 883f 7147 883f bd66 893f
000001f0: ddf4 973f 77ec 8c3f e4e3 8d3f d36a 8a3f
1.1129462 1.102522 1.0953068 1.1227672 1.110499 1.0663881 1.1213409 1.0825016
1.0497222 1.2213119 1.0324038 1.2074133 1.2089723 1.1468444 1.0721745 1.1274531
1.1110591 1.1043832 1.1213726 1.0434849 1.0861293 0.99875474 1.1169943 1.0329076
1.1198148 1.0742358 1.105709 1.1149141 1.0566552 1.0735055 1.0832044 0.9916526
1.0681912 1.1225692 1.0454521 1.0734861 1.0167867 1.1066717 1.1356612 1.0727475
1.1075795 1.0921942 1.1814072 1.1030744 1.0886824 1.0315275 1.1080123 1.1123253
1.0770159 1.2242832 1.068572 1.1025529 1.101394 1.0915995 1.1934022 0.96665215
1.1018779 1.0596881 1.1399 1.0754392 1.0735996 1.1645529 1.0694509 1.1113514
1.1909691 1.0490968 1.0968851 1.0815909 1.1084026 1.2042869 1.2059621 1.087432
1.1006703 1.098512 1.0367095 1.1839253 1.1230905 1.155416 1.1174791 1.0934235
1.0703398 1.2054503 1.1077406 1.1430658 1.0838503 1.1437243 1.0946245 0.9950646
1.0748143 1.0841022 1.08869 1.0778018 1.1986316 1.0802727 1.1040955 1.1217493
1.1217251 1.0670482 1.0421875 1.1978357 1.110724 1.105097 1.141421 1.007613
1.1726263 1.0978255 1.0313851 1.1397423 1.0963774 1.0674735 1.1758168 1.0397655
1.0847118 1.1948801 1.1022892 1.0722785 1.1414127 1.2112901 1.1179122 1.1593264
1.1755674 1.0630978 1.0646802 1.0734478 1.1871601 1.1009663 1.1085172 1.081385

norms.2.bias f4 [128]
00000000: 0d67 8e3d 46fe 843d 29d5 543d fb15 ab3d
00000010: feef 913d 04d2 413d c497 483d 0f61 813d
00000020: f1ee 033c 8fea ca3d db62 8f3d 8ee5 d63d
00000030: 87aa ec3d 59c8 b13d dfea 5b3d 6826 9b3d
00000040: 66be 833d 0568 873d 9a0a 8f3d 0c16 0d3d
00000050: faaf 513d 18d7 fabc 699d 553d ae27 33bc
00000060: 7d96 8c3d 4f5d 483d e2b9 893d d318 a33d
00000070: 3e21 383d dc23 643d a9cb 603d 4ac0 d9bc
00000080: 47bf 673d 97d5 8f3d 6af6 043d 0d21 393d
00000090: 9141 6ebc 6899 843d bc5c 933d 36d1 913d
000000a0: 653d 8d3d 1b89 023d 07dd 8f3d 6242 ae3d
000000b0: 3c8a 663d 26e4 2ebc be22 693d f329 913d
000000c0: d86b 493d abd4 f53d 38b5 553d 338c 8b3d
000000d0: 916a 8d3d b1f9 3d3d addc a33d 66a4 20bd
000000e0: 37d8 913d 48e7 a43b fd81 c13d 8e1c 5b3d
000000f0: f440 5b3d 645a 913d e6d6 373d bc74 643d
00000100: 3657 b33d 118f d63b ac0e 8f3d e20f 733d
00000110: 0076 953d 448d c63d 10db b43d 59c6 793d
00000120: b779 9c3d 429a 763d 1ae3 e93d 0ab6 aa3d
00000130: 032e a63d f86c c33d d98c 5d3d 4849 843d
00000140: 9e45 9b3c f80f df3d de28 883d 6fe2 bf3d
00000150: 4976 613d 4738 ce3d 00e0 833d d803 87bc
00000160: d0aa aa3c 3cbf 023d 936f 353d 6648 963c
00000170: c9b6 ad3d 26f3 db3c 58c6 603d ee88 9b3d
00000180: f8a1 763d 9c1b 373d 5b48 04bc 59c0 bb3d
00000190: d3c7 843d 3557 983d ed38 e33d b578 98bc
000001a0: 8b75 913d c8f0 893d 7b92 cb3c ae31 a63d
000001b0: 8499 783d 83e6 3b3d 3f14 a13d e8b1 f93b
000001c0: eea6 1b3d dbee 913d 9530 8b3d 83e7 e13c
000001d0: d4ba c23d 92de be3d 1858 923d 4dff ca3d
000001e0: 861b ac3d 54da 5d3d 4114 1d3c 30b5 533d
000001f0: 025b a33d ad51 883d 3e12 413d c1ac 813d
0.06953249 0.06493811 0.051961098 0.08353802 0.07125853 0.047319427 0.04897286 0.063173406
0.008052574 0.0990802 0.07001277 0.10493003 0.11555963 0.086807914 0.053690787 0.07575685
0.064328 0.06611637 0.06984444 0.034444854 0.051193215 -0.030620143 0.05215207 -0.010934753
0.06864641 0.04891711 0.067249075 0.07963719 0.044953577 0.05569826 0.054881725 -0.026580948
0.0565789 0.07023161 0.03246156 0.045197535 -0.014541999 0.064745724 0.07195422 0.07119982
0.06896476 0.031869035 0.070245795 0.08508755 0.056284174 -0.010674512 0.0569179 0.07088079
0.049175113 0.12003454 0.052174777 0.0681385 0.069050916 0.046380702 0.08001075 -0.039219283
0.07121318 0.0050324537 0.094486214 0.05349403 0.05352874 0.07097319 0.044882677 0.05577539
0.087568685 0.0065478166 0.0698522 0.05934132 0.07297897 0.09694913 0.08830845 0.060980175
0.07640403 0.060205705 0.11420269 0.083355024 0.08114245 0.095422685 0.0540894 0.0645929
0.018954094 0.10891718 0.0664842 0.09369361 0.055044446 0.10069328 0.06439209 -0.016481325
0.020833403 0.031920657 0.04429586 0.01834507 0.08482129 0.02684934 0.054876655 0.07594477
0.06021306 0.044704065 -0.0080738915 0.09167547 0.06483426 0.074385084 0.11094842 -0.018612245
0.07102498 0.067353785 0.02485012 0.081149444 0.06069328 0.04587413 0.0786519 0.007620085
0.038000993 0.07125636 0.06796376 0.027576214 0.09508291 0.09319796 0.07145709 0.09911976
0.08403687 0.054163292 0.009587348 0.051686466 0.07976343 0.066562034 0.047136538 0.06331778

fc.weight f4 [1, 128]
00000000: 65c9 1e3e fe25 c33d 377a 283e b799 003e
00000010: 5c0f 143e fbed f23d 0358 2cbe 1e9b fa3d
00000020: 79ec b33d f9f8 86be 335b 9ebd 49ac 77be
00000030: cca7 5dbe 038d 113e d367 7f3d be7f fa3d
00000040: 4eaa 073e 67ae cd3d 1a07 e03d 9336 b03d
00000050: 7600 1d3e 75c1 76bc 6926 ec3d f4ca 083d
00000060: b9f8 d63d 51ce bd3d 3c99 303e 108e 203e
00000070: d01b ad3d 6a05 e03d 4a1a ca3d e057 2d3d
00000080: ca27 d03d 6c85 183e f84e 663d bd53 1a3e
00000090: 1193 763d f0c7 063e 5efb 193e e34b c3bd
000000a0: 8dda 163e 227a e43d 2a72 6cbe 1fc9 db3d
000000b0: 9790 0c3e 35d1 023d 870f 403e 689c ef3d
000000c0: 3dbc 023e 18c8 8abe 7a45 0a3e ec6e 133e
000000d0: f08b 253e 6fed c33d d737 82be 40ed dd3c
000000e0: d493 303e a486 b73d 7272 073e 05f3 b03d
000000f0: dba2 033e 9584 46be b2d9 fe3d 3e6e 363e
00000100: f067 70be 5a09 a23d a51e 353e 6970 263e
00000110: cc7f 083e 9c1f 82be 9409 84be 5e50 d93d
00000120: 9d73 283e d724 d13d 542b 4fbd 40e1 5abe
00000130: e49d 033e 58cd 223e 0785 063e cb35 dd3d
00000140: 6950 593d 2257 5dbe abed 023e 9fa1 113e
00000150: 4cde e13d c9ac 0b3e 9583 043e 5e80 b0bc
00000160: 750e cb3d 404a 13be 6136 d23d 96e4 df3d
00000170: a971 72be cd4c d83d 87cf 353e e03e d33d
00000180: a528 0f3e 85ac 0b3e cd5e ac3d bbaa 5abe
00000190: bcd4 083e 9a35 233e 3693 0fbe 8fc8 863d
000001a0: 9032 44be 14ae 323e eb65 243d d135 193e
000001b0: 5774 333e f636 bf3d 7c49 74be c2b6 823d
000001c0: d99f cc3d fb9f 86be 7b9a 173e 0338 12be
000001d0: b6c9 0c3e 4af0 7abe 4553 0ebe fb69 2abe
000001e0: e0b9 47be 6c12 c13d 75ff bc3d 1c1b 1c3e
000001f0: 3108 80be 8464 063e 289a 063e 63e7 b73d
0.15506513 0.09528731 0.16452871 0.12558638 0.14458984 0.118617974 -0.16830449 0.122366175
0.08785338 -0.26361826 -0.077322386 -0.24186815 -0.2164604 0.14213948 0.062354874 0.12231396
0.1324856 0.1004303 0.109388545 0.08604159 0.15332207 -0.015060772 0.11530764 0.033396676
0.10496659 0.09267867 0.17245954 0.15679193 0.084525704 0.10938533 0.098682955 0.042320132
0.10163839 0.14894646 0.056227654 0.15071006 0.060198847 0.13162208 0.15037295 -0.095359586
0.14731808 0.111561075 -0.23090425 0.1073172 0.13727032 0.031937797 0.18755923 0.11699754
0.1276712 -0.27105784 0.13503066 0.14397782 0.16166663 0.09566771 -0.25433227 0.027090669
0.17243892 0.089612275 0.13227251 0.08640102 0.12855093 -0.19386514 0.12443866 0.17815492
-0.23477149 0.0791194 0.17687471 0.16253819 0.1333 -0.2541474 -0.25788558 0.10611032
0.16450353 0.10212105 -0.05057843 -0.21374989 0.12853199 0.15898645 0.13136683 0.10801276
0.0530552 -0.2161527 0.12785976 0.1422181 0.11028728 0.13640131 0.1294082 -0.021545585
0.09914867 -0.14383793 0.10264278 0.10932271 -0.2367617 0.105615236 0.17754947 0.10314727
0.13980348 0.1364003 0.08416519 -0.21354191 0.13362402 0.15938416 -0.14021 0.06581222
-0.19159913 0.17449218 0.04013626 0.14961936 0.17524849 0.09336655 -0.23856157 0.063825145
0.09991426 -0.2629393 0.14805023 -0.1427918 0.13748822 -0.24505726 -0.13898952 -0.16641991
-0.195045 0.09427342 0.09228412 0.15244716 -0.2500625 0.13124281 0.13144743 0.089796804
