checkpoints/gin_best.pth (torch, 272841 bytes, 13 tensors)

c1.nn.0.weight f4 [128, 128]
000000 0d db 74 3d 5c 4a e5 bc f7 e8 8d 3c 14 01 bb 3d
       0.059779216 -0.027989559 0.017323 0.09131065
000010 8c 96 a2 bd 5f 67 8e bd f4 20 bb be a3 d4 14 3c
       -0.07938871 -0.0695331 -0.3654858 0.0090839
000020 fa 43 77 bc 20 e6 10 3d a2 a1 99 bc e4 51 4e 3d
       -0.0150918905 0.035375714 -0.01875383 0.050371066
000030 0f b1 75 3d 55 1d 5d 3d 82 22 3d bd e8 f9 92 3d
       0.05998331 0.05398305 -0.046175487 0.07176572
000040 0a 53 83 3c 5c 89 0a 3d a1 bf 43 3d 2c 70 40 3c
       0.016030807 0.033822402 0.047790173 0.011745494
000050 69 99 f6 3c 7e f5 58 3d ac ea a8 bb f6 5e 74 bd
       0.030102449 0.052968495 -0.005154928 -0.059660874
000060 59 1a 82 3d 36 b6 0b 3d 7d f1 28 bd ed ed bc 3b
       0.06352682 0.034109317 -0.041245926 0.0057656677
000070 46 e2 92 3d ca 8f a8 bc 89 9e 0f 3d 72 95 eb 3c
       0.071720645 -0.020576376 0.0350633 0.028757785
000080 44 66 0d 3d c9 50 98 3c 91 8d 99 bd e3 22 40 3d
       0.034521356 0.018593209 -0.07497705 0.04690827
000090 d9 77 0e bd f6 a9 3b 3d 64 c0 83 bd 5b f3 c6 bc
       -0.034782264 0.045816384 -0.0643318 -0.024285963
0000a0 17 e6 67 bd 63 fe 9c bd 13 23 7b 3c 2f 0d 47 bd
       -0.056615915 -0.07665708 0.015328187 -0.048596557
0000b0 88 d1 aa bd 9c 08 94 3d 86 a5 9e bd 29 6e 8f 3d
       -0.08340746 0.072282046 -0.07746415 0.07003433
0000c0 81 87 0e bd e4 01 54 3d 6c a3 7e bc 14 b7 17 3c
       -0.034797195 0.051759616 -0.0155418925 0.009259958
0000d0 35 67 50 3c 6b 4e 71 3d dc cb 3d bd ce 6f 1b bd
       0.012719919 0.058912676 -0.046336994 -0.037948422
0000e0 2a ef b0 bd eb 56 76 3d e0 c9 10 bc 51 85 8e 3c
       -0.08639367 0.060141485 -0.008837193 0.017397555
0000f0 a6 c3 00 3d 1c 9f 1e bc 37 f5 41 3d 4a 6c fe 3c
       0.031436585 -0.009681489 0.047352996 0.031057496
000100 bb c8 4a 3d 69 dd 99 bd 53 08 73 bd f8 62 60 3c
       0.049507838 -0.07512934 -0.05933411 0.013695471
000110 93 77 a3 bd 21 1f 94 3b 44 0c 30 bd 8a 27 81 bd
       -0.07981791 0.0045203124 -0.042980447 -0.063063696
000120 0b 0a 4c 3d 2b 8e 98 bc 94 d5 55 3d a6 15 32 bb
       0.049814265 -0.018622478 0.052205637 -0.0027173548
000130 52 f3 98 3d 16 cc 53 bd ea 78 ac bd a3 5a 08 3d
       0.07468285 -0.051708303 -0.084215 0.033289563
000140 ae 5b 1e bd 60 88 32 bc 22 8d ec bc 89 70 a2 bd
       -0.03866165 -0.010896772 -0.028875891 -0.07931621
000150 2a fe 54 3d 76 97 a4 3d 15 85 13 3d 4b 22 8b 3b
       0.052000202 0.080367014 0.03601559 0.0042460314
000160 d7 1f 8c 3d 60 aa bc 3c f8 b3 74 bd 90 9b 87 bc
       0.068420105 0.02303046 -0.059741944 -0.01655367
000170 1d c4 e3 bc 12 e4 8a 3c c8 97 07 3c b4 49 ea bc
       -0.027803475 0.016954456 0.008275934 -0.028599598
000180 5c a2 0b bd 96 1d 22 3d 98 34 5a 3c f3 5c 8d 3d
       -0.034090385 0.039578997 0.013318203 0.06902494
000190 7d f7 65 bd ba 10 db bb 43 d8 a9 3b 97 39 77 3a
       -0.056144226 -0.0066853436 0.005183251 0.0009430884
0001a0 66 94 25 3c 98 55 39 3d 78 26 35 3d 8f 8d a3 3c
       0.010106182 0.045247644 0.04422614 0.019964961
0001b0 d8 d0 7e bd 42 34 22 bd 1d 3e d7 3c 78 eb 7c bc
       -0.062210888 -0.03960062 0.026274735 -0.0154369995
0001c0 0e 91 b4 3d 97 81 fe 3c 3e 8a 2a 3d 03 ab ac 3a
       0.088167295 0.031067653 0.041635744 0.0013173524
0001d0 7d 84 9d bc de fc 44 3c a8 63 46 bd df 83 3a 3c
       -0.019228214 0.012023179 -0.048434883 0.01138398
0001e0 86 fc df bb 81 99 f5 3c a2 0c 69 bd e4 0a b1 bc
       -0.006835523 0.029980423 -0.056896813 -0.021611638
0001f0 f8 2d 23 3d 1f 2e d6 3a 3b 99 85 3d 3d 96 3b bd
       0.03983876 0.001634065 0.06523367 -0.045797575
000200 bc 94 24 3d 56 ed 2e 3d b0 2a 02 3c 20 02 40 bc
       0.040180907 0.04270681 0.007944748 -0.011719257
000210 8c 61 6d 39 d1 af f2 3c 1b 43 b8 3d 6a bf 57 3d
       0.0002263842 0.029624851 0.08997174 0.05267278
000220 92 2c 97 bd b7 d7 da 3c 51 0a 98 bd 75 b4 95 bc
       -0.07381548 0.026714189 -0.07423843 -0.018274525
000230 b1 7c 07 3d 36 3f e5 bb be 63 6a bd 29 56 86 3c
       0.0330779 -0.0069960607 -0.057224028 0.016398506
000240 c4 96 95 3d 4d ab cd 3c cb 4b a2 3d 42 a8 1c 3d
       0.07304147 0.025106097 0.079246126 0.0382464
000250 79 30 81 bd 0a c0 23 3d ad 11 33 bd 31 17 37 bc
       -0.063080736 0.039978065 -0.04371803 -0.011174963
000260 ef 6a 49 bd a5 fd 83 bd e7 33 7d bc 6a 59 5d bd
       -0.049174245 -0.06444863 -0.015454269 -0.05404035
000270 47 45 78 3d 69 47 8c 3c f1 23 fa bc b9 5f 8b 3d
       0.060612943 0.017123895 -0.030534716 0.06805367
000280 d2 24 7d bd 26 70 0e bd cc 1f 26 3d f7 66 0c 3d
       -0.061802693 -0.03477492 0.040557668 0.034277882
000290 06 f5 22 3d 80 81 4c 3d 2f 32 02 3a 43 33 af bd
       0.039784454 0.04992819 0.00049665844 -0.08554699
0002a0 d0 46 84 bb d3 dc 6e 3c a0 f8 a2 3d a4 35 a8 bd
       -0.004036762 0.014579016 0.07957578 -0.08213356
0002b0 e4 e5 87 bd 39 2b 3b 3d aa 71 80 3d f7 36 16 bd
       -0.06635645 0.045695517 0.0627168 -0.036673512
0002c0 49 92 6b 3d f2 63 a4 3c d2 8a 2b bc c9 04 11 bd
       0.057512555 0.020067189 -0.010470109 -0.035404954
0002d0 00 f3 4c bd 3d 0e 51 3d a3 73 96 3d b8 43 96 bd
       -0.05003643 0.05103897 0.07346275 -0.07337135
0002e0 1c 20 3d 3d 35 f3 27 3d 70 08 57 bd 81 4d 4c 3b
       0.0461732 0.041003425 -0.05249828 0.0031174126
0002f0 89 ac 74 3d 31 7f 5d 3d a6 35 ec ba 7d b1 d6 bc
       0.059734855 0.054076377 -0.001802136 -0.02620768
000300 5c 2f de 3c d1 7e 39 3b 36 86 c3 3c 55 a7 61 3d
       0.027122192 0.0028304348 0.023867708 0.05509122
000310 da 74 61 bd 8e 89 8a 3d 62 1c 86 bd c8 f6 7c 3c
       -0.05504308 0.06764518 -0.06548382 0.015439697
000320 43 4d 57 bd 24 fe 17 3d 08 47 a5 3d 5a 7e 1e 3d
       -0.052563917 0.0371076 0.08070189 0.038694717
000330 f8 d6 9e bd 22 3e 42 bd 09 28 49 bd d0 88 35 bd
       -0.07755846 -0.047422536 -0.049110446 -0.044319928
000340 22 67 96 3d dc fe 1b bd f4 32 94 3c d1 c1 63 bd
       0.0734389 -0.03808485 0.018090703 -0.05560476
000350 10 90 15 3d 0a 19 aa bd 82 63 92 3d a4 c8 4a 3c
       0.03651434 -0.08305557 0.07147886 0.012376938
000360 cf 9f 26 bd 36 5f 47 3d f8 7c 42 bd 33 6f 96 bc
       -0.04067975 0.048674785 -0.04748246 -0.01836357
000370 d6 b9 a5 bd 9c 26 66 bc b6 2a 05 bd 69 e8 ad bd
       -0.08092086 -0.014047291 -0.032511435 -0.08491594
000380 84 86 af 3a a4 5c 7d bd 4b 2a f4 3c 5c 9f 7d 3d
       0.0013391529 -0.061855927 0.029805323 0.061919555
000390 e7 c8 25 bb 47 92 8d bd 0a c4 88 bb e4 56 38 3c
       -0.002529675 -0.06912666 -0.0041737603 0.011251185
0003a0 a4 df 14 3c de 1a 66 bd b9 58 e7 3c 25 7c 00 3d
       0.009086523 -0.056177966 0.028240548 0.031368393
0003b0 0a 61 a2 ba 53 f7 15 3d 88 20 0e bd e7 77 73 bd
       -0.0012388539 0.03661282 -0.034698993 -0.05944052
0003c0 23 2e 0b 3c 83 75 42 bc 2c 60 14 bd 0c 01 88 bd
       0.008494887 -0.011868837 -0.03622453 -0.06640825
0003d0 9b b1 76 bd cf 9d 1d bb d1 0f f1 bc f5 7b c3 3c
       -0.06022797 -0.002405036 -0.029426487 0.023862818
0003e0 8f 28 76 3d b9 04 1d 3b 93 d0 8f bb cf 0a 34 3c
       0.060097273 0.0023959114 -0.0043888777 0.010988905
0003f0 16 89 21 bd 99 61 8a bd 8d ba ab bd 5d fa d6 3c
       -0.039437376 -0.067568965 -0.08385191 0.02624243

c1.nn.0.bias f4 [128]
000000 b5 05 27 3c b6 02 01 bd d9 f2 1d 3d 48 11 ef 3b
       0.010194232 -0.031496726 0.038561676 0.0072957613
000010 3c 2c 6f bb 7d 60 29 be d7 c1 fd 3d 94 54 bf 3c
       -0.0036494872 -0.16540714 0.12390488 0.02335576
000020 ed 40 fb bd ab 03 8f bb 72 41 a7 b9 96 4e b6 bd
       -0.12268243 -0.004364451 -0.00031901483 -0.08901708
000030 a5 43 c8 3d 1f f0 be bd 25 74 93 bd e8 68 89 bd
       0.09778527 -0.09323143 -0.07199887 -0.067094624
000040 f1 50 cb 3d a8 7a 92 bd c6 2d 90 3d 5c 1e cf 3c
       0.09927548 -0.07152301 0.070399806 0.025283031
000050 88 15 bf bd 06 09 36 be 97 e2 42 bd b4 7d 0e 3e
       -0.09330279 -0.1777688 -0.047579374 0.1391514
000060 da 21 11 be 5b 3c 98 3c 78 37 29 bd c7 02 dc bd
       -0.1417307 0.018583467 -0.041312665 -0.10742717
000070 ac 8d 0e 3d c9 94 cd bd 93 f2 f2 3d 8b 5b df 3d
       0.034803078 -0.10038144 0.118626736 0.10906132
000080 f6 be 0e be 1d 9b 65 3d b4 20 9e 3d 79 f3 8d 3c
       -0.13940033 0.05605613 0.077210814 0.01732801
000090 bf 28 19 bd 21 01 59 bd 74 92 d8 bd cb 7b ae 3d
       -0.037392374 -0.052979592 -0.10574809 0.085197054
0000a0 d1 3b 93 3d c8 bb 92 bd 3d 97 b1 bd b5 0f 7c be
       0.071891434 -0.07164723 -0.086714245 -0.24615367
0000b0 67 0a 48 3d 04 0e 7f 3c cf cf 05 be ed 78 34 be
       0.048838045 0.015567306 -0.13067554 -0.17624255
0000c0 18 43 ab ba 3b 53 1f be ce f2 9f 3b 04 f2 8e bc
       -0.001306626 -0.15559094 0.0048812395 -0.017449386
0000d0 7b 32 98 bc be e2 47 be b7 46 c9 bd 16 d6 26 bd
       -0.018578758 -0.19520089 -0.09827941 -0.040731512
0000e0 f8 6d 11 be 24 35 69 3d e2 1f 5a 3d 6c bd 7e be
       -0.14202106 0.056935444 0.053253062 -0.24876946
0000f0 d1 46 a2 3c 0a 82 60 bd ed a7 39 bd b6 bc a0 bd
       0.019809159 -0.054811515 -0.045326162 -0.07848494
000100 4a 8d d5 bd c9 ca ba 3c 29 ce a5 3d e9 bb 05 be
       -0.104273394 0.022801774 0.080959626 -0.13059963
000110 79 26 7a be 70 5f f1 bd 4b 8d 88 bc b8 b3 61 bd
       -0.24428739 -0.117857814 -0.016668936 -0.055103034
000120 a6 a3 e6 3c 0e f2 84 bd 52 c5 1a be f7 bb 6a 3d
       0.028154206 -0.06491481 -0.15114334 0.057308163
000130 9b ca 16 be d2 ed 7a bd 37 30 17 3e ea a3 7f bd
       -0.14725725 -0.06126196 0.14764486 -0.06241218
000140 77 6d df bd 77 99 56 bd c4 30 12 3d 5d 8e 91 3d
       -0.10909551 -0.05239245 0.035691038 0.07107232
000150 10 f9 a6 3c 0f 89 a1 bd 30 2f 05 3e e3 b9 4e 3d
       0.020382434 -0.0788747 0.13006282 0.050470244
000160 a3 ba 55 3d ad 0b 48 3d 3c d0 ac bc de b4 68 bd
       0.052179944 0.04883926 -0.021095388 -0.056813113
000170 1d 7d 11 3e ea b1 84 bd f2 06 dc 3d 21 b4 d4 bd
       0.14207883 -0.06479247 0.10743512 -0.10385919
000180 32 54 48 be 54 f7 93 3e 62 a4 08 3d 77 8d f2 bd
       -0.19563368 0.28899634 0.033359893 -0.118433885
000190 29 7b 14 be b0 99 3c be 09 50 1b 3e ff 64 a1 3d
       -0.14500107 -0.18418002 0.1516725 0.078805916
0001a0 21 57 bb 3c 88 97 d4 3c 27 89 4d be 7b c7 e6 3c
       0.022868695 0.025951162 -0.2007185 0.028171292
0001b0 20 72 ff 3d de ff 19 bd 33 6a b9 3d 40 b2 84 3c
       0.124729395 -0.03759753 0.09053459 0.016198277
0001c0 31 51 01 be 90 42 36 be 39 7b bd bc ac 1e 2f be
       -0.12628628 -0.17798829 -0.023130046 -0.17101544
0001d0 3a f5 8e bd c2 22 81 bd d2 e6 90 bd 20 a1 5d 3d
       -0.06980367 -0.06305458 -0.070752755 0.05410874
0001e0 05 57 c1 bd 86 64 de 3d 31 94 88 3c 75 65 1b bd
       -0.09440426 0.10859017 0.016672226 -0.037938554
0001f0 0f 61 3f 3d e1 31 2f be 42 25 4a bd 3f e2 b8 3d
       0.04672342 -0.17108871 -0.049351938 0.09027528

c1.nn.2.weight f4 [128, 128]
000000 6d 95 ce bd 3a a6 a5 3c 75 b9 a1 3b a4 ce 9a 3d
       -0.100870945 0.020220865 0.0049354383 0.07558945
000010 fd 83 ea bc b4 1d a9 3d 80 58 a0 3d c2 ae 0a 3d
       -0.02862739 0.082576185 0.0782938 0.03385807
000020 37 03 68 bd f8 38 34 bc 62 29 0e 3d c3 03 ef bc
       -0.05664369 -0.0109999105 0.034707434 -0.029176598
000030 3d 8d 20 bc 3f 47 42 bd 6d 34 07 3e f8 c2 4c bd
       -0.009799299 -0.047431227 0.13203593 -0.049990624
000040 ac c7 59 3d 45 c0 48 bd f8 cb bc bd 0a 52 11 be
       0.053168938 -0.049011488 -0.092185915 -0.14191452
000050 2a f4 38 be cb 20 80 bc b8 63 99 bd ce 87 69 3d
       -0.18061891 -0.015640637 -0.07489723 0.05701428
000060 1a be 82 3b e0 7d 04 bd 6f 5c 39 3d da a1 8a bd
       0.003989947 -0.032346606 0.045254167 -0.06769152
000070 b5 93 18 bd d6 0d af bd 30 d9 76 bd 71 1f 8f bd
       -0.03725024 -0.08547561 -0.06026572 -0.06988419
000080 fa 59 92 3d 1b 98 2d bd 35 82 ac bc fc 8f a4 bd
       0.07146068 -0.042381387 -0.021058181 -0.08035275
000090 80 38 99 3c ef 7f 53 bb 79 9a 6b bc 07 1c 1c bd
       0.0187037 -0.00322723 -0.014380091 -0.038112666
0000a0 57 a9 50 3d 0e fb 84 bd ab ac d5 3d d3 90 81 bd
       0.050942745 -0.064931974 0.104333244 -0.06326451
0000b0 60 ab 30 bd ca fd 5c bd 4d 8e 85 3c 0b ac b0 bd
       -0.043132186 -0.05395297 0.016303206 -0.086265646
0000c0 14 b2 e8 bc a1 19 37 bd 14 35 b1 bd 77 6d 6b bd
       -0.028405227 -0.044702176 -0.08652702 -0.05747744
0000d0 e8 78 79 3d d6 02 0a be ff 71 80 3d 48 b5 b4 3d
       0.06090632 -0.13477644 0.06271743 0.08823639
0000e0 06 fa c8 bd 86 a8 a4 3a 61 51 0f 3e e7 83 3a be
       -0.09813313 0.0012562431 0.13995887 -0.18214379
0000f0 8b 5c b7 bd d0 07 15 3d 93 38 6d 3d ed 2a 54 3c
       -0.08953198 0.036384404 0.05791528 0.012949687
000100 c7 34 2b 3d 63 1a c2 bc 5f fa f6 bd cd de d0 3c
       0.04179838 -0.023694223 -0.12059473 0.025496865
000110 fb b0 d2 3d 7d 9d 12 3e 7e da 06 3e 99 07 ea 3d
       0.102876626 0.1431789 0.13169286 0.114272304
000120 d8 b7 6e 3b 56 b6 89 bd 70 37 c2 bb 86 17 13 bd
       0.0036425497 -0.06724231 -0.005927019 -0.035911106
000130 33 26 dc 3d ea 63 27 3c 57 9d 08 3b 85 bf e0 3d
       0.107494734 0.010216692 0.0020845735 0.109740295
000140 ab bc 02 be ac b2 a7 bc 04 e1 c8 bd fe f7 ae 3d
       -0.12767284 -0.02047094 -0.09808543 0.085433945
000150 61 83 ad bd c9 de 64 3c fd e2 1a bc 05 5d 08 bd
       -0.08472324 0.013969132 -0.009453532 -0.033291835
000160 f2 fb 22 bd 0a c4 eb bc c3 25 f3 3c 67 52 94 3d
       -0.039791055 -0.028780002 0.029681092 0.072422795
000170 6d 90 ca bc 4e 1d 7e bd e9 b1 c4 bd 02 52 e6 bc
       -0.02472707 -0.062039666 -0.09604246 -0.028115276
000180 17 a3 12 3c 1e df 41 bd 10 08 28 3b a7 43 37 3d
       0.008950016 -0.04733192 0.0025639571 0.044742253
000190 91 d4 8c bd 3b 0f 87 bd 53 ea 3c be 37 24 2d bd
       -0.06876481 -0.06594702 -0.18448763 -0.042270865
0001a0 39 67 0f 3d 70 fd 90 3d 96 9c cc 3d f2 96 88 bd
       0.03501055 0.07079589 0.09990804 -0.066694155
0001b0 af 9a 43 3b e6 14 9c bc 9d 29 fd 3b 05 8a c4 bc
       0.0029846837 -0.019052934 0.007725908 -0.023991594
0001c0 f7 cc bb bc fa 7e 56 3d aa 03 ae 3c 8d 89 e1 ba
       -0.022924883 0.052367188 0.021241982 -0.0017207131
0001d0 ad 2a c9 3c 23 74 b8 3c 0c 5e 5b bd ac a1 4b bd
       0.024556482 0.022516316 -0.053556487 -0.04971473
0001e0 a5 1c dd 3d a9 a0 5d bd 1d 0d 5c bd 5e 0e 96 3d
       0.10796479 -0.054108296 -0.053723443 0.07326959
0001f0 d4 47 3d bd 2c 1c 46 bd 4c 74 81 bc 88 a1 15 3c
       -0.04621108 -0.04836671 -0.015802525 0.00913275
000200 38 dd 87 bd 7f 6e 04 be 4e 41 d6 bd 23 4b 02 bd
       -0.06633991 -0.12932776 -0.10461675 -0.031809937
000210 ec ff 54 bd 1e af e3 bc a9 b7 b8 bc 8d d6 e3 bc
       -0.05200188 -0.027793463 -0.022548513 -0.027812267
000220 70 c5 a9 3d 25 14 56 3d c6 e9 08 3d 85 c6 53 3c
       0.08289611 0.052265305 0.03342607 0.012925749
000230 db 0d 53 3b 5e 5f 1f bc d4 d4 68 3d d4 b9 2f b9
       0.0032204303 -0.009727327 0.056843594 -0.00016758527
000240 95 05 cc 3c 44 d1 5c bd e8 f8 73 3c d8 3b 83 bc
       0.024905005 -0.05391051 0.014890887 -0.016019747
000250 26 8e 46 bd fb 6c ae 3d b6 f5 a0 bd 22 f9 0e bd
       -0.048475407 0.0851688 -0.07859366 -0.03490556
000260 88 94 17 3c 9f 82 be 3c 64 9e aa 3c e6 67 e8 3c
       0.009251721 0.023255644 0.02082748 0.028369855
000270 85 0b d4 bc 2e 0e 8c 3d b4 10 58 3d 0b 8d f8 bd
       -0.0258844 0.06838642 0.052750304 -0.12136277
000280 1c b1 7b bd 7a e3 6f bc f0 f2 1c bd 71 40 72 bc
       -0.0614482 -0.014641637 -0.03831762 -0.014785872
000290 e9 8c bb bc 03 24 2e 3d cd 96 4c 3c 20 54 a8 bc
       -0.02289434 0.042514812 0.012487126 -0.020547926
0002a0 43 6c 14 bc c9 ea 5a 3c 3a 8f 79 3c 30 18 71 bd
       -0.009059015 0.013361641 0.015231902 -0.058860958
0002b0 f3 fe a3 bd 09 56 6e 3d fa c6 b9 bd aa 09 40 bd
       -0.08007612 0.05818752 -0.09071155 -0.046884216
0002c0 de ea c9 bd b8 3c a2 3c 96 30 df bc 85 4a 31 3d
       -0.098592505 0.019804344 -0.027244847 0.043283958
0002d0 04 79 86 3c 72 59 1f be 6e 7f a0 bc 6e 3d ca bc
       0.016415127 -0.15561464 -0.019592013 -0.024687495
0002e0 ef 34 e3 bd 95 a0 1a bd 1f c4 8c 3d a7 31 55 be
       -0.11094081 -0.0377508 0.06873345 -0.20819722
0002f0 66 39 fa bc e3 40 25 3d 68 53 7f 3d 54 4f cd 3b
       -0.030544948 0.040345084 0.0623354 0.00626556
000300 16 a4 d3 bc 3a d5 97 bd 6c c1 79 bd 13 60 b3 3d
       -0.025835078 -0.074137166 -0.060975477 0.08758559
000310 16 d7 a6 3d 38 b5 92 bd c5 6f 73 bd 95 97 e2 bc
       0.08146493 -0.07163471 -0.059432764 -0.02766017
000320 37 35 48 bb 0a 2a 77 3d ba 96 c1 bb 2b 3a 1f bd
       -0.0030549297 0.060342826 -0.0059078606 -0.038873833
000330 5c bf da bb e0 ba d5 bc d2 78 4f bd bd 28 eb 3d
       -0.006675644 -0.026090086 -0.050652333 0.114823796
000340 e4 be c1 3b 7e ff 59 bc 7a a8 f8 bc bc 6c 91 3d
       0.0059126485 -0.013305543 -0.030353773 0.071008176
000350 10 aa 86 3d ae 69 46 3d af a6 95 bd bb 2d 5f 3d
       0.065754056 0.048440628 -0.07307183 0.05448697
000360 9c 1b df bb 13 bd 49 bd 30 6b db 3d 3b 5d 4d 3d
       -0.006808711 -0.04925258 0.10713804 0.05013774
000370 f6 f9 09 3d 90 7d 32 3c 1f 40 58 3d d2 34 25 bd
       0.033685647 0.010894194 0.052795526 -0.040333577
000380 5e a9 11 3d 8a 14 90 bd 16 80 ec 3d 1e 49 86 bc
       0.03556191 -0.070351675 0.11547868 -0.016392287
000390 cd 82 b7 bd c3 eb a1 39 04 c1 2a bd 7e d1 d8 3d
       -0.08960495 0.0003088397 -0.04168798 0.105868325
0003a0 71 15 0d 3d 4e 74 c7 3c 52 70 0a bc a0 91 9c 3d
       0.034444276 0.02434745 -0.008449631 0.07644963
0003b0 b2 2f 3f 3d f6 3d 43 bd 12 be 0c 3d 13 ff df bb
       0.046676345 -0.047666512 0.034360953 -0.006835827
0003c0 9e 9d 12 3d 38 24 4e bd 07 9d 92 bc 26 c5 cf bc
       0.035794847 -0.05032751 -0.017897142 -0.025362562
0003d0 b6 45 36 bc 85 b2 8b 3d bf 7e 6e 3d 87 0a 91 3d
       -0.011125019 0.06821159 0.058226343 0.07082086
0003e0 14 4d 02 39 79 84 90 3d 7e 3a 0b 3c 68 2e 16 3c
       0.0001242648 0.07056517 0.008497832 0.009166338
0003f0 56 76 8a 3d 91 1c 28 bd fb 33 20 3c 25 90 b7 bc
       0.06760852 -0.041042868 0.009778018 -0.0224076

c1.nn.2.bias f4 [128]
000000 3d 53 01 3d a6 55 be bc c1 96 98 3d fb 65 a3 3d
       0.031573523 -0.0232342 0.07450629 0.079784356
000010 f6 71 1e bd ba f0 be bc ad a4 0e ba 30 7a 08 3d
       -0.0386829 -0.023308147 -0.0005441409 0.033319652
000020 bf 2d 82 bd f1 0a 3b bc f1 1e fb bc 5a aa 8c 3b
       -0.063563816 -0.011416183 -0.030654402 0.0042927684
000030 f5 f9 a1 3d f2 b5 c3 bd 0f 81 cc 3c 98 27 a6 bb
       0.07909004 -0.09556188 0.024963884 -0.005070638
000040 df ba f6 bc 23 6e 5a bb 88 64 37 bd 96 f3 f9 3b
       -0.030118404 -0.0033329807 -0.04477361 0.0076279147
000050 64 4e b7 3c 5f dd e7 bc 79 c0 68 3d ec be 14 3c
       0.022376247 -0.0283038 0.05682418 0.009078722
000060 06 87 86 bd 7e 71 22 3d 95 97 27 3d 03 c9 25 bd
       -0.065687224 0.039659016 0.040916044 -0.040474903
000070 83 e4 b0 3d ce 18 32 bd a7 e1 1c 3d 9b e5 bf 39
       0.08637335 -0.043480687 0.038301136 0.00036601428
000080 df e4 8b 3d e3 1f 44 bc 97 ca 01 3d 58 68 a1 3c
       0.06830763 -0.011970493 0.031687345 0.019703075
000090 c6 b7 8b 3d c9 23 04 bd 5c b7 2c 3c a2 af a6 3d
       0.068221614 -0.03226069 0.010541763 0.08138968
0000a0 ec 3f a7 ba 1c 1e 35 bd 39 39 59 bd 28 ab 62 bd
       -0.0012760139 -0.044218168 -0.053033087 -0.05533901
0000b0 fc 9d 50 bc e2 e7 18 3d 8d 49 d4 3c 90 c5 77 bc
       -0.012732979 0.037330516 0.025913978 -0.015122786
0000c0 2e 6d 3f 3c 20 12 91 bd c9 a1 16 bd 4f 86 d6 3b
       0.011683745 -0.07083535 -0.036775384 0.0065467726
0000d0 39 f5 10 bd a0 82 8b bd a3 57 2a 3d 3f 4a 23 3d
       -0.035390113 -0.06812024 0.041587483 0.03986573
0000e0 96 a9 2b bd 30 fd 24 3d c1 8a 21 bc e2 12 e7 bc
       -0.041909777 0.04028052 -0.009859742 -0.028207246
0000f0 6c de db bc 41 5e 4f bd c3 c1 b9 39 df 5d 99 ba
       -0.026839457 -0.050626997 0.00035430313 -0.0011700949
000100 2c 40 84 3d 20 5e 3c bd f8 00 08 bd ef 8e 55 bc
       0.06457552 -0.045988202 -0.03320405 -0.013034566
000110 f0 ff 63 3c d3 f2 53 3d f3 2f 1b bd 22 01 9c 3c
       0.013916001 0.051745247 -0.037887525 0.019043509
000120 be 05 0c bc f9 9c 8a 3d 02 79 46 3c 75 63 9f ba
       -0.008546291 0.067682214 0.012113811 -0.0012160378
000130 5e 0f 89 3d 76 c0 9a 3c ca 8d 47 bc 6d 09 8c 3d
       0.06692384 0.0188906 -0.012179801 0.06837735
000140 d8 fd 26 3d 97 04 02 bc d0 6d 0b 3d 26 40 bf 3d
       0.040769428 -0.007935665 0.034040272 0.09338407
000150 a3 5e 4f 3d 83 5a 26 bd 00 3d 35 3b 40 b8 af 3b
       0.050627362 -0.040613662 0.0027654767 0.0053625405
000160 d6 74 09 3d ec 5e 1a 3c 8e 87 8f bb cf b8 63 3d
       0.03355869 0.009422045 -0.004380173 0.05559617
000170 ff 1d 94 bc bf 6f bb bc 87 37 e4 bc 5c 0c 86 3d
       -0.01808071 -0.022880433 -0.027858509 0.06545326
000180 bd 91 24 bc 3d a5 d9 bc 45 74 64 bd 43 c5 1a 3d
       -0.010044512 -0.02656805 -0.055774946 0.03778578
000190 8e 49 02 bd f3 ea b3 bc 50 4f 04 3d 96 3c 9a bd
       -0.03180843 -0.021962618 0.0323022 -0.07531087
0001a0 b8 59 92 bd da d0 10 bd e0 2a 2c bd ad ce 53 bd
       -0.07146019 -0.035355426 -0.042033076 -0.051710773
0001b0 da 59 a2 bd 9d 37 06 3c dd 4e 5c 3d b6 4c aa 3d
       -0.07927294 0.00819197 0.053786147 0.08315413
0001c0 da 93 8b bd 62 49 8b 3d 36 79 40 3d 53 bd 9c bd
       -0.0681531 0.06801106 0.046990596 -0.07653298
0001d0 fa c8 b2 3c 97 82 7e bd ce d6 90 3c 4b f9 13 bd
       0.021824349 -0.06213626 0.017680552 -0.036126416
0001e0 7a cd 9f bd 6a 61 24 3d e4 25 61 bd 41 fd 7a 3d
       -0.078028634 0.040131964 -0.054967776 0.061276678
0001f0 ed 92 06 3d 64 b0 85 3c a0 7b 00 bd d7 87 05 3d
       0.032854963 0.016319461 -0.031367898 0.03260025

c2.nn.0.weight f4 [128, 128]
000000 02 6b 92 bd b5 c7 12 be fd 43 e0 bd ce 9d 17 3e
       -0.07149316 -0.14333995 -0.10950468 0.14806291
000010 5c e4 1c be 46 42 07 bd b4 67 23 be 6c ac 40 3d
       -0.15321487 -0.033022188 -0.15957528 0.047039434
000020 aa f0 f9 3d 33 9e 3c be 48 9d 40 3b bc 51 d1 bd
       0.12204106 -0.18419723 0.0029390622 -0.10220668
000030 20 a9 28 3e 9c 12 7e 3d 52 fc 2a 3d a8 43 fa bc
       0.16470766 0.062029466 0.041744538 -0.03054984
000040 3f 2e 00 be c4 84 09 be c4 ae c8 bd 31 09 16 3c
       -0.12517641 -0.13429552 -0.09798959 0.009157465
000050 ea b4 0b 3e 81 3e 39 be 85 a9 74 3d cb 57 e7 bd
       0.13643232 -0.1809025 0.05973198 -0.11296042
000060 cc cb 48 be cb b9 cc 3d a9 81 4c 3d 4f c4 24 3e
       -0.19608992 0.09996375 0.04992834 0.16090511
000070 88 f6 4a 3d 7c 1a 93 bd a2 07 1f bd 47 23 14 be
       0.049551517 -0.07182786 -0.03882564 -0.14466582
000080 5e 6c 63 bd 02 51 74 bc 56 7d 11 3d dc 8f 13 3d
       -0.05552327 -0.014911892 0.03551992 0.036025867
000090 06 02 bf bd e2 ab da bd 98 8a 2c be d3 b1 7b 3d
       -0.09326558 -0.10677315 -0.16849744 0.061448883
0000a0 b1 e7 45 bd 73 48 db bd 39 3b 3a 3c 87 c6 4e be
       -0.04831666 -0.10707178 0.011366659 -0.2019292
0000b0 85 45 02 be ff fd 77 3c 03 9a 22 be 62 4e c2 bd
       -0.12721832 0.015136241 -0.15879063 -0.094876066
0000c0 7b 00 a4 3b a0 a2 75 3b 2e 18 57 be b3 cf ce bd
       0.00500494 0.0037480965 -0.21005318 -0.10098209
0000d0 1d f1 5d 3c 3f ab a6 bd ea 78 49 3c 12 06 8a 3a
       0.013546255 -0.08138131 0.012296895 0.0010530374
0000e0 7e 64 39 be de fb 31 bd 1a ff d3 bd da 01 25 be
       -0.18104741 -0.04345309 -0.10351391 -0.16113988
0000f0 e9 c8 02 bd 4f a7 f8 3d 30 5d e6 3d e8 84 82 bd
       -0.031929884 0.121412866 0.11248243 -0.06373006
000100 4e 8f 87 3c 0e c6 e5 3d ee 5b 3f be 44 5d cf bd
       0.016547825 0.112194166 -0.18687412 -0.10125211
000110 b4 1c f0 3d 94 8d 88 bd df 29 f9 bc cc 59 98 3c
       0.11724225 -0.06667629 -0.030415474 0.018597506
000120 a7 54 b8 bd 72 8f e0 3d db 88 47 3c 45 23 f1 3c
       -0.09000521 0.1096486 0.012178625 0.029435763
000130 6c 5f 7d bd 3e d2 d8 bc 52 1e 86 be 1b 3e 20 3e
       -0.06185858 -0.026467439 -0.26195008 0.15648691
000140 71 69 09 bd e5 4b 07 bd 2e 53 eb bc 9e 8e 94 3d
       -0.033547822 -0.033031363 -0.028726187 0.072537646
000150 c8 54 0b 3b 13 0a fb bc eb 03 f1 bd 4b 5a 4e 3c
       0.002126025 -0.030644452 -0.117683254 0.01259477
000160 5e 5e 7a bd 15 6c d6 bd dc d1 bc bd 3e 0e c8 3d
       -0.06112515 -0.10469834 -0.09219715 0.097683415
000170 2a 39 b5 3a 37 c0 95 bc da 4c 46 bd 55 30 c3 3d
       0.001382624 -0.018280132 -0.048413135 0.09530703
000180 d2 0d 9c bb e3 ec 91 3c 7f 1a 04 be 71 c5 ce b9
       -0.0047623897 0.017813152 -0.12900732 -0.00039438487
000190 d5 36 70 bd 35 5d 24 bd 56 2b 17 bd b7 7f fc bc
       -0.058646042 -0.04012795 -0.036906563 -0.030822618
0001a0 14 40 81 3d 4a 15 83 bd b1 5e 38 bd 8e 39 b5 3c
       0.0631105 -0.06400545 -0.04501218 0.02212217
0001b0 61 c5 c0 3b e1 20 8c bd c4 3e c2 bb 47 5e fd 3d
       0.0058829044 -0.06842209 -0.0059278924 0.123714976
0001c0 8b a6 4a 3e b3 dc e7 3c 1f 46 ef 3c 98 fb b4 3d
       0.19790094 0.02830348 0.029208241 0.0883705
0001d0 f7 b6 d2 bb c6 66 d8 3d 3d 4c 93 3d a4 93 65 be
       -0.0064305025 0.105664775 0.07192276 -0.22419602
0001e0 26 b8 64 3d 29 b6 fb bd bc 29 10 bc 16 ce cf bd
       0.05583968 -0.12290604 -0.008799013 -0.1014673
0001f0 bf 6e 98 3c 10 79 68 bd ce d3 b9 bd ec eb 4d 3e
       0.018607495 -0.05675608 -0.09073602 0.20109528
000200 1b 49 c8 3c 3a 17 0c 3e 0b fa b3 bc e6 67 89 3c
       0.024448922 0.13680735 -0.021969816 0.016773175
000210 c4 de aa bc 00 19 7b bc f3 a0 61 3d e2 8c a3 3d
       -0.020858176 -0.015325785 0.055085134 0.07985856
000220 e5 8c 95 3c a2 c0 de 3d 98 6c 37 bb 17 ca 1d be
       0.01825566 0.108765855 -0.002798831 -0.15409122
000230 12 3a db 3c 5a b8 82 3d 15 89 87 3d 78 ef 1d 3c
       0.026761089 0.063828185 0.06617943 0.009639613
000240 c6 53 75 bc 25 47 56 3d 9b ad 97 bd 15 f5 aa bd
       -0.014973586 0.052313942 -0.074061595 -0.08347527
000250 ed ba cb 3c 01 1d 6d bd be e8 28 bd f9 63 95 bd
       0.024869407 -0.05788899 -0.041237585 -0.07294459
000260 59 2d d8 bd 42 36 0f bd 48 37 c6 bc 04 93 a2 bc
       -0.105555244 -0.034963854 -0.024196282 -0.019845493
000270 57 6d 10 3e aa 05 57 bc fd de 5c bd f0 51 04 3d
       0.1410421 -0.013123909 -0.053923596 0.032304704
000280 6c 11 80 bc f6 ff fd bb b9 4d 1d bd d3 c1 81 bc
       -0.015633307 -0.00775146 -0.0384042 -0.015839493
000290 6a 31 44 bc 04 6e 0c 3d 6f 41 2c 3d bb 98 db 3c
       -0.011974672 0.034284607 0.04205459 0.026806226
0002a0 0d 9c c5 bd 07 eb b9 bc d7 5a 67 bd dd 37 2e be
       -0.09648905 -0.022695078 -0.056483116 -0.17013498
0002b0 36 ea fe bc d5 25 06 bc 47 bc 2b bc bb 33 36 bc
       -0.03111754 -0.008187731 -0.010481901 -0.011120732
0002c0 55 c5 71 3d ae c3 d9 3c b1 8d 02 be f5 72 92 bd
       0.05902608 0.026582565 -0.12749363 -0.071508326
0002d0 e5 81 ca bd fb d5 e5 3c 9b 0a 80 3d 8b 84 f9 bd
       -0.09888057 0.028056135 0.06252023 -0.12183484
0002e0 95 bd c7 bd 97 d8 a2 bd b9 d2 9d 3c e8 83 46 3c
       -0.09752957 -0.079514675 0.01926552 0.01211641
0002f0 98 0e ae 3c 4c 15 30 3c 67 3b 19 3d 4a 36 3f bd
       0.021247193 0.010747265 0.037410166 -0.046682633
000300 a4 47 4d bd 24 2f b4 bd 62 15 3b be 40 b4 e2 bb
       -0.05011715 -0.08798054 -0.18269876 -0.00691846
000310 28 a4 f6 3d b7 b6 8b bd 19 dc 7e bd 75 16 ab 3d
       0.12043029 -0.068219595 -0.06222162 0.08353893
000320 db 68 e5 3d 52 e8 00 3d 59 a9 39 3d b2 a2 cc 3c
       0.1120164 0.031471558 0.045327518 0.024979923
000330 4d e0 2f bd b2 a2 d5 3d a4 6f a5 3c 0d b6 82 3d
       -0.04293852 0.10431422 0.020194836 0.0638238
000340 37 20 e5 3d b0 11 85 3b 45 3e e4 3c 71 0e c3 3d
       0.11187785 0.0040609464 0.027861724 0.09524239
000350 13 0d 0e be 9c dd 96 bc 65 6a 17 3e 3e 04 06 3d
       -0.13872175 -0.018416218 0.1478668 0.03271889
000360 e1 99 0c 3d b4 72 18 3c f1 67 21 be ab e0 3c bd
       0.034326438 0.009304691 -0.15762307 -0.046112698
000370 78 4b 7e 3b e9 c5 f5 bd aa 54 29 3e 53 b2 69 3d
       0.0038802307 -0.12000639 0.16536203 0.05705483
000380 4e 3c 89 3a 21 3b a4 bd 7e 34 3c bd 78 66 60 3d
       0.0010470243 -0.080190904 -0.045948498 0.05478522
000390 5e 5a 88 bd ec 04 59 bd 71 aa f8 3d 35 98 60 bd
       -0.06657861 -0.05298321 0.12141884 -0.054832656
0003a0 24 bd 2a bd 9e 58 83 3d de 0d 9f bd 20 55 99 3d
       -0.041684285 0.06413387 -0.07766317 0.074869394
0003b0 0f 4b 91 bd 41 f2 bd 3d 2d 28 fc bd 94 ac 6d 3d
       -0.070943944 0.09274722 -0.123123504 0.05802591
0003c0 76 e3 09 3d 7a 69 f2 bc 22 ac e0 3c aa ae 7b 3c
       0.03366419 -0.02959131 0.02742583 0.015361467
0003d0 ba 67 4d bd 14 c7 4b 3c df c5 eb bd b1 51 47 bc
       -0.05014775 0.012437601 -0.1151235 -0.012165473
0003e0 6e 2a 31 bc cb fb 35 bd c1 6c c6 3d be b8 d6 3d
       -0.010813339 -0.04442958 0.09688712 0.104844555
0003f0 1e a7 85 3c fd 54 2c bd 42 48 f7 3d de 27 1a 3d
       0.01631504 -0.04207324 0.12074329 0.037635677

c2.nn.0.bias f4 [128]
000000 27 ea 97 3e 85 e1 86 3e 15 49 15 3e 6e dc 33 3e
       0.29670832 0.26343933 0.1457866 0.17564556
000010 5d 0d fe be e7 6e 39 3e e7 e2 5b 3e a1 bf 52 3e
       -0.4961957 0.18108712 0.21473275 0.20580913
000020 56 99 ca 3d 2c 44 4b 3e fc 85 94 3e b5 50 40 3e
       0.09892528 0.19850224 0.29008472 0.18780787
000030 dd d9 36 3e f2 59 46 3e 4c cd 8b 3e f1 ef e0 3d
       0.17856546 0.19370249 0.27305067 0.10983265
000040 82 60 0b be 45 f8 76 3e cf 48 6d be 3d 64 ef 3d
       -0.13611034 0.24118145 -0.23172306 0.11689041
000050 d4 9b 0f 3e 3a cf ac 3e c0 b2 6c be b7 b5 4b be
       0.14024287 0.3375185 -0.23115063 -0.19893537
000060 4c 04 42 3e d1 cf ee bd 53 5c 89 be 55 28 46 bc
       0.18946952 -0.116607316 -0.2682825 -0.012094577
000070 17 57 d7 3d b8 e6 40 be 0c 5f 07 be ef 8f e8 bd
       0.10514658 -0.18838012 -0.13219851 -0.11355578
000080 82 3e 52 be 2f 34 23 be 48 93 5d 3e 73 0d 43 3e
       -0.20531657 -0.15937875 0.21638215 0.19048099
000090 fd ab 53 3e 49 a2 d9 bd 57 66 61 3e 6d 4d 1e 3e
       0.20671077 -0.106266566 0.22011696 0.15459223
0000a0 a9 b5 7a 3e 4e f5 37 3d 62 c9 52 3e 72 bf c4 bd
       0.2448336 0.044911675 0.20584634 -0.09606828
0000b0 d8 70 d6 be 28 7d 63 3e 1d 9d b7 3d 58 5d 3e 3e
       -0.41882968 0.22215712 0.08965514 0.18590295
0000c0 51 04 87 be 90 2c 07 3d a2 f9 6f 3e 43 95 86 be
       -0.2637048 0.033001482 0.23435071 -0.26285753
0000d0 67 9c 00 3e 88 0b 65 3e 59 d1 f6 3d 5b d0 56 bd
       0.12559663 0.2236768 0.12051649 -0.052444797
0000e0 42 04 a2 3d a7 c8 ee 3d 1e 4d 45 be 35 54 1a 3e
       0.07910968 0.11659365 -0.19267699 0.15071185
0000f0 0e 15 1f be 96 cf 72 be df ae 2c 3e e0 e7 5d be
       -0.15535375 -0.23712 0.16863583 -0.21670485
000100 03 65 83 3e 81 25 42 be 28 35 7a 3e 65 12 ff 3d
       0.25663003 -0.18959619 0.2443434 0.1245468
000110 6a a7 22 3e ed ed 26 3e 2b f7 22 3e 1f 41 65 3e
       0.15884176 0.16301699 0.159146 0.22388123
000120 7a e6 84 be 87 b7 44 3d b4 6c 55 be 1a 61 10 bd
       -0.2595709 0.048026588 -0.20842248 -0.035248853
000130 50 cf cb bd 70 b7 4e be 77 b2 c7 3d 2c 24 51 be
       -0.09951651 -0.20187163 0.09750836 -0.20423955
000140 2f 52 44 3e f1 51 40 3e 4e 7c 14 3e 07 1b 0d be
       0.19171976 0.18781258 0.14500543 -0.13779841
000150 c8 7d 46 bd 49 fb 00 3e 0f 41 83 3e 4a f7 b3 be
       -0.048459798 0.12595858 0.25635573 -0.35149604
000160 d8 df 92 be 7d 48 fc 3d 7e bc 59 3e 86 70 8a 3e
       -0.28686404 0.123185135 0.2126331 0.27038974
000170 d3 9b 1d 3d fe 91 64 3e 9d 2a c4 be 71 6f 1e 3e
       0.038478684 0.22321317 -0.3831376 0.15472199
000180 53 f4 ad 3d 01 81 0a 3e 77 89 a3 3d 6f 99 3c 3e
       0.08493867 0.13525774 0.07985204 0.18417905
000190 18 66 30 3e 1f 1e 46 3e d1 20 60 3e 8e 6d 85 3e
       0.17226446 0.19347428 0.21887518 0.26060146
0001a0 22 ab 75 be 6f c0 6b 3e b8 28 88 3d 13 d3 61 3d
       -0.23991063 0.23022626 0.066483915 0.055132937
0001b0 5a 01 c4 3d 71 bb eb bd f8 9d 04 3e 11 92 f0 bd
       0.0957057 -0.11510361 0.12950885 -0.1174661
0001c0 93 27 4a 3e c4 22 32 3e 8a 43 2c 3e a1 78 9e be
       0.19741659 0.17396075 0.16822639 -0.30951408
0001d0 fa ac 13 3e 21 5b 22 3e ea 8a 81 3e a7 97 9b 3d
       0.14421454 0.15855075 0.25301296 0.07597285
0001e0 7b 7d 00 bf e4 74 96 3d ce 42 3d 3e db 14 2f 3e
       -0.5019147 0.07346514 0.18482515 0.170978
0001f0 1b ca f7 be 15 d9 42 3e da a8 1f 3e c3 13 a3 be
       -0.48396382 0.19028123 0.15591756 -0.31851014

c2.nn.2.weight f4 [128, 128]
000000 75 f5 be bd f2 f6 d2 bd a6 c1 17 bd 79 46 92 bd
       -0.09324161 -0.10301007 -0.037049912 -0.07142348
000010 65 90 06 3f 1c 35 9a bd 54 01 c1 bc 7f fb 45 be
       0.5256408 -0.07529661 -0.023560204 -0.1933422
000020 c9 be 3e bd 54 88 bb bc f9 ba 08 be 05 e5 56 bd
       -0.046568666 -0.022892155 -0.13352574 -0.052464504
000030 d3 35 95 bd b4 90 cb bd f6 8f b3 bd a3 46 17 bd
       -0.07285657 -0.09939709 -0.08767693 -0.0369326
000040 59 96 be 3c fb c0 27 be 57 b8 4a 3e 8d fe bb bd
       0.02326505 -0.1638221 0.19796883 -0.09179411
000050 75 80 81 bd 47 42 2d bc ef ff e9 3e cd 84 a9 3e
       -0.06323329 -0.010574884 0.45703074 0.3310913
000060 97 66 74 bd 02 75 1c bd d0 2b 4d bd 05 a1 ce 3c
       -0.05966815 -0.038197525 -0.05009061 0.025223264
000070 4b eb 5d bd 6d 33 91 3e 06 9c 3b 3d 74 73 02 3c
       -0.05417947 0.28359547 0.045803092 0.0079620965
000080 b9 2c 7e 3d 67 c6 ee 3c 05 d9 6e bd 5a 8f ce bd
       0.06205437 0.02914734 -0.058312435 -0.10085936
000090 1e 6c d3 bd ec 20 6e 3c 8e 3b 23 bd b8 55 d2 bd
       -0.10323356 0.014534216 -0.039851718 -0.10270256
0000a0 92 0d 23 be 28 d0 30 3d 64 40 57 bd b2 22 df 3c
       -0.15923145 0.043167263 -0.052551642 0.027238224
0000b0 2f 66 cb 3e a2 b4 da bd db 8e fa bc a0 66 e1 bd
       0.39726397 -0.10678984 -0.030585697 -0.11005902
0000c0 1d 62 4a 3e a2 88 16 3d 5c 58 45 be 11 ca 17 3e
       0.1976399 0.036751397 -0.19271988 0.14823176
0000d0 8e bc 0e bd 27 6e 3f bd 14 90 aa bd 9e 3a d4 3d
       -0.03484779 -0.04673591 -0.08328262 0.10362743
0000e0 be a3 ee bd 92 d2 2d bd 67 1f c8 3d a6 19 b8 bd
       -0.11652325 -0.042437144 0.097716145 -0.08989267
0000f0 f4 58 a7 bc 3c c5 f3 3e 0d 2b a8 bd 89 c1 76 3d
       -0.020428158 0.47611415 -0.08211336 0.060243163
000100 a0 fa 2e be bc 7f df 3d d9 3d 4e bc 4a 6a 34 bd
       -0.17087793 0.10913035 -0.012587988 -0.044046678
000110 6c c6 97 bd fb 9d b6 bd 69 0d 0d be 5b c6 39 bd
       -0.07410893 -0.08916851 -0.13774647 -0.045355182
000120 25 9f e1 3d 11 cc 3b 3d 0a 72 12 bc b8 d1 9e bb
       0.110166825 0.04584891 -0.008938322 -0.0048467778
000130 63 a6 38 bc c9 cc b6 3d 0f 15 d5 3a 70 8e aa 3d
       -0.011270138 0.089257784 0.0016256886 0.08327949
000140 6b c9 94 bd e8 7d db bc d7 02 bf bd 71 0f e8 3c
       -0.0726498 -0.026793435 -0.093267135 0.028327676
000150 14 65 35 3c 47 cb 97 bd 02 10 25 bc 21 da ad 3e
       0.011071462 -0.07411819 -0.010074617 0.33955482
000160 fa d6 c9 3d 88 b5 e9 bb e2 1b c2 bc 06 36 36 bd
       0.09855457 -0.007132236 -0.023694936 -0.044485115
000170 83 e9 a7 bc c6 22 a7 bd e7 dc 0a 3f 91 b7 fe 3c
       -0.02049709 -0.081609294 0.5424332 0.03109339
000180 c7 66 85 bd 6c e3 e5 bd 03 13 23 bd 72 0d 1e 3b
       -0.06513744 -0.11225018 -0.039813053 0.00241169
000190 62 59 0a 3d 12 d8 b5 3c cf 4c 74 bc 93 07 36 bb
       0.03377665 0.022197757 -0.014910891 -0.002777551
0001a0 2a 2a 8c 3e 06 93 b0 bd c2 52 b7 bd 71 fd d0 bd
       0.2737592 -0.086217925 -0.08951332 -0.1020459
0001b0 51 00 d9 bc c1 3e bc 3d 3f 13 40 bb 6b 6d f3 bb
       -0.026489409 0.09191657 -0.0029308347 -0.007428815
0001c0 3a 85 10 be 68 8b 12 be 51 47 a5 bd ab 1a dc 3e
       -0.14113322 -0.14310992 -0.08070243 0.42989096
0001d0 fa 5e 4a bd b7 4b 0f be 26 ef 24 be 20 85 35 bd
       -0.049406983 -0.13993727 -0.16106853 -0.04431641
0001e0 27 c9 d6 3e ab d5 40 bd c9 cb 14 bd 92 84 20 be
       0.41950342 -0.04707877 -0.036327157 -0.15675572
0001f0 6b 11 e4 3e 91 f0 54 bd 51 01 1e bd 5c 85 83 3e
       0.4454454 -0.051987235 -0.038575474 0.25687683
000200 7e ce f0 bc fe 16 c1 3d b7 c4 95 3d 59 05 4b bb
       -0.029395338 0.094282135 0.07312911 -0.003097853
000210 39 60 b4 be 78 27 70 3b 7b 2f c0 bc 6e 05 41 3d
       -0.35229662 0.003664462 -0.02346014 0.04712432
000220 0b 99 74 bd 39 7c 97 bd bc a1 34 bd 5d e5 b1 bc
       -0.059716266 -0.073967405 -0.044099554 -0.021715814
000230 3e 39 25 bc 4e 9e 02 bd 26 21 ec bb d5 7f 33 3a
       -0.010084448 -0.031889252 -0.0072061 0.00068473566
000240 8a 01 f3 3b 06 4e 66 3d 71 f7 91 be 84 16 12 3d
       0.007415955 0.056226753 -0.28509095 0.035666004
000250 40 cd 05 3e a3 38 cd 3c e7 83 ee be 72 0d a4 be
       0.13066578 0.02505142 -0.46585009 -0.32041508
000260 17 d9 08 be a6 42 95 3c 8e 3c d3 bc 8a 39 f0 bc
       -0.13364063 0.018220257 -0.02578571 -0.029324312
000270 4a a2 39 3d c7 6f a5 be 0a 54 32 bd e6 37 0c bb
       0.045320787 -0.32311842 -0.043537177 -0.0021395623
000280 d8 f1 41 bb 74 8e 10 3d e7 89 72 3c 0d bf 9f bd
       -0.0029593613 0.035292104 0.014803386 -0.07800112
000290 55 40 fd 3c f3 8a 80 bd 86 d0 09 3b cb bb a6 3c
       0.030914465 -0.062765025 0.002102883 0.020353219
0002a0 d0 ca 5c 3d c6 bc a1 bd 3a ed 6e 3d 0c e6 6b 3d
       0.053904355 -0.07897334 0.058331706 0.057592437
0002b0 79 92 a6 be 86 64 00 3d fe 22 be 3c 48 34 6d 3c
       -0.32533625 0.031345867 0.023210045 0.014477797
0002c0 7d 3d cd bc c2 74 c4 bd 34 37 76 3d 86 84 09 be
       -0.025053734 -0.09592582 0.06011124 -0.1342946
0002d0 73 77 68 3d 23 39 e6 3d 69 ef cd 3d b9 03 23 3d
       0.05675454 0.11241367 0.100554295 0.039798472
0002e0 e7 8e 13 3d db 8b 17 bd f3 00 e9 bd d1 a1 b3 3d
       0.036024954 -0.03699861 -0.11377134 0.087710984
0002f0 7a 9e 6c bd bb 9d c0 be 95 0d 30 3d 96 3e d0 3a
       -0.057768323 -0.3762034 0.042981703 0.0015887793
000300 e0 cd 37 3d d4 be 8c bd 5e e4 1d bc f3 a0 8c 3d
       0.044874072 -0.06872335 -0.0096369665 0.06866636
000310 d3 58 3b 3d 67 0b bc 3d da 9c 26 3d 03 01 88 3c
       0.045739006 0.09181862 0.04067693 0.016602045
000320 8d a3 10 be 0c e6 86 bd 77 6e eb bd 46 f3 ff bb
       -0.1412489 -0.06586847 -0.11495679 -0.007810983
000330 8f b5 8e bd 19 a4 26 3d b3 a9 33 3d 66 3a bb bd
       -0.06968223 0.04068384 0.04386301 -0.09141998
000340 85 d7 fb 3d 49 ca 90 3c 58 60 55 ba f7 f2 f7 bd
       0.122969665 0.017674582 -0.00081396615 -0.12106889
000350 45 bc da 3c 90 1f a4 bd 9c e9 e0 3b 9d d2 98 be
       0.026701102 -0.080138326 0.006863786 -0.29848185
000360 c5 89 02 be 37 df e3 3d a4 47 85 3d e1 07 49 bd
       -0.12747867 0.11126559 0.06507805 -0.04907978
000370 ae 73 62 bd 21 14 29 bd 98 33 e5 be 78 76 46 3d
       -0.055286102 -0.041278962 -0.44765925 0.048452824
000380 74 dc 92 3d fb d7 a9 bd 9e 76 05 bd 9f fb 1f 3d
       0.07170954 -0.08293148 -0.032583825 0.039058324
000390 4a 24 30 bd d7 e2 9d 3d 5d 6f 49 3d 14 c7 18 bd
       -0.043003358 0.07709282 0.04917847 -0.03729923
0003a0 f5 01 79 be 6b dc 6b bc b2 75 a3 3d 8a 1b 81 bd
       -0.24317153 -0.014395813 0.07981433 -0.06304081
0003b0 d9 08 07 bd 1a 07 05 bd a3 25 b4 3d 29 f8 97 3c
       -0.032967422 -0.032477476 0.08796241 0.01855095
0003c0 75 08 cf 3d 5b b9 a6 3d f1 70 ce 3d 3e a5 b9 be
       0.10109035 0.081408225 0.100801356 -0.36258882
0003d0 e8 58 64 3c 93 4b 47 bc d8 50 8f 3d 17 b4 b3 bc
       0.0139372125 -0.012164014 0.069978416 -0.02193646
0003e0 df c2 a8 be 80 ad 3e bc 3e df a0 3d 88 d0 02 3d
       -0.32961175 -0.011638045 0.0785508 0.031937152
0003f0 68 69 e6 be bc f4 0f 3d 74 20 8e bc 83 34 81 be
       -0.45002294 0.035145506 -0.01734946 -0.25235376

c2.nn.2.bias f4 [128]
000000 f9 f6 51 be 5f ca 1d 3e e4 6b 78 bd 17 7d ba 3c
       -0.20504369 0.1540923 -0.060649768 0.022764726
000010 74 56 d9 3d 1e 81 20 3e 82 68 20 3e cf 6f 56 3e
       0.10612193 0.15674254 0.15664867 0.20941089
000020 90 46 98 3d dd 60 5e be 67 da 0e 3e 7d a2 24 be
       0.07435334 -0.21716638 0.13950501 -0.1607761
000030 c4 3d 64 be 12 12 e3 3d 7f 1c 27 3e 85 32 0a 3e
       -0.22289187 0.11087431 0.16319464 0.13495834
000040 ec e7 3f be 43 9f 99 3d eb bb a7 bd 44 5f 45 bd
       -0.18740815 0.0750108 -0.081901394 -0.048186556
000050 99 3e 17 3b 9e 5e ec bd 4c ea 4b 3e 94 62 b7 bd
       0.0023078083 -0.11541484 0.19913596 -0.08954349
000060 c4 ab 0b 3e ba 2c a7 3d ef 5b 52 be 33 a5 e4 3d
       0.13639742 0.08162828 -0.20542882 0.11164322
000070 50 6a a1 3d 17 6e 74 3d e3 a7 28 3e 78 b0 68 bd
       0.078816056 0.059675302 0.16470294 -0.05680892
000080 45 f8 44 3e 5a 63 4f 3d ac a7 1c be 68 55 e0 3d
       0.19235332 0.05063186 -0.15298337 0.1095379
000090 eb d7 66 be ef 57 c1 3d 56 aa 03 be b4 c8 8b bd
       -0.22543304 0.094406 -0.12857947 -0.068253905
0000a0 62 ca b8 bd 72 0a 89 3d cc a8 70 be d3 7f 8a 3c
       -0.090229765 0.066914454 -0.23501891 0.016906654
0000b0 c5 1e e7 3c 7c c4 6d be 2a be 67 3d 8c 02 34 3e
       0.028212914 -0.23219484 0.05657784 0.17579097
0000c0 e2 4b 24 3e a8 06 42 be 64 5b 96 3d 6b fa 54 3e
       0.16044572 -0.18947852 0.0734165 0.20798652
0000d0 ba a8 07 be a6 ff cd bd 9f d1 41 be cb 4d 77 be
       -0.13247958 -0.10058527 -0.1892762 -0.2415077
0000e0 4e e3 00 3c 31 33 47 3e 6d bf 9c bd e4 7b f5 3d
       0.007866694 0.19453122 -0.07653699 0.11986521
0000f0 78 4e 65 3d 5e 40 cd bd 1f c0 05 be 79 25 04 3e
       0.055983037 -0.10022043 -0.1306157 0.1290492
000100 5d f5 7c 3c 4b 9c 12 3d ce 26 10 be 29 8c e2 3d
       0.015439359 0.035793584 -0.14077303 0.1106189
000110 77 f8 72 3d 49 3a 2d 3e 22 8b 67 bb 85 5f 26 be
       0.059318986 0.16916765 -0.0035330732 -0.16247375
000120 9f ec f0 3d 63 dd 48 3c ac e4 47 3e 7c 37 32 3e
       0.11763882 0.012259814 0.19520825 0.17403978
000130 44 c3 10 3d 25 73 23 be f5 c9 77 3d 7f 33 0e 3e
       0.03534247 -0.15961893 0.060495336 0.13886832
000140 7b 25 35 3e 52 25 c6 3d d6 f4 2a 3e e8 98 40 3e
       0.17690079 0.09675087 0.1669496 0.18808329
000150 d2 36 36 3e ec f6 cd bd 93 9b 92 bd ca f0 46 3e
       0.1779435 -0.10056862 -0.0715858 0.19427791
000160 84 66 c2 3d 33 b8 dd 3d e4 b0 4d bd e0 45 df 3d
       0.094922096 0.10826149 -0.050217524 0.109019995
000170 1e e7 0d 3e 85 79 58 3d 20 33 94 3d bd 5e 16 3d
       0.13857695 0.052850265 0.07236314 0.036711443
000180 ba ca b3 bc 51 2c 94 bd 6f 0d 46 3e da 38 b9 3b
       -0.021947253 -0.07235015 0.19341062 0.005652529
000190 97 67 bc 3d e3 56 18 3e 03 56 6d 3d 67 f0 9c 3d
       0.09199446 0.14876895 0.057943355 0.076630406
0001a0 7f 9d d3 3d af 99 1e 3e 84 84 af 3d c1 d1 39 be
       0.10332774 0.15488313 0.08570197 -0.18146421
0001b0 a8 a2 ea 3d fa d5 17 be ce c4 6c 3d b7 c5 67 be
       0.114568055 -0.1482772 0.057804875 -0.22634016
0001c0 bd d4 7b bd 03 d2 cb 3c 77 70 0a 3e b3 d8 ed 3d
       -0.06148218 0.024880415 0.13519464 0.11613598
0001d0 a1 13 26 be 61 ea 0b 3e ed ed 1a 3e cb 41 2c be
       -0.16218425 0.13663627 0.15129824 -0.16821973
0001e0 ba 9a ff 3d 0a 5e 53 be e0 60 65 be 79 43 20 3e
       0.124806836 -0.20641342 -0.22400236 0.15650739
0001f0 da db 8f 3d 02 9c f3 bd 01 8c 8a 3d 28 e2 e5 bd
       0.07024355 -0.118949905 0.06764985 -0.112247765

n1.weight f4 [128]
000000 4b 5c 7b 3f d6 5a b2 3f 30 59 85 3f f3 bb 91 3f
       0.981877 1.3933971 1.0417843 1.1385483
000010 5c 5e ab 3f 9b ad b6 3f ba 36 bb 3f 45 ff 71 3f
       1.3388171 1.427173 1.4626076 0.94530135
000020 d5 b3 8a 3f 02 4b b8 3f 37 2c 71 3f 6a e8 85 3f
       1.083613 1.439789 0.9420809 1.0461552
000030 ee a9 93 3f f5 f2 84 3f 5a 2b 63 3f 61 bc b0 3f
       1.1536233 1.0386645 0.88738024 1.3807489
000040 1d 40 ad 3f 82 e7 ba 3f c5 ac 91 3f d7 df 74 3f
       1.3535191 1.46019 1.138085 0.9565405
000050 7a 37 91 3f d0 c3 8a 3f 3f e8 7d 3f ec 10 7f 3f
       1.1345055 1.0841007 0.99182504 0.99635196
000060 8c da be 3f 92 0d 8d 3f bb e9 96 3f c5 6a b4 3f
       1.4910445 1.1019766 1.1790079 1.4095083
000070 f3 7b 88 3f 6a dc 7e 3f 2a 66 6e 3f e6 2e 75 3f
       1.0662826 0.99555075 0.9312464 0.95774686
000080 59 65 6b 3f 1d 38 ad 3f 6e 31 74 3f d9 2d 7d 3f
       0.9195152 1.353275 0.95387924 0.9889808
000090 c1 c7 74 3f b6 0c bd 3f 79 9b bb 3f b8 aa 90 3f
       0.956173 1.4769504 1.4656821 1.1302099
0000a0 de 0e 81 3f f4 85 b9 3f 6d 8e 97 3f aa b1 ba 3f
       1.0082662 1.4494004 1.184034 1.4585469
0000b0 76 15 b6 3f c1 a0 86 3f 2e f5 91 3f 39 74 a0 3f
       1.4225299 1.0517808 1.1402948 1.2535468
0000c0 29 23 7c 3f 61 4d 7a 3f 70 a8 b7 3f 19 08 80 3f
       0.9849115 0.9777432 1.4348278 1.0002471
0000d0 64 e4 7a 3f 6b 90 78 3f d9 8b 6e 3f ee 8e 6b 3f
       0.98004746 0.97095364 0.9318214 0.9201497
0000e0 39 1e b8 3f db 13 78 3f 6a 05 9a 3f 38 cf bf 3f
       1.4384223 0.969053 1.2032902 1.4985113
0000f0 0c 31 6f 3f be 4c a4 3f 2c 7c 92 3f 1e 4e 69 3f
       0.93434215 1.283592 1.1444144 0.9113482
000100 d1 ae 8a 3f 8e e6 80 3f 99 50 be 3f 04 40 76 3f
       1.08346 1.007036 1.4868346 0.9619143
000110 cc 8f 8b 3f 3f cd 7e 3f 9b 62 60 3f aa c9 77 3f
       1.0903258 0.9953193 0.8765046 0.9679209
000120 a1 e6 ab 3f cf ce ad 3f a6 a9 7d 3f cf 6a 80 3f
       1.3429757 1.3578738 0.9908699 1.0032595
000130 c6 b6 7f 3f 6e c8 8e 3f f6 52 be 3f 60 85 90 3f
       0.99888265 1.1154916 1.4869068 1.1290703
000140 79 10 b1 3f b7 09 97 3f f1 79 8b 3f 2a ca 90 3f
       1.3833152 1.179984 1.0896589 1.1311696
000150 ce cd 76 3f ee 7e 7e 3f 7f 87 b2 3f 00 41 6d 3f
       0.96407783 0.9941243 1.39476 0.9267731
000160 81 bb 64 3f 0b e8 65 3f dc e3 be 3f 6c 50 81 3f
       0.8934861 0.89807194 1.4913287 1.0102668
000170 8a 56 af 3f e5 44 70 3f 1d 4a c0 3f 17 31 87 3f
       1.3698285 0.93855125 1.5022618 1.0561856
000180 5a ce 95 3f b1 5d 7c 3f cd 9f 83 3f 1b 98 78 3f
       1.1703598 0.9858046 1.0283142 0.97107095
000190 52 07 75 3f 53 d6 6b 3f db 7f a3 3f e1 a4 75 3f
       0.95714295 0.9212391 1.2773393 0.9595471
0001a0 b5 48 8b 3f a0 2e 72 3f 6b 32 87 3f df 91 80 3f
       1.0881563 0.94602394 1.0562261 1.0044516
0001b0 75 81 79 3f 0b 4a 79 3f 8f 7e 82 3f f7 aa 83 3f
       0.9746316 0.97378606 1.0194873 1.0286549
0001c0 7a 56 ad 3f 62 aa 82 3f 37 d8 74 3f a6 63 c2 3f
       1.3542016 1.0208247 0.9564242 1.518666
0001d0 e0 57 80 3f 9b ee a8 3f 26 68 8e 3f 45 1e c3 3f
       1.0026817 1.3197817 1.1125534 1.5243613
0001e0 72 5c 76 3f 7a 99 8c 3f 76 a9 6e 3f 0f 16 8a 3f
       0.9623481 1.0984337 0.93227327 1.0787982
0001f0 0b c2 65 3f 7d e0 73 3f 69 55 ac 3f 97 f7 a5 3f
       0.8974921 0.95264417 1.3463565 1.2966183

n1.bias f4 [128]
000000 16 63 39 bd 99 09 fa bb d0 1b 82 bd a7 40 0f 3e
       -0.04526051 -0.0076305387 -0.06352961 0.13989507
000010 8b 95 f1 bc 19 8c d9 bd a9 b1 0a be f6 c0 a8 bd
       -0.029490253 -0.10622425 -0.13544334 -0.082399294
000020 74 77 10 3e 69 94 34 bd 0b 87 86 3d 76 39 67 3c
       0.14108068 -0.044086847 0.06568726 0.014112821
000030 c1 0c 2a 3e b5 05 9b 3b af cb 52 bd 35 7f e6 bd
       0.16606428 0.004730905 -0.05146378 -0.112547316
000040 2f c3 11 be ac bf 89 bb 9d 04 46 bb 23 3a 99 bd
       -0.14234613 -0.0042037573 -0.0030215152 -0.07481792
000050 ab 3d bf 3d 40 5b 98 3b b6 66 fd 3d 7f af cc bc
       0.09337934 0.0046495497 0.12373106 -0.024986027
000060 22 f5 ea bd 76 d0 2d 3d 18 93 61 bc 1e bc 0a 3d
       -0.114725366 0.042435132 -0.01376798 0.03387081
000070 67 58 a2 ba 76 25 a1 bd 45 a4 08 bd 31 46 94 bd
       -0.0012385965 -0.07868473 -0.033359785 -0.072399504
000080 cc 5f d6 bc e1 05 80 bd a0 20 89 bd 4b 68 d6 3d
       -0.026168726 -0.06251121 -0.06695676 0.10469111
000090 9c fa 00 bd 1b af f8 bb 20 e0 14 be 21 c9 10 3e
       -0.031489 -0.0075892336 -0.14538622 0.14139225
0000a0 9f 73 06 bc 07 63 f5 bd 90 59 4e 3d 04 65 cc bd
       -0.008206277 -0.119817786 0.050378382 -0.09980205
0000b0 a4 be c8 bd 11 4f ed 3c e6 67 13 3c b3 2e 4c bd
       -0.09801987 0.028968366 0.008996939 -0.049849223
0000c0 f1 26 51 3d 70 81 c9 bd 3d d7 ee bd ad dd 17 bd
       0.051062528 -0.09839141 -0.11662147 -0.03707664
0000d0 da 98 ad bd 33 5c 74 bd 42 f7 b2 bd 4c 8a 32 3d
       -0.0847642 -0.05965824 -0.08738567 0.04358892
0000e0 e5 8f cc bd c5 9e 3e bd 64 5e 60 3c 59 e2 a6 bd
       -0.09988383 -0.046538133 0.0136943795 -0.08148641
0000f0 dd 05 8b bd 35 92 2a 3e 3f e2 c0 3c 06 12 af bd
       -0.06788228 0.16657336 0.023545383 -0.085483596
000100 c5 0e 2b 3e 4f dd b9 bd 34 94 06 be 09 85 8a bd
       0.16704853 -0.090754144 -0.13142473 -0.06763656
000110 aa 98 45 3d b9 20 6d bd f7 6e 76 3d 19 24 1e bd
       0.048241295 -0.057892535 0.060164418 -0.038608644
000120 0b 01 b1 bc c1 a7 eb 3d c5 df fe bd 85 e9 95 3d
       -0.021606943 0.11506606 -0.124450244 0.07319931
000130 7c a9 e7 3d c5 8c fb bc 03 8f d9 bd b3 70 e1 3d
       0.113116235 -0.030706773 -0.106229804 0.11007824
000140 21 aa 97 bd fe 76 91 bd a9 31 6a bc 74 43 b4 3c
       -0.074054964 -0.07102774 -0.0142940665 0.02200482
000150 0a 7f 59 bd b0 e1 e6 3c e4 24 57 bd a9 0a 40 bd
       -0.05309967 0.028183788 -0.052525416 -0.046885166
000160 c5 10 10 bd 9b ea 11 bd 74 8c 07 be a4 ec 58 3d
       -0.035172243 -0.035624128 -0.13237172 0.052960053
000170 0d 7d 5f bd 17 6b 1f 3c 09 70 85 bc 0c d0 2a 3d
       -0.054562617 0.009730122 -0.016288774 0.041702315
000180 31 e9 fb 3c 5e bf 60 bd 62 1e 84 bd ca de 74 3d
       0.030750843 -0.054870002 -0.064511076 0.05978278
000190 59 ea 6b 3c cc e4 36 3c 9c 2e 96 bd 58 34 a9 bd
       0.014399135 0.011162948 -0.07333109 -0.08261937
0001a0 32 1f 62 3d d2 23 1c bd 13 94 98 bd ba 45 06 3d
       0.05520553 -0.0381201 -0.07450118 0.03278134
0001b0 ee 2c 81 bd d1 9e 98 bd f5 2d 2b bd 89 97 21 3e
       -0.06307398 -0.07452167 -0.041791875 0.15780462
0001c0 12 5b 33 3e d5 cd 95 3d 18 99 92 3d a2 fa 8e bd
       0.1751521 0.0731465 0.071581066 -0.06981398
0001d0 1f 88 a3 3d c5 eb ab 3c 16 1f dc 3c a8 69 e6 bd
       0.079849474 0.020986447 0.026870292 -0.11250621
0001e0 35 3b a6 bc 33 9b 70 bd 54 ff 61 be 3a 93 83 bd
       -0.020291904 -0.05874176 -0.22070056 -0.064245656
0001f0 6d 1e ce bc 00 c6 3d bd 6a 43 74 bc 46 2f a3 3d
       -0.025160993 -0.046331406 -0.014908651 0.07968001
