checkpoints/refined_best.pth (torch, 888721 bytes, 36 tensors)

input_norm.weight f4 [7]
0.974633 0.84557205 0.879762 0.9472613 0.93846494 1.0230255 1.0339702
00000000: 8c81 793f 6977 583f 1538 613f b77f 723f
00000010: 3d3f 703f 80f2 823f 2359 843f

input_norm.bias f4 [7]
0.004303295 -0.0049360176 -0.019684138 0.042236857 -0.06782209 0.011187263 -0.016153505
00000000: a802 8d3b 51be a1bb a140 a1bc 8e00 2d3d
00000010: 4fe6 8abd c84a 373c 5b54 84bc

layers.0.embed.weight f4 [128, 7]
-0.27871877 -0.22544912 -0.04339117 -0.12519214 0.00068570784 0.040197387 -0.29707897 -0.014410292
0.18630503 -0.0028303522 0.35076973 0.35468665 0.29009953 0.33372998 0.2637672 0.13615015
0.017738719 0.1938636 0.23451203 -0.3120488 0.26148254 0.19998677 -0.041549258 -0.03509273
-0.25665903 -0.29998344 0.010596309 0.013351841 -0.31084156 0.22597489 0.36425546 -0.309839
-0.041882787 -0.30857232 0.056090984 -0.09846051 0.28401202 0.0014211203 -0.28988865 0.090507545
0.043376178 -0.04745679 -0.013595129 -0.041858103 0.066558875 -0.3604212 -0.23325038 0.068624124
-0.3156868 -0.26773936 -0.06019089 -0.18732163 0.10155642 -0.03147103 0.055501007 0.3059553
0.026885586 -0.19587539 -0.097342044 0.09390061 -0.3468171 -0.1578473 0.27991045 0.070667595
-0.2925287 -0.23789619 0.332168 -0.12204779 0.1439717 -0.3095257 0.25285804 -0.063737646
-0.29023618 -0.24926314 -0.24433298 0.32813537 0.124876745 -0.03569462 0.34545743 0.04258649
-0.07582251 -0.08026958 0.32144207 -0.35584152 -0.3424029 -0.258761 -0.045487758 0.07484592
-0.026259378 -0.18073948 0.29446214 -0.3168908 -0.025481183 0.3188472 -0.11862141 -0.11555017
-0.40768197 0.16383831 0.14641377 0.19225273 -0.041359268 0.12700129 0.09987477 0.13019074
-0.3436787 0.003985598 0.102528475 0.059132304 0.23436308 -0.2941807 0.3503244 0.15949528
0.097329535 0.13401377 -0.3223416 -0.0069466415 0.06077832 -0.057068072 -0.02563958 -0.024793703
0.020883113 0.24853379 0.02999424 0.0602394 0.10143738 -0.06840671 -0.06567463 -0.18990502
-0.31434777 0.021794127 -0.28473705 0.21134207 -0.07911754 0.13596895 -0.25073892 -0.31629854
0.03334507 -0.121202044 -0.18453087 -0.05429913 -0.22265667 0.12389345 0.21333724 0.35518193
-0.097188115 0.33997175 0.26241753 0.12044539 -0.05412835 0.070025094 -0.3593298 0.29746288
0.15042415 -0.21233755 0.066970624 -0.051289678 0.23880729 -0.072542705 -0.13720259 0.36457133
-0.26882455 0.36490285 -0.19935068 0.045912866 0.14077215 -0.28733408 0.30686247 0.29432014
-0.20291488 0.21109222 -0.12595141 -0.17064208 -0.09276721 0.34235108 -0.29554206 -0.21846515
-0.006223615 -0.15629196 0.14900278 -0.093416624 -0.41531911 0.32564697 -0.1066185 0.0650264
-0.08996557 0.09505644 -0.005292634 0.36594492 -0.14462838 -0.31495005 0.32610974 -0.21589331
0.18980627 -0.3070158 -0.26625574 -0.25099537 0.03691221 0.22582352 -0.19980976 0.25983474
-0.20610484 -0.07539095 0.31324464 -0.2425445 0.054435983 0.33874065 0.15764128 -0.13442326
-0.056445207 0.32375738 0.22515224 -0.25280184 0.08541451 -0.07123768 0.29343027 0.3527568
0.042947654 -0.018694954 -0.32007432 -0.24311037 0.23505326 0.057398308 0.04043759 0.01975393
-0.28581905 0.1435972 0.19129694 0.15253703 0.14529076 0.13167897 -0.21781467 0.26623273
0.086563304 -0.0686049 0.19248384 -0.0774553 0.26429072 0.23891288 -0.16026491 -0.02490944
-0.26001182 0.24188982 0.093151174 -0.32824907 -0.25065327 0.057181805 0.01717674 -0.16444318
-0.052997883 -0.057977285 -0.27038032 0.34373698 0.3279887 -0.077266395 -0.124090895 -0.27943757
00000000: 3ab4 8ebe 22dc 66be f1ba 31bd 5e32 00be
00000010: 13c1 333a 04a6 243d bc1a 98be 2519 6cbc
00000020: bfc6 3e3e 6e7d 39bb 1798 b33e 7d99 b53e
00000030: ed87 943e a8de aa3e 7f0c 873e f26a 0b3e
00000040: ca50 913c 2e84 463e ec23 703e dcc4 9fbe
00000050: 0ae1 853e 55c9 4c3e 8e2f 2abd 65bd 0fbd
00000060: d068 83be 6e97 99be 249c 2d3c aec1 5a3c
00000070: a026 9fbe f665 673e b17f ba3e 38a3 9ebe
00000080: 498d 2bbd 31fd 9dbe a9bf 653d aaa5 c9bd
00000090: 066a 913e e244 ba3a 496c 94be 055c b93d
000000a0: 38ab 313d 0d62 42bd 1bbe 5ebc 6773 2bbd
000000b0: 0550 883d 2189 b8be 30d9 6ebe ce8a 8c3d
000000c0: b3a1 a1be 2215 89be b98a 76bd 3ed1 3fbe
000000d0: d0fc cf3d c4e7 00bd 0655 633d 2ca6 9c3e
000000e0: 293f dc3c 8f93 48be 445b c7bd f74e c03d
000000f0: 0392 b1be b9a2 21be 6c50 8f3e 2cba 903d
00000100: 52c6 95be 0f9b 73be ed11 aa3e 31f4 f9bd
00000110: 516d 133e 277a 9ebe 9c76 813e e288 82bd
00000120: d699 94be d63e 7fbe 6d32 7abe 5c01 a83e
00000130: 61bf ff3d 8634 12bd ccdf b03e 2c6f 2e3d
00000140: d548 9bbd 6164 a4bd 0e94 a43e dc30 b6be
00000150: 6f4f afbe 527c 84be 5f51 3abd d148 993d
00000160: e81d d7bc c513 39be bec3 963e 833f a2be
00000170: eabd d0bc f13f a33e c8ef f2bd 91a5 ecbd
00000180: b1bb d0be 3bc5 273e 7eed 153e e6dd 443e
00000190: 5668 29bd a00c 023e 258b cc3d b950 053e
000001a0: a8f6 afbe 9f99 823b 73fa d13d b734 723d
000001b0: e0fc 6f3e da9e 96be b85d b33e bb52 233e
000001c0: b554 c73d e83a 093e f509 a5be a7a0 e3bb
000001d0: b0f2 783d 36c0 69bd 190a d2bc 2a1c cbbc
000001e0: 1013 ab3c a47f 7e3e 7bb6 f53c 97bd 763d
000001f0: 67be cf3d d118 8cbd 6c80 86bd 7676 42be
00000200: 31f2 a0be 9989 b23c 0ec9 91be 0e6a 583e
00000210: 6008 a2bd 723b 0b3e da60 80be e2f1 a1be
00000220: d794 083d c738 f8bd a9f5 3cbe c468 5ebd
00000230: 1c00 64be d9bb fd3d 1475 5a3e 68da b53e
00000240: 900a c7bd c710 ae3e 975b 863e 13ac f63d
00000250: b0b5 5dbd 5169 8f3d 13fa b7be 0e4d 983e
00000260: ca08 1a3e 046f 59be e527 893d 2015 52bd
00000270: e689 743e 4591 94bd d67e 0cbe 18a9 ba3e
00000280: 5fa3 89be 8cd4 ba3e 9622 4cbe 210f 3c3d
00000290: 9326 103e 741d 93be 141d 9d3e 21b1 963e
000002a0: ebc8 4fbe 8f28 583e 68f9 00be ccbc 2ebe
000002b0: bcfc bdbd a448 af3e 4a51 97be 54b5 5fbe
000002c0: 77ef cbbb 000b 20be 2f94 183e 3751 bfbd
000002d0: b5a4 d4be 33bb a63e cd5a dabd 902c 853d
000002e0: de3f b8bd f3ac c23d d56d adbb 225d bb3e
000002f0: 7619 14be 2241 a1be dbf7 a63e 2313 5dbe
00000300: 935c 423e 2d31 9dbe ac52 88be 7782 80be
00000310: 4231 173d 483e 673e ee9a 4cbe 0f09 853e
00000320: 260d 53be 9266 9abd 9a61 a03e 965d 78be
00000330: 44f8 5e3d 6a6f ad3e b76c 213e 40a6 09be
00000340: 1733 67bd 87c3 a53e 4f8e 663e 3e6f 81be
00000350: cded ae3d 10e5 91bd 7e3c 963e 8a9c b43e
00000360: e1e9 2f3d 2926 99bc c8e0 a3be edf1 78be
00000370: cdb1 703e 7d1a 6b3d e3a1 253d fed2 a13c
00000380: e056 92be 250b 133e 58e3 433e ab32 1c3e
00000390: 1ac7 143e dad6 063e cf0a 5fbe a84f 883e
000003a0: 1a48 b13d ba80 8cbd 7c1a 453e e2a0 9ebd
000003b0: 1d51 873e 94a5 743e 7c1c 24be e20e ccbc
000003c0: 4520 85be f7b1 773e 0bc6 be3d 4310 a8be
000003d0: a055 80be 7837 6a3d 3cb6 8c3c cb63 28be
000003e0: 4f14 59bd 9779 6dbd 4a6f 8abe 4bfe af3e
000003f0: 23ee a73e d83d 9ebd 5e23 febd 7112 8fbe

layers.0.embed.bias f4 [128]
0.22408766 -0.112099 0.34655637 0.3113173 0.022843273 -0.33649462 0.2532014 0.18189095
0.21898222 0.40527597 -0.1181353 -0.26492447 0.16814433 0.0177605 0.292636 0.3220622
-0.015986964 0.17937765 0.12634183 -0.025273252 0.0039608493 -0.2165241 0.010897622 0.046941135
-0.1400398 -0.21060368 0.19499078 0.38253713 -0.31212312 0.30189356 0.28360954 -0.21872677
-0.34792593 -0.17660633 0.29247707 0.38278386 -0.2964797 0.34811664 0.03674661 -0.2083861
0.34286615 -0.06824509 0.010633417 0.27789754 -0.33518365 0.29825187 -0.18576586 -0.2073258
-0.34378067 0.33450088 0.30619687 -0.31055787 -0.23892292 -0.24769814 0.11796025 -0.27459162
-0.2296885 0.0128879445 -0.2856769 0.14138679 0.23235762 -0.1703765 0.41812262 -0.25619733
-0.1634043 -0.10556149 -0.36831424 -0.34903088 -0.1810176 0.08931443 -0.0670355 -0.03139704
0.2850395 0.33179054 0.037410885 -0.17328176 -0.39782467 0.069064505 0.22391295 -0.052438583
0.16522066 -0.055832736 0.12984797 0.04674261 -0.27154672 -0.24038978 -0.054002732 -0.13866374
-0.084276825 -0.3247342 -0.37305146 0.3478761 0.27913016 0.13515699 -0.15775484 -0.14685509
-0.06527934 0.07049308 -0.27568883 0.07639195 -0.21246421 -0.1023014 0.114273794 0.25168884
-0.30301952 -0.35259378 -0.12964852 0.17411965 0.21971901 0.40396127 -0.14252886 0.3280785
-0.09747153 0.31111953 -0.08594371 -0.20040615 -0.05709968 0.12323355 0.23782192 -0.061433922
-0.16714822 -0.025728073 0.20167312 -0.0034640406 0.17677891 -0.108069964 0.10295634 -0.11398224
00000000: 3c77 653e 2994 e5bd d66f b13e fb64 9f3e
00000010: d121 bb3c 0649 acbe 9da3 813e 9f41 3a3e
00000020: e03c 603e 5580 cf3e ecf0 f1bd 2ea4 87be
00000030: 072e 2c3e 787e 913c 63d4 953e 56e5 a43e
00000040: 18f7 82bc c6ae 373e c15f 013e da09 cfbc
00000050: 03ca 813b 7eb8 5dbe f18b 323c 5945 403d
00000060: 9866 0fbe 7ea8 57be aaab 473e e8db c33e
00000070: 9ace 9fbe cb91 9a3e 4535 913e e9f9 5fbe
00000080: 5923 b2be 4ad8 34be 8ebf 953e 3ffc c33e
00000090: 30cc 97be 583c b23e 9d83 163d 2a63 55be
000000a0: 278c af3e 15c4 8bbd c937 2e3c 9648 8e3e
000000b0: 319d abbe 78b4 983e 6839 3ebe 374d 54be
000000c0: 0504 b0be b343 ab3e d6c5 9c3e 7101 9fbe
000000d0: 36a8 74be 95a4 7dbe 2595 f13d 4697 8cbe
000000e0: 7633 6bbe f527 533c 3e44 92be b3c7 103e
000000f0: 28ef 6d3e 2d77 2ebe 2b14 d63e 4c2c 83be
00000100: 7553 27be 9f30 d8bd af93 bcbe 2db4 b2be
00000110: ae5c 39be 7cea b63d e949 89bd 2f9a 00bd
00000120: b3f0 913e 73e0 a93e 283c 193d c670 31be
00000130: adaf cbbe b171 8d3d 7049 653e d7c9 56bd
00000140: 9b2f 293e deb0 64bd def6 043e 2e75 3f3d
00000150: 2c08 8bbe bd28 76be f831 5dbd defd 0dbe
00000160: 5499 acbd 9043 a6be 9a00 bfbe d11c b23e
00000170: 26ea 8e3e 9866 0a3e 7c8a 21be 2e61 16be
00000180: 2db1 85bd ad5e 903d 1627 8dbe 6273 9c3d
00000190: 3890 59be 6583 d1bd 6108 ea3d 5cdd 803e
000001a0: 6025 9bbe 2c87 b4be 95c2 04be 6c4c 323e
000001b0: 05fe 603e 03d4 ce3e 16f3 11be e8f9 a73e
000001c0: 279f c7bd 0f4b 9f3e 4103 b0bd 4537 4dbe
000001d0: 5be1 69bd df61 fc3d 9787 733e 23a2 7bbd
000001e0: e728 2bbe aec3 d2bc 6683 4e3e f504 63bb
000001f0: 8805 353e c953 ddbd c6da d23d 856f e9bd

layers.0.W_att.weight f4 [128, 128]
-0.11802309 -0.05886563 0.04154553 0.02564463 -0.0025687842 -0.050678425 0.03824023 -0.006919138
0.04017917 0.063054994 -0.0011695768 -0.106552556 -0.02363836 0.030321216 -0.026467126 -0.034052297
0.0036668107 -0.008891776 -0.002896462 0.019335778 0.007790376 -0.030723935 -0.0055598156 0.054575887
0.039283015 0.08497434 0.025921492 0.05044283 0.036401074 -0.024210306 0.005173368 0.037379295
0.05406865 0.032307807 0.057899274 0.014570279 0.08044687 0.010973251 -0.056199804 0.06979131
-0.026169926 -0.087212965 0.020483637 -0.027717356 -0.07684679 -0.013760116 -0.050892737 0.06447454
0.005200252 0.09545811 -0.06066524 -0.025088914 -0.018499391 -0.036338937 0.04559574 0.04588987
-0.021170838 0.08629117 0.022627208 0.048626184 0.018853916 -0.025262637 -0.07004673 -0.015050939
0.03442897 0.03719354 0.002896469 -0.02945142 0.11016231 -0.07730543 -0.051414475 0.027954927
-0.0057123895 -0.0020815348 -0.100016266 -0.060065158 0.0017430633 0.012457402 0.004603028 0.014925868
0.063240334 -0.12824418 -0.078075185 0.08973287 0.047062937 -0.070811346 -0.07754102 0.05872449
-0.065491214 0.0063315234 0.044971958 0.076442964 -0.0077134115 0.006441386 -0.0737443 0.01061758
0.05837062 -0.034761596 -0.06476745 -0.06480869 -0.03654647 -0.019109827 -0.02494375 0.007158077
-0.076429576 0.046655238 0.06634349 -0.014369622 -0.0833077 -0.024919087 -0.09792264 0.06305794
-0.0019404043 0.09128968 0.054575466 0.031205548 0.022101464 -0.030689131 0.051547837 -0.0026572472
0.048754912 0.039000727 -0.046623133 0.040459473 0.071867675 -0.07534244 -0.028198069 0.029366802
0.00084151904 -0.07072483 -0.09117517 -0.05696107 -0.04113459 -0.025885683 0.022575008 -0.03975947
0.015674137 0.019886294 -0.058953345 0.06511786 -0.05632377 0.00072276674 -0.0031432542 0.020508468
-0.008540868 0.0023171855 -0.059086263 -0.041058313 0.059216395 -0.07221346 -0.008324253 -0.019132067
0.101050325 0.016514821 0.043975998 -0.0012351716 0.022548877 0.05302375 0.05471725 -0.04685137
0.043163475 -0.076691456 -0.067477085 -0.10485297 0.06739671 -0.03308947 -0.088196054 0.040623162
-0.05906747 -0.037936606 0.046143677 -0.04371327 -0.056930326 -0.031253945 0.035653155 0.034481168
-0.0572157 0.05595987 -0.093698844 -0.067990005 0.013869318 0.04728973 0.010963905 0.10425476
0.018071096 -0.06258924 0.002469543 0.031713936 -0.084679775 -0.005482281 -0.016945364 -0.06369874
-0.02352371 -0.00278983 0.04571059 -0.02952279 -0.05484428 -0.014769867 0.0557125 0.015142939
0.0611942 -0.07420444 0.024953857 -0.05429942 -0.05728703 -0.038825605 -0.027429707 -0.039259963
-0.001699196 0.06868684 -0.016709054 0.040959027 0.07221297 0.045938995 0.06058509 0.06696284
-0.06926751 0.042929053 -0.032801986 -0.011013106 0.033445686 -0.03489527 0.09091185 -0.0636949
-0.039775338 -0.05690754 -0.037097245 -0.06443025 -0.0686522 -0.067512475 -0.021322383 0.029111005
0.011753231 0.051249966 0.011167975 0.05039767 -0.051262468 0.028172124 -0.065552995 0.020251842
-0.061449535 0.035510372 -0.044125926 0.0045070956 -0.012108205 0.055306725 -0.018208055 0.009193556
0.054318465 -0.057196245 -0.06428187 0.03692777 -0.047436327 0.032894935 -0.097492404 0.024788506
00000000: 17b6 f1bd 161d 71bd a52b 2a3d b014 d23c
00000010: 0c59 28bb 2e94 4fbd caa1 1c3d f0b9 e2bb
00000020: ea92 243d fa22 813d 7c4c 99ba 3a38 dabd
00000030: 3ca5 c1bc 3364 f83c 96d1 d8bc 6c7a 0bbd
00000040: e04e 703b d0ae 11bc 92d2 3dbb 1166 9e3c
00000050: 6946 ff3b c3b0 fbbc 1d2f b6bb f78a 5f3d
00000060: 3ae7 203d 0707 ae3d 4f59 d43c 249d 4e3d
00000070: 4b19 153d b154 c6bc 5b85 a93b 081b 193d
00000080: 1777 5d3d 3155 043d ca27 6d3d 2eb8 6e3c
00000090: 54c1 a43d 27c9 333c c431 66bd bfee 8e3d
000000a0: 5062 d6bc b69c b2bd 4dcd a73c 820f e3bc
000000b0: da61 9dbd 1c72 61bc e774 50bd 3a0b 843d
000000c0: e066 aa3b 8b7f c33d 1d7c 78bd 4487 cdbc
000000d0: 098c 97bc 23d8 14bd 99c2 3a3d 04f7 3b3d
000000e0: 776e adbc 6db9 b03d b25c b93c 402c 473d
000000f0: 8773 9a3c 97f3 cebc a974 8fbd 3798 76bc
00000100: 6405 0d3d 4158 183d b0d2 3d3b 1b44 f1bc
00000110: c79c e13d 4f52 9ebd fc97 52bd bb01 e53c
00000120: ff2e bbbb 5c6a 08bb 54d5 ccbd e206 76bd
00000130: 8077 e43a 221a 4c3c ffd4 963b a18b 743c
00000140: 2684 813d 7152 03be e2e5 9fbd dec5 b73d
00000150: 11c5 403d 8a05 91bd d4cd 9ebd 1789 703d
00000160: 4220 86bd ab78 cf3b 8434 383d 218e 9c3d
00000170: c9c0 fcbb 4312 d33b 4007 97bd 5cf5 2d3c
00000180: 0816 6f3d 2d62 0ebd cca4 84bd 6bba 84bd
00000190: c0b1 15bd 368c 9cbc d656 ccbc 4d8e ea3b
000001a0: 1c87 9cbd 9019 3f3d 18df 873d 906e 6bbc
000001b0: 3a9d aabd 1d23 ccbc aa8b c8bd 8524 813d
000001c0: 2a55 feba 15f6 ba3d 868a 5f3d c7a2 ff3c
000001d0: 210e b53c c667 fbbc d323 533d 3625 2ebb
000001e0: 3bb3 473d 3abf 1f3d e6f7 3ebd d5b8 253d
000001f0: 5c2f 933d 234d 9abd a3ff e6bc a692 f03c
00000200: 6399 5c3a 2ed8 90bd 0cba babd 0350 69bd
00000210: be7c 28bd 360e d4bc 39ef b83c d3da 22bd
00000220: 0c67 803c 95e8 a23c 1079 71bd 835c 853d
00000230: c1b3 66bd 0e78 3d3a 0eff 4dbb 6001 a83c
00000240: ffee 0bbc ecdb 173b 7004 72bd c32c 28bd
00000250: e48c 723d a7e4 93bd 7362 08bc daba 9cbc
00000260: 79f3 ce3d 174a 873c 2d20 343d 7be5 a1ba
00000270: 6cb8 b83c 6f2f 593d 321f 603d 39e7 3fbd
00000280: 2fcc 303d 6910 9dbd 6d31 8abd 27bd d6bd
00000290: 4907 8a3d d388 07bd 22a0 b4bd 7964 263d
000002a0: bbf0 71bd 6a63 1bbd 2701 3d3d b00c 33bd
000002b0: c62f 69bd 2304 00bd 0b09 123d 203c 0d3d
000002c0: 035b 6abd 2d36 653d 2ee5 bfbd 583e 8bbd
000002d0: 233c 633c e0b2 413d f3a1 333c 8583 d53d
000002e0: d609 943c ca2e 80bd 0ed8 213b 79e6 013d
000002f0: 976c adbd b5a4 b3bb 01d1 8abc 7c74 82bd
00000300: ccb4 c0bc 95d5 36bb 073b 3b3d c7d9 f1bc
00000310: 65a4 60bd 50fd 71bc ca32 643d 171a 783c
00000320: c5a6 7a3d 7ff8 97bd 086c cc3c 1269 5ebd
00000330: cea5 6abd 9907 1fbd 44b4 e0bc 0ecf 20bd
00000340: 8eb7 deba b0ab 8c3d 6de1 88bc a7c4 273d
00000350: 65e4 933d 872a 3c3d 1228 783d d023 893d
00000360: 20dc 8dbd 60d6 2f3d 605b 06bd 5170 34bc
00000370: 58fe 083d 58ee 0ebd fe2f ba3d 7972 82bd
00000380: 77eb 22bd e117 69bd 48f3 17bd 02f4 83bd
00000390: 8699 8cbd fb43 8abd 47ac aebc 347a ee3c
000003a0: a090 403c 7ceb 513d e2f9 363c ca6d 4e3d
000003b0: 98f8 51bd 3ac9 e63c a640 86bd 31e7 a53c
000003c0: 82b2 7bbd 5373 113d 63bd 34bd 42b0 933b
000003d0: 7e61 46bc 4e89 623d 0f29 95bc 92a0 163c
000003e0: 0a7d 5e3d 9c46 6abd 37a6 83bd 9341 173d
000003f0: 984c 42bd d7bc 063d 19aa c7bd 4411 cb3c

layers.0.phi_att.weight f4 [128, 128]
0.07472563 -0.037257858 0.054591633 0.09062113 -0.029639985 0.023264894 0.07507526 0.035998147
-0.019882172 0.004742185 0.019730527 -0.026383739 -0.03042023 -0.14962153 0.079641275 0.060362145
0.021794371 0.018851757 0.06760612 0.009572793 -0.0746832 0.029196901 0.12954998 0.064618036
0.03731477 -0.14548256 0.11388783 0.059920628 0.064339936 -0.023224866 -0.03555582 -0.08533311
-0.030403707 0.0026920624 -0.037525967 0.070597604 -0.06619576 0.045221485 -0.102493785 -0.068766706
-0.059716307 -0.01375991 0.0449592 -0.0071934382 0.03350592 -0.038312398 -0.09078199 -0.062219508
-0.09058323 -0.019453011 0.06734997 -0.053232085 -0.033333592 -0.024223192 0.041906577 0.053415235
0.05472769 -0.030193761 -0.07598179 -0.0050739767 -0.005551817 -0.09385972 -0.028600775 0.10782235
-0.09286514 -0.08889257 -0.06298223 -0.0553165 -0.07434641 -0.026481763 -0.12646197 -0.022743147
-0.0018656339 0.08014395 0.09881377 -0.08884106 -0.028316772 0.06981582 -0.014460545 -0.0144221885
-0.043150954 0.105032116 0.09462868 0.0091465665 0.020039124 0.109630264 0.059509724 -0.10951504
-0.11661848 0.0021201083 0.07701992 -0.026180718 -0.0039756186 -0.011938591 0.012627571 0.021040658
0.033369523 -0.010311694 -0.019490538 -0.017226083 0.019923268 -0.0006254699 -0.035533823 0.11533817
-0.0771704 -0.071971625 -0.11052557 -0.032716367 0.008693719 -0.032268252 0.03607016 -0.03879785
0.051509462 -0.044437215 -0.07220211 0.047681652 -0.06385847 -0.028202277 0.03336259 0.06883936
-0.058942717 -0.028711824 0.09593933 -0.05645504 -0.08066723 -0.045533154 -0.11135237 0.0090766745
0.058194276 0.059758786 0.0356834 0.07552082 0.038433287 0.043870766 -0.06714902 0.047905825
0.07364695 0.041882046 -0.06920062 -0.033550672 -0.01598017 0.14595045 0.05306002 -0.07891097
0.054365598 0.07329177 -0.08917653 -0.030253746 -0.047082458 0.061621983 -0.06289232 -0.057640158
0.06753357 0.08452988 -0.010905192 0.072469234 0.014018911 -0.022418782 -0.036307923 0.059562217
0.045182567 -0.0546488 -0.036184665 0.06027711 -0.02898132 -0.03458894 -0.06951051 -0.0024021934
0.069193505 -0.11224487 0.033002842 -0.076478474 0.089962825 0.0041349265 -0.037052825 -0.011099488
-0.028910086 0.054796316 0.053381238 -0.04176673 0.109265305 -0.039849706 -0.013777794 -0.034865066
-0.08625131 0.037185207 0.02981766 0.0404644 -0.035156913 -0.031599514 0.06509409 0.028677085
-0.03119679 0.012953334 -1.8200515e-05 0.016343381 0.0973519 -0.060974345 0.07682487 0.073620856
0.008717103 -0.048553187 -0.07985835 -0.044659875 -0.00588489 -0.021616071 -0.098741494 -0.0055035604
0.022980658 -0.044217158 -0.049916096 0.11864435 -0.07383348 -0.105555765 -0.08252364 0.07717814
-0.0009910282 -0.03421542 0.066696 -0.017530471 0.049685594 0.049383894 0.056078423 -0.06946803
-0.014408424 -0.022253543 0.020890826 -0.08775879 -0.03096011 0.0710592 0.04387207 -0.13237883
0.08631724 0.050719902 0.0043428694 0.055183634 -0.054364856 0.00229317 -0.020047778 -0.025490472
0.0063737556 0.06304964 -0.06025011 0.013445112 -0.021257663 -0.037706625 0.024675125 0.046784393
0.11445915 -0.075106785 -0.09082938 -0.014191727 -0.0748874 0.0010947374 -0.03772125 -0.03831095
00000000: c009 993d b29b 18bd 7a9b 5f3d 9297 b93d
00000010: 8ecf f2bc 0596 be3c 0fc1 993d cb72 133d
00000020: f0df a2bc 5564 9b3b eaa1 a13c b622 d8bc
00000030: d933 f9bc 6336 19be f71a a33d 4c3e 773d
00000040: 1c8a b23c 006f 9a3c 1475 8a3d 34d7 1c3c
00000050: 81f3 98bd 572e ef3c c0a8 043e 7656 843d
00000060: 5fd7 183d 61f9 14be 063e e93d 556f 753d
00000070: a8c4 833d 1342 bebc fba2 11bd 20c3 aebd
00000080: 3211 f9bc 506d 303b d4b4 19bd 7a95 903d
00000090: a591 87bd 2a3a 393d 43e8 d1bd 8fd5 8cbd
000000a0: 1699 74bd 3f71 61bc 2327 383d efb6 ebbb
000000b0: 813d 093d 76ed 1cbd e8eb b9bd e2d9 7ebd
000000c0: b383 b9bd ec5b 9fbc c8ee 893d e309 5abd
000000d0: ce88 08bd b76f c6bc 3ba6 2b3d efc9 5a3d
000000e0: 242a 603d e858 f7bc 579c 9bbd 9a43 a6bb
000000f0: 04ec b5bb 8639 c0bd 2c4c eabc f7d1 dc3d
00000100: 1430 bebd 4f0d b6bd d4fc 80bd 8e93 62bd
00000110: ee42 98bd 48f0 d8bc 3f7f 01be d64f babc
00000120: 4988 f4ba 8322 a43d e05e ca3d 4df2 b5bd
00000130: 93f8 e7bc 99fb 8e3d eceb 6cbc 0b4b 6cbc
00000140: 0ebf 30bd 141b d73d aecc c13d 7bdb 153c
00000150: 1729 a43c d585 e03d 78c0 733d 6c49 e0bd
00000160: abd5 eebd 84f1 0a3b 9fbc 9d3d f278 d6bc
00000170: e845 82bb 149a 43bc dfe3 4e3c 755d ac3c
00000180: 7bae 083d 61f2 28bc 9faa 9fbc b71d 8dbc
00000190: 1f36 a33c 93f6 23ba ea8b 11bd 6b36 ec3d
000001a0: 840b 9ebd dc65 93bd 3b5b e2bd 9901 06bd
000001b0: 1a70 0e3c b72b 04bd 4ebe 133d 7fea 1ebd
000001c0: 96fb 523d cc03 36bd b3de 93bd d64d 433d
000001d0: 3bc8 82bd 7608 e7bc 36a7 083d a6fb 8c3d
000001e0: eb6d 71bd 0f35 ebbc d77b c43d 663d 67bd
000001f0: dc34 a5bd f980 3abd b60c e4bd 55b6 143c
00000200: 1f5d 6e3d a1c5 743d c228 123d a9aa 9a3d
00000210: 396c 1d3d d5b1 333d 6d85 89bd e638 443d
00000220: 36d4 963d 828c 2b3d 0eb9 8dbd 6e6c 09bd
00000230: d8e8 82bc 0974 153e 7755 593d 139c a1bd
00000240: 76ae 5e3d ff19 963d 2fa2 b6bd b4d6 f7bc
00000250: 89d9 40bd 5567 7c3d b0cd 80bd 1618 6cbd
00000260: 0a4f 8a3d 001e ad3d b1ab 32bc c06a 943d
00000270: 93af 653c 98a7 b7bc 9eb7 14bd 83f7 733d
00000280: 5b11 393d 6cd7 5fbd 5f36 14bd 22e5 763d
00000290: 3c6a edbc 22ad 0dbd 875b 8ebd 1e6e 1dbb
000002a0: 53b5 8d3d a3e0 e5bd fd2d 073d bfa0 9cbd
000002b0: 6e3e b83d 477e 873b b4c4 17bd a0da 35bc
000002c0: d8d4 ecbc 1a72 603d 49a6 5a3d 9713 2bbd
000002d0: 7dc6 df3d 7239 23bd 42bc 61bc acce 0ebd
000002e0: 87a4 b0bd 844f 183d 2a44 f43c 00be 253d
000002f0: b200 10bd 7e6e 01bd 0d50 853d 35ec ea3c
00000300: 6990 ffbc 383a 543c 4fad 98b7 8ee2 853c
00000310: 6f60 c73d 3cc0 79bd 5c56 9d3d 88c6 963d
00000320: 2ed2 0e3c b5df 46bd c68c a3bd 46ed 36bd
00000330: 09d6 c0bb 3014 b1bc fb38 cabd 3657 b4bb
00000340: ef41 bc3c 0d1d 35bd d274 4cbd cffb f23d
00000350: 0236 97bd 9f2d d8bd 2702 a9bd 930f 9e3d
00000360: 63e5 81ba 7825 0cbd ea97 883d 109c 8fbc
00000370: 1f83 4b3d c446 4a3d 7db2 653d 4145 8ebd
00000380: 4f11 6cbc 104d b6bc 3d23 ab3c e1ba b3bd
00000390: 0ea0 fdbc 7c87 913d 33b3 333d 518e 07be
000003a0: 18c7 b03d acbf 4f3d a14e 8e3b 3c08 623d
000003b0: afad 5ebd 0249 163b 3d3b a4bc 65d1 d0bc
000003c0: f0da d03b 2b20 813d d2c8 76bd e348 5c3c
000003d0: 8d24 aebc 4372 1abd 7d23 ca3c fea0 3f3d
000003e0: 8f69 ea3d 96d1 99bd c104 babd 6b84 68bc
000003f0: 915e 99bd 4b7d 8f3a 9981 1abd f1eb 1cbd

layers.0.phi_att.bias f4 [128]
-0.06583651 0.0050125346 -0.07285413 0.05726974 -0.026152456 0.07262394 -0.03767135 0.06964371
-0.00014642793 -0.062016297 -0.05022535 0.058784906 0.07768961 0.06269178 -0.05814292 0.058162954
-0.09517486 -0.051395368 -0.03135021 0.08444852 0.038542032 0.045384396 -0.03546156 -0.0062150112
-0.030296998 -0.03521055 -0.066501215 -0.035009425 0.051230658 -0.058677536 -0.052514993 -0.07358206
-0.017341265 0.04088701 0.1044737 -0.08198438 0.014380315 -0.04468199 -0.006541656 0.0071881767
-0.04696397 -0.07867871 0.050583474 0.0036142978 0.105179206 0.10893411 -0.09980344 -0.048986327
-0.07397097 -0.01264614 0.076096 -0.10370404 0.07014985 -0.0043839617 -0.047486704 0.06055151
-0.02089804 -0.06672322 0.09729578 0.043646146 -0.07550817 0.02176033 -0.0060606194 -0.07783742
0.020503424 0.056265492 0.0013993758 0.03998024 0.078269444 -0.056275457 -0.11034203 -0.03744485
-0.10831159 -0.04927369 -0.0865931 0.02056237 -0.008244824 0.06258436 -0.08618858 0.045217853
0.048731014 -0.064367205 -0.09943542 -0.008804296 -0.03506757 -0.03428288 -0.01971649 0.05264988
0.07726824 -0.018542375 0.07705367 0.045090295 0.028814333 0.047754884 -0.08735433 -0.038230307
-0.061964322 0.091703996 -0.02948952 0.100473985 0.10623051 -0.028527549 0.028184507 -0.039148834
0.027507247 -0.018309837 -0.025166461 0.0925844 -0.039299857 0.015181926 0.032254994 -0.051287264
-0.023822088 -0.026370706 0.06910673 -0.07328756 -0.08744742 -0.016545525 -0.077088706 -0.024127258
-0.0845896 -0.081950724 -0.03345998 0.040007398 0.03300504 0.078948 0.02692992 0.01742361
00000000: 4bd5 86bd 3040 a43b 8c34 95bd ad93 6a3d
00000010: ad3d d6bc dcbb 943d 464d 1abd 5da1 8e3d
00000020: 738a 19b9 cd04 7ebd 19b9 4dbd 71c8 703d
00000030: bb1b 9f3d 8c64 803d 4527 6ebd 473c 6e3d
00000040: 09eb c2bd f383 52bd 1469 00bd 58f3 ac3d
00000050: 40de 1d3d fde4 393d 2440 11bd 4ba7 cbbb
00000060: 6931 f8bc f038 10bd ca31 88bd 0b66 0fbd
00000070: 3dd7 513d db57 70bd f619 57bd 31b2 96bd
00000080: 450f 8ebc 2379 273d 4ff6 d53d 6de7 a7bd
00000090: 6a9b 6b3c 7604 37bd 635b d6bb cc8a eb3b
000000a0: 4b5d 40bd 4e22 a1bd 9e30 4f3d dbdd 6c3b
000000b0: 3268 d73d d918 df3d bf65 ccbd e3a5 48bd
000000c0: 187e 97bd c131 4fbc 38d8 9b3d c962 d4bd
000000d0: b9aa 8f3d 56a7 8fbb 6b81 42bd dc04 783d
000000e0: 5e32 abbc 2fa6 88bd 0343 c73d 4dc6 323d
000000f0: 07a4 9abd b842 b23c 2998 c6bb 3a69 9fbd
00000100: ccf6 a73c a576 663d 436b b73a 52c2 233d
00000110: bb4b a03d 1881 66bd 01fb e1bd c55f 19bd
00000120: 78d2 ddbd 35d3 49bd b957 b1bd 6a72 a83c
00000130: 4c15 07bc 3b2c 803d a383 b0bd 5b36 393d
00000140: 2c9a 473d f4d2 83bd cca4 cbbd e53f 10bc
00000150: 03a3 0fbd 356c 0cbd 7a84 a1bc 67a7 573d
00000160: d03e 9e3d 2ee6 97bc 51ce 9d3d 9ab0 383d
00000170: 090c ec3c a09a 433d d4e6 b2bd 6297 1cbd
00000180: 4dce 7dbd 4ecf bb3d 0194 f1bc 4ec5 cd3d
00000190: 628f d93d 9bb2 e9bc 32e3 e63c 875a 20bd
000001a0: e156 e13c 83fe 95bc e529 cebc e49c bd3d
000001b0: e3f8 20bd 9dbd 783c d01d 043d 9812 52bd
000001c0: 8a26 c3bc 6107 d8bc d487 8d3d ca17 96bd
000001d0: a217 b3bd 7b8a 87bc afe0 9dbd 87a6 c5bc
000001e0: 503d adbd c8d5 a7bd 550d 09bd ccde 233d
000001f0: 4b30 073d 7daf a13d 239c dc3c f5bb 8e3c

layers.0.W_p.weight f4 [128, 128]
-0.016415976 0.0073156958 0.08866335 0.08123169 0.051812958 0.02190566 -0.055749502 0.04384404
-0.06795715 -0.050712407 -0.068971775 -0.08787458 -0.0438989 -0.04062936 -0.05289806 0.008672833
0.04740586 0.066428326 0.01530105 0.0039523104 -0.021636723 0.01981005 0.05989373 -0.028484466
0.085835725 -0.013760416 0.032820925 0.071104415 0.023557391 0.014405246 0.070402324 0.043781307
-0.072535716 -0.05242673 0.08038823 0.0031747238 0.04334857 -0.006958837 -0.04724075 0.004421002
0.08227096 -0.07409921 0.058335543 -0.029806819 0.034911167 0.009484286 0.04301966 0.06648844
-0.044759516 -0.04035094 0.054425865 0.023916682 -0.04129455 0.0027519152 -0.02602375 0.02557232
-0.079707265 0.004986164 0.027404053 0.064142704 0.0066908957 -0.077041194 0.05770007 0.02651192
0.027950706 -0.07967755 -0.041668326 0.03033635 -0.04346899 0.07327592 0.10795981 -0.062525705
-0.027677862 -0.06434889 -0.018443268 -0.07628016 0.063347064 0.08372555 0.0045935134 0.04379511
-0.023118656 -0.013649079 -0.05037241 -0.010151026 0.00030888242 0.04151895 0.043687228 -0.06195257
-0.07339175 -0.070364244 -0.029483078 0.064275555 0.10189799 -0.062125415 -0.0067174397 -0.07212372
-0.06622736 0.020969111 -0.10206143 -0.013525155 0.06979811 0.08106277 -0.08464739 0.05410318
-0.00083920907 -0.016343372 -0.01332908 -0.0660574 0.025211798 -0.05863559 0.03780811 -0.05909191
0.024056135 0.07364249 -0.016683817 0.064229995 0.06536427 0.038485333 -0.057158653 -0.047909282
-0.011907178 -0.06415623 -0.022930203 0.04982732 -0.011685037 -0.031132342 0.04092904 0.06722655
0.030512504 -0.007985255 0.020667484 -0.05915462 0.056231037 0.069470875 0.019684788 0.06701043
0.06118335 -0.10777281 -0.0029291385 -0.0016451309 -0.07313147 0.06742125 -0.07617302 0.0027214321
0.07519027 -0.0558364 -0.07925569 -0.06478703 -0.062674075 -0.053604245 -0.08456068 -0.030434486
-0.08848699 -0.04449173 0.022813307 0.00062040414 -0.09570775 -0.045649074 -0.0420589 -0.055258177
-0.020393904 -0.099109285 0.034019552 -0.047270566 0.07486544 0.02360732 0.08418605 -0.0639415
0.019826364 -0.011179632 -0.04086038 0.040983286 0.0546794 -0.09459411 0.066567406 0.0601677
-0.06585772 0.06551017 0.067142464 -0.08022718 0.005809757 -0.0001756727 0.011108919 0.000907542
-0.06591274 -0.042476468 0.017583085 -0.019737989 -0.07064631 -0.023057563 0.08087425 0.0333893
0.08764154 0.04815747 -0.023776125 0.007370242 0.08359843 -0.04115332 -0.01942364 -0.014711747
-0.0029001539 -0.094919465 -0.06929287 0.08243247 0.0103873685 0.015595989 -0.036046136 -0.08019361
0.044611957 0.06972509 0.06303036 0.050240636 0.101059794 -0.0048409537 -0.014689259 0.05741775
0.014400907 0.09114555 -0.023403937 -0.04656617 0.062369425 0.04141098 0.053365126 -0.075904384
0.013251962 -0.078868195 0.018614508 -0.07564099 0.07410737 -0.06561455 0.053510066 -0.07619438
-0.07042398 0.061703082 0.07013886 -0.008323641 -0.06600428 0.0462748 0.08910132 -0.082362466
-0.043553036 -0.0063464125 0.061134964 -0.023629356 0.09381488 -0.016053846 -0.040306725 -0.010855713
-0.031501796 0.00056342693 -0.06566863 0.079268076 -0.031155236 0.021220837 0.015437805 0.046149872
00000000: cc7a 86bc 81b8 ef3b 2195 b53d cd5c a63d
00000010: d339 543d 8073 b33c 9759 64bd cf95 333d
00000020: 1e2d 8bbd d0b7 4fbd 1341 8dbd 96f7 b3bd
00000030: 55cf 33bd f96a 26bd a3ab 58bd 8018 0e3c
00000040: a62c 423d 930b 883d 41b1 7a3c 6282 813b
00000050: 7f3f b1bc b048 a23c 2153 753d 4158 e9bc
00000060: a4ca af3d 5e73 61bc 3c6f 063d 319f 913d
00000070: 6efb c03c fb03 6c3c 182f 903d 0754 333d
00000080: 9b8d 94bd 69bd 56bd 96a2 a43d 070f 503b
00000090: 458e 313d f506 e4bb 847f 41bd 0ede 903b
000000a0: ad7d a83d 54c1 97bd 40f1 6e3d 6e2d f4bc
000000b0: 03ff 0e3d fb63 1b3c 6235 303d 172b 883d
000000c0: c155 37bd 0747 25bd a8ed 5e3d ebec c33c
000000d0: 7924 29bd 7a59 343b c22f d5bc 0b7d d13c
000000e0: 903d a3bd fa62 a33b 777e e03c 405d 833d
000000f0: 4d3f db3b c6c7 9dbd e956 6c3d 872f d93c
00000100: e1f8 e43c fc2d a3bd 68ac 2abd f083 f83c
00000110: 8a0c 32bd af11 963d 081a dd3d 7a0d 80bd
00000120: afbc e2bc 5ac9 83bd 5616 97bc c638 9cbd
00000130: 1bbc 813d 4d78 ab3d 2f85 963b 8062 333d
00000140: 5663 bdbc 63a0 5fbc 4d53 4ebd 7d50 26bc
00000150: 7ff1 a139 c60f 2a3d 61f1 323d fac1 7dbd
00000160: 6a4e 96bd 211b 90bd 7f86 f1bc e7a2 833d
00000170: e5af d03d 3877 7ebd f81d dcbb 9ab5 93bd
00000180: 36a2 87bd 6ac7 ab3c 9505 d1bd 9d98 5dbc
00000190: 50f2 8e3d 3d04 a63d 9c5b adbd 4c9b 5d3d
000001a0: 5efe 5bba 89e2 85bc 3762 5abc 1a49 87bd
000001b0: f988 ce3c df2b 70bd addc 1a3d 5c0a 72bd
000001c0: 5f11 c53c e0d1 963d 80ac 88bc 048b 833d
000001d0: b4dd 853d cca2 1d3d 311f 6abd 863c 44bd
000001e0: 5316 43bc 5764 83bd 1fd8 bbbc bb17 4c3d
000001f0: 9972 3fbc 4109 ffbc 36a5 273d 13ae 893d
00000200: 5cf5 f93c 96d4 02bc db4e a93c 1d4c 72bd
00000210: 8452 663d bf46 8e3d fe41 a13c c43c 893d
00000220: 649b 7a3d feb7 dcbd caf6 3fbb 6fa1 d7ba
00000230: f4c5 95bd 2714 8a3d 9a00 9cbd 0e5a 323b
00000240: 5bfd 993d b5b4 64bd cf50 a2bd 10af 84bd
00000250: 445b 80bd 2090 5bbd 262e adbd be51 f9bc
00000260: ab38 b5bd f63c 36bd f9e2 ba3c 9ea2 223a
00000270: 6d02 c4bd 86fa 3abd f445 2cbd 6656 62bd
00000280: 1e11 a7bc cff9 cabd 1658 0b3d c89e 41bd
00000290: 0d53 993d 2364 c13c bc69 ac3d c3f3 82bd
000002a0: e66a a23c c62a 37bc 375d 27bd 17de 273d
000002b0: 82f7 5f3d 8fba c1bd 7e54 883d 6872 763d
000002c0: 6ae0 86bd 322a 863d fd81 893d 264e a4bd
000002d0: c65f be3b c834 38b9 2f02 363c 1de8 6d3a
000002e0: 42fd 86bd cefb 2dbd 670a 903c 90b1 a1bc
000002f0: 03af 90bd 37e3 bcbc 66a1 a53d 38c3 083d
00000300: 687d b33d c440 453d 26c6 c2bc 1282 f13b
00000310: a735 ab3d 6290 28bd 531e 9fbc 8a09 71bc
00000320: 8210 3ebb 2365 c2bd 6ce9 8dbd 5bd2 a83d
00000330: c82f 2a3c 5286 7f3c 1da5 13bd 8c3c a4bd
00000340: 07bb 363d 07cc 8e3d 1016 813d 20c9 4d3d
00000350: 70f8 ce3d dda0 9ebb 38ab 70bc e02e 6b3d
00000360: c8f1 6b3c 85aa ba3d 9db9 bfbc 2bbc 3ebd
00000370: 1577 7f3d 8f9e 293d 6495 5a3d c273 9bbd
00000380: c21e 593c a685 a1bd 747d 983c aae9 9abd
00000390: 9bc5 973d ec60 86bd 5f2d 5b3d cd0b 9cbd
000003a0: 733a 90bd 5fbc 7c3d f6a4 8f3d e15f 08bc
000003b0: 402d 87bd a58a 3d3d c17a b63d a7ad a8bd
000003c0: ab64 32bd 91f5 cfbb a868 7a3d 5a92 c1bc
000003d0: 0422 c03d 5b83 83bc aa18 25bd 29dc 31bc
000003e0: 0708 01bd f1b2 133a 467d 86bd 4d57 a23d
000003f0: 4439 ffbc 52d7 ad3c d9ee 7c3c a607 3d3d

layers.0.W_p_prime.weight f4 [128, 128]
0.06437961 -0.09340262 -0.047471363 0.08352908 -0.044279937 0.06561428 0.07042344 -0.05236021
0.0071247946 -0.108817674 -0.013973238 -0.05312485 -0.067087084 -0.05805307 0.055387806 0.04238411
0.043353125 0.043547448 0.00786499 -0.025211588 0.033842612 0.078976445 0.044508114 0.057422157
0.08661012 -0.037144147 -0.08603033 -0.015164977 0.05039808 0.055631857 -0.025029046 -0.07526362
0.012005908 -0.054111246 -0.017892255 0.041891757 0.07136566 0.056615 0.042947724 0.0696415
-0.08758493 0.05742698 -0.039841432 0.02700463 0.05355357 -0.06586449 0.0068644234 0.074770056
0.031915594 -0.025951099 -0.004394894 0.075818 -0.06104612 -0.022088684 -0.048078865 -0.04693526
-0.037630405 -0.06939085 -0.020824876 -0.023473104 -0.079530746 0.05564547 -0.02386015 -0.022784337
-0.065088816 -0.053250074 0.00642776 -0.055215284 -0.065981954 0.043223944 -0.049185038 -0.047310296
-0.025882661 -0.07625167 0.038664617 -0.032221586 0.07058357 -0.046600737 0.037263986 0.055063147
0.04510763 0.046050955 -0.09058832 -0.06843787 0.014248581 0.07204271 0.0024199032 0.01586859
-0.012586835 0.05442153 -0.015367239 -0.050249547 0.052821457 0.017580107 -0.06258486 0.031306297
0.07628714 -0.044469547 -0.041689903 -0.07141506 0.021151772 0.054871887 0.052729744 -0.0659828
0.013573136 -0.06873274 0.088068895 0.07133889 -0.06762295 0.08350623 0.09458733 -0.06828966
0.09838448 0.009704508 -0.067656375 -0.04261049 0.041579846 0.10974597 -0.08647901 0.009268266
0.049515206 0.065311134 0.0411504 -0.004367725 0.08612661 0.015428531 -0.02895303 0.09479004
-0.07022722 -0.038158685 -0.056417592 0.0735786 -0.008787735 -0.07713325 0.029907513 -0.06982094
0.04538415 0.07158945 0.0048878724 -0.041933298 0.01104187 -0.06923349 -0.020165626 -0.06946196
0.04518477 0.027843276 -0.0061021545 -0.08918645 -0.03822158 -0.06402814 0.0022088117 -0.08592823
0.041056175 -0.004547364 0.08262176 0.016103704 -0.046997737 -0.08572643 -0.051961485 -0.11166869
-0.022857921 -0.05588093 0.049218364 -0.0072770794 -0.03798115 0.11483329 -0.023366226 -0.06124877
-0.0098428475 -0.06071971 -0.003005633 -0.07036967 0.023788678 -0.013674166 -0.12070323 0.04472931
-0.063350804 -0.043305982 -0.041338354 -0.04222885 0.010871385 -0.064028315 -0.038720462 0.014012848
-0.00905227 0.08538845 -0.032845736 0.06979322 -0.05216683 0.04374245 -0.028403861 -0.08584602
0.06901247 -0.010476045 -0.07336907 0.05462734 0.0936886 -0.00088345 0.069608025 0.026999813
0.0112006245 -0.0022307914 -0.057866473 -0.09642779 0.021075824 0.07117362 0.07358487 0.0021667944
0.07711737 -0.020933999 0.08466125 0.029555295 -0.04351677 0.10435572 -0.07010121 -0.01262924
-0.027928118 0.021476539 -0.054639403 0.028657716 0.017556084 0.065815404 -0.06742504 -0.04356629
-0.00413318 0.052215245 0.0013675145 -0.028940141 -0.04411613 0.033639703 0.053589426 0.035650957
-0.00042324944 0.065936625 -0.043163817 -0.07180911 -0.050804805 -0.017229987 0.023800423 0.11340613
-0.042230256 -0.010084712 0.053073414 -0.05372335 -0.053262927 0.04010023 0.08096831 0.011838966
0.06407273 -0.05854385 0.031699207 0.08748548 0.017981973 0.018511502 0.01861223 -0.018517952
00000000: 75d9 833d df49 bfbd 5571 42bd 4b11 ab3d
00000010: e15e 35bd c860 863d 2a3a 903d a977 56bd
00000020: 1c77 e93b cddb debd 02f0 64bc 7199 59bd
00000030: f464 89bd 0ec9 6dbd 53de 623d f69a 2d3d
00000040: 0c93 313d cf5e 323d 29dc 003c 8888 cebc
00000050: 8d9e 0a3d 67be a13d 244e 363d 7f33 6b3d
00000060: a660 b13d 7624 18bd ab30 b0bd 8676 78bc
00000070: 386e 4e3d 3bde 633d b709 cdbc d023 9abd
00000080: 6eb4 443c c1a3 5dbd c792 92bc b196 2b3d
00000090: 2928 923d 21e5 673d f4e9 2f3d 34a0 8e3d
000000a0: ba5f b3bd 8e38 6b3d c530 23bd d038 dd3c
000000b0: fd5a 5b3d f6e3 86bd f5ee e03b 0b21 993d
000000c0: edb9 023d 6697 d4bc 0b03 90bb 7846 9b3d
000000d0: 7f0b 7abd 54f3 b4bc 58ee 44bd 303f 40bd
000000e0: 5722 1abd ca1c 8ebd ee98 aabc ab4a c0bc
000000f0: 04e1 a2bd 81ec 633d 5c76 c3bc 38a6 babc
00000100: 494d 85bd c01c 5abd f59f d23b 6c29 62bd
00000110: 8c21 87bd 970b 313d 4076 49bd 71c8 41bd
00000120: e007 d4bc d629 9cbd ca5e 1e3d c8fa 03bd
00000130: 1e8e 903d 6ae0 3ebd 1fa2 183d e589 613d
00000140: c7c2 383d ed9f 3c3d 5e86 b9bd 2729 8cbd
00000150: e172 693c 218b 933d 3d97 1e3b d8fe 813c
00000160: 0339 4ebc 1ce9 5e3d dfc6 7bbc 78d2 4dbd
00000170: 505b 583d 2804 903c 7e2c 80bd 083b 003d
00000180: 6f3c 9c3d b325 36bd 08c3 2abd 0f42 92bd
00000190: 7b46 ad3c 58c1 603d 25fb 573d fe21 87bd
000001a0: dc61 5e3c c0c3 8cbd 775d b43d 201a 923d
000001b0: e77d 8abd 5005 ab3d 01b7 c13d 73db 8bbd
000001c0: cd7d c93d a8ff 1e3c 6d8f 8abd 5688 2ebd
000001d0: a14f 2a3d 7fc2 e03d e81b b1bd edd9 173c
000001e0: 75d0 4a3d d8c1 853d 528d 283d 221f 8fbb
000001f0: 2663 b03d f3c7 7c3c e82e edbc 4821 c23d
00000200: 4ad3 8fbd 484c 1cbd 2216 67bd 61b0 963d
00000210: 6ffa 0fbc 0af8 9dbd 9a00 f53c 48fe 8ebd
00000220: bbe4 393d 7d9d 923d 722a a03b 40c2 2bbd
00000230: f6e8 343c 4aca 8dbd 6232 a5bc 1242 8ebd
00000240: aa13 393d 9517 e43c 95f4 c7bb 63a7 b6bd
00000250: 3b8e 1cbd 2f21 83bd b6c1 103b 24fb afbd
00000260: 852a 283d 0e02 95bb 9935 a93d eaeb 833c
00000270: b380 40bd 5791 afbd 91d5 54bd 8eb2 e4bd
00000280: 8940 bbbc 67e3 64bd 3299 493d 9174 eebb
00000290: 1f92 1bbd b72d eb3d 876a bfbc fedf 7abd
000002a0: e543 21bc 3bb5 78bd 27fa 44bb f91d 90bd
000002b0: 79e0 c23c 9c09 60bc 4133 f7bd 1536 373d
000002c0: 11be 81bd 9d61 31bd 6852 29bd 29f8 2cbd
000002d0: e51d 323c 4721 83bd 5999 1ebd 2596 653c
000002e0: f94f 14bc 24e0 ae3d 4089 06bd bfef 8e3d
000002f0: e3ac 55bd 492b 333d 37af e8bc 0ad0 afbd
00000300: 6956 8d3d b8a3 2bbc 8642 96bd ebc0 5f3d
00000310: cfdf bf3d 5397 67ba a78e 8e3d b62e dd3c
00000320: d382 373c 7832 12bb 6505 6dbd ef7b c5bd
00000330: 35a7 ac3c 7ac3 913d aab3 963d c700 0e3b
00000340: b6ef 9d3d c77d abbc e162 ad3d f21d f23c
00000350: a43e 32bd 74b8 d53d 3991 8fbd dfea 4ebc
00000360: 82c9 e4bc 91ef af3c 91cd 5fbd 96c3 ea3c
00000370: c7d1 8f3c 3aca 863d 2416 8abd 9172 32bd
00000380: a06f 87bb a7df 553d 2c3e b33a e013 edbc
00000390: 1db3 34bd c9c9 093d 9680 5b3d bd06 123d
000003a0: 94e7 ddb9 c809 873d 8bcc 30bd a810 93bd
000003b0: b318 50bd e725 8dbc 1bf9 c23c 7941 e83d
000003c0: a2f9 2cbd 593a 25bc 8263 593d 040d 5cbd
000003d0: 3a2a 5abd 2440 243d b7d2 a53d 39f8 413c
000003e0: 9038 833d adcb 6fbd 07d7 013d 962b b33d
000003f0: ee4e 933c 6fa5 973c ad78 983c f6b2 97bc

layers.0.f_def.weight f4 [1, 128]
0.04177494 0.093110524 -0.026618944 0.07069827 0.034832317 0.14885591 -0.011256335 -0.021605197
-0.07424416 -0.10363775 0.1117505 0.032461368 0.014192209 0.09050352 0.034853265 -0.014891433
0.022885593 -0.053506646 -0.0755923 -0.031736255 -0.055855498 0.055582352 -0.015650135 -0.06821265
0.029143222 -0.066381365 0.07329987 -0.015332464 0.025068475 0.01707052 -0.06667813 0.0028267454
0.022485975 0.044195395 -0.12830113 -0.054138366 -0.03190696 0.029145172 0.097995155 0.017952321
0.06784435 0.06407253 -0.035003662 -0.004263582 0.0762568 -0.030744141 -0.032418985 0.15165395
-0.0651153 -0.0789681 0.015391408 0.07899074 0.047512587 -0.08409919 0.06939236 0.022612171
-0.010769304 -0.08335919 0.10667628 -0.0004846104 0.013702475 0.03705242 -0.1192488 0.038544465
-0.033114 0.023181621 0.07036495 0.08599762 -0.09194253 0.10799139 -0.01633052 0.092690974
0.032582797 -0.021798862 -0.01901385 0.13449124 0.10804193 0.11674733 0.15827058 -0.032212224
-0.080283545 0.09061796 -0.050524488 0.07409095 -0.09635505 0.08102008 0.094245814 -0.0061243814
0.05002267 0.004194141 0.12392333 0.034722127 0.025889156 -0.122030824 0.015571357 0.028071428
0.008138275 -0.108884044 -0.09545468 0.007192572 0.06455249 0.03615068 0.058467682 -0.043555573
-0.10194771 -0.028033419 -0.05472132 -0.07083865 0.043812398 -0.068026625 -0.05878013 -0.14103964
0.015011455 -0.11884623 0.033572733 0.0037417652 0.001465012 0.02478719 -0.1944754 -0.09162649
-0.06407231 -0.11538962 -0.08195077 0.114694364 -0.07143718 -0.014215945 -0.13712013 0.10124479
00000000: 331c 2b3d bbb0 be3d f90f dabc 41ca 903d
00000010: 55ac 0e3d af6d 183e 7e6c 38bc 62fd b0bc
00000020: 520d 98bd 0740 d4bd 72dd e43d 36f6 043d
00000030: 7086 683c e959 b93d 4cc2 0e3d 32fb 73bc
00000040: 917a bb3c c929 5bbd 23d0 9abd e0fd 01bd
00000050: bcc8 64bd 52aa 633d b634 80bc 13b3 8bbd
00000060: c4bd ee3c f4f2 87bd 3e1e 963d 0435 7bbc
00000070: 675c cd3c 7ad7 8b3c 8b8e 88bd eb40 393b
00000080: 8234 b83c 3b06 353d 5f61 03be 31c0 5dbd
00000090: dfb0 02bd dbc1 ee3c afb1 c83d bf10 933c
000000a0: fbf1 8a3d 7538 833d 0060 0fbd 85b5 8bbb
000000b0: 862c 9c3d 23db fbbc c5c9 04bd 2c4b 1b3e
000000c0: 2c5b 85bd 07ba a1bd 3e2c 7c3c e6c5 a13d
000000d0: 8f9c 423d 323c acbd 951d 8e3d 293d b93c
000000e0: bc71 30bc 39b8 aabd 1879 da3d 4f13 feb9
000000f0: 5880 603c 47c4 173d b738 f4bd cde0 1d3d
00000100: 8ca2 07bd 62e7 bd3c 801b 903d 851f b03d
00000110: 5d4c bcbd 972a dd3d 95c7 85bc c4d4 bd3d
00000120: 8a75 053d 8793 b2bc efc2 9bbc 12b8 093e
00000130: 1645 dd3d 3919 ef3d af11 223e f7f0 03bd
00000140: b36b a4bd e995 b93d c4f2 4ebd ffbc 973d
00000150: cc55 c5bd dbed a53d f303 c13d 09af c8bb
00000160: 92e4 4c3d 016f 893b 84cb fd3d ca38 0e3d
00000170: 7f15 d43c 4ceb f9bd 011f 7f3c 0df6 e53c
00000180: 6656 053c 99fe debd be7d c3bd abaf eb3b
00000190: 1934 843d bc12 143d cf7b 6f3d 5467 32bd
000001a0: f6c9 d0bd 57a6 e5bc 7623 60bd db13 91bd
000001b0: a174 333d 8b51 8bbd 6fc3 70bd b26c 10be
000001c0: 9bf2 753c a765 f3bd 9083 093d 6738 753b
000001d0: a505 c03a 810e cb3c 8f24 47be aba6 bbbd
000001e0: 5838 83bd 6551 ecbd ced5 a7bd e1e4 ea3d
000001f0: a84d 92bd ffe9 68bc 3869 0cbe 6e59 cf3d

layers.0.W_self.weight f4 [128, 128]
0.02349057 0.034392323 0.053579386 -0.048969146 -0.03549194 0.025616042 0.05135166 -0.06398701
-0.030205566 -0.044297557 0.05922813 -0.06415782 -0.07635407 0.010774226 0.058968004 0.07003614
0.00912606 0.050679136 -0.020062117 -0.08172922 -0.07789428 0.07260705 0.011200556 0.03409005
0.022736154 -0.017197628 0.04416921 -0.080944225 -0.0025609455 -0.06110282 -0.055728164 0.047621172
0.09349242 0.033475 -0.07188497 -0.004314197 0.10432864 0.070915334 -0.042814936 -0.020585358
-0.07072331 0.07868581 0.0047183707 0.07339635 0.014994582 -0.09805768 -0.005051909 -0.06376259
-0.04766298 -0.11289455 -0.017942159 0.08821064 -0.03881232 0.101371504 0.028439395 -0.015030271
0.02744107 -0.048380364 0.09983385 -0.06378154 -0.005677735 -0.047535695 0.039209243 0.002263651
0.050209627 0.010297963 -0.05817682 -0.013895942 0.0813229 0.06745802 -0.036069967 0.019923005
-0.015236424 0.012563048 0.0026263585 0.014002215 -0.037231136 0.05203041 0.086511075 -0.0938674
-0.022418974 0.040176973 0.010931409 -0.077857375 -0.016537253 0.019493671 0.08102238 0.038329933
0.08158842 0.0798354 -0.029224692 -0.038875885 -0.057574652 0.03600277 0.033336315 0.02393343
-0.08100605 -0.07206096 0.08363308 0.0069617773 0.08446985 0.040079914 0.007289474 -0.06839365
0.05937159 0.031549618 0.04717045 -0.04101324 0.047313757 -0.025248189 0.04979558 0.047130495
0.086334296 -0.06947678 -0.044941578 -0.03402371 -0.08270166 -0.013379855 0.021423485 0.0071938736
-0.039797913 0.033404596 0.064421915 -0.076456465 -0.050661705 0.01923983 -0.011938606 -0.05063233
-0.031317007 0.048760027 -0.061714247 0.050595477 0.029006688 -0.051549327 0.055568516 -0.054901253
-0.014920626 0.059859216 0.044535466 0.028033197 0.07899156 0.1416622 -0.07063401 0.004785405
-0.025025036 0.015338569 -0.062301576 0.06464904 -0.038628865 0.066862166 0.063387915 -0.027875131
0.02196755 0.10488361 0.079478525 0.025748152 0.020626133 0.047248203 -0.05340374 0.017155211
0.025025962 -0.058338255 -0.0023773029 0.009248029 -0.071835846 0.014134679 -0.041119106 0.038253244
-0.004329481 -0.05177259 -0.08833799 0.07554357 0.06532721 0.052623093 -0.0037893457 0.03109203
-0.067444056 -0.050633777 -0.0026466977 0.023462556 -0.021331547 0.00054197485 0.032572564 0.04566953
0.053147733 -0.06686761 -0.026174879 0.04489408 -0.03989505 0.0851003 0.004470104 0.038144946
0.028163368 0.10030121 -0.008518506 0.07003001 0.009077198 -0.08032627 0.077699125 0.0717953
-0.010065361 -0.052895132 0.064448886 -0.044056367 -0.039548602 -0.08207277 -0.05842367 0.029023273
0.008827146 -0.075815275 0.010214066 0.06190234 -0.08947545 -0.0005455548 -0.03148752 0.07393804
-0.058304667 -0.013277814 -0.059295252 -0.07186268 -0.042906668 0.014689616 0.039498862 -0.06645091
-0.078372 -0.037580106 0.009570551 -0.053826213 -0.039089072 0.06090132 0.006334911 0.019761
0.041435063 -0.069476515 -0.025517484 0.08029964 -0.050731454 -0.068262815 -0.024408719 -0.030180665
-0.07421436 0.053162336 -0.012453653 0.074690446 -0.057862274 0.09936967 0.04748164 0.0056865853
-0.024666652 -0.040486522 0.04467106 0.07699415 0.02907876 -0.016967071 0.036908835 -0.03831261
00000000: 4c6f c03c f7de 0c3d 0f76 5b3d df93 48bd
00000010: ff5f 11bd bcd8 d13c 1e56 523d 9f0b 83bd
00000020: aa71 f7bc 5b71 35bd 3299 723d 2d65 83bd
00000030: 865f 9cbd 6186 303c 6f88 713d 1c6f 8f3d
00000040: 7885 153c ed94 4f3d 4f59 a4bc a661 a7bd
00000050: 0987 9fbd 01b3 943d 8982 373c 02a2 0b3d
00000060: 2c41 ba3c 0ae2 8cbc c6ea 343d 16c6 a5bd
00000070: 89d5 27bb f346 7abd 3743 64bd 6b0e 433d
00000080: f478 bf3d 151d 093d 6d38 93bd 1c5e 8dbb
00000090: 41aa d53d 0f3c 913d b75e 2fbd a0a2 a8bc
000000a0: 62d7 90bd 0726 a13d 909c 9a3b d350 963d
000000b0: d6ab 753c 77d2 c8bd 7c8a a5bb f695 82bd
000000c0: 423a 43bd 4235 e7bd 6ffb 92bc c8a7 b43d
000000d0: abf9 1ebd dd9b cf3d bcf9 e83c 8741 76bc
000000e0: 18cc e03c 7d2a 46bd b175 cc3d e59f 82bd
000000f0: 4b0c babb cab4 42bd df99 203d c359 143b
00000100: 9ca8 4d3d cab8 283c d14a 6ebd ceab 63bc
00000110: 9f8c a63d 6e27 8a3d 1abe 13bd 9235 a33c
00000120: 32a2 79bc 3ed5 4d3c fc1e 2c3b 8c69 653c
00000130: ad7f 18bd d71d 553d b82c b13d 8d3d c0bd
00000140: ffa7 b7bc 9c90 243d a719 333c b073 9fbd
00000150: 2279 87bc 31b1 9f3c 10ef a53d d9ff 1c3d
00000160: d417 a73d be80 a33d 9f68 efbc 523c 1fbd
00000170: 66d3 6bbd a477 133d a98b 083d 0a10 c43c
00000180: 80e6 a5bd b294 93bd d247 ab3d 9f1f e43b
00000190: 87fe ac3d d62a 243d 8adc ee3b f811 8cbd
000001a0: a02f 733d 2c3a 013d cd35 413d 80fd 27bd
000001b0: 12cc 413d 4ad5 cebc 73f6 4b3d e80b 413d
000001c0: 09d0 b03d d849 8ebd a914 38bd 725c 0bbd
000001d0: 7d5f a9bd 2e37 5bbc 4e80 af3c 96ba eb3b
000001e0: 2303 23bd 42d3 083d a3ef 833d 3595 9cbd
000001f0: a682 4fbd d99c 9d3c 259a 43bc d963 4fbd
00000200: 4346 00bd 98b8 473d 14c8 7cbd 343d 4f3d
00000210: 6f9f ed3c 6325 53bd d09b 633d 23e0 60bd
00000220: a475 74bc f02e 753d d26a 363d e0a5 e53c
00000230: 54c6 a13d e50f 113e 90a8 90bd e3ce 9c3b
00000240: 4e01 cdbc 9f4e 7b3c f02f 7fbd b766 843d
00000250: 4d39 1ebd 08ef 883d 86d1 813d 635a e4bc
00000260: 4bf5 b33c 38cd d63d a3c5 a23d caed d23c
00000270: 23f8 a83c 5587 413d e1bd 5abd 1689 8c3c
00000280: 3f03 cd3c 18f4 6ebd 86cc 1bbb 0c85 173c
00000290: ac1e 93bd 2495 673c 826c 28bd 6faf 1c3d
000002a0: 52de 8dbb 7f0f 54bd 8cea b4bd 96b6 9a3d
000002b0: 46ca 853d 508b 573d ac56 78bb b7b4 fe3c
000002c0: 1c20 8abd 5d65 4fbd 3874 2dbb 8c34 c03c
000002d0: 7fbf aebc 5113 0e3a cf6a 053d f90f 3b3d
000002e0: 70b1 593d e3f1 88bd b36c d6bc dbe2 373d
000002f0: fe68 23bd 1149 ae3d f379 923b e03d 1c3d
00000300: ddb6 e63c b96a cd3d 3491 0bbc e56b 8f3d
00000310: 87b8 143c 1982 a4bd b820 9f3d 6a09 933d
00000320: 2fe9 24bc 91a8 58bd c7fd 833d 7374 34bd
00000330: b7fd 21bd c515 a8bd a84d 6fbd 37c2 ed3c
00000340: bc9f 103c 0a45 9bbd e658 273c 4f8d 7d3d
00000350: e83e b7bd 9003 0fba 0ff9 00bd d46c 973d
00000360: e0d0 6ebd 308b 59bc 94df 72bd be2c 93bd
00000370: e7be 2fbd b7ac 703c 8fc9 213d 6a17 88bd
00000380: 8081 a0bd 99ed 19bd cdcd 1c3c e078 5cbd
00000390: dd1b 20bd aa73 793d 1695 cf3b d2e1 a13c
000003a0: d0b7 293d b449 8ebd 0b0a d1bc 2374 a43d
000003b0: c9cb 4fbd 60cd 8bbd cbf4 c7bc 713d f7bc
000003c0: b3fd 97bd c0c0 593d 680a 4cbc 4ef7 983d
000003d0: fe00 6dbd 5382 cb3d 1c7c 423d 8956 ba3b
000003e0: b811 cabc 32d5 25bd 00f9 363d 1caf 9d3d
000003f0: 9436 ee3c 87fe 8abc b82d 173d afed 1cbd
