checkpoints/rank_sweep/refined_lambda_1.pth (torch, 888905 bytes, 36 tensors)

input_norm.weight f4 [7]
00000000: ef2f 793f 0a87 5e3f 948c 6d3f d032 7a3f
00000010: 9054 743f f745 843f 35da 853f
0.97338766 0.86924803 0.9279263 0.97733784 0.9544153 1.0333852 1.0457217

input_norm.bias f4 [7]
00000000: 6d26 003d 0d7b 88bd 278b 2c3c 9dac 753c
00000010: a0be adbc 8061 c83b 30b5 35bc
0.031286646 -0.06664095 0.010531223 0.0149947675 -0.021209061 0.0061151385 -0.011090562

layers.0.embed.weight f4 [128, 7]
00000000: d524 a9bc 143b bdba ba0a 1fbe e339 a6be
00000010: 780c 9ebe da6c 9dbe 4983 bbbd e2af 87be
00000020: 5b76 aabe fbdf e3bd f724 e33d e659 49be
00000030: d0a2 be3e de94 a0be f235 b7bd c27f 21be
00000040: ce0e 703e 3195 d93b bb29 3a3e 79d0 c33e
00000050: 6976 79bb b017 ab3e 8f9e 3a3e bd9f 55be
00000060: d9fc fabd 0df7 983d 4f2a c3be 818e 973e
00000070: 5ea7 75be 2488 d4bd 9bc5 52be fe6c f0bc
00000080: 61c9 623e 8996 ad3e 8679 3e3e 699a 963e
00000090: 1d3a 913d 6133 0c3e 26e4 2f3e cf4c 9d3e
000000a0: 7bc5 073e 78f4 9d3c 3e4f 1dbe 4bf8 b8bd
000000b0: 1ffe 653e 209c b5be 258b 643e 9b89 3abd
000000c0: 7322 10be cd10 3a3d d0c2 03bd 8191 bb3e
000000d0: a93f aa3d 3bcf 65bd 67b4 2dbe b7e7 883e
000000e0: 26cd 993e 5402 ec3d e44d 9fbe 71ba 723e
000000f0: b8dc 993e 29ca 0e3e b29b 8b3e b926 9b3e
00000100: 69e6 d33c 2d5f 11be 1b39 d73d a24d c6bd
00000110: 223b a8be d00c ae3e 0975 5f3c 1582 7cbe
00000120: 5eee a83e ef28 89bc 4f8a 273e ca98 f43d
00000130: 5db5 bb3e d003 16be 8fcb 3ebc 3b28 96be
00000140: 12c9 5d3e bc30 873e 831f 563c f80c bebe
00000150: 1561 2d3e 59de 263e 6183 ee3d 5dc3 bfbd
00000160: 5ead c4bd 4ac0 d7bd 174b 2ebe 4273 c13d
00000170: ed4f 883e e6e5 44be 9ce9 933e f437 9d3d
00000180: eff9 d8be d58a 223e a15c 9e3e 3150 953e
00000190: 4669 a3be cccc 6d3e 75bf 9cbd 6e4a 7e3e
000001a0: 9e5a 843e 9886 43be 268b 173d ca92 3e3e
000001b0: f5e6 6bbd 9a5a 593e dc8f 353e fbb2 8ebe
000001c0: 224d 01be 681b adbe 1bab c8bd 69dd 0abd
000001d0: 6e05 eebd 63c8 a53d 7bfb 81be f9a6 1fbe
000001e0: 61be 0d3e 2cbf a2be 6fb8 ddbd 92a4 8e3d
000001f0: 7f55 133e 8776 bebe c329 463e 106a 1dbd
00000200: ffff f5bd 0afe 213d eb50 69be eded dabd
00000210: 1831 6f3e f743 b0be b945 8dbd c676 a4be
00000220: fbd3 8fbe 1c54 81be c2b1 af3e 60b0 77be
00000230: 4a4f 643e 4ba6 1c3e 7f94 ee3d 2091 643e
00000240: 7554 36be f79f 95be 2963 363d f9f7 103e
00000250: d2cb a63d a66b 9e3e e020 db3d 8e98 aebd
00000260: 7fbf 143e 0b31 283e 0e64 873d f138 613e
00000270: d8fa 78be dbcd c9bd 8a7f 01be fe24 34bd
00000280: e8e2 a9be 50f4 04be 1449 a03e a951 69be
00000290: e7c3 d53d c417 babc 1c3f 94be 6d98 a63d
000002a0: 326e c7be 32be 8cbe 6e4f b23e d504 643e
000002b0: 6dca 93be 7b33 b0bd 3d35 31be 06f8 0abe
000002c0: 7573 1f3e f2a2 3e3e e733 eabd 140a a2be
000002d0: 3eb3 a43e 6472 123e 4928 afbc f2a6 693e
000002e0: aa6e f63d 83a8 01bb ee07 c23e 8c55 0dbe
000002f0: 94ba 7f3e 8481 9cbc 9c59 24be ccb8 533e
00000300: ed87 50be aabe 693e aa78 1e3e b885 54be
00000310: c3c5 5abe 4394 c43d 9096 80bd b3d0 ac3d
00000320: 153c 49be 9fd0 1fbe fa5b 2dbe e8a5 c43e
00000330: 0c71 a93e be02 07be 7485 c33e 6bd8 093e
00000340: 2f1e 7fbe 6b30 863e d8a4 d4bd 3762 ae3d
00000350: 3ba0 96be 28f7 76be ac44 673d 5b61 4e3e
00000360: 5520 95bd ec4a 0e3d f72c b0be c20f c7be
00000370: 9266 d03d c7a0 8d3e ffcc 933d 4ba4 98be
00000380: c771 9f3d 8a53 883e beb0 b43e 3a6e 2cbe
00000390: 3f7b 773e fa41 6a3e 0141 b63e dc72 64be
000003a0: 76f4 7cbe f562 d4bd 8cb6 30be 2213 3b3e
000003b0: a1b8 9fbd 7436 5a3e 4f80 9f3e 37e8 a13e
000003c0: 25a6 a23e 0a6a cf3d 48db ebbd 6d2a b8bd
000003d0: 2839 b13e d5f1 45be f837 1cbe 4da1 e43d
000003e0: 5b4d 873d 8680 19be 75c5 2abe 5fc4 ca3e
000003f0: c0a6 053e e94b 423d a269 9c3e 9b90 81bc
-0.020647446 -0.0014437162 -0.15531436 -0.3246604 -0.30868888 -0.3074711 -0.091559 -0.26501375
-0.33293423 -0.11126705 0.11091035 -0.196632 0.3723359 -0.31363577 -0.08945836 -0.15771392
0.23443148 0.0066400995 0.18179981 0.3824499 -0.0038064963 0.3341651 0.18224548 -0.20861717
-0.12255258 0.07468996 -0.38118216 0.2960091 -0.23989627 -0.10377529 -0.20583193 -0.029348847
0.22147132 0.33903912 0.18601045 0.2941468 0.07091162 0.13691474 0.17176875 0.30722663
0.13258927 0.01928161 -0.1536226 -0.09031733 0.22460221 -0.35470676 0.22318704 -0.045541387
-0.14075641 0.04542618 -0.03216821 0.36634448 0.083129235 -0.056105834 -0.1696335 0.26739284
0.30039328 0.115238816 -0.31114113 0.23703934 0.30051208 0.13944305 0.27267224 0.3030298
0.025866704 -0.14196463 0.10508939 -0.09682776 -0.32857615 0.3399415 0.013638743 -0.24658997
0.3299436 -0.016743151 0.16361354 0.11943205 0.36661807 -0.14649892 -0.011645212 -0.29327568
0.21658733 0.2640437 0.013069036 -0.3711927 0.16931565 0.16295756 0.11646152 -0.093634345
-0.0960338 -0.10534723 -0.17020832 0.09445812 0.2662348 -0.19228324 0.28889167 0.07676688
-0.42378184 0.15873273 0.30930045 0.29162744 -0.31916255 0.23222655 -0.07653705 0.2483308
0.25850385 -0.19094312 0.036997937 0.18610683 -0.057593305 0.21225968 0.17730659 -0.27870926
-0.1262708 -0.33809972 -0.09798261 -0.03390256 -0.116221294 0.08094861 -0.25387177 -0.15591039
0.13842155 -0.31786478 -0.108261935 0.06964983 0.14388083 -0.37199804 0.19351868 -0.038431227
-0.12011718 0.03954891 -0.22784774 -0.10689912 0.23358572 -0.34426853 -0.06898064 -0.32121867
-0.28091416 -0.25259483 0.34315306 -0.24188375 0.22295871 0.1529781 0.11649417 0.22320986
-0.17805655 -0.29223606 0.04452816 0.14157094 0.081443444 0.30941504 0.1069963 -0.08525191
0.14526175 0.16424958 0.06610881 0.21994378 -0.2431444 -0.09853717 -0.12646309 -0.04398059
-0.33180928 -0.12983823 0.31305754 -0.22785057 0.10437756 -0.02271641 -0.289544 0.08134542
-0.3895126 -0.27488858 0.34826225 0.22267468 -0.28865376 -0.08603569 -0.17305465 -0.13571176
0.15571387 0.18616846 -0.11435681 -0.31648314 0.32168 0.14301449 -0.021381514 0.22817591
0.12032826 -0.0019784279 0.37896675 -0.13802165 0.24973518 -0.019104727 -0.16049808 0.20675963
-0.20364352 0.22826639 0.15475717 -0.20754135 -0.21364503 0.09598591 -0.062787175 0.08438244
-0.19651826 -0.15606926 -0.16929618 0.38407826 0.3309406 -0.1318464 0.38187754 0.13461463
-0.24913858 0.26208815 -0.10383004 0.08514827 -0.2941912 -0.2411772 0.056461975 0.20154326
-0.072815575 0.03473942 -0.34409305 -0.3887921 0.10175814 0.27661726 0.07216834 -0.29812846
0.07785373 0.26626235 0.35291094 -0.16838923 0.24168108 0.2287673 0.3559647 -0.2230944
-0.2470263 -0.10370437 -0.17257136 0.18269017 -0.07798887 0.21309835 0.3115258 0.31622478
0.31767383 0.10127647 -0.11516434 -0.08992467 0.3461392 -0.19330533 -0.15255725 0.11163578
0.06606551 -0.14990434 -0.16676886 0.39602944 0.13051891 0.047435675 0.3054934 -0.015816024

layers.0.embed.bias f4 [128]
00000000: 2d4f 70be 0d8b fb3d 0e51 6dbd 03e7 6cbd
00000010: d79d 1ebe 2657 94bd 85c4 c53e a5c9 883e
00000020: 9dd7 233e 789b bd3e 9166 a7be ab7d fd3c
00000030: 7896 d2bc 2f02 033e 0d1d c8bd e225 ac3d
00000040: c329 b33e c1a0 013e ceb7 40be 380c 41be
00000050: 92aa b1be 7fa0 803e f650 213d 0e78 873c
00000060: b745 0c3c 8be6 e53d 71f9 263e 1743 523e
00000070: 943b a0be a3bc 263d cd02 7d3e 1063 de3d
00000080: 4a31 55be a301 833e 525d 77be cf39 413e
00000090: 5aa9 a13d 2100 74be 7770 a83e afa6 8d3e
000000a0: 67af a93e 8dcf 30be cf7f b7bc af12 33be
000000b0: 0fde 8c3e e5dd b6bd 4cd3 b1bd bb1d 61be
000000c0: e480 87be 890c 273e 1cae b4be ad46 27be
000000d0: 8957 e4bd 1e34 df3c f582 7f3d c62e 863e
000000e0: 45e9 ca3d 7232 3fbe 357b 6cbe a872 c2be
000000f0: 998c 2a3e 0da5 3fbe e98c 51ba a727 6d3e
00000100: c533 3bbe 7411 4fbe 9226 593d bd73 f6bc
00000110: 0ab1 923d 81d6 03be a381 d1bc f5fe 613d
00000120: 4892 853d bc80 a0be 4ca8 06be 0286 eebd
00000130: f73b 12be 72bc c53c 6761 2c3e 6281 693e
00000140: adf5 7fbe c1d5 b83e ca20 4bbe 23be 983e
00000150: 89af bebe a0c4 963e 7ca5 533e 6400 943e
00000160: cbca aa3e 1206 893d 6d22 edbd d992 41be
00000170: f303 0cbe 2ed4 133e 09e3 58bd f295 943e
00000180: 963d 2ebe 3492 933d 5edf b33d e450 493e
00000190: 2a79 4bbe b078 61be 300f c13c 0e4e 3a3e
000001a0: 3813 173e f4b0 a8bc 746c a4be a4ce 813e
000001b0: 68a8 6dbe 9db1 a03e eef0 4fbb ee54 8abd
000001c0: cfed 47be b1a9 08be 2cc8 50be e591 c2be
000001d0: 1858 363e 1144 4e3e c044 8cbe f83b be3e
000001e0: 3758 be3e bc5f a33e b50f 78be 3fe7 c3be
000001f0: dbf7 9e3e 10ce 55be abb2 01be 67a6 84be
-0.23467703 0.12282381 -0.057938628 -0.057837497 -0.15489899 -0.07243185 0.38626495 0.26716343
0.16000219 0.37032676 -0.3269544 0.030943712 -0.025706515 0.12793802 -0.09771166 0.08405663
0.349928 0.12658979 -0.18820116 -0.18852317 -0.34700447 0.2512245 0.03938385 0.016536739
0.008561543 0.11225613 0.16306092 0.20533405 -0.31295455 0.04070724 0.247081 0.108587384
-0.20819584 0.25587186 -0.24156693 0.18869708 0.07893629 -0.23828174 0.32898304 0.27666232
0.33141634 -0.17266674 -0.022399811 -0.17487596 0.27513167 -0.08929042 -0.0868288 -0.21983998
-0.26465523 0.16313376 -0.35289085 -0.16335554 -0.111495085 0.027246531 0.06238075 0.2620756
0.09907774 -0.18671587 -0.23093875 -0.379781 0.16655196 -0.18715306 -0.00079937145 0.23159657
-0.18281467 -0.20221502 0.0530153 -0.030084485 0.07162674 -0.12874795 -0.02557451 0.055174787
0.065220416 -0.31348217 -0.13150138 -0.11646654 -0.14280687 0.02413771 0.16834031 0.22803262
-0.24996062 0.3610058 -0.19836727 0.29832563 -0.37243298 0.29446888 0.20668596 0.28906548
0.33357844 0.06690611 -0.11578832 -0.18903674 -0.13673382 0.14436409 -0.052950893 0.2902065
-0.1701568 0.072056204 0.08782838 0.19659764 -0.19870439 -0.22018695 0.023566812 0.18193838
0.14753425 -0.02059219 -0.32113993 0.25352967 -0.23208773 0.31385508 -0.0031729299 -0.0675448
-0.1952431 -0.13345982 -0.2038886 -0.38001934 0.17807043 0.20143153 -0.27396202 0.37155128
0.37176678 0.31908977 -0.24224742 -0.38262364 0.31048474 -0.20879388 -0.12665813 -0.25908205

layers.0.W_att.weight f4 [128, 128]
00000000: fa49 073d a5c3 073d ddc1 dd3c 656b bcbd
00000010: 186b 5ebd 6b0d 493d 10cf 55bd 9f95 6c3d
00000020: 8029 ab3c 7bd7 91bc a855 0a3c 1bb5 58bd
00000030: ced8 1b3b 0d1f f7bc 3e21 24bb 872b 853c
00000040: 086f 7d3d f69a c83b 7e47 a8bc 16db 503b
00000050: 819c c4bd 06c4 943c 46cc 97bd 2e10 f6bb
00000060: 4ca1 f0bc b2d6 dabc b82e feba 93ca 09bd
00000070: 6c24 0e3c 8197 553c b594 ec3c 4ef9 53bd
00000080: 19de a83c bcec cebc 9a4e 5a3d ef0a 313d
00000090: c3f9 16bd c15b bfbd 3255 ba3d fea9 b73d
000000a0: ab41 99bc 7e13 bd3c df26 33bc d4cf b5bc
000000b0: f265 97bd 9ab6 91bc 7bf2 0e3d a2f2 1bbd
000000c0: 7503 6a3d 080c 9dbd 4523 883d 3cc5 353d
000000d0: 6d4f f23c 1fc6 8d3d 8ecd 403c 48ae 86bc
000000e0: 78d6 2fbd a154 bdbd fbf5 d4bd 2d53 e5bc
000000f0: dcf2 e23c ffbd c3bc c2dc aabd a198 a43d
00000100: 59f1 8dbd fc06 b33d 3668 fb3c 10ac d33d
00000110: e220 44bd 22f9 82bd 95f5 03bb 7a43 40bd
00000120: 7733 a93d fd41 833d 6226 d3bd 56b4 d83d
00000130: a965 8b3d 9efe 293d 0a5d 8b3c 3674 24bd
00000140: f1ce 5c3d eea5 6bbd 0d87 67bc feda 6abd
00000150: 44ba ac3b bebc 3c3d eb1f 92bb 5004 13bd
00000160: 77d2 223d d7e5 d1bd c72b 993d e5ed 51bd
00000170: 7838 c93d 1397 a4bb 1679 8fbd 968b c9bd
00000180: d81b 62bd 3b1e 973d 88c1 92bb 1b10 813d
00000190: 46e2 c93d 2526 c33c 159d 363d 481c 91bc
000001a0: 1771 b0bd 3c1a b03b eddd 81bd f55f 85bd
000001b0: b91a 40bc 74e6 103d 41fa 2abb 4aaf 3f3d
000001c0: 2668 63bd 5aee 42bd 5a1f 9ebd fc75 8a3d
000001d0: f749 803d 85cd 0cbd babc 39bc 4299 2c3d
000001e0: 68dc 873c 65ec a73c bd15 0e3d da47 2ebc
000001f0: b14d 9e3d 9070 f23c 208c b83d 1600 d33c
00000200: ec95 59bd 3acf 81bd 8d19 173d 5f9c 16bc
00000210: d86e 503d f046 45bd 4849 953c 6d87 69bb
00000220: 49c9 3bbd aa73 2f3b 55bc 4c3d e83b 02bd
00000230: 0e5c 3a3d 1caf ed3c 0652 96bd e241 cc3c
00000240: 36fe d13b 8311 38bd 3f24 6bbc d7be 12bd
00000250: 606d f13c 23cc 803d 5b45 6f3b ff28 cc3d
00000260: d1f8 91bd 7cd1 403d 0d9f 073d 0019 9bbd
00000270: 0985 9f3d ec43 b0bc 173a 063b 7b35 a2bd
00000280: c67f ca3d e9e9 fcbb 8b67 8d3d 14a8 413d
00000290: ea50 913d 5fe2 813d 9455 6fbd 05c4 4d3b
000002a0: 44e8 ed3c dcd4 eebc 516f 11bc ffb7 adbd
000002b0: 6207 5f3d f38c 263d f61c 703d eb97 b73c
000002c0: 0951 803d bf58 b7bc 5d02 76bd 1f7a 41bd
000002d0: 69b1 a53d 2de3 12bd 2ef3 93ba b90d aa3d
000002e0: c868 8e3d 1a7e 873d c9bb e03d e464 8abc
000002f0: 7d67 b33d 53a7 77bc f33e 3fbd dfe3 353d
00000300: 69b8 40bd 48cd 30bc 0df5 d33d 090c a2bd
00000310: faf0 3a3b 6403 f03d d6c3 5fbc 5819 d6bc
00000320: fb78 9dbb 4a72 5fbd 2c10 a5bc 1c9c 9ebd
00000330: c110 b9bd 8b0b 1ebd a131 ffbc 2859 91bd
00000340: 1b9c 22bd 1dc5 7a3d 1fca 1fbc 0c61 5c3c
00000350: d8bc 5dbc bf63 b03c e417 fb3c 5278 333d
00000360: e708 6d3d c48b 39bd b8f7 833d deb7 87bd
00000370: 43bf 30bd f7e4 023c 09a7 953d 895e 963d
00000380: 3497 90bc 3c14 153d dab0 7f3d ff03 0f3d
00000390: bf5e 96bc c524 49bd cb4a 40bc 75dd 05bc
000003a0: f6a2 b6bc e810 653a a91e 8b3c 6aea f23c
000003b0: e38c ebbc 4cb2 8c3b 0209 e73c 5ec4 41bb
000003c0: aa22 51bd e282 abbd 2d70 f63c c38d 593d
000003d0: 0fa8 67bd ce72 f3bd a963 1abd 15a1 363d
000003e0: 011c e3bd 1c2c 59bd 0e1f 5a3d bcc4 1f3d
000003f0: 5d72 11bd 0562 463d 12c6 2cbc aa5b a9bc
0.033029534 0.033145566 0.02706998 -0.092001714 -0.05430135 0.049085062 -0.052199423 0.057759877
0.020893812 -0.017802944 0.008443274 -0.05290709 0.0023780349 -0.030166173 -0.0025044228 0.016256107
0.061873466 0.0061219884 -0.020541903 0.0031868867 -0.09600163 0.018159878 -0.07412009 -0.007509253
-0.029373787 -0.026713703 -0.0019392585 -0.033640455 0.008675676 0.01303661 0.028879503 -0.051751427
0.020613717 -0.025259368 0.053297617 0.043223318 -0.036859285 -0.093436725 0.09098281 0.0896797
-0.01870807 0.023080584 -0.010934561 -0.022193827 -0.073924914 -0.017787267 0.034899216 -0.03807319
0.057132203 -0.076683104 0.06647352 0.04437755 0.029578889 0.06922554 0.011767758 -0.016440526
-0.042929143 -0.09244657 -0.103984796 -0.027993763 0.027703695 -0.023894308 -0.083428875 0.08036924
-0.06930799 0.087415665 0.03068934 0.10335553 -0.047882922 -0.063951746 -0.0020135392 -0.04693935
0.08261769 0.06409071 -0.10310055 0.10581271 0.068064995 0.041502587 0.017012138 -0.04014989
0.053908292 -0.05753129 -0.01413132 -0.057337753 0.005271228 0.046078436 -0.0044593713 -0.035892785
0.039751496 -0.102489166 0.07479053 -0.051252265 0.09825224 -0.0050228923 -0.07005517 -0.09841077
-0.055202335 0.07378813 -0.004478637 0.063019 0.09857611 0.0238219 0.0445834 -0.01771368
-0.0861532 0.005374221 -0.06341157 -0.06512443 -0.011725121 0.035376027 -0.0026089104 0.046798028
-0.055519246 -0.04759059 -0.077208236 0.06760785 0.06264108 -0.034375686 -0.0113365 0.042138346
0.01658459 0.020498464 0.0346887 -0.010637248 0.07729662 0.02959469 0.09011102 0.025756877
-0.053121492 -0.063383535 0.0368896 -0.009192555 0.05088696 -0.048163354 0.01822342 -0.0035633699
-0.045846257 0.0026771822 0.049984295 -0.031795412 0.045497946 0.029014163 -0.073398635 0.02493376
0.006408478 -0.044938575 -0.014351903 -0.03582653 0.0294711 0.06288936 0.0036509845 0.09968757
-0.07127536 0.04707478 0.033110667 -0.07573128 0.07789046 -0.021516763 0.0020481402 -0.07920357
0.09887652 -0.007718314 0.06904515 0.047279432 0.07095511 0.06342005 -0.058431223 0.0031397354
0.029041417 -0.029154234 -0.008876638 -0.0848236 0.0544504 0.040661763 0.05862137 0.022411307
0.06265456 -0.022381185 -0.060060848 -0.047235604 0.08090479 -0.035861183 -0.0011287683 0.08303399
0.06953579 0.06615849 0.10973317 -0.016893812 0.08759973 -0.015115577 -0.046690892 0.044406768
-0.047050867 -0.01079113 0.10349474 -0.07912452 0.002852498 0.11719397 -0.013657531 -0.026135132
-0.0048056818 -0.054552354 -0.020149313 -0.07744619 -0.09036399 -0.038585227 -0.031151595 -0.07097083
-0.039699655 0.061223138 -0.009752779 0.013450872 -0.013533793 0.021531938 0.03065104 0.04381592
0.057869818 -0.045299307 0.06443733 -0.06626867 -0.04315115 0.00798916 0.0730725 0.0734225
-0.017650224 0.03639625 0.06242452 0.03491592 -0.018355725 -0.04910733 -0.011736582 -0.008170475
-0.022294503 0.0008738176 0.016982393 0.029652793 -0.028753703 0.0042937156 0.028202537 -0.0029566507
-0.05105845 -0.08374573 0.030082786 0.05311371 -0.056556758 -0.11887132 -0.0376927 0.044587214
-0.11089326 -0.05302058 0.053252272 0.03900598 -0.035509456 0.048433322 -0.0105452705 -0.020673592

layers.0.phi_att.weight f4 [128, 128]
00000000: 2c75 333d 00ca 6ebd 7e2e 0abd 6ca5 93bc
00000010: f8eb 893d 50b5 833c dfe5 513d 9068 97bb
00000020: 9dd4 9e3c 3530 abbd b0c3 413d 4bac 67bd
00000030: 1d8e 963d 5969 7abb 1917 933d e45c 85bd
00000040: 05a5 c3ba 1f24 d23c 4dbc be3d a897 cabc
00000050: daac b93d ea99 4fbd 5abb dd3c 86ea c03c
00000060: 4d54 333d 1b35 b53d 295a 173d df23 453d
00000070: b13b 8cbd 6409 113c 771d 693d 8d5f 65bd
00000080: f33a 01bd c8c8 8a3d 20af 833d cd20 4ebd
00000090: a8a5 09bd d2f3 223d 2afa 07bd c660 4b3d
000000a0: b455 4c3d 8ffc 233d 527c b53b 42d5 4fbd
000000b0: e2fa 3fbd c60c 34bd 7259 883c 4992 9fbd
000000c0: f018 1e3c 61bb 8f3d 4b08 c43c a245 9abd
000000d0: c1e6 64bd ce28 65bd 7ad5 973d 0a50 01bc
000000e0: aa83 7abd 1eaf 76bd 45de 983d 6de3 8dbd
000000f0: e16e 373c f847 0b3d 0bc3 57bc 2af9 46bb
00000100: 1836 913d 4e93 c13c ebec 0e3d ed2c 1d3c
00000110: 681d b63c 773c 8c3d 703e c2bd 23f5 babc
00000120: f67e 833a 4728 693d 13cd 583d 2e04 bc3c
00000130: a576 7d3d 518c 14bc 00fc f0bc dc7e 803d
00000140: e069 7e3d 8094 c339 bbcf cc3d 08ac 1bbd
00000150: 8fcc 8a3c 2b55 9bbd 4f1b a33d 2cc4 0dbc
00000160: 49c9 803d 7766 d6bc d2a4 2bbd 65ce aabd
00000170: 21ac d03d b89a 3c3c 4353 1abd 5ca4 afbd
00000180: 711e 403b 2e96 75bd 94bf 7b3c cbee ae3d
00000190: 4ea9 99bd 1bb3 0f3d 89e0 673d caff 053d
000001a0: a691 9e3d d533 a2bd 8e98 1abd dfe2 8b3c
000001b0: 20aa 873d 14c1 6abd f30b 943d 0fc9 143d
000001c0: f9be ccbd 3358 0cbb 6cca ab3d 1541 753d
000001d0: 455d a2bd b622 9abd 8573 6c3d fa0f 133d
000001e0: 8a8c a23d fca3 863c b03f 9fbc 1928 6b3d
000001f0: 0c97 01bd 8f10 c13b e6ea 22bd 505c 073d
00000200: 7f49 03bd f1e4 d73d 747c bc3d 671c 1bbe
00000210: 1b73 ab3d f7e1 9cbd 49e2 91bd 8954 713c
00000220: 1c3d 7cbd 13a3 9cbd 715e d6bc 6a44 d13c
00000230: 1e1c 73bd ad47 1d3d 251b c1bb 9c07 963d
00000240: 64d3 453d 3e86 a83d 0f20 e2bd 8334 79bb
00000250: 35fd b63d 1ac0 a0bd 6d99 343d a96a a33d
00000260: caec ef3d 0294 9c3d 593b 3cbd 9c8f 0c3c
00000270: ed4e b73d 354a d63c 01ee 8cbd a747 8ebd
00000280: 63a1 8d3d 207b b0bd 2799 e4bb 2bb4 a8bd
00000290: 274b 97bd 08e8 393c 819e 5d3d 32a9 f4bd
000002a0: 5b73 64ba 8d72 0e3d ed1e 983d c3e8 073d
000002b0: 985a 47bd 50b2 4d3d 9a6d 723d 853e 213d
000002c0: 92d0 903d 9db4 7dbb 9bca 95bc 7396 a6bd
000002d0: e6f1 31bd 8759 883c 2b56 fb3d bdaf 8ab8
000002e0: 686f afbc 3ca8 d33d d47e cfbc ab35 3a3d
000002f0: 88a9 b93c 8769 d63c c39c 17bd 62d7 b1bc
00000300: e8de c5bb ed2b 713c eb1b 89bd a31a b13d
00000310: 984b e83d 0d4b 223c b3f3 bb3c 35e0 c83d
00000320: c3b2 1abd 5128 94bd 66ac 50bd 8a55 353d
00000330: eeb6 e83d f5d6 ab3a 7df9 cdbb fbdf 183c
00000340: 320b 04bd 7941 53bc dfa3 3fbd ff91 c63c
00000350: 37be 813d 9f38 fbbb 83ea e33c 8cf9 f33c
00000360: 9746 22bd 17b4 bb3d 6ea6 fd3c ed29 6cbd
00000370: ba95 51bd 587d 05bd 4946 8d3d 97d7 e7bd
00000380: 6f94 8fbc 50f2 09bd 4709 69bd 932a 38bd
00000390: d640 373c 37e6 db3d 4205 003e b3de 26bd
000003a0: fb4a 893c ec56 e83b ea08 9f3d 5722 c63c
000003b0: a1f6 a3bd 3030 f83c 66af 1dbb 3563 43bd
000003c0: 0080 853c 677e b93d ac36 e93b da58 733c
000003d0: 6b9b 5e3d 16c5 1f3d 7e37 d738 e5de de3c
000003e0: da4c 1d3c 8442 2a3d c831 9bbc f610 513d
000003f0: d382 31bc 381e 03bc ade8 c83c 3fc3 5abd
0.043812916 -0.05829811 -0.033735745 -0.018023215 0.067344606 0.016077667 0.051244613 -0.004620619
0.019388491 -0.08358804 0.047305763 -0.056560796 0.07351325 -0.0038209765 0.0718214 -0.06511858
-0.0014926499 0.02565199 0.09313259 -0.024730518 0.09066172 -0.050683893 0.027066875 0.02354933
0.043781567 0.0884802 0.036951218 0.048129912 -0.06847323 0.008852337 0.056912865 -0.055999327
-0.03155036 0.06776577 0.06429887 -0.05032425 -0.033605248 0.039783306 -0.03319756 0.049652837
0.04988642 0.04003578 0.005538502 -0.050740488 -0.04687012 -0.043957494 0.016644213 -0.077915736
0.0096495 0.070181616 0.023929736 -0.07532813 -0.055884127 -0.055947118 0.07413764 -0.007892618
-0.06116072 -0.0602256 0.074642695 -0.06928144 0.011195869 0.03400418 -0.01316906 -0.0030360916
0.07090396 0.02362981 0.03489391 0.009593231 0.022230819 0.0684747 -0.09484565 -0.022821968
0.0010032344 0.056923177 0.05292995 0.022951212 0.061880726 -0.009066657 -0.029417038 0.062741965
0.06211269 0.0003730394 0.10000559 -0.03800586 0.016943244 -0.07584604 0.07964193 -0.008652728
0.06288392 -0.026171906 -0.04190523 -0.08340148 0.10189081 0.011511497 -0.03767706 -0.08576271
0.002931502 -0.059957676 0.0153655 0.0854164 -0.075029954 0.035082918 0.056610618 0.032714643
0.07742624 -0.079200424 -0.037743144 0.017075954 0.06624246 -0.05731304 0.07228842 0.036324557
-0.09997363 -0.0021414876 0.08388218 0.05987652 -0.07927946 -0.07526152 0.057727356 0.03590391
0.07936962 0.016435616 -0.019439548 0.057411287 -0.03163819 0.0058918665 -0.039774798 0.03304702
-0.032052513 0.10541714 0.09203425 -0.15147553 0.08371564 -0.07660287 -0.071232386 0.014729627
-0.061581716 -0.076482914 -0.02616808 0.025545318 -0.059352987 0.038398433 -0.0058931285 0.0732567
0.0482973 0.0822873 -0.11041271 -0.0038025684 0.08935014 -0.078491405 0.04409163 0.07979328
0.11715086 0.07645418 -0.045955036 0.008579161 0.08950601 0.026158432 -0.06881333 -0.0694726
0.06915548 -0.08617234 -0.006976265 -0.08237489 -0.07387381 0.0113468245 0.05410624 -0.11946334
-0.0008714699 0.034777213 0.074277736 0.033180963 -0.04867038 0.05021888 0.059186555 0.039366264
0.07071032 -0.003871239 -0.018285086 -0.08134165 -0.043443583 0.016644252 0.122722946 -6.6130866e-05
-0.021415427 0.103348225 -0.025329031 0.045461338 0.022663847 0.026173366 -0.037014734 -0.021709148
-0.0060385354 0.014719945 -0.06694778 0.08647659 0.11342543 0.009905589 0.022943353 0.09808389
-0.037768137 -0.07234252 -0.050945662 0.04427103 0.11363016 0.0013110327 -0.006285845 0.009330745
-0.03223724 -0.012894028 -0.04678714 0.024239538 0.06335109 -0.007666662 0.027821785 0.02978208
-0.0396181 0.09165209 0.030963149 -0.05765717 -0.05116818 -0.03259024 0.068981715 -0.113204174
-0.017526833 -0.033678353 -0.056893613 -0.044962477 0.011184892 0.10737269 0.12502006 -0.040739726
0.016759386 0.00709044 0.07765372 0.024186296 -0.08006025 0.030296415 -0.0024060844 -0.047702033
0.016296387 0.090573125 0.007117113 0.014852727 0.054347437 0.039006315 0.00010262335 0.027205894
0.009600842 0.04156734 -0.018944636 0.051041566 -0.010834414 -0.00800281 0.024525011 -0.053408857

layers.0.phi_att.bias f4 [128]
00000000: 2f48 b13c 6683 883d 3faa 923d 31b9 5cbd
00000010: b0c2 62bb 3221 803c fd37 a63c b5fa 70bd
00000020: a458 ddbc 0a9f a2bd 802b 833d 9718 2b3c
00000030: 6ee2 4f3d 3285 173d 0a58 2bbd 4434 ab3d
00000040: cd4d bcbd 8c61 463c cbea 8fbd 9640 18bd
00000050: 83ca 7ebc bc5b 343d 1665 853d 6424 ad3c
00000060: 341e 863d 837e 883b 353e a5bc d6c3 97bd
00000070: fd89 8fbd a3fc a73d 1951 b63d ed31 28bc
00000080: c8a5 8dbc 0f8a 99bd 02a7 51bd 7437 693d
00000090: f7d1 253d 7e2b a6bd 3007 043d 728f 0d3d
000000a0: aae5 a4bc cc2c f03c abfc 923a 6781 eb3c
000000b0: f144 903d d9ff a13d 457d 773d 08e1 253d
000000c0: 3075 a9bd 4aae 17bd de7a 76bd db45 44bd
000000d0: 5db5 853d 1ee6 3cbc 037e 83bd 3bbb 2c3d
000000e0: 4acf cbbd 0abb 87bd 1708 d13c 8107 2bbd
000000f0: c7e3 bb3c 7496 ab3d edbe cebb a32b 283d
00000100: f88a 9fbb d5f2 98bd c0a0 86bd b465 733d
00000110: 3d14 37bd 90de 22bd adcf 9abd 6770 48ba
00000120: 5341 7d3d 0ec2 79bb 73fc b13d e0ef b43b
00000130: e33c c03d e42e 1fbb 5b30 dabd 4655 893d
00000140: e243 2a3d 5f5c 85bd f76c 8b3a 9e08 3abd
00000150: 7f3c a23d 7266 193b d883 1e3d 19d3 283d
00000160: c2f7 b93b ade2 62bb 6a4b 863d cc88 c1bc
00000170: c349 e9bb a505 82bd ed71 2dbd e18d 85bb
00000180: de63 2bbd 1ad9 803d d3e0 a7bb 6008 3abd
00000190: 4f27 eebc 196c b93b 1c8b d93c c852 8e3b
000001a0: 5e1b 4d3d b8b2 db3c 1fcc a63d 8613 4abd
000001b0: 3305 6d3c 9725 473d 1c75 6bbd f71f b53d
000001c0: 1dec d8bc ec0f 2e3d 8af2 9ebd 77ae e03d
000001d0: 4b7b a23d 751d 4bbd c53c 08bd 4040 293d
000001e0: 8106 80bd 0336 23bd 9ba5 18bd add0 daba
000001f0: f6ba 69bd 322c a4bc 5237 64bd f73c 19bd
0.021640865 0.06665687 0.07161378 -0.05388755 -0.0034600906 0.015640829 0.02029037 -0.058832843
-0.027019806 -0.079404905 0.06404781 0.010442874 0.05075305 0.03699226 -0.041832007 0.08359578
-0.09194527 0.012108218 -0.07027205 -0.03717097 -0.015551212 0.044032797 0.06513421 0.021135516
0.065487295 0.004165472 -0.020171264 -0.074103996 -0.07008741 0.082024835 0.08902187 -0.0102658095
-0.017290965 -0.07497036 -0.05118466 0.05693765 0.04048344 -0.08113764 0.032233417 0.03456063
-0.020129044 0.029318236 0.0011214217 0.028748227 0.070443995 0.07910127 0.0604222 0.04049781
-0.08274305 -0.03703145 -0.06017577 -0.047918182 0.06528733 -0.011529474 -0.06420519 0.042170744
-0.099516466 -0.06627472 0.025516553 -0.041755203 0.022935761 0.08378306 -0.006309381 0.04105724
-0.0048688613 -0.074681915 -0.065736294 0.059423164 -0.044697035 -0.039763033 -0.07559142 -0.0007646144
0.061829876 -0.003811005 0.08690729 0.0055217594 0.09386613 -0.0024289424 -0.10653754 0.06705718
0.041568644 -0.06511759 0.0010637332 -0.045418374 0.07921695 0.002340701 0.038699955 0.041216943
0.005675287 -0.0034619973 0.06557353 -0.0236248 -0.007119389 -0.06348733 -0.042344976 -0.004075751
-0.041843288 0.06291409 -0.0051232367 -0.045418143 -0.029071478 0.005658638 0.02655559 0.0043433644
0.050074928 0.026818618 0.08144402 -0.049335025 0.014466572 0.048619833 -0.05748473 0.088439874
-0.026479775 0.042495653 -0.077611044 0.109707765 0.079336725 -0.04958864 -0.03326108 0.04132104
-0.062512405 -0.03984643 -0.03726731 -0.001669427 -0.057063065 -0.020040605 -0.05571682 -0.037411656

layers.0.W_p.weight f4 [128, 128]
00000000: 3f5a c93c 8166 943c df83 78bd b5e7 1ebc
00000010: 4d33 123d 3eb3 b0bd 0b20 433d c533 d93d
00000020: 2e41 9dbc 73d8 013c fefc c1bd 7e79 4f3c
00000030: ec63 aebc d8bd 433d bfba afbd cb76 b13c
00000040: 7cdb 16bd 9a42 80bd ba5b 843d 264a ad3c
00000050: 2dfd 9abd 511e d4bc ff54 0c3d c8ad 753d
00000060: b0bd 34bb 6889 57bd 9465 ddbc 5b62 7cbd
00000070: c5a3 a43d ddf1 6ebd ffa0 b2bc e906 313c
00000080: 652d bdbc 5545 2c3d a019 023d 6325 69bc
00000090: 5216 7d3d 1a6e d3bc 57ba 40bb a604 013d
000000a0: ca56 a63c 80a8 3e3c a753 bcbc 3c4b b2bc
000000b0: 2d7a fe3b a622 9f3d 67a5 863d c3a7 37bc
000000c0: 2d1f d1bc d5cf 63bd d904 4e3d d18d 543d
000000d0: 3ccf 41bd b8b3 ad3d 8252 d9b9 5bbe cd3c
000000e0: 9c09 60bc ab0d a33d d26d 65bc 11fa 703d
000000f0: 3191 833d e1a2 d3bd 259d 4cbd 136a bb3c
00000100: 3068 abbc 1062 d5bb 2ffc 95bd bb44 abbc
00000110: aa74 0bbd 18c1 a9bd 6c91 87bd 7229 573d
00000120: 6cd6 6d3d 465c 913d 6c95 223d 048c 453d
00000130: 3c1d b63c 4857 3fbd 3907 5dbd 6283 55bd
00000140: 443c 4f3d f858 0f3d 88ab 6fbd 28e6 7d3d
00000150: 9395 a3bd 5d7a a9bb aab7 1dbc e946 a0bd
00000160: 53ca 37bc 8505 d23c da4f 623d 7e69 bcbd
00000170: bb19 49bd a65e 453d 0aa7 913d af76 cabb
00000180: 34da 87bd 5cc3 af3d b68c 7f3d 819b 64bd
00000190: 84de 943d 14a8 163d 0318 61bd 3782 8fbb
000001a0: cdc8 8abd a8f5 6dbd 9738 1fbd 9466 a3bd
000001b0: 036b 84bd c721 433d 9340 67bd a337 87bd
000001c0: 0574 6a3c 6c58 86bd 9a31 51bd e3f4 283d
000001d0: 6d73 9fbb 20d4 ed3a 1cff 843d 2f72 5c3d
000001e0: 9fb4 c9bc 726c 8bbc f467 793d 56d2 b2bd
000001f0: 8db2 01bd 930b 5abd e82b 16bd 3eee 68bd
00000200: 73ac 713d 77c4 6f3d 85cb 053d 4fb3 86bb
00000210: 29f4 b03b 3b4f e4bc b8fe 8bbc d8e6 193d
00000220: 5d35 e23c 94c9 293d fafd aa3d 4c72 7e3d
00000230: 24f5 b63c ea40 393d 6a21 be3b 7524 5fbd
00000240: 9902 833d 3f5d 4c3c 2793 fcbc 2bcf afbd
00000250: 5cc7 313d 971d 9bbd f89e 493d 9e83 87bd
00000260: 0899 51bd 987e 9dbd 161c 9cbc 6e71 163a
00000270: 8ecf afbd 1bbc 94bd 4008 28bd 27bd 303d
00000280: a742 6f3d 213c 38bd ddab 683d 6ec7 75bd
00000290: 6be3 a93d 8d5e a23c d168 8d3d 39dd 78bd
000002a0: 49db c6bc ebbc d33d 015b b4bb 8855 793d
000002b0: da7f 353d c8d2 ab3d f61d 83bb f7d3 b33d
000002c0: 4d00 e23c 7642 b03a 34e1 cbbc 50a9 53bc
000002d0: 10d0 94bd 0d80 4dbd 508b b8bc 9e42 dcbd
000002e0: 9fa6 20bd 38ff 253d 31c3 dabc f5c3 55bb
000002f0: b883 6c3d 94cb 533d 83e2 5f3d e32f 7c3c
00000300: f368 ba3c b605 a3bd 7520 8a3c 05e6 643b
00000310: ed9b b3bc d73b 73bd f18d 1bbc 1897 a9bd
00000320: da0b 2bbd dad7 8c3d 4807 093c a48a 1abd
00000330: ae68 80bd faec ca3c 6c5f 5f3c 459c 1cbc
00000340: fabe 8d3d d8a9 a5bd 14dc 243d 1d18 81bc
00000350: 82b6 d53c 77bd 203d 64bf 883b 8924 a43d
00000360: a163 053d 189c b23d 3bfb a33c 1df1 44bc
00000370: 331c ac3b cb7b a73d 61a4 f5bc e84a 62bd
00000380: 3cd1 8b3d 84e9 a5bd 8428 263d 0f8d cebc
00000390: 4b8e bd3d e1c1 c0bd 7ef5 4e3d d82f 39bc
000003a0: a17c 80bd fc50 a73d ba2c ae3d b50e 17bd
000003b0: dc2c b33d 7d19 5f3d 9fbd 103d b85b 4ebd
000003c0: b269 0fbd b9d9 733d 5b86 bfbd 094a 8b3d
000003d0: 27be 22bd 6122 393d bbd7 6bbc c3e2 fbbc
000003e0: bcb7 913c a804 0dbd 45ac 29bd 3f70 ea3c
000003f0: 80cf 883d ac50 7abd 27bc a43d 9a98 7cbd
0.024579166 0.018115284 -0.060672637 -0.009698798 0.035693455 -0.08627938 0.04763798 0.106055774
-0.01919612 0.007925141 -0.094720826 0.012663243 -0.02128788 0.04778847 -0.08580541 0.02166309
-0.03683041 -0.06262703 0.06462808 0.02115352 -0.07567821 -0.025893362 0.034260746 0.059980184
-0.0027578883 -0.052621275 -0.027025975 -0.061617237 0.08039049 -0.058336128 -0.021805285 0.01080487
-0.023092935 0.042058308 0.03176272 -0.014230105 0.061788864 -0.025809336 -0.0029407942 0.031498574
0.020305056 0.011636853 -0.022989107 -0.02176439 0.0077660293 0.077702805 0.06574517 -0.011209431
-0.025527561 -0.055618126 0.05029759 0.05189306 -0.047316775 0.08481544 -0.00041450938 0.025115183
-0.013674166 0.07961591 -0.014003234 0.058832232 0.064241774 -0.10333801 -0.049954552 0.022877729
-0.020923704 -0.006511934 -0.07323491 -0.020906797 -0.034046806 -0.08288783 -0.06619534 0.05252976
0.058065817 0.07097678 0.03969328 0.048229232 0.022230737 -0.046714097 -0.053961966 -0.05212725
0.050594583 0.034996957 -0.058513194 0.061987072 -0.079875134 -0.0051720575 -0.009626308 -0.07826025
-0.011217671 0.025637398 0.055251934 -0.091998085 -0.049096804 0.048185967 0.07111938 -0.006178699
-0.06633416 0.08582184 0.06239005 -0.055812363 0.07269004 0.036781386 -0.05495454 -0.0043795365
-0.06776581 -0.058095604 -0.038872328 -0.079785496 -0.06465723 0.047639634 -0.056458067 -0.06602409
0.014309888 -0.06559834 -0.051072694 0.041249167 -0.0048660547 0.0018144883 0.06493971 0.05381983
-0.02462226 -0.017019484 0.060890153 -0.08731525 -0.03166442 -0.053233694 -0.036662966 -0.05686783
0.05900235 0.058536973 0.032664794 -0.0041107307 0.0054002 -0.027869811 -0.017089233 0.037573665
0.027613336 0.041452006 0.083492234 0.06212072 0.022333689 0.045227922 0.005802323 -0.054478128
0.0639698 0.0124734035 -0.030831886 -0.08584436 0.043403015 -0.07574003 0.04922387 -0.06616901
-0.051171333 -0.076901615 -0.019056361 0.0005738948 -0.0858451 -0.07262441 -0.041023493 0.04314914
0.058413174 -0.04497922 0.056804527 -0.060004644 0.0829533 0.019820476 0.06904758 -0.06075785
-0.024274485 0.103387676 -0.0055040126 0.060872585 0.044311382 0.08389813 -0.0040013744 0.087806635
0.027588034 0.0013447541 -0.024887659 -0.012918785 -0.07266247 -0.050170947 -0.022527367 -0.10754894
-0.039221402 0.0405266 -0.026704403 -0.003261802 0.057742804 0.05170782 0.054659378 0.015392276
0.022755122 -0.07960074 0.01686118 0.0034927141 -0.021924937 -0.05938324 -0.009494291 -0.08280772
-0.04175935 0.06877108 0.008363552 -0.037729874 -0.06269966 0.024771202 0.01363359 -0.009558742
0.069211915 -0.08089036 0.040248945 -0.015758568 0.026088003 0.039243188 0.004173206 0.08014781
0.032565717 0.08721179 0.020017257 -0.0120203765 0.005252385 0.081779085 -0.029985609 -0.055247217
0.06827018 -0.0810118 0.040565982 -0.025213746 0.09255656 -0.094119795 0.05052709 -0.011302911
-0.06273771 0.081697434 0.08504625 -0.03687926 0.087487906 0.054467667 0.035337087 -0.05038044
-0.03501291 0.05953381 -0.09351798 0.068012305 -0.039732125 0.045198802 -0.014394696 -0.030747777
0.017787807 -0.03442827 -0.041424055 0.028617976 0.066802025 -0.06111209 0.080437 -0.06166897

layers.0.W_p_prime.weight f4 [128, 128]
00000000: 21ef 3b3d 34af 853d b336 8f3d b180 de3c
00000010: 6d59 6e3d 1f56 58bd 06b8 293d 341f 46bc
00000020: b30f 66bd 619d 6bbd e226 f03c 1d81 973d
00000030: 0122 4bbd 3871 98bd f730 a03d 5f38 78bd
00000040: 9d4a a63d e3a1 6b3d 22e5 a2bd ba29 ccbb
00000050: cb10 633c 35fc a73c 7541 f23c 62c3 0ebc
00000060: 49a3 18bd 7922 29bd 9d56 a5bd 3c41 3f3d
00000070: a992 5bbd 697f 803d 9b90 d1bc 9cdd 53bd
00000080: 01fe 24bd 8f0a 38bc 85b3 b2bd 263c 983d
00000090: 6931 a43d 36f1 243d 54ce 0d3d 25a9 7ebd
000000a0: 049e a13b 9f26 963c 9a0b 813d b8fa 13bd
000000b0: 6ec1 09bd bc22 84bc 7904 7c3d 17a6 96bd
000000c0: 5cee 933d ecf8 92bd 0600 9f3d a98d c03c
000000d0: bdb1 ea3c 59a1 363c ac14 13bd 0ceb 043d
000000e0: 3dd1 4bbc 2039 b1bd 3903 1b3d 14a4 b03d
000000f0: 6d11 9b3c e322 97bb 4800 81bd e2d8 913d
00000100: e82f 773b 7d40 df3c bc7b 053d 4adb 25bd
00000110: 5689 4ebd f7f9 8c3d 2183 e0bb bbc5 013b
00000120: 6e13 903c 48e4 96bd 8bf6 143d 4984 523d
00000130: 2e51 7abc 649a 55bd b746 9a3d c3ba 913c
00000140: 55ab 3f3d fb10 993b 8c7a 533d e980 0c3d
00000150: 355e 82bd 56fe c13c 9159 edbc bede c33c
00000160: 175f ffbc f9a1 5d3d d043 51bd ca3b 823c
00000170: f1d7 3abd 3ad6 7d3d 78b3 cfbc ef48 18bd
00000180: 4f1f 46bd 4be0 493c 5f8f a9bd af11 8e3c
00000190: 6577 a13d 3390 083d 0e82 043d 31a0 2fbd
000001a0: eed4 283d 84ce c13c 60e3 eebc a689 8fbd
000001b0: 5c5e 9a3d ef33 0a3d f857 07bb ef29 0dbb
000001c0: e591 9c3d 399e babd 2f09 80bb 294d 9e3b
000001d0: aa8e b3bc 964c 2abc 3fe7 e1bc f5c7 6cbc
000001e0: 45bd 88bc 6d81 94bd ba81 8ebc d597 6ebd
000001f0: 8831 62bc cea7 87bc b2da e23b 7f3c a63c
00000200: fa91 b23c 2d01 3a3d 4d1f 6bbd 38b9 143c
00000210: 3e13 a03d 19c2 90bd 5c5e 9dbd 0bae b53d
00000220: cccd c93c 7daa e13c 9646 883c 27fc a2bd
00000230: 582f a33d a522 f739 b2b5 c73b ef8d 52bb
00000240: 6210 003c 1d54 aa3d f694 b93b 21f4 85bd
00000250: e3ce 1fbd 8503 72bd 2cc3 9e3c 6113 80bd
00000260: 81fa 2b3d 9399 71bd 03e4 acba 55ce 513d
00000270: d456 39bd ab0e 8fbd 0e53 a33d 257b 41bd
00000280: 4d92 183d 8e2c 2ebc 9dc8 4e3d ab8e 643d
00000290: 3244 563d 3630 123d effb 8ebd 7ef4 fb3c
000002a0: b75e 5b3c b7f7 343b 9d56 54bd c7f5 fcbc
000002b0: 5f04 a03b ffa5 633b 1107 243c bb77 ebbb
000002c0: 4512 9ebd 4938 2c3d ece5 583d bfca 9fbb
000002d0: 12a7 833d b574 a83b edac 29bd e97d 50bc
000002e0: e1ca f9bc 9f28 a73d f9e8 4f3c 571a 9dbd
000002f0: 6521 39bd 3600 653d ef27 8abd 7a8b ab3c
00000300: 76cd 68bc a907 533d 7ce7 c1bd db43 7a3d
00000310: 7c02 843c 73fa 42bd 8025 413c 22b3 bebd
00000320: fd8a 5c3c 6b76 3f3c 1339 1d3d fbb3 9a3c
00000330: 38ce 8b3c 6abd cdbd 9986 053d dc53 84bd
00000340: 488d 6f3d 92d7 1a3d 4b91 96bd 18bb b03c
00000350: 6033 09bd 2188 8cbd 68b2 6a3d d1eb d23c
00000360: 92d0 813d 08fd c7bc fb56 7b3c e7ed 093a
00000370: 9209 b0bd 5d60 4d3d 8061 173c 7cee b0bd
00000380: 33d8 24bd 3bc2 7a3d e60e 33bc a031 e93c
00000390: 7275 973d 5f21 813d 7fdd 8b3d 9493 7ebd
000003a0: c220 5b3d 71f0 2b3d aa11 0c3c fd76 8e3c
000003b0: b6db 69bd 4cdc 883c 471b fb3c fb34 893d
000003c0: 9288 4e3d 8920 bf3d 4191 933d 48ed 86bd
000003d0: 7b7e 4ebd 58a8 383d bb69 9e3d 4641 853d
000003e0: d169 3fbb bfe4 983d acb5 893c 2b6c f9bb
000003f0: 2f6e 0bbd fd90 dbbc a2b0 4bbd c355 723d
0.045882348 0.06527558 0.06992855 0.027160974 0.05819075 -0.052816506 0.041435264 -0.0120924
-0.056167316 -0.057523135 0.029315416 0.07397673 -0.049592976 -0.0744347 0.07821839 -0.060600635
0.081197 0.057527434 -0.0795386 -0.00623056 0.013858984 0.020506004 0.029572228 -0.008713575
-0.037265096 -0.04129264 -0.08073161 0.04669307 -0.053606663 0.062743016 -0.025581649 -0.051725015
-0.0402813 -0.011232986 -0.08725647 0.074333474 0.08017237 0.0402691 0.034620598 -0.062173028
0.004932167 0.018328963 0.06301041 -0.036127776 -0.033631735 -0.016129844 0.061527703 -0.07355898
0.07223198 -0.07176384 0.07763676 0.023505049 0.028649205 0.011146867 -0.035908386 0.03245072
-0.012440023 -0.08653474 0.03784487 0.086250454 0.018929208 -0.004612313 -0.06298882 0.07121445
0.0037717763 0.02725243 0.032588705 -0.040492333 -0.050423943 0.068836145 -0.0068515693 0.0019801694
0.01758739 -0.0736776 0.036367934 0.05139569 -0.015278144 -0.05214919 0.07533019 0.01778925
0.046794254 0.0046712137 0.05163054 0.034302626 -0.06365625 0.023680847 -0.028973373 0.023909923
-0.031173272 0.054109547 -0.05109006 0.01589765 -0.045616094 0.06197188 -0.025354132 -0.03717893
-0.048369702 0.012321542 -0.08279299 0.017342417 0.07884101 0.033340644 0.032350592 -0.04287738
0.04121869 0.023658045 -0.029161155 -0.07008676 0.07537529 0.033740934 -0.0020651799 -0.0021539887
0.07645015 -0.0911221 -0.003907345 0.0048309756 -0.021918613 -0.010394236 -0.027576087 -0.01445197
-0.016691813 -0.072512485 -0.017395843 -0.058250267 -0.0138057545 -0.016559508 0.006923043 0.020292519
0.021798123 0.045411278 -0.057402898 0.009077363 0.0781617 -0.07068271 -0.07684013 0.08871087
0.024634264 0.027547115 0.01663522 -0.079582505 0.079680145 0.00047137323 0.006094658 -0.0032128056
0.007816406 0.083168246 0.0056635095 -0.065407045 -0.039015662 -0.059085388 0.019380175 -0.06253696
0.041986946 -0.05898435 -0.0013190511 0.051222164 -0.04524882 -0.069852196 0.07974826 -0.04723658
0.0372489 -0.01063074 0.05048429 0.05580012 0.05231113 0.03569051 -0.06981646 0.030756231
0.013389281 0.002761347 -0.051840413 -0.030878915 0.0048833336 0.0034736393 0.01001145 -0.007185904
-0.077183284 0.042045865 0.052953646 -0.004876464 0.064283505 0.0051408657 -0.04142468 -0.012725332
-0.030492248 0.08162045 0.012689822 -0.076710396 -0.045197863 0.055908404 -0.06745898 0.020940531
-0.014209142 0.051520977 -0.0946798 0.06109987 0.016114466 -0.04760213 0.011788726 -0.093115106
0.013460872 0.011685948 0.03838451 0.01888465 0.017066106 -0.100458935 0.032599065 -0.064613074
0.058484346 0.03780324 -0.07351931 0.021573588 -0.03349626 -0.06861902 0.057299048 0.025747212
0.0633861 -0.024412647 0.015340562 0.00052615855 -0.085955754 0.050140727 0.009239554 -0.08639237
-0.040245246 0.06122039 -0.010928845 0.028466046 0.07395448 0.06305193 0.068293564 -0.06215246
0.053498037 0.04197735 0.008549133 0.017390722 -0.0570943 0.016706608 0.030652655 0.06699558
0.050423212 0.093323775 0.07205439 -0.065882266 -0.05041359 0.04508242 0.0773501 0.065065905
-0.0029207359 0.07465505 0.01681026 -0.0076117716 -0.034040626 -0.026802534 -0.049728997 0.05916382

layers.0.f_def.weight f4 [1, 128]
00000000: 75ec 0e3e 547a ebbd 3bc4 75bc a940 96bd
00000010: 52b5 cb37 fb96 d3bd fbc8 fcbc c14c c3bd
00000020: 014e b03b ddf5 e2bd 734d babd 617c 933d
00000030: d4cf 06bd 2c34 a53d c399 4fbd b101 26bb
00000040: 5c24 47bd e976 823d 5d93 953d 6e92 7d3c
00000050: 59cf bf3d f9e3 cebd 0115 f93d d6c5 fd3c
00000060: ce79 2bbd 0697 9cbc ff51 a2bc adc8 e1bc
00000070: 66f9 e43d f014 98bc e089 043d 02ca aebd
00000080: 5b4f 5f3c 220c 05be 4a24 6e3d fb4d fabd
00000090: 9af3 5fbd 06a1 7cbd b061 01be 53cc ebbd
000000a0: 594b 163d 4832 a53d b36f dcbd 7c0c 3f3c
000000b0: 3284 83bd 8720 a23d 2646 343c 6a96 c2bc
000000c0: 98f1 d23b 1f83 bbbd 0ad5 2b3d 2304 24bd
000000d0: 33e2 babd 9f78 5abc 9491 f2bd 8662 48bd
000000e0: 51d7 213e c3c7 113d 7e61 d03d 1fcd 6abd
000000f0: 7cac 003d 2858 af3c cf45 143e cda9 d8bd
00000100: 3ac1 333d 370d 3ebd 15c4 fabb cc45 8e3d
00000110: b66e 683b 5c0e 203e f8f1 3cbd efed 19bd
00000120: a331 adbc 5bfa d83c 74c8 7a3d 490c f53c
00000130: c66f d83c 757c 0abe f756 96bd 9951 993d
00000140: ac22 f83d 6d5b 2ebe b338 68bd e89a 59bd
00000150: 3e08 74bb 2eed f0bc 299d 9bbc 96b0 8f3d
00000160: 0eb2 f7bd d128 a43d b865 d9bd e585 dbbd
00000170: 39da 20bd ae3f b439 c833 12be ff9c 17be
00000180: 2932 33bd fb2b 5bbc 0c74 043c 16f7 1c3d
00000190: 2e21 0c3e 23ff 60bb 76fb d43d df9e 413d
000001a0: 7b19 b2bd dcf8 9c3b b7d5 a13d cfd9 5ebd
000001b0: a466 45bd d734 7cbb 3eb4 763d d094 1bba
000001c0: 959e 023e 7b39 2a3d 8a6d a13d 00fd 7e3d
000001d0: 9a82 b23a 03a7 07be 243c 043d e9d2 07be
000001e0: 83d3 9ebd 2e9a bfbd bd7d c13d cb9e 6e3d
000001f0: a79a 3e3c 8d16 f13c 21aa 4e3d b8bb 80bd
0.13957389 -0.114979416 -0.015000398 -0.07336552 2.428392e-05 -0.103315316 -0.030857554 -0.09536124
0.0053803925 -0.11082051 -0.090968035 0.07201458 -0.032913044 0.080665916 -0.050683748 -0.0025330598
-0.04861866 0.063703366 0.07303498 0.015476806 0.0936572 -0.10102076 0.12162209 0.030978125
-0.04186421 -0.019114982 -0.01981449 -0.02756151 0.111803815 -0.018564671 0.03235805 -0.08534624
0.01362976 -0.1299291 0.058140077 -0.12221905 -0.054675676 -0.061677 -0.12634921 -0.11513581
0.03669295 0.08066231 -0.107634924 0.011660691 -0.06421699 0.0791636 0.011003053 -0.023753364
0.0064374916 -0.09155869 0.041951217 -0.040043008 -0.09125175 -0.013334422 -0.11844173 -0.048922084
0.15804793 0.0355909 0.10174845 -0.057324525 0.031414494 0.02140434 0.14479755 -0.10579262
0.043885447 -0.04639932 -0.0076527693 0.069469064 0.003546638 0.15630478 -0.046129197 -0.037580427
-0.021141833 0.026486566 0.061226323 0.029913085 0.026420485 -0.13524039 -0.07340806 0.07486267
0.12115988 -0.17027064 -0.056694698 -0.053126246 -0.0037236358 -0.029409971 -0.018995838 0.07016103
-0.12094508 0.080155976 -0.106151044 -0.10718898 -0.039270613 0.0003437972 -0.14277565 -0.14805983
-0.04374901 -0.013377185 0.008084308 0.038321577 0.13684532 -0.003433176 0.10399525 0.047270652
-0.08696266 0.0047904085 0.07902091 -0.054406937 -0.04819359 -0.0038483643 0.060230486 -0.00059349556
0.12755807 0.041558724 0.07882221 0.062253 0.0013619245 -0.13247304 0.032283917 -0.1326405
-0.077551864 -0.09355579 0.09447811 0.058256906 0.011633552 0.029429698 0.050455216 -0.062858045

layers.0.W_self.weight f4 [128, 128]
00000000: f3b4 c73c bd9d babd 43fd 013d 2b61 3abd
00000010: 6133 8bbd 71d1 773c 571f a23d 4ea8 adbc
00000020: 591e 92bd ce15 a2bc af87 20bc e28a 6bbd
00000030: 66a4 953d 1b3a a5bd 2158 1dbc 1fb4 16bd
00000040: a593 abbd 6286 9b3d 29f9 283d 7b1b c5bc
00000050: fb1a 0dbd 0ef9 55bc f0bf 7c3d 0f39 853c
00000060: 3dc1 b4b7 93ab babc 4855 a7bc ed8d 053d
00000070: 0edc c73d b0b7 d43c a2fc 8a3d ce3e 4fbd
00000080: 06dd e4bc cbcd 34bd caeb 05bd ca76 653d
00000090: 57bd a73d ba18 853d 2ea0 3c3d 2d54 4e3d
000000a0: acd5 9ebd 226d ed3a 960b 973d 20d6 07bc
000000b0: 9dbe aa3a 78dc a0bd 3b0c b13d 4b7d 463d
000000c0: 117b 733d 8f10 a8bd 953b 2f3c 545a 0b3c
000000d0: f6ad 96bd fe00 1cbc a613 f33c 458c a6bd
000000e0: d90b 6c3d 9eb6 96bc eedb 903d 64b4 7d3d
000000f0: d73b f93b 4c15 b5bd 1d86 ce3c 584d 973d
00000100: 9993 4f3b 0ad3 a0bc d365 713d 780f 99bb
00000110: 89ee 66bd 0b1b 98bc 2335 c0bd 3aa1 a2bb
00000120: b36f 0d3d 4d33 c53c f462 b9bd 0510 af3d
00000130: 7c44 093c 6b4e 2cbd ef06 edbc a945 87ba
00000140: 6c30 83bd ac44 b23c 42cc ab3d 4d6a dbbc
00000150: a971 65bd 683a 173d 0cee 9b3d 259a 5d3c
00000160: e23f d43b 5b8c 2a3d 92c7 70bd dbf6 6d3d
00000170: c7a7 2dbd d5f3 7fbd 7cc7 8ebd fa9c b3bd
00000180: d9a9 8ebc ad2e 633d 87bb 2f3d 4b9c 09bd
00000190: f7e2 5f3d c06b 6d3d 5488 1e3d 7add 7e3d
000001a0: e2cc 3bbd 6156 213c 39ac 9dbd 2230 9cbc
000001b0: 295e 993d f547 d23c 7001 d33c 6895 0ebd
000001c0: 2ff7 64bd 9908 363d 4704 b23c 122b c2bd
000001d0: f02b 3a3d 87bf a33d 9db1 85bd adf4 8b3d
000001e0: 5a1c 9bbd 4a87 ceba 3c0f cdbc a983 033c
000001f0: 365a a33b 07bf b63d 86eb cb3c 6353 403d
00000200: 90ed 903d d0b0 a23c b881 03bd 3a50 41bd
00000210: ec19 a23b cd7f 403d 7cba a93d 33ff 81bd
00000220: 6b99 96bd 3228 00be c653 d6bc 7845 b43d
00000230: 9949 903d e2a5 e2bd 8ff9 8fbb 947d 2e3b
00000240: e6c8 333c 6fe0 453c d506 88bd e015 6e3d
00000250: 5481 36bd 92e4 0b3d 9eb8 4c3d 21f6 b5bd
00000260: adb2 4abc c232 593d 38a1 0bbd cc20 0a3d
00000270: 1b4a a6bd 374c d03b 7aab 2a3d 7447 a33d
00000280: d985 363d 6cde 95bd 8447 d5bd 5b0e a0bd
00000290: f649 82bd 0969 bf3c b13f 5abd ae22 113d
000002a0: 35af 973d 4925 373d c643 02bd f991 ba3d
000002b0: 00fc 96bd f5cb 803d d8f9 d83d 2388 a93a
000002c0: 151c d83d b71b 8b3d 169a d43d b0bf 943d
000002d0: 6292 34bd 851b 8f3d 1202 c2bd 0f10 06b7
000002e0: 68a8 91bc 56a3 fdbd 932c bbbd 65fb 44bd
000002f0: 60d2 babd 72db 2c3d 39da c0bc 6524 283d
00000300: c8d3 de3c 1827 a3bc c3f3 f53c 327a b43d
00000310: dc6b c13c f3b8 bc3c 13b9 0d3b 9f8e 513b
00000320: df78 5e3d e2e7 c03d 8d7a 03bd b704 343c
00000330: 9062 04bc cea8 813c c8fa a53d 4002 6a3d
00000340: acd3 f6bd 3383 a2bd 3fcb e7bc acfb c8bc
00000350: 9fc5 57bd 766e dfb9 4d82 b3bd 029a 2fbd
00000360: 77f4 d2bc 2d06 d2bd 59bb 623d 37af 67bc
00000370: 45ce 153c 5f2a 78bd ae08 eebd b5c3 35bd
00000380: 0ef8 3a3c 2343 f23c 8284 73bd cad7 fabc
00000390: 1f47 7b3d 3295 aa3a 03f8 46bd 2cd7 aabc
000003a0: 6456 8c3d 1663 dc3c 954f a0bd 34d2 7c3d
000003b0: 5e4b 49bd f976 053d 8334 933d b23a f93b
000003c0: 0c2f a3bc 607e 603d 237e 8a3d cf60 7cbd
000003d0: 6977 2ebd a98a cc3c 62b8 ce3d ae4c f63d
000003e0: a482 b9bc 2935 d4bd 849e 3f3c bc4b 933d
000003f0: 9f10 3fbd a3fa 4d3d 1779 4cbc 32de ed3d
0.024378275 -0.091121174 0.03173567 -0.045502823 -0.06796909 0.015125618 0.07916134 -0.021198418
-0.071346946 -0.019785788 -0.0097979745 -0.057505496 0.07306747 -0.08067723 -0.009603531 -0.03679287
-0.0837777 0.07593991 0.041253243 -0.024060955 -0.03444956 -0.013059868 0.061706483 0.01626256
-2.1547656e-05 -0.022786891 -0.020426407 0.032606054 0.09758769 0.025966495 0.06786467 -0.050597005
-0.027937423 -0.044141572 -0.03269557 0.05602149 0.081904106 0.06498857 0.046051197 0.050373245
-0.077555984 0.0018114189 0.07375257 -0.0082907975 0.0013026778 -0.07854551 0.08644911 0.048459332
0.059443537 -0.08206283 0.010695358 0.008505423 -0.07357399 -0.009521721 0.029672455 -0.08132223
0.057628486 -0.018397626 0.07073198 0.061939612 0.0076060104 -0.08841953 0.025210435 0.07387799
0.0031673668 -0.019631881 0.058934998 -0.0046710335 -0.05637983 -0.018567583 -0.09385135 -0.0049630674
0.034530353 0.024072314 -0.09052077 0.08547977 0.008378144 -0.042066973 -0.02893397 -0.0010320443
-0.0640572 0.02176126 0.083885685 -0.026784087 -0.056016598 0.036920935 0.07613763 0.01352552
0.006477342 0.04163776 -0.058784075 0.058096748 -0.042396333 -0.062488396 -0.069716424 -0.08770175
-0.017414974 0.055464435 0.04290345 -0.03359632 0.05465981 0.057964087 0.03870423 0.062222935
-0.04584969 0.0098472545 -0.076988645 -0.01906592 0.07488663 0.025669077 0.025757521 -0.034810454
-0.055899795 0.044441793 0.021730555 -0.09480871 0.04545206 0.07995515 -0.06528018 0.068337776
-0.07573767 -0.0015756872 -0.025031678 0.008026996 0.004985119 0.08923154 0.02489258 0.046954524
0.070765615 0.019859701 -0.03210613 -0.04719565 0.004946938 0.04699688 0.08287522 -0.063475035
-0.07353481 -0.12515333 -0.026162993 0.088023126 0.07045288 -0.11066796 -0.0043937634 0.0026625143
0.010973191 0.012077435 -0.06641928 0.05812633 -0.04455693 0.03415353 0.049980752 -0.08884836
-0.012371701 0.053026922 -0.034089297 0.033722684 -0.08119603 0.006356742 0.04166744 0.07972613
0.04456124 -0.07317814 -0.10414031 -0.07815238 -0.06361763 0.023365514 -0.053283397 0.035433464
0.07406465 0.044713292 -0.031802915 0.09109873 -0.07372284 0.06288902 0.10594529 0.0012934249
0.10552231 0.067923956 0.10380952 0.07263124 -0.044084914 0.06987671 -0.09473051 -7.990761e-06
-0.017780498 -0.123846695 -0.09139361 -0.04809131 -0.09122157 0.042201467 -0.023541557 0.041050334
0.027200595 -0.019916102 0.030023461 0.088123694 0.023611002 0.02303741 0.0021625205 0.0031975878
0.05431449 0.09419228 -0.032099295 0.010987452 -0.00808014 0.015827563 0.08104473 0.057131052
-0.12052092 -0.079351805 -0.028295157 -0.024534069 -0.0526787 -0.00042616174 -0.08765087 -0.042871483
-0.025751336 -0.10255084 0.05535445 -0.014140896 0.009143417 -0.060587283 -0.11622749 -0.044376094
0.01141168 0.029573029 -0.05945254 -0.030620474 0.061347123 0.0013014434 -0.048576366 -0.020854555
0.06852415 0.026902717 -0.07827679 0.061723903 -0.04914414 0.032584164 0.0718775 0.007605874
-0.019919895 0.05480802 0.0676234 -0.06161576 -0.042594347 0.024968462 0.10093762 0.12026344
-0.022645302 -0.10361702 0.011695508 0.071921796 -0.04664671 0.050287854 -0.012480042 0.11614646
