checkpoints/rank_sweep/refined_lambda__10000000000000000000.pth (torch, 889889 bytes, 36 tensors)

input_norm.weight f4 [7]
000000 4a 2f 7e 3f f4 93 58 3f 04 7b 69 3f 8a bc 7d 3f
       0.9929091 0.8460076 0.9120333 0.9911581
000010 4a 96 76 3f 01 0e 84 3f 88 60 84 3f
       0.9632307 1.0316774 1.0341959

input_norm.bias f4 [7]
000000 bb 63 de 3c b1 13 ab bd 17 29 16 3d fc 22 e8 3c
       0.027147165 -0.08353365 0.03666028 0.028336994
000010 83 33 6b bb 42 f7 cf ba 6c f7 95 bc
       -0.0035888858 -0.0015866535 -0.018306457

layers.0.embed.weight f4 [128, 7]
000000 6a f3 ec bb 5f 71 12 be a2 b3 7d be dc 91 9f bc
       -0.0072311657 -0.1430106 -0.24775556 -0.01947873
000010 f1 b7 57 be 2d 42 ba 3e cc e0 bf bd 82 ef 8d be
       -0.21066262 0.36378613 -0.093690485 -0.27721792
000020 0a 8e 52 be 18 16 95 3e 08 e4 18 be 12 80 14 3e
       -0.20561996 0.2911842 -0.14930737 0.1450198
000030 3e 7d 08 be bd 14 8a be 40 8b 80 be 91 30 f7 bd
       -0.13329026 -0.26968947 -0.2510624 -0.1206981
000040 cc 1e 8b 3d da 29 b0 3d f5 95 fd 3d 76 6a a4 be
       0.067929834 0.086017326 0.12382118 -0.32112473
000050 aa e2 76 3e d5 83 1f bd 7c db a0 bd 0b 79 3e 3e
       0.24109903 -0.038944084 -0.07854363 0.18600862
000060 a0 64 40 be 6d 8d 8e be 3c 3b 5b 3e 5e b9 a2 3d
       -0.18788385 -0.27842274 0.21409315 0.07945512
000070 ab d6 cc 3d c7 7e a6 3e 51 12 89 be 59 df b3 3d
       0.10001882 0.32518598 -0.26771787 0.087828346
000080 77 97 92 be 91 72 30 3d d0 1d 2c bd db ec 9a 3c
       -0.28631184 0.04307801 -0.04202062 0.01891177
000090 08 66 35 bd 5a 54 8b 3e 33 58 9c be c4 6a 4c 3e
       -0.044286758 0.27212793 -0.3053604 0.19962603
0000a0 c4 2f 8f be 0d f8 b7 3d 37 01 6f be 4b 2e 95 be
       -0.2796613 0.08982859 -0.23340307 -0.2913688
0000b0 58 ca af 3e d7 19 b0 3e 7f e6 85 be 01 c9 b1 3d
       0.34334064 0.34394714 -0.26152417 0.086809166
0000c0 93 e5 18 3e f0 af 52 3e 56 56 6c 3d c6 c3 78 3e
       0.14931326 0.20574927 0.057699524 0.24293432
0000d0 64 9c ac be ab c1 1c be 82 06 a1 be aa a8 b8 3e
       -0.33713067 -0.15308253 -0.31450278 0.3606618
0000e0 b2 56 a7 be 32 76 5d 3e 2f fe a6 3e 22 d4 85 3d
       -0.3268333 0.21627119 0.32615802 0.06534602
0000f0 f4 31 6f 3e 72 45 c7 3e 45 df c6 be 4c 5b 07 3e
       0.233589 0.3892017 -0.38842216 0.1321842
000100 56 7e 23 3e c6 92 a4 be ce bc 95 bd ca 73 3d bd
       0.15966162 -0.3214323 -0.07311402 -0.046253003
000110 56 f2 9f be e6 b3 66 3e 7e 16 e7 3d 08 bd d8 bd
       -0.31239575 0.22529563 0.11283587 -0.1058293
000120 2e 0a b1 3e 87 5f 5d bc 19 26 53 3e 48 66 7b 3e
       0.3457808 -0.013511545 0.20620002 0.24550736
000130 72 9a 1e bd 1a c9 53 bd c3 b4 aa be 29 fc 58 3e
       -0.03872151 -0.051705457 -0.33341035 0.21189941
000140 07 33 92 3d 95 48 99 3e b4 14 0b 3e 74 1c 8b be
       0.07138639 0.29938188 0.13582116 -0.27170146
000150 d6 1b 58 be de f7 e7 bd 65 45 a5 bd ab bc a9 be
       -0.21104369 -0.11326574 -0.080698766 -0.33151755
000160 77 2c 24 3e 89 0e 98 be 45 58 56 be 9d 4d 4e 3d
       0.16032587 -0.2969859 -0.2093211 0.050366987
000170 d7 bb 1a 3d da 3b 06 3d d4 36 02 3c 92 b8 cf 3d
       0.037776794 0.032771923 0.007947642 0.10142626
000180 17 e1 92 3e bb df 22 be 94 4c 96 be 3b 16 b7 3d
       0.28687355 -0.15905659 -0.293553 0.08939787
000190 33 48 89 3e 22 4b e5 bd bf f4 01 3e 79 d0 7e be
       0.26812896 -0.11195971 0.1269102 -0.24884214
0001a0 7d f3 91 bd 4a d8 a6 be f9 a5 ae be de 71 96 bc
       -0.0712652 -0.3258689 -0.34111002 -0.018364843
0001b0 cc 89 51 3e 6e 88 80 bd e9 e6 a9 3e d1 5d c2 3d
       0.20462722 -0.06276022 0.33183983 0.0949055
0001c0 fb 2b 83 3e 54 cd 9d be 22 f3 36 be 7f eb a9 be
       0.25619492 -0.30820715 -0.17866185 -0.33187482
0001d0 d0 a6 17 3e 14 6d fb 3d 54 1a 94 bd 2f ee 0d 3e
       0.14809728 0.122766644 -0.07231584 0.13860391
0001e0 1e b0 ac be 8c 5e 91 be ff 97 97 bd dd 13 35 be
       -0.33728117 -0.28392446 -0.07402038 -0.17683358
0001f0 2c 8c 76 be 46 dc b5 be d5 2f a9 3e 9e 5c 85 3e
       -0.24076909 -0.35519618 0.33044305 0.26047224
000200 c6 eb b3 bb e7 8e 9c 3e e8 7e 6f ba af 3b 94 bd
       -0.005490753 0.30577776 -0.0009136037 -0.07237946
000210 c6 13 95 be 10 46 47 3e 1c 3c 57 3e 99 24 12 bd
       -0.29116648 0.1946032 0.21019024 -0.035679433
000220 0d 23 10 3d 69 6f 1f 3e 42 5f ca be 16 ca 6c 3d
       0.035189677 0.15569843 -0.395258 0.05780991
000230 cc 0c 20 be 0b c8 ac 3c 12 a9 6e 3e db 7b 3d 3e
       -0.15629882 0.021091482 0.23306683 0.18504278
000240 9e 5a 1a be fe a7 37 3e be 8d 3a 3e c1 d6 85 3e
       -0.1507363 0.17935178 0.18218133 0.26140407
000250 74 23 2a 3e a9 02 c4 3e 50 25 67 be 86 f2 0b be
       0.16615087 0.3828328 -0.22572827 -0.13666734
000260 0b 28 14 3d 80 a2 be 3d 3d c4 23 be c8 02 d5 bd
       0.036171 0.09308338 -0.15992828 -0.10400921
000270 6c 24 2e be d8 62 9e be ef d8 0c bc 5b 08 28 3d
       -0.17006081 -0.30934787 -0.008596643 0.041023593
000280 82 cd 8d 3e b6 e6 2d 3e 1d f8 06 3e 6b 11 95 3e
       0.27695853 0.1698254 0.13180585 0.2911485
000290 52 40 bb 3c 2e 14 56 3e 50 29 4d be 78 4d e1 3e
       0.022857819 0.20906135 -0.2003529 0.44004416
0002a0 b5 2d 90 be 35 9a 3d be b3 cf 5a 3d 68 60 93 be
       -0.28159872 -0.18515857 0.053420734 -0.2878449
0002b0 55 33 84 3e 99 b8 eb 3d f6 8b a3 3e 34 61 bd 3e
       0.25820413 0.115098186 0.3194272 0.36988223
0002c0 58 c4 b7 3e ba 5d 35 3c 46 47 05 be d2 4d a0 3e
       0.35891986 0.011069709 -0.1301547 0.31309372
0002d0 b4 05 58 be 6e 42 ed 3d 02 d3 9d be 84 cd ce bd
       -0.21095926 0.11584936 -0.3082505 -0.10097793
0002e0 16 51 b5 3e c9 9f b5 3e ad 57 a1 be 03 37 c0 3e
       0.35413426 0.3547347 -0.31512204 0.3754197
0002f0 76 1a a0 be a7 fd 7f be f7 81 01 3e 4e 78 12 be
       -0.31270188 -0.24999104 0.12647234 -0.14303705
000300 d5 4d 76 be 0e 58 9f bc 51 32 ab be e8 15 a7 3e
       -0.24053128 -0.019451167 -0.33436826 0.326339
000310 1f 08 b1 3e 15 66 96 3e 91 ef bb bd fc 5e 16 be
       0.34576508 0.29374757 -0.09176553 -0.14684671
000320 6b ab b5 3d 0f 6e 81 be cd 2d 9a 3e 32 5a 03 3e
       0.08870586 -0.2527928 0.30113068 0.12827376
000330 bc d5 07 be 36 fa f6 3d ac 8f 9f be 2c 99 37 3e
       -0.13265127 0.12059443 -0.311643 0.17929524
000340 78 25 4c be 30 a5 8c 3e cc 16 79 3e 8d 95 9c 3c
       -0.19936168 0.27469778 0.24325103 0.01911428
000350 8b 09 da 3c 4f f1 52 bd 85 cf 0d 3e de c1 8e 3e
       0.026615879 -0.05149966 0.13848694 0.27882284
000360 3b 88 38 be 8f b6 8f be 80 65 3b 3e fa 53 09 be
       -0.18020718 -0.2806897 0.18300438 -0.13410941
000370 6a 80 94 be 2f a7 4e 3e d0 dd c7 3d 17 f1 89 be
       -0.29004222 0.20180963 0.09759104 -0.2694175
000380 94 c4 2f bb 29 7e 34 3d de 79 18 3c 27 98 01 3e
       -0.002682005 0.04406563 0.009306399 0.12655698
000390 e2 d2 10 3e f8 79 9f 3e 07 a1 92 3d 9b c9 af 3e
       0.14142945 0.31147742 0.0715962 0.343335
0003a0 ca a7 c7 3d 71 21 9f 3e 2b 3b 88 3e 9b 46 1d be
       0.097488 0.310802 0.26607642 -0.15358965
0003b0 04 ba 76 3e 86 f4 84 3d cc ad a4 3e 32 47 1d 3e
       0.24094397 0.06491952 0.32163846 0.1535919
0003c0 85 be e8 bc c1 8e 29 bc 42 5c 8d 3d 40 e4 1a 3e
       -0.02841116 -0.010348977 0.069023624 0.15126133
0003d0 fb 79 ff 3d e8 64 ff bd 63 ee ac be ca 4e 75 3e
       0.12474438 -0.12470418 -0.33775625 0.23955837
0003e0 cd e6 77 3d 49 fd 3e 3e d4 5c b5 3e 9f d2 bb be
       0.060522843 0.18651308 0.35422385 -0.3668413
0003f0 af b8 54 3e e2 a3 80 3e ec c0 5a 3d 63 17 ad 3e
       0.20773576 0.25125033 0.05340664 0.33806905

layers.0.embed.bias f4 [128]
000000 da c0 df 3d 46 dc 36 bd fd 6d 68 3e 56 29 a4 3e
       0.109254554 -0.044643663 0.22698207 0.32062787
000010 f5 9a 85 be bd 1d 79 3e cb 3d 5f 3e 92 6a 33 3e
       -0.26094785 0.2432775 0.21800916 0.17521122
000020 46 ca 93 3d e6 c8 bf bd d6 3f 12 be 28 fa 1e bd
       0.07216315 -0.0936449 -0.14282164 -0.038812786
000030 50 4d d2 bd 34 fe 39 be 0d 51 a7 3e f8 f4 14 3e
       -0.102686524 -0.18163377 0.32679024 0.14546573
000040 81 ad a9 be 42 a7 aa 3e a8 ca 22 3e c5 53 c2 3d
       -0.33140185 0.33330733 0.1589762 0.09488634
000050 b6 42 4a be d6 96 ac 3e 1e bf 45 bd 5d 3f 25 be
       -0.1975201 0.3370883 -0.048277967 -0.16137452
000060 d7 42 46 be c9 eb 09 3e 7f 96 09 be 3a 4b 8e be
       -0.19361435 0.13468851 -0.13436316 -0.27791768
000070 b1 7c 6c 3e 2c 35 b5 bd ac f7 af 3e 54 4c a8 3e
       0.23094441 -0.08848032 0.34368646 0.32870734
000080 cd 58 05 be fa 0a 20 3e d2 8a 1e 3e 09 ca 8d be
       -0.13022156 0.15629187 0.15482643 -0.27693203
000090 ac ba c8 bd 6f 53 2e be 6c e5 b8 3e e2 3b 43 be
       -0.0980123 -0.17024015 0.36112535 -0.19065812
0000a0 8c a2 3c be 46 06 8c 3e 54 cf ba 3d 76 bc c8 3d
       -0.18421382 0.27348536 0.09121576 0.09801571
0000b0 6d 3f 97 3d e4 ad 7a 3d 1c fe 50 3d 4d 00 bd be
       0.073851444 0.06120099 0.051023588 -0.36914292
0000c0 ea 0f 8a 3e e7 ea 7f be 01 7d 41 be 68 84 c2 3c
       0.26965266 -0.24991952 -0.18895341 0.023744777
0000d0 f9 cc 67 3e d9 01 a1 be 43 32 9d 3e 71 ee 8a 3e
       0.22636785 -0.31446722 0.3070241 0.2713504
0000e0 f0 23 8a be b9 75 a2 be e6 85 5d 3e e1 99 0e 3e
       -0.26980543 -0.3173044 0.2163311 0.13925888
0000f0 55 b2 ed 3c 5a da c5 3e 55 43 c5 bd 5b b4 e0 bd
       0.0290157 0.38643152 -0.09631983 -0.109719
000100 25 75 bd 3e 9c d5 5f 3e 52 74 be bd d7 06 e9 3c
       0.37003437 0.2185883 -0.0929953 0.028445644
000110 6c 18 6c 3e d5 57 98 be a2 1e 9b be 9e 62 4a bc
       0.23056191 -0.2975451 -0.30296808 -0.012352614
000120 64 8f 25 3e 96 9b 07 3e b3 6c 83 bd 84 0c da 3d
       0.1616798 0.13242945 -0.06417217 0.106469184
000130 c7 21 7f 3e 5d 14 0d 3e 02 71 e1 3c bf eb 51 3e
       0.24915229 0.13777299 0.027519707 0.20500086
000140 0e d6 ee 3d 0f 09 19 bd d4 a9 79 be d3 e3 b6 3e
       0.116619214 -0.037362155 -0.2438119 0.3572069
000150 9f 28 c3 be 29 39 11 3e b6 6a 1d 3e e9 60 37 be
       -0.3811693 0.14181961 0.15372738 -0.17908062
000160 ab 1a 74 be dc 26 06 bd c9 4f 27 3e 51 b1 68 3d
       -0.23838298 -0.032751903 0.1633903 0.056809727
000170 cd 65 4d 3e 72 97 c3 be da 1a 9f be 1a 06 aa 3e
       0.20058365 -0.3820148 -0.31075174 0.3320778
000180 79 c2 58 3d 06 e1 e4 39 b8 3a cf 3d e4 65 8b bd
       0.05291984 0.00043655204 0.101186216 -0.068065435
000190 ee ce 64 be ef 79 a2 bd 42 be 66 3c d0 47 85 3d
       -0.22344562 -0.07933413 0.014083447 0.06507838
0001a0 6e da e6 3d 7f 16 a4 bd 7e 80 8e be 2f fc 9c be
       0.11272131 -0.08012103 -0.27832407 -0.3066115
0001b0 84 54 6b 3e 30 db 9e 3e 5f fb 16 bd 89 3e 0c 3e
       0.22981459 0.31026602 -0.03686082 0.1369573
0001c0 d4 61 62 be 6b 83 aa 3c 44 7c d3 bb ac 35 96 3e
       -0.22107631 0.020814618 -0.0064540226 0.29337823
0001d0 49 31 3b be 17 c4 a9 3e 60 1d 47 3e c4 4f 0a 3d
       -0.1828052 0.33157417 0.194448 0.033767477
0001e0 62 42 83 3c d3 9f 86 3e 4e 22 a4 3e 35 a5 64 3d
       0.016022865 0.2629381 0.32057422 0.055821616
0001f0 19 b7 16 3e b7 cd 26 be ad c5 54 be cd d0 e0 bd
       0.14718284 -0.16289411 -0.20778532 -0.109773256

layers.0.W_att.weight f4 [128, 128]
000000 29 be e0 bc 29 d3 8a 3d 6f 80 d8 bc 56 3f a2 bd
       -0.027434425 0.06778557 -0.02642843 -0.079222366
000010 90 02 b2 bd 3d 29 2d bc 33 93 e2 bc e4 08 84 bd
       -0.08691895 -0.010568914 -0.02765808 -0.06447008
000020 bc c5 87 3d e3 f9 f8 bb 37 91 99 3c 4f da ac bd
       0.06629512 -0.007598148 0.018746002 -0.084400766
000030 46 45 26 3c 6c 49 cb bc 74 9d 2e 3d 13 d2 b8 bd
       0.010148352 -0.024815284 0.042630628 -0.090244435
000040 43 ee 4d 3c fc 80 ac bc 8d 17 8a 3c ce c5 7f bd
       0.012569013 -0.021057598 0.016856933 -0.0624445
000050 37 a5 42 bc 49 ee 69 3c 8e fe 22 3d ec 5c 4b 3c
       -0.011880211 0.014278003 0.039793544 0.012412291
000060 0a 85 14 bd bb dc d4 3c ed 90 79 bc b0 4b 1d 3b
       -0.03625969 0.025984159 -0.015232307 0.0024001412
000070 c2 33 fb 3c c9 55 91 bd 71 97 7f 3d 2d 3f 8f 3d
       0.030664328 -0.0709644 0.062400285 0.06994472
000080 c4 be 7c 3d eb 85 a6 bd e9 05 98 3d ef 9e e1 3c
       0.061705366 -0.081310116 0.07423002 0.027541606
000090 cf 7b ad bc 4c 97 7f 3d 6e a5 8e bd 0c 1f 87 3d
       -0.0211772 0.062400147 -0.06965147 0.065977186
0000a0 54 2d f8 3c c0 60 89 bd 7c 40 20 bd de c0 29 bd
       0.030295052 -0.06707907 -0.039123997 -0.041443698
0000b0 90 79 d9 bc 11 ab 01 3b fb 20 9a 3c c9 42 81 3d
       -0.026547223 0.0019785801 0.018814554 0.063115664
0000c0 e3 7b 8e bd 4c 63 ba bc c7 51 12 3d 18 00 63 3d
       -0.06957223 -0.022752427 0.03572252 0.05542001
0000d0 cf 00 a7 3d 69 cc 82 bd 0b 27 b6 3d 9c e9 9f bd
       0.08154451 -0.063866444 0.088941656 -0.07808229
0000e0 60 69 4f 3d dd cb 6a 3d 5f a8 92 bd db 79 54 bd
       0.050637603 0.057323325 -0.071610205 -0.051874023
0000f0 83 ed 19 3d 83 f2 4a 3d a7 23 b4 3d 3b bb c4 bc
       0.037580024 0.049547683 0.08795863 -0.02401506
000100 7b 88 82 bd d5 2c 2c bd e3 43 0d bd dc 15 19 bd
       -0.06373688 -0.042034943 -0.03448857 -0.037374362
000110 48 c5 70 bc 2d d4 36 bd 5f fe 75 3d 47 f4 59 3d
       -0.014695473 -0.04463594 0.06005704 0.053211477
000120 d5 58 36 bd ac 2b 95 3d 19 ac c9 bd 09 a0 31 bd
       -0.04451831 0.072837204 -0.09847278 -0.043365512
000130 c2 08 50 3c 9d dc 42 bd 96 ac 4d bd ba 8b 94 bc
       0.0126974005 -0.047573674 -0.05021342 -0.018133033
000140 d2 19 6f bd 72 12 a6 3d 83 a7 a5 bd 82 6c 33 3c
       -0.058374234 0.08108987 -0.08088591 0.010951163
000150 59 dc ce 3c 65 0e 20 3c b8 52 d7 3c 89 43 e4 bc
       0.025251554 0.009769057 0.02628456 -0.027864235
000160 5f 50 e4 bc a3 2b 21 3d e7 2c 94 bd 90 cd 9a 3d
       -0.027870355 0.039348256 -0.07235127 0.07558739
000170 0d ff 87 bc da 0f a7 bc 87 7a 1c bd ff ee a5 bd
       -0.01660111 -0.0203933 -0.03820279 -0.081022255
000180 13 6d ff bc 12 11 bb 3c 2a ae 64 bd 5f d2 a5 bc
       -0.03117994 0.022835288 -0.05583016 -0.020241914
000190 31 1a 81 3d 9c 99 77 bd 27 7c 9c 3c 1a a6 09 bd
       0.06303824 -0.060449228 0.01910217 -0.033605672
0001a0 8e ba af bd 47 b8 1b 3c 59 d4 ff bc f7 0d 4b 3d
       -0.08580504 0.009504384 -0.031229185 0.049573865
0001b0 ca f1 88 3d 7e 4c 6e 3d d7 53 ce 3c f2 9d 29 3d
       0.066867426 0.058178417 0.025186462 0.041410394
0001c0 89 3e b8 3d 42 9c 2b bb ff 61 13 3d 01 ad ae 3d
       0.08996303 -0.0026185666 0.03598213 0.085290916
0001d0 fe ab d0 3c 3c 15 a6 3d c6 9d a1 3c 66 bc 32 3d
       0.025472637 0.08109519 0.019728553 0.043636702
0001e0 7b 71 a5 bd b1 b9 43 3d 14 c5 cc bc ea 30 28 bd
       -0.08078285 0.04778451 -0.024996318 -0.041062273
0001f0 c0 30 57 3d c4 c1 3a 3d 64 20 98 3c 28 4f f3 bc
       0.052536726 0.045594946 0.018570133 -0.02970083
000200 59 6e a0 bd 13 8f 83 bd ab 37 4c bd 93 38 50 3d
       -0.07833547 -0.064237736 -0.049857777 0.050835203
000210 40 5b 40 bd 11 9d 07 bb a3 16 fd 3b 0b 9f aa bd
       -0.046962023 -0.0020692984 0.007723646 -0.08331116
000220 34 2c 5c 3d 59 c1 87 bd c0 93 37 bd ec e7 ae bc
       0.053753093 -0.06628675 -0.04481864 -0.021350823
000230 bd 01 f2 3c c5 a9 14 bc 98 45 3e bd 59 b2 6f bd
       0.029541845 -0.009073679 -0.04645309 -0.058519695
000240 b9 63 86 bc c6 c7 b3 bd 22 10 94 bd 68 56 db bc
       -0.016404973 -0.08778338 -0.072296396 -0.0267746
000250 4d ff 1c 3c 12 24 a4 3d 8b b3 75 bd 30 72 5c bd
       0.009582353 0.08014692 -0.05998568 -0.053819835
000260 ef ba bd 3c 07 31 8c 3b dd 81 88 3c 5e 7a 9f bc
       0.023160426 0.0042783055 0.016663486 -0.019467529
000270 43 a3 a4 bd d2 d5 5a bd 65 aa 94 bd f4 20 0c bd
       -0.08038952 -0.05342657 -0.07259063 -0.034211114
000280 4f 87 88 3b 29 93 13 3d 30 ae de 3c 0f dc 9e 3d
       0.0041665207 0.036029015 0.027182668 0.077568166
000290 9c f0 a0 bd 0d 6c b8 bc 76 42 67 bd da 1c 2a bc
       -0.078583926 -0.02251246 -0.056459866 -0.010382855
0002a0 74 57 a7 3d ca b6 81 3d 9c 69 23 bd 5c 30 51 bd
       0.08170977 0.06333692 -0.03989564 -0.05107151
0002b0 b2 e9 5e 3d 46 7c 02 3c b2 15 be 3c 4f f0 4a 3d
       0.054422088 0.007964199 0.023203705 0.049545582
0002c0 95 31 89 3d d6 f3 42 bc d3 dc 2c bc 13 10 13 3d
       0.0669891 -0.011898955 -0.0105506955 0.035904
0002d0 7b de 35 bd f3 9c f0 3c ff 86 99 3d 08 0b fa 3c
       -0.044401627 0.029371714 0.074964516 0.030522838
0002e0 4a fe 42 bd 50 26 45 bd fd e6 4e bd a9 39 bc 3b
       -0.04760579 -0.04813224 -0.050513256 0.0057441783
0002f0 b9 62 52 3d 9f 25 5e 3d 7b 9b 98 bc e1 f8 e4 bc
       0.05136368 0.054235097 -0.018628826 -0.027950706
000300 66 5e 90 3c f9 c5 a8 3c e5 55 11 bd 72 b6 77 3d
       0.017623138 0.020602213 -0.035482306 0.060476728
000310 b2 d5 94 3d b2 f4 b6 3c 8c 48 20 3d 72 70 82 ba
       0.07267322 0.022333477 0.039131686 -0.0009951724
000320 90 96 b6 bb 0a 93 a5 3d 90 3d a8 3d 2c 54 ee 3c
       -0.0055721477 0.08084686 0.08214867 0.02909287
000330 c7 7a 77 bd bb 43 31 3d 4e c4 d8 3c fd 07 86 3d
       -0.060419824 0.043277483 0.026460793 0.065444924
000340 20 4b 8b bd 90 31 1d bd f8 58 68 bd 33 61 ee 3c
       -0.06801438 -0.038377345 -0.056725472 0.029099083
000350 61 3d 7c 3d c3 86 23 3c 60 21 30 bd 40 f3 98 3d
       0.061581973 0.00998086 -0.04300058 0.07468271
000360 28 de 71 3d 42 a9 97 bd c8 9f 94 bc 6a b0 1e bd
       0.059049755 -0.0740533 -0.018142596 -0.03874246
000370 08 94 83 3d 48 ba 2a 3b 26 c1 9c 3d 48 94 b1 3d
       0.06424719 0.0026050974 0.07654028 0.086708605
000380 eb df ef 3c cc 3a 6d bd 66 d2 67 bd bf 88 82 3d
       0.029281577 -0.0579174 -0.056597136 0.063737385
000390 3c 3c 00 bd 5a 1d 4f bd 4c af 2f bc cf 45 93 3b
       -0.031307444 -0.0505651 -0.010722946 0.004494406
0003a0 7f ff 6c 3d ae 6a a1 bd 3f 10 22 bd 94 09 63 bd
       0.057860848 -0.07881676 -0.039566275 -0.055429056
0003b0 ca 3b 54 3d 66 a6 7a 3d a5 86 57 3d 06 49 cc 3c
       0.05181483 0.061193846 0.05261864 0.024937164
0003c0 d7 58 4c 3d be 5f e1 bb 32 79 ac bc 5c 91 99 3c
       0.04988941 -0.0068778684 -0.021053884 0.01874607
0003d0 11 26 82 3c e3 4a d4 bc bc 81 76 3d 61 68 1e 3d
       0.015887292 -0.025914615 0.060182318 0.038673762
0003e0 f4 44 a0 bb 19 ec 19 bc e5 e9 14 bd 1b e6 33 3d
       -0.0048910324 -0.009394669 -0.03635587 0.043920618
0003f0 9f ff 7d 3d e7 19 a3 3c d0 de 8f 3d 08 a5 26 3d
       0.062011357 0.019909812 0.0702492 0.04068473

layers.0.phi_att.weight f4 [128, 128]
000000 a0 aa 6d bd f5 cc 4b 3c e7 49 a6 3d 5e 15 98 3d
       -0.05802405 0.012439002 0.081195645 0.074259505
000010 63 c8 78 3d 90 eb 56 bd 22 c0 35 3d f3 11 98 3d
       0.06073798 -0.052470744 0.044372685 0.074252985
000020 3e f5 c0 bc f6 e1 cd 3d 8b 5e 9e bc d3 d0 8d bc
       -0.02355444 0.10052864 -0.019332191 -0.01731149
000030 23 76 a1 3b 57 4e 52 bb f6 06 84 bd 6b e9 36 3d
       0.004927413 -0.0032090151 -0.0644664 0.0446562
000040 a6 43 f0 bc eb 63 bc bd db 9b 78 bd 15 55 bc 3c
       -0.029329132 -0.09198745 -0.06069551 0.022989789
000050 51 3d b5 3d 5f 58 97 bd 1f 30 10 bd 35 50 91 3d
       0.08849586 -0.07389902 -0.03520214 0.070953764
000060 2b b4 55 3c 71 5b 9c 3d 9a 5a c8 bc bd 17 9c 3d
       0.013043444 0.076346286 -0.024457265 0.07621715
000070 8f fe 6e ba 81 6e 81 3c f1 cc a6 bd f2 b2 d2 3a
       -0.00091169117 0.015799763 -0.08144558 0.0016075058
000080 b2 fc c7 bc ab 0a c7 bd ce e9 95 bd 86 31 8b 3d
       -0.024412487 -0.09718832 -0.07319985 0.06796555
000090 93 7d fe bc a1 77 c4 bd 97 e9 14 3c d2 0a d2 3b
       -0.031065738 -0.0959313 0.009088895 0.0064099813
0000a0 3d 01 4f bd c5 9a 09 3d b2 28 83 3d b5 97 62 bb
       -0.05053829 0.033594865 0.064042464 -0.0034575288
0000b0 1f 13 3f 3d e8 96 54 3b 13 85 5d 3d 8a 6c 8b bd
       0.046649095 0.003243858 0.054081988 -0.068078116
0000c0 dd e2 0f 3d 77 f4 43 bd bc 3e 1b 3d 3d 41 8a bd
       0.035128463 -0.04784056 0.037901625 -0.067507245
0000d0 7c 03 84 bb c7 e0 38 3d 33 d2 06 3d 2b 26 55 3d
       -0.0040287357 0.04513624 0.032915305 0.052038353
0000e0 ca cc ab 3d 70 d2 1f bd 42 6a fe 3c 32 8d 6e bd
       0.0838867 -0.03901905 0.031056527 -0.058240123
0000f0 99 65 f9 3c 54 b8 49 3d e8 5e 6d bc 4d 5e c5 3d
       0.030443953 0.049248055 -0.014487959 0.09637127
000100 a4 80 02 3d a3 db 32 3d 6c 39 48 bc f5 e1 3f 3d
       0.031860963 0.043666493 -0.012220722 0.04684635
000110 df 69 21 3d bc 64 58 3d 0a 3b 4c 3d ca 2c 94 bd
       0.039407607 0.052830443 0.04986099 -0.07235105
000120 ce 54 ae bd 8b e1 b2 3d fa 5b 90 bd 3b b8 59 bc
       -0.08512269 0.08734425 -0.07048793 -0.013288553
000130 de 4c 9c bd 5d 5f b3 3d d3 82 83 bd da 9a a9 bc
       -0.07631849 0.087584235 -0.06421437 -0.020703722
000140 6a b0 8c 3d 47 de 9e 3d cc 70 e0 bc 5b 6f d7 bb
       0.06869586 0.0775724 -0.027397536 -0.006574554
000150 a4 d6 bf 3d b0 7b 48 bd 78 5e 96 3c fa 74 32 3d
       0.09367111 -0.048946083 0.018355593 0.04356859
000160 c1 74 94 bd 32 75 8c 3d c7 b7 39 bd 59 0e 2e 3d
       -0.072488315 0.06858291 -0.04534128 0.04249415
000170 c7 17 03 ba a7 66 a3 3d 2c 59 99 3c e8 92 2f 3d
       -0.00050007965 0.07978564 0.018719278 0.04286471
000180 78 bc c0 3c 75 e9 04 bd e3 2a 11 bc 87 bc e5 bc
       0.023527369 -0.032449204 -0.008860323 -0.028043998
000190 ed 4a f4 bd f8 e6 c8 bd a4 ac 86 3d 76 13 b2 3d
       -0.119283535 -0.09809679 0.06575897 0.08695118
0001a0 d8 c7 dd bd 77 10 16 bd 6a ba 7c 3d ee 17 28 3d
       -0.10829133 -0.036636796 0.061701216 0.041038446
0001b0 d8 bc 34 ba 2a 84 68 bd 2f b4 bc bd 87 ff da 3b
       -0.0006894595 -0.056766666 -0.09214055 0.0066832933
0001c0 03 b0 30 bc aa ff 8f ba 5a 82 17 3d b6 b1 e2 bb
       -0.010784152 -0.0010986228 0.036989547 -0.0069181575
0001d0 2d 92 62 bd 1b 4f 2f bd 07 55 64 bd 8e 79 a4 bc
       -0.055315185 -0.04280005 -0.05574515 -0.020077493
0001e0 fc 07 03 bd 09 6a a2 bd cc 72 2d bd 64 3d 2f bc
       -0.031990036 -0.07930381 -0.042345807 -0.010695789
0001f0 29 b9 3a bc 86 0f c7 bb 86 c2 97 bc a6 c7 97 bd
       -0.011396685 -0.0060748486 -0.018525373 -0.07411127
000200 30 56 3c bd f6 d4 1b 3c d3 35 91 bd ee 86 80 bc
       -0.045980632 0.009511223 -0.07090344 -0.01568934
000210 04 69 2d 3d 31 1f d2 bd 68 d9 d9 bd 1e e6 9e bd
       0.04233648 -0.102598555 -0.1063717 -0.07758735
000220 04 22 40 3d ae 38 1e 3d 15 fa 24 bd aa 38 86 bd
       0.04690744 0.038628273 -0.04027756 -0.065537766
000230 90 8c 57 bd c2 32 a0 3a 4e 62 a0 bd a0 6d 47 bc
       -0.052624285 0.0012222158 -0.0783125 -0.012172133
000240 28 7c a5 bd 14 53 3d 3d ff f2 93 bc 57 62 4e bd
       -0.080803216 0.046221808 -0.018060206 -0.050386753
000250 a8 47 8e bd 97 01 c6 3d 71 cf e2 3c f5 28 3f 3d
       -0.06947261 0.09668272 0.027686806 0.04666992
000260 c6 ee 28 3d 52 a5 96 3d cf cc db b8 0a 8f d5 bc
       0.041243337 0.07355751 -0.00010480882 -0.026069183
000270 99 d1 66 bd ff ce 7a bb a2 0c 6b 3c 6f 8e 7a bd
       -0.05635223 -0.0038270352 0.014346274 -0.06117099
000280 0a ac 9e 3c 73 fe e1 3d ff 54 83 3d 87 96 36 bd
       0.019369144 0.110348605 0.06412696 -0.044577148
000290 dc 66 8a 3d 5c be 24 bc 70 e2 3d 3c 3a 2f 1c 3d
       0.067579 -0.010055151 0.011589631 0.038130976
0002a0 88 5d 59 3d b2 56 9e bc 8c 71 b7 3d a9 12 4c bc
       0.053067714 -0.019328449 0.08957204 -0.012455621
0002b0 cc 1b 92 bd 8f dd da 3d 9d b0 89 bd d3 38 33 bd
       -0.07134208 0.1068679 -0.067231394 -0.043755364
0002c0 c4 ea ae 3c fb 1d 91 3d 4d 4d 83 bd 0f 37 88 bd
       0.02135218 0.070857964 -0.06411228 -0.066511266
0002d0 cf 12 1d 3d 2e 7e 1b bd ae cf f7 3c c4 16 9e bd
       0.038348015 -0.03796213 0.030250397 -0.07719186
0002e0 7e eb dd bb 7f c9 d4 3d 41 86 7e bd 87 d9 5a 3b
       -0.0067724576 0.10389995 -0.062139753 0.0033393817
0002f0 99 3a 25 3d 44 be 6f bd f1 5d 07 3d b3 55 a6 bd
       0.040339086 -0.05853106 0.033048574 -0.081218146
000300 63 c2 2c 3c f2 0e 5e 3d b0 ca 27 3d bf 47 e9 bd
       0.010544392 0.05421347 0.040964782 -0.113906376
000310 18 fe c0 3c fd ad 02 3d 05 9f b9 bc 84 36 67 bd
       0.023558661 0.03190421 -0.022658834 -0.056448475
000320 2b d6 9f 3d 6a 1e c6 3b a1 ad 2e 3d 5e 0c 48 bc
       0.07804521 0.006046106 0.042646054 -0.01220998
000330 e3 24 2b 3c 4e b6 95 3d ff 0a a7 bd 2b 33 6d bd
       0.010445806 0.073101625 -0.08156394 -0.057910126
000340 7a b4 45 3c d6 07 b4 bc f7 c6 8b bd d2 df 22 bd
       0.012066955 -0.021976393 -0.06825059 -0.039764233
000350 4a 66 b6 3d 45 81 97 bd f4 7d dd bd 40 39 09 3d
       0.08906229 -0.07397703 -0.10815039 0.033501863
000360 22 b9 7b 3d 85 7d 4a bd 55 a9 a0 bd 8b a0 6b 3d
       0.061455853 -0.04943611 -0.078447975 0.057526153
000370 40 a9 96 bc 0e ad 93 bc 90 76 2d bd df 6a 57 3d
       -0.018391252 -0.018026855 -0.042349398 0.052592155
000380 7b 4d 40 3d d7 2f 18 bd 09 72 b5 bc eb 1d d3 bc
       0.04694889 -0.037155 -0.022149103 -0.025771102
000390 4c ac 89 bd 28 93 49 3d 5d a5 d0 bd a9 a3 a0 3c
       -0.06722316 0.049212605 -0.101877905 0.01960929
0003a0 b6 7a 91 bd 29 95 8c 3d 82 47 aa bc 01 58 75 3d
       -0.071034834 0.068643875 -0.02078605 0.05989838
0003b0 5c 7c 86 3d 34 f0 0f 3d ae 28 2a bd 28 15 be bd
       0.065666884 0.035141185 -0.0415427 -0.09281379
0003c0 48 4a 3c 3d 7a 4f 76 bd 29 e0 1e 3d 9a 68 60 bd
       0.045969278 -0.06013439 0.038787995 -0.054787256
0003d0 f1 70 61 3c c7 ca 43 3d 31 5f e9 3b fa 60 36 3d
       0.0137598375 0.047800805 0.0071219434 0.044526078
0003e0 2c ab 69 bc 81 09 42 3d 8f 6e 01 bb 4c a7 66 3d
       -0.014262002 0.047372345 -0.0019749736 0.05631189
0003f0 83 dc 87 bd 64 30 cc 3d 9d 76 2f bd 5d 84 4c 3d
       -0.06633856 0.09970167 -0.042837728 0.04993092

layers.0.phi_att.bias f4 [128]
000000 b2 b7 9e 3d f1 99 5f 3d e2 34 1d bd 04 51 65 bd
       0.07749881 0.05459017 -0.03838051 -0.055985466
000010 09 b1 07 3d 84 bc 95 bd f8 00 b3 3d 6d c5 b9 3d
       0.03312782 -0.07311347 0.08740419 0.09070859
000020 a6 eb 14 3c 9a 51 15 3d df 2d 9c 3d 37 f0 97 bc
       0.009089386 0.036454774 0.07625937 -0.01854716
000030 81 4d 8e 3d 56 83 e4 3c 14 ea 97 3c 92 52 11 3d
       0.069483764 0.027894657 0.018544234 0.035479136
000040 4c ac b0 bd c3 a5 dd bb 0b 4e 1a 3d 2c 08 9e 3d
       -0.08626613 -0.006764145 0.037672084 0.077164024
000050 59 6d 9f bd b5 8f 16 bd 3b 97 6b bd ea 03 d4 bb
       -0.07784528 -0.036758143 -0.05751727 -0.006470193
000060 a1 4a 93 bc df d1 a8 3c 97 d0 75 bd 32 c0 28 3c
       -0.017979922 0.020607887 -0.06001338 0.010299729
000070 90 ed 64 3c ae ad 32 3d d6 0d 9a 3d ad 5b 8d bd
       0.013972655 0.043622665 0.0752217 -0.069022514
000080 eb a1 9d 3d 9b 38 61 bd 66 9e ae 3d bd bb b0 3c
       0.07696899 -0.054985624 0.08526306 0.021573896
000090 8d 0f 13 3c a6 23 16 bc 98 9d 5d 3c 49 50 81 3d
       0.008975876 -0.009163773 0.013526343 0.06314141
0000a0 bf 79 da 3c 65 c6 e2 bc ca 8c fe 3c fe 08 80 bd
       0.026669381 -0.027682493 0.031072993 -0.06251715
0000b0 ec 32 86 3d f1 f0 1f 3c 4a 56 8b bd cd 34 85 bd
       0.06552681 0.009762035 -0.06803568 -0.065042116
0000c0 d1 ce fc 3c 61 be 5a bc 22 a5 5c 3d 64 dc 94 3d
       0.030860336 -0.013351054 0.05386842 0.07268599
0000d0 51 38 a1 bc ce 5a 91 3c 4c a2 bf bc 37 8b 14 3d
       -0.019680174 0.017743494 -0.023392819 0.036265578
0000e0 2e 0e 01 3c 94 eb 9b 3d a8 ff 75 bc 4d 24 95 bc
       0.007876916 0.07613292 -0.0150145665 -0.018205786
0000f0 01 dc fa bb c5 db 88 bd f0 bd 13 bd 69 91 19 bd
       -0.007655621 -0.06682543 -0.03606981 -0.03749219
000100 43 8a 40 bd cd 3f 8c bd 29 63 a0 3d 19 32 23 3c
       -0.047006857 -0.068481065 0.07831413 0.009960675
000110 04 0b b8 3b d7 ee f2 3b c7 68 b8 3d bb e1 70 3d
       0.0056165475 0.007413726 0.0900436 0.058809023
000120 b6 68 b5 bd af b1 b0 3b f5 66 af bc 07 97 e6 3c
       -0.08857863 0.0053922753 -0.021411398 0.028148187
000130 5f 4d 23 3d 6b 66 85 bd 60 6b b7 bd cd f8 cf 3d
       0.03986871 -0.06513675 -0.08956027 0.10154877
000140 42 06 7f bd a9 ce 5a 3d 17 46 ba bd 43 4e 1a 3d
       -0.062261827 0.053419743 -0.090954 0.037672292
000150 5c 4c 53 bd 86 b3 ae bd b5 24 cf bb de d5 19 3d
       -0.051586494 -0.08530335 -0.0063215145 0.037557475
000160 20 ac 8f 3d 72 5c 2b bd 58 b0 d3 bc 33 a9 d3 bc
       0.07015252 -0.04183621 -0.025840923 -0.025837516
000170 c7 4a 32 3d 24 13 c0 3c 0e 18 08 3d 46 ee 89 bd
       0.043528344 0.023446627 0.033226065 -0.067349
000180 e6 8b 38 bc cc 3f 3f bd 70 8e f9 bc 58 5b a4 bc
       -0.011263823 -0.0466917 -0.030463427 -0.020063087
000190 46 23 85 3d 82 d5 60 3d ec 10 9b bc 19 08 51 3c
       0.065008685 0.054891117 -0.018928967 0.012758278
0001a0 25 ac ac 3c 88 8f 41 3d b2 da 61 3d ad 9e 93 bd
       0.021078179 0.047256023 0.055140205 -0.072079994
0001b0 84 36 af bd ed 07 c6 bd 2e ec b8 3c 82 98 b4 bd
       -0.0855532 -0.096694805 0.022573557 -0.08818151
0001c0 85 73 d2 bc f4 84 63 bd 59 25 21 3d 90 8b 6e 3c
       -0.02568985 -0.055546716 0.039342258 0.0145596415
0001d0 e8 ce 62 bd 31 88 43 3d d1 bb 6b 3d bf 73 45 3d
       -0.055373102 0.047737304 0.057552163 0.048206087
0001e0 cf 15 b0 bd c1 3a aa bc 8e be 1b bd 12 8c 73 3d
       -0.0859791 -0.02077997 -0.038023524 0.059459753
0001f0 20 9c c2 3d b2 21 8f bc 7e 93 7f bd c0 e4 94 bd
       0.09502435 -0.017472122 -0.06239652 -0.07270193

layers.0.W_p.weight f4 [128, 128]
000000 ec cb 9d 3d 36 e9 f6 bc a0 b7 fd bd 06 50 57 3d
       0.07704911 -0.0301405 -0.12388539 0.05256655
000010 21 74 7d 3d cc 48 e5 bd 4d 33 a5 bc 6b 7d 26 37
       0.061878327 -0.111955255 -0.020166064 9.923572e-06
000020 e0 8e 0b bc e7 1f ba bd 61 27 a7 3d 3d 1a 4a bd
       -0.008517951 -0.09088116 0.08161808 -0.04934143
000030 5f ec 91 bd 1f e0 af 3d 2f 33 90 bd 6c bc 97 bd
       -0.07125162 0.085876696 -0.070410125 -0.074089855
000040 d8 14 7d 3d 76 c6 c8 ba 0c ef a2 bd bb e2 ce bd
       0.061787456 -0.0015317935 -0.07955751 -0.10101839
000050 a7 1f 28 bd d4 60 6c 3d 35 97 6d 3c 26 e7 89 3c
       -0.04104581 0.05770953 0.014501383 0.016833853
000060 05 10 ae 3d eb d5 37 bd 2c c3 a3 3d 8a f6 56 bd
       0.08499149 -0.044881742 0.079962105 -0.05248121
000070 97 74 22 bd f8 78 bf 3c 53 06 86 3d 74 fa 27 bc
       -0.03966197 0.023373112 0.06544175 -0.010252584
000080 d6 dc be 3d f7 19 ba 3d a6 a2 07 bc 7a 8a 56 3d
       0.09319465 0.09086984 -0.0082785245 0.052378155
000090 0e 41 b1 bd d6 06 bb 3d cc 36 f2 bc 97 b8 8c 3d
       -0.08654986 0.09132163 -0.029567145 0.06871145
0000a0 de f4 86 3d d7 2d 0d bd ce 39 b2 3d 8d bb 13 bd
       0.065896735 -0.034467544 0.087024316 -0.036067534
0000b0 a8 08 41 bd aa 19 bd 3d 4c 13 d1 3c 49 88 b3 3b
       -0.047127396 0.09233411 0.025521897 0.005478893
0000c0 3a eb 45 3d f4 b8 30 3d 3c 63 6e 3d b5 6c 13 bd
       0.048320033 0.043145135 0.058200106 -0.035992343
0000d0 70 1b 15 bb 3a 7a b1 3c 2f 7a 0f 3d d1 58 fb 3c
       -0.002275195 0.021664727 0.035028633 0.030682
0000e0 6e d6 b3 3c 19 a4 57 3d 7d d7 f6 3c 85 24 c9 bd
       0.021952834 0.05264673 0.03013205 -0.09821419
0000f0 ac 88 19 bd 92 ee d6 bd 2a 9b 0a 3d 7f d5 d6 bc
       -0.037483856 -0.104947224 0.033839382 -0.02622485
000100 ee fe c5 bd d7 23 91 bd f5 a6 23 3d 10 10 a0 bd
       -0.096677646 -0.07086914 0.039954145 -0.07815564
000110 ad 45 b2 3d 6b 87 82 bd 39 a6 a9 3c 79 77 4b 3d
       0.08704696 -0.06373485 0.020709144 0.049674485
000120 d7 db 58 bd a8 b4 1e bd b7 e6 d1 3c 2e 89 99 3d
       -0.05294403 -0.038746506 0.025622709 0.07496868
000130 c3 48 47 3d c7 2c 9b 3d bc 5f 0c 3b 0d 78 63 bd
       0.048653375 0.075769 0.0021419367 -0.05553441
000140 c4 ee 20 bc 52 82 90 3d ad 3c 8a bb cb da 27 3c
       -0.009822551 0.070561066 -0.004218659 0.010245035
000150 3a cb 6c 3d 77 ae 12 3d 97 95 dc bd b6 b9 94 3d
       0.057811 0.035810914 -0.107707195 0.07261984
000160 cd 02 c6 3d e9 1e 89 3d fb ab 4c bd 68 cc a1 bd
       0.09668503 0.06695349 -0.0499687 -0.079003155
000170 a9 76 b8 bc d6 ac a3 3d 50 20 17 3e d3 c3 a8 3c
       -0.02251752 0.0799195 0.1475842 0.020601189
000180 39 15 82 3d f1 71 f4 3c 46 1a ba 3d 3d ce 99 bd
       0.06351704 0.029839488 0.090870425 -0.0751004
000190 87 71 e1 3c 41 27 a0 bd 9b 1c 4f bd e5 ae 92 bc
       0.027519954 -0.07819987 -0.05056439 -0.017905662
0001a0 af 89 09 bd 35 5b b6 3d b0 50 4c bc 1c b3 e6 3c
       -0.03357857 0.08904115 -0.012470409 0.028161578
0001b0 0d 12 9f 3d b8 89 4e bd 30 58 b9 3c 8e 99 aa bd
       0.07767115 -0.050424308 0.022625059 -0.083300695
0001c0 7d 32 a7 3d 20 9c ab 3d 9c 1f b7 ba 6a ba 3d 3d
       0.08163927 0.08379388 -0.0013971212 0.046320356
0001d0 a2 1c 4c bd 9f c0 7d bc 70 2d 9a bd 0a 6a 13 3d
       -0.049831994 -0.015487819 -0.07528198 0.0359898
0001e0 30 7f 93 bc b0 3a 67 bd 65 b9 98 bd e9 6f 82 bd
       -0.018004984 -0.056452453 -0.07457236 -0.063690014
0001f0 24 90 28 3d 2a 8c 53 bc b2 a0 a0 3d c9 80 14 bd
       0.04115309 -0.012911836 0.0784315 -0.03625563
000200 94 c5 b4 bd ea ae b1 bc 1a 74 0d bd f4 6c c9 bc
       -0.088267475 -0.02168985 -0.03453455 -0.024588086
000210 82 4d 10 3d 81 23 a5 3c 11 3f b4 3d cc 61 b0 bd
       0.035230167 0.020158531 0.088010915 -0.08612403
000220 c6 10 4f bd 3e 99 4c 3c a8 f5 59 bd fa 53 f5 bc
       -0.050553106 0.012487708 -0.05321279 -0.02994727
000230 b5 69 33 3d eb ed b7 bc 43 6f 0a bd 91 39 c3 bd
       0.043801982 -0.022452315 -0.033797514 -0.09532464
000240 0e 81 35 3b 91 fb 77 bd 48 6c 11 bd 1d 59 9b 3c
       0.002769533 -0.060542647 -0.035503656 0.018963391
000250 27 f5 85 bc 77 30 9c bc 68 32 e2 3a b7 53 8b 3d
       -0.01635225 -0.019066079 0.0017257454 0.06803077
000260 45 72 d4 3c 11 c6 96 bd d1 11 bb bb b9 95 40 bb
       0.025933394 -0.07361997 -0.005708911 -0.0029386117
000270 e5 ff 63 bd 78 d2 15 bd 70 85 40 3c b0 5a 62 3c
       -0.055663962 -0.03657767 0.011750564 0.013815567
000280 2b cd 4c 3d 5c 45 52 bd 64 d0 53 bd 1e e4 8d bd
       0.05000035 -0.051335678 -0.05171241 -0.069282755
000290 8e ea b8 3d 42 41 a3 bd ae 86 bc bd d3 e1 98 bd
       0.09029113 -0.07971431 -0.092053756 -0.074649476
0002a0 68 7d 7e bd bb 6d 4b 3d de 01 bb bd c8 8c 2e 3c
       -0.062131315 0.049665194 -0.091312155 0.010653682
0002b0 05 8c 98 3b 00 6c 0c 3d e7 e6 77 bd a0 78 d2 3d
       0.0046553635 0.034282684 -0.06052294 0.10276914
0002c0 9f 4a 55 bd 9e 04 0c bd 51 2f a3 3d b2 95 9a 3d
       -0.052073117 -0.03418409 0.07968009 0.07548083
0002d0 3c 63 32 bd a5 16 15 3d 44 36 03 bd ac 60 b6 3d
       -0.04355167 0.03639855 -0.032034174 0.089051574
0002e0 e7 1b fb 3c 05 f6 a6 bd 9a d2 ca 3a cf c0 79 bc
       0.030652953 -0.08152393 0.0015474141 -0.015243723
0002f0 6f 21 81 3d 54 42 a0 3d 2d 02 9e 3b 6a bb b1 3d
       0.06305205 0.07825151 0.0048220367 0.086783245
000300 2f 78 12 3d 06 fe 9a 3d d6 62 0b bd 88 06 21 bd
       0.035759147 0.075679824 -0.034029804 -0.03931287
000310 8b 0f 5a bd 42 77 bb 3c ba 18 68 bd 10 d0 ad bc
       -0.05323748 0.022884015 -0.056664206 -0.021217376
000320 1d 10 d0 bc 3e a3 72 bd 73 4d f8 3c 72 a7 cc 3d
       -0.025398308 -0.05923771 0.030310368 0.09992875
000330 5c 80 06 3c 6b b4 86 3d 48 d6 2c bc 62 51 7b bd
       0.008209314 0.06577381 -0.0105491355 -0.06135691
000340 ec e3 95 bd 56 58 c2 bb d3 08 f1 3b fb 74 92 3d
       -0.07318863 -0.0059309406 0.0073557883 0.071512185
000350 d1 41 55 bd 02 a0 ee bc 8d a5 66 3d 88 de 34 bd
       -0.05206472 -0.029129032 0.056310225 -0.044157535
000360 d7 cf 57 3d 79 d3 e8 bc 42 90 d1 3d de 23 99 3d
       0.052688446 -0.02842115 0.10232593 0.07477544
000370 2a 61 56 3c b3 19 80 bb 0f 21 62 3c 5a bb 83 3d
       0.013084689 -0.0039093136 0.013801827 0.06432219
000380 69 bb 79 bd 56 cd a0 3c cf f7 a2 bd df 5c ae bc
       -0.060969744 0.019629162 -0.07957422 -0.021284519
000390 03 9a 65 3d ac 5a 11 3d d5 c3 3e 3d 18 94 86 3d
       0.05605508 0.035486862 0.04657348 0.065712154
0003a0 7d 1c b6 bc 1e 07 95 3d a0 7f 1a 3c bc 70 15 bd
       -0.022230381 0.07276748 0.009429842 -0.036484465
0003b0 23 6c 2d 3b 82 35 19 bd dc 34 64 bd 41 90 10 bd
       0.002646216 -0.037404545 -0.055714473 -0.03529382
0003c0 4b 83 b4 bc 95 5d a6 3a 85 94 f0 bc 9f f0 24 bd
       -0.022035262 0.0012692685 -0.029367695 -0.040268537
0003d0 b6 dd 9d bd 54 27 24 3d a0 ee ba bd 93 fe 66 3d
       -0.07708304 0.04007657 -0.09127545 0.056395125
0003e0 d7 ec 9f 3d 67 6e 9f 3d e0 57 6a bd ed 9e 4a bd
       0.078088455 0.077847295 -0.05721271 -0.04946797
0003f0 18 88 b4 3a de 9c 60 3b 87 1f 0b 3d 90 81 85 3d
       0.0013773469 0.0034273188 0.033965614 0.06518853

layers.0.W_p_prime.weight f4 [128, 128]
000000 e0 01 97 3c ec 6f c2 3c 6b af b7 3d 9e 5b d6 bb
       0.018433511 0.02373501 0.08969005 -0.0065416833
000010 be dc 36 bd eb a4 09 3b 66 62 c3 3c b0 b3 9d 3c
       -0.04464411 0.002100284 0.023850631 0.01925072
000020 39 02 f0 bb 88 cc e8 bc 09 89 a4 3d b3 4a 90 3c
       -0.0073244837 -0.02841784 0.0803395 0.017613744
000030 4c 23 92 3d 7e d3 97 bd 85 0f d5 bd e3 f0 82 3d
       0.071356386 -0.07413386 -0.10403351 0.06393602
000040 f0 9b f1 3d 2b 0b 06 3e 54 9b 04 bc 2d 10 09 3d
       0.11797321 0.13090198 -0.008093674 0.033462692
000050 37 6c b5 bd bd 28 e6 bd cc 43 e3 3c bd 2b fb bc
       -0.08858531 -0.11238239 0.027742289 -0.030660504
000060 5e fa ab bd 4e a7 ec bc c9 bb df 3c da 71 d4 bd
       -0.08397363 -0.02888837 0.027311223 -0.10373278
000070 eb e7 d9 3c 54 65 fb 3c c9 d3 64 3d eb 41 7c bd
       0.026599845 0.030687965 0.055866037 -0.0615863
000080 71 77 b3 3c 28 c5 a1 3d bf e7 b0 bd 93 e2 a3 3b
       0.02190754 0.07898933 -0.08637952 0.005001375
000090 19 1f 39 3d 0c 84 be bc 09 47 cf 3d bb 32 c8 3b
       0.045195673 -0.023256324 0.10120971 0.006109563
0000a0 cf 63 0d be 62 c6 d2 3d a0 c4 6f bd ab 88 4c 3b
       -0.13807605 0.10291745 -0.058537126 0.003120939
0000b0 ae 8e d7 3d df 76 cf 3d ee 1c f4 3a b2 5e b6 bd
       0.10525261 0.10130095 0.0018624344 -0.089047804
0000c0 f7 23 71 3d ac 7f c5 3d cd 30 ab bd e3 ad 84 bc
       0.05887219 0.09643492 -0.083589174 -0.016196197
0000d0 ae f7 a2 bd 75 84 81 3d c1 5b ae 3d 9d cc b2 bd
       -0.079573974 0.06324092 0.085135944 -0.08730433
0000e0 1a 1c 8e 3d 55 b4 c2 bc d0 3b 39 3d f5 e6 56 bc
       0.06938954 -0.02376763 0.045223057 -0.013116588
0000f0 33 ad 9f 3d dd 18 e8 3d e6 ae 12 bd 1b d4 95 3d
       0.07796707 0.11332867 -0.035811327 0.073158465
000100 61 69 8f bc ac b9 0f be ac 51 53 bc 15 9b 36 bd
       -0.017506303 -0.14035672 -0.01289789 -0.04458149
000110 06 6f 3f bd dd 14 33 3d d8 ff 20 bd 06 7b 98 3d
       -0.04673674 0.04372107 -0.03930649 0.0744534
000120 2d f1 0b bd 9d ff 13 bd 50 52 c8 3d 98 36 42 bc
       -0.03416555 -0.036132444 0.09781325 -0.0118538365
000130 5c 32 76 3c 0e 08 c0 3c dc e7 8d bc ed 3b 97 bd
       0.015026655 0.02344134 -0.017322473 -0.07384477
000140 4f 21 39 bc f4 01 a0 3c 7c 3b d3 bd ac 39 aa 3d
       -0.011299445 0.019532181 -0.1031408 0.08311781
000150 ea 0c d1 bc 97 69 15 3e 89 b9 d7 3c 79 ab 60 3b
       -0.025518853 0.1459106 0.026333587 0.0034281893
000160 02 f0 f7 3c 58 65 dc 3d f2 5d c3 3c e4 8a a1 bc
       0.030265812 0.10761517 0.023848508 -0.019719549
000170 e9 6e e1 3d 40 2a e3 bd 33 99 b9 3c 92 7d 8e 3c
       0.110074826 -0.11092043 0.022656059 0.017393861
000180 79 28 3f bd c2 5e 51 3d 43 75 f8 3d ca 0a 8e 3d
       -0.046669457 0.05111576 0.12131741 0.069356516
000190 ee 3a 6c 3d b9 68 1e 3e 6d d9 e3 bd 18 8b 5e bd
       0.057673387 0.15469636 -0.11125455 -0.05433187
0001a0 25 5e 87 3d 3b 06 0f bd 54 bd 40 bd 57 79 18 3e
       0.066097535 -0.03491805 -0.047055557 0.14890037
0001b0 05 bc 53 3c c6 2d 41 bd 26 05 76 bc c4 45 d8 3d
       0.012923245 -0.047162794 -0.015015876 0.10560182
0001c0 c5 e3 89 bc 67 28 52 bd ae 3b 24 3e 84 e2 f9 bd
       -0.016832242 -0.051308062 0.16038391 -0.122014076
0001d0 35 a5 23 bd d7 ca e9 3a 57 bb 9a 3c b9 f4 9a bb
       -0.039952476 0.001783694 0.018888159 -0.0047288802
0001e0 aa 2c 18 bd ea fe d5 bd 52 20 20 bc a1 b6 bb bd
       -0.03715197 -0.104490116 -0.009773331 -0.09165693
0001f0 4a 1d 78 bc b6 85 12 3c 0e 5c 14 be b8 22 01 bd
       -0.015143702 0.008943012 -0.14488241 -0.03152725
000200 5d 56 17 bd 0d df 97 bd 60 bf 8b bd 17 fa 7e 3d
       -0.036947597 -0.074155904 -0.06823611 0.062250223
000210 3b 24 03 3d e6 46 0b 38 b1 65 26 3c 1f 50 87 bd
       0.032016974 3.320621e-05 0.010156081 -0.06607079
000220 ea 00 bd 3d bc 3a 94 bc c3 a8 8a bd f2 fe a8 3c
       0.0922869 -0.018094413 -0.0677047 0.02062938
000230 8a 6a 2a 3d 7d 70 ec bc 1f 65 37 bd 05 04 a3 bd
       0.04160551 -0.028862232 -0.04477417 -0.07959751
000240 13 80 89 bd 01 e4 61 3d a6 2e a5 bc 3c 52 99 3d
       -0.06713881 0.055149082 -0.020163845 0.07486388
000250 89 bf 9a 3d c8 66 b5 bd 64 66 d2 bc ae 60 32 bd
       0.07556064 -0.088574946 -0.02568359 -0.043549232
000260 e0 e0 bb 3c 49 0d ff bc 3c 01 22 3d fc bc 74 bb
       0.022934377 -0.031134265 0.03955196 -0.0037344089
000270 0a b1 da bc 16 a8 ed 3b c2 5f 81 3d d3 78 6d 3d
       -0.026695747 0.0072527034 0.063170925 0.057976555
000280 3c 31 a0 3c 3b d2 42 3d bd 35 b9 bd 70 cc af 3d
       0.019554727 0.047563773 -0.09043453 0.08583915
000290 7a 43 b9 3c 39 89 18 bc 2a af e4 bd 8e 88 b4 3b
       0.022615183 -0.00931006 -0.111662224 0.0055094426
0002a0 6b 8c 41 3d 49 33 bd 3d 02 ee 94 bd dc 36 ee bb
       0.047253054 0.092382975 -0.07271959 -0.0072697233
0002b0 59 55 10 3c a5 5a 04 bd d1 dd bf bd 9e 30 af 3c
       0.008809411 -0.032313008 -0.0936848 0.021385487
0002c0 7e 6c 0a 3d 73 b3 06 bb 14 19 a2 3c 2c 03 33 3d
       0.033794872 -0.0020553737 0.019787349 0.043704197
0002d0 62 e8 92 bd ed 8c ad bc cb 3f 76 3c 73 d9 45 3d
       -0.0717323 -0.021185363 0.015029858 0.04830308
0002e0 13 fb 24 3d 84 e2 d1 bc 66 eb 56 3d 76 40 c9 bd
       0.040278506 -0.025620706 0.052470587 -0.09826748
0002f0 2e c6 b4 3d aa 84 ae bc 39 51 33 3b 51 f1 4b bd
       0.08826862 -0.021303494 0.0027361645 -0.049790684
000300 cd 5d 62 3d d1 66 64 3c df de 6d 3d bc c7 6a 3d
       0.055265237 0.013940529 0.058073875 0.057319388
000310 22 91 33 3d 8c 95 28 bd a4 ca 2c 3c 59 e5 8d 3c
       0.04383958 -0.041158244 0.01054636 0.017321276
000320 47 16 52 3d 4b ce 8d bd 98 af 91 3d 38 45 a4 3d
       0.051290777 -0.06924113 0.0711357 0.08021015
000330 c5 1f 7f 3d 62 e0 8c bd 51 bd 89 3d dc 37 41 bb
       0.062286157 -0.06878735 0.06725562 -0.0029482758
000340 f1 33 93 bd 97 79 07 3d 6a 18 ad 3d ae 7e b4 3c
       -0.071876414 0.03307494 0.08451922 0.022033062
000350 88 06 71 bd fb ce 55 bd 81 3b 8a bd 83 76 d9 bc
       -0.05884412 -0.052199345 -0.06749631 -0.026545769
000360 a4 73 ba 3d 3f d9 01 bd 77 d9 9b bc c6 16 64 3d
       0.09104088 -0.031701323 -0.019024594 0.05568578
000370 d7 c8 75 bd 92 a9 39 bd 06 ca e5 bb af 39 4a bc
       -0.06000599 -0.04532773 -0.0070126085 -0.012342854
000380 9e f9 a0 bd 2f fb 8c bd f7 f0 68 bd ae 8c 19 3d
       -0.07860111 -0.06883847 -0.056870427 0.03748768
000390 f9 5b 63 bd 67 28 2d bd f2 01 14 bd 30 22 8b bd
       -0.055507634 -0.04227486 -0.036134668 -0.0679363
0003a0 de 1f 21 3d 84 a0 28 3d cd e4 c9 3c a6 31 f2 bc
       0.03933703 0.041168705 0.024645234 -0.02956469
0003b0 a6 f6 bb 3c 08 69 c5 3d b1 d0 a1 3d 8b 19 11 3d
       0.02294476 0.09639174 0.07901133 0.03542475
0003c0 2f 03 e5 3d 76 f0 a7 bd 8b dc 3b bb 55 39 21 3d
       0.11182248 -0.08200161 -0.002866539 0.039361317
0003d0 03 ed 84 bc af f0 1e bc c5 f2 23 bd d7 e9 24 bd
       -0.016226297 -0.009700938 -0.040026445 -0.04026207
0003e0 78 f1 be bb b3 b8 b6 bd 6a e4 86 bd ea 45 ab 3c
       -0.005827125 -0.08921947 -0.06586535 0.020907361
0003f0 6d 52 a2 3d 4b 4c 9f 3c 7c b8 e9 3c 7b a3 62 bd
       0.07925878 0.019445559 0.028530352 -0.05533169

layers.0.f_def.weight f4 [1, 128]
000000 9d 20 be 3d b9 02 f3 3c 4b f4 06 bc 4a c5 83 bd
       0.09283564 0.029664384 -0.008236955 -0.06434114
000010 24 fe 0c 3d b2 15 dc bd 0a 13 90 3d a5 46 f9 bd
       0.034422055 -0.107463256 0.070348814 -0.121716775
000020 b8 07 b9 bd 9f 5e f6 bd eb 0c 17 3e 3f e7 10 3e
       -0.09034675 -0.12029766 0.14751022 0.14150713
000030 58 02 c8 bd a1 ec 3d bb 77 7a 45 bd 75 80 04 bd
       -0.09766072 -0.0028980153 -0.048212495 -0.03234907
000040 bd 4d ff 3d 3a 44 68 3d 0e a2 91 3d 91 23 a8 bd
       0.12465999 0.05670569 0.071109876 -0.08209909
000050 1a c5 53 bd 8d 23 2f bd 14 9e 9d bd e8 fb 96 3c
       -0.051701643 -0.042758513 -0.07696167 0.018430665
000060 9a 93 2e 3d 27 08 3e bd a5 23 b4 3d d8 b1 fb bd
       0.042621233 -0.046394493 0.08795861 -0.122897804
000070 a5 99 c6 bd 9a 5c 54 bc ad 51 80 3d 05 0e 71 bd
       -0.09697274 -0.012961531 0.062655784 -0.05885126
000080 4e 55 0a bd 75 3f b7 3c 05 2b 23 3d 2b ec 4f bc
       -0.03377276 0.022369126 0.03983595 -0.012690584
000090 f0 bb 0d 3d 57 59 20 3e f5 b1 ad bd 6d 4c 8f 3d
       0.03460306 0.1565908 -0.08481208 0.06996999
0000a0 38 66 96 bd 04 22 47 3d db b0 eb bd 11 28 9d 3c
       -0.073437154 0.048616424 -0.11508342 0.019184144
0000b0 3a 70 a5 3d 3f 93 ca bb b0 3c e3 3d db c9 50 bd
       0.08078046 -0.006182104 0.110955596 -0.050973754
0000c0 f9 46 7d 3d ac 46 84 3d f2 d2 94 bc a6 46 cb bd
       0.061835263 0.06458792 -0.018166993 -0.099255845
0000d0 b9 4c 85 bd ca 0e 4c bd 98 6f 65 bd 5c c9 6e bd
       -0.06508774 -0.04981879 -0.056014627 -0.0582975
0000e0 bc 77 9f b9 d1 0f 57 3d 8f 69 04 bd c2 e2 31 bd
       -0.00030416052 0.052505318 -0.03232723 -0.043429144
0000f0 bb a3 26 be ba 75 23 bd 27 a4 f3 3c d3 3f 6e bd
       -0.16273396 -0.039907195 0.02974136 -0.058166336
000100 a0 ff ac bd 33 92 9c bd 1c 7a ce bd 3c 8a 8a 3c
       -0.08447194 -0.07645073 -0.10081884 0.016911618
000110 87 ce 8b bd cd 5a c8 bd 9c 9a bd bb fa 86 fb bc
       -0.06826501 -0.09782944 -0.005786253 -0.03070401
000120 a7 ae 8c bd 94 e4 5c 3d e9 bf 19 3e 2f 56 bc bd
       -0.0686925 0.053928927 0.15014614 -0.09196126
000130 d2 23 db bd 49 df f1 bd dc 47 8c bd 97 ea 14 3d
       -0.107001916 -0.118101664 -0.068496436 0.036356535
000140 28 d0 6c 3d f9 5b cd 3b c9 0e 84 bd eb b3 e6 3d
       0.0578157 0.0062670675 -0.064481325 0.112647854
000150 4f b1 c4 bc 1f fe ba bc 77 1a 9c bd 2d 04 46 bc
       -0.024010329 -0.022826253 -0.07622235 -0.0120859565
000160 06 d0 ef bc 60 16 5f bd 81 fc 80 3d 5a 5f 17 bd
       -0.029273998 -0.054464698 0.06298161 -0.03695617
000170 26 cf 50 3d 59 fc 5f bd 4f dc 32 bc 30 52 d0 bd
       0.050978802 -0.054684017 -0.0109167835 -0.10171926
000180 3c d5 01 3d 29 b6 d4 3d db 80 9e 3d 0c 14 8a bb
       0.031697497 0.10386307 0.07739421 -0.0042138156
000190 e9 8e a2 3d 87 4a db 3c 9f dd b5 bd 92 25 8f bd
       0.07937414 0.026768936 -0.088801615 -0.06989588
0001a0 ea 82 51 bd 41 38 e4 39 92 62 2b bd d5 c8 36 3c
       -0.05115024 0.0004352946 -0.04184205 0.0111562805
0001b0 f1 67 bf bc 6b 75 80 3d 67 6d 8e bd 7f d5 d9 bb
       -0.023364993 0.06272396 -0.069544606 -0.006647765
0001c0 6e 9f ff 3c 29 f2 94 3d e7 cb 11 3d 1d 5f 00 bc
       0.031203952 0.07272751 0.035594847 -0.007835177
0001d0 5d ff ce bd 76 87 31 bd d8 c8 c4 bd 7c cd 99 bd
       -0.101073004 -0.043342076 -0.096086204 -0.07509896
0001e0 97 88 d6 bd fd b5 4c bd ee 0e 47 3d 11 75 bd bd
       -0.10475271 -0.049978245 0.048598222 -0.09250844
0001f0 7b 96 96 bd 27 94 24 3d 90 6c ab 3c 26 db 3e 3c
       -0.073529206 0.04018035 0.02092579 0.011648929
