checkpoints/rank_sweep/refined_lambda_100.pth (torch, 888997 bytes, 36 tensors)

input_norm.weight f4 [7]
00000000: 6bc8 7c3f 9549 5d3f eb7a 703f 6f1e 763f
00000010: 91e8 743f 4a37 863f ed8c 873f
0.98743314 0.864404 0.9393756 0.9614019 0.9566737 1.0485623 1.0589882

input_norm.bias f4 [7]
00000000: d7eb af3c 44b1 49bd 2c34 553c 495d 6e3c
00000010: aa64 7a3c 8fd4 3aba 5537 21bc
0.021474762 -0.04924132 0.013012927 0.014548608 0.015282789 -0.00071270106 -0.009839852

layers.0.embed.weight f4 [128, 7]
00000000: 40cd babd 09b5 9cbe 28c6 673e e379 81be
00000010: 8fe5 48be 0630 3c3e 953c b4be dcca 463e
00000020: e4bd 403e df01 58bd 65ab a53e 40ce 9abe
00000030: 76cc b13e 3ced 2dbd c8ea 40be eb20 233e
00000040: 131a 483e 8738 743e 6a9f 413b 1472 2e3e
00000050: 9de2 8c3e 6fcb a13e 3cda a63e a938 b63e
00000060: 24b5 dd3d a0f8 3f3e 1257 903c 8b85 283e
00000070: 0d4f aebe 1066 3ebe 4c7e b9be 9bae ab3c
00000080: 90b0 a13e e890 e3be fdf2 cf3e 8dc8 cdbc
00000090: 8c2b 203e 1e47 c6bd e38e 453e 89d2 f43d
000000a0: 3fe0 4fbe 1aa4 13be 3e4f 4fbe f679 443e
000000b0: 2a70 1bbe 8bb2 80bd 8ebc 9dbe 2b37 8e3e
000000c0: 4f3c 183e 15da 453e 85e6 04be c897 843e
000000d0: 95e4 07bd 4465 af3d 1a62 843d b325 67be
000000e0: ebc6 9bbe c043 ed3c 4965 2ebb 9732 bfbd
000000f0: ab3e 87be 04ef 9bbe 7b7d 453e 12c9 c33e
00000100: ef7e a5be 66fc 933e d252 58be 3af2 89be
00000110: cd8b 973e fdc4 eabc 8f2c 7f3e 9746 943d
00000120: 2bd8 5f3e a88c 97be def8 733e 301a da3e
00000130: b33b c1be 6cc4 c13e b768 833e 6ac9 80bc
00000140: 29a7 93be fe0a d0bd 6c60 43be b910 bc3e
00000150: 7d6f 9c3e 7c6c 9c3d 58d3 b7be a95f ae3e
00000160: c645 823d dad7 32be ca55 c53e b80f 153d
00000170: 7432 943d b6eb 363d 373e 30be 6e65 b1be
00000180: 9374 33be 7e09 ba3d a42f 553e fa77 863e
00000190: 4d44 9d3e 5c19 273d 267f 493e 9a83 38be
000001a0: a241 b43d 6e76 a5be 05a4 d2bd 4f02 1fbe
000001b0: d921 423d fa8f dabd 2552 08be c92e 0dbe
000001c0: 5bd1 9bbe 79ac 273e d31c 78be 0d55 95bc
000001d0: c747 c93e a126 9ebe 621d 34be 2dc9 6cbe
000001e0: 2bbd 28bd 0fb4 39be 1f7b a53e 262a 8b3e
000001f0: a9f0 c33e cd01 5cbe 11e5 a43e 56ee ab3c
00000200: d1cc e8bd 147e 2bbe 5005 323e 9397 a6be
00000210: 9887 8abd 32fb 4ebe af15 41bc 4878 853d
00000220: 880d 02be 87ca 423e a644 853e 2a7f 713e
00000230: d112 b23e 3f74 643e 897b e03d 68c5 e33d
00000240: fb4b 333e 7a98 93be f632 4f3e ac5b 27bd
00000250: c6dd f3bd 3a40 3f3e 101b 6f3d 8261 843d
00000260: 2efc 5abd 817c 81be e271 29be 0f00 933d
00000270: d66e b83d af73 cebd 7131 53be a539 52be
00000280: 74f9 b0be 56a2 a3be bc92 a6bc 42eb 72be
00000290: f025 7fbe 3ff9 36bd 1200 943e 92be 97be
000002a0: b5ae 4e3e 5ae9 27be 101a bebe 8b9d 43be
000002b0: 5a97 abbb 1212 14be 8147 bcbb f841 563e
000002c0: 2fe4 7bbe e6f4 acba b3fb 1ebe 7358 21bd
000002d0: 56d4 673e c6b7 1f3e 26cb d13d 752c 7abe
000002e0: 0fc8 ae3e 303c 453e 0aa0 ab3e e888 d23e
000002f0: c2f5 8fbe 68a5 83be 3bdb 983d 1319 983d
00000300: 8ee9 6cbe 874e 9a3a f21a 623d 0624 85be
00000310: e33d a13e 9a71 8a3e b2da 8b3e 7ca1 11bd
00000320: dd05 09be cd3b 303e 761b ddbd dd12 fc3d
00000330: 333f 9ebe ba3f 22bb b8cd 2b3e 3bda 42be
00000340: 6c16 443e 7204 763e cbd5 10bd 4c65 81bc
00000350: 36a4 3a3e 7576 0ebd 077d a0be cf1d a83e
00000360: 0999 123d 2a8c 153e 110f 9d3e 8cbd dd3d
00000370: 4ad9 c93e 34f3 373e 82a9 a43e d7e6 983e
00000380: 8c95 ab3d 2aeb a63e 4470 4bbc d9db 0dbd
00000390: 8fa2 b03e 36a5 913e 5db3 bb3d 4069 03be
000003a0: 0c2d 023e 82e5 86be 14fb b8bd 4283 08bd
000003b0: 292c 703e ea36 993d afe3 9c3e 2bef 42be
000003c0: d5db 78be bd16 0bbe 73fd aabe 0040 663e
000003d0: 2cd8 593e f39f 05be 4cdf 073c 30c4 6d3e
000003e0: 40c1 b1be 543c 513e 181b 043e dfe2 853e
000003f0: 8ad1 7a3e 2662 2f3d 049d 203d 5f27 6cbd
-0.091211796 -0.3060687 0.22634184 -0.25288305 -0.1961882 0.18377694 -0.3520247 0.19413322
0.18822438 -0.05273616 0.32357326 -0.3023548 0.34726304 -0.042462572 -0.18839562 0.15930526
0.19541197 0.23849688 0.002954448 0.17035705 0.27516642 0.3160052 0.32588375 0.35590103
0.108255655 0.18747187 0.017619643 0.16457193 -0.34044686 -0.18593621 -0.3622917 0.020957282
0.3158002 -0.44446492 0.40615073 -0.025120044 0.15641612 -0.09681533 0.19292788 0.11954219
-0.20300387 -0.14418069 -0.20245072 0.1918715 -0.15179506 -0.06284054 -0.30807918 0.27776465
0.14866756 0.19321473 -0.12978561 0.2589705 -0.033176977 0.08564237 0.06464024 -0.22572975
-0.304252 0.02896297 -0.0026610664 -0.09335821 -0.26415 -0.30455792 0.19286148 0.38239342
-0.32323405 0.28903502 -0.21125343 -0.26942617 0.29598847 -0.028658384 0.24919342 0.072400264
0.21859805 -0.295995 0.23825404 0.42598104 -0.3774086 0.3784517 0.2566583 -0.015721042
-0.2883847 -0.101583466 -0.19079751 0.36731508 0.3055381 0.07637879 -0.3590343 0.34057358
0.063609645 -0.17465153 0.38542014 0.036391944 0.07236186 0.044658385 -0.17211233 -0.34647697
-0.17524938 0.09083842 0.20818955 0.2626341 0.30716172 0.04079567 0.1967741 -0.18018952
0.08801581 -0.32316917 -0.102851905 -0.15528224 0.04739556 -0.106719926 -0.13312586 -0.13787378
-0.30433163 0.16374387 -0.24229746 -0.018229032 0.39312574 -0.30888847 -0.17589334 -0.23123617
-0.04119603 -0.18135093 0.32320496 0.27180594 0.38269547 -0.21485062 0.32206014 0.02098767
-0.11367191 -0.16747314 0.17384839 -0.32537517 -0.06764144 -0.20213011 -0.011784955 0.065170825
-0.12700474 0.1902257 0.26028937 0.23583665 0.3477998 0.2230997 0.109610625 0.11121637
0.17509453 -0.28827268 0.20234284 -0.04085891 -0.11907534 0.18676844 0.05837542 0.06463911
-0.053463154 -0.252903 -0.16547349 0.071777456 0.09005515 -0.10080659 -0.20624329 -0.20529802
-0.34565318 -0.3195979 -0.02033364 -0.23722556 -0.24916816 -0.044671293 0.28906304 -0.2963758
0.20183833 -0.1639761 -0.3712926 -0.19103067 -0.0052365484 -0.14460018 -0.0057458286 0.20923603
-0.24598764 -0.0013195544 -0.15525703 -0.039390992 0.22639593 0.15597448 0.102438256 -0.24431022
0.34137008 0.19261241 0.33520538 0.41120076 -0.28117186 -0.25712132 0.0746369 0.074266575
-0.23135969 0.001177267 0.05520148 -0.26004046 0.31492528 0.27039796 0.2731529 -0.035554394
-0.13381143 0.17210312 -0.107962534 0.123082854 -0.30907592 -0.0024757222 0.16777694 -0.19028561
0.19149178 0.24025133 -0.03536014 -0.015795372 0.18226704 -0.03478094 -0.31345388 0.32835242
0.035790477 0.1460425 0.30675557 0.10827169 0.3942359 0.17963868 0.32160574 0.29863617
0.08378133 0.3260129 -0.012416903 -0.03463349 0.34499022 0.28446358 0.0916507 -0.12833118
0.12712497 -0.26346976 -0.09032264 -0.033328302 0.23454346 0.07481177 0.3064246 -0.19036548
-0.2430261 -0.13582893 -0.3339649 0.22485352 0.2127387 -0.13049297 0.008292984 0.23219371
-0.3471775 0.2043317 0.1290096 0.2614965 0.24493995 0.04281821 0.03921224 -0.057654735

layers.0.embed.bias f4 [128]
00000000: 42e2 a3be 4d1d bd3d 4e8b 403e b6a0 a73e
00000010: e4dc e33d b1c3 b23e bb16 6f3e 157d 833e
00000020: 771b 4bbd 650c de3d 6540 ca3d e37a 903a
00000030: 450a 98be fbf0 40be 5720 bcbe 06a0 913e
00000040: 9e38 b63c 67de cb3d a934 1dbd 1905 0abd
00000050: 84ab 04be a1c1 a83e 79a1 4dbd 9ffe b7be
00000060: d714 c53e ea58 ad3d 448b b0bd 029c aabe
00000070: e400 9cbe 8df2 c53d 48e0 a23e 4027 29be
00000080: 7524 9abe 2366 9a3d ff68 61be 9797 ccbd
00000090: a752 bebd 07b8 4e3e 64f4 8a3e 6e19 71bd
000000a0: cab0 d93c 2fc7 63be 9767 dc3d cb78 5bbe
000000b0: 33f1 99be cdf1 95be 14e0 2c3d f341 da3c
000000c0: 334c 9b3e f0c9 883e 8ea8 243e a297 a5be
000000d0: 5122 9bbd 4a97 9c3e a3a9 6bbe 8c64 a63d
000000e0: 1c7d 963e bc86 013e 9585 acbe 79eb 473e
000000f0: 471b a83b 6738 45bd 87f5 81be 633c 133e
00000100: 5438 36be 6d44 2bbc 8f1f 7cbe 0027 6fbb
00000110: 13ea 00bd 42cf 9cbe 7cfc a5be 79f6 77be
00000120: 4d74 e8bd 682e 14bd efc6 56be b9a5 a53d
00000130: 3a01 943d 06cf fd3d ae36 3abc 84fd a23e
00000140: 6961 67be b766 993e b0c0 32be 7081 303e
00000150: 06be 95be f3fc c63e b59b 1b3e 2b53 373e
00000160: 614a a7be bb45 5b3e 0f11 6f3e a833 783e
00000170: 3dc7 8bbd 68e8 b53e dab9 1bbe 32d1 7e3e
00000180: 08cf 463e c4cf 993e ff8a fdbc fad2 bdbe
00000190: 679e 953e 5410 77be c1db a03d 2056 9e3e
000001a0: 6301 a53e 6c8e 47be 30d9 833e 1bdd 443e
000001b0: 7de9 a53e bc1d 25bd a0da 06be 0498 bd3e
000001c0: 7573 cbbd 9542 673e 1212 b6be 27c4 c13e
000001d0: a55c 683d 971d 8c3e 0109 b03e 68ed 18bc
000001e0: e6b7 3abe bbd7 ab3e adad 9ebe db20 48be
000001f0: dcc0 0cbe 59a3 703e 72fd ae3e 6db1 b33d
-0.3200856 0.09234104 0.1880314 0.327398 0.11126116 0.34914926 0.23348515 0.25681368
-0.04958674 0.10842208 0.098755635 0.0011022951 -0.29695335 -0.18841927 -0.36743423 0.284424
0.022243794 0.09954529 -0.0383803 -0.033696268 -0.12956053 0.32960227 -0.05020282 -0.35936448
0.38492462 0.08464225 -0.08620313 -0.3332215 -0.3046943 0.096654035 0.31811738 -0.16518879
-0.3010594 0.07539012 -0.22012709 -0.09989851 -0.092931084 0.20187388 0.2713958 -0.058862142
0.026573557 -0.22243951 0.10761946 -0.21432798 -0.30066833 -0.29286042 0.042205885 0.026642775
0.30331573 0.26716566 0.16079924 -0.3234225 -0.07574905 0.30584174 -0.2301393 0.081246465
0.29392326 0.12649053 -0.33695665 0.1952342 0.005130205 -0.048149493 -0.25382635 0.14378504
-0.17794925 -0.010453326 -0.24621414 -0.0036491752 -0.03147323 -0.30626875 -0.32419193 -0.24215116
-0.113503076 -0.03617707 -0.20974325 0.0808825 0.072267964 0.12393002 -0.011365576 0.31834042
-0.22595753 0.29961178 -0.17456317 0.17236876 -0.2924654 0.3886486 0.15196116 0.1790282
-0.32673934 0.21413319 0.23346351 0.24238455 -0.06825111 0.35528874 -0.15207615 0.24884489
0.19414914 0.30041325 -0.030950068 -0.37075025 0.29222414 -0.24127322 0.07854415 0.30925083
0.3222762 -0.19487923 0.25751638 0.1922497 0.324047 -0.04031156 -0.13169336 0.3703004
-0.09934131 0.22583993 -0.35560662 0.37844965 0.056728978 0.27366325 0.3438187 -0.009333946
-0.18234214 0.33563027 -0.3099188 -0.19543783 -0.13745445 0.23499812 0.34177738 0.08774076

layers.0.W_att.weight f4 [128, 128]
00000000: f938 673d 1593 9b3d afab fa3b d5a5 a9bd
00000010: b3f0 b5bd f629 a63d d4db 08bd d661 e33c
00000020: 0fa4 e2bd cf7b efbc 11ca da3d 83f6 bfbc
00000030: f88a 9bbd 6f2c 96bd 5b8e e1bd 165a 8cbd
00000040: e558 e5bc 87ea 283d 91c2 dfbc f1eb 63bd
00000050: b180 d4bd 0a79 f63d e468 97bd c061 053d
00000060: c7f7 c53d e206 6abc e59a f83c a21e c6bd
00000070: c434 aa3d 0808 27bd 4a07 8bbc afe5 1fbd
00000080: bb0e b4bb 272b 053c 2616 ab3a d737 34bd
00000090: f0f9 9a3a 3fa8 1b3d cc89 47bc 34d8 10bb
000000a0: ac47 263a 8897 b53c e5db aebd adbb 43bd
000000b0: 3afb da3c aaab 84bd d565 4fbd 4f4c f03d
000000c0: 11d8 223d 9095 933d 838f d13a a8a9 b3bd
000000d0: e9c5 0fbd dea6 3fbc d7b4 d8bd e549 583c
000000e0: 86b0 7c3d f39f b5bd db6b 46bc 882e 443d
000000f0: 5d9c 9f3d 4b89 7a3b 6f21 3ebd c2ea 06ba
00000100: c11e 5cbd b0f8 a13d 6135 49bd e37a f83c
00000110: 873f 43bd c5ed 0b3c fea6 303d 0c63 cfbd
00000120: 88e1 c83d a05b a1bd 00e0 86bd 6301 47bd
00000130: ee86 6ebd 9b52 86bd cd16 0c3d 183c 07bd
00000140: e4d2 f93c e6ce f23d 7435 243c 37ab 253d
00000150: d6d6 8ebd f646 843d a1c9 223d bb0d 103d
00000160: dd1b 863d f38e dbbd db21 0b3e f3d8 d23b
00000170: d9eb 6e3d abb1 d43d 9cc7 a0bc f708 613d
00000180: 89cf c43d 0986 c83d 25f9 93bc c876 a53c
00000190: f493 2bbc 6194 c03b 3e1e 6abd 3cb9 92bd
000001a0: d937 f13d 56cb e93c ec70 f1bb 853d a43d
000001b0: b79c 533c d489 81bd bef9 f7bc 91e1 503d
000001c0: fb16 943c 1174 2dbd fa86 61bd 2c28 183e
000001d0: 9c15 153e 6f9c fa3b db6e 843c 1113 38bd
000001e0: 6e3c 28bd aa33 03bd 8ee7 bfbd 20be 873c
000001f0: 2ab1 02bd 00ea 813c 5e39 97bb d62b df3d
00000200: fd37 fb3c da60 aabd ddd8 503d 8a84 773d
00000210: 52f7 13bd a672 9fbd b112 1bbd 49c6 a1bd
00000220: 3afd 8b3d 9072 26bd 06b9 08bd b550 36bd
00000230: 3a36 cf3d 08c9 04bc 29ca 2dbd 8727 783d
00000240: 7df1 5bbd 99ac d43b 43d7 943d 4f33 a5bb
00000250: 1277 8abd ea63 3e3d 349d 943d f709 8e3d
00000260: 875d 0abd c6f0 a5bd 1f50 cf3c abb7 53bd
00000270: 08f2 0d3d 7617 3c3d be06 56bd b847 06bd
00000280: 2a54 80bd 7de7 ce3c 5efa bbbd a134 68bc
00000290: 8d01 903d 0ddb b63d 3701 aabd 95bb 6abd
000002a0: 82fc 223d 8e83 49bd 3660 2c3d a9c5 c2bd
000002b0: d79d 85bd fcb5 86bd d69a a6bd e1f6 82bd
000002c0: 2321 533d 20f2 613c f0b7 623c b49a ee3d
000002d0: 5cbd a23d b7fc 08bd ff49 8bbb c5ed c23b
000002e0: 073d 973c 874d 963d 86c4 d2bc 2a84 613a
000002f0: 75ca 8fbd 64fc 73bd 8eef 7f3d 7e80 a03c
00000300: a572 163a f5d0 86bd a58e acbd d20f a43d
00000310: 2553 6e3d b2a0 49bd 1d18 353d 4497 ee3c
00000320: 6b04 85bd baaa e63c bed0 91bd 81a1 8d3c
00000330: d95b a2bd e0c8 1b3d e2dc 91bd 4ad1 9dbd
00000340: ad11 9d3d 74de 04bd 849f e33c 049f a2bd
00000350: ece6 a13d 11d3 943d 7add 6abc 3130 e0bd
00000360: 4105 93bd 3f3f 123d c7b7 9fbd c72f 553d
00000370: 6b19 dd3c 8e0b 8abd fb95 69bd f41a f43c
00000380: aada 053d 287b 783d 3d55 943d 9f23 d73c
00000390: dd34 68bd 6137 0dbd 1b60 a5bd 6bf8 9f3d
000003a0: ff0a c9bd 7b90 cf3c 5ab1 35bc 5145 b1bd
000003b0: 7694 573d 4670 96bb 0859 7db9 354a a33d
000003c0: 839e 893d 39f8 863d 2f9a 9b3b a1dc 97bd
000003d0: afe1 60bd c747 c0bc 6b43 1a3d fc34 7c3d
000003e0: ec1b a03d 615a 5f3d f0ca eabb 99eb 973d
000003f0: cd75 173d be4e 4d3d 125d fcbc 1ce4 583c
0.056450818 0.07596413 0.007649861 -0.08283583 -0.088838 0.08113472 -0.03341277 0.027756613
-0.11066448 -0.029233841 0.10683072 -0.023432976 -0.075948656 -0.07332694 -0.1101348 -0.0685312
-0.02799649 0.041239288 -0.027314456 -0.055644933 -0.103761084 0.12034805 -0.07393053 0.032563925
0.096664004 -0.014283868 0.030347297 -0.096738115 0.083108455 -0.040779144 -0.01697125 -0.039037403
-0.00549492 0.008127964 0.0013052865 -0.043998566 0.0011823755 0.03800225 -0.012178849 -0.0022101523
0.00063430774 0.022166982 -0.08538035 -0.047786403 0.026731122 -0.06478055 -0.050634224 0.11733305
0.03975684 0.07206261 0.0015988204 -0.08772594 -0.03510085 -0.011697499 -0.105813675 0.013201212
0.061691783 -0.088683985 -0.012110676 0.04789594 0.07793496 0.0038228806 -0.046418604 -0.0005146676
-0.053740267 0.079087615 -0.04912317 0.030332034 -0.047668006 0.008540575 0.043128006 -0.101263136
0.09808642 -0.07878804 -0.06585693 -0.048585307 -0.058234148 -0.065587245 0.034201432 -0.033016294
0.030496068 0.11855869 0.01002251 0.040446486 -0.069745705 0.06458847 0.03974307 0.035169344
0.06548283 -0.10720625 0.13587134 0.006434554 0.05833039 0.1038545 -0.019626431 0.05494019
0.09609897 0.0979119 -0.018063137 0.02019824 -0.0104722865 0.005877063 -0.057157747 -0.07164237
0.1177823 0.028539341 -0.0073681977 0.080195464 0.012915782 -0.06325117 -0.030270454 0.050996367
0.018077364 -0.042347018 -0.055060364 0.14859074 0.14559025 0.007648043 0.016166141 -0.04494006
-0.041073255 -0.032031693 -0.093703374 0.01657015 -0.031907238 0.01585865 -0.004614993 0.10897033
0.030666346 -0.08319254 0.050988067 0.060429133 -0.036124535 -0.07785539 -0.037859622 -0.07899148
0.068354085 -0.0406366 -0.033379577 -0.044510562 0.10117765 -0.00810457 -0.042429123 0.06058457
-0.053697098 0.006490302 0.072676204 -0.005041517 -0.06760992 0.046482004 0.072565466 0.069354944
-0.0337806 -0.081025645 0.02530676 -0.05168883 0.034654647 0.04592081 -0.052252524 -0.03278324
-0.06266053 0.025256867 -0.09178613 -0.014172704 0.07031546 0.08928499 -0.08301013 -0.0573078
0.03979159 -0.049197726 0.04208394 -0.09510357 -0.06524246 -0.065776795 -0.08135001 -0.06394745
0.051545274 0.013790637 0.013837799 0.11650601 0.07946274 -0.033444133 -0.0042507644 0.0059487545
0.018461717 0.07339006 -0.025728475 0.0008602763 -0.070210375 -0.05956687 0.062484317 0.01959252
0.0005739129 -0.06582824 -0.08425645 0.0801083 0.05818476 -0.049225517 0.04421245 0.029124863
-0.06494983 0.02815758 -0.071198925 0.017288925 -0.07927675 0.038033366 -0.07122208 -0.07705934
0.07669387 -0.03243871 0.027786024 -0.07940486 0.07905373 0.0726682 -0.014335031 -0.10946692
-0.071787365 0.035704847 -0.077987246 0.052047517 0.02698966 -0.06740485 -0.0570278 0.029798009
0.032679237 0.060664326 0.072428204 0.026262103 -0.05669104 -0.03447664 -0.08074971 0.07811054
-0.098165505 0.025337448 -0.011089647 -0.08655799 0.052631818 -0.0045910208 -0.00024161127 0.07973138
0.06719687 0.065903135 0.0047486047 -0.074151285 -0.05490273 -0.023471726 0.03766195 0.061573967
0.07817826 0.05452955 -0.0071653053 0.074179836 0.036977578 0.050123923 -0.030806098 0.013237979

layers.0.phi_att.weight f4 [128, 128]
00000000: 6509 6b3d d28a 08bd 8cdf 8e3d fa25 32bd
00000010: 93b2 fd3d 1198 9b3d 9fad 5fbd 1ae9 90bc
00000020: 5c5c 02bd 09bd 04be c494 693b 5b0b 8dbd
00000030: 1c09 813d 6c16 1abd 41c3 90bd bc14 4a3c
00000040: 8b4e ac3d 0943 883b bf55 87bc 0a32 8b3c
00000050: 3dbd 7cbd a142 e53c aa4b 8f3d ca3e b5bd
00000060: 4b7e d83b 8d7d 5dbb 33b3 fa3c 990e 95bb
00000070: 5e52 333c fb72 3fbd 6492 4ebd b6e1 54bc
00000080: 382e afbc 0460 b03d eaae 28bd 6d12 46bc
00000090: 54b1 1c3d a138 063d 006a 4abd fb1f fabc
000000a0: 4f9f 983d 8ca1 153d 6372 693d 43bb 6e3d
000000b0: 9d27 2d3d 9a11 313d 63a3 113d be7f cfbd
000000c0: 351d ffbc e37f 88bd 75f5 7ebc 7865 7a3d
000000d0: c91d fbbb 054e ccbd 4ab3 99bc 0d1a 8ebd
000000e0: 0e40 433d 129e 873d 328b 743d 42be 3cbd
000000f0: 85c2 ee3c 1a07 b73c d70f af3d 1154 84bd
00000100: 0eaa e13d 94fd 02be 2c7d adbb e143 afbc
00000110: 51ba a6bd 4008 83bc a8c0 253d 317f 33bd
00000120: 2c4b 08ba 1eb1 3abc ad5f 5abd 27ad 99bd
00000130: 9945 e9bd 95a5 a23c d10d 653d ac95 503d
00000140: c71a 1c3d 7bd4 153d 1696 da3d 8554 a1bd
00000150: 9168 b53d e34f 54bd 7f54 883d 41d2 54bd
00000160: 4ff8 083d 05cb b73d d976 823d 1009 583d
00000170: b01f a73d 3243 b23c 5b78 d03c 5b68 1ebd
00000180: 00f6 573d 2f43 613d caf5 d33d 3d7a 873d
00000190: 8ad0 f1bc 25dc 32bd 6300 733d 57db 9cbd
000001a0: f657 fdbd de68 d6bb ef8e 56bc 484b aebc
000001b0: 7e12 b83d b119 5b3d 601a 0bbc 7ad2 0ebd
000001c0: d2b2 2b3c 5b29 5bbc 0007 743b 7d5f c0bc
000001d0: 59ca 26be cf5a c5bd 6499 01be 50ac 07bd
000001e0: 2fe6 43bc e99a 9c3d df14 143d f057 8fbd
000001f0: b75c 333b e138 de3d 1eb0 59bd 61c1 98bd
00000200: 5ae9 3bbd fa30 e03c 9ba9 8ebc 2a8b a6bd
00000210: 71cd 9cbd e248 26bc 8dae 4bbd ae36 7fbd
00000220: 43f4 cb3c d944 093d ae3c cebd 3af9 12bd
00000230: 2dcb 1d3d de8f 393d 7b39 d83d 84f7 4f3d
00000240: 7c42 7e3d e1b4 2b3d 6ff5 66bd 5142 f4bc
00000250: e230 933c ab43 d63c 4af0 973d a084 a13d
00000260: 3a2d 76bd d32b 09be 2b41 273d ba84 993d
00000270: 3c0f 90bd 8f9a 98bd 6f2e 44bd cf12 7e3d
00000280: 32d3 cfba b9ab 37bc 74c2 d2bb 4ae2 5dbd
00000290: 6837 73bd 3cac 0f3d 5132 d2bd 8343 eb3d
000002a0: dfee ec3c 5194 57bb 3d5e a6bd e3cb a6bc
000002b0: 45b0 793d 5b54 4d3d 7237 c7bd e601 5cbd
000002c0: eb75 2e3d a75f 28bd 2bad 87bd 1b1b 2f3d
000002d0: a49b fb3c 9684 d1bd bc83 f5bb 5aa9 52bd
000002e0: 6c72 3e3d e5eb 3cbc 65cf a63d a67a d5bd
000002f0: c50e a5bc 44f0 56bc d2f0 763c b41d 69bd
00000300: f75a 85bd d34c a2bc a324 91bc ca3b 9a3d
00000310: 5849 cbba d0d9 503d 427c 8cbc c475 313d
00000320: 821a 20bd 6f08 07be 4009 b7bd fdbe 543d
00000330: 78f1 96b9 8677 c73c 8594 ea3d 7bf8 763d
00000340: f99a 9b3d 4d2b 333c 60ad dd3d 48cc 9c3d
00000350: b969 c43d 76ab e83c 2342 d7bc 9ac3 91bd
00000360: 5245 3d3d 7e2f b3bb edab 423d fc4e fc3c
00000370: 02e1 8a3d bab1 5dbd a2a4 183d 01ed 35bd
00000380: a842 e43c 0a45 8a3d ef89 f03d d2da a03c
00000390: f405 f6bd 9f64 353d 9a02 963d 6f68 84bd
000003a0: d734 56bd ecb4 393d efb6 f83c 24a5 143d
000003b0: b9b6 073d e7c6 54bd a92e 8fbd c50e 16bc
000003c0: 6495 07bd 5658 083d 65b8 843d 32a6 88bd
000003d0: 1197 d9bc e0aa 83bd 0929 45bd 75b4 9abd
000003e0: d452 21bd 4893 77bd ad4f 843d 91d7 ac3a
000003f0: d8f9 ac3d 9604 383c 033d 1ebd 60f5 75bd
0.057382006 -0.033335514 0.06976232 -0.04349325 0.12387576 0.07597364 -0.054608937 -0.017689276
-0.031826362 -0.12962736 0.003564165 -0.068869315 0.063005656 -0.03761904 -0.07068492 0.012334045
0.084134184 0.004158382 -0.01652038 0.016991634 -0.06170391 0.027985873 0.06996854 -0.08849867
0.006606852 -0.0033796758 0.030603027 -0.0045488593 0.010944931 -0.046740513 -0.050432578 -0.012993267
-0.021384344 0.086120635 -0.041182436 -0.012089354 0.03825505 0.03276885 -0.049417496 -0.030532828
0.07452261 0.036531016 0.056993853 0.058284055 0.042274106 0.043229677 0.03555621 -0.10131787
-0.031141857 -0.066650175 -0.015561451 0.061131924 -0.007663463 -0.099758185 -0.01876225 -0.069385625
0.04766851 0.066219464 0.05970306 -0.04607988 0.029145489 0.022342253 0.08547943 -0.06461347
0.110187635 -0.12792045 -0.0052944627 -0.021394672 -0.08141006 -0.015995145 0.040466934 -0.04382247
-0.000519919 -0.011394767 -0.0533139 -0.07503729 -0.11390228 0.019854346 0.05592138 0.05092399
0.038111474 0.03657959 0.10673158 -0.07877449 0.08857835 -0.051834 0.06656741 -0.051958326
0.03343993 0.0897427 0.06370325 0.052743018 0.08160341 0.021760557 0.025448015 -0.03867374
0.05272484 0.054995712 0.10349615 0.06615112 -0.029518384 -0.043666977 0.05932654 -0.07659023
-0.12370293 -0.006543263 -0.013095601 -0.021276131 0.08987902 0.053491298 -0.008490175 -0.034868695
0.010479646 -0.013376559 0.0037235618 -0.023483032 -0.16288127 -0.09636461 -0.1265617 -0.033123314
-0.0119567355 0.07646734 0.036152717 -0.069991946 0.0027368495 0.108506925 -0.053146474 -0.07458759
-0.04587684 0.027367104 -0.017414859 -0.08132012 -0.07656372 -0.010149213 -0.04972701 -0.062308006
0.024896747 0.033512924 -0.100701675 -0.035882212 0.03852384 0.045303218 0.105578385 0.05077316
0.062075123 0.041920546 -0.056386407 -0.029816778 0.017967645 0.026155313 0.074188784 0.07886624
-0.060101725 -0.13395624 0.040833633 0.07496019 -0.07034156 -0.07451355 -0.047895845 0.062029656
-0.0015855788 -0.011210375 -0.006431872 -0.054170884 -0.05937901 0.035076365 -0.10263503 0.11487486
0.028922496 -0.00328948 -0.08123443 -0.020360893 0.06095912 0.050129276 -0.09727372 -0.053712748
0.042592924 -0.041106846 -0.06624826 0.04275046 0.030713864 -0.10230367 -0.0074925106 -0.051431037
0.04649584 -0.011530851 0.08145026 -0.10423784 -0.020148644 -0.013118807 0.0150720645 -0.056913093
-0.06511491 -0.019812023 -0.017717665 0.07530935 -0.0015509529 0.050988972 -0.017149094 0.0433252
-0.03908778 -0.13186811 -0.08937311 0.051939953 -0.00028790138 0.024348985 0.11454109 0.060295563
0.07597918 0.010935617 0.10824084 0.07656151 0.095904775 0.028402071 -0.026276654 -0.07117386
0.046208687 -0.005468308 0.047527242 0.030799381 0.06781198 -0.05412457 0.03726638 -0.044415478
0.027863815 0.067514494 0.11745059 0.019635592 -0.12012854 0.044285413 0.07324715 -0.064652316
-0.052296486 0.045338556 0.030360667 0.036290303 0.033133242 -0.0519475 -0.069913216 -0.009158795
-0.033101454 0.03328737 0.06480483 -0.06672324 -0.026561292 -0.06429076 -0.048134837 -0.07553951
-0.03938563 -0.060443193 0.064605094 0.0013186802 0.084460914 0.011231562 -0.038632404 -0.06004846

layers.0.phi_att.bias f4 [128]
00000000: f6c5 b9ba 95f6 37bd 0573 09bd 2dd2 47bd
00000010: 7201 91bd 620b 9b3d 8268 943c 4fb4 2d3d
00000020: 1ebc 80bd 15c8 153d 1a64 9bbb 2753 72bc
00000030: 27bc b83d 44d1 303d 78ac 213d e397 a53d
00000040: 8126 983d e280 5abb bce0 8cbd 8563 09bb
00000050: f3ff aebd af6e 76bd 5f35 c93c 9b70 c8bc
00000060: 0f6b a5bd 3e56 a83c 05a4 c03d 4821 b43d
00000070: 7061 0d3d 1f3d 9b3c 93eb a3bd 64d4 4f3d
00000080: 75d9 633d 163d 893d 6f91 08bd 2195 50bd
00000090: e1d2 3bbd edfa 63bd 9e33 b939 55b9 a3bc
000000a0: 7876 993d 1ba1 2ebd be3e 99bc d2a8 27bb
000000b0: 8013 8fbc 2ad4 24bc c62f 81bd a419 49bd
000000c0: 2827 ab3d 9481 063d 842f a33d 646a a23d
000000d0: 227c ef3b 1ea9 373c d9f6 b93b 99a7 803d
000000e0: fc8a aabc 529c 8dbd 89ef b4bd 229c 223d
000000f0: 12d0 ddbb 764f 233d 912d 933d 338b c53d
00000100: 76df 70bd c4ac e53c 6e17 7abd 45ea 943b
00000110: 1104 b6bc 0d90 08bd 139e 863d de61 033d
00000120: 7f47 933b b49c 9d3c 0077 5f3d 98bd 94bd
00000130: aa49 523d 39dc 8abd 380d 17bd 5c62 553c
00000140: f02e bd3c e459 333a 7fe9 843d 14f6 3d3d
00000150: 19bd 023d ffe3 afbc 4064 65bd 416e a03d
00000160: b42d 493c f0e8 673d ff19 4bbd 6b13 9a3c
00000170: 3d55 843d 2bea 103d dc47 bb3d c7fe 9e3d
00000180: e715 523d dc6d 4ebd dfef 123d 09a5 e93c
00000190: a7a4 f5bc 6915 57bd 5d72 3dbc 1c98 13bc
000001a0: cff8 283c cd0d 893c 2268 5e3b 4238 89bd
000001b0: 8c1a 633d 6db8 87bd 2f08 063d 0b77 4dbd
000001c0: d3f2 95bd 3e89 2abd 9771 283d ee0b da3c
000001d0: 3be6 aa3b 3d85 afbd 4cb9 dd3c f137 37bd
000001e0: cb9d 6bbd 44ab 5a3d ef65 8abd a0fb 543d
000001f0: 6299 4e3d 3adc 833d c38a 103d c400 a3bd
-0.0014173377 -0.044912893 -0.033556957 -0.048784424 -0.07080354 0.075705305 0.01811624 0.042408284
-0.062858805 0.036567766 -0.0047421576 -0.014790333 0.09020262 0.04316832 0.03947112 0.08085611
0.07429219 -0.003334098 -0.06878802 -0.002096386 -0.08544912 -0.06016415 0.024561582 -0.024467757
-0.080770604 0.020548936 0.09406284 0.087954104 0.03451675 0.018950043 -0.080039166 0.05073966
0.055627305 0.06701104 -0.03334182 -0.05092347 -0.045855407 -0.055659223 0.00035324408 -0.019985834
0.07493299 -0.04263411 -0.018706676 -0.0025582802 -0.017465353 -0.0100603495 -0.0630794 -0.04909672
0.08357078 0.03283842 0.07968047 0.07930449 0.007308499 0.011209754 0.0056751785 0.06281967
-0.020818226 -0.06914581 -0.0883475 0.03969968 -0.0067691887 0.0398707 0.071864255 0.09645691
-0.05880686 0.028036483 -0.0610575 0.0045445287 -0.022218736 -0.033340503 0.06573119 0.032075755
0.004494607 0.019239761 0.054556847 -0.07262725 0.051339783 -0.067802854 -0.03687784 0.013023939
0.02309367 0.0006841703 0.06489848 0.046377257 0.03191862 -0.021471022 -0.05600381 0.07833529
0.012278963 0.05661863 -0.04958534 0.018808087 0.064615704 0.03537957 0.091445655 0.07763439
0.05129042 -0.05039774 0.03587329 0.028521078 -0.029985739 -0.052510653 -0.011562911 -0.009008434
0.010313227 0.016730214 0.003393658 -0.067001835 0.05544524 -0.06626973 0.03272265 -0.050162356
-0.07321706 -0.04163479 0.041123953 0.026617017 0.005215434 -0.08570335 0.027065895 -0.044731084
-0.05752353 0.053385988 -0.067577235 0.05199778 0.050439246 0.06438489 0.035288583 -0.079591304

layers.0.W_p.weight f4 [128, 128]
00000000: 238a 04bd fe2b 77bd 571f 4d39 0a2f 9ebd
00000010: e6b8 7a3d 107f a03b 93a6 afbd 502c d03d
00000020: 8cb1 393c 9be4 063a 5fdb 86bd 2482 8bbd
00000030: a334 343d 098f b73d 6d1c bb3c 63a0 9b3d
00000040: 6f16 b2bd 7f58 a6bd 4a73 0dbd 8af4 e33c
00000050: 2e83 a73d 147a 8f3c 807f 1c3b bb68 bfbc
00000060: 9574 20bd dfd1 7fbd 214a f5bc 3037 58bd
00000070: ac63 4d3d 6977 aabc fff4 443d a173 7e3b
00000080: 3a99 07ba 824d f9bb cd7d 863c 2bc2 ed3b
00000090: a984 77bd 2263 81bc 0350 b83d d815 fbbc
000000a0: e3e7 a13d 099a 8c3d 455b 74bd 8c75 5a3d
000000b0: 2f22 8dbd a17b 29bd 82bc 123d ce94 c73d
000000c0: 629f 1a3a 8621 8f3b 426a 663c aedc 90bc
000000d0: 26b7 58bd 535b 90bd a33d 793c e3f0 95bc
000000e0: 12f5 9bbc 76d6 05bc a99e 2c3d db4f 833c
000000f0: 4dae 413c 9573 9ebd 6487 17bd 8703 ed3a
00000100: a3a2 a53c 58c8 3f3d 4fb9 523d 75cc 973b
00000110: 144c 943d 8a17 d3bc b091 90bb 2f9e 7abd
00000120: 09e8 90bc ca9f 1cbd a96e d43c 3f51 9aba
00000130: b93b 31bc b2c6 70bd bdf3 2b3d d6e9 3f3d
00000140: 96c1 17bd 4207 8b3d 1fd8 8d3c 8cea 55bd
00000150: 32a2 c4bd 3085 8bbc 555c d8bc 971b 1dbd
00000160: 55f2 603d 8d9b 9e3d ed5c 4f3d 63c5 3b3d
00000170: 9a09 9a3d ebf3 8cbb ae0e 7f3d a360 1b3c
00000180: 670d 00bd e6d7 b43d 9a71 dcbc aba9 d33c
00000190: a584 19bd 444e 243d f50a 2cbd fd98 343d
000001a0: 6ad7 6abd 9707 4f3d 6561 ae3b 004e 5d3d
000001b0: 94b5 3bbd 266a 2dbd d3fc 803c 90d6 2b3d
000001c0: dea4 46bd c576 853d 2ae7 b33d 21b9 24bd
000001d0: 5555 6e3d 475d 733b f6be 29bd 9093 503c
000001e0: 40da 88bd 8c21 aa3c e4db 82bd 45a4 84bd
000001f0: 154b 033d 4969 243d 1c26 f6bc 0b2a 52bd
00000200: 2391 a7bd 3a44 25bd 6471 9cbd f742 7cbb
00000210: ca64 74bd 89fd bcbd 31e4 cebc b603 a83c
00000220: 8a6f 963d f063 a23d e5b6 223c 354b db3d
00000230: 6bfb b23d 76c9 c53d e2ee f6bc 869c 143d
00000240: c06a 9abd e77f 97bd 93f9 523d 2949 95bc
00000250: 5d62 93bc 6b37 533d 5acc 7bbd 2bf2 04bd
00000260: 9361 ca3c 6bad 9a3b 9f68 413c d5c2 4a3d
00000270: 33c8 973d bb10 f1bc 1903 7dbd 55ca 9c3c
00000280: 0824 223d 7fe1 5abd e9b0 4cbb d36e 9b3c
00000290: 3428 2a3c a071 bebc ece0 bbbc f026 01bd
000002a0: 55ef 4dbc 81f3 c73c bfba adbd 6aa7 4dbd
000002b0: db11 b0bd d692 96bd cfeb 8ebc 03a9 7c3d
000002c0: f912 803c cd82 983b 39fc 3dbd 217f 98bc
000002d0: 7968 443d adec f2bc 589c a73d 74fe 84bd
000002e0: 9edb 6abd dc3a a93c 8f3c b8bd 0718 cd3b
000002f0: b6b6 7a3d 89cc 64bd 952e a4bd 90d9 e0bb
00000300: 595b 803d dfaa 813d 4eb1 ad3c 4d7b 15bd
00000310: 55e7 f83c 35cc 033d 5083 1f3d da73 85bd
00000320: b764 80bc 86eb d4bd f8bb 993b f357 31bd
00000330: 1353 8cbd 7c07 1f3d 7ca5 d9bb 3c57 2ebd
00000340: d873 34bd a79b ba3d 81b4 093c b3dc dbbd
00000350: 05d7 85bd 253e 02bd 20bb 153d 2197 933d
00000360: 46ac 96bd 02b8 853d 66ce 943d 7987 1bbd
00000370: 0b0b af3d 8da2 9abd fa67 323c 7967 00bd
00000380: 0ff9 b1bd b992 91bc 869c a5bc 30be 8ebc
00000390: 53d5 5b3d 38fc 68bd bbdd 873d bee1 783d
000003a0: 8ec8 c33c 50ba 923d 9818 3bbd ee09 afbb
000003b0: 53b1 143d df29 39bd 0361 753d 1306 913c
000003c0: 7753 b4bd 1330 93bc 986a b53d e001 12bb
000003d0: ba54 9cbc 9cb9 c83d 1f0c 8cbd 2382 8cbc
000003e0: 9f79 31bc c623 1f3c 5647 e0bc 1803 ad3b
000003f0: a05e 313c 796d 063d ee48 da3c d95b b53d
-0.0323583 -0.06034469 0.00019561998 -0.07723816 0.06121149 0.0048979595 -0.085766934 0.10164702
0.011333834 0.0005145759 -0.065848105 -0.06811932 0.04399551 0.08962829 0.022840703 0.07598951
-0.08695685 -0.08122348 -0.034533776 0.027826566 0.081793174 0.017514266 0.0023879707 -0.023365369
-0.03917368 -0.062456008 -0.029942574 -0.052787006 0.050143883 -0.020808892 0.04808521 0.0038826244
-0.0005172674 -0.0076081166 0.016417408 0.0072558126 -0.06042925 -0.01579434 0.08999636 -0.030650064
0.07905557 0.068653174 -0.059657354 0.053334758 -0.06891286 -0.041377667 0.035824306 0.09745179
0.00058983837 0.00436801 0.01406342 -0.017683353 -0.05290904 -0.07048669 0.015212449 -0.01830334
-0.019037757 -0.008168807 0.042143498 0.016029289 0.011821342 -0.07736889 -0.036994353 0.0018082716
0.020219153 0.046821922 0.051446255 0.0046325275 0.07241073 -0.02576806 -0.0044118986 -0.061186012
-0.017688768 -0.038238324 0.025931673 -0.0011773481 -0.010817462 -0.05878324 0.041980494 0.046853863
-0.037049852 0.06788494 0.017314969 -0.052225634 -0.09601249 -0.017031282 -0.026411215 -0.03835639
0.054918606 0.07744513 0.05062573 0.04584254 0.075213626 -0.004301538 0.06226986 0.009483489
-0.03126278 0.08830242 -0.026909638 0.02583774 -0.037480015 0.040113702 -0.042002637 0.044091213
-0.05733434 0.050544348 0.005321669 0.054029465 -0.045827463 -0.04233756 0.015745556 0.04195267
-0.048497073 0.06516794 0.087843254 -0.040215615 0.058186848 0.0037134455 -0.04144188 0.012730494
-0.06682253 0.02076795 -0.06389597 -0.064766444 0.032054026 0.04013947 -0.030047469 -0.051309627
-0.081819795 -0.04034827 -0.07638815 -0.0038492063 -0.059666432 -0.092280455 -0.025255295 0.020509582
0.07345493 0.07929218 0.009931301 0.10707704 0.087393604 0.09657566 -0.030143205 0.036282085
-0.07539892 -0.07397442 0.051507544 -0.018223362 -0.01799124 0.051566523 -0.06147418 -0.032457512
0.02470473 0.00472038 0.011804729 0.049502213 0.07411232 -0.029426923 -0.061770532 0.019139448
0.039585143 -0.053437706 -0.0031233376 0.018973744 0.010385562 -0.02324754 -0.0229344 -0.031531274
-0.012569268 0.024408104 -0.084828846 -0.050208487 -0.08597156 -0.073522255 -0.017446427 0.06168462
0.015634047 0.0046542645 -0.046383116 -0.018615307 0.047951195 -0.029653871 0.08184117 -0.064938456
-0.05733835 0.02065795 -0.08995926 0.006258968 0.061209403 -0.055859122 -0.08016697 -0.006861873
0.06267423 0.06331419 0.02120271 -0.036494542 0.030383745 0.03217717 0.03894359 -0.065162376
-0.015673025 -0.10396485 0.004691597 -0.043296766 -0.06851783 0.038825497 -0.0066420417 -0.042563662
-0.04405579 0.091117196 0.008404852 -0.107354544 -0.06535152 -0.031797547 0.03655541 0.0720656
-0.07357077 0.06529237 0.0726593 -0.037970994 0.08547028 -0.07550535 0.010889048 -0.03134868
-0.08690082 -0.017770158 -0.020216238 -0.017424673 0.05367024 -0.05688116 0.066340886 0.06076216
0.023899343 0.071644425 -0.04567775 -0.00534176 0.036301922 -0.045205947 0.05990697 0.017703092
-0.08804982 -0.01796726 0.08858222 -0.002227895 -0.01908337 0.09801027 -0.068382494 -0.017151898
-0.010832219 0.009713119 -0.027377766 0.00527991 0.010825783 0.032819245 0.026646104 0.08855409

layers.0.W_p_prime.weight f4 [128, 128]
00000000: 671e 7dbd 928c 91bd 0799 0bbd c1e5 303c
00000010: c5b3 193d c348 313d 3dc9 bebc d7a3 8e3d
00000020: 5069 993d 4984 b4bc b89c 8cbd 811e a73d
00000030: c115 b4bc 4b94 37bd fc80 c6bc e548 58bd
00000040: 5125 76bd 3cc5 38bb 620c 00bb 3b3f 2cbc
00000050: bc37 7abd bcdc b4bc 4e97 d4bd 4f4d 9a3c
00000060: 628b 3abd ec0e 2bbd 95a0 adbd 75ee 80bd
00000070: 7cc3 5f3d 9a92 e23c 8118 7b3d f239 9abd
00000080: 2d4a 89bd 5451 8fbd 2806 7b3d 8c35 86bd
00000090: 65d3 553d f494 e7bc e445 783d 7371 7abc
000000a0: 8c8a b139 5900 83bd d3d2 80bd 43d3 b43c
000000b0: bc45 2fbd a394 103d 32de cf3c 53a7 6dbd
000000c0: 24c2 c1bb 54e3 2bbd c4e0 ae3b 4be6 3a3c
000000d0: ab56 563d 420a 2abc 6f5c 243d c067 a53b
000000e0: dcfe 5cbc 5806 5abd 3445 6b3d 905f a73c
000000f0: 6a5e 473d ea57 6abd 9f88 04bd 5b5d aa3d
00000100: 629e a1bd 5c92 723d 7526 3fbd a931 793d
00000110: 3015 043d 7710 abbc 5b35 8fbd fcca 42bd
00000120: a312 f6bb 31ac 1bbd d45c 583d f4aa b13c
00000130: b2e9 1fbd b23f a7bd a384 473d 478e 9cbb
00000140: 514d cd3c aba2 853d 371f 843d 2fe4 473c
00000150: aa28 a23d 35d5 9b3c b42d 38bd 828f 843d
00000160: 3929 47bd 5f82 863d be76 bbbc bdf2 dabc
00000170: 6ac1 bfba f6da 3b3d 185c 7b3d 4c19 183d
00000180: fe3e 563d 2cc6 b5bd 6a11 373d b0e8 5cbd
00000190: 5471 69bd 52e8 8b3d b33f c6bc 35e5 c8bc
000001a0: d7a9 17bb 4c81 4cbd 124a 81bc 2ba3 4e3d
000001b0: cd76 f33c 8415 3e3d a006 b7bc eb24 0a3d
000001c0: 41a2 993d 544b 6abc 3d1f c0bc 4f10 0bbd
000001d0: 7f01 a53d 9dbc 01bc 00d3 1d3d c9ae 67bd
000001e0: ca5b 2bbd 7e94 a0bc b29a 14bc 02fc 623d
000001f0: 22a4 813d 3601 bfbc e4e9 8dbd 3c4e ac3c
00000200: 857c e9bd 1382 eebc b6cf 943d 966f 81bd
00000210: 21e0 6a3d c6a2 8fbd 3c3b e63b 156d 4ebd
00000220: db08 24bd c272 a23b 03ef 66bd 794b 0bbb
00000230: d1e9 8d3d edd6 283d 08b7 9a3d e172 cfb9
00000240: 3b2e a9bd 0f28 723d 4952 aa3d 099c 74bd
00000250: 3175 93bd 1872 c2bd ecf1 303d a75b 80bd
00000260: ebc8 443d 23f8 26bd 4bdd e5bc 8c5d abbd
00000270: 3d41 9fbc 23df cd3c e154 5c3d f67c e1bc
00000280: 3493 00bd 6cfd 01bd 9dc2 f73c 8b2b 5c3d
00000290: 32b6 1e3d 1108 8f3b 2df5 e93c 0502 e3bc
000002a0: 8094 b7bc 0a70 dfbd 3a48 1c3d ce74 093d
000002b0: 5bb4 e8bc 2cb6 5a3d fcac fdbd e213 7bbd
000002c0: a7e9 ae3d aba5 05bd f7f1 88bd ad03 6d3d
000002d0: 0c22 60bd 60f9 24bd 572f fabb d338 b63d
000002e0: c9b3 bc3d 3e19 8abd edd8 b1bd c16c 7cbc
000002f0: 1cb3 9ebd 1119 91bd ab31 5dbd 9f3b 10bd
00000300: 7a73 82bd 336f 5dbd 64e9 71bd 21e3 b2bc
00000310: 4146 42bd c43b 8b3d 2750 13bc 316a 653d
00000320: cf64 6abd 3eff 6c3d d154 933d 9d25 b53c
00000330: 1f85 bbbd 65a2 913d e939 2f3d 66fc 8d3d
00000340: 3456 4bbd da6f 2c3d a1a4 873d 395e a8bd
00000350: 3e99 e03c 12bd fe3c ab4a 87bd 8e97 973c
00000360: b993 74bc 62ba a13d 3711 9abc d047 25bc
00000370: 7fcc 05bc 9ddc 513c c1db 233d 8b9b a03d
00000380: 3a83 87bc 5978 85bd f5fd 953d ac6f 653d
00000390: 99a3 163c 1174 263d 069a 8fbd 6d77 d9bc
000003a0: e7ed 80bd b22b 9c3d af20 e3bc b1cb b4bd
000003b0: 5c21 793d 03a6 bbbd bef8 64bd 8fec af3d
000003c0: 1470 583d 9a04 8bbd 4632 cebc 14f7 873d
000003d0: c2d5 57bc a0ab 02bd 6354 093c 0949 d33c
000003e0: f2e7 d5bc da0d 5fbc 2dbf 253d a5e9 49bd
000003f0: b81a 9e3d 9315 97bd 60d7 703c 5302 8dbc
-0.061796572 -0.0710689 -0.034081485 0.010796965 0.037524957 0.04328228 -0.023289317 0.06964844
0.0749079 -0.022035735 -0.06865829 0.08160115 -0.02198303 -0.044819158 -0.024231426 -0.052803893
-0.06009418 -0.0028193733 -0.001953863 -0.010513122 -0.06108831 -0.02207791 -0.103804216 0.018835692
-0.045543082 -0.041762277 -0.08477894 -0.06295482 0.054629788 0.027657796 0.061302666 -0.075305834
-0.06703601 -0.06997934 0.061285168 -0.06553182 0.052203555 -0.028269269 0.060613528 -0.015285837
0.00033863296 -0.06396551 -0.062902115 0.022073394 -0.042791113 0.035298 0.025374506 -0.0580209
-0.005913036 -0.041964844 0.0053368527 0.011407445 0.052328747 -0.010378422 0.040127214 0.0050477684
-0.013488498 -0.053228706 0.057439044 0.02043131 0.048674025 -0.057212748 -0.032356855 0.083185874
-0.07891537 0.05922161 -0.046667535 0.060838375 0.03224677 -0.020881874 -0.069925986 -0.047556862
-0.007509546 -0.03800601 0.052822903 0.021687962 -0.03904123 -0.08166446 0.048710477 -0.004777703
0.025061281 0.06525167 0.06451266 0.012200399 0.07917912 0.019022563 -0.04496546 0.064726844
-0.048623297 0.06567835 -0.02288377 -0.026727075 -0.0014629785 0.045863114 0.061367124 0.0371335
0.052306168 -0.08875689 0.04469434 -0.053932846 -0.056992844 0.06831421 -0.024200296 -0.024523357
-0.0023142004 -0.049927995 -0.01578239 0.050448578 0.029719735 0.046407238 -0.022342026 0.033726614
0.075016506 -0.014300186 -0.023452396 -0.0339511 0.08056926 -0.007918504 0.038531303 -0.056563172
-0.041835584 -0.019602057 -0.009070085 0.055416115 0.06330134 -0.023316007 -0.06929377 0.021033399
-0.11400703 -0.029114759 0.0726618 -0.063201115 0.057342652 -0.070134684 0.0070261043 -0.050396997
-0.040047508 0.004957528 -0.056380283 -0.0021254702 0.069293626 0.041220594 0.07554442 -0.00039567708
-0.08260771 0.059120234 0.08316476 -0.05971912 -0.07200087 -0.09494418 0.043199465 -0.06267481
0.048043173 -0.040763985 -0.028059622 -0.08367452 -0.019440288 0.025130814 0.053791884 -0.027525406
-0.031390384 -0.031735823 0.030244166 0.053752463 0.038747974 0.0043649753 0.028559292 -0.027710924
-0.022409678 -0.10910042 0.038154818 0.03355866 -0.028406313 0.05339639 -0.1238651 -0.06129826
0.085406594 -0.032628696 -0.06686776 0.057864834 -0.05471997 -0.040276885 -0.007635038 0.08897557
0.09213979 -0.06743096 -0.086839534 -0.015406788 -0.07749006 -0.07084859 -0.054002445 -0.03521311
-0.06369682 -0.054061126 -0.05906047 -0.02183682 -0.04743028 0.06798509 -0.008991278 0.056009475
-0.057225045 0.057860605 0.07193912 0.022112662 -0.0915625 0.071110524 0.042779837 0.06932907
-0.049642757 0.042098857 0.06623197 -0.082210965 0.027416822 0.031096015 -0.06606039 0.018504884
-0.014927798 0.07896878 -0.018807037 -0.010087922 -0.008166431 0.012808946 0.040004496 0.078421675
-0.016542066 -0.06517095 0.07323829 0.0560147 0.009194278 0.040638033 -0.070117995 -0.026546204
-0.06295376 0.07625522 -0.027725546 -0.088279136 0.06082283 -0.091625236 -0.05590128 0.08590042
0.05284126 -0.06787987 -0.025170457 0.06638923 -0.013173522 -0.031901956 0.008381936 0.025791662
-0.026111577 -0.013614142 0.040465523 -0.049295086 0.0771994 -0.07377162 0.014699787 -0.017213022

layers.0.f_def.weight f4 [1, 128]
00000000: 1fdf e03d c6ca c9bd 4a1b abba 3330 a1bc
00000010: 3d49 c3bd 1ee4 1fbc 6028 0dbe 9e78 943c
00000020: a4a9 83bd ef98 50bd 5e7f 163c df3a 423d
00000030: 7cea 6c3d c2b8 003d aaaa 073e cf5f a3bd
00000040: 0854 8ebd dc5a 6b3d ec97 0f3e c924 19bd
00000050: 3e6e 1f3e 200b 0dbc 2682 f8bc 4b12 b8bd
00000060: c9d1 13bd 3998 453d b724 b83d e9fc 883b
00000070: 3896 933d 3cc6 553d 7eb9 26be 7f4e be3b
00000080: fd8b 223d 4ae1 8cbd 0feb 5d3d 396a 81bd
00000090: 1ee9 1bbc abfd 273d 4dfe 9f3d 157b 5f3d
000000a0: 72c2 85bd 1400 9cbc 955c dbbd 6363 26bd
000000b0: a710 963d 6f84 5dbd 1c96 513d 9119 f93c
000000c0: 378e cebd 63e2 333d 8fbd b93d 6fea ee3c
000000d0: 0357 52bd a8a7 b6bd f364 00be 446d db3d
000000e0: e9d2 c73d e53e e7bc c4d5 5c3b 4467 e4bd
000000f0: 56cd 183b 698b d0bd 0132 e2bc 461c 7e3c
00000100: ca30 66bb 46d5 813d f02a e73c c977 5a3d
00000110: b0ca fa3d 0e62 043d aff3 9a3d 5caf 77bd
00000120: a4ce 2c3d 105b e6bd bd36 24bd eb9f 373d
00000130: 34bc 92bd 598a 03bd d622 c0bd 1998 f8bc
00000140: 3783 423d 0f83 02bd 4383 b93d ac87 c53d
00000150: a42b e6bd 746e debd f9e5 573d f945 7dbd
00000160: 63af d3bb 52b5 62bd 4ce3 bcbd 330d 95bb
00000170: 352e 6b3d a1b5 61bd c676 fe3b 0a5c d8bb
00000180: caa3 243d e6db 223d b4b1 ec3b f76e a13d
00000190: 9cda 7dbc b5e1 753d 1289 093d d38a efbc
000001a0: bb08 b73d 2d0c 043d aa2b 0abe 5b4f 113c
000001b0: a286 edbc 1d67 72bd 5821 5dbd e342 933c
000001c0: cf03 023d f4f7 b9bc 10e8 38bd 8402 3ebd
000001d0: 159b a13d d15b 1ebd 0581 87bc ff09 f13c
000001e0: 979d b4bd 427c d9bc 9915 a33d 532f 2b3d
000001f0: 6687 a93d 943d d2bd d279 de3c a3b8 47bd
0.10980057 -0.09853129 -0.0013054397 -0.019676303 -0.095354535 -0.009758977 -0.13784933 0.018123921
-0.06428841 -0.0509271 0.00918564 0.047419425 0.05784081 0.0314262 0.13248697 -0.079772584
-0.069496214 0.057459697 0.14022797 -0.037388597 0.15569398 -0.008608609 -0.030335497 -0.08987864
-0.03608874 0.048240874 0.08991378 0.00418054 0.07206386 0.052191004 -0.16281697 0.0058076973
0.039684284 -0.06878908 0.054179247 -0.063190885 -0.009516029 0.0410134 0.07812176 0.05456074
-0.06531228 -0.019043006 -0.10711018 -0.040622126 0.07327395 -0.054081377 0.051168546 0.030407699
-0.10085719 0.04391707 0.090693586 0.029164521 -0.051352512 -0.08918697 -0.12538509 0.107142
0.09757025 -0.028228233 0.003369675 -0.11152509 0.002331575 -0.101828404 -0.027611734 0.015509671
-0.0035124295 0.06339507 0.028218716 0.053336892 0.12245691 0.032320075 0.0756601 -0.06046997
0.042189255 -0.112478375 -0.040091265 0.044830244 -0.07164803 -0.03211436 -0.093816444 -0.030345963
0.047488417 -0.03186327 0.09058239 0.09645018 -0.112387925 -0.10860911 0.052709553 -0.06183431
-0.0064601167 -0.0553487 -0.09223041 -0.0045486926 0.057417113 -0.055104855 0.0077656237 -0.006602769
0.040195264 0.039760493 0.0072233323 0.07882493 -0.015494015 0.060029704 0.033577986 -0.029241001
0.08937212 0.032238174 -0.13493219 0.0088690175 -0.028994862 -0.059180368 -0.053986877 0.01797623
0.031741913 -0.022701241 -0.045143187 -0.046389118 0.07890908 -0.03866178 -0.016541013 0.029423712
-0.088191204 -0.026548509 0.07963104 0.04179318 0.08277778 -0.10265651 0.027157698 -0.048760068

layers.0.W_self.weight f4 [128, 128]
00000000: 75c5 f2bc f96b 983d b320 a23d 9f58 15bc
00000010: 3e5e 9a3d 7399 b2ba d6aa 7abd 1b97 84bc
00000020: 5d38 9bbd 1984 dbbd a5ae e7bd 26b8 8a3d
00000030: e7fe b7bc 1452 1f3d 4c7f 193d 34ce 0abd
00000040: 5a51 14bb 6122 0d3b a0c8 223d 5b58 f33c
00000050: a355 7a3d bf9f 63bd a763 863d db8d 5c3c
00000060: 8535 c83c 15d2 3f3d df76 a8bd e373 fa3b
00000070: 0629 abbd d0b5 95bd 933a 883d 6779 eb3c
00000080: bc61 393c 853b c53c 5ec4 8d3d c8d8 de3c
00000090: 6636 a0bd 6e76 9abb 7045 4fbd ceca d6bc
000000a0: d655 873d 11be 99bd 0ae3 bb3c 9390 ea3c
000000b0: b901 b13c ccc5 103d b5b9 8dbd 92eb 2abd
000000c0: f4c7 393c 8a42 33bc de7c 1fbd 9372 52bc
000000d0: 78af 6b3d f82f 623c f792 8abd 491a 70bd
000000e0: efc9 d83d 989d 0b3d 0b62 753d 9f68 67ba
000000f0: c11b 1bbd 512e a33d f7f2 243d b6f4 c4bd
00000100: 484e 39bd c07f 46bd ed21 4abd 5f40 c23d
00000110: 7708 8dbd 97fd 9a3d 4df9 21bd 93c1 543d
00000120: 61dc b73d 63e9 263d 317c 333d df2e 42bd
00000130: 546a 943d b715 86bd 7fe9 3ebd 55b8 51bd
00000140: bb85 203d 7886 61ba 0b0d 383d a9ee 413d
00000150: 75da 343d a110 c4bd 1acc 85bd dd49 0dbd
00000160: d055 5cbd 98dd d23d 88e4 743d 169d 30bd
00000170: 1b5b f2bc a03e 66bb cc14 8a3d 0dc1 553a
00000180: 77f0 e6bb 5c91 1c3d d525 38bd 449d 05bd
00000190: 9cfd 433c 90c5 6abd c697 a23d 9544 97bc
000001a0: eb06 90bd 78bf 963d b39e 843d 9c02 40bd
000001b0: 9080 cebc e38f 443d f48a 49bb 283a 9b3d
000001c0: d585 463d 62ed b7bc ab1a 97ba 6afa 913d
000001d0: 1cb9 57bd dad8 f73c 8087 5bbb ddcc 3d3d
000001e0: 7a09 45bd 89ab 5fbd a0dc 623d 6669 d3bc
000001f0: 5b3a f93c 26a6 083c 6ecb 82bd 4462 693d
00000200: c699 61bd cc0b 8ebc bfe5 76bc 289d 9d3c
00000210: cf89 44bd 2192 593d cb3a 6e3d 6cd1 e33c
00000220: dcef 673b 6287 12bd 9da9 933b 364e 0c3c
00000230: 4929 8bbd 3916 d9bd e72e 05bd 1354 983d
00000240: 1914 b33c 8cfe 0abc ffdc 8ebd 9cc7 133d
00000250: d3f9 c6bb c031 20bc 1ff7 bd3d d9c3 d43d
00000260: ea2b 8bbd 3f3f 84bd 32aa 86bd 8d2d b93d
00000270: 2b76 993d d5f1 3d3d faf8 e23c 2f87 70bd
00000280: 3e01 b63d 6739 a7bd caf5 bcbd 52dd 00bd
00000290: ef95 2dbd 2615 36b9 c2d7 a33d 95be 523d
000002a0: 2b61 863d 217b 32bd 63b4 84bd 692d 443d
000002b0: 5f4f e63c 18c8 d23d a88a cabb fd12 d33c
000002c0: 3fe5 153d 6512 a13c 469b 74bb 9e63 6e3d
000002d0: c18c 893d c969 da3c b679 e43c f427 8abd
000002e0: 4211 16bd bf35 e7bc cb8c ca3c 6217 4cbd
000002f0: e713 b5bc 9084 93bd 0799 ff3c 9bbe 7dbb
00000300: 4649 d1bc a1cc 8dbd 3db6 843d 3107 cabd
00000310: e483 9ebd 2878 88bd 4d6a 18bd b5aa 06bc
00000320: 199d d8bc ef50 80bc 384b 01bd d057 473d
00000330: 1957 a4bb c8dd 733d 5c23 bc3c a3cc 963d
00000340: d4a4 c63c cb3b af3d a89a 89bb d4ac 993d
00000350: 2c80 adbb a59e 963d 4547 62bd 0aa1 863d
00000360: f538 d83c b19d 533d 3363 8abd 8d86 313d
00000370: 7140 2c39 2614 943d 042b df3b ed05 31bd
00000380: 15c4 57bc ab98 453d ad32 50bd 4294 033d
00000390: b9a8 84bd f490 4cbd 96af 2f3d b691 4bbd
000003a0: b7d7 593d 0674 523d ebee 46bd d169 d33d
000003b0: 6723 4d3d 5a04 a73b 50da 89bc dca7 c43c
000003c0: 13cb abbd 1fb2 e53c 07a7 b4bc 44b2 31bd
000003d0: 6de6 693d 3000 1fba 7887 8dbc 0ebe 8dbd
000003e0: 3102 153c 1cf7 54bd 5f63 aebd 1b40 793d
000003f0: ffd7 983b 2c66 2c3d f175 1fbc c8b4 553d
-0.02963517 0.07442469 0.07916393 -0.009115367 0.075375065 -0.0013626054 -0.061198078 -0.016185334
-0.0757911 -0.10718555 -0.11312608 0.06773405 -0.022460414 0.038896635 0.037474915 -0.033888057
-0.0022631497 0.0021535384 0.039742112 0.029705217 0.061116826 -0.055572268 0.06561976 0.013461555
0.024439583 0.04683121 -0.08225798 0.0076432093 -0.08357434 -0.073100686 0.06651797 0.028744413
0.011314806 0.024076233 0.0692222 0.027202979 -0.07822876 -0.004713825 -0.05060333 -0.026219752
0.06608169 -0.075069554 0.02293541 0.028633391 0.021607267 0.035344884 -0.069201864 -0.041728564
0.011339176 -0.010941157 -0.038937442 -0.012844699 0.057540387 0.013805382 -0.067663126 -0.058618817
0.10585391 0.03408584 0.059907954 -0.00088275404 -0.037868265 0.079678185 0.04027077 -0.096169874
-0.04524067 -0.048461676 -0.04934876 0.09484934 -0.0688638 0.075679 -0.039544392 0.05194242
0.08977581 0.04074992 0.04381961 -0.04740798 0.07246843 -0.065471105 -0.046609398 -0.051201183
0.039190035 -0.0008603106 0.044934314 0.047346745 0.04415365 -0.09573484 -0.0653307 -0.03449427
-0.053792775 0.10296172 0.059788257 -0.04311856 -0.029584458 -0.0035132542 0.06742248 0.0008154072
-0.0070477086 0.038224563 -0.044957954 -0.032620683 0.011962321 -0.057317317 0.07939105 -0.01846532
-0.070325695 0.073607385 0.06475582 -0.04687749 -0.025207788 0.047988784 -0.0030752989 0.07579452
0.048467476 -0.02245206 -0.0011528333 0.07127841 -0.05266677 0.03025477 -0.0033497512 0.04633795
-0.04810474 -0.054606948 0.055386186 -0.025807094 0.030423334 0.008340394 -0.063864574 0.05697848
-0.05507829 -0.01733961 -0.015069424 0.019239977 -0.047982987 0.053117875 0.058161538 0.027809821
0.003539077 -0.035773642 0.0045063035 0.008563569 -0.06794984 -0.10599942 -0.032515433 0.07437911
0.02186017 -0.00848354 -0.069757454 0.036079034 -0.006072262 -0.009777486 0.0927565 0.103889175
-0.06795485 -0.06457376 -0.06575431 0.09041891 0.07493242 0.046373207 0.027706612 -0.05872267
0.08886956 -0.081652455 -0.09226568 -0.031461067 -0.042379316 -0.00017364751 0.08000137 0.051451284
0.06561502 -0.043574456 -0.064797185 0.04789487 0.028114019 0.10292071 -0.00618108 0.02576589
0.03659558 0.019662092 -0.0037323995 0.05820047 0.067163 0.02666177 0.027890068 -0.06745902
-0.036637552 -0.02822387 0.024725338 -0.049826987 -0.022104217 -0.07203019 0.031200899 -0.0038718346
-0.025547635 -0.069237955 0.06480072 -0.09864653 -0.0774 -0.06663543 -0.03721075 -0.008219411
-0.026442097 -0.015663592 -0.031565875 0.04866773 -0.0050152657 0.05953768 0.02296608 0.0736325
0.024248518 0.085563265 -0.0041993447 0.075036675 -0.0052948203 0.07354478 -0.05524375 0.065736845
0.026394347 0.051664058 -0.06757202 0.04334121 0.00016427205 0.072304055 0.006810548 -0.043218542
-0.013169308 0.0482413 -0.05082958 0.03212381 -0.06477494 -0.049942926 0.04289206 -0.049699508
0.053184237 0.05138018 -0.048567694 0.10322917 0.05008259 0.0050969543 -0.016827732 0.024005823
-0.08388343 0.028039036 -0.022052301 -0.043382898 0.057104517 -0.00060653966 -0.01727651 -0.06921016
0.009094761 -0.051993474 -0.08515047 0.06085215 0.0046644206 0.042089626 -0.009732709 0.05217436
