checkpoints/rank_sweep/refined_lambda_1000.pth (torch, 889043 bytes, 36 tensors)

input_norm.weight f4 [7]
00000000: e014 823f 3b78 663f 6624 753f 40c9 783f
00000010: 9f1b 7c3f cbe8 813f 4364 813f
1.016262 0.9002721 0.95758665 0.97182083 0.98479646 1.0149168 1.0108722

input_norm.bias f4 [7]
00000000: e83f fd3c 14ca 4ebd 492e 093d eb2a 703d
00000010: 9cee f33b 1198 07bc a4b7 0ebc
0.030914262 -0.050485685 0.033491407 0.05863468 0.007444216 -0.008276002 -0.0087107755

layers.0.embed.weight f4 [128, 7]
00000000: cf15 5abe a2f2 72be a9de 293e 528c 903b
00000010: fa88 643e 6365 cdbd 3532 94be a3d2 b9be
00000020: 2e19 dabd f15b 39be 1754 8d3e 5f9f 95be
00000030: 4bf5 723e 3189 a03e 9e54 27be 5eda 76be
00000040: 38ae 753e 95ab a53e 977f 92be 573c 24be
00000050: fc8d 88be d924 9fbe 0cb2 653e ca0b fdbb
00000060: 57db a23e 8f5e a63b 3583 883d 10f0 61be
00000070: eed9 b8bd a98a 343e 74ce b3bd 55ce 6ebe
00000080: 3f15 91be a005 4e3e 273f 3cbe 5950 ab3e
00000090: db63 753d 280d 63be 0b5f b1be a76a dcbd
000000a0: f423 91be b56d f23d 90ee ed3d 4b62 973e
000000b0: ce62 923e eea8 8dbe f1e4 ec3d 4174 c73d
000000c0: e880 473e 73b2 d1bc 6f8a 623d 0fb4 6fbe
000000d0: 3419 a9bd e582 ac3e d88c a0be 6ca7 92be
000000e0: 26b6 a8be 6c8f f8bd 2eab e73c 6555 b2bd
000000f0: afd0 343c ea30 8d3e 1a82 93be d1d8 61bc
00000100: 1397 9c3d da7e 66be 54d8 903e 89e4 34be
00000110: 9262 34be 7902 c33d 2d2f 5abc bf4a 6b3e
00000120: 2563 04be 683e 513d 9562 303c 21af 92bc
00000130: a70f 9e3e 35d9 b3be 9263 aabe dc23 b5be
00000140: c693 693c 9e88 b1bd 5aae 95bd c06b b3be
00000150: 7b01 f8bd c31d 51bc a21e b2bd 19f8 80be
00000160: f418 41be 3e0b 5dbe da53 bbbd 83a4 c63d
00000170: 4d3f 25be 81a1 61be 16a0 cf3d 9633 92be
00000180: 871a ac3d b815 28be 0f0f 043e 87c5 a1be
00000190: 626e b6be eae2 3ebe 1b45 42bd ffa9 e73d
000001a0: d125 66bd 5495 183e 5dc3 aebe cf3d b43e
000001b0: 5c5a a63e 50e7 0b3e 6583 27bd 36f6 933e
000001c0: b9fd 8e3d af18 673d 1e7d a33e bbd2 b43e
000001d0: 4599 dbbc ab39 f6bd faba 0cbe 970c 4e3e
000001e0: e33d e53d 23e8 90be f324 acbe 5c5b 353e
000001f0: 26f7 c5be de75 c23e 4692 933d fb86 94bd
00000200: c3cc 43be e010 b5be 70f1 be3d cc0d bbbe
00000210: bdb1 283e af06 93be a7bb 8cbd 6c3a 9bbc
00000220: 8112 2fbe 0c0b 45be 8612 48be 02b3 733e
00000230: f393 1e3d 606f 7b3e 0724 f53d 9ac9 20be
00000240: 0cdb 7cbe 36e2 c6be 3992 9b3e 98d8 6b3e
00000250: 62ab 103e 101d 313e 9d15 a3be 58b5 76be
00000260: ff39 1bbe f361 773e 992c 793d 0f0d 7e3e
00000270: 2a3a 5abe f47c b2bd fbfc a93e d7bc 29bc
00000280: a5ff 273e 3019 89be a763 9fbe 0753 ebbd
00000290: 264a 7b3e 1b12 a7be c8e5 f3bd ed25 813d
000002a0: be8b f13d 0c8e 823e 6d6f bdbe 9172 0c3d
000002b0: c6e6 28bd c0b6 06be c415 b8be a58f a23e
000002c0: aeff b03e 57b8 a93e cb22 213e 9d01 6abc
000002d0: 2fc7 663c 5373 893e fb2c 8e3e 73c4 ec3d
000002e0: 6ead 463e b21d 663e bced 0e3e f8db c33e
000002f0: e20b 00be 25ad 0fbe 7dcb 82be 6e2d b33d
00000300: 308b 883e 06ae a33c 55b4 183e b568 90be
00000310: ee83 b8be d0a2 8a3e b707 bd3e a7ec 51be
00000320: f5f7 163d 8688 67bd 9247 66be f8e4 4e3c
00000330: a8f6 e1bc 5f0a 9fbe a464 c3be da00 b63e
00000340: a38b b3bd c7ff 2fbe 5fcc 063e de82 26be
00000350: 0adb a83e 010f b23c 8c4d abbe dc97 543e
00000360: ac91 1fbd a40e 3d3d 3971 153e bc89 aa3e
00000370: e843 733e 8bb5 9c3e 6a8d a5be db20 8d3d
00000380: ad57 5d3d 0b0c dbbd 2136 cc3d 6326 993e
00000390: 1694 c13d 505b 9dbe 314b 21be 7c9c ac3e
000003a0: 9516 9abe 175e 94bc 34e5 203d e615 cdbe
000003b0: 79de 2abe e173 a4be f97c e33d db34 943e
000003c0: 1f71 9c3e b298 983e e7ac 6d3e d22a d43d
000003d0: 61df df3d e85f 923e 50e7 09be 7654 9ebe
000003e0: 18ee b73e af70 c9bd 035c 11be 2661 82be
000003f0: 02c7 3dbc 1488 a43e dda3 67bd 6244 5f3d
-0.21297382 -0.2372537 0.16588844 0.0044112587 0.22317877 -0.100291036 -0.28944555 -0.36293516
-0.10649334 -0.18101479 0.27603218 -0.29223153 0.23726384 0.3135467 -0.16340873 -0.24106738
0.2399224 0.3235747 -0.28612968 -0.16038643 -0.26670825 -0.310828 0.224312 -0.0077223526
0.31807968 0.00507719 0.06665651 -0.22064233 -0.09025942 0.1763102 -0.08779612 -0.23320897
-0.28336522 0.20119333 -0.18383466 0.33459738 0.059909683 -0.22172987 -0.34642825 -0.1076253
-0.28347743 0.11837331 0.11617768 0.2956718 0.28591007 -0.27667946 0.115671046 0.097389705
0.19482768 -0.025597787 0.0553078 -0.2340853 -0.0825676 0.33693615 -0.31357455 -0.28643358
-0.32951468 -0.121367306 0.028279867 -0.08707694 0.011036082 0.2757638 -0.28810197 -0.013784603
0.076460026 -0.22509328 0.28290045 -0.17665304 -0.17615727 0.09521956 -0.013316912 0.22977732
-0.12928446 0.051084906 0.010765691 -0.017905774 0.30871317 -0.35126653 -0.3327909 -0.3537892
0.014256423 -0.08668636 -0.073086455 -0.35043144 -0.121096574 -0.012763443 -0.08697249 -0.25189283
-0.18857175 -0.2158632 -0.09146853 0.09699347 -0.16137429 -0.22034265 0.10137956 -0.28554982
0.08403497 -0.16414535 0.1289637 -0.31596014 -0.3563109 -0.18641248 -0.047429185 0.11311721
-0.05618841 0.14900714 -0.34133425 0.35203406 0.32490814 0.13662457 -0.040896792 0.28898782
0.069819875 0.056420024 0.31931394 0.35317025 -0.026806483 -0.12022718 -0.13743201 0.2012199
0.111934446 -0.28302106 -0.3362194 0.17710632 -0.38665122 0.3798055 0.07205634 -0.07252308
-0.19121079 -0.35364437 0.09323394 -0.36533964 0.16474052 -0.28716037 -0.06871729 -0.018948756
-0.17096902 -0.19242495 -0.19538316 0.23798755 0.038715314 0.24554205 0.11969762 -0.15701905
-0.24692935 -0.3884446 0.30384997 0.23031843 0.14127877 0.17296243 -0.31852427 -0.24092615
-0.15158843 0.24158458 0.060833547 0.24809669 -0.2131125 -0.08715239 0.3320082 -0.010359964
0.16406114 -0.2677703 -0.31130716 -0.114904456 0.24540004 -0.32631 -0.11909062 0.06306062
0.11794232 0.25498998 -0.36999074 0.034288947 -0.041235708 -0.13155651 -0.35954106 0.31750217
0.34570068 0.33148453 0.15735929 -0.014282611 0.014085575 0.26845798 0.27768692 0.11560907
0.19402096 0.22472265 0.13957876 0.3825376 -0.12504533 -0.14030893 -0.25545874 0.087488994
0.26668692 0.019980442 0.14912541 -0.28204885 -0.36038154 0.2707734 0.36919948 -0.20500432
0.036857564 -0.056526683 -0.2248824 0.012627833 -0.027583435 -0.310626 -0.3816272 0.35547525
-0.08766868 -0.17187415 0.13163899 -0.1626086 0.32979614 0.02173567 -0.334576 0.20761055
-0.038957283 0.04615654 0.14593972 0.33308208 0.23756373 0.30607256 -0.32334453 0.06891032
0.054038692 -0.106956564 0.09971262 0.299121 0.09452073 -0.30733728 -0.1575134 0.33713138
-0.30095354 -0.018111272 0.039281085 -0.4005577 -0.16686429 -0.3211966 0.11107821 0.28946576
0.30555055 0.29803997 0.23210488 0.1035973 0.10931278 0.28588796 -0.13467145 -0.30923814
0.3592384 -0.09835946 -0.14195256 -0.25464743 -0.011583092 0.3213507 -0.056552757 0.054508574

layers.0.embed.bias f4 [128]
00000000: 6205 1dbd 76a3 8ebe e282 6f3e da67 bd3d
00000010: a12f 413e d02c 993e 820f f73c 2076 6bbe
00000020: 56c8 87bd 8995 a53e e405 81be 1f5b 80be
00000030: a1f1 79be b320 873d 1dd4 573e b544 85bd
00000040: f086 3c3e c5f6 44be 1f1d 7d3e deac f53c
00000050: 228c c1bd 981c 9abe 6bb1 1c3e 2f6f 643e
00000060: 48fb 3e3d 9a33 9dbe 2590 dd3d d9ad b6bb
00000070: b3ed 233e fbfa 043d beb5 943e 754f 843e
00000080: 5ad0 303e 1b26 073e 4fa0 b8bd 31b4 133e
00000090: f3a7 9fbe e55c ad3e 61d5 cabd 0aca 8c3c
000000a0: 5fd5 8d3e 6cdb 3f3e a893 8b3e 4468 723e
000000b0: 2139 01be 2570 f53d a288 133e a9c5 c1be
000000c0: 1e24 83be 5bc9 e53d 6632 323e 71a9 ba3d
000000d0: fdb3 ddbd 6c63 a13e 0a9c 253e 21fc 8abe
000000e0: b92c 73bc c7b4 783e 6066 c5be 814a 243e
000000f0: e4b4 293e 90a0 bdbc 196d bebe 61e2 913e
00000100: f2e1 d9bd 476b 503e b7d3 1fbe cb99 c1be
00000110: c439 0fbc beb2 b0be 7cba 4f3c dc27 91be
00000120: d72f 99bd 5c79 a3be 21e8 983e ef8f 24bd
00000130: 59ee fd3d c63d 043d dc89 b0be 0c7b 063e
00000140: a01d 4a3e db6d d33d bef2 34be 85ab a63e
00000150: f590 ab3c c3c4 c13d 5b7b 023d 1a5a ce3b
00000160: 0d34 c03e 208d c6be c08f 45be 3d44 7bbe
00000170: 3ae9 ac3d 321c 65be e369 5dbe 1534 cc3c
00000180: d1bb bc3e e4f8 273e 9248 adbe d3e5 f73d
00000190: 2091 883e 2170 e1bd ba3a 42be af70 97be
000001a0: a492 ccbc b999 41be 4503 a9be 20af 59bd
000001b0: 6315 84be 3386 a7be 49dc 9bbd bea6 20bd
000001c0: 9d05 823e d92b 653e 1290 e4bd 7bfa 49be
000001d0: b161 85be 38cb b7bd 98f1 84be ea59 8ebe
000001e0: 75d3 4d3e c7fe 89be e535 e53d 1462 c53e
000001f0: c43b 94be cb43 06be a4dc 613e 2a2f a9be
-0.03833521 -0.27859086 0.23389772 0.09248324 0.18865825 0.29917002 0.030158762 -0.2299428
-0.06630008 0.3234065 -0.25199807 -0.2506952 -0.2440858 0.06598034 0.21077009 -0.065072455
0.1841085 -0.1923476 0.2471814 0.029989656 -0.09450556 -0.3009994 0.15302055 0.22308038
0.04662636 -0.3070343 0.10818509 -0.0055749235 0.16008644 0.032465916 0.29044908 0.2584187
0.1726698 0.1319813 -0.090149514 0.14424206 -0.31182823 0.33859935 -0.0990398 0.017186183
0.27701852 0.18736047 0.2726109 0.23672587 -0.12619449 0.119842805 0.1440759 -0.37846115
-0.25613493 0.11220046 0.17402038 0.0911435 -0.10825346 0.31521165 0.16172805 -0.27145484
-0.014842206 0.24287711 -0.38554668 0.16044046 0.1657291 -0.023147851 -0.3719261 0.28493026
-0.10638799 0.20353423 -0.15608107 -0.37812647 -0.0087418 -0.3451137 0.012678739 -0.28350723
-0.07479828 -0.31928527 0.298646 -0.04017633 0.12398977 0.032285474 -0.34480178 0.13132876
0.19737864 0.10323688 -0.17670724 0.32552734 0.020943144 0.094613574 0.031855922 0.006297362
0.37539712 -0.38779545 -0.19293118 -0.2453775 0.08442922 -0.22374037 -0.21622424 0.024927178
0.36862043 0.16403538 -0.3384443 0.12104382 0.26673222 -0.11007715 -0.18967715 -0.29578158
-0.024972267 -0.18906297 -0.33010307 -0.053145528 -0.25797567 -0.32719573 -0.076103754 -0.039221518
0.25394908 0.22380008 -0.11160292 -0.19724457 -0.26051095 -0.08974308 -0.2596557 -0.27802974
0.20100196 -0.26952192 0.1119192 0.3855139 -0.28951848 -0.13111798 0.22056824 -0.33043796

layers.0.W_att.weight f4 [128, 128]
00000000: 195a 89bd 7547 84bd 6a48 2c3d 3aa8 483c
00000010: 3a49 7dbd 7fc7 343d a168 6d3d c382 90bd
00000020: 4d3a 783c 5c9e b4bd 5226 e0bc 6cad 9bbc
00000030: 4f1b be3d 65b1 6a3d 0923 813c 5b2f b2b9
00000040: 477d 9b3d 8126 f3bc a836 94bd 633a 1bbd
00000050: c7db abbd 614e 963d 3fc1 a2bd ae8f afbd
00000060: c2ae 44bc 770b 983d fb4a ac3d abc8 5a3d
00000070: c9cb 663d 1422 503d 0407 03bd 3102 75bd
00000080: c633 1abd d96c a13c f735 6d3d 51f6 b0bc
00000090: e7e5 db3c 7cae 5bbd 6145 10bd 36ae 47bd
000000a0: b42d 363d 6cdd 5c3d 4a4b 673d 4d9b b53d
000000b0: dd0c 023d d2d9 a93d cb0b 4a3d f797 533d
000000c0: ed7d 90bd 5f92 963d a8c2 02bd 3e69 643d
000000d0: 8ebc 94bd d571 523c bb11 e83c 574d 76bd
000000e0: 66c7 a93c 8c8a afbd 22b9 b43d 9d60 efbc
000000f0: 7eb1 99bd 8469 97bd a7b6 eabc 60b0 e5bb
00000100: 2d1d d0bc db4d a5bd 23d5 973d 9e18 48bd
00000110: e163 003d dee0 8bbd e439 2cbc 78e8 b43d
00000120: 7682 84bd daa7 f93b cf2d 5c3c 2c46 d8b9
00000130: c6d9 923d 3669 8d3d 1380 0c3c 89e4 443d
00000140: 9c27 7e3c 2cc8 2d3d d955 3d39 6ef5 0c3d
00000150: 9c1f 85bd a9bb f2bc 0e76 8c3d cee0 f93c
00000160: e8f6 51bd 0bea 553d 4c92 6ebc 5150 8abd
00000170: ba8c acbd fc88 aabc d8f7 9d3c fcb1 aebc
00000180: d819 c53c ec58 c73c b616 1c3b bdca 9cbc
00000190: 90ac 9a3d 6de9 8f3c 6fe8 893d b1cb 8ebc
000001a0: 4a15 bd3d 0c82 8abd 13fb a63d 373d 6abd
000001b0: 04b5 a5bd 45f1 083d 767c cabc ae1a febc
000001c0: a2c5 3dbc 38f5 a73d f08e 9e3d 0103 6abd
000001d0: 3244 babd 3a04 8fbd a316 773d 81c9 89bd
000001e0: 73be e0bc 5cac 6c3c 0611 56bd 35b6 9dbd
000001f0: 133e 283d 9b09 a3bd 1cbb 873d 67ee acbb
00000200: adb8 653d 9571 8c3d cbcb 853c 60e2 84bd
00000210: f002 a83b fde1 8a3d b774 4bbd 2e44 a8bd
00000220: 41e9 16bd c824 b53d 3cf6 eabc 017c 683d
00000230: 08fd 02bd 5962 a7bb ad37 a8bc 4b45 fc3c
00000240: b234 ffb9 cb0d 913d 8d0d d43d 9e6a 613c
00000250: 911d 5f3d 5a42 cc3d 4b6b bdbc 9f6a 20bd
00000260: 0e77 a53d af26 ae3d f4c2 63bd cff8 b83b
00000270: 0981 ab3d ed56 2fbd f33c b5bd 126b c13c
00000280: b94c 803d 7613 e93c a8fc 3dbd 155d 3a3d
00000290: f59d a63c 00b5 b93d 7f73 a93d 280e 11bd
000002a0: 0ea1 a43d ae46 973d 8611 75ba 180e a6bb
000002b0: 75e9 293d 1369 023c 2708 9bbd 12bf 5fbd
000002c0: 1c1d 3dbd 7c79 7cbd 80c3 91bd 45d6 84bb
000002d0: 5ce7 f23b e278 4cbd 4012 953d c311 883d
000002e0: 825e 15bb 9abc b7bb 281c 64bd 0e97 da3c
000002f0: 5300 5b3d 5c54 443d 1128 f3bc b4f6 b0bd
00000300: cfae 7dbd e1cb 8cbd 2e52 40bd bd37 37bd
00000310: e4a1 153c ce5a 3abd 93fe a93c ef3b b73c
00000320: 11ab adbd 85e3 253c d1e9 a3bc 22a2 1a3d
00000330: 7bda ff3c 95bf 3ebd 74ee 173d 36dc 0aba
00000340: 91bc 5f3c 19ba a23d aa92 6e3d ac28 94bd
00000350: 58a4 873c 3add 333d fb2b 1bbd 2324 89bc
00000360: ab15 863c 7da3 123d 95c0 40bd a355 1f3d
00000370: d82a 87bd 5cbf a6bd 7c4c 22bd 1961 74bd
00000380: 8d07 c53d 4a7f 263c a6f8 5b3c ea2f 15bd
00000390: b2df c23b 1c28 113d e810 843c 289a 52bd
000003a0: fac5 b2bc 3c03 503d 49a8 a13d 1b6f 89bd
000003b0: c111 a33c da7d c0bc ebfa 8e3d c199 1abd
000003c0: 8468 783c f5a4 02bd 0641 7e3d 7ba5 5a3b
000003d0: 1625 a13d 9eca 2a3d 03b8 b53a ddf0 e63c
000003e0: 3e5e 06bc 66c7 8b3d 64c1 433d 20e4 af3d
000003f0: 2eda 0e3c dd22 5dbb 0a1a 523d 42d4 b2bd
-0.06706638 -0.06458942 0.042061247 0.01224714 -0.061837412 0.044135567 0.05796111 -0.07056191
0.015150619 -0.08819267 -0.027362023 -0.019003592 0.092825525 0.057298083 0.015763776 -0.00033986088
0.07592254 -0.029681446 -0.07236987 -0.03789748 -0.083915286 0.07339168 -0.07947015 -0.085723266
-0.012004556 0.07424062 0.08412739 0.05341403 0.05634669 0.05081375 -0.031989112 -0.059816543
-0.03764703 0.019705223 0.057912793 -0.021601828 0.026843024 -0.0536332 -0.035222415 -0.048750125
0.04447718 0.0539221 0.056468286 0.08867512 0.03175055 0.08293499 0.049327653 0.051658597
-0.070552684 0.07352137 -0.03192392 0.05576443 -0.072625265 0.0128445225 0.028328767 -0.06013235
0.020724963 -0.085713476 0.08824374 -0.029220873 -0.07504557 -0.073931724 -0.028651549 -0.007009551
-0.025404537 -0.080714904 0.074136995 -0.0488516 0.031345252 -0.068299994 -0.010511849 0.088334024
-0.06470196 0.0076188864 0.013438656 -0.00041251013 0.07170443 0.06904833 0.008575457 0.04806951
0.015512373 0.042427227 0.00018056425 0.034413747 -0.0650017 -0.029630499 0.06858455 0.030502703
-0.05126086 0.052225154 -0.014561247 -0.067536004 -0.08425279 -0.020817272 0.01928322 -0.021325104
0.024060175 0.024334393 0.0023817248 -0.019139642 0.07552445 0.01756736 0.06733786 -0.017431112
0.09232576 -0.06763086 0.08153357 -0.057187285 -0.080911666 0.033433218 -0.02471755 -0.031018581
-0.011582764 0.08201069 0.07742107 -0.05713177 -0.090950385 -0.06983228 0.060324322 -0.06727887
-0.027434563 0.014445391 -0.05226233 -0.07700769 0.041074824 -0.079608165 0.06627485 -0.005277443
0.056084324 0.068576016 0.016332528 -0.0648849 0.0051273033 0.06781385 -0.049671855 -0.08216129
-0.036843542 0.08844906 -0.028681867 0.056758884 -0.03197959 -0.0051081595 -0.02053436 0.03079476
-0.0004867665 0.07082709 0.10354147 0.01375833 0.054471556 0.09973593 -0.02312245 -0.03916418
0.080793485 0.08503472 -0.055605844 0.0056448947 0.08374221 -0.04280751 -0.08849516 0.023610625
0.06264634 0.028451663 -0.04638353 0.045498926 0.020338992 0.09067726 0.08273982 -0.03541389
0.08038531 0.07386528 -0.00093486195 -0.005067598 0.041482408 0.007959622 -0.07569914 -0.05462558
-0.04617034 -0.061639294 -0.07117367 -0.004053863 0.007412834 -0.04991997 0.072788715 0.06644013
-0.0022791927 -0.0056072 -0.055690914 0.026683357 0.053467106 0.047932014 -0.029682191 -0.08640805
-0.06193429 -0.06874824 -0.046953373 -0.04473089 0.009132836 -0.045496754 0.020751273 0.022367446
-0.08479894 0.010125046 -0.020008953 0.03775228 0.03123211 -0.046569426 0.03709264 -0.0005297096
0.013655798 0.079456516 0.05824534 -0.0723432 0.016557857 0.04391215 -0.03788374 -0.016740864
0.016367754 0.035800446 -0.04705866 0.03890003 -0.06599969 -0.08141968 -0.039623722 -0.059662912
0.09620581 0.010162184 0.013425982 -0.036422648 0.0059470767 0.035438642 0.016121343 -0.051416546
-0.021822918 0.050784335 0.07893426 -0.06710645 0.019905927 -0.02349751 0.069814526 -0.037744287
0.015161637 -0.031895597 0.06207373 0.0033362794 0.07868402 0.041697137 0.0013864044 0.028191024
-0.00820118 0.068251416 0.047791854 0.08588433 0.00871901 -0.0033742704 0.051294364 -0.08731891

layers.0.phi_att.weight f4 [128, 128]
00000000: f065 a9bd 7cb0 b03d 181d 193d 6802 b4bc
00000010: 1d26 0bbd 4a8a 9a3d 76f4 243b a720 9b3d
00000020: 2a35 35bd 5834 0bbd d252 1a3d 36cf 843d
00000030: 8304 8f3d 737d 8fbd a6b6 fbbc bb3d 7b3d
00000040: c813 40bc 3ea2 32bd aede a03c 6f0b a0bc
00000050: 6ce8 d33c 7cd2 6c3d b219 b8bd 3584 4dbd
00000060: 9ad4 c43a bf77 bb3d 2a06 9bbd d8a5 223d
00000070: ebad f4bd f19b 9b3c 8443 c53b e644 9dbd
00000080: cebe 513d b2d9 7cbd b05b 1cbb 5a57 71bd
00000090: 0b2f 02bd 4b16 803a ec1b 5c3d 8bd4 debd
000000a0: 6f68 b33d a500 3c3d 24e4 abbd a441 663c
000000b0: b173 15bd ab7e a83d 498f 80bd bf4d ba3d
000000c0: ca0c 6e3a a744 673d dd44 b93d b19e 36bd
000000d0: 2071 7cbb 6ca8 3e3d 5d3e 67bd d193 b9bd
000000e0: ec21 83bc 5fb5 7d3d 8659 b4bd eb4a 613d
000000f0: e4be a4bb 857e a8bd 5c2c 4cbd a855 00bd
00000100: d0d2 c9bc a599 183d 7a58 74bc 8bac 83bd
00000110: f97c 913d 10e6 073d 1d1d aebc 963d 5f3d
00000120: a7c2 48bd 3032 53bc 4b06 70bc 7983 a8bd
00000130: 7630 913c 55cc 5e3d 7241 c53b c10c 083c
00000140: 216c 69bd 225e 923d 03ba 663d def4 b8bd
00000150: 0abe 003c 4a9a 6d3d 8fb3 993d 9115 58bd
00000160: 2a9f 70bd 7270 12bd 42a9 813c 3e29 583d
00000170: dcef 49bd 9a01 82bc dd69 123d 2776 a03d
00000180: 2dbd 723c 5e4f 86bd 4f87 43bd c15a 893d
00000190: 9e42 87bd 4e3e 00bd f01e dbbc dace c63d
000001a0: f6e6 243d c1f3 ae3d c90c 8f3d 63d2 8b3d
000001b0: 88dd 80bd 1e37 2a3d 4c24 f63d 274d c4bc
000001c0: 2571 abbc 05b4 1d3d 765e d239 def7 163c
000001d0: 7727 b33c 833c 76bd cade 4d3d 2771 973d
000001e0: d415 10bd c6d7 9bbb 28b4 0e3c 658b ae3d
000001f0: d950 5b3d 9db7 07bd fd37 6ebc 5ac0 9ebd
00000200: b510 513c 46d8 8a3d af57 513d 54a9 cfbd
00000210: df0c f4bc 6398 ea3d fdc8 653c b5a0 aabd
00000220: 10e5 913b d872 0fbb e824 a23b 38ff ce3c
00000230: d5b2 6d3d 11b0 4d3a cf41 533d eb70 a1bd
00000240: 08ba 84ba b6ea cb3c e04c c23b 5d39 603d
00000250: 6fd9 8c3d b8be 36bd 8fb1 d0bc ac9b 8f3c
00000260: 3b88 98bd 664e afbd 3626 043d 3f67 51bd
00000270: bc2d 823d dea3 8abd 19ff bbbc 6725 2bbd
00000280: 5dd9 90bd 2581 cb3d a644 6e3d 7dae bfbc
00000290: 4ce9 0f3d a430 c4bc f999 1ebd 3b4c 293d
000002a0: c436 9b3b 8bfb 2abd fadb 453d d148 023d
000002b0: a75e e2bb 8ae8 69ba c08b 413d 3207 51bd
000002c0: 9e49 913d b670 883d f4fa 5dbd 67a7 6dbd
000002d0: a7b5 c13d 3765 ef3a f44e 453d b9ba 493d
000002e0: e23e df3d a686 97bd 75b9 c63c 1f58 94bd
000002f0: 9319 533d 9e69 463c 0e8b 6e3d faf0 6bbd
00000300: d25c 94bd f9ae 673d 8b38 273c 159f 2b3d
00000310: 3b13 a0bd 238b 98bc a8a4 21bd 62f1 7b3d
00000320: 2612 12bd d57e e5bd 1a19 933d cd8e 6e3d
00000330: 1709 993d 7f09 4ebc bf97 443c e073 2abc
00000340: 3dc9 813d abf6 823d 79e0 a03d 5795 9c3c
00000350: f627 97bd 3ed6 ac3d fa87 80bd 83b3 843d
00000360: c5a2 0f3d 8166 8dbd 42f4 2f3d c8d5 8fbd
00000370: c2c6 9a3c 176c 8ebd d691 eabb 924c 183d
00000380: d449 05b8 70dc 52bd baee e0bd 13c9 8fbd
00000390: a453 83bb 8d0c c3bc 4e96 483b d344 643d
000003a0: 9910 e6bc c708 01bd d6dd 353d 37f4 a6bd
000003b0: 7d58 0fbd 3986 11bd de3b b73d b955 49bc
000003c0: c4bd 00bd 3e66 81bc 83c7 19bd 7e76 073d
000003d0: 895f a5bd 2adb c1bb a34f 80bb d062 1a3d
000003e0: 009c 133d 88ba 6dbd 1f9e 963d 3e48 a1bc
000003f0: d250 38bd 48da d43d 2d5b 53bc 048b d1bd
-0.08271396 0.08627412 0.03738126 -0.021973804 -0.033971895 0.07545908 0.0025170124 0.07574587
-0.044240154 -0.033985466 0.03767664 0.06484835 0.069832824 -0.070063494 -0.030726742 0.061338168
-0.011723466 -0.043611757 0.019637432 -0.019536702 0.025867663 0.05781792 -0.08989276 -0.05017491
0.0015016973 0.09153699 -0.07569535 0.039708942 -0.11947235 0.018995257 0.0060200114 -0.07679157
0.051207356 -0.061731048 -0.002385836 -0.058921196 -0.031783145 0.0009772269 0.053737566 -0.10880383
0.087601535 0.045899052 -0.08393124 0.014053736 -0.036487285 0.08227285 -0.062773295 0.0909686
0.0009080885 0.056461956 0.09046338 -0.044584934 -0.0038519576 0.04654734 -0.05645596 -0.09061397
-0.016007386 0.061940547 -0.08806138 0.055003088 -0.0050276387 -0.08227257 -0.049846992 -0.03133169
-0.024636656 0.0372559 -0.014913673 -0.06429394 0.07103915 0.03317839 -0.021254117 0.054502092
-0.04901376 -0.012890384 -0.014649938 -0.082282014 0.017723303 0.054394085 0.0060197646 0.008303822
-0.056987885 0.07146861 0.05632974 -0.0903108 0.007857809 0.05800847 0.07504951 -0.052754942
-0.05874554 -0.035751767 0.015827779 0.052773707 -0.049301013 -0.015869904 0.03574549 0.07835036
0.014815611 -0.06558107 -0.047736462 0.06706763 -0.06604503 -0.03130942 -0.02674815 0.097074226
0.040259324 0.08542586 0.069848605 0.068272375 -0.06292254 0.04155647 0.12018642 -0.02396257
-0.020927975 0.038501758 0.000401247 0.00921437 0.021869404 -0.060116302 0.050261296 0.07394629
-0.035177067 -0.004755947 0.008709945 0.08522681 0.0535439 -0.03313409 -0.014539716 -0.07751532
0.012760331 0.06779532 0.051109012 -0.10139719 -0.029791294 0.11454847 0.01402497 -0.08331434
0.004452355 -0.002188852 0.004948247 0.025268182 0.058031876 0.00078463653 0.05157643 -0.078828655
-0.0010126242 0.024892192 0.0059295744 0.054742206 0.0687741 -0.044615477 -0.025475292 0.017530285
-0.07447859 -0.08559875 0.032263003 -0.051123854 0.063563794 -0.067695364 -0.022948788 -0.041783717
-0.07072709 0.09936742 0.058170937 -0.023398632 0.0351346 -0.023948975 -0.03872106 0.041332465
0.004736753 -0.041743796 0.04830549 0.031807724 -0.006908256 -0.00089228956 0.047252417 -0.051032253
0.070941195 0.06662123 -0.054194406 -0.058020975 0.094584756 0.0018264417 0.048171 0.04925034
0.10900666 -0.07398729 0.024258355 -0.0724337 0.05153806 0.012110142 0.05823808 -0.05760286
-0.072442666 0.05656335 0.010206352 0.04189976 -0.07816168 -0.018621033 -0.03946367 0.061509497
-0.03566184 -0.11205832 0.07182522 0.058241654 0.07472437 -0.012575506 0.01199907 -0.010403603
0.06337211 0.063947044 0.07855315 0.01911418 -0.07380669 0.08439301 -0.062759355 0.06479552
0.03506734 -0.06904317 0.04295755 -0.070231974 0.018893603 -0.0695421 -0.0071584983 0.0371824
-3.177843e-05 -0.051479757 -0.109830335 -0.07020774 -0.0040077735 -0.023809696 0.0030607167 0.0557297
-0.028084086 -0.03150251 0.044401012 -0.08152049 -0.0349965 -0.035528395 0.08946966 -0.012288504
-0.031430975 -0.015795823 -0.037543785 0.033071987 -0.080748625 -0.005916019 -0.0039157434 0.03769189
0.036037445 -0.05803922 0.07354378 -0.019687768 -0.04499895 0.10393196 -0.012900156 -0.10231593

layers.0.phi_att.bias f4 [128]
00000000: a80b 43bc 7f58 40bd 6c0c 62bd 6708 983d
00000010: 662c 1b3d f4fb 0abd 5263 e8bc 0cd5 013d
00000020: 179a dbbc 4e6f 6abd 2d41 4c3d f8b6 93bd
00000030: 97f9 26bd 1f9e 8bbc 566b 14bb 7098 a23d
00000040: 59dd 9c3d 27c7 923d 9422 2b3d 2a21 28bd
00000050: cbda bc3d 0a4c b4bc a4d8 05bd 3724 e13c
00000060: 8d6d b5bd f772 e13c ae0a 7abd 6e5b 7abd
00000070: fb1a 9c3d ff20 343c f8d8 823c 94bf 53bd
00000080: 2e30 a33d 1de4 983d acdd a43d a0be eb3c
00000090: f7c5 373c ebdc 183d c268 9abc b0c5 b1bc
000000a0: ad50 85bd b445 8cbc 9107 ae3b 11c2 c53c
000000b0: ca49 403b 1acc a63d fc51 56bd c1c4 f9bb
000000c0: c12e b23c b701 6f3d 78f3 823d f5d1 473d
000000d0: b97b 6cbd d1ac 083d 7ab4 15bd 37c3 5e3d
000000e0: 9e3e a23d 13b4 acbd 0031 8f3d 52bd 48bd
000000f0: 5862 e83c 8bbb 73bd 8a82 b4bd e20b 033d
00000100: a89c da3b f378 a23d c3f8 683d 8c50 1e3d
00000110: fa1f 183d 0546 163d 2539 31bd cf93 8f3d
00000120: 1e48 7e3d 94fc 603d 06bf 7fbb 6bdd 8ebd
00000130: 1987 7bbd 38fb 373d 3f99 8a3d 246d 453c
00000140: 3170 66bd d0d7 8b3d 4a34 16bd a7e3 92bc
00000150: 34bd 3f3d 989e 343d 7172 923c 97c2 8dbd
00000160: c3da 94bd ca83 dd3c cabc 853c bb39 473c
00000170: de24 09bd fd1e 29bd 5e34 94bc 1a8f 9fbd
00000180: f298 b43c a97a 28bd 5543 e9bb aade 533b
00000190: b3be b4bd 6ea4 ac3d 8276 5c3d f5bf 94bd
000001a0: d94f a6bd 989f 2a3d 99c2 22bc b44a 8c3d
000001b0: 3d4f 27bd baf3 d43c b63c 48bd 8297 57bd
000001c0: 16b0 c23d 1110 b3ba ec04 08bd ec8b 55bd
000001d0: 0fcd 92bd 4d61 54bd 5e9d 81bb 7f1b 9dbd
000001e0: 7476 f1bc d693 89bd d170 7abd cfc8 b6bd
000001f0: 7032 4c3c 6844 53bd 93dd 9e3d f10e 133c
-0.011904635 -0.046959396 -0.055187628 0.074234776 0.03788414 -0.033931687 -0.028367672 0.031697318
-0.026806874 -0.057235055 0.049866844 -0.07212633 -0.04076537 -0.017043171 -0.0022646985 0.079392314
0.07659406 0.071668915 0.041781023 -0.041047253 0.09221419 -0.022008915 -0.032677308 0.027483089
-0.08858786 0.02752064 -0.06104534 -0.06112235 0.076223336 0.010994195 0.0159726 -0.051696375
0.07968174 0.07465384 0.08050093 0.02877742 0.011216632 0.03732006 -0.01884878 -0.02170071
-0.06509528 -0.01712308 0.0053109606 0.02414039 0.0029340857 0.08144398 -0.05232428 -0.007622332
0.02175081 0.058351245 0.06394094 0.048784215 -0.05773518 0.033367936 -0.03654907 0.05438539
0.079220995 -0.08432784 0.06991768 -0.049008675 0.028367206 -0.059505027 -0.08813961 0.031993754
0.006671507 0.079332255 0.056877863 0.038651034 0.03713987 0.03668787 -0.043267388 0.07010614
0.062080495 0.054928377 -0.003902377 -0.06975826 -0.061408136 0.044917315 0.067675106 0.012049947
-0.056259338 0.06828272 -0.03667096 -0.017930819 0.046811298 0.04409656 0.017876836 -0.06921881
-0.07268288 0.027040381 0.016325373 0.01215976 -0.033482425 -0.04128932 -0.018091377 -0.07790966
0.022045586 -0.041132603 -0.0071186223 0.0032328763 -0.088254355 0.084298 0.053823955 -0.072631754
-0.081206985 0.041656107 -0.009934091 0.06850186 -0.040847052 0.025995124 -0.048886023 -0.052634723
0.09506242 -0.0013661404 -0.03320782 -0.052135393 -0.07168018 -0.051850606 -0.003955527 -0.0767126
-0.029475428 -0.067176506 -0.061142746 -0.0892502 0.012463197 -0.05157891 0.07757106 0.00897573

layers.0.W_p.weight f4 [128, 128]
00000000: 8a11 643b e1f5 9ebd 0743 403d 06c2 c53b
00000010: 0056 c4bd 510e 383d 487b 193c 3e24 973b
00000020: 28e6 0dbd 8382 f73c 6000 563d 3609 2ebd
00000030: 1bd9 c23d 1855 cdbc 497b 943d 987e 033b
00000040: d41e 9a3d 5c41 50bc 93ca bc3d ad64 4d3d
00000050: 664d a73d 07f8 ca3c d3f8 1cbd d8d5 d23a
00000060: e0d4 3b3c 807f 3fbd fdf6 1fbc 9594 11bd
00000070: 9e9d adbd b2c5 133d f96c 67bd 9db9 af3d
00000080: 430c 26bd 0bff 203b 1c42 273d d10b 83bd
00000090: f660 2d3d d648 85bc 76f8 943d c991 80bd
000000a0: f659 57bb 43b4 b3bd d4d4 13bd 66f4 e2bb
000000b0: 5131 a13d 8682 e83c 77e0 5c3d 4e05 1abd
000000c0: 2ee5 13bd 41fc b6bd 7263 50bb 598d f43c
000000d0: d013 bfbc 568f 23bd d46d 9439 1ebb b1bd
000000e0: 6b38 a7bd 0ecd aabd 9ea4 26bd 6b1e ae3d
000000f0: 3bea 94bb 5b14 ef3b b0f5 00bb 33b7 c9bc
00000100: 88e9 22bd b0d3 4d3c 83ad c43d 37e5 1a3d
00000110: 4db5 98bd 5cec 10bd b46c 9c3c 999c 53bb
00000120: 60e9 8f3d f7f6 82bd 5a91 25bd 7fe3 7d3d
00000130: 8fcf 49bd 603e 0c3d 9721 63bd ced6 493d
00000140: b516 a6bb 7a9d 00bc acff 2e3c c5d3 98bd
00000150: 1c07 1ebd 1aed 433c 2960 05bd f396 c0bc
00000160: e29b 4d3d e798 a0bd a234 833d 91be a53d
00000170: 3eb4 93bd c140 1dbd 3266 553b ad87 eebb
00000180: 9ef1 95bd 202f c43c 222a ad3b 2280 b23c
00000190: 426b 96bd a5b8 11bd 92ee 2fbd 7fa9 74bc
000001a0: dcba b73c 6d46 0e3d 3166 a7bc c371 263d
000001b0: 887d 3fbd cf92 a6bd 8a6c 793d be67 41bd
000001c0: 0b37 b9bd 3f43 93bd 91e7 8a3d 201e 943d
000001d0: 1f96 233d 47b3 f03c 2653 b73d 68de 50bd
000001e0: 26ae 9bbd 6107 8c3d 8851 29bd 716e 26bd
000001f0: 79bf c9bc 9154 51bc b3a5 3bbd f8f5 6c3d
00000200: 348c ec3c 8674 ba3d 0761 74bd 706c 3ebc
00000210: 7723 303d b8f1 2ebc 3e68 66bd afae 283c
00000220: 6932 be3d c786 053c a641 afbd 4dbb 33bd
00000230: 448a c9bc f76f ec3c b6a7 18bb b7b1 d7bc
00000240: 7fac f53c 687e a2bd f677 3f3d 529c db3c
00000250: cab9 5abc d41b 24bd 9938 7c3b a7ee 7abd
00000260: 51df ddbb 2145 acbc 1e3c 953d 8934 473d
00000270: cb58 2ebd ef25 aabc 3c2e d7bc 7168 853d
00000280: dd5a 9f3c d7b2 553d 2942 493c cd70 48bb
00000290: b466 f9bc 4ae5 913d ff27 9bba e17e 203d
000002a0: ab2e 983d 2511 00bc 31e7 a2bc db3e c63c
000002b0: 1abb c53d 3c9f ab3d 4fd1 4a3d 1f72 3cbd
000002c0: a151 163c e928 75bd be21 fe3c 4f69 443c
000002d0: 31fb b3bc a95d bfbd 995c 8fbd 7d2f 44bc
000002e0: 7497 b53b c9b3 a53d 7df5 f63c bf32 72bd
000002f0: 632a ae3c db4b 02bb 7b64 703c 82c1 9b3d
00000300: 2437 76bd 036b af3d 7f7a 0abd 7eb2 213d
00000310: 436c 953d 2ef4 bc3d 6f46 b03c 9f0e 70bc
00000320: 31b7 b4bc 0343 173d 35e6 c23c 06cf 953c
00000330: 797b 10bd 9cfc e5bc 4a7e 193d 89bb 9e3d
00000340: f07f 88bd 99c5 a1bc 3f56 b43d 9c88 69bd
00000350: 1eca 2bbd b971 60bd a153 c9bb 63d4 37bc
00000360: 1f9a eebb de11 e3bc 8bd4 e03c 8cf2 073c
00000370: 35c9 08bd 1f57 02bd 6e6c 9c3d d574 3fbd
00000380: 8189 1b3d acf8 733d 384f 6b3d dad6 233d
00000390: ee16 1ebd d8df ffbc 3df9 e23c bc06 9c3d
000003a0: 05be b33d 8ab4 123d dde9 a03d 093c efbc
000003b0: 2abd 193b 72b0 1f3d dd9b a13d 4cc6 893d
000003c0: 2b45 303d 45f9 263d 35d5 dbbc 581f 33bc
000003d0: 2550 5ebb 7e47 85bd 295e 8cbd fa0b 033d
000003e0: aa35 7d3d 67a8 f63c e278 9dbd db50 ddba
000003f0: 02b8 0c3d c186 213d d145 c5bb 2c17 b93d
0.0034800493 -0.077617414 0.046938922 0.0060350923 -0.09586716 0.04493553 0.009367771 0.0046124747
-0.034643322 0.0302136 0.05224645 -0.042489253 0.09514066 -0.02506499 0.07250077 0.002006447
0.07525411 -0.012710895 0.092183255 0.05014484 0.081690595 0.024776472 -0.038323235 0.0016085459
0.011464328 -0.046752453 -0.009763476 -0.03554209 -0.08477329 0.03607721 -0.05650041 0.08580325
-0.040539037 0.002456608 0.04083453 -0.06398738 0.042328797 -0.016270082 0.07273953 -0.06277806
-0.0032860017 -0.087746166 -0.03609164 -0.006926107 0.078707345 0.02838255 0.053925004 -0.037602715
-0.036107235 -0.08934832 -0.0031797555 0.029852556 -0.023324877 -0.039931618 0.00028310588 -0.08678268
-0.08165058 -0.08339892 -0.040684335 0.085018955 -0.004544524 0.0072961277 -0.001967769 -0.024623489
-0.039773494 0.012562677 0.09603407 0.037816253 -0.074564554 -0.03538166 0.019094802 -0.0032289384
0.070269346 -0.06394761 -0.04042182 0.061984535 -0.04927021 0.034239173 -0.055451956 0.04927712
-0.005068625 -0.007850045 0.010681074 -0.07462267 -0.038581 0.011958385 -0.03256241 -0.023509478
0.05019749 -0.07841664 0.06406523 0.08092988 -0.07212113 -0.038391832 0.0032562134 -0.0072793574
-0.073214754 0.023948252 0.0052845636 0.021789614 -0.073446766 -0.03557648 -0.042952128 -0.014932989
0.022427969 0.034735132 -0.02043447 0.040635835 -0.046750575 -0.0813347 0.060894527 -0.047218077
-0.09043702 -0.071905605 0.06782449 0.072323084 0.03993809 0.029382361 0.08951406 -0.050993353
-0.076015756 0.06837345 -0.04133752 -0.04063267 -0.024627434 -0.01277651 -0.04581232 0.05785176
0.028875448 0.09104256 -0.059662845 -0.011622533 0.043002572 -0.010677747 -0.056251757 0.010295554
0.09286959 0.008149809 -0.08557443 -0.043879796 -0.024602063 0.028861983 -0.0023293323 -0.026329858
0.02998948 -0.07934266 0.046745263 0.026807938 -0.01334996 -0.0400656 0.0038485883 -0.061262753
-0.006771006 -0.021029057 0.07286857 0.048634086 -0.04256515 -0.020770041 -0.026267163 0.06514061
0.019452507 0.052172508 0.01228384 -0.0030584813 -0.03044448 0.071238115 -0.0011837481 0.0391835
0.07430776 -0.007816588 -0.019885631 0.024199894 0.096548274 0.08379981 0.04951602 -0.04600727
0.009174735 -0.059853468 0.031021949 0.011987998 -0.021970363 -0.09344036 -0.070000835 -0.011974213
0.0055417363 0.08090932 0.030146355 -0.059130426 0.021260446 -0.001988164 0.014672394 0.07605268
-0.06011118 0.08565333 -0.033808228 0.039476864 0.0729604 0.09226261 0.02151796 -0.014651923
-0.022060009 0.03692914 0.023791412 0.018287193 -0.035274003 -0.028074555 0.037473954 0.07750613
-0.06665027 -0.019747542 0.08805513 -0.057015046 -0.0419408 -0.054795954 -0.0061440025 -0.0112200705
-0.0072815563 -0.02771848 0.027445098 0.008297574 -0.03339501 -0.031821366 0.07637869 -0.04674228
0.03797293 0.059563324 0.057448596 0.03999982 -0.038596086 -0.031234667 0.027706737 0.07618472
0.08776478 0.035816707 0.07857106 -0.029203432 0.0023458698 0.03898663 0.07891057 0.06727275
0.043034714 0.040765066 -0.026835063 -0.010932766 -0.0033922282 -0.06507777 -0.06853897 0.031993844
0.061818756 0.030109597 -0.07689072 -0.0016885059 0.03435517 0.039435152 -0.0060202857 0.09037623

layers.0.W_p_prime.weight f4 [128, 128]
00000000: 94ab eb3b bd1e fb3b a4a7 16bd b51d 06bc
00000010: fbc3 a13c d576 813b 40a5 a93d 53e7 52bd
00000020: 0ea2 9a3d c265 943b 6ed5 7abd d067 323d
00000030: 1a3d 87bd 69a5 083d e238 86bd ac56 973d
00000040: ffae 12bc 5b5e 833d 6842 383d 4400 24bd
00000050: 7e95 293d 39ad 18bd 634f 1b3d b1b2 ebbb
00000060: b970 283d 102a 95bd 7437 203d 9a99 243c
00000070: 85f6 00bd 6f07 053d 0964 04bd a141 a9bd
00000080: 52e0 91bd f8f6 85bd 05b2 88bd 7041 a9bd
00000090: 9cb7 a9bd 5387 653d b09d f33c 8420 debb
000000a0: cbb3 9abb 552e 683d 1835 48bd 437f 893d
000000b0: eda0 893d 7be5 e03c 617a 0d3d 763c c03c
000000c0: d306 0f3d 4548 ea3c 8333 273d 3d9f 22bd
000000d0: a795 b33d 8143 83bd 68e1 553d 7d92 913d
000000e0: d62e b4ba 57f3 c7bb a420 613d 0ab1 643d
000000f0: c181 74bd 30e0 ba3b c823 b43c 4e0f 7bbd
00000100: 18da debc 6b77 8d3d f628 06bd 2a1f 82bd
00000110: ddf5 44bd f9fd 253d 0295 e9bc 3ab8 62bd
00000120: fe6a c23d 3096 67bd 1577 6bbd fb33 d23c
00000130: 0d5b 463d b15c 7abd cef5 5dbd f2d3 9ebc
00000140: 5898 c23d 6fd1 ccbc 5b8a 23bd 6a30 bbbd
00000150: 0765 76bd 09a5 263c 8735 8bbc 802e 8fbd
00000160: 1ac8 d73c 6bff 803d fde3 a03d 80ba 443d
00000170: 058f 2c3c 7ae0 9cbd 90ba b83c ccce 703d
00000180: 9f34 04bd 10ae 533d f27e 72bb 92d3 29bd
00000190: 0210 8fbd 847b 903d 7b84 9abc 68a0 8f3d
000001a0: 6a20 b13d 649f 88bd 162d aabd 2438 82bb
000001b0: e1f1 413d 84ee 9c3d 3411 17ba 38ba 613d
000001c0: 76fb 4dbd 7248 b2bc ce90 2e3d bdec a8bd
000001d0: 2131 bc3b 4aa4 44bd fa5d 3f3c ed14 783c
000001e0: 2295 5b3d d9db b5bd bf2f 023d 22e7 81bd
000001f0: a9ff 2f3c 10a3 9a3d 9e43 a33a ef69 d6bc
00000200: 13c8 cc3d 4622 91ba 604e 673d 0aa7 83bd
00000210: ed73 8b3d 3bee 043d fff0 f9bc 9b20 173d
00000220: 8833 b0bd 9650 2ebc 5e1b d83c 33a3 abbd
00000230: 5041 4d3d 1051 18bd e3e5 9cbd 3693 0ebd
00000240: d831 6238 57d8 69bd 05e7 6dbd c2a6 173d
00000250: 3081 ba3d cab4 80bd 156d 1abd d28d 803d
00000260: ee6b 013c 93c6 9dbd 626e fc3c 6ad6 f63c
00000270: b7f9 96bd 807f 27bd 176d 92bd b5e1 7cbd
00000280: bdbf 893c aa63 42bd f8c3 ad3d dc15 7d3a
00000290: 7bc2 17bd 184f 9cbd 6309 6e3c d812 9bbd
000002a0: 30ea 80bc 49c3 923a a074 37bd 33ea 2bbd
000002b0: 3bff 603d cb8b 873d 99a0 f4bc 3c29 97bb
000002c0: d8f0 8a3d 8f82 503d 88fb f23b 848b e6bb
000002d0: 4648 263d 72a9 9d3d 09bc 713d a98f 473d
000002e0: e848 7fbd 3e85 fabc e062 243c 5939 813b
000002f0: 4c3c c13d cceb a2bc 8239 9bbd 7578 7b3c
00000300: 9c13 88bc eee5 693c b2e9 f13c 34a0 28bd
00000310: 419a ad3c c4dd b03b d054 8c3d 2b62 21bc
00000320: 0af4 d13c d8bb 973d 602b 6d3d e933 ecbc
00000330: c772 b93d 5f42 96bd 6da5 2bbc 07dc a13d
00000340: a27f 84bc 25ad adbb 1310 883b 9395 383d
00000350: ebcb 243d 1410 9a3d 2901 953d 80d1 87bd
00000360: 5957 acbd dcaa 1c3d 6167 b2bd 6cf8 743c
00000370: 2e19 853b ff85 373d b20a ebbc 3c15 8abd
00000380: e8d4 163d a2e6 4a3d c0ef 223c 271f 1c3d
00000390: db09 b0bc 374c 68bc 5603 09bd 76aa 5dbc
000003a0: e417 9dbd 5f5c 6cbd 089c 023d cabd f7b9
000003b0: fe9e d0bc 17fe 183d 6219 86bd 3abd be3a
000003c0: 9932 38bd d585 a0bd 7d3b 24bd 9965 9a3c
000003d0: e0fa 3bbd 8b8b 8fbd 765c 77bd 1465 c1bc
000003e0: 31f3 1e3d 54e9 91bd 901a 823b bb0b 23bc
000003f0: 255f c7ba 7d6f f43b 5949 f93c 7ada 2f3d
0.0071920846 0.0076635764 -0.03678097 -0.008185794 0.019746771 0.0039509335 0.08283472 -0.05149014
0.07550441 0.004528732 -0.0612387 0.043556035 -0.06603451 0.033360872 -0.06553818 0.07389578
-0.008952855 0.06414481 0.044985205 -0.040039316 0.041402332 -0.037274573 0.037917506 -0.0071929325
0.041123126 -0.072834134 0.039115384 0.010046387 -0.0314851 0.032477792 -0.032321963 -0.08264471
-0.07122864 -0.06541246 -0.066745795 -0.08264434 -0.08286974 0.05603726 0.029738277 -0.0067787785
-0.00472114 0.05668481 -0.04887876 0.06713726 0.06720147 0.027453175 0.034540538 0.02346633
0.034918617 0.028598914 0.04082061 -0.039702643 0.08768778 -0.0640936 0.052216917 0.071080185
-0.0013746868 -0.0061020064 0.05496277 0.0558329 -0.059694055 0.0057029948 0.021989718 -0.061293893
-0.027203605 0.06907543 -0.032753907 -0.063536 -0.048086036 0.04052541 -0.028513435 -0.055351473
0.094930634 -0.056539714 -0.057486612 0.025659552 0.048426677 -0.061123554 -0.054189496 -0.019388173
0.095017135 -0.02500221 -0.039926868 -0.091400936 -0.06015494 0.010171183 -0.016993297 -0.06991291
0.026340533 0.06298717 0.07855985 0.048029423 0.010532145 -0.07660003 0.022549897 0.058790967
-0.032276746 0.05167967 -0.0037001935 -0.041461535 -0.06985475 0.07054809 -0.018862 0.07013017
0.086487606 -0.06671026 -0.08309381 -0.0039739776 0.047349814 0.07662681 -0.00057627563 0.055109233
-0.05028864 -0.02176306 0.042618565 -0.08248279 0.0057431613 -0.04800824 0.011680121 0.015141708
0.05360902 -0.08879823 0.031783815 -0.06342913 0.0107421065 0.07550633 0.0012456065 -0.02617356
0.09999099 -0.0011072836 0.05647123 -0.064283445 0.068092205 0.032453757 -0.030510424 0.03689633
-0.08603579 -0.01063933 0.026380237 -0.08380737 0.050111115 -0.037186682 -0.07661035 -0.03480836
5.392902e-05 -0.057091083 -0.058081646 0.037024267 0.09106672 -0.06284483 -0.037701685 0.0627705
0.007899268 -0.07703891 0.030814353 0.030131537 -0.07371848 -0.040893078 -0.071497135 -0.06173869
0.01681506 -0.04745833 0.08484644 0.00096544414 -0.037050705 -0.076322734 0.014528605 -0.075719535
-0.01573667 0.0011197116 -0.044788957 -0.041971397 0.054930907 0.0661846 -0.029861735 -0.00461307
0.067842185 0.05090576 0.007415239 -0.0070356745 0.04059627 0.07698335 0.059017215 0.04872099
-0.06232539 -0.030581113 0.010033339 0.003943604 0.09435329 -0.019887827 -0.07579328 0.015348543
-0.016610913 0.014276011 0.02953038 -0.041168407 0.021191718 0.0053975303 0.06852114 -0.009850065
0.025629062 0.07408875 0.057902694 -0.028833346 0.09055095 -0.07336878 -0.010476452 0.07903295
-0.016174141 -0.0053001815 0.004152307 0.04506452 0.040233534 0.07522598 0.07275612 -0.06631756
-0.08415098 0.03824888 -0.08711124 0.0149518065 0.0040618395 0.044805523 -0.028691623 -0.067423314
0.036824137 0.049536355 0.009944856 0.038115647 -0.021489074 -0.014178327 -0.033450447 -0.013529411
-0.076705724 -0.05770528 0.031887084 -0.00047252915 -0.025466438 0.037351694 -0.0654781 0.0014552244
-0.04497013 -0.078380264 -0.040095795 0.018847274 -0.04589355 -0.070090376 -0.060390912 -0.023607768
0.038806144 -0.07124582 0.0039704517 -0.009951527 -0.001521085 0.0074595795 0.030430483 0.042932965

layers.0.f_def.weight f4 [1, 128]
00000000: a0b4 043b 2bb4 813d d8de 5a3d 93e2 35bb
00000010: b875 593d 719c d63c f717 5cbd 4933 153d
00000020: 285b f03c 37b9 adbd fb89 72bd 115e d03d
00000030: a6e3 a03d 0a77 d83d 23ef d33c cbec df3d
00000040: 0e54 bf3c f8d6 e33c 7a60 9abd a4bc acbd
00000050: e533 0d38 5698 07bc d729 2fbd 4080 03bd
00000060: bcdf afbd d9d4 753d accd 9e3d 3906 723d
00000070: 25d6 e0bd 804a 2abd 430f 3dbd 8f4a 3ebd
00000080: efbf 30bd 4526 8ebd 2862 aebd 98c4 813c
00000090: 59c7 52bd ec52 b2bd 1adf 413d 5866 51bd
000000a0: f783 833c ad26 873d e39a 8cbc 390c ffba
000000b0: 8b4e 483d 5e11 8b3d c1d5 ef3c 2f28 e6bb
000000c0: 5120 0fbd ae51 973c 677f 3d3d 804b 3d3c
000000d0: e658 9dbc be51 89bd 56fe 1dba 8682 083c
000000e0: cb7e cd3c 655c c0bd 409a da3b 2cbe bebc
000000f0: e14c 103d a683 9dbd db30 8f3d 891c 06bd
00000100: 32f7 a73d c0a4 c2bc 799f 25bd 3f92 643d
00000110: 84c0 2fbd 79ba 543d 5e3a cbbc 84b4 ec3c
00000120: 19d9 a93d d6f1 99bd d26e c1ba d83a bcbc
00000130: 5e24 24bd 041f 41bd edfa ab3d dc25 853d
00000140: 54eb 8dbd 39ff 6ebd 06e7 2ebd b6af 553d
00000150: 23c8 69bc c8bd f73c f0cc a63d 42f6 61bd
00000160: 8565 253d e6c0 1e3d aaf7 31bd 6362 153d
00000170: a078 8bbd 5151 04bd e5b7 1a3c 34ae 0cbd
00000180: 9b7a afbd fed6 243d 6e41 3cbb 608c 2bbd
00000190: 3499 af3d d797 2b3d 20bf 5cbd b1d7 9a3d
000001a0: d588 4b3d 9880 873c 20b8 8f3d 15ee a53d
000001b0: bd2a 263d 8ebc 02bd c705 023d 8e2c 3ebd
000001c0: a796 dbbc 9667 793d 4aaa c0bb fdb6 ad3d
000001d0: 6c66 af3d d678 153d 0052 beba 38df 02bd
000001e0: bca1 d53c 4b51 423c 00f0 863d 42bf 223d
000001f0: cde1 c73d 70ce ddbc 03bb 1abb 2f4b 46bd
0.0020249262 0.063331924 0.053435177 -0.0027753457 0.05309078 0.026197644 -0.053733792 0.036425862
0.029340342 -0.084825926 -0.05921362 0.10174192 0.078559205 0.1056958 0.025870865 0.109338365
0.02335551 0.027812466 -0.07537933 -0.08434418 3.366535e-05 -0.008276066 -0.04276451 -0.03210473
-0.08587596 0.06001744 0.077540725 0.059087966 -0.10978345 -0.041574955 -0.046157133 -0.046457823
-0.043151792 -0.06940893 -0.085148156 0.015840814 -0.051459644 -0.08707222 0.047331907 -0.051122993
0.016054137 0.06599174 -0.0171637 -0.0019458599 0.04890303 0.06790422 0.02927673 -0.007023833
-0.03494293 0.018471565 0.04626408 0.011553645 -0.01920743 -0.06705044 -0.0006026974 0.0083319
0.025084874 -0.09392623 0.00667122 -0.02328404 0.035229567 -0.076911256 0.0699174 -0.032742057
0.08201446 -0.0237602 -0.040435288 0.055803534 -0.042908207 0.051935647 -0.024808105 0.02889467
0.08293361 -0.0751683 -0.0014757758 -0.022977278 -0.040073745 -0.04714872 0.0839747 0.06501362
-0.06929651 -0.058348868 -0.04270079 0.052169524 -0.014268908 0.030241862 0.081445575 -0.05516649
0.04038002 0.03875818 -0.04344908 0.036470782 -0.06810117 -0.032304112 0.009443258 -0.03434582
-0.08568307 0.040244095 -0.0028725523 -0.04188192 0.08574143 0.041892853 -0.05389321 0.07560671
0.04969104 0.01654081 0.07017541 0.08102051 0.040568102 -0.0319181 0.03174379 -0.04642921
-0.026805235 0.060889803 -0.005879675 0.08482168 0.08564457 0.03649219 -0.0014520288 -0.03195116
0.026078098 0.011860202 0.06588745 0.03973318 0.09759865 -0.027075976 -0.0023610003 -0.048411544

layers.0.W_self.weight f4 [128, 128]
00000000: 608f 813d 104e 53bd 0ea3 86b9 7852 82bd
00000010: 1345 ad3c 7817 07bc 63dc 37bd 96c6 6c3c
00000020: 19c4 10bd 2752 48bc a507 393d dd4e 56bd
00000030: 8d13 8bbd c184 a83d a9eb b1bd 386f d23c
00000040: c312 583d e9e5 9bbd d213 6ebd 4390 8b3d
00000050: a468 5b3d c788 babc 4868 9a3d d23f 833d
00000060: 396d 9a3a 58b4 d43c 0d36 27bd 471d 42bd
00000070: 73ca 0fbd 36a3 c3bd ff81 b43d bcb0 b33c
00000080: b744 17bd 82b7 94bd 523c ee3c b78b 6a3d
00000090: 7218 be3c 7c1b aa3d 4764 ab3b 2c3d c83d
000000a0: a781 2e3c fe32 2aba a584 c23d 8788 aabd
000000b0: 6220 6abc c3e7 df3c 633e 51bd 77e6 aebc
000000c0: 2308 85bd 02f3 833b bb4a bf3c e0ab f43c
000000d0: f2ef b33c f2ab 583d 1c94 6ebc 3fb1 8d3d
000000e0: a591 183d ac69 2bbd d425 47bd 95d5 353d
000000f0: 9e22 283d 8584 e7bb 234d df3c 791f 89bd
00000100: 788b 45bd 17bd 9cba 4b9a d7bc 9bfe d0bb
00000110: b52a 14bd f4d8 283a 7a02 943d 0e18 9b3d
00000120: ec0c cabc f9db 8cbc fc07 133c 7d32 b9bd
00000130: bd97 9d3c 7c82 9b3d ea2d 08bd 46c0 4b3c
00000140: 8133 40bd 2ae7 a5bc 8604 49bc d0b6 8cbd
00000150: 8116 9e3c bf3c ca3c fa2a 8abd c53a 32bc
00000160: 9780 6b3d 84c3 a3bd 05ba db3c 052c 413d
00000170: 4604 6a3d 04ec b33b fe2e 1e3c cbbd 9dbd
00000180: 1f52 a3bc 69a3 e2bc 20ee f13c 01d7 5e3c
00000190: cf65 693d 81a7 e1bc be1c 4bbb 2749 6bbd
000001a0: 9757 e33c 2753 8b3d 3ed2 bb3d 3e11 87bc
000001b0: c0ab 923d 0342 8f3d de29 88bd f196 d93c
000001c0: cdb0 96bd 057f 3abd f045 fabc 2091 7b3d
000001d0: ae94 543d f3f9 55bd 774f 8cbd 2448 aa3d
000001e0: 5c07 b73c c2c1 ebbd 0d71 8bbd a13a 6d3d
000001f0: 6afb c7bd 9add b0bc 2930 b0bd 2668 96bd
00000200: c634 4cbd a987 ad3d f2f4 e6bc 3c93 16bd
00000210: e4ed 94bd 7e6b 983d 9645 bfbd c39c 43bd
00000220: b0d2 c8bc 688f 2c3d 9be5 4b3d 2a9b 31bd
00000230: 7556 c93c ccc5 683d 5087 68bd 87be 9a3d
00000240: 05bd 253c 2094 c7bd 0fd4 14bc 45c5 53bd
00000250: b821 913c c5dd 953c 830e 96bb 30ae b03d
00000260: d211 523d c311 b8bd a702 c93b c13c 27bd
00000270: 911b 71bd 43e8 5c3d f370 763d b16b 563c
00000280: 55ba 90bd c78a 2b3c 20f9 8c3d 7e58 d63d
00000290: 4173 cfbc 5d43 c3bd d8f2 983d 94c2 f83c
000002a0: c092 19bb b1d7 4fbd edcf 3d3d ffae 8f3c
000002b0: 93e7 95bd ab64 a2bc 14db fbbc f0f7 be3c
000002c0: 3243 adbd 427c c4bd f29f acbb 8d8a 0fbd
000002d0: c8fc 193d 6785 a53d 2e61 543b 6f3c 883d
000002e0: 1cb1 afbd 15d9 6d3d d345 36bd fc23 3bbd
000002f0: c94d 633c de00 d63c f550 9e3d 7af0 153d
00000300: c8d1 863d 42b9 8cbc 8986 9dbb 6703 65bd
00000310: bbd5 d9bc 8845 99bd fb83 5abd 35e7 823d
00000320: 7a27 e0bb db6b a8bb c905 b53d e1a0 943d
00000330: 0b9c 60bc a175 a73c 7918 053d 5b57 783d
00000340: 6685 ff3c c0e8 553d 84da 4abd d7bc 3fbd
00000350: 07f3 143d 6617 82bd 0c93 f8bc 4d22 5a3d
00000360: f60f 06bd 8017 083c 0af3 293c 1bb9 023d
00000370: b510 08bd 99e6 b13d c7dd 0c3d 821b 32bd
00000380: dbd0 d13c b016 2d3d 5097 5d3d 90a8 c6bc
00000390: 4a59 bf3c ee0f 3abd 6039 9c3d 5bd8 20bd
000003a0: f488 5cba da74 8ebc d808 50bc 347a 093d
000003b0: 8bc8 a5bd 7d36 85bd befc 2fbd d2e1 903d
000003c0: cad0 63bd 5645 ed3c 727d 88bd 8e03 083c
000003d0: 9c13 a43c a6c9 9a3d 9665 1d3d b65b a03b
000003e0: fb70 3f3b 50e5 163d 1907 e93b 22d8 943b
000003f0: 4c10 933d 5f0b af3d 3ec7 0d3d de13 0dbd
0.06326175 -0.051588118 -0.00025679957 -0.06363386 0.021151101 -0.0082453415 -0.04488791 0.014451643
-0.035343263 -0.012226618 0.045173306 -0.052321304 -0.067908384 0.08228446 -0.08687527 0.025687799
0.052752268 -0.07612211 -0.05812437 0.06814625 0.05356659 -0.022770299 0.07539421 0.06408657
0.0011781818 0.0259649 -0.04082303 -0.047391202 -0.03510518 -0.095526144 0.08813857 0.02193486
-0.036930766 -0.07261564 0.029081497 0.05726215 0.023205016 0.083060235 0.00523046 0.097772926
0.010651029 -0.0006492584 0.09497956 -0.08326822 -0.014289947 0.027332192 -0.051084887 -0.021350129
-0.064956926 0.0040267715 0.023351064 0.029867113 0.021965 0.052898355 -0.014561679 0.06918573
0.037248272 -0.041848823 -0.04862006 0.04439314 0.04104864 -0.007065358 0.027258461 -0.06695456
-0.04822871 -0.0011958209 -0.02631869 -0.0063780076 -0.03617354 0.000644102 0.07227035 0.075729474
-0.024664365 -0.017194735 0.008974072 -0.09042833 0.019237394 0.07593247 -0.033246912 0.012435978
-0.046924118 -0.02025183 -0.012269145 -0.06870806 0.01929784 0.02468717 -0.067464784 -0.01087827
0.05749568 -0.07996276 0.0268221 0.04716112 0.05713298 0.0054907817 0.0096547585 -0.07702216
-0.01993662 -0.02766581 0.029532492 0.013601066 0.056981858 -0.027545692 -0.0030992473 -0.05744281
0.027751727 0.068029694 0.0917096 -0.016487714 0.07161665 0.069950126 -0.066486105 0.026561232
-0.07357941 -0.04553129 -0.030550927 0.0614177 0.051899604 -0.052240323 -0.06851094 0.08314541
0.022342376 -0.11511566 -0.06808672 0.05791724 -0.0976475 -0.021590043 -0.08602936 -0.073440835
-0.049855016 0.08473141 -0.02819297 -0.036761507 -0.072719365 0.074423775 -0.09339444 -0.04775692
-0.024514526 0.04212895 0.049779516 -0.043360867 0.024577359 0.05682926 -0.05676967 0.075558715
0.010115867 -0.097450495 -0.009083762 -0.051701803 0.017716274 0.018294225 -0.0045793667 0.08626974
0.051286526 -0.08987763 0.0061343494 -0.040829424 -0.05886418 0.05393244 0.06016631 0.013087199
-0.0706679 0.010470099 0.06883454 0.10466097 -0.025323512 -0.09534333 0.07468194 0.03036622
-0.0023433417 -0.05074281 0.04634087 0.0175395 -0.0731956 -0.019823393 -0.030744113 0.023311585
-0.08460082 -0.09594013 -0.0052680904 -0.03504424 0.037594587 0.08082085 0.0032406556 0.06652152
-0.08578703 0.058068354 -0.044500183 -0.045688614 0.013873526 0.02612346 0.07730285 0.03660629
0.06582981 -0.017178182 -0.0048072976 -0.055911448 -0.026591172 -0.07483965 -0.053348523 0.063917555
-0.0068406435 -0.0051398105 0.08838994 0.07257248 -0.013709079 0.020441832 0.032494042 0.060630184
0.031191539 0.05222392 -0.0495248 -0.04681095 0.03636458 -0.06352119 -0.030343555 0.053255368
-0.032730065 0.008306384 0.010372886 0.03191481 -0.033219058 0.08686561 0.03439119 -0.043483265
0.025612285 0.042257965 0.05409938 -0.024250299 0.023358006 -0.045425348 0.07628131 -0.039268833
-0.00084127416 -0.017389704 -0.012697421 0.033563808 -0.08094891 -0.065045334 -0.042965643 0.07074322
-0.05561904 0.028963726 -0.06664552 0.008301629 0.020028882 0.07557993 0.038426958 0.0048937453
0.0029211629 0.036839783 0.007111442 0.0045423666 0.07180843 0.08547091 0.03461384 -0.034442775
