checkpoints/rank_sweep/refined_lambda_10.pth (torch, 888951 bytes, 36 tensors)

input_norm.weight f4 [7]
0.9765881 0.8991304 0.9405379 1.0137527 0.97049946 1.0331758 1.030537
00000000: ad01 7a3f 692d 663f 18c7 703f a6c2 813f
00000010: a772 783f 1b3f 843f a3e8 833f

input_norm.bias f4 [7]
0.028080367 -0.0672833 0.010371341 0.038040183 -0.009238647 -0.0066900416 -0.0004003205
00000000: cc08 e63c d4cb 89bd 8fec 293c 06d0 1b3d
00000010: b25d 17bc 2338 dbbb 1ce2 d1b9

layers.0.embed.weight f4 [128, 7]
-0.09674259 -0.14640887 -0.16685173 -0.01911531 0.28345 -0.12553078 0.17045692 -0.33996043
-0.2524739 0.18029238 0.058313675 0.28563827 0.03714594 0.1966598 0.31616622 -0.13956271
-0.110299945 0.28363496 0.03844268 -0.08555902 -0.3331193 -0.07497913 -0.15940166 -0.15010592
-0.36718094 -0.23298974 0.02524722 0.078149386 -0.3239617 0.119002074 -0.12638387 0.09710536
0.18163298 -0.40202677 0.11006475 0.18837732 0.06517669 -0.015615943 -0.30291235 -0.21931753
-0.12972271 -0.34375608 -0.002060497 0.12356376 0.36374336 -0.20313 0.26876283 -0.2859019
0.15939957 -0.07355942 0.1406645 -0.2701975 0.34026477 0.33912134 0.071354195 0.23403578
-0.30999938 -0.14520451 -0.21048868 -0.04764521 0.32390833 -0.09972644 0.24687304 -0.35165825
-0.33163506 0.16518958 -0.29718897 0.2640468 0.040000018 -0.10612212 0.20849042 -0.34635416
0.16951023 0.14296323 0.31040907 -0.28276262 0.16251831 -0.24652807 -0.109975435 0.30158404
-0.28150487 0.23101245 -0.0985561 -0.06338581 -0.1856265 0.1272853 -0.36980075 -0.30540168
0.12965801 -0.34801546 0.1947093 -0.263664 0.089286 0.23805167 -0.11320108 0.30071387
-0.18629329 0.31921527 -0.23420057 -0.30800614 -0.21479772 0.13498597 -0.22306792 -0.34919778
0.26667175 -0.22670926 0.18661448 -0.19795884 0.05628815 -0.25267223 0.23300545 0.03630586
0.3093049 0.0595342 -0.31195742 -0.024195319 -0.00081180234 -0.29467684 0.07567407 -0.2114501
-0.34155044 -0.24622434 -0.18243761 0.30914715 0.1451142 -0.2680889 -0.23003265 -0.19804935
0.35879344 0.25131914 0.15129831 0.12441435 -0.19307894 -0.35950893 -0.27173546 -0.1197986
-0.11670195 -0.022180893 -0.3492415 0.009727135 0.07091206 0.11589802 0.15445098 0.3085288
0.21650389 -0.18372607 -0.2858935 -0.35872555 -0.028689094 -0.05948234 0.37580863 -0.24518213
-0.17919469 0.22590922 0.17113046 0.07935544 0.2002083 -0.2747627 0.28951952 0.40302268
0.112417586 -0.19155064 -0.31864575 -0.29473516 -0.04998969 0.009013002 -0.008239954 -0.035533585
0.15828195 -0.096284166 -0.07845656 -0.21451777 0.035759814 -0.30322507 -0.28766653 0.08399459
-0.10519331 -0.1288818 -0.16808979 -0.34453398 0.11484445 -0.37752187 -0.38606647 -0.13643418
0.0127777895 0.039174527 0.07786704 0.025353195 -0.064311914 -0.020717774 0.06569392 0.05204796
-0.28003556 0.05284606 0.33326912 0.1850192 0.09177603 0.19873719 0.097708285 -0.23640873
0.011012759 0.13054453 -0.09862779 0.12759677 0.035776302 -0.3362553 -0.23189336 -0.06806099
-0.32919535 -0.11859975 -0.1625518 0.12645403 -0.08585086 -0.2224841 -0.35094473 -0.043405302
0.35910058 0.27341405 0.10223258 -0.078702 0.277617 -0.2567467 -0.25070623 0.39164022
-0.089045785 -0.24379806 -0.276949 -0.29796985 -0.20210285 0.18458027 0.034821603 -0.09945668
0.094720274 -0.26288375 0.28579968 -0.0026505017 0.013098871 -0.25031415 -0.08337127 -0.104484126
-0.36260128 -0.3503815 0.15618981 0.3145137 0.2854107 0.09239182 0.08565871 0.13279063
0.022196447 -0.36202 -0.30053762 0.34875783 -0.25672606 0.15750517 -0.34940395 0.061493833
00000000: fb20 c6bd 35ec 15be 2edb 2abe b697 9cbc
00000010: 5c20 913e 248b 00be 428c 2e3e 4b0f aebe
00000020: 4244 81be 919e 383e 52da 6e3d 2e3f 923e
00000030: 5726 183d 3061 493e 8ae0 a13e 87e9 0ebe
00000040: f0e4 e1bd 9a38 913e 1276 1d3d 9139 afbd
00000050: 9d8e aabe a88e 99bd 303a 23be 5eb5 19be
00000060: 24ff bbbe dd94 6ebe 42d3 ce3c c90c a03d
00000070: 4fde a5be 5cb7 f33d c66a 01be 2ddf c63d
00000080: fffd 393e 74d6 cdbe a169 e13d fce5 403e
00000090: 5b7b 853d 03da 7fbc 5417 9bbe c694 60be
000000a0: 08d6 04be cc00 b0be 6709 07bb ff0e fd3d
000000b0: 923c ba3e 5001 50be 489b 893e bc61 92be
000000c0: a439 233e 52a6 96bd 5b0a 103e 5457 8abe
000000d0: 2f37 ae3e 50a1 ad3e 2622 923d 13a7 6f3e
000000e0: 3db8 9ebe 7eb0 14be 588a 57be a027 43bd
000000f0: 50d7 a53e 603d ccbd 49cc 7c3e 8d0c b4be
00000100: 12cc a9be 7527 293e 2729 98be 2431 873e
00000110: 0fd7 233d 8e56 d9bd 837e 553e 5555 b1be
00000120: 1794 2d3e f464 123e f0ed 9e3e 43c6 90be
00000130: 336b 263e db71 7cbe cd3a e1bd 3969 9a3e
00000140: 6821 90be 878e 6c3e c8d7 c9bd 6bd0 81bd
00000150: e014 3ebe 1457 023e 8656 bdbe 9c5d 9cbe
00000160: 12c5 043e 152f b2be e061 473e f8fe 86be
00000170: 94db b63d d1c3 733e f8d5 e7bd 2bf7 993e
00000180: abc3 3ebe 2f70 a33e 46d2 6fbe fbb2 9dbe
00000190: eff3 5bbe c339 0a3e eb6b 64be 0dca b2be
000001a0: 3389 883e 7926 68be de17 3f3e b9b5 4abe
000001b0: 678e 663d 415e 81be fb98 6e3e 74b5 143d
000001c0: 365d 9e3e 22da 733d e2b8 9fbe 4335 c6bc
000001d0: 22cf 54ba e2df 96be 02fb 9a3d 6086 58be
000001e0: b3df aebe 3c22 7cbe edd0 3abe 8948 9e3e
000001f0: d198 143e f342 89be ae8d 6bbe 73cd 4abe
00000200: c6b3 b73e e7ac 803e f2ed 1a3e f3cc fe3d
00000210: 7cb6 45be 8e11 b8be e920 8bbe f858 f5bd
00000220: 6f01 efbd b4b4 b5bc c8cf b2be 905e 1f3c
00000230: 583a 913d f15b ed3d 6628 1e3e 7df7 9d3e
00000240: 32b3 5d3e b022 3cbe a260 92be e0aa b7be
00000250: 6405 ebbc c1a3 73bd fd69 c03e 0611 7bbe
00000260: d07e 37be bf54 673e d33c 2f3e 1b85 a23d
00000270: 6803 4d3e b2ad 8cbe e73b 943e fd58 ce3e
00000280: 313b e63d da25 44be 8925 a3be 87e7 96be
00000290: fdc1 4cbd 45ab 133c df00 07bc aa8b 11bd
000002a0: aa14 223e a230 c5bd d5ad a0bd 8caa 5bbe
000002b0: e278 123d 5140 9bbe 0749 93be 5b05 ac3d
000002c0: 976f d7bd 97f9 03be bb1f 2cbe c266 b0be
000002d0: 9133 eb3d 8c4a c1be 81aa c5be 67b5 0bbe
000002e0: ef59 513c 7875 203d c178 9f3d 81b1 cf3c
000002f0: f7b5 83bd 52b8 a9bc 898a 863d 3e30 553d
00000300: d260 8fbe 1c75 583d 40a2 aa3e ac75 3d3e
00000310: 12f5 bb3d c381 4b3e 481b c83d 2115 72be
00000320: dc6e 343c 77ad 053e 5efd c9bd baa8 023e
00000330: 2c8a 123d a829 acbe 7475 6dbe 8f63 8bbd
00000340: 4b8c a8be 6de4 f2bd fb73 26be 2a7d 013e
00000350: 93d2 afbd dfd2 63be 07af b3be c2c9 31bd
00000360: 08dc b73e edfc 8b3e 515f d13d 842e a1bd
00000370: d123 8e3e 4e74 83be 915c 80be 1185 c83e
00000380: a35d b6bd 33a6 79be 42cc 8dbe 818f 98be
00000390: 0df4 4ebe 9c02 3d3e 19a1 0e3d f2af cbbd
000003a0: b4fc c13d b398 86be 5654 923e 0ab4 2dbb
000003b0: a69c 563c 2d29 80be 8ebe aabd c6fb d5bd
000003c0: e0a6 b9be 3465 b3be 39f0 1f3e f107 a13e
000003d0: 5a21 923e ec37 bd3d d56d af3d 44fa 073e
000003e0: 53d5 b53c af5a b9be 11e0 99be 6390 b23e
000003f0: 9971 83be 0949 213e 13e5 b2be f5e0 7b3d

layers.0.embed.bias f4 [128]
0.28355056 0.12680933 -0.26168868 -0.3392558 -0.31581587 0.043332998 0.16646115 -0.18043901
-0.32562083 0.3240433 -0.14260735 0.31392726 0.35295275 0.10642034 -0.33345047 0.11892113
0.3954903 0.14983878 -0.28004253 -0.331105 -0.15850598 -0.115748785 -0.08015386 -0.2186364
0.192502 0.0065227905 -0.34499785 0.0073169023 -0.3553973 -0.12963152 0.14209962 -0.30180618
-0.11767338 -0.11024528 0.22839688 -0.022766458 -0.16514044 0.2888399 0.3103468 -0.18642227
0.03943195 0.16680759 -0.17236316 0.18146898 -0.23442905 -0.3231701 0.12893242 -0.26565018
-0.27908665 0.1429085 -8.681459e-05 0.24889302 0.19670144 0.33270186 0.2854849 -0.22705403
-0.07332228 0.287823 0.3556185 0.3501453 -0.27859244 0.0091651445 -0.19048208 0.28810862
-0.17181605 -0.18989547 0.33516034 0.16259679 -0.124786936 0.11732423 0.0374069 -0.37453455
0.07078309 0.14632097 0.25962004 -0.36559635 0.015909635 0.29851055 -0.145926 -0.2694999
-0.29278126 0.10922739 -0.12621136 0.0809526 -0.33675173 0.04475024 0.25220162 0.18916965
0.21118575 0.17771977 -0.120023035 -0.24502562 0.25540146 0.19511735 0.20571738 0.042918675
-0.03347513 0.3495468 0.34568736 -0.16331826 0.101828806 -0.055154964 0.27506155 -0.32645786
0.13884056 -0.090739615 -0.39434177 0.16721156 -0.14586991 0.08721915 -0.112141706 -0.10187386
0.2932483 0.22719207 -0.19420445 -0.00679917 0.13466044 0.31357428 -0.05620111 0.19017106
-0.25345343 0.04721925 0.2927397 -0.22094151 0.12268072 0.094012566 -0.060499188 0.040566634
00000000: 8a2d 913e 4eda 013e 0ffc 85be f0b2 adbe
00000010: 9eb2 a1be f17d 313d cb74 2a3e 01c5 38be
00000020: c6b7 a6be 01e9 a53e a907 12be 13bb a03e
00000030: 39b6 b43e e8f2 d93d 05ba aabe ec8c f33d
00000040: b47d ca3e 566f 193e bc61 8fbe 9886 a9be
00000050: 644f 22be b30d edbd b527 a4bd 38e2 5fbe
00000060: 3f1f 453e 22bd d53b 8fa3 b0be a0c2 ef3b
00000070: a3f6 b5be 20be 04be 9082 113e 5786 9abe
00000080: befe f0bd 47c8 e1bd dfe0 693e b980 babc
00000090: 931a 29be d3e2 933e c7e5 9e3e 7be5 3ebe
000000a0: 6583 213d 9ccf 2a3e f87f 30be 01d3 393e
000000b0: 2b0e 70be 8d76 a5be dc06 043e 4d03 88be
000000c0: 72e4 8ebe 9b56 123e 3a10 b6b8 d0dd 7e3e
000000d0: 1a6c 493e e657 aa3e 142b 923e da80 68be
000000e0: fe29 96bd 895d 933e a113 b63e 3f46 b33e
000000f0: aba3 8ebe 6729 163c bc0d 43be f982 933e
00000100: 8cf0 2fbe f573 42be 239a ab3e c67f 263e
00000110: 4b90 ffbd b047 f03d fa37 193d fec2 bfbe
00000120: baf6 903d 2ad5 153e ebec 843e 722f bbbe
00000130: ec54 823c 60d6 983e a06d 15be e4fb 89be
00000140: 6de7 95be 9cb2 df3d 8d3d 01be 7aca a53d
00000150: b96a acbe 074c 373d 9220 813e b0b5 413e
00000160: 1441 583e 2cfc 353e a3ce f5bd ffe7 7abe
00000170: fbc3 823e d8cc 473e 94a7 523e 7ecb 2f3d
00000180: 381d 09bd ccf7 b23e effd b03e e73c 27be
00000190: 9f8b d03d 2cea 61bd ded4 8c3e 7c25 a7be
000001a0: 382c 0e3e b1d5 b9bd 2ae7 c9be 8239 2b3e
000001b0: ec5e 15be f49f b23d 8daa e5bd 3ea3 d0bd
000001c0: a424 963e 0aa5 683e 88dd 46be 92cb debb
000001d0: 6de4 093e cf8c a03e 2333 66bd 34bc 423e
000001e0: a6c4 81be f968 413d fae1 953e 7e3e 62be
000001f0: 0840 fb3d a989 c03d ffcd 77bd 3329 263d

layers.0.W_att.weight f4 [128, 128]
0.038317084 0.027204545 0.05777887 -0.06873899 -0.050553303 -0.04812953 -0.022167644 -0.04163821
0.061691955 0.07594587 -0.067749634 -0.06678207 -0.04497193 0.065729186 -0.028778495 -0.015358592
0.04789327 0.07563825 -0.026679926 0.0031970937 -0.034387656 -0.076061465 -0.07289195 -0.09147235
-0.026144773 0.06188981 -0.055046286 -0.005061392 -0.021866234 -0.028814783 -0.08076349 -0.018247591
-0.004733564 -0.02617896 0.07562129 0.006338687 -0.039521296 0.08297798 -0.019076545 -0.048678588
-0.0842539 -0.005620394 -0.07730488 -0.016908966 -0.0012851765 -0.11183116 0.018718908 -0.0001693845
-0.06511822 0.09007243 0.027401121 0.09501147 0.046828646 0.07795434 0.044534583 0.07314694
0.053369362 0.100036964 0.013322709 -0.0021637145 -0.023453712 -0.0470465 0.017018823 -0.075200036
0.031429883 0.025450174 0.04390765 0.03613662 -0.035579775 -0.03628924 -0.05325122 -0.046254657
0.085135676 0.08628828 -0.046730433 -0.03176342 0.058409106 0.030648248 0.016612455 -0.069189034
-0.0028679837 -0.06583909 -0.096625075 -0.059642702 0.033826407 0.038190305 -0.055502757 0.027040634
-0.008795487 -0.021098156 -0.0169202 -0.055578794 -0.007402578 -0.047928575 0.09709016 0.06972546
-0.03526663 -0.04236753 -0.007856422 0.05182994 0.03575586 -0.06777485 0.030288782 -0.05696046
0.057362486 -0.058085684 -0.03669745 -0.04427944 -0.024270182 0.054303765 0.032689903 0.06005888
-0.034831163 -0.0028900346 0.009314535 -0.07489145 0.050056677 0.089980505 -0.01309409 0.035888415
-0.075726464 -0.06579338 -0.04089173 0.054009937 0.05740088 0.013906369 0.09633518 -0.093088955
0.027402287 0.07716021 0.011652714 0.06275195 -0.053314 0.07526648 0.017032878 -0.07923287
-0.08944108 -0.07921606 -0.015282342 -0.023814566 -0.020270986 -0.010450925 0.052898396 -0.059290703
0.05941233 -0.07128663 -0.030566195 -0.10373911 -0.03833258 0.015221584 0.07823011 0.02749818
0.008713968 -0.022864752 -0.029030958 0.058256134 -0.04987165 0.077563964 0.051241018 0.011132815
0.08358487 0.034817837 0.08503352 0.043304984 0.05364854 -0.027116306 -0.054820772 0.0780607
-0.06347717 -0.06487668 -0.018686937 -0.062948294 -0.08374393 0.00352228 -0.083592705 -0.09747168
-0.08507971 -0.0052402304 0.040267423 -0.0545297 2.6740205e-05 0.029610693 -0.012771438 -0.024111465
0.0158414 0.017292239 -0.006319512 -0.0030826007 -0.012813933 -0.025967428 -0.071844555 0.022798568
-0.076725945 -0.085659966 0.09957655 0.067985676 -0.071265996 0.021395698 0.016807232 -0.03430373
-0.028938102 0.055561308 0.06270306 -0.003983138 0.032168277 0.016433464 -0.034827244 -0.062001977
-0.045671273 -0.026590426 0.040214423 -0.022987181 0.00016218668 0.034706574 0.06848713 -0.043342892
0.05816776 -0.06469406 -0.069254875 -0.012568385 0.014370465 -0.039269127 0.07133767 0.06729367
-0.07591485 -0.06526903 -0.053012542 -0.08194148 0.084197946 -0.050167795 -0.0038109387 0.046785995
-0.07165262 0.08836206 0.062673 0.08103929 -0.066575296 -0.062135562 0.01651572 -0.027787808
0.015977688 0.028581165 0.070831336 -0.07203055 0.032748535 -0.0022771352 0.031848047 -0.014550786
0.047200255 -0.06566322 0.06576408 0.015224304 0.06328282 -0.04944362 -0.033713732 -0.0025716955
00000000: 60f2 1c3d 11dc de3c 89a9 6c3d 07c7 8cbd
00000010: fb10 4fbd 7823 45bd eb98 b5bc d48c 2abd
00000020: b4b0 7c3d 8289 9b3d 52c0 8abd 0ac5 88bd
00000030: 7d34 38bd 069d 863d e1c0 ebbc 9ba2 7bbc
00000040: bc2b 443d 3ae8 9a3d dc8f dabc 5586 513b
00000050: 12da 0cbd 1dc6 9bbd 6048 95bd db55 bbbd
00000060: 902d d6bc 2b80 7d3d 3778 61bd 09da a5bb
00000070: d120 b3bc fb0c ecbc 5467 a5bd f97b 95bc
00000080: 031c 9bbb 4275 d6bc 56df 9a3d c3b4 cf3b
00000090: 15e1 21bd 5cf0 a93d 6a46 9cbc 3363 47bd
000000a0: 4f8d acbd 482b b8bb 0552 9ebd ac84 8abc
000000b0: 5e73 a8ba bc07 e5bd 6558 993c ce9c 31b9
000000c0: b45c 85bd e577 b83d 5178 e03c 6095 c23d
000000d0: 65cf 3f3d 86a6 9f3d e569 363d 10ce 953d
000000e0: d599 5a3d 2ee0 cc3d 7e47 5a3c 1bcd 0dbb
000000f0: 0022 c0bc d5b3 40bd 0f6b 8b3c 7a02 9abd
00000100: 9fbc 003d e27c d03c 82d8 333d fe03 143d
00000110: 19bc 11bd 07a4 14bd f41d 5abd 8675 3dbd
00000120: 9d5b ae3d e9b7 b03d 6968 3fbd 5c1a 02bd
00000130: 633e 6f3d 0912 fb3c d816 883c fbb2 8dbd
00000140: c8f4 3bbb a5d6 86bd 5ee3 c5bd e84b 74bd
00000150: 8f8d 0a3d 706d 1c3d dc56 63bd 5284 dd3c
00000160: f21a 10bc 0ad6 acbc 3b9c 8abc 97a6 63bd
00000170: 5391 f2bb c150 44bd 35d7 c63d 39cc 8e3d
00000180: be73 10bd 9389 2dbd 39b8 00bc a24b 543d
00000190: bd74 123d 8acd 8abd 2e20 f83c 5f4f 69bd
000001a0: edf4 6a3d 41eb 6dbd 1150 16bd 5c5e 35bd
000001b0: 43d2 c6bc a06d 5e3d d9e5 053d 4d00 763d
000001c0: 1fab 0ebd bc66 3dbb fe9b 183c b060 99bd
000001d0: 3b08 4d3d b347 b83d 9888 56bc bbff 123d
000001e0: 7a16 9bbd aebe 86bd 167e 27bd 8639 5d3d
000001f0: 2f1d 6b3d 8ad7 633c 614b c53d 6ca5 bebd
00000200: c37a e03c 2c06 9e3d 06eb 3e3c 1884 803d
00000210: c85f 5abd 5025 9a3d 8988 8b3c d844 a2bd
00000220: e32c b7bd 083c a2bd ca62 7abc c416 c3bc
00000230: 570f a6bc 5b3a 2bbc fdab 583d cfda 72bd
00000240: 585a 733d bafe 91bd f565 fabc 2c75 d4bd
00000250: a002 1dbd f363 793c 1c37 a03d dd43 e13c
00000260: 08c5 0e3c dc4e bbbc 55d2 edbc fc9d 6e3d
00000270: 3746 4cbd dbd9 9e3d 1ae2 513d 6966 363c
00000280: 8b2e ab3d 269d 0e3d 0e26 ae3d 9160 313d
00000290: 92be 5b3d 0423 debc bf8b 60bd 4ade 9f3d
000002a0: 5200 82bd 11de 84bd 5915 99bc 09eb 80bd
000002b0: f081 abbd 0dd6 663b a732 abbd 3b9f c7bd
000002c0: 453e aebd 3db6 abbb 74ef 243d 895a 5fbd
000002d0: 2750 e037 2092 f23c 4b3f 51bc 6885 c5bc
000002e0: d3c5 813c 74a8 8d3c e913 cfbb 7505 4abb
000002f0: 88f1 51bc a5b9 d4bc 3d23 93bd 10c4 ba3c
00000300: 7e22 9dbd 7e6e afbd caee cb3d 133c 8b3d
00000310: e8f3 91bd 0846 af3c 52af 893c 1182 0cbd
00000320: 990f edbc 4194 633d 766a 803d fc84 82bb
00000330: e2c2 033d 799f 863c 03a7 0ebd c9f5 7dbd
00000340: cd11 3bbd 2ad4 d9bc e1b7 243d 9d4f bcbc
00000350: a810 2a39 7b28 0e3d fb42 8c3d 5188 31bd
00000360: 5141 6e3d 527e 84bd 80d5 8dbd a1eb 4dbc
00000370: 1972 6b3c aad8 20bd 7c19 923d 43d1 893d
00000380: 3f79 9bbd c5ab 85bd ae23 59bd efd0 a7bd
00000390: f96f ac3d bf7c 4dbd f1c0 79bb aca2 3f3d
000003a0: 9cbe 92bd 2bf7 b43d b45a 803d edf7 a53d
000003b0: a158 88bd dc81 7ebd fa4b 873c 42a3 e3bc
000003c0: a4e3 823c 0c23 ea3c 0510 913d c184 93bd
000003d0: 5423 063d fd3b 15bb 1973 023d 6c66 6ebc
000003e0: 0e55 413d 707a 86bd 51af 863d 5c6f 793c
000003f0: 6c9a 813d 6585 4abd 6917 0abd e489 28bb

layers.0.phi_att.weight f4 [128, 128]
0.07708663 -0.05572107 -0.00070228364 -0.008820087 -0.082052514 0.08839655 -0.0045485096 -0.027885044
0.08699425 0.055809226 -0.022963794 -0.016824543 0.02380635 -0.0152306175 0.027511619 0.06273109
0.031373944 0.017054042 -0.021417247 0.06603113 0.031760685 0.03578548 -0.06073804 -0.023988338
0.025399746 -0.042242397 0.048247483 -0.05094925 -0.0736475 -0.056903448 -0.012518487 -0.04719566
0.029893873 -0.0642725 0.027696323 0.04373834 -0.051926024 -0.07474317 -0.060880437 -0.048065744
-0.009481151 0.016315497 0.009083692 0.02005821 0.055035617 0.07401571 0.047076363 0.07145753
-0.047208045 0.03668797 0.07811285 0.07636996 0.094410874 0.017404342 0.007738916 0.0150037
0.03550779 -0.075639725 -0.010025981 0.046040945 -0.038218755 -0.005998771 -0.01841045 0.013656513
0.030511951 0.01701312 0.061703302 -0.010404817 0.012115732 -0.05876745 -0.0739616 0.07364557
-0.048603997 -0.018789819 0.025795054 0.05238988 -0.005276896 0.07216811 0.041890986 0.037344597
0.018713498 -0.05426409 0.005220543 0.038515467 -0.09884775 -0.06832241 -0.05428441 0.0048734187
0.029513953 -0.022351393 0.05878573 -0.023596432 -0.07483321 0.08899825 -0.0117302025 -0.08886091
0.063009456 -0.008801348 -0.04690167 -0.052937806 -0.050834 -0.07442634 -0.015355663 -0.03108685
0.054666605 0.06906321 0.035110872 -0.022873472 -0.093227744 -0.023795355 -0.024349047 0.017958846
-0.0910269 -0.036572307 -0.08273993 0.06777911 0.026247848 0.070469774 0.08273324 -0.015496289
0.073304616 0.08510104 0.0050795986 0.06514911 0.08344892 -0.08017933 -0.0071021724 0.04934247
-0.07014688 -0.021015313 -0.09303165 0.009621895 0.057644993 -0.010455107 0.015927475 0.036591347
-0.0021410685 0.05784995 0.023617618 0.002106839 0.02584211 0.09847336 -0.11496185 -0.051515754
-0.07965568 -0.041545503 0.016590208 0.079775706 -0.034474324 0.050598785 -0.014512586 -0.028873531
-0.02617079 0.011668001 0.0532597 0.0439862 0.09448712 0.011950802 -0.02630366 -0.041309074
-0.022923505 -0.013156958 -0.05573734 0.010160731 -0.06717186 0.01515833 -0.058490578 0.09422898
0.0007868436 -0.08705638 0.022611126 0.06807697 0.018094543 0.009008211 -0.006529936 0.09067793
-0.04522854 -0.07948697 -0.08874918 0.056787744 0.0072030094 0.018440014 0.02128734 0.04559418
0.075598024 0.06989403 -0.037295107 0.034584753 0.033311278 0.010116264 0.013890637 -0.066626295
-0.060859792 0.04343846 0.032148644 -0.01652477 -0.013619822 -0.06604909 0.0661334 -0.01189283
0.04703933 0.009450916 0.00905862 0.042950433 0.0078046545 0.079168916 0.023187267 -0.087651595
0.04103398 0.055999 0.051733855 -0.040235832 -0.0791833 -0.08275998 -0.08141804 0.046033274
-0.061234944 -0.08280247 0.050397057 -0.02776176 0.06544791 -0.011857618 -0.07562897 0.08012468
-0.015286698 -0.09112488 -0.012960676 -0.09782634 0.028479775 0.032612182 0.070399076 -0.00081456616
-0.014131996 -0.014992369 -0.014754744 0.100603044 -0.038991977 -0.0073509375 -0.07708859 -0.06192461
-0.020009656 0.07248233 0.08133161 -0.05277109 0.02394876 0.09199035 0.052418694 0.045498427
-0.08024223 -0.024454525 -0.03941733 -0.027957553 0.077945806 0.067240074 -0.017717483 -0.04324816
00000000: 98df 9d3d c73b 64bd 7519 38ba 2082 10bc
00000010: 260b a8bd 4009 b53d aa0b 95bb 2d6f e4bc
00000020: 0b2a b23d 3798 643d 911e bcbc a0d3 89bc
00000030: 8905 c33c d789 79bc 0c60 e13c 2879 803d
00000040: f781 003d ebb4 8b3c 3973 afbc 543b 873d
00000050: 7e17 023d cc93 123d 73c8 78bd 3183 c4bc
00000060: 2113 d03c 5d06 2dbd 279f 453d 29b0 50bd
00000070: 80d4 96bd 9713 69bd 571a 4dbc 3d50 41bd
00000080: ffe3 f43c 4da1 83bd 66e3 e23c f926 333d
00000090: 62b0 54bd f212 99bd c45d 79bd 96e0 44bd
000000a0: d456 1bbc 14a8 853c c4d3 143c 1d51 a43c
000000b0: 076d 613d 8c95 973d 25d3 403d 5358 923d
000000c0: 395d 41bd 2046 163d a1f9 9f3d db67 9c3d
000000d0: 7d5a c13d 8d93 8e3c bc96 fd3b 14d2 753c
000000e0: 9e70 113d 00e9 9abd 0344 24bc 6e95 3c3d
000000f0: 458b 1cbd 5791 c4bb 83d1 96bc 91bf 5f3c
00000100: 33f4 f93c 195f 8b3c 9abc 7c3d f778 2abc
00000110: 1081 463c 23b6 70bd 2e79 97bd 7dd3 963d
00000120: fc14 47bd 1bed 99bc 2650 d33c c596 563d
00000130: d0e9 acbb e0cc 933d e295 2b3d a6f6 183d
00000140: 0d4d 993c 0644 5ebd 1711 ab3b 65c2 1d3d
00000150: b070 cabd 9fec 8bbd 5459 5ebd 33b1 9f3b
00000160: 3fc7 f13c 451a b7bc 4ec9 703d 4e4d c1bc
00000170: 2742 99bd b744 b63d 0930 40bc b5fc b5bd
00000180: 1a0b 813d 8733 10bc f71b 40bd 50d5 58bd
00000190: 5037 50bd d66c 98bd 5296 7bbc daa9 febc
000001a0: 17ea 5f3d 0371 8d3d 6bd0 0f3d 2661 bbbc
000001b0: 30ee bebd 7aee c2bc a777 c7bc 6e1e 933c
000001c0: 506c babd d8cc 15bd 8d73 a9bd c6cf 8a3d
000001d0: ba05 d73c 7552 903d 0c70 a93d 26e4 7dbc
000001e0: bb20 963d 7449 ae3d c372 a63b e66c 853d
000001f0: 44e7 aa3d 1035 a4bd 57b9 e8bb 541b 4a3d
00000200: 2ba9 8fbd 4e28 acbc 6187 bebd 27a5 1d3c
00000210: 281d 6c3d e64b 2bbc 567a 823c cfe0 153d
00000220: 2b51 0cbb 12f4 6c3d bc79 c13c e512 0a3b
00000230: d5b2 d33c 67ac c93d 1e71 ebbd 2f02 53bd
00000240: 8422 a3bd 9e2b 2abd 30e8 873c 7261 a33d
00000250: f334 0dbd ac40 4f3d 33c6 6dbc 2f88 ecbc
00000260: 2064 d6bc 252b 3f3c d826 5a3d e02a 343d
00000270: 7782 c13d 4ccd 433c c67a d7bc b433 29bd
00000280: 13ca bbbc 4890 57bc d64c 64bd 3279 263c
00000290: 6691 89bd a55a 783c d193 6fbd 20fb c03d
000002a0: 2e44 4e3a 9e4a b2bd f83a b93c f06b 8b3d
000002b0: 023b 943c 2d97 133c 13f9 d5bb 5ab5 b93d
000002c0: 9041 39bd 11ca a2bd 21c2 b5bd 449a 683d
000002d0: 3907 ec3b 830f 973c ca62 ae3c f6c0 3a3d
000002e0: 23d3 9a3d 9a24 8f3d c1c2 18bd bea8 0d3d
000002f0: 6871 083d b0be 253c 8e95 633c 5e73 88bd
00000300: 1e48 79bd 87ec 313d 4cae 033d f45e 87bc
00000310: ad25 5fbc bf44 87bd f370 873d 25da 42bc
00000320: 50ac 403d 04d8 1a3c 9b6a 143c cbec 2f3d
00000330: 30be ff3b 5023 a23d 39f3 bd3c ae82 b3bd
00000340: 3f13 283d 355f 653d e1e6 533d 54ce 24bd
00000350: db2a a2bd 107e a9bd 80be a6bd 638d 3c3d
00000360: 7ed1 7abd 5794 a9bd 256d 4e3d a16c e3bc
00000370: 8e09 863d 7446 42bc 5de3 9abd 6918 a43d
00000380: 0f75 7abc ae9f babd 0459 54bc 2d59 c8bd
00000390: 6b4e e93c 5a94 053d 642d 903d 9c88 55ba
000003a0: e389 67bc 8ea2 75bc e2bd 71bc f808 ce3d
000003b0: 0db6 1fbd 22e0 f0bb 9fe0 9dbd a9a4 7dbd
000003c0: 4aeb a3bc 9e71 943d 3091 a63d 8026 58bd
000003d0: 3130 c43c 7065 bc3d fcb4 563d 8f5c 3a3d
000003e0: 0a56 a4bd db54 c8bc 1174 21bd 3d07 e5bc
000003f0: 0da2 9f3d 2ab5 893d 4124 91bc fc24 31bd

layers.0.phi_att.bias f4 [128]
-0.015483886 -0.055301063 0.079777144 0.013816189 -0.066707544 -0.06464302 0.062040128 0.08473603
0.03549833 0.060475506 0.016363723 0.06008035 0.0016362217 0.021145057 -0.083358064 -0.06231096
-0.053458516 0.015501983 -0.014281449 0.07316964 -0.08851293 0.06220734 -0.020041836 -0.068689086
-0.034823954 0.06826077 -0.03934155 0.04145338 -0.013529744 -0.010140162 -0.02701875 -0.101318434
-0.082198486 -0.03935624 -0.08443386 -0.06771093 0.07087251 -0.048086487 -0.07354305 0.07610391
0.057139125 -0.025178095 0.008916182 0.05971146 -0.04944451 0.03663626 -0.05348646 0.019768188
0.030078523 0.010522566 -0.04930449 0.051798947 -0.048296552 -0.0968312 -0.067695096 0.028428933
0.03093513 0.082797155 -0.09031755 -0.019195262 0.033528578 -0.0052249804 0.042063713 0.06269215
-0.056793377 0.06273684 -0.018478625 -0.03637366 0.08324699 0.07126168 0.029150639 -0.08399621
0.09223484 0.0030047907 -0.003320901 0.07691086 -0.027804244 -0.03180159 -0.07238348 -0.01233062
0.089700006 -0.056517202 -0.027095785 0.07663033 -0.014167761 -0.046323523 0.071860686 -0.08161949
-0.053963847 -0.053943228 -0.069363564 0.05440098 -0.022708356 0.087938815 -0.05426332 -0.0054381965
-0.07919338 -0.07323894 0.023816628 -0.04748546 0.023320377 -0.033953425 0.09201039 0.06859375
0.07288894 -0.041543417 -0.027392093 0.052402426 -0.017365517 -0.035744417 0.06814028 0.06296767
-0.029970862 0.000966024 0.037385777 0.05587329 0.076939695 0.02149472 -0.003815529 0.01006703
0.050074287 0.06848327 0.026058491 0.0054688263 0.07554199 -0.06845566 -0.052983467 -0.07309915
00000000: 20b0 7dbc 5e83 62bd 3362 a33d 4c5d 623c
00000010: f79d 88bd 8f63 84bd ca1d 7e3d 158a ad3d
00000020: b266 113d 2ab5 773d 370d 863c d016 763d
00000030: 7d76 d63a 6638 ad3c a2b7 aabd c739 7fbd
00000040: 51f7 5abd 08fc 7d3c bdfc 69bc f7d9 953d
00000050: 4446 b5bd 20cd 7e3d c72e a4bc ddac 8cbd
00000060: 90a3 0ebd 4dcc 8b3d 9b24 21bd 05cb 293d
00000070: dcab 5dbc ec22 26bc 6d56 ddbc 0a80 cfbd
00000080: ae57 a8bd 0234 21bd a9eb acbd 07ac 8abd
00000090: 9b25 913d 56f6 44bd bd9d 96bd 5edc 9b3d
000000a0: b70a 6a3d 4b42 cebc 2e15 123c 0194 743d
000000b0: 5486 4abd e70f 163d 9e14 5bbd e5f0 a13c
000000c0: 3c67 f63c d766 2c3c 81f3 49bd 222b 543d
000000d0: 9bd2 45bd 704f c6bd baa3 8abd cbe3 e83c
000000e0: ab6b fd3c 8e91 a93d 68f8 b8bd 623f 9dbc
000000f0: 4355 093d 5036 abbb 004b 2c3d be64 803d
00000100: 2ca0 68bd 2c7c 803d 7c60 97bc 8cfc 14bd
00000110: 667d aa3d a5f1 913d 52cd ee3c 3406 acbd
00000120: 9fe5 bc3d 06ec 443b 79a3 59bb 7183 9d3d
00000130: bac5 e3bc 6242 02bd ca3d 94bd 5e06 4abc
00000140: a3b4 b73d 957e 67bd fbf7 ddbc 5df0 9c3d
00000150: e61f 68bc bcbd 3dbd b22b 933d 1f28 a7bd
00000160: 3209 5dbd 93f3 5cbd 7c0e 8ebd 90d3 5e3d
00000170: e006 babc 4419 b43d 3743 5ebd e632 b2bb
00000180: 2430 a2bd 4cfe 95bd 171b c33c 1d80 42bd
00000190: 600a bf3c bf12 0bbd f16f bc3d e17a 8c3d
000001a0: cc46 953d 6e29 2abd 6265 e0bc eda3 563d
000001b0: 2142 8ebc bd68 12bd 228d 8b3d 32f5 803d
000001c0: 7485 f5bc c63c 7d3a d421 193d 64db 643d
000001d0: 8f92 9d3d b215 b03c f40d 7abb 2ff0 243c
000001e0: b21a 4d3d f540 8c3d 9e78 d53c d733 b33b
000001f0: c2b5 9a3d 7b32 8cbd 3105 59bd 02b5 95bd

layers.0.W_p.weight f4 [128, 128]
0.016218642 0.050189324 0.03945761 -0.006590483 0.003052742 0.07847908 0.014264162 0.073422775
-0.038362794 -0.0716389 0.019887196 -0.029353553 0.03588271 -0.000894636 -0.08670651 -0.03667036
-0.021417715 -0.08447853 0.027557133 0.030418085 -0.055700067 0.086842634 -0.03220825 0.07622901
-0.007005936 0.021448234 -0.050674655 -0.018472703 -0.06697898 0.058472887 0.08850839 0.01566751
-0.022766976 -0.03490914 0.047114283 -0.0020357857 3.0631556e-05 -0.020352101 0.038436223 -0.013730236
-0.017685516 0.018010885 0.007372074 -0.04159906 -0.048851717 -0.07675354 -0.051242728 -0.0885071
0.018632699 0.07892178 0.041990288 0.08122168 -0.015184742 -0.057907727 -0.06610969 0.05730976
0.025857955 -0.04205009 -0.05523485 -0.036817584 -0.05030085 0.059970077 -0.051770594 0.0028005752
-0.065699 -0.07381464 0.02014193 0.06304741 0.035813853 0.05714426 0.076732635 -0.06661604
0.02150445 -0.048454326 0.013131593 0.0106044905 -0.0009453825 0.08094353 -0.0006586442 -0.003710843
-0.05716503 -0.037164334 -0.08693286 0.007183998 -0.010202376 -0.08067678 0.04532231 0.036828537
0.07774809 -0.0039660344 -0.04841861 -0.046609864 0.015346901 -0.06527187 0.038042724 0.08930726
0.06276809 -0.035639703 0.07786702 -0.028391402 -0.01771707 0.026894193 0.030030966 -0.006203722
0.08207976 -0.017369607 0.061703708 -0.017324138 0.06561609 0.023232602 0.014016631 0.07654027
-0.07536822 0.09168486 -0.0751613 0.021589087 -0.0021173928 0.06983487 -0.046275694 -0.071484916
-0.034496497 -0.04262342 0.09797123 0.0059756213 -0.04461582 0.07597368 0.049083047 0.0011339159
0.06521043 -0.0679173 0.086000934 0.018132325 0.007034986 -0.06766169 -0.040676948 -0.028748179
0.049982294 0.001902525 0.005299087 0.031897184 -0.0352479 -0.005401659 0.060436886 -0.055978958
0.079845764 -0.0020076015 -0.02238152 -0.018219063 -0.080941856 0.08574724 -0.061701328 0.010815548
-0.067145035 0.07666148 -0.03469303 0.008052342 0.04334074 0.061579462 0.040496193 0.014655128
0.038734715 -0.042823695 -0.072446674 0.057667084 -0.083833605 0.03456345 -0.07273114 0.03448829
-0.09251047 -0.074135005 0.018379988 0.082825996 0.08371626 -0.046108767 -0.053507812 -0.048572734
0.082823284 0.06711871 0.008414802 -0.04237636 -0.08821099 0.06508052 0.043152962 0.07677618
-0.024826998 -0.066598944 -0.082624905 -0.04814739 0.019474262 0.02567916 0.0873498 0.052093867
-0.017503958 0.022126172 -0.10298568 -0.0071640755 -0.06292388 0.06685375 0.0961175 0.073125474
-0.031243714 -0.011156709 0.05004924 0.061156377 0.022735259 0.08070895 0.07050924 -0.07346579
0.039661404 0.07167565 0.0017954897 0.07684917 -0.052294724 -0.062308677 -0.07594832 -0.064297
0.012812576 0.046095222 -0.01977914 -0.031971812 0.04753812 0.028113293 0.06764236 0.009268916
0.07477963 0.00832144 -0.0071126726 0.052720368 0.038159676 -0.013193173 -0.029931454 -0.01577119
-0.03718385 -0.012643845 0.02944556 0.033903435 -0.005334142 0.030184463 0.065912224 0.046220306
0.063765824 -0.079745755 -0.039105766 -0.065227725 0.005417018 0.031019866 -0.019295957 0.042333547
-0.04721247 -0.08595411 -0.06449222 0.008188654 -0.005225145 0.06459886 -0.059155464 -0.026802395
00000000: f5dc 843c 5293 4d3d 4e9e 213d faf4 d7bb
00000010: 8310 483b a4b9 a03d 3bb4 693c ae5e 963d
00000020: 4e22 1dbd 6ab7 92bd 79ea a23c dd76 f0bc
00000030: c0f9 123d 0186 6aba 2f93 b1bd a933 16bd
00000040: 3474 afbc 1403 adbd 7fbf e13c 592f f93c
00000050: c125 64bd 8dda b13d ccec 03bd f51d 9c3d
00000060: 0d92 e5bb 35b4 af3c 3a90 4fbd 1154 97bc
00000070: 472c 89bd 4481 6f3d e343 b53d 2659 803c
00000080: cf81 babc e3fc 0ebd e8fa 403d d16a 05bb
00000090: 627a 0038 73b9 a6bc 4d6f 1d3d c9f4 60bc
000000a0: 37e1 90bc 908b 933c 7091 f13b c763 2abd
000000b0: bd18 48bd f630 9dbd e5e3 51bd 3643 b5bd
000000c0: 9aa3 983c bea1 a13d 02fe 2b3d 8d57 a63d
000000d0: 6dc9 78bc a730 6dbd 8464 87bd a4bd 6a3d
000000e0: 10d4 d33c b73c 2cbd f03d 62bd 09ce 16bd
000000f0: 4408 4ebd 2fa3 753d 670d 54bd db89 373b
00000100: 338d 86bd 212c 97bd b000 a53c 001f 813d
00000110: 8cb1 123d 1910 6a3d 0026 9d3d fe6d 88bd
00000120: 1a2a b03c 0b78 46bd e525 573c 75be 2d3c
00000130: 8cd3 77ba b9c5 a53d dda8 2cba 9d31 73bb
00000140: e125 6abd a139 18bd db09 b2bd be67 eb3b
00000150: de27 27bc de39 a5bd e3a3 393d 85d9 163d
00000160: 643a 9f3d 82f5 81bb 9852 46bd fce9 3ebd
00000170: 9171 7b3c 42ad 85bd b0d2 1b3d bae6 b63d
00000180: 8e8c 803d f0fa 11bd bf78 9f3d 1695 e8bc
00000190: 6423 91bc 3651 dc3c 8003 f63c 9848 cbbb
000001a0: 6f19 a83d b54a 8ebc 07bd 7c3d 5aeb 8dbc
000001b0: bb61 863d 4c52 be3c 03a6 653c 25c1 9c3d
000001c0: a75a 9abd 46c5 bb3d 2bee 99bd 99db b03c
000001d0: f5c3 0abb 9605 8f3d 958b 3dbd af66 92bd
000001e0: 334c 0dbd e595 2ebd 24a5 c83d 25cf c33b
000001f0: 14bf 36bd 1798 9b3d 4e0b 493d e79f 943a
00000200: 0c8d 853d 3a18 8bbd 4221 b03d 3e8a 943c
00000210: bd85 e63b 3692 8abd df9c 26bd 4d81 ebbc
00000220: 3cba 4c3d 255e f93a f7a3 ad3b 9fa6 023d
00000230: 1a60 10bd 6600 b1bb ab8c 773d 314a 65bd
00000240: 2d86 a33d f791 03bb 7359 b7bc 2540 95bc
00000250: d8c4 a5bd 409c af3d 88ba 7cbd b233 313c
00000260: 5683 89bd b200 9d3d 471a 0ebd f8ed 033c
00000270: 0f86 313d bf3a 7c3d 56df 253d 101c 703c
00000280: 4ba8 1e3d e667 2fbd ec5e 94bd 5234 6c3d
00000290: f4b0 abbd 6792 0d3d 10f4 94bd 9843 0d3d
000002a0: 2176 bdbd 18d4 97bd a191 963c ada0 a93d
000002b0: 6e73 ab3d 8cdc 3cbd 022b 5bbd 34f4 46bd
000002c0: 419f a93d 8975 893d 3dde 093c d692 2dbd
000002d0: f7a7 b4bd f048 853d 29c1 303d d43c 9d3d
000002e0: fd61 cbbc 0765 88bd 3f37 a9bd 3336 45bd
000002f0: 7d88 9f3c 1a5d d23c 74e4 b23d 6160 553d
00000300: 7664 8fbc f241 b53c 28ea d2bd 9fc0 eabb
00000310: 3cde 80bd 9eea 883d 40d9 c43d cfc2 953d
00000320: d1f2 ffbc a1ca 36bc 6f00 4d3d 1c7f 7a3d
00000330: 4b3f ba3c bc4a a53d 2667 903d 3b75 96bd
00000340: ff73 223d afca 923d a356 eb3a 1963 9d3d
00000350: fe32 56bd 6237 7fbd cb8a 9bbd 25ae 83bd
00000360: d7eb 513c 58ce 3c3d dd07 a2bc e0f4 02bd
00000370: 55b7 423d d94d e63c 1488 8a3d a7dc 173c
00000380: 1026 993d a656 083c 6c11 e9bb 50f1 573d
00000390: 524d 1c3d 2e28 58bc cf32 f5bc 9532 81bc
000003a0: 184e 18bd 2128 4fbc d137 f13c 54de 0a3d
000003b0: 07ca aebb 6845 f73c fdfc 863d 8151 3d3d
000003c0: a897 823d be51 a3bd 5e2d 20bd 1d96 85bd
000003d0: 3e81 b13b 601d fe3c 8e12 9ebc f165 2d3d
000003e0: dd61 41bd b508 b0bd 7f14 84bd b429 063c
000003f0: b137 abbb 684c 843d 004d 72bd b290 dbbc

layers.0.W_p_prime.weight f4 [128, 128]
0.04046229 -0.024661373 0.04169911 0.047123708 -0.07394642 -0.08897008 0.03527435 -0.05936993
0.02837697 0.08383482 -0.073069856 0.01634568 -0.09035734 -0.007953395 0.034789998 0.036348432
-0.060930785 0.017093785 -0.08495714 -0.03641551 0.030565005 -0.061733864 -0.068808444 -0.0031821837
0.030702403 -0.04564111 -0.017844433 -0.076618426 -0.0154449595 -0.015564041 0.04418054 -0.03674907
-0.0458425 -0.04951349 0.06776321 -0.06826584 -0.050994065 -0.062743954 0.0213537 0.066211864
0.05712878 0.039875083 0.022508815 0.07123223 0.016609306 0.041127894 0.046205737 -0.019760357
-0.055468593 -0.08270237 -0.05496069 -0.03702921 -0.04661507 0.06288947 0.09994264 -0.0028295796
0.026414871 0.08067723 -0.101932116 -0.07240736 -0.030798823 -0.053690404 0.016408803 0.061700124
0.07365921 0.02246209 0.084069565 -0.005292224 -0.029761335 -0.028086206 -0.045204956 -0.051045343
-0.029344367 -0.07697783 0.062428944 0.014089284 -0.0035237106 -0.06332435 -0.041394874 0.02864495
-0.06804366 0.053172685 -0.07508576 0.08471417 -0.007222639 0.07169162 -0.04024446 0.03316598
-0.021356447 0.025320455 0.06790977 0.0059673716 -0.038150396 -0.0052096015 -0.017457241 -0.063527346
0.076656446 0.047832225 -0.0074126474 -0.06281943 0.015835667 0.0823978 0.09888617 -0.0008091596
-0.09806287 0.037080806 -0.032710828 -0.0453123 0.085164554 0.08253475 -0.010469787 0.043197863
0.029899284 -0.038615435 -0.009976251 -0.044942334 0.0365675 -0.02804645 0.013574295 0.048938483
0.0039110016 -0.012151214 0.02431981 -0.061142884 -0.008956024 -0.06751913 0.008547786 0.07994355
0.011830296 0.01673785 0.014368123 0.0880177 -0.0665801 0.021663098 0.060549002 -0.045960087
0.016342664 -0.0061932523 -0.04051055 -0.04424865 0.011818393 0.02229251 0.033761106 0.040007792
-0.0161636 -0.08151979 0.022719715 -0.05316681 -0.010503709 0.050242025 -0.012448158 0.041637454
0.035826746 -0.043036144 0.030100528 0.029666567 -0.011817709 0.03866928 -0.0003179746 0.033526927
-0.08132557 -0.064438835 0.059842695 -0.009672255 0.023950778 -0.04411487 0.06248715 0.006796498
0.013812493 0.061538037 0.0443794 -0.05236104 -0.05900645 -0.04750621 0.040498465 0.09509678
0.034376003 0.050292544 -0.040622916 -0.047021884 -0.09216733 -0.027138842 -0.029487371 -0.03789675
0.03654761 0.049949054 -0.007959656 -0.07187972 0.00585098 0.09270082 0.074808024 0.07250738
-0.033366475 -0.059106898 -0.04952327 -0.024664238 0.061514273 -0.03505019 -0.054252658 -0.043450944
-0.04622736 -0.0630903 -0.03799417 -0.034542277 -0.07000341 0.01762276 0.043114565 -0.0025034272
0.048168227 0.08173947 0.08815405 0.08092009 0.07884024 0.053187598 -0.038335793 -0.032303475
0.015108864 0.011612781 -0.048040766 0.041875727 -0.044054955 -0.0056241336 0.067296095 -0.05869638
0.05493909 -0.06758894 -0.04510208 -0.041070025 -0.039058134 0.047747917 -0.04250002 -0.08760552
0.074532814 0.06106068 -0.0035040984 0.0725662 -0.0029907925 0.01975798 -0.0065067755 -0.024394693
0.07102587 0.03619646 -0.005388011 -0.035168834 0.039984588 -0.05676335 -0.011769439 -0.025454232
0.06617459 -0.093056224 0.004330315 -0.1010952 0.05198402 -0.051554255 0.071886025 -0.08503562
00000000: c9bb 253d a606 cabc b0cc 2a3d ca04 413d
00000010: 3871 97bd f235 b6bd d67b 103d e22d 73bd
00000020: d276 e83c 97b1 ab3d a6a5 95bd 60e7 853c
00000030: 450d b9bd f54e 02bc f57f 0e3d 18e2 143d
00000040: 8f92 79bd 4408 8c3c 02fe adbd 6e28 15bd
00000050: 7663 fa3c a6dc 7cbd 71eb 8cbd 2f8c 50bb
00000060: 9b83 fb3c 2cf2 3abd 7d2e 92bc 1fea 9cbd
00000070: db0c 7dbc 5200 7fbc a7f6 343d 3186 16bd
00000080: 58c5 3bbd a8ce 4abd 70c7 8a3d f6ce 8bbd
00000090: 27df 50bd e77f 80bd f4ed ae3c 169a 873d
000000a0: deff 693d 0e54 233d 6864 b83c 34e2 913d
000000b0: 3d10 883c b975 283d 3a42 3d3d 79e0 a1bc
000000c0: 0933 63bd dc5f a9bd 761e 61bd f1ab 17bd
000000d0: 72ef 3ebd 32cc 803d baae cc3d 7870 39bb
000000e0: 0064 d83c 1b3a a53d c9c1 d0bd 4f4a 94bd
000000f0: d04d fcbc 78ea 5bbd c16b 863c 45b9 7c3d
00000100: a4da 963d 6b02 b83c aa2c ac3d 656a adbb
00000110: 0bce f3bc 0b15 e6bc d528 39bd ec14 51bd
00000120: 9963 f0bc 8da6 9dbd 7eb5 7f3d bed6 663c
00000130: 0eee 66bb 32b0 81bd ac8d 29bd d0a8 ea3c
00000140: 795a 8bbd 9acb 593d 90c6 99bd 9f7e ad3d
00000150: e3ab ecbb 0ed3 923d 60d7 24bd 0dd9 073d
00000160: b7f3 aebc d86c cf3c 4714 8b3d f189 c33b
00000170: 9743 1cbd 4eb5 aabb 7d02 8fbc a01a 82bd
00000180: 0efe 9c3d b9eb 433d cbe5 f2bb 79a7 80bd
00000190: cdb9 813c 2ec0 a83d d584 ca3d c81d 54ba
000001a0: 30d5 c8bd 0be2 173d cafb 05bd 6499 39bd
000001b0: c16a ae3d fb07 a93d 7889 2bbc 3ef0 303d
000001c0: 58ef f43c 382b 1ebd 6e73 23bc 7415 38bd
000001d0: cec7 153d abc1 e5bc b866 5e3c b873 483d
000001e0: dc27 803b e315 47bc 573a c73c f670 7abd
000001f0: 4abc 12bc 7847 8abd 030c 0c3c 72b9 a33d
00000200: dcd3 413c d11d 893c 4768 6b3c a042 b43d
00000210: 265b 88bd cf76 b13c 3b02 783d a540 3cbd
00000220: 0de1 853c c4f0 cabb 64ee 25bd 133e 35bd
00000230: efa1 413c c89e b63c 1649 0a3d 36df 233d
00000240: 8769 84bc d9f3 a6bd b21e ba3c 71c5 59bd
00000250: c017 2cbc 95ca 4d3d 5cf3 4bbc 098c 2a3d
00000260: 11bf 123d ab46 30bd 6295 f63c 4d07 f33c
00000270: 109f 41bc ae63 1e3d d4b5 a6b9 8853 093d
00000280: 058e a6bd 82f8 83bd 9d1d 753d 6178 1ebc
00000290: 6c34 c43c cbb1 34bd 87f2 7f3d 28b5 de3b
000002a0: cb4d 623c 4f0f 7c3d 2cc7 353d 8878 56bd
000002b0: bfb0 71bd df95 42bd b8e1 253d 1ac2 c23d
000002c0: dacd 0c3d 8eff 4d3d 3764 26bd 059a 40bd
000002d0: 3ac2 bcbd 4752 debc 808f f1bc 9f39 1bbd
000002e0: f2b2 153d 6197 4c3d 3869 02bc ad35 93bd
000002f0: 94b9 bf3b edd9 bd3d f334 993d c07e 943d
00000300: 49ab 08bd 131a 72bd ead8 4abd a80c cabc
00000310: 64f6 7b3d ca90 0fbd 0938 5ebd 9ef9 31bd
00000320: e658 3dbd 7d35 81bd c69f 1bbd 347c 0dbd
00000330: f35d 8fbd 9b5d 903c e698 303d 8a10 24bb
00000340: 0c4c 453d 0667 a73d 1c8a b43d 6fb9 a53d
00000350: fe76 a13d 3ddb 593d fe05 1dbd a650 04bd
00000360: 2b8b 773c 8943 3e3c 65c6 44bd e285 2b3d
00000370: f872 34bd a74a b8bb 89d2 893d 9e6b 70bd
00000380: d007 613d 126c 8abd f5bc 38bd 0b39 28bd
00000390: 6cfb 1fbd 5293 433d 8014 2ebd 866a b3bd
000003a0: a9a4 983d c31a 7a3d 04a5 65bb 969d 943d
000003b0: 2c01 44bb 7ddb a13c ca36 d5bb 61d7 c7bc
000003c0: 0376 913d bd42 143d ea8d b0bb 320d 10bd
000003d0: e1c6 233d b080 68bd 9bd4 40bc 6585 d0bc
000003e0: 8b86 873d 4394 bebd 51e5 8d3b 000b cfbd
000003f0: 32ed 543d 8e2a 53bd fb38 933d 2827 aebd

layers.0.f_def.weight f4 [1, 128]
0.036805842 -0.04188574 0.12921661 0.0019894459 0.060185194 0.033419404 -0.015979644 -0.047130372
-0.123958044 0.012090066 0.12557304 0.04878421 -0.10615595 -0.031775754 -0.0058012716 -0.025223032
0.09710934 -0.0588365 0.07518358 -0.023726426 0.117795795 -0.0013465282 -0.094030805 -0.08013466
0.12187273 -0.022835499 0.041266955 -0.010910507 -0.11165408 0.01744388 -0.14651883 0.07053622
-0.03283304 0.06291042 -0.14296117 -0.02458274 -0.010313632 -0.00060714764 0.06590293 0.029411929
0.09502788 0.011780506 -0.06752224 0.13337214 -0.008468963 0.009042093 0.08830347 -0.012714121
0.026647376 0.041251834 -0.002730125 0.08735556 0.06491156 -0.09683532 -0.09398874 -0.08571688
0.083706066 0.10176681 0.043482587 -0.0032283107 0.018764652 -0.14644085 -0.046984605 -0.06989613
0.04046401 -0.039006777 -0.114349015 -0.03343467 0.07592681 -0.012043181 -0.035831116 -0.025084637
0.10652297 -0.053509105 0.09775523 -0.06414463 -0.01795269 -0.03309469 -0.049978267 -0.09649473
0.040249176 -0.0637928 -0.13863954 -0.16245365 0.09374795 0.047193218 -0.07551917 -0.14857051
-0.048678704 0.08684566 -0.06538978 -0.02453124 -0.008459712 0.015421373 -0.004426359 -0.13594028
-0.036393616 0.06383136 0.058269437 0.086901605 -0.021750093 -0.0106840925 0.002876966 -0.006296562
0.14312607 -0.118483014 -0.17310469 0.016077505 -0.00023130575 0.022645097 -0.07387596 0.011460521
0.015167246 0.11933686 -0.062032603 -0.0632586 0.09242748 0.03304943 -0.07629636 0.036847964
-0.00784563 0.013514351 0.053018093 0.049743176 -0.039793923 0.043536812 0.0761188 0.07592604
00000000: b9c1 163d 6290 2bbd 5c51 043e 5d61 023b
00000010: c084 763d c9e2 083d bee7 82bc c70b 41bd
00000020: b7dd fdbd 6a15 463c 3896 003e f4d1 473d
00000030: 4a68 d9bd 4b27 02bd 9818 bebb 88a0 cebc
00000040: 43e1 c63d 8bfe 70bd d9f9 993d ec5d c2bc
00000050: ec3e f13d fd7d b0ba 3993 c0bd a41d a4bd
00000060: 6998 f93d 8311 bbbc 8a07 293d fcc1 32bc
00000070: e5aa e4bd 78e6 8e3c 0809 16be 4b75 903d
00000080: f07b 06bd 2ed7 803d 6a64 12be be61 c9bc
00000090: 82fa 28bc fd28 1fba 1ef8 863d 49f1 f03c
000000a0: fa9d c23d 0603 413c 1a49 8abd b592 083e
000000b0: 68c1 0abc 4925 143c 73d8 b43d e34e 50bc
000000c0: 994b da3c aff7 283d e6eb 32bb 79e7 b23d
000000d0: 5af0 843d 9951 c6bd 2b7d c0bd 558c afbd
000000e0: 166e ab3d 1e6b d03d cc1a 323d 1192 53bb
000000f0: 54b8 993c 97f4 15be ee72 40bd b425 8fbd
00000100: 97bd 253d 92c5 1fbd d12f eabd cbf2 08bd
00000110: 847f 9b3d c350 45bc a6c3 12bd 4c7e cdbc
00000120: b728 da3d 5d2c 5bbd e533 c83d 435e 83bd
00000130: 8511 93bc 4c8e 07bd 03b6 4cbd 079f c5bd
00000140: 52dc 243d cda5 82bd 86f7 0dbe 405a 26be
00000150: edfe bf3d ad4d 413d cba9 9abd de22 18be
00000160: 5263 47bd 23dc b13d 14eb 85bd bdf5 c8bc
00000170: 9b9a 0abc eda9 7c3c fe0a 91bb ee33 0bbe
00000180: 7911 15bd 04ba 823d efab 6e3d 78f9 b13d
00000190: 402d b2bc 550c 2fbc 7b8b 3c3b 6453 cebb
000001a0: a48f 123e 39a7 f2bd 5b42 31be f9b4 833c
000001b0: aa8a 72b9 3682 b93c 484c 97bd e9c4 3b3c
000001c0: 0a80 783c e266 f43d e615 7ebd ba8d 81bd
000001d0: 9e4a bd3d d75e 073d 4441 9cbd e4ed 163d
000001e0: f58a 00bc 4c6b 5d3c 8029 593d 80bf 4b3d
000001f0: f4fe 22bd a853 323d 2ce4 9b3d 1d7f 9b3d

layers.0.W_self.weight f4 [128, 128]
-0.060797278 -0.01550602 0.088405214 -0.025581993 -0.06084365 -0.0417009 -0.04694818 0.032631777
-0.0010009247 0.07282707 0.062428273 -0.021427065 0.022471882 -0.10484387 -0.007888585 -0.004407644
-0.0061191325 0.018899424 -0.02930356 -0.0077762143 -0.061381575 -0.07226871 -0.036399167 0.107248686
0.0009367961 0.11424248 -0.08293859 -0.052216593 0.07199232 -0.02272139 0.06513796 -0.0032501884
0.06571955 -0.09452633 0.07792229 -0.058299493 0.0481496 0.09080984 0.037715886 -0.029966218
-0.0050111995 0.011935569 -0.03207295 0.07963084 0.014912082 -0.039413337 0.042260922 0.03342574
-0.006367331 0.04447635 0.037044033 -0.030155117 -0.023920547 0.038656887 -0.046362516 -0.09406224
0.038804572 0.076276116 -0.04108842 -0.005185096 0.100565955 0.029924836 0.01782586 -0.0068117706
-0.002823547 0.12061981 -0.09372104 -0.05559526 -0.0068159443 0.008254031 0.058803603 -0.035829756
0.047315035 0.052195452 -0.060405873 0.0071568685 0.023886306 -0.08905983 0.08214344 0.10590103
-0.05494409 0.051477212 0.010035597 0.053860843 -0.023432465 -0.03158986 0.04967545 0.005652633
-0.113966785 -0.048310183 0.05167259 -0.025678687 -0.12987837 0.08575861 0.08349984 -0.012664186
0.0117225805 -0.0002900872 -0.07746832 0.07574464 0.0037113777 -0.052862227 -0.06269109 0.06765141
0.023695612 0.043143895 0.044963583 -0.00893146 0.035108984 -0.0011756152 0.0071573877 -0.035015795
-0.106999315 -0.034172893 0.09676523 -0.0006645289 -0.089770816 -0.046617676 0.057083465 -0.03843592
-0.041755375 0.08797008 -0.07428798 0.006630445 -0.05679597 -0.009073112 -0.012326113 0.056091417
0.056981314 -0.049490582 -0.062993035 -0.00763404 0.080722556 0.06194548 -0.0058683977 0.09582534
0.030440826 -0.03547061 -0.08151116 -0.06814707 0.047886983 -0.016082669 -0.0329316 0.03837958
-0.05633042 0.084729396 -0.017110553 0.0064127706 0.051872097 -0.06185843 0.04238234 0.030003777
0.09082755 0.022233728 -0.06676871 0.0028752359 0.025859904 -0.00044362215 -0.043138612 -0.05326182
-0.05027538 0.059177928 0.0033500777 -0.07657155 0.021599159 -0.055942237 0.060225487 0.006463114
-0.028416691 0.08390338 0.012733457 -0.03490605 -0.03106493 0.044321157 0.04422547 -0.013243937
-0.010773896 -0.05580881 -0.035128728 -0.011471323 0.07697848 -0.064611085 0.028534178 -0.015148077
0.07130034 0.078828186 0.061447017 0.054746587 -0.022154672 -0.013846484 -0.08196614 0.015211
0.05490802 0.0114549035 -0.06687074 0.051326793 -0.0016092826 0.06247664 -0.085024305 -0.043043304
-0.015080739 -0.06479581 -0.018338904 -0.055859566 0.09423751 -0.06655259 0.082405396 -0.07088304
0.02403832 -0.01775376 -0.08875404 -0.001501542 0.051551625 0.07324786 -0.05542125 0.027626012
-0.09533175 -0.021485094 -0.015699934 0.08310659 -0.056420892 -0.08448522 -0.04506536 -0.015259127
0.033594303 -0.092015095 -0.047882497 0.07472371 -0.01495067 -0.09022857 -0.05401585 -0.0011591229
0.07081302 -0.030466251 -0.05291517 -0.032548152 0.060187254 0.046532422 0.020287741 -0.026210668
-0.059877574 -0.01150658 0.0051345653 -0.079870656 0.03743202 -0.06639378 -0.05301928 0.04246916
-0.006222076 0.04386889 0.017875217 0.038857453 0.021081753 0.009106183 0.042196427 -0.02757317
00000000: 9106 79bd f60c 7ebc cb0d b53d 5491 d1bc
00000010: 3137 79bd 90ce 2abd bc4c 40bd e6a8 053d
00000020: 7631 83ba 5c26 953d cab4 7f3d d087 afbc
00000030: f416 b83c 62b8 d6bd 203f 01bc ff6d 90bb
00000040: 0183 c8bb f7d2 9a3c 050e f0bc 9dcf febb
00000050: 3f6b 7bbd 9e01 94bd 4b17 15bd 33a5 db3d
00000060: 5293 753a f6f7 e93d b5db a9bd 11e1 55bd
00000070: b670 933d 3522 babc 0d67 853d 1d01 55bb
00000080: f997 863d 0597 c1bd b995 9f3d 73cb 6ebd
00000090: 8438 453d 82fa b93d f97b 1a3d b77b f5bc
000000a0: fd34 a4bb 688d 433c ed5e 03bd 7e15 a33d
000000b0: ce51 743c e16f 21bd ca19 2d3d 6ee9 083d
000000c0: 0ba5 d0bb d52c 363d 7cbb 173d dd07 f7bc
000000d0: 06f5 c3bc af56 1e3d 9fe6 3dbd b4a3 c0bd
000000e0: 8bf1 1e3d a736 9c3d 554c 28bd bde7 a9bb
000000f0: 86f5 cd3d ee24 f53c 8a07 923c 4635 dfbb
00000100: 420b 39bb 8507 f73d d1f0 bfbd dbb7 63bd
00000110: 4958 dfbb ea3b 073c 0cdc 703d 39c2 12bd
00000120: 69cd 413d e6ca 553d 266c 77bd 2a84 ea3b
00000130: 37ad c33c 0065 b6bd d23a a83d a4e2 d83d
00000140: 0e0d 61bd c5d9 523d 586c 243c 309d 5c3d
00000150: 71f5 bfbc 5e64 01bd 7c78 4b3d b939 b93b
00000160: 6b67 e9bd e6e0 45bd a3a6 533d 1c5c d2bc
00000170: d6fe 04be 36a2 af3d f701 ab3d 727d 4fbc
00000180: 1110 403c d816 98b9 b6a7 9ebd 0120 9b3d
00000190: 963a 733b 1086 58bd 3064 80bd d38c 8a3d
000001a0: 4d1d c23c a7b7 303d bc2b 383d 4255 12bc
000001b0: 70ce 0f3d 1a17 9aba 8588 ea3b b96c 0fbd
000001c0: 7522 dbbd e0f8 0bbd d92c c63d c833 2eba
000001d0: c3d9 b7bd 2df2 3ebd 5ad0 693d fc6e 1dbd
000001e0: af07 2bbd a829 b43d 4c24 98bd 3444 d93b
000001f0: e4a2 68bd 64a7 14bc 77f3 49bc 1dc0 653d
00000200: 3d65 693d a3b6 4abd 7e02 81bd f826 fabb
00000210: de51 a53d 8bba 7d3d b04b c0bb 1340 c43d
00000220: 0a5f f93c a149 11bd 53ef a6bd b190 8bbd
00000230: 2425 443d cdbf 83bc 49e3 06bd e833 1d3d
00000240: baba 66bd 9b86 ad3d 6e2b 8cbc 3822 d23b
00000250: d677 543d 445f 7dbd 1b99 2d3d 7bca f53c
00000260: cb03 ba3d 8223 b63c 09be 88bd 746e 3c3b
00000270: 26d8 d33c f595 e8b9 1db2 30bd 1129 5abd
00000280: 8fed 4dbd 8e64 723d fa8c 5b3b 8bd1 9cbd
00000290: b8f0 b03c b023 65bd 00af 763d 88c8 d33b
000002a0: 1fca e8bc 89d5 ab3d fd9f 503c a5f9 0ebd
000002b0: e17b febc 1a8a 353d c425 353d 19fd 58bc
000002c0: ff84 30bc c797 64bd 24e3 0fbd 37f2 3bbc
000002d0: e5a6 9d3d d152 84bd 82c0 e93c a42f 78bc
000002e0: ea05 923d ac70 a13d deaf 7b3d f53d 603d
000002f0: b77d b5bc 5ddc 62bc dddd a7bd 8f37 793c
00000300: 3be7 603d 59ad 3b3c 87f3 88bd 0b3c 523d
00000310: 90ee d2ba 81e7 7f3d 3921 aebd 2d4e 30bd
00000320: 3415 77bc aab3 84bd 783b 96bc 00cd 64bd
00000330: 98ff c03d b94c 88bd 29c4 a83d 212b 91bd
00000340: 03ec c43c 5570 91bc aec4 b5bd 64cf c4ba
00000350: cc27 533d f902 963d 6501 63bd f24f e23c
00000360: 4b3d c3bd 8201 b0bc 269d 80bc ca33 aa3d
00000370: 9819 67bd 9606 adbd 7496 38bd 6b01 7abc
00000380: 2e9a 093d 6972 bcbd 7020 44bd bf08 993d
00000390: a8f3 74bc c2c9 b8bd b93f 5dbd b6ed 97ba
000003a0: 6b06 913d 5c94 f9bc 94bd 58bd 3651 05bd
000003b0: e986 763d c898 3e3d 7a32 a63c c1b7 d6bc
000003c0: 3042 75bd 1886 3cbc db3f a83b 3a93 a3bd
000003d0: 5152 193d 76f9 87bd bf2a 59bd 24f4 2d3d
000003e0: 8ee2 cbbb ddaf 333d 0c6f 923c fe28 1f3d
000003f0: a4b3 ac3c 1a32 153c 29d6 2c3d 21e1 e1bc
